results/ppo/My Behavior/My Behavior-576.onnx (onnx, 71807 bytes, 6 tensors)

network_body._body_endoder.seq_layers.0.weight f4 [128, 1]
000000 7b 16 52 3f 53 12 1a bf 30 6b 1e bf c9 da 82 be
       0.8206555 -0.6018421 -0.61882305 -0.25557545
000010 82 d0 e3 bf 34 6c 0c c0 d5 f2 69 3d a7 57 dd 3f
       -1.7798007 -2.1941042 0.05711635 1.7292374
000020 3e 27 ed 3e eb d7 ac be 60 c7 d0 bf 1d 71 a0 be
       0.46319002 -0.33758482 -1.6310844 -0.313363
000030 35 9d b5 bf 58 d2 b0 be 7a 83 2e 3f 3f 8f a8 bf
       -1.4188601 -0.3453548 0.6816937 -1.3168715
000040 dd d7 ed 3e c6 85 12 bd e9 62 a3 3f 25 f4 b8 be
       0.46453753 -0.035772108 1.276456 -0.36123767
000050 94 c7 85 bf 00 f6 a6 3d c4 ab 89 3f 4c 7b 61 be
       -1.0451531 0.081523895 1.0755544 -0.2201969
000060 ba 6b 87 bf a2 49 4b bd 05 35 0f bf 73 f5 ad 3f
       -1.057975 -0.04963077 -0.55940276 1.359053
000070 ff 55 41 bf 88 68 3c bd e7 5d 35 3e 83 e0 cd 3f
       -0.75521845 -0.045998126 0.17711602 1.608414
000080 08 22 d3 3f 6f 7a 26 bf a5 7f ed bf 5d c2 e9 3f
       1.649476 -0.6503057 -1.8554579 1.826244
000090 06 be 23 bf 77 95 ba bf b1 d8 65 bf e5 c0 38 bf
       -0.6396183 -1.4576863 -0.8978377 -0.72169334
0000a0 b4 35 c0 be 48 73 1c bf ed 92 7e 3f d8 7a c5 3e
       -0.37540972 -0.61113405 0.9944294 0.38570285
0000b0 e9 36 b1 3e 37 6e 03 c0 b5 b6 cc be 62 91 87 3f
       0.34612206 -2.053602 -0.39983144 1.0591242
0000c0 78 54 23 c0 40 95 9b 3e 85 13 82 bf d4 47 97 bf
       -2.5520306 0.30387306 -1.0162207 -1.1818795
0000d0 f7 35 a1 bf f2 4e 0b 3f 82 74 ea 3f 94 1f dc 3e
       -1.2594594 0.54417336 1.8316805 0.42992842
0000e0 5a 25 73 bf 2a 83 0a c0 11 ec 2d bf 34 c0 45 bd
       -0.9497887 -2.1642556 -0.67938334 -0.048279002
0000f0 05 da 7d 3f 5b 13 e1 be c2 94 0e 3f 69 45 23 3f
       0.99160796 -0.4396008 0.55695736 0.63777786
000100 4a c0 33 3f c7 64 d3 3f 5f 94 35 3f 0a ac 5d bf
       0.70215285 1.651513 0.7092952 -0.86590636
000110 90 19 65 be ef f2 12 40 ce 5e a5 bf 66 98 c1 3d
       -0.22373033 2.2960775 -1.2919557 0.09452896
000120 98 6b 02 bf f7 1f 27 be fd 00 1e 3e 2a b3 24 3f
       -0.50945425 -0.16320787 0.15430064 0.6433588
000130 ff b5 c2 be bf e3 33 bf b6 10 80 3e ce 2f 78 3f
       -0.38029477 -0.7026939 0.2501275 0.96947944
000140 9c 7d 15 3f db fb 78 3f 3d ca 66 3e e8 a8 81 3f
       0.5839479 0.972593 0.22538085 1.0129671
000150 ff 08 84 3f 24 51 70 3e ef 06 61 3f bd 5a b8 3f
       1.0315245 0.23468453 0.87901205 1.4402691
000160 a2 44 02 bf 4a 61 fe 3f 59 b4 c8 3e c0 3d 30 bf
       -0.50885975 1.987344 0.39200094 -0.68844223
000170 b1 70 82 be f2 2b a9 3e 48 54 6a bf 89 e9 b2 bf
       -0.25476602 0.3304134 -0.91534853 -1.3977519
000180 8e c9 8c 3e 20 01 5b 3f 99 ca 17 bf 7d 00 9a 3f
       0.27497524 0.8554859 -0.59293514 1.2031399
000190 c4 d5 33 3f 43 91 52 3e 43 6f d8 3e 2b 74 32 bf
       0.70248055 0.20563225 0.42272386 -0.6970851
0001a0 52 3b 8d 3c d7 e3 9b bc 70 2c ad 3f 65 88 1c bd
       0.0172402 -0.019029541 1.3529186 -0.038216013
0001b0 78 61 be bf 88 54 f1 be d7 bd 07 bf 5f a3 c5 3f
       -1.4873495 -0.47134805 -0.5302405 1.5440482
0001c0 e1 2b a5 3e 72 f9 3b 3f dc 90 d4 3d 74 74 69 bf
       0.3226004 0.734275 0.10379192 -0.9119332
0001d0 cb 13 e6 3f 1c ed 01 3f 98 ad 47 bf e8 b6 44 bf
       1.797479 0.50752425 -0.7799926 -0.7684159
0001e0 d5 6d b2 be 2c c1 1a be 98 dc 63 3f 17 69 63 3e
       -0.3484942 -0.15112752 0.89008474 0.22208057
0001f0 6e 86 0d 3f e2 61 0f c0 18 30 11 bf 6c 97 8c 3f
       0.5528325 -2.2403493 -0.5671401 1.098371

network_body._body_endoder.seq_layers.0.bias f4 [128]
000000 00 00 00 00 00 00 00 00 00 00 00 00 00 00 00 00
       0.0 0.0 0.0 0.0
000010 00 00 00 00 00 00 00 00 00 00 00 00 00 00 00 00
       0.0 0.0 0.0 0.0
000020 00 00 00 00 00 00 00 00 00 00 00 00 00 00 00 00
       0.0 0.0 0.0 0.0
000030 00 00 00 00 00 00 00 00 00 00 00 00 00 00 00 00
       0.0 0.0 0.0 0.0
000040 00 00 00 00 00 00 00 00 00 00 00 00 00 00 00 00
       0.0 0.0 0.0 0.0
000050 00 00 00 00 00 00 00 00 00 00 00 00 00 00 00 00
       0.0 0.0 0.0 0.0
000060 00 00 00 00 00 00 00 00 00 00 00 00 00 00 00 00
       0.0 0.0 0.0 0.0
000070 00 00 00 00 00 00 00 00 00 00 00 00 00 00 00 00
       0.0 0.0 0.0 0.0
000080 00 00 00 00 00 00 00 00 00 00 00 00 00 00 00 00
       0.0 0.0 0.0 0.0
000090 00 00 00 00 00 00 00 00 00 00 00 00 00 00 00 00
       0.0 0.0 0.0 0.0
0000a0 00 00 00 00 00 00 00 00 00 00 00 00 00 00 00 00
       0.0 0.0 0.0 0.0
0000b0 00 00 00 00 00 00 00 00 00 00 00 00 00 00 00 00
       0.0 0.0 0.0 0.0
0000c0 00 00 00 00 00 00 00 00 00 00 00 00 00 00 00 00
       0.0 0.0 0.0 0.0
0000d0 00 00 00 00 00 00 00 00 00 00 00 00 00 00 00 00
       0.0 0.0 0.0 0.0
0000e0 00 00 00 00 00 00 00 00 00 00 00 00 00 00 00 00
       0.0 0.0 0.0 0.0
0000f0 00 00 00 00 00 00 00 00 00 00 00 00 00 00 00 00
       0.0 0.0 0.0 0.0
000100 00 00 00 00 00 00 00 00 00 00 00 00 00 00 00 00
       0.0 0.0 0.0 0.0
000110 00 00 00 00 00 00 00 00 00 00 00 00 00 00 00 00
       0.0 0.0 0.0 0.0
000120 00 00 00 00 00 00 00 00 00 00 00 00 00 00 00 00
       0.0 0.0 0.0 0.0
000130 00 00 00 00 00 00 00 00 00 00 00 00 00 00 00 00
       0.0 0.0 0.0 0.0
000140 00 00 00 00 00 00 00 00 00 00 00 00 00 00 00 00
       0.0 0.0 0.0 0.0
000150 00 00 00 00 00 00 00 00 00 00 00 00 00 00 00 00
       0.0 0.0 0.0 0.0
000160 00 00 00 00 00 00 00 00 00 00 00 00 00 00 00 00
       0.0 0.0 0.0 0.0
000170 00 00 00 00 00 00 00 00 00 00 00 00 00 00 00 00
       0.0 0.0 0.0 0.0
000180 00 00 00 00 00 00 00 00 00 00 00 00 00 00 00 00
       0.0 0.0 0.0 0.0
000190 00 00 00 00 00 00 00 00 00 00 00 00 00 00 00 00
       0.0 0.0 0.0 0.0
0001a0 00 00 00 00 00 00 00 00 00 00 00 00 00 00 00 00
       0.0 0.0 0.0 0.0
0001b0 00 00 00 00 00 00 00 00 00 00 00 00 00 00 00 00
       0.0 0.0 0.0 0.0
0001c0 00 00 00 00 00 00 00 00 00 00 00 00 00 00 00 00
       0.0 0.0 0.0 0.0
0001d0 00 00 00 00 00 00 00 00 00 00 00 00 00 00 00 00
       0.0 0.0 0.0 0.0
0001e0 00 00 00 00 00 00 00 00 00 00 00 00 00 00 00 00
       0.0 0.0 0.0 0.0
0001f0 00 00 00 00 00 00 00 00 00 00 00 00 00 00 00 00
       0.0 0.0 0.0 0.0

network_body._body_endoder.seq_layers.2.weight f4 [128, 128]
000000 10 35 12 3d 65 ee c5 bc 8c 57 bf bd 93 e2 d6 3d
       0.035695136 -0.024161527 -0.0934287 0.10492434
000010 be 0e e7 bc 24 89 49 be 56 fd a1 3d 70 11 be 3d
       -0.028205272 -0.19681221 0.07909648 0.0928067
000020 d3 82 c4 bb 05 a5 a6 3c 2a cf ef 3c 38 2a 52 3d
       -0.005997041 0.02034236 0.029273588 0.051309794
000030 19 b7 bc 3c 02 d1 23 3d 70 7d 72 3d 73 9d 00 3d
       0.023036527 0.039994247 0.059201658 0.031400155
000040 44 a9 aa bd 80 2a d6 bd 0b 6a c4 bd 60 e2 19 bd
       -0.08333066 -0.10457325 -0.095905386 -0.037569404
000050 80 3d 8b 3d 49 36 3e bd 85 f6 d6 bd e8 c8 10 bd
       0.067988396 -0.04643849 -0.104962386 -0.03534785
000060 ae 18 05 3e 49 0b 60 bd 66 04 5f 3d 39 b6 ee bd
       0.12997696 -0.054698262 0.054447554 -0.1165585
000070 90 11 c8 3d df e9 90 bd 9f 13 24 3e ce 76 77 3d
       0.09768975 -0.07075857 0.1602311 0.060416035
000080 8b e0 94 3b e8 03 02 3c 8c 12 bb 3d 1f 22 6c be
       0.004543369 0.007935502 0.09134397 -0.23059891
000090 3e dc e6 3c e6 b8 ff bd 1d 73 20 3d ad 1e 8d ba
       0.028181192 -0.124864385 0.03917228 -0.0010766588
0000a0 a7 b5 0d bd 02 08 8a 3d c3 f1 67 3e 6f 3e df bd
       -0.034597065 0.067398086 0.22650819 -0.1090058
0000b0 43 b5 1a 3d e8 89 f0 bc ce 7b bf 3d c9 75 3b 3b
       0.03777052 -0.029362634 0.09349786 0.002860414
0000c0 0d b2 8a bd 01 6a da 3c 45 e2 55 bd 44 1d 17 3e
       -0.06772242 0.026661875 -0.05221774 0.14757258
0000d0 e3 39 32 3d 1f 7f c5 3d 3e 43 80 3d 24 82 2d bd
       0.043512236 0.09643387 0.062628254 -0.04236044
0000e0 dd 1b b7 bd cc f3 76 3d 70 71 06 bc 9f 62 60 be
       -0.089408614 0.060291097 -0.008205757 -0.21912621
0000f0 48 c0 c0 bd a4 52 64 3c dd 3f c6 3c 95 bf 4c bd
       -0.09411675 0.013935719 0.024200374 -0.049987394
000100 82 85 f7 bd b5 41 04 bd f2 b8 f0 bc a3 e4 07 3c
       -0.120860115 -0.032289226 -0.029385064 0.008294257
000110 80 72 d6 3c 87 94 97 3b 79 b2 f8 3b 05 41 5a 3d
       0.026177645 0.00462586 0.007589635 0.053284664
000120 05 6c de 3d db 98 35 bd 87 0e 8e bd c3 47 2f bd
       0.10860447 -0.044335227 -0.069363646 -0.042793047
000130 ff d5 a8 3d e5 58 18 be b7 3a 9f 3d 0f 2a ef 3d
       0.082439415 -0.1487766 0.07774871 0.11677944
000140 da ca 79 3d 2d 2e a3 3d 35 11 75 3d c4 07 02 bd
       0.06098447 0.07967792 0.059830863 -0.031745687
000150 80 55 7d bd 21 99 7e 3c 73 4f cc bd 1e 0d af ba
       -0.061849117 0.015539438 -0.09976091 -0.001335535
000160 f0 db 08 3d e7 ac 1e 3d f7 a2 2b 3d ed 02 e8 3d
       0.033412874 0.03873911 0.041903462 0.11328683
000170 17 a5 be 3d 86 03 c4 ba 45 5a 6c 3c ea 68 80 3d
       0.09308832 -0.0014954663 0.014425819 0.06270011
000180 af 17 ad bd 80 5f 3e 3e 21 97 98 bd 5c 6c 02 3d
       -0.08451783 0.18591118 -0.074507006 0.03184162
000190 97 07 82 bd 97 1c c4 bb ba 3c c3 bc 23 48 b4 bd
       -0.06349104 -0.0059848535 -0.023832668 -0.088028215
0001a0 b1 00 cc bc 0d 4d 02 3e 16 7b aa 3d 1c 8f 16 3e
       -0.024902673 0.12724705 0.08324258 0.1470303
0001b0 eb 6f 4b bd 96 bd 87 3d 6e 54 43 be 13 95 a2 3c
       -0.04966728 0.066279575 -0.19075176 0.019846475
0001c0 83 fd 10 bd a5 52 4a 3e 9a 8a 1f be 02 af 23 3e
       -0.035398018 0.19758089 -0.15580216 0.15984729
0001d0 02 ea 10 3e ad 5b 86 3d 9f 77 1b 3e 70 94 35 bd
       0.14151767 0.065604545 0.1518235 -0.044331014
0001e0 ae d7 bd 3d 11 26 5e bc d5 fe 5d bd 23 41 0f 3e
       0.09269653 -0.01355888 -0.054198105 0.13989691
0001f0 80 ba 03 be b6 ed 50 3e e3 b4 b6 3d 75 84 39 bd
       -0.12864113 0.2040318 0.0892122 -0.045292336
000200 c8 1e 1b bc 40 e7 27 3d 7b 3c dd 3d bd 24 7b 3d
       -0.009467788 0.04099202 0.10802551 0.061314333
000210 d4 ee 9b bd 68 42 73 3d ab b2 ad bd ec cd 4a bc
       -0.07613912 0.0593895 -0.08481344 -0.012378197
000220 41 e4 e3 3c e4 4f da bb 24 8a 4d bd be f7 a0 3c
       0.0278188 -0.0066623557 -0.05018057 0.019649383
000230 ca 84 ff 3c 45 e0 b2 bd 38 b4 2d 3e a8 5b dd bd
       0.031191248 -0.08734182 0.16963279 -0.10808498
000240 ac 42 13 be c2 09 98 bc 5f ba 1b 3e a8 99 a1 3c
       -0.14380902 -0.01855934 0.15207814 0.01972659
000250 42 d1 b5 bd b2 fb fe bd 8e bc 18 bc b6 bb d4 3d
       -0.088778034 -0.12450351 -0.009322299 0.103873655
000260 c5 3f 1c 3d 15 80 bc bc be a6 20 3d d2 99 78 3c
       0.038146753 -0.023010293 0.039221518 0.015173392
000270 b2 01 03 3c 2d 2e 59 bd 76 5b 28 bd 88 af a1 3c
       0.00799601 -0.053022552 -0.04110285 0.01973702
000280 91 c2 7f 3c 2e 2e 7b bd eb ed 14 be f2 cf f4 3c
       0.015610353 -0.061323337 -0.14543884 0.029884312
000290 a7 10 0c 3d 90 f9 31 bd 2a e2 b8 3d b4 eb a0 3a
       0.03419557 -0.043450892 0.09027512 0.0012277276
0002a0 00 21 ae 3d 9f d8 a9 bc f9 eb 8b 3d 06 18 c6 3b
       0.08502388 -0.020733176 0.068321176 0.0060453443
0002b0 33 27 97 3d cc 21 44 bc 77 a0 a1 3d a1 e0 0a be
       0.073805235 -0.011970948 0.07891934 -0.13562252
0002c0 f0 6b 6f 3d 22 c3 b0 3d dc 2e e9 3c 0f 9b 52 3d
       0.058452547 0.08630969 0.028464727 0.051417407
0002d0 fc 86 d7 bd e0 e0 69 bd 26 4c 59 3d 8c 97 85 3d
       -0.10523793 -0.057099223 0.053051136 0.06523046
0002e0 4a 16 06 3d 47 0a a9 bd a8 df 0d bd c9 44 b0 3c
       0.0327361 -0.082539134 -0.034637123 0.021517174
0002f0 0f af 73 3d 87 68 3f 3e db 6e bd 3a 88 0e 9e 3d
       0.05949312 0.18692218 0.0014452593 0.07717615
000300 2e b0 1e be ce 0f 70 be 52 d6 1c 3d 36 a8 2a 3d
       -0.15496895 -0.23443529 0.03829033 0.041664325
000310 26 24 04 3e f4 db f2 bd ea 04 ff 3d e4 13 88 bd
       0.12904415 -0.11858359 0.12452109 -0.06644419
000320 bd 78 82 be 6f 21 0c 3e e2 4d 3b bd 2d 76 2a 3d
       -0.2548274 0.13684629 -0.04572857 0.041616607
000330 84 a9 ef 3d a0 50 b1 bd bd 39 56 3d d4 f0 e9 bc
       0.117022544 -0.08657956 0.052301157 -0.028557219
000340 72 34 a8 bb 68 8e 87 3d 41 da 51 bd d5 0f 60 bd
       -0.005133205 0.06618959 -0.051233534 -0.0547026
000350 b0 dc a0 bd 3b b6 36 bd 39 83 c2 bd d7 10 81 bc
       -0.07854593 -0.044607382 -0.09497685 -0.0157551
000360 3b 6c 07 3e c9 f6 e1 bc fd 05 09 3c 73 73 5b bd
       0.1322488 -0.027583497 0.008363244 -0.053576898
000370 7d a7 2c bc d6 67 b3 bc da 70 7a 3d b3 62 93 bb
       -0.010537979 -0.021900099 0.06114278 -0.00449785
000380 c8 32 8f 3c f2 2d f2 bd a8 86 51 bd 03 e2 c4 3c
       0.01748027 -0.118251696 -0.05115381 0.024033552
000390 a1 6a 30 3b f8 9b 60 bd 5a 89 4a bb 00 2c 12 bd
       0.0026919025 -0.054836243 -0.0030904622 -0.035686493
0003a0 fe de 5f bd 48 dd 0d bc 77 06 25 be f5 cd 23 3e
       -0.05465602 -0.008658715 -0.16115747 0.15996535
0003b0 8c 9e 16 be 91 bd 34 bd 97 eb be bd f2 1a 48 bd
       -0.14708918 -0.044126097 -0.09322279 -0.048853822
0003c0 80 34 3f bc da 21 c3 3c b4 f9 c0 bd 29 c2 ae 3d
       -0.011670232 0.023819853 -0.09422627 0.08533127
0003d0 84 94 a9 3c d3 b1 1d 3e 0a 05 0e be ec 4c 7f bd
       0.0207007 0.15399866 -0.1386911 -0.062329218
0003e0 fe 4d 89 bd 0d 4a a3 bd 27 73 ae 3c 01 54 ea bd
       -0.06704329 -0.079731084 0.021295143 -0.11441804
0003f0 12 31 f2 bd 70 0e ec 3d aa 7f 16 3d 6f 77 41 bd
       -0.11825766 0.11526191 0.036742844 -0.04723304

network_body._body_endoder.seq_layers.2.bias f4 [128]
000000 00 00 00 00 00 00 00 00 00 00 00 00 00 00 00 00
       0.0 0.0 0.0 0.0
000010 00 00 00 00 00 00 00 00 00 00 00 00 00 00 00 00
       0.0 0.0 0.0 0.0
000020 00 00 00 00 00 00 00 00 00 00 00 00 00 00 00 00
       0.0 0.0 0.0 0.0
000030 00 00 00 00 00 00 00 00 00 00 00 00 00 00 00 00
       0.0 0.0 0.0 0.0
000040 00 00 00 00 00 00 00 00 00 00 00 00 00 00 00 00
       0.0 0.0 0.0 0.0
000050 00 00 00 00 00 00 00 00 00 00 00 00 00 00 00 00
       0.0 0.0 0.0 0.0
000060 00 00 00 00 00 00 00 00 00 00 00 00 00 00 00 00
       0.0 0.0 0.0 0.0
000070 00 00 00 00 00 00 00 00 00 00 00 00 00 00 00 00
       0.0 0.0 0.0 0.0
000080 00 00 00 00 00 00 00 00 00 00 00 00 00 00 00 00
       0.0 0.0 0.0 0.0
000090 00 00 00 00 00 00 00 00 00 00 00 00 00 00 00 00
       0.0 0.0 0.0 0.0
0000a0 00 00 00 00 00 00 00 00 00 00 00 00 00 00 00 00
       0.0 0.0 0.0 0.0
0000b0 00 00 00 00 00 00 00 00 00 00 00 00 00 00 00 00
       0.0 0.0 0.0 0.0
0000c0 00 00 00 00 00 00 00 00 00 00 00 00 00 00 00 00
       0.0 0.0 0.0 0.0
0000d0 00 00 00 00 00 00 00 00 00 00 00 00 00 00 00 00
       0.0 0.0 0.0 0.0
0000e0 00 00 00 00 00 00 00 00 00 00 00 00 00 00 00 00
       0.0 0.0 0.0 0.0
0000f0 00 00 00 00 00 00 00 00 00 00 00 00 00 00 00 00
       0.0 0.0 0.0 0.0
000100 00 00 00 00 00 00 00 00 00 00 00 00 00 00 00 00
       0.0 0.0 0.0 0.0
000110 00 00 00 00 00 00 00 00 00 00 00 00 00 00 00 00
       0.0 0.0 0.0 0.0
000120 00 00 00 00 00 00 00 00 00 00 00 00 00 00 00 00
       0.0 0.0 0.0 0.0
000130 00 00 00 00 00 00 00 00 00 00 00 00 00 00 00 00
       0.0 0.0 0.0 0.0
000140 00 00 00 00 00 00 00 00 00 00 00 00 00 00 00 00
       0.0 0.0 0.0 0.0
000150 00 00 00 00 00 00 00 00 00 00 00 00 00 00 00 00
       0.0 0.0 0.0 0.0
000160 00 00 00 00 00 00 00 00 00 00 00 00 00 00 00 00
       0.0 0.0 0.0 0.0
000170 00 00 00 00 00 00 00 00 00 00 00 00 00 00 00 00
       0.0 0.0 0.0 0.0
000180 00 00 00 00 00 00 00 00 00 00 00 00 00 00 00 00
       0.0 0.0 0.0 0.0
000190 00 00 00 00 00 00 00 00 00 00 00 00 00 00 00 00
       0.0 0.0 0.0 0.0
0001a0 00 00 00 00 00 00 00 00 00 00 00 00 00 00 00 00
       0.0 0.0 0.0 0.0
0001b0 00 00 00 00 00 00 00 00 00 00 00 00 00 00 00 00
       0.0 0.0 0.0 0.0
0001c0 00 00 00 00 00 00 00 00 00 00 00 00 00 00 00 00
       0.0 0.0 0.0 0.0
0001d0 00 00 00 00 00 00 00 00 00 00 00 00 00 00 00 00
       0.0 0.0 0.0 0.0
0001e0 00 00 00 00 00 00 00 00 00 00 00 00 00 00 00 00
       0.0 0.0 0.0 0.0
0001f0 00 00 00 00 00 00 00 00 00 00 00 00 00 00 00 00
       0.0 0.0 0.0 0.0

action_model._discrete_distribution.branches.0.weight f4 [5, 128]
000000 13 1e ea 3b bb b5 da ba c0 f9 5d bb f7 ec 39 3c
       0.0071446984 -0.001668624 -0.0033870786 0.011348001
000010 df 79 cd 3a a7 c9 86 3b 1d e0 04 bb 8f 97 60 bc
       0.0015676579 0.0041133943 -0.0020275183 -0.013708009
000020 3f 5d c7 ba f3 06 76 3a 1d 69 cd ba 8f 8c 0d bb
       -0.0015210285 0.0009385191 -0.0015671585 -0.0021598672
000030 2b 4f a7 3b 73 92 eb bb 1b 83 51 3b a3 b5 f8 bb
       0.005105873 -0.007189089 0.0031969014 -0.007590012
000040 45 aa 96 b9 5a 19 61 bb f2 56 ca 3c df d6 a5 ba
       -0.0002873709 -0.0034347386 0.024699662 -0.0012652538
000050 31 54 c3 bb 05 82 02 bc 4e fd be 39 5f 6a 82 bc
       -0.005960964 -0.007965569 0.0003642835 -0.015919862
000060 99 0e 3b 3c 83 32 8e bc 8e fd 1c bc c3 84 4d 3c
       0.011417055 -0.01735807 -0.0095819365 0.01254386
000070 68 ab 52 bb b6 a2 11 3c 3f 5f df 3c 5b 9c 85 3c
       -0.0032145623 0.008888891 0.027267097 0.016309908
000080 30 8a d0 bb 47 61 d8 bb 6b 11 eb bb 03 3d 3b 3b
       -0.0063641295 -0.0066033932 -0.0071737072 0.0028570301
000090 08 11 54 bc 05 74 5d 3b 53 58 25 3c 5c 46 16 bc
       -0.012943514 0.0033791077 0.010091859 -0.009172048
0000a0 46 b8 88 3a 8a 68 64 3b fe 91 ac 39 07 2a 04 3c
       0.0010430894 0.003485235 0.0003291517 0.008066661
0000b0 13 99 c3 bb bf 39 79 3c 8b 62 70 ba f3 c8 ab bb
       -0.0059691756 0.015211522 -0.00091699575 -0.005242461
0000c0 0d a4 7b 3c a0 8c 40 3c fa dd 50 bc 1e b1 2f bc
       0.015358937 0.011752278 -0.012748236 -0.01072338
0000d0 cd c0 05 bc 5b b1 0d 3c aa eb 3c bc 47 36 6d 3b
       -0.008163643 0.008648242 -0.011530796 0.0036195682
0000e0 77 52 92 3c 07 d3 47 3c 80 83 f8 bb 8a ac 86 bc
       0.017861588 0.012196309 -0.0075840354 -0.016439695
0000f0 ed 59 a5 3b 9d 97 a0 3c 53 30 32 bc 57 7f 6c bb
       0.0050461204 0.019603545 -0.010875779 -0.0036086643
000100 b8 af 52 bc e1 6f 2f ba 9b 92 e9 bb 06 a4 ba 3a
       -0.012859277 -0.00066923915 -0.0071280724 0.0014239557
000110 d7 35 3a bb 7e f0 29 3c 67 84 dd 3b 6f d8 b0 3b
       -0.0028413439 0.010372279 0.0067601684 0.0053968946
000120 e3 9d 07 bc 8e 93 27 bc 2d a4 1b 3c 17 ab ca 3b
       -0.008277389 -0.010228051 0.009499592 0.0061849463
000130 88 39 fd bb 8d af d4 3a 80 d3 1f 3b 94 8a 03 3b
       -0.0077278055 0.0016226635 0.0024387538 0.0020071613
000140 98 ca f3 ba 20 40 52 bc a3 d3 de ba 50 cb 91 3b
       -0.0018599806 -0.012832671 -0.0017000329 0.0044492856
000150 48 fd 16 bc d7 03 fa b9 72 33 86 bc 1f 20 3f 3c
       -0.00921566 -0.00047686577 -0.016381953 0.011665373
000160 dc 64 8f 3b a2 c1 8f bc 7b 77 d5 3b 4b ec ec 3b
       0.004376037 -0.017548386 0.0065144873 0.0072303168
000170 2f 36 fc 3b 19 35 94 bb 67 92 bc bb 07 16 66 3c
       0.007696889 -0.0045229313 -0.005754757 0.014043338
000180 ef a7 e5 3b 1d 90 aa 3b 93 4a 86 b9 3c 40 91 bb
       0.0070085446 0.005205168 -0.00025614034 -0.004432706
000190 1e d2 20 3c a5 2f f3 bb db ac 38 3b cc 34 c7 bb
       0.009815721 -0.007421451 0.0028179202 -0.006079292
0001a0 6d 0e cf 3b 0f 79 43 bc 2c 90 a4 ba e9 d5 35 bc
       0.0063188584 -0.011930718 -0.0012555174 -0.011098363
0001b0 ff 89 19 3a f7 e0 82 3a a0 62 6b bc b7 62 8a 3b
       0.000585705 0.0009985258 -0.014366776 0.0042231935
0001c0 17 f0 1e 3c 3f 91 60 3b 68 0c 5a bc 18 da 49 3a
       0.009700797 0.003426626 -0.013308622 0.000770004
0001d0 f5 64 ee 3b 3d 55 7b 3c bf 36 dc 3c eb 9b 11 bb
       0.0072752186 0.015340147 0.026881574 -0.0022218178
0001e0 b2 54 18 bc 7d 1b cb 38 92 06 77 ba d4 01 0d 3b
       -0.009297537 9.6849144e-05 -0.00094232813 0.0021515982
0001f0 c3 6a 20 3c 27 e4 8b bb 7a ca a0 bc 17 5e 8f 3b
       0.009791079 -0.0042691412 -0.019627798 0.00437523
000200 db ff 03 bc 6a a8 d0 bb cd db fd 3b bb 21 cc 3a
       -0.008056606 -0.006367733 0.0077471496 0.0015574017
000210 73 cf 0c 3b 58 47 7f bb 59 ec ae bb d6 d6 1c 3b
       0.0021485954 -0.0038952436 -0.0053382334 0.0023931763
000220 7d 6f 03 3c a3 6f ae bb f0 41 6b 3a 5f 3b f3 ba
       0.008022186 -0.0053233667 0.0008974364 -0.0018557123
000230 db d1 2d 3c 27 69 91 bc d3 1e 3f 3a 72 80 55 bb
       0.0106091155 -0.017750336 0.0007290665 -0.003257778
000240 6f 0d 90 3b 60 01 d0 ba 1c 49 9f 3a 9e 33 2d bc
       0.0043961327 -0.001586955 0.0012152526 -0.0105713885
000250 10 f4 c0 bb 7d 06 84 bb 6a 8a 6b 3b d1 81 a3 3c
       -0.0058884695 -0.004029094 0.0035940656 0.019959362
000260 ed 0e af bb 93 6d 5c 3c 2e 0c 0e 3c 10 07 13 3a
       -0.0053423555 0.013453859 0.008669896 0.00056086574
000270 18 25 4d bb a8 cc bd 3b f2 7c b1 bb fb b9 41 3b
       -0.0031302627 0.005792219 -0.005416506 0.0029560316
000280 0b 4d 3b bc 39 04 83 bb fb 73 bc bb e1 27 1e bc
       -0.011431943 -0.003998306 -0.0057511306 -0.009653063
000290 9c f5 80 bc 5f 29 82 bc 1f 54 96 3b db 0c af 3b
       -0.015742116 -0.015888868 0.0045876647 0.0053421087
0002a0 67 29 1c 3c ae a7 b4 3b 43 1a fa 3b e5 02 0c 3c
       0.009531355 0.005513153 0.007632525 0.008545612
0002b0 6b 0c 48 bc 50 81 63 bc 9a 1e 2b 3c 15 9e 58 3b
       -0.012209992 -0.013885811 0.010444308 0.0033053209
0002c0 7f 09 2f 3b bf 62 bd bb eb 58 29 bc 7c a5 3f bc
       0.002670854 -0.0057795937 -0.010336141 -0.011697169
0002d0 b9 af b8 bb 27 f2 a8 3a e1 90 b9 3c eb 02 ee 3b
       -0.005636182 0.001288955 0.022652091 0.0072635314
0002e0 38 f4 cf 3b ef 14 17 3b 0f 18 8a 3b a6 97 cc b7
       0.006346252 0.002305325 0.004214294 -2.4389312e-05
0002f0 59 2b 44 3b 88 a8 d6 ba ea 4f b9 bb 54 4f c4 ba
       0.0029933064 -0.001637713 -0.0056552785 -0.0014977255
000300 9b 64 f0 b7 d9 0d 15 3a 25 fe 10 bc 6f e4 6b 3c
       -2.8657078e-05 0.00056859624 -0.008849655 0.0143977245
000310 88 08 60 bc 77 7b 57 bc d8 6f 8e 39 4e 61 38 3a
       -0.013673909 -0.013151995 0.0002716768 0.00070335425
000320 71 b7 9a 39 15 f8 58 bb f8 a8 44 3b eb c2 df bb
       0.00029509843 -0.0033106853 0.003000794 -0.006828656
000330 bd 63 03 bb 4b ce ba bb 13 b8 70 3b 2c cf 16 3c
       -0.0020048462 -0.0057008616 0.003673081 0.009204667
000340 ed 91 23 3c 44 b3 ad bc 4a 09 28 3c 45 e8 81 bb
       0.009983522 -0.021203645 0.010256121 -0.0039644563
000350 c2 de 91 bc 78 f3 7c bc 71 89 a8 3b d8 82 5f 3b
       -0.017806415 -0.015438907 0.0051433374 0.0034105089
000360 7b a1 26 3c bf 85 b9 bb 44 ec a4 bb 92 15 36 bb
       0.010170336 -0.0056616957 -0.005033048 -0.0027783853
000370 57 8e 57 3c e0 c0 ac 3b 6a 1a 5a 3c b5 da 4d 3c
       0.013156495 0.005272016 0.013311962 0.012564351
000380 50 34 da bb d2 34 5f ba b8 b4 3f bc 7f 3f 9e ba
       -0.006659068 -0.0008514646 -0.011700802 -0.0012073367
000390 03 1c 2c bc f7 13 98 3b 3c 1d 23 3c 36 80 36 3a
       -0.010504725 0.004641052 0.0099557005 0.0006961854
0003a0 72 08 78 3c 4e 7c a2 3b e5 d1 48 3c 9e be 8f bb
       0.015138732 0.004958666 0.012257074 -0.004386737
0003b0 ea 69 19 bc da df 7c 3b c0 f4 9c 3b eb d2 03 bc
       -0.009363631 0.0038585574 0.0047899187 -0.008045892
0003c0 46 8c 2e 3c e3 09 97 3b 81 4a 13 bc 4d 30 88 3c
       0.010653561 0.004609333 -0.008989931 0.016624594
0003d0 27 51 94 3b 21 8c 0b bc b5 01 e6 bb b6 8d 27 bb
       0.0045262757 -0.008517296 -0.0070192465 -0.0025566644
0003e0 23 aa aa bb ef f6 4a 3b 5d dc cf bc 0b bf 8b bb
       -0.00520827 0.0030969938 -0.025373632 -0.0042647175
0003f0 d8 b2 2b 3b 0c 51 ab 3a 10 41 e1 3b f7 20 b7 3b
       0.0026199128 0.0013070418 0.006874211 0.0055886465

action_model._discrete_distribution.branches.0.bias f4 [5]
000000 00 00 00 00 00 00 00 00 00 00 00 00 00 00 00 00
       0.0 0.0 0.0 0.0
000010 00 00 00 00
       0.0
