results/ppo/My Behavior/My Behavior-640.onnx (onnx, 69743 bytes, 5 tensors)

network_body._body_endoder.seq_layers.0.weight f4 [128, 1]
000000 a4 be 39 bf 09 96 92 3d 84 c3 a9 3f b7 ff e8 be
       -0.7255652 0.07157523 1.3262792 -0.45507595
000010 92 a2 a4 3d 8e df bc bf 11 77 95 3f 58 3c ed 3f
       0.0803882 -1.4755723 1.1676961 1.853404
000020 6c 36 ad bf 03 52 a2 be 73 d0 90 3f 9c a8 ba 3e
       -1.3532233 -0.31703195 1.1313614 0.36456764
000030 aa d3 6d 3f 17 ad f5 bf 61 85 47 3e 32 36 f1 3f
       0.929011 -1.9193448 0.19484474 1.8844664
000040 8f 4f 8e bf 74 a4 7e 3f 10 db f9 3e fe a8 fd bd
       -1.1118029 0.99469686 0.48799944 -0.12385748
000050 17 e2 de be 3e 8f c7 3e 36 60 81 3f a5 9c 26 3e
       -0.43531868 0.38976473 1.0107486 0.16270693
000060 e9 2b 12 bf fd 79 36 be 82 c5 a6 be 59 38 95 be
       -0.5709825 -0.17819972 -0.32572562 -0.29144552
000070 fc e4 c9 be 7d 90 24 c0 eb 2d 80 3e e4 81 4a 40
       -0.39432514 -2.5713189 0.25035033 3.164178
000080 10 56 21 bf 55 d3 49 bf 57 37 02 bf 73 a1 15 3c
       -0.63021946 -0.7883809 -0.5086569 0.009132731
000090 fa 02 c8 bf 46 8b 85 3f 45 97 e6 3e d3 da 61 3e
       -1.5625908 1.0433128 0.45037284 0.22056131
0000a0 57 17 86 be 91 17 9d 3e 70 4d 3f bf 0c 8a c7 3f
       -0.26189682 0.30682042 -0.74727535 1.5589004
0000b0 ac 1d a2 bf 8f a2 70 3e f7 a6 da 3d a6 5d 33 bf
       -1.2665305 0.23499511 0.10676377 -0.7006477
0000c0 f5 b3 0e bf cf 8a a4 bf 37 36 7b 3e f1 f0 83 bf
       -0.5574334 -1.2854861 0.245324 -1.0307904
0000d0 e8 eb 23 3d 64 12 92 3f 17 3c 99 be 42 e1 30 3f
       0.0400199 1.1411862 -0.29928657 0.69093716
0000e0 a6 f6 dc be 6d 19 0b bf fe e8 cf bf 75 4c 19 3e
       -0.43156928 -0.5433567 -1.6242979 0.14970572
0000f0 cf 9e 9c 3f 3a 45 40 3f 71 5c c7 3f db 15 18 c0
       1.2235965 0.7510563 1.5575086 -2.376334
000100 f7 3e 79 3f 97 47 2d 40 bd 96 9a 3f 85 3f c9 3f
       0.973617 2.7074945 1.2077252 1.572251
000110 69 30 f5 3d d7 4c df bd a1 15 04 bf 06 b6 58 3f
       0.11972124 -0.10903328 -0.51595503 0.84652746
000120 4c 52 7d 3f b2 1a 3e bf 30 ef c2 3e d0 91 1a 3f
       0.989537 -0.74259484 0.3807311 0.6037874
000130 f2 a0 9f bf a1 4f 95 3f 1f 4e d8 3e 82 1c b0 ba
       -1.2470992 1.1664926 0.42247102 -0.001343623
000140 de d6 2b bc 9a 9a 86 bf 43 b8 e9 3c dc 72 b8 3e
       -0.01048824 -1.0515931 0.028530246 0.3602513
000150 32 1b 8e 3f 74 c1 a4 3d 71 5c 2e bf 0d b6 21 bf
       1.1102049 0.08044711 -0.68109804 -0.6316841
000160 e9 a0 ed 3f bb e0 3b bf f5 3c 57 bf d8 28 9d bf
       1.8564731 -0.73389786 -0.8407739 -1.227809
000170 0d a4 9a be 7e 0c f5 3f 92 ff 66 3f e6 a7 98 3f
       -0.30203286 1.9144437 0.9023372 1.1926239
000180 fe f3 d0 be a2 4c 40 3f 8d b1 50 bf af da f4 be
       -0.4081115 0.7511693 -0.8152092 -0.47823092
000190 bb 55 a6 bf a3 ef 65 3f c3 fc 82 bf b1 41 e2 bd
       -1.2994913 0.8981878 -1.0233387 -0.11047686
0001a0 ae 68 6d bf ce 7a a2 3f f8 97 40 bf b9 47 48 be
       -0.92737854 1.2693727 -0.75231886 -0.1955861
0001b0 55 7d 86 3f 19 47 3f c0 b9 54 85 3e fa 12 4d 3e
       1.0506998 -2.9887145 0.260412 0.2002677
0001c0 e3 a5 b5 3e 66 35 98 be a1 df b5 bf ce 47 0d bf
       0.35478124 -0.2972824 -1.4208871 -0.5518769
0001d0 f4 a0 94 3f 2c b4 75 bf 63 4c bd 3f 3f d7 37 bf
       1.1611619 -0.95978045 1.4788936 -0.71812814
0001e0 62 3b 88 bd 28 dc a7 be 96 da b6 3e f1 4b 71 be
       -0.066519514 -0.32785153 0.35713643 -0.23564126
0001f0 ca 07 6c 3e db d6 f7 be 84 cd 47 bf 32 ae 21 3f
       0.23049846 -0.4840611 -0.78047967 0.63156426

network_body._body_endoder.seq_layers.0.bias f4 [128]
000000 00 00 00 00 00 00 00 00 00 00 00 00 00 00 00 00
       0.0 0.0 0.0 0.0
000010 00 00 00 00 00 00 00 00 00 00 00 00 00 00 00 00
       0.0 0.0 0.0 0.0
000020 00 00 00 00 00 00 00 00 00 00 00 00 00 00 00 00
       0.0 0.0 0.0 0.0
000030 00 00 00 00 00 00 00 00 00 00 00 00 00 00 00 00
       0.0 0.0 0.0 0.0
000040 00 00 00 00 00 00 00 00 00 00 00 00 00 00 00 00
       0.0 0.0 0.0 0.0
000050 00 00 00 00 00 00 00 00 00 00 00 00 00 00 00 00
       0.0 0.0 0.0 0.0
000060 00 00 00 00 00 00 00 00 00 00 00 00 00 00 00 00
       0.0 0.0 0.0 0.0
000070 00 00 00 00 00 00 00 00 00 00 00 00 00 00 00 00
       0.0 0.0 0.0 0.0
000080 00 00 00 00 00 00 00 00 00 00 00 00 00 00 00 00
       0.0 0.0 0.0 0.0
000090 00 00 00 00 00 00 00 00 00 00 00 00 00 00 00 00
       0.0 0.0 0.0 0.0
0000a0 00 00 00 00 00 00 00 00 00 00 00 00 00 00 00 00
       0.0 0.0 0.0 0.0
0000b0 00 00 00 00 00 00 00 00 00 00 00 00 00 00 00 00
       0.0 0.0 0.0 0.0
0000c0 00 00 00 00 00 00 00 00 00 00 00 00 00 00 00 00
       0.0 0.0 0.0 0.0
0000d0 00 00 00 00 00 00 00 00 00 00 00 00 00 00 00 00
       0.0 0.0 0.0 0.0
0000e0 00 00 00 00 00 00 00 00 00 00 00 00 00 00 00 00
       0.0 0.0 0.0 0.0
0000f0 00 00 00 00 00 00 00 00 00 00 00 00 00 00 00 00
       0.0 0.0 0.0 0.0
000100 00 00 00 00 00 00 00 00 00 00 00 00 00 00 00 00
       0.0 0.0 0.0 0.0
000110 00 00 00 00 00 00 00 00 00 00 00 00 00 00 00 00
       0.0 0.0 0.0 0.0
000120 00 00 00 00 00 00 00 00 00 00 00 00 00 00 00 00
       0.0 0.0 0.0 0.0
000130 00 00 00 00 00 00 00 00 00 00 00 00 00 00 00 00
       0.0 0.0 0.0 0.0
000140 00 00 00 00 00 00 00 00 00 00 00 00 00 00 00 00
       0.0 0.0 0.0 0.0
000150 00 00 00 00 00 00 00 00 00 00 00 00 00 00 00 00
       0.0 0.0 0.0 0.0
000160 00 00 00 00 00 00 00 00 00 00 00 00 00 00 00 00
       0.0 0.0 0.0 0.0
000170 00 00 00 00 00 00 00 00 00 00 00 00 00 00 00 00
       0.0 0.0 0.0 0.0
000180 00 00 00 00 00 00 00 00 00 00 00 00 00 00 00 00
       0.0 0.0 0.0 0.0
000190 00 00 00 00 00 00 00 00 00 00 00 00 00 00 00 00
       0.0 0.0 0.0 0.0
0001a0 00 00 00 00 00 00 00 00 00 00 00 00 00 00 00 00
       0.0 0.0 0.0 0.0
0001b0 00 00 00 00 00 00 00 00 00 00 00 00 00 00 00 00
       0.0 0.0 0.0 0.0
0001c0 00 00 00 00 00 00 00 00 00 00 00 00 00 00 00 00
       0.0 0.0 0.0 0.0
0001d0 00 00 00 00 00 00 00 00 00 00 00 00 00 00 00 00
       0.0 0.0 0.0 0.0
0001e0 00 00 00 00 00 00 00 00 00 00 00 00 00 00 00 00
       0.0 0.0 0.0 0.0
0001f0 00 00 00 00 00 00 00 00 00 00 00 00 00 00 00 00
       0.0 0.0 0.0 0.0

network_body._body_endoder.seq_layers.2.weight f4 [128, 128]
000000 4f 83 87 bb 8a 9a 05 be e3 bb 22 be 35 1c 37 3c
       -0.0041355263 -0.13047233 -0.15891986 0.011176159
000010 68 c1 07 3e 4a ca 15 3c 8a 6c 2a 3d 75 7a 76 3d
       0.13257372 0.009142468 0.041607417 0.060175378
000020 7e 38 3d bc 85 82 3f 3d 94 41 19 bd b3 0b 02 be
       -0.011549113 0.046755332 -0.037416056 -0.12699775
000030 1a ac 73 bd e4 89 62 bd ea 3a 50 bd c2 ee 37 be
       -0.0594903 -0.055307284 -0.050837435 -0.17962173
000040 0c 3a c1 bd 47 ea 0f bc 88 b3 3f bd 16 f9 33 3d
       -0.094349 -0.008783883 -0.046802074 0.04393872
000050 63 05 f7 bd b8 76 a5 3c 47 d5 f6 bd 2f 7a 31 3d
       -0.12061574 0.020198211 -0.12052398 0.043329414
000060 1e cf 3c 3d eb 97 d3 3d 5d 71 9b bc 47 fa 93 bd
       0.04609596 0.103317104 -0.018974954 -0.07225471
000070 9d f0 0d bd 6a a7 22 3d 21 6e b3 bd ef cd 11 3d
       -0.034653295 0.03971044 -0.0876124 0.035596784
000080 f9 4c be bd 63 4b b1 bd 7b 06 0b 3c 63 30 cc 3d
       -0.09292025 -0.08656957 0.008485432 0.099701665
000090 fc fb 9e 3d 23 5d 29 bc aa 77 81 bd 48 d1 32 3c
       0.07762906 -0.010337147 -0.06321652 0.010914154
0000a0 ca 12 3b 3d ba 77 41 3c 1a 3d 9a bd 8c cb 25 3e
       0.045672216 0.01180833 -0.075311854 0.16190928
0000b0 b4 b0 df 3d 09 f6 e0 bc d6 3a a9 3c 9b 33 aa bc
       0.10922375 -0.027461069 0.020657938 -0.02077656
0000c0 0d 6d d8 bd 66 5f 1f be 4a 9d 78 3d 13 8f 15 be
       -0.10567675 -0.15563735 0.060696878 -0.1460536
0000d0 bf 35 80 bd 4b 40 c3 3d 0d 06 a5 bb 7c f2 af bd
       -0.06260251 0.09533747 -0.0050361217 -0.08591172
0000e0 ef 2a 94 bd e0 0b ee 3d f3 76 b1 bd 91 3a b4 3c
       -0.072347514 0.11623359 -0.08665266 0.022000583
0000f0 bc 8d a6 bd 7b 1e 48 be 91 a3 97 bd 6d 1c 20 3e
       -0.081325024 -0.19542877 -0.07404245 0.15635844
000100 21 a2 c2 3d d7 e6 9f 3d 18 27 8f bd 56 b1 35 bd
       0.0950358 0.07807701 -0.069898784 -0.044358574
000110 ed d7 8c 3d 0a 0c 1c be 87 56 df bc fb 3d ad 3d
       0.06877122 -0.15238968 -0.02726294 0.084590875
000120 a7 62 64 3d fb 09 11 3e dd 33 06 be 86 90 2a be
       0.055758145 0.14163963 -0.13105722 -0.16656694
000130 9e 74 58 3e 5c 1f 09 be a6 e7 d6 3d ea 64 4f 3b
       0.21138236 -0.13390869 0.10493402 0.0031645843
000140 94 2e d1 3d ab 06 f0 bc 28 c7 a9 bd 4b 12 1c bb
       0.10213962 -0.029300055 -0.08289939 -0.0023814614
000150 09 18 da bc de 3b 33 3d 72 4c 3a 3d 57 6e 9f 3d
       -0.026622789 0.043758266 0.04548306 0.077847175
000160 43 b5 4a bd b3 ce dd bd c4 e3 f0 3c 02 29 ba bd
       -0.04948927 -0.1083044 0.029405482 -0.09089853
000170 9b e0 ca bc 3d 84 0b bd da 9d 81 3d 76 2e 6b b7
       -0.024765303 -0.03406166 0.06328936 -1.4017909e-05
000180 68 da 45 3b cc 8c 8b bd 39 c5 1a 3d 78 1a 59 bd
       0.0030189995 -0.06813964 0.037785742 -0.05300376
000190 f3 44 e8 3d 9a 7e fc 3d 0f 2c 54 3d ec 8d e8 bd
       0.11341276 0.12328835 0.05179983 -0.113551944
0001a0 38 85 fe 3c 6c ea 19 bd dc 02 a3 bc cf 6d 11 bb
       0.031069383 -0.037577078 -0.019898824 -0.0022190695
0001b0 45 4e b6 bd 7e 8a e1 bd 1b f6 de bd 6a 61 aa bd
       -0.089016475 -0.110127434 -0.10886785 -0.083193615
0001c0 df 40 43 be 20 7c 08 be d8 48 aa 3c ab 6a 8a 3d
       -0.19067715 -0.133286 0.020786688 0.067586266
0001d0 89 3e b7 bc 20 e1 df 3c f5 cb 02 3e 8c 5a 49 3d
       -0.022368686 0.027329028 0.12773116 0.049158618
0001e0 61 22 c2 3c df 44 5d 3d cc eb 03 3d ac 4d 3b 3d
       0.023698034 0.05402076 0.032207295 0.04572837
0001f0 f9 48 db 3d 5b c0 01 3e cd d9 53 3d b2 54 e5 bd
       0.10707278 0.12671034 0.051721383 -0.11197795
000200 de e6 d5 bd 9f c3 85 bd e9 83 d3 3d c5 6c 53 3e
       -0.10444425 -0.065314524 0.10327894 0.20646961
000210 52 fd 43 bd 1e ec 0f 3d 0f ad 95 bd 41 b2 64 bd
       -0.047849007 0.03513729 -0.07308399 -0.05583406
000220 61 51 3e bd 44 97 29 bd ce 5d c3 bd b9 54 5b bd
       -0.046464328 -0.041404024 -0.09539376 -0.053547595
000230 9e 29 91 3d d1 b2 90 bd 20 c3 46 3d 73 95 64 3d
       0.07088016 -0.070653565 0.04852593 0.05580659
000240 6c 43 fb bd 51 65 52 bd 55 3e af bc 70 05 ab bd
       -0.12268719 -0.051366154 -0.021392027 -0.083506465
000250 ce e7 4e 3e 47 0e 97 bd 02 9c 00 be 4c d6 2b bd
       0.20205614 -0.0737577 -0.12559512 -0.041952416
000260 04 dc 51 3c f9 e6 29 bb 70 61 a7 3c 38 4f 39 bd
       0.0128088035 -0.0025925024 0.020432204 -0.045241565
000270 d5 2a 09 be cb 1c 3d be 6f 61 0f 3b b9 c9 3f 3b
       -0.13395245 -0.18468015 0.0021878143 0.0029264523
000280 be 63 74 3d 7a e0 bf bc a5 84 85 3d 73 f0 12 bd
       0.059665434 -0.023422468 0.065194406 -0.03587384
000290 f3 e1 63 3e bd d2 70 3d 31 00 66 bc 6f 98 ed bd
       0.22254162 0.058794726 -0.014038132 -0.1160134
0002a0 a4 26 6f 3a 5a eb 4c 3e 44 c9 11 3d 25 88 8f 3c
       0.00091228844 0.20011654 0.035592332 0.017520973
0002b0 ec bd 7a bd 87 3f 9e 3d 59 d5 52 3d 81 0c c6 3d
       -0.06121628 0.07726961 0.051472995 0.09670354
0002c0 ef 53 86 3d 4f 22 b4 3c af d6 de bd bf a0 9a 3b
       0.06558978 0.021989016 -0.108807914 0.0047188695
0002d0 1f 09 8c 3d fe 1e 18 bd bc 60 a3 bd e7 cd 58 3b
       0.06837677 -0.03713893 -0.07977435 0.0033081712
0002e0 c9 dd 4e 3d b5 02 b9 bd 0b e7 88 3d 49 08 04 bd
       0.05050448 -0.090337195 0.06684693 -0.032234464
0002f0 a7 90 cf 3d ba 1a ad bc 53 e7 0c 3e 9b 74 a5 bd
       0.10135012 -0.021130908 0.13760118 -0.08078881
000300 e1 6e 8e 3c 94 ff aa bc a1 31 b8 3d 22 b6 82 3d
       0.017386856 -0.020873822 0.08993841 0.06382395
000310 59 71 1f bd 38 db ee 3d 7b 0b d4 bc 93 f1 90 3d
       -0.038926456 0.116629064 -0.02588438 0.070773266
000320 26 4b 99 3c 9d 33 06 be 4b 25 4c bd 66 8e 03 3e
       0.018712591 -0.13105626 -0.049840253 0.1284729
000330 b3 40 a4 3d 68 2b d8 3d 88 cd 95 3b df a6 cd 3d
       0.08020153 0.10555154 0.0045716204 0.10041594
000340 49 cc 6c 3c 6e 76 06 3d 4a 88 1d 3d 71 99 27 3e
       0.014453002 0.032827787 0.038460054 0.16367127
000350 37 e1 74 bc 8a de f7 3d a6 3f 45 3d f3 02 f2 bc
       -0.0149462735 0.12102993 0.048156403 -0.029542422
000360 e2 65 22 be f2 e4 00 bd 61 ad 63 3d 5e 10 8c 3d
       -0.15859178 -0.03146834 0.05558527 0.06839059
000370 b2 a3 c6 3d f4 8b 0b 3e 7e 3c 40 3d 8f 17 c9 bb
       0.09699191 0.13627607 0.04693269 -0.0061368416
000380 8b 6e fa 3d 10 52 38 be 70 ae 40 3e 91 c6 27 bd
       0.12228116 -0.18000054 0.18816543 -0.040960852
000390 3f 04 fa 3c e3 11 18 3e 52 6e b2 bd 5c a1 27 bc
       0.030519603 0.14850573 -0.08712448 -0.010231342
0003a0 62 e2 fe 3d 7a 0f 9e 3c 11 1d d1 bd bc 00 93 3d
       0.12445523 0.01929449 -0.10210622 0.071778744
0003b0 e7 c3 29 be a4 5b f4 bd fb 87 d2 bd 36 b6 ae 3d
       -0.16578637 -0.119315416 -0.102798425 0.08530848
0003c0 8a a9 da 3d f2 95 84 bc 06 e3 03 bd c7 46 0b be
       0.10676868 -0.01618478 -0.03219893 -0.13601218
0003d0 a1 a7 0d 3b 1b 85 4b bd b1 b8 b0 3d 96 be ad bd
       0.0021614807 -0.049687486 0.08628977 -0.08483617
0003e0 1f 32 e0 3d 1b b4 c8 3d 33 f1 5a 3d 21 f2 b4 bd
       0.1094706 0.097999774 0.05345268 -0.08835245
0003f0 e5 b0 0e 3c 67 fe 98 bd b4 97 18 3e 59 1d ab bd
       0.008709167 -0.074703984 0.1490162 -0.08355207

network_body._body_endoder.seq_layers.2.bias f4 [128]
000000 00 00 00 00 00 00 00 00 00 00 00 00 00 00 00 00
       0.0 0.0 0.0 0.0
000010 00 00 00 00 00 00 00 00 00 00 00 00 00 00 00 00
       0.0 0.0 0.0 0.0
000020 00 00 00 00 00 00 00 00 00 00 00 00 00 00 00 00
       0.0 0.0 0.0 0.0
000030 00 00 00 00 00 00 00 00 00 00 00 00 00 00 00 00
       0.0 0.0 0.0 0.0
000040 00 00 00 00 00 00 00 00 00 00 00 00 00 00 00 00
       0.0 0.0 0.0 0.0
000050 00 00 00 00 00 00 00 00 00 00 00 00 00 00 00 00
       0.0 0.0 0.0 0.0
000060 00 00 00 00 00 00 00 00 00 00 00 00 00 00 00 00
       0.0 0.0 0.0 0.0
000070 00 00 00 00 00 00 00 00 00 00 00 00 00 00 00 00
       0.0 0.0 0.0 0.0
000080 00 00 00 00 00 00 00 00 00 00 00 00 00 00 00 00
       0.0 0.0 0.0 0.0
000090 00 00 00 00 00 00 00 00 00 00 00 00 00 00 00 00
       0.0 0.0 0.0 0.0
0000a0 00 00 00 00 00 00 00 00 00 00 00 00 00 00 00 00
       0.0 0.0 0.0 0.0
0000b0 00 00 00 00 00 00 00 00 00 00 00 00 00 00 00 00
       0.0 0.0 0.0 0.0
0000c0 00 00 00 00 00 00 00 00 00 00 00 00 00 00 00 00
       0.0 0.0 0.0 0.0
0000d0 00 00 00 00 00 00 00 00 00 00 00 00 00 00 00 00
       0.0 0.0 0.0 0.0
0000e0 00 00 00 00 00 00 00 00 00 00 00 00 00 00 00 00
       0.0 0.0 0.0 0.0
0000f0 00 00 00 00 00 00 00 00 00 00 00 00 00 00 00 00
       0.0 0.0 0.0 0.0
000100 00 00 00 00 00 00 00 00 00 00 00 00 00 00 00 00
       0.0 0.0 0.0 0.0
000110 00 00 00 00 00 00 00 00 00 00 00 00 00 00 00 00
       0.0 0.0 0.0 0.0
000120 00 00 00 00 00 00 00 00 00 00 00 00 00 00 00 00
       0.0 0.0 0.0 0.0
000130 00 00 00 00 00 00 00 00 00 00 00 00 00 00 00 00
       0.0 0.0 0.0 0.0
000140 00 00 00 00 00 00 00 00 00 00 00 00 00 00 00 00
       0.0 0.0 0.0 0.0
000150 00 00 00 00 00 00 00 00 00 00 00 00 00 00 00 00
       0.0 0.0 0.0 0.0
000160 00 00 00 00 00 00 00 00 00 00 00 00 00 00 00 00
       0.0 0.0 0.0 0.0
000170 00 00 00 00 00 00 00 00 00 00 00 00 00 00 00 00
       0.0 0.0 0.0 0.0
000180 00 00 00 00 00 00 00 00 00 00 00 00 00 00 00 00
       0.0 0.0 0.0 0.0
000190 00 00 00 00 00 00 00 00 00 00 00 00 00 00 00 00
       0.0 0.0 0.0 0.0
0001a0 00 00 00 00 00 00 00 00 00 00 00 00 00 00 00 00
       0.0 0.0 0.0 0.0
0001b0 00 00 00 00 00 00 00 00 00 00 00 00 00 00 00 00
       0.0 0.0 0.0 0.0
0001c0 00 00 00 00 00 00 00 00 00 00 00 00 00 00 00 00
       0.0 0.0 0.0 0.0
0001d0 00 00 00 00 00 00 00 00 00 00 00 00 00 00 00 00
       0.0 0.0 0.0 0.0
0001e0 00 00 00 00 00 00 00 00 00 00 00 00 00 00 00 00
       0.0 0.0 0.0 0.0
0001f0 00 00 00 00 00 00 00 00 00 00 00 00 00 00 00 00
       0.0 0.0 0.0 0.0

action_model._discrete_distribution.branches.0.weight f4 [1, 128]
000000 c6 55 21 3c 4b ec 86 ba 9e 3c 30 bc 2b 6f 84 3b
       0.00984711 -0.001029381 -0.01075664 0.0040415726
000010 d5 48 0c 3b 7b 97 51 3a e5 cb cc ba 0f fa 7e ba
       0.0021405716 0.00079952896 -0.001562473 -0.00097265927
000020 7b 81 18 3b a9 f9 92 bb b2 71 9e bb a7 53 72 b9
       0.0023270536 -0.004485328 -0.004835331 -0.00023110081
000030 77 4a fd 3a 47 fe 89 bc e7 3b 36 bc 1b 86 d3 3b
       0.001932456 -0.016844882 -0.01112268 0.0064551956
000040 b5 f6 e1 ba 23 97 3a 3b f8 8f 41 3c c7 fe 5e bc
       -0.0017239662 0.0028471432 0.01181411 -0.013610548
000050 68 00 0f bb 87 84 5b 3c df a8 3b 3b 3b 6b 3f 3c
       -0.002182031 0.013398296 0.002863459 0.011683281
000060 24 16 a7 3b ba 6e b7 bb 6b d3 17 bb 6d ec ab 3b
       0.005099075 -0.0055979164 -0.0023166786 0.00524669
000070 79 69 1d bc 73 1e e4 ba 8f 0b dd 3a ba 5c b9 3b
       -0.009607666 -0.0017404094 0.0016864407 0.005656806
000080 8c 77 34 3c 49 f8 13 bb 78 18 ef 3b 6f 27 56 3b
       0.01101483 -0.002257841 0.007296618 0.0032677313
000090 49 b2 9e bb 3a dc 1a 3c b3 7a 10 3b 1b ae 26 3a
       -0.0048430306 0.00945192 0.002204579 0.0006358341
0000a0 21 60 3f bc 2f 61 c1 3a d0 11 b1 3b ae 40 86 bb
       -0.011680634 0.0014753694 0.0054037347 -0.004097066
0000b0 58 ee cc 3a 8f 11 c5 bb d8 a4 14 3c 73 c0 ae bb
       0.0015634997 -0.006014056 0.009072505 -0.0053330003
0000c0 62 be ac bb b0 b3 09 ba 42 0c b3 3b fd 42 4d bc
       -0.005271719 -0.0005252911 0.0054641077 -0.012528178
0000d0 0c 6d 9b 3c 17 2f 8d 3a 3f c9 29 bb 59 6c 8f bb
       0.018972896 0.001077148 -0.0025907306 -0.0043769297
0000e0 c7 09 05 3c ef e3 79 3c ea d6 08 3c 66 64 c9 bb
       0.008120007 0.0152520975 0.008352021 -0.0061460016
0000f0 23 4a c7 3b f0 ec 58 bc 32 60 d7 bb e2 26 87 3a
       0.006081836 -0.013240084 -0.0065727467 0.0010311271
000100 0f a4 31 b9 21 85 c8 bb 07 d9 89 ba 65 30 e5 bb
       -0.00016941152 -0.006119386 -0.001051695 -0.0069942945
000110 5a e5 52 3c 2c 01 9f 38 73 6a c9 3b 07 bc 91 3b
       0.0128720645 7.581929e-05 0.006146723 0.0044474634
000120 c0 0f b0 bb 60 09 b1 bb 92 54 db 3b f5 40 89 3c
       -0.0053729713 -0.005402729 0.006693431 0.016754607
000130 90 61 05 3b 8e f7 4b 3c 22 01 e3 ba cb 98 fb 3b
       0.0020352341 0.012449158 -0.0017319063 0.0076781265
000140 bd 0a a2 ba 54 a6 a1 3b c5 0d 2e 3c 67 8a 05 bc
       -0.0012362819 0.004933158 0.0106234 -0.0081506735
000150 ef 74 bd 3b 37 1d b3 bc 48 b9 10 bc cf b9 7b 3b
       0.005781762 -0.021864517 -0.008833237 0.003841031
000160 44 7f 3e bc c5 6e 24 bb 0a 43 df 3a 87 49 5e bc
       -0.011627022 -0.0025090438 0.0017033529 -0.013567335
000170 4f 24 d7 3a f7 f1 01 bc cf 7f 99 3b 3b be fa 3b
       0.0016414019 -0.007931224 0.0046844254 0.007652072
000180 8f 84 3a bc a6 92 c1 3b 8b 5e 26 3c 17 c0 f2 3b
       -0.0113841435 0.0059073744 0.010154377 0.007408153
000190 df 34 37 bb 03 75 01 bc 80 59 70 3b aa da 70 bc
       -0.0027955098 -0.007901433 0.003667444 -0.014700571
0001a0 67 fd be 3b ec d3 a8 b9 d3 a1 b1 bc af 15 2e bc
       0.0058285478 -0.0003220135 -0.02168361 -0.010625287
0001b0 13 93 6c bb 9b 11 27 bb 1d d5 cf 3b f5 36 93 3b
       -0.0036098405 -0.0025492671 0.0063425438 0.0044926354
0001c0 d4 1d 21 bb 6e b7 a5 bb ca e8 52 3c 85 56 75 bc
       -0.002458443 -0.005057267 0.012872884 -0.014974241
0001d0 57 02 4a bb 43 e4 b4 3b b7 02 78 3c 00 78 cd 3a
       -0.0030824149 0.005520375 0.015137366 0.0015676022
0001e0 80 d8 2e 3b 93 27 a4 bc 0b b0 4e 3c 9d c5 de 3a
       0.0026679337 -0.020038402 0.012615214 0.0016996149
0001f0 a7 10 14 3c 4c a0 ae 3b 7f 6b 67 3a f7 f9 84 bc
       0.009037173 0.0053291675 0.0008827969 -0.016232474
