results/ppo/My Behavior/My Behavior-704.pt (torch, 146339 bytes, 12 tensors)

network_body._body_endoder.seq_layers.0.weight f4 [128, 1]
00000000: c8de 913f ea74 0fbf f03d 5fbe ebdb 743e
00000010: a58e 963f 1aeb aabf 63ff 0fbf 14f9 96bc
00000020: 0db7 3cbf dd86 193f 0533 123f 368d 993d
00000030: 8e9b 35be 41f3 bbbe f4f1 583f 8271 f8be
00000040: 08da 03c0 c5f1 db3e b552 8e3f 5fb1 9bbf
00000050: 48b7 7b3e dd51 c53e 0772 ba3d 95f3 1d3f
00000060: b1fa 0dbe b949 96bf 6223 2b3f 6915 813f
00000070: c825 103f 139a c0be f2f0 d13e 234e 09be
00000080: 77e4 5540 d69e ddbf 9928 adbe 58d8 653f
00000090: d6bf a1bf 8c74 bdbf 1e62 c53f 0c77 2c3f
000000a0: 2934 c3bd 95e3 3a3f 5f11 bd3e a818 ae3f
000000b0: 62cc d63f 967a b63f e17f cabf fd74 98be
000000c0: 186b 8c3f 4342 07be 0c8a 12bf 79b7 3cbf
000000d0: 2f4d d23f a864 2dbf dd84 a8be 9c4c 7dbf
000000e0: 97b2 3fbf 3d17 a43e 0475 2d3f 3c36 2f3f
000000f0: cb00 fa3e e282 9ebf a212 003f f3ae f3be
00000100: 040c 553f 2313 663f 23e7 8cbe 4aad 79bf
00000110: beda 5cbf 7fc8 5a3f 6877 a6be d2e4 803e
00000120: 120e a53e 19fc 63bf 2df1 573e bf19 75bf
00000130: 4436 8abe dc41 7abe 2c9a 8fbf d083 51bf
00000140: c8a7 bf3e bd9a 293d f6c1 a83f 3997 983f
00000150: 49e9 653f c57b 0f3f 79d9 8e3d 8291 0540
00000160: 66ec 0a3f 23bf 853f e064 5d3f f4a5 93bf
00000170: 9470 37be 4061 8e3f 873a 103f fc39 a3bf
00000180: f2e8 d83d 7de2 f23d 7020 09bf 9a97 de3f
00000190: ace7 92bf 91e8 9dbf 0759 e8be b17b ffbe
000001a0: 79f4 c73e 1120 4cbf aaad 28bf 083e 403e
000001b0: c368 0abf 2fae 323e 8cf2 bebe 2ce5 f8bf
000001c0: 32d2 ad3f 7051 dd3e fc3d b0be e33a b1be
000001d0: f0a0 d8be 93ed a83e 3c8d d33c 4586 613f
000001e0: 0801 3ebf 42e5 1c3f 99ed 1bbf 5071 54bc
000001f0: 3a81 863c 8d64 f8be 4944 7abf 51de a73f
1.1396112 -0.5603777 -0.21800971 0.23912017 1.1762282 -1.3352997 -0.56249064 -0.018429317
-0.73716813 0.5997141 0.571091 0.07497637 -0.1773512 -0.36709026 0.8474419 -0.485241
-2.0601826 0.42957893 1.111899 -1.2163504 0.24581635 0.3853902 0.0910378 0.616998
-0.13865162 -1.1741248 0.66850865 1.0084659 0.5630765 -0.3761755 0.4100414 -0.13408713
3.3420694 -1.7314098 -0.33820036 0.8978324 -1.2636669 -1.4801192 1.5420568 0.6736915
-0.09531433 0.7300351 0.36927316 1.3601274 1.6781123 1.425616 -1.5820276 -0.29776755
1.0970182 -0.1320887 -0.5724189 -0.7371746 1.6429805 -0.67731714 -0.32913867 -0.9894502
-0.7488188 0.3204898 0.67756677 0.6844213 0.4882873 -1.2383692 0.5002843 -0.47594413
0.8322146 0.8987295 -0.27520093 -0.97530043 -0.86271274 0.8546218 -0.32512975 0.25174576
0.32237297 -0.89056545 0.21088095 -0.9574241 -0.26994526 -0.24439186 -1.1218925 -0.81841755
0.37432694 0.041407336 1.3184192 1.192115 0.8980909 0.5604823 0.06975073 2.087006
0.54266965 1.0448955 0.8648205 -1.153502 -0.17914039 1.1123428 0.56339306 -1.275207
0.10591306 0.118596055 -0.5356512 1.7390015 -1.1476951 -1.2336599 -0.45380422 -0.49899057
0.39053705 -0.7973643 -0.6588999 0.18773663 -0.54066104 0.17449258 -0.37294424 -1.9444938
1.3579772 0.43226194 -0.3442229 -0.3461524 -0.42310286 0.32993755 0.025824182 0.88095504
-0.74220324 0.6128732 -0.6090942 -0.012966469 0.016419042 -0.48514214 -0.97760445 1.311472

network_body._body_endoder.seq_layers.0.bias f4 [128]
00000000: 0000 0000 0000 0000 0000 0000 0000 0000
00000010: 0000 0000 0000 0000 0000 0000 0000 0000
00000020: 0000 0000 0000 0000 0000 0000 0000 0000
00000030: 0000 0000 0000 0000 0000 0000 0000 0000
00000040: 0000 0000 0000 0000 0000 0000 0000 0000
00000050: 0000 0000 0000 0000 0000 0000 0000 0000
00000060: 0000 0000 0000 0000 0000 0000 0000 0000
00000070: 0000 0000 0000 0000 0000 0000 0000 0000
00000080: 0000 0000 0000 0000 0000 0000 0000 0000
00000090: 0000 0000 0000 0000 0000 0000 0000 0000
000000a0: 0000 0000 0000 0000 0000 0000 0000 0000
000000b0: 0000 0000 0000 0000 0000 0000 0000 0000
000000c0: 0000 0000 0000 0000 0000 0000 0000 0000
000000d0: 0000 0000 0000 0000 0000 0000 0000 0000
000000e0: 0000 0000 0000 0000 0000 0000 0000 0000
000000f0: 0000 0000 0000 0000 0000 0000 0000 0000
00000100: 0000 0000 0000 0000 0000 0000 0000 0000
00000110: 0000 0000 0000 0000 0000 0000 0000 0000
00000120: 0000 0000 0000 0000 0000 0000 0000 0000
00000130: 0000 0000 0000 0000 0000 0000 0000 0000
00000140: 0000 0000 0000 0000 0000 0000 0000 0000
00000150: 0000 0000 0000 0000 0000 0000 0000 0000
00000160: 0000 0000 0000 0000 0000 0000 0000 0000
00000170: 0000 0000 0000 0000 0000 0000 0000 0000
00000180: 0000 0000 0000 0000 0000 0000 0000 0000
00000190: 0000 0000 0000 0000 0000 0000 0000 0000
000001a0: 0000 0000 0000 0000 0000 0000 0000 0000
000001b0: 0000 0000 0000 0000 0000 0000 0000 0000
000001c0: 0000 0000 0000 0000 0000 0000 0000 0000
000001d0: 0000 0000 0000 0000 0000 0000 0000 0000
000001e0: 0000 0000 0000 0000 0000 0000 0000 0000
000001f0: 0000 0000 0000 0000 0000 0000 0000 0000
0.0 0.0 0.0 0.0 0.0 0.0 0.0 0.0
0.0 0.0 0.0 0.0 0.0 0.0 0.0 0.0
0.0 0.0 0.0 0.0 0.0 0.0 0.0 0.0
0.0 0.0 0.0 0.0 0.0 0.0 0.0 0.0
0.0 0.0 0.0 0.0 0.0 0.0 0.0 0.0
0.0 0.0 0.0 0.0 0.0 0.0 0.0 0.0
0.0 0.0 0.0 0.0 0.0 0.0 0.0 0.0
0.0 0.0 0.0 0.0 0.0 0.0 0.0 0.0
0.0 0.0 0.0 0.0 0.0 0.0 0.0 0.0
0.0 0.0 0.0 0.0 0.0 0.0 0.0 0.0
0.0 0.0 0.0 0.0 0.0 0.0 0.0 0.0
0.0 0.0 0.0 0.0 0.0 0.0 0.0 0.0
0.0 0.0 0.0 0.0 0.0 0.0 0.0 0.0
0.0 0.0 0.0 0.0 0.0 0.0 0.0 0.0
0.0 0.0 0.0 0.0 0.0 0.0 0.0 0.0
0.0 0.0 0.0 0.0 0.0 0.0 0.0 0.0

network_body._body_endoder.seq_layers.2.weight f4 [128, 128]
00000000: 11e0 b93d 2667 21be c065 203d d8cd 8e3d
00000010: a218 e139 e233 c4bd 81b5 9ebc a949 e13c
00000020: 8bc8 5dbd 753e 903c 3135 f03b 537c 463d
00000030: d4d8 0abc 4836 613c 39d7 703d 119a 753c
00000040: 9757 473d b3ee e53d 8b72 6abc 5dd9 4bbe
00000050: 223f 2bbd b01d 363d 34e3 e73d f00d 3cbc
00000060: d9fa 85bd f93c 663d 525c 133e 1f35 af3c
00000070: 626a 9dbc e147 3f3c ed29 1dbe 71d7 bb3d
00000080: 1099 ca3c 5998 dcbb ba23 3d3d 207b ba3d
00000090: 5ee8 163e f437 2f3d 05e5 3c3e acef fbbd
000000a0: 3070 b03d 4f42 35bd f968 323e 4991 07bd
000000b0: bcf6 c23d d23c a13d 83bc 163e 0691 8b3d
000000c0: 7437 1a3e a08f 383e 5c95 2fbd 6acc 0a3d
000000d0: ccd0 263d adaa 95bd ddba 27be af1f be3d
000000e0: efd8 16be fcf7 edbd 50f4 dfbd 78d6 88bd
000000f0: a1eb c2bd 61e8 be3d 1ba1 663c 43fe 553d
00000100: bc2f ba3b 60e9 19be 5235 86bd eae6 88bc
00000110: 1b80 fe3d 2348 1bbe 03cf 95bd 7deb 183d
00000120: 7595 6abd 63fd a43d 12bf 1f3d af01 fd3d
00000130: eb59 debd b3be 8ebd c6b8 d53c d557 8f3d
00000140: 94ba 55bd 1e4c b33c ac1b 0bbe dc59 373d
00000150: 2fd8 2c3d f1d5 9dbc 0da4 30bc c50b 463d
00000160: e034 b0bb db19 bf3d f88d 2a3d 5222 dc3d
00000170: fd77 a13d d13d 1abd 27a0 5abd 5def 1f3e
00000180: 86ca 8c3d 4e76 443d 8f9e 773d 2498 c5bd
00000190: 35b2 1d3d 02f7 b4bc 4244 bcbd de72 b3bd
000001a0: d952 9f3d 039a a9bd 9a8a 473e d54f b8bd
000001b0: 9630 b0bd 6c24 51bd d594 14be 7fb5 a6bd
000001c0: 301a 7cbd 4f61 04bd 2ff1 11bc 9f2c 853d
000001d0: eac1 e0bc bc3b 2cbe cba3 ecbc 7d67 d9bd
000001e0: 4eae 243d 0b00 ecbc 1451 a43d 531c a7bb
000001f0: f980 3d3d 4b95 a8bd 40e4 a8bd 0ba6 50bd
00000200: aae0 3f3d 5afb ed3d d03b 92bd ae5e f7bd
00000210: f373 203e accc 09bd c4c6 783d 9904 993c
00000220: 5aa6 33be e576 adbd 073e 413d f537 183e
00000230: 4c8c b1bd dfe9 79be 7479 0b3e 55ba 493d
00000240: 9086 ebbc 5ae4 adbd 6d0f 95bb 1795 11be
00000250: 13be a23d 03e2 9c3d 107e 6bbb 11c1 90b9
00000260: 0783 0ebd 0374 913d f223 223d d04e 093c
00000270: 099d 103c 3220 fabd 71df 3cbe d726 243c
00000280: 9e30 813d e26b d8bc e334 9ebd 6d56 053d
00000290: 076e b2bc 4ce4 fabd 8baf 363e ca21 ecbd
000002a0: b3b2 b7bd 78fc 913d a677 db3d 8622 39bc
000002b0: 7523 c3bd 6857 d1bd a354 0cbb cb2b 1ebe
000002c0: afad 67bc 2aa1 8fbd d23f b1bd d129 46bc
000002d0: caca 0cbe db20 803c fef5 24be 76a0 e4bc
000002e0: ab98 9fbd 077d a63c 9ee1 1f3d 8570 32be
000002f0: bd6f 213e 9822 053d 3f27 4d3d 09a1 3b3c
00000300: 7ef2 26bc 735b 20bd acac af3d bf3a 763d
00000310: 15f4 0c3e eaf2 f6bd 963c 3abd 684a 59bd
00000320: c1aa 493d 2238 e0bc a6d6 893d eff8 c63d
00000330: 5c2c 10be 4d99 4fbd 8dfb abbd d6ca 233e
00000340: f1de c43d 6d15 d0bd f9ed 42bd e7c3 10bd
00000350: e035 24bd 028c d13c 423b 993c cc28 1f3d
00000360: 30a3 1d3d 5d44 2bbe aa29 4d3c 5b2f 1cbe
00000370: 41e5 a2bd 1ca9 c73c c4f4 88bd a24b cf3d
00000380: 1ca8 88bd 56ab 30bd 6cd0 963c a0fe 133d
00000390: aabc 6dbc ee3b 983d 7e76 423e 0eec 563c
000003a0: e77f 05ba 6eda 013d 8990 6f3d fd2c 133d
000003b0: b9e6 b4bd f709 84be e358 7d3d 0150 2dbd
000003c0: b3d1 ecbd 5fcd 9dbd 906f d13d 3c80 08bd
000003d0: 7518 1cbd 6efc ffbc 49d5 373e 5aee 263d
000003e0: c8e5 af3d 6528 76bd e080 303d 4bfd 333d
000003f0: 14b2 a1bd 8c02 333e 6f25 b03b 1d61 24bd
0.090759404 -0.15762004 0.039159536 0.06972855 0.00042933697 -0.09580208 -0.019373657 0.027500944
-0.05414633 0.017607907 0.0073305597 0.04845841 -0.008474547 0.013745852 0.058799002 0.014990346
0.048667517 0.11227169 -0.014309536 -0.19907136 -0.041808255 0.044461906 0.113226324 -0.011477932
-0.06541986 0.05621049 0.14390686 0.021387635 -0.019215766 0.011674852 -0.15348025 0.091719516
0.024731189 -0.0067320284 0.04617665 0.091055155 0.14737079 0.04277797 0.18446739 -0.12301573
0.08615148 -0.04425269 0.17422856 -0.03309754 0.09519717 0.07872929 0.14720349 0.068147704
0.15060216 0.18023539 -0.04286705 0.03388635 0.040726468 -0.073079444 -0.16379876 0.09283387
-0.14731191 -0.11619565 -0.10935271 -0.06681532 -0.09517599 0.093216665 0.0140764965 0.052244436
0.00568196 -0.15030432 -0.06553139 -0.01671167 0.12426778 -0.15164237 -0.07314875 0.037333954
-0.05727144 0.08056142 0.03900058 0.12353837 -0.10856994 -0.06969967 0.026089083 0.069991745
-0.052179888 0.021886881 -0.13584775 0.04476343 0.042198356 -0.019267054 -0.0107813 0.048351068
-0.005377397 0.093311034 0.0416393 0.107487336 0.07884214 -0.03765661 -0.05337539 0.15618654
0.06874566 0.047964387 0.060453948 -0.09648159 0.03850003 -0.022090439 -0.09192707 -0.087621436
0.07779474 -0.082813285 0.19486466 -0.08999602 -0.08603017 -0.051060125 -0.145099 -0.081400864
-0.06154841 -0.032319363 -0.0089076 0.065026514 -0.027436215 -0.16819662 -0.028886696 -0.10615442
0.040205292 -0.028808614 0.08023277 -0.005099812 0.046265576 -0.082316004 -0.0824666 -0.0509396
0.046845116 0.11620207 -0.071403146 -0.120786056 0.15669231 -0.033642456 0.060736433 0.01867895
-0.17543927 -0.08469943 0.047178295 0.14865096 -0.08669338 -0.24405621 0.1362055 0.049249966
-0.028750688 -0.0849082 -0.004548958 -0.1421703 0.0794641 0.07660296 -0.0035933293 -0.00027609666
-0.034792926 0.071022056 0.03958506 0.008380607 0.008826503 -0.12213172 -0.18444611 0.010019026
0.06308101 -0.02641863 -0.07724931 0.032553125 -0.02178098 -0.122505754 0.17840402 -0.11529882
-0.08969631 0.07128233 0.107161805 -0.011299735 -0.09528247 -0.102217495 -0.0021412752 -0.15446393
-0.0141405305 -0.070131615 -0.08654751 -0.012094931 -0.13749233 0.015640667 -0.16109464 -0.027908545
-0.07792791 0.02032329 0.039033525 -0.17425735 0.15765281 0.032503694 0.050086256 0.011451968
-0.010189651 -0.039149713 0.085778564 0.06011462 0.13764985 -0.12058051 -0.045467936 -0.053049475
0.04923511 -0.027370516 0.06730394 0.09715449 -0.14079422 -0.05068331 -0.08397589 0.15995345
0.09612835 -0.10160337 -0.04759023 -0.035343077 -0.04009044 0.025579456 0.018705014 0.038857266
0.038485706 -0.16725297 0.0125221405 -0.1525244 -0.07953883 0.02437263 -0.0668731 0.10121848
-0.06672689 -0.04313215 0.01840993 0.0361315 -0.014510313 0.07433306 0.18990514 0.013117803
-0.00050926063 0.03170245 0.05848745 0.035931576 -0.08833069 -0.25788853 0.061852347 -0.042312626
-0.115634345 -0.07705187 0.10226357 -0.03332542 -0.03810926 -0.031248298 0.17952456 0.040754654
0.08588749 -0.060097117 0.043091655 0.04394273 -0.07895294 0.1748144 0.005375556 -0.040131677

network_body._body_endoder.seq_layers.2.bias f4 [128]
00000000: 0000 0000 0000 0000 0000 0000 0000 0000
00000010: 0000 0000 0000 0000 0000 0000 0000 0000
00000020: 0000 0000 0000 0000 0000 0000 0000 0000
00000030: 0000 0000 0000 0000 0000 0000 0000 0000
00000040: 0000 0000 0000 0000 0000 0000 0000 0000
00000050: 0000 0000 0000 0000 0000 0000 0000 0000
00000060: 0000 0000 0000 0000 0000 0000 0000 0000
00000070: 0000 0000 0000 0000 0000 0000 0000 0000
00000080: 0000 0000 0000 0000 0000 0000 0000 0000
00000090: 0000 0000 0000 0000 0000 0000 0000 0000
000000a0: 0000 0000 0000 0000 0000 0000 0000 0000
000000b0: 0000 0000 0000 0000 0000 0000 0000 0000
000000c0: 0000 0000 0000 0000 0000 0000 0000 0000
000000d0: 0000 0000 0000 0000 0000 0000 0000 0000
000000e0: 0000 0000 0000 0000 0000 0000 0000 0000
000000f0: 0000 0000 0000 0000 0000 0000 0000 0000
00000100: 0000 0000 0000 0000 0000 0000 0000 0000
00000110: 0000 0000 0000 0000 0000 0000 0000 0000
00000120: 0000 0000 0000 0000 0000 0000 0000 0000
00000130: 0000 0000 0000 0000 0000 0000 0000 0000
00000140: 0000 0000 0000 0000 0000 0000 0000 0000
00000150: 0000 0000 0000 0000 0000 0000 0000 0000
00000160: 0000 0000 0000 0000 0000 0000 0000 0000
00000170: 0000 0000 0000 0000 0000 0000 0000 0000
00000180: 0000 0000 0000 0000 0000 0000 0000 0000
00000190: 0000 0000 0000 0000 0000 0000 0000 0000
000001a0: 0000 0000 0000 0000 0000 0000 0000 0000
000001b0: 0000 0000 0000 0000 0000 0000 0000 0000
000001c0: 0000 0000 0000 0000 0000 0000 0000 0000
000001d0: 0000 0000 0000 0000 0000 0000 0000 0000
000001e0: 0000 0000 0000 0000 0000 0000 0000 0000
000001f0: 0000 0000 0000 0000 0000 0000 0000 0000
0.0 0.0 0.0 0.0 0.0 0.0 0.0 0.0
0.0 0.0 0.0 0.0 0.0 0.0 0.0 0.0
0.0 0.0 0.0 0.0 0.0 0.0 0.0 0.0
0.0 0.0 0.0 0.0 0.0 0.0 0.0 0.0
0.0 0.0 0.0 0.0 0.0 0.0 0.0 0.0
0.0 0.0 0.0 0.0 0.0 0.0 0.0 0.0
0.0 0.0 0.0 0.0 0.0 0.0 0.0 0.0
0.0 0.0 0.0 0.0 0.0 0.0 0.0 0.0
0.0 0.0 0.0 0.0 0.0 0.0 0.0 0.0
0.0 0.0 0.0 0.0 0.0 0.0 0.0 0.0
0.0 0.0 0.0 0.0 0.0 0.0 0.0 0.0
0.0 0.0 0.0 0.0 0.0 0.0 0.0 0.0
0.0 0.0 0.0 0.0 0.0 0.0 0.0 0.0
0.0 0.0 0.0 0.0 0.0 0.0 0.0 0.0
0.0 0.0 0.0 0.0 0.0 0.0 0.0 0.0
0.0 0.0 0.0 0.0 0.0 0.0 0.0 0.0

action_model._continuous_distribution.mu.weight f4 [1, 128]
00000000: 6cc5 4cbc 7a21 753b 74d2 b339 ac2c 00bd
00000010: 825c 25bd b09d adbc 5b77 75bb 6011 e3bc
00000020: bd8c 5a3b 6590 9c3c df10 21bc 10a9 f43c
00000030: 0231 1b3c fdb9 7cba 23d3 cdbc 839a bf3a
00000040: af53 b7bc bd95 e1bc ef1c 0dbc 8419 a2bb
00000050: e76a 903c 1599 413c a29a 98bc a9b5 a4bc
00000060: 0a1d 75bc c3c5 9dbc bac0 e9bc 1fe1 1e3c
00000070: 800d 11bc 7b0b f43c cc02 c0bc ab9d 693c
00000080: 9edb 07ba 48ee f2bb 3b0f d4bb c398 1fbc
00000090: 6037 24bc a3e3 32bc 8fd5 b33c a7d4 9c3c
000000a0: 1be2 3f3c 80bd 96bb 62ba 423a 6629 8dbc
000000b0: b087 a53c 4570 ffbc 5b7d 153c 0252 efbc
000000c0: ca67 f3bc 651f 7ebc 7045 a6bb 773d 18bd
000000d0: 1f79 063d 6345 8ebc 2dad 003c dff2 45bc
000000e0: a884 16bc 9550 a6bc b534 3fbb aa83 05ba
000000f0: 3790 d0bb cf68 d3bb df89 ac3b 6bb3 393c
00000100: db82 32bc b794 653c 9fd8 ae3b 6003 fdbb
00000110: 77af 6d3c ed66 bfbb 9d77 c3bb f243 75bc
00000120: 4387 61bc aaa4 623a eb6b fc3c d75e 17bc
00000130: 4a12 d2bb b894 353b 5ae7 3dbc 2bfa 6f3b
00000140: 4f41 35bc bfd5 a8bc cf84 b73b aa96 aabb
00000150: 1a89 033c a3b3 1f3c 2192 bb3c af47 023c
00000160: d84c c5bc 4fe4 133c e448 cc3b 9a5e c8bc
00000170: 2846 b13b 6e74 9a3c 1ba1 96bc d584 653b
00000180: fc86 0f3c 9ed0 9fbb bffd a2bc 900e 72bb
00000190: cded 2bbc e921 b73c 6ffa a0bb 75df 0cbb
000001a0: c75d 1f3d 10ef f83a 5fe9 a439 79f1 2ebc
000001b0: ab65 11bd 67db f53c 5fa5 91bc c7e8 a23c
000001c0: c268 ccbb 6886 eebc 049c 423c a33c c5bc
000001d0: d782 eebc d2a4 49bc da08 eb3b 7768 ab3c
000001e0: b21e bfbc eb69 7ebc 7fa1 26bd 03e8 50bb
000001f0: 0be2 09bb 57b8 9f3b b6d3 34ba 5a7d d43c
-0.012498241 0.0037403987 0.0003429834 -0.031292602 -0.040371425 -0.021193355 -0.0037455175 -0.027718246
0.0033348047 0.019111821 -0.009830683 0.029865772 0.009472134 -0.00096407515 -0.025125092 0.0014618192
-0.02237877 -0.027537221 -0.008612855 -0.0049468894 0.0176291 0.011816283 -0.018628422 -0.020106154
-0.014960537 -0.01925934 -0.028534282 0.009697228 -0.008853316 0.02979063 -0.023438834 0.014258782
-0.0005182567 -0.0074136592 -0.006471542 -0.009741011 -0.010022968 -0.010918531 0.021952419 0.01914437
0.011711623 -0.004600227 0.0007428286 -0.017231654 0.020206302 -0.031181464 0.009124125 -0.029213909
-0.029712576 -0.015510415 -0.0050741956 -0.037167992 0.032830354 -0.01736707 0.007853788 -0.012081831
-0.009186901 -0.020302096 -0.0029175703 -0.0005093167 -0.006364848 -0.006451703 0.005265459 0.0113342805
-0.010895456 0.014012507 0.005335882 -0.0077213496 0.014507166 -0.005841127 -0.0059651867 -0.014969813
-0.013765159 0.00086457527 0.030813178 -0.00923892 -0.0064108716 0.0027707051 -0.011590803 0.0036617618
-0.011062934 -0.020609735 0.005600549 -0.005205949 0.008028293 0.009747419 0.022896828 0.007951661
-0.024084494 0.009026601 0.006234275 -0.024459172 0.0054099746 0.018854346 -0.018387368 0.00350218
0.00876021 -0.004877164 -0.019896386 -0.003693495 -0.010493708 0.022355037 -0.0049126665 -0.0021495495
0.038907792 0.0018992145 0.00031454393 -0.010677689 -0.03549735 0.030011846 -0.01777905 0.019886388
-0.006238074 -0.029116824 0.011878017 -0.024076765 -0.029115124 -0.012307363 0.007172686 0.020923836
-0.023330066 -0.0155281825 -0.04068136 -0.003187657 -0.0021039273 0.00487427 -0.00068980025 0.025938679

action_model._discrete_distribution.branches.0.weight f4 [5, 128]
00000000: dd7d 4e3c 4f4e 6ebb 1d59 1cbb a344 2b3c
00000010: aaa8 763b c761 0abc dd45 f4bb 0443 a4bc
00000020: c87b f63a a52e c4bb 3017 de3b 9fa6 99bb
00000030: 3aa5 233c c202 d23a a02d 07ba fbbe 233b
00000040: 8a84 953b c757 953c 9d03 dab9 61a5 09ba
00000050: 5e93 453b b3fa 64bc cff2 0f3b 1c67 01bb
00000060: 9a42 943c dddc e0bb ede4 3a3c 9f01 5e3b
00000070: c032 a9ba 4fd7 d83a b767 29bc 07f1 35bc
00000080: 300a 62bc b517 2e3c ba9c f93b 624e 9bbb
00000090: aed1 06bb 6142 c63b 4c97 37bc cae0 6bba
000000a0: c7ee 9d3b 95c4 95bb 60c2 343c fdb8 87bb
000000b0: ddaf f53b c996 0d3c e945 a1bb 2bf2 003c
000000c0: ac61 c73b 5da7 c6bb 16d0 8d3b db72 09ba
000000d0: d312 2d3b 5fd3 51bc 8f87 223c 4298 7c3b
000000e0: 64cc 393b 972c 88bb dd41 16bc a95a 20bc
000000f0: fdb3 f9bb a3f8 963b 0fed 6d3c 47ac 413c
00000100: 6700 a0bc 1992 1bbb b31e 623c 7782 eb3c
00000110: b123 4abb fa2c a63a 2732 253c dd96 a93a
00000120: 8f0a 7939 17d0 17bc 274a 2a3b 2577 b83b
00000130: 0f16 73ba eb0d 0d3c ef51 773b a160 a33c
00000140: 4d42 13bb 4b30 a03a 6393 b33b 52ae b93b
00000150: d0ae 593a 43d2 33bc 6540 fb3b 07c8 44bc
00000160: ebdb 113c 1349 843b b0e7 3cbb 3935 af3b
00000170: abdc f3ba d2f7 cc3b 859e 1d3c 6108 313c
00000180: dc79 b53b 3045 da3b 8b84 aa3b ebc4 faba
00000190: 3f1e 64bc d83a 123c 07d5 e5ba 0022 793c
000001a0: 7d9e 1a3c cdb8 b63c a01a 823b cb9c 983b
000001b0: 87ef 0f3b d38e 4abb 5932 8cb8 bda5 30bc
000001c0: 9233 d03b 3603 1a3b 3fc2 0e3c 0b64 243b
000001d0: 8d59 fe3b dbe6 87b8 aa19 b6b9 c0f1 8cbb
000001e0: b528 a13a 13ac aa3b 99e2 0339 5727 ea3b
000001f0: 4ac8 4c3b e6f1 a93b 193b b5ba 0a49 873a
00000200: 0b3c d5bb 6552 d6bb 403a d2ba 6f2b 1fbc
00000210: 0508 7e3a eb11 563c 95b5 a53c 78a2 0bbc
00000220: 4436 c13b cb47 203b 68c7 17bc 1fe6 3d3c
00000230: 48c8 72bc 730d 7f3c 68ba e5bb 4a6c 8c3c
00000240: 959e a73c 9527 143c 5b9c 93bc b1d0 8bbb
00000250: 5c02 083b 8b52 16bc 300c 92bb 279c 083b
00000260: bc71 a33b 0849 7e3b 8779 883b 18c3 ecb9
00000270: 4f34 093c 8185 1fbc ad2a ccbb ac39 84bc
00000280: ac29 28bc 3019 cfbc e0a3 f43a e0bb a4bc
00000290: 6094 2b3c bbc0 6c3b a031 533b e749 a8bb
000002a0: 37ab 5b3b f716 bdbb ff1e c33c 60e3 be3b
000002b0: f58b 433c 702e 87bb 1306 7a3b 26ea 0f3c
000002c0: e7a6 9e39 2f9f 64bb cd98 d03a 7316 fd39
000002d0: e4b7 873b 08d6 d3bb ab70 6c3c dfab 183c
000002e0: 1fff 6fbc 0b5e 833b 21b8 3cbb ccfb 483a
000002f0: 6e3d c03a 27da 073c 97f3 cebb ad3d 19bc
00000300: 6f81 a13c 1625 b4bb 0251 4fbb 1330 19bb
00000310: 9386 82bc fa97 46bb 4759 763b db41 bc3b
00000320: e756 0c3b a152 18bb 0d72 ef3a 2985 833a
00000330: c697 c83b 10d8 da3b 3bf5 263c 6727 813b
00000340: edce 093c 02b2 4abc ff79 803b fb1a 1d3c
00000350: f2cc 9e3b db87 ab3b cd01 f9bb e6c1 29bb
00000360: 5be9 453c a2fb 85bb ec91 823a 6faa d2bb
00000370: f1db 113b e249 67bc a4f0 873c 7482 a7bb
00000380: e8c4 343c f5be 4c38 a321 23bc ef27 a83c
00000390: 96db ac3b cd09 02bc 9f8a d8bb b0de 5e3c
000003a0: 1731 6dbb e363 71bb 2a59 e1bb b0d4 0abc
000003b0: 7bab 6e3c 9be3 dbba 4b1f a93b 4b72 c83b
000003c0: d1b4 c13b ddb5 c13a c0d9 e03b 4948 30bb
000003d0: 7f85 733c eadf 933c 7956 943b df07 1ebc
000003e0: a536 a63b f2d9 1bbb 15d4 ff39 e877 003c
000003f0: 71f4 373c 9331 b0bb f796 5b3b 9021 da3b
0.01260325 -0.0036362594 -0.0023856827 0.010453376 0.0037637153 -0.0084461635 -0.0074546174 -0.020051487
0.00188052 -0.005987006 0.0067776665 -0.0046890522 0.009988124 0.001602255 -0.000515664 0.002498566
0.004562919 0.018230332 -0.00041582892 -0.00052507786 0.0030147652 -0.013975787 0.0021964794 -0.0019745296
0.018098164 -0.0068622665 0.011407119 0.0033875478 -0.0012908801 0.0016543659 -0.010339669 -0.011104829
-0.013796374 0.010625769 0.00761756 -0.0047395686 -0.0020571756 0.0060503935 -0.011205506 -0.0008998035
0.0048197242 -0.0045705535 0.011032671 -0.0041419254 0.007497771 0.008641907 -0.004921664 0.007870237
0.0060846414 -0.0060624317 0.0043277843 -0.000524325 0.0026408925 -0.012806742 0.009920015 0.0038542901
0.0028350586 -0.004155706 -0.0091709765 -0.00978724 -0.007620333 0.0046072765 0.014521851 0.011820859
-0.019531442 -0.0023738204 0.013801265 0.028748734 -0.0030844028 0.0012678199 0.010082758 0.0012938638
0.00023750424 -0.009265921 0.002598414 0.0056294375 -0.00092730013 0.008609275 0.0037738045 0.019943537
-0.0022469938 0.0012221424 0.0054802164 0.0056665326 0.0008303942 -0.010975423 0.0076675885 -0.012010581
0.00890253 0.0040370314 -0.002882462 0.005346921 -0.0018605193 0.0062551284 0.0096203135 0.01080522
0.0055382084 0.00666108 0.0052037886 -0.0019132172 -0.013923227 0.008925162 -0.00175348 0.01520586
0.009437201 0.022304917 0.003970459 0.004657363 0.0021962838 -0.0030907884 -6.685098e-05 -0.010781703
0.006353804 0.002350045 0.008713304 0.0025084044 0.00776214 -6.480302e-05 -0.00034732866 -0.00430128
0.0012295457 0.005208501 0.00012577548 0.007145803 0.0031247311 0.0051863072 -0.0013826817 0.001032145
-0.006507402 -0.006540584 -0.0016039088 -0.009714945 0.0009690526 0.013065795 0.020228187 -0.008522622
0.0058963615 0.0024456854 -0.009263851 0.01159051 -0.014818259 0.015567171 -0.0070107467 0.01714148
0.02046136 0.00904264 -0.018018892 -0.0042668213 0.002075336 -0.009174953 -0.0044570193 0.0020845027
0.0049879234 0.0038800854 0.004164878 -0.00045158784 0.008374288 -0.00973642 -0.0062306733 -0.016140781
-0.010263842 -0.025280565 0.0018664561 -0.020109117 0.010472387 0.0036125618 0.0032225624 -0.005135763
0.00335188 -0.00577056 0.023818491 0.005825445 0.011935224 -0.004125409 0.0038150593 0.008783853
0.0003026046 -0.003488492 0.0015914679 0.00048272646 0.0041417945 -0.0064647235 0.014431159 0.009318321
-0.014648228 0.0040090135 -0.0028796273 0.0007666915 0.0014666745 0.008291758 -0.0063156593 -0.009353084
0.019715039 -0.005497585 -0.0031633978 -0.0023374602 -0.01593331 -0.0030302987 0.0037589835 0.0057451553
0.0021414103 -0.002324261 0.0018268243 0.0010034192 0.0061216084 0.0066785887 0.010190303 0.0039414647
0.008411151 -0.012371542 0.003920793 0.009588952 0.0048462087 0.005234701 -0.0075990916 -0.0025902926
0.012079562 -0.004088835 0.0009961701 -0.0064290087 0.002225634 -0.014116736 0.016594239 -0.005111987
0.011033274 4.8815233e-05 -0.00995675 0.020526854 0.0052752 -0.007936907 -0.006608322 0.0136028975
-0.003619259 -0.0036833219 -0.0068770843 -0.00847356 0.014567251 -0.0016776206 0.005161201 0.0061171404
0.0059114476 0.0014778931 0.0068618953 -0.0026898554 0.014863371 0.018051106 0.00452691 -0.009645431
0.005072432 -0.0023781029 0.00048795404 0.007841088 0.011227713 -0.0053770035 0.003350673 0.006656833

action_model._discrete_distribution.branches.0.bias f4 [5]
00000000: 0000 0000 0000 0000 0000 0000 0000 0000
00000010: 0000 0000
0.0 0.0 0.0 0.0 0.0

network_body._body_endoder.seq_layers.0.weight f4 [128, 1]
00000000: 37b1 b4bf e9d1 29bf e33f 71bf 2f20 5e3f
00000010: 6e32 05bf fd4e b73f 6702 ecbd 771e 543f
00000020: 70a1 be3f 9635 fe3f 06dc f4bf d73d cbbe
00000030: 8a4c a0bd 0cfa 673e f010 473f 1d0e 1a3e
00000040: 94c6 923f 5588 2ebd 6806 5fbe 8868 aabe
00000050: 5854 343f 63e6 663f c8e3 763f 6cc6 44bf
00000060: cad0 8abc 5309 33bf 5c32 6fbf 69f7 3d3e
00000070: 66bd 61bf 0b2c b23e edbe 0d3f 027a 92bf
00000080: 76ca 34bf 535b 4bbd 0670 8c3f 897a 60bd
00000090: c3f1 483f 77d2 06bf 5d77 dfbf 66c5 8f3e
000000a0: 7dde 94bf 367d 16bf 7074 f43e 2da3 873e
000000b0: 02c9 603e a8ed 1abe 373f 4abf 0a93 6d3f
000000c0: bfbb 00bf 6dc9 383e c958 ec3e d856 893c
000000d0: c10c 943f d1a2 0440 0da4 88bf 9555 043f
000000e0: 2c0e adbf 6ee3 9f3f 16d2 d9bd c851 5fbf
000000f0: bd53 6cbf d274 2340 78de ca3f 1df7 e73f
00000100: 18b0 49bf cff0 9f3f 708d 8bbf 2d30 e2bd
00000110: ab3f 983f 18b7 903e 361d dabe f07a 303f
00000120: 129d 3dbe 1941 bc3e 9e30 45bf f117 d53f
00000130: b4a7 8b3f d280 0d40 979d e23f ed07 da3f
00000140: 462b 78bf 8553 873f 6df6 30bf c084 7f3f
00000150: 22f5 cbbd 004d bf3e f2a8 96bf fbf1 05be
00000160: abfb 753f 33bb a4bf 5aa3 f13f c6d8 c53f
00000170: d734 0fbf 7cae 38be 8aa5 1d40 3503 b3bf
00000180: 449d 9c3e fc06 febc 3cb2 703f 9c24 ab3f
00000190: f24e abbe 8e88 883e da51 ec3e 451a 91be
000001a0: b2d7 01bf 7dc2 e83f 5256 98bf 2a4b 30be
000001b0: f98a 933e b82d 0ebf 7ec2 4abf eba7 0c3e
000001c0: 0d6f 0a40 4283 003c 4faa 693f 0b81 6c3f
000001d0: 98a2 b7be fd54 c9bf 6e11 60be 0540 123e
000001e0: 80d8 483d f46b 283f ee88 82be 1598 363f
000001f0: ee7d da3f b5a5 a3bf 8ef0 ec3f c686 853e
-1.4116582 -0.6633592 -0.9423811 0.8676786 -0.52030075 1.432098 -0.11523896 0.82858986
1.4893017 1.9860103 -1.9129646 -0.39695618 -0.07827099 0.22653979 0.7776022 0.15044446
1.1466851 -0.042610485 -0.21779788 -0.33282876 0.704412 0.9019529 0.96441317 -0.7686527
-0.016945262 -0.699361 -0.9343622 0.1855141 -0.88179624 0.34799227 0.55369455 -1.1443484
-0.7062143 -0.04964764 1.0971687 -0.05480436 0.784939 -0.52664894 -1.7458302 0.2808029
-1.1630398 -0.58784807 0.47745085 0.2649168 0.21951678 -0.15129721 -0.7900271 0.9280249
-0.5028648 0.18045588 0.46161488 0.016765043 1.1566392 2.0724375 -1.0675064 0.5169309
-1.351995 1.2491281 -0.10635774 -0.87234163 -0.92315274 2.5540051 1.5849142 1.8122288
-0.7878432 1.2495364 -1.0902538 -0.11044345 1.189443 0.2826469 -0.4260041 0.6893759
-0.18516949 0.36768416 -0.7702731 1.6647931 1.0910554 2.2109876 1.7704343 1.7033669
-0.9694103 1.0572363 -0.69126016 0.99811935 -0.09958865 0.37363434 -1.1770308 -0.1308059
0.9608714 -1.2869629 1.8877976 1.5456779 -0.5594 -0.1803531 2.4632287 -1.3985354
0.30588734 -0.03100919 0.94021964 1.3370547 -0.33458668 0.26666683 0.46156198 -0.28340355
-0.5071975 1.8184353 -1.1901343 -0.17216173 0.28816965 -0.5553851 -0.7920302 0.1373593
2.163028 0.007843794 0.91275495 0.92384404 -0.35866237 -1.5729061 -0.21881649 0.14282234
0.049034595 0.65789723 -0.25495094 0.7132581 1.7069681 -1.2784945 1.8510911 0.26079386

network_body._body_endoder.seq_layers.0.bias f4 [128]
00000000: 0000 0000 0000 0000 0000 0000 0000 0000
00000010: 0000 0000 0000 0000 0000 0000 0000 0000
00000020: 0000 0000 0000 0000 0000 0000 0000 0000
00000030: 0000 0000 0000 0000 0000 0000 0000 0000
00000040: 0000 0000 0000 0000 0000 0000 0000 0000
00000050: 0000 0000 0000 0000 0000 0000 0000 0000
00000060: 0000 0000 0000 0000 0000 0000 0000 0000
00000070: 0000 0000 0000 0000 0000 0000 0000 0000
00000080: 0000 0000 0000 0000 0000 0000 0000 0000
00000090: 0000 0000 0000 0000 0000 0000 0000 0000
000000a0: 0000 0000 0000 0000 0000 0000 0000 0000
000000b0: 0000 0000 0000 0000 0000 0000 0000 0000
000000c0: 0000 0000 0000 0000 0000 0000 0000 0000
000000d0: 0000 0000 0000 0000 0000 0000 0000 0000
000000e0: 0000 0000 0000 0000 0000 0000 0000 0000
000000f0: 0000 0000 0000 0000 0000 0000 0000 0000
00000100: 0000 0000 0000 0000 0000 0000 0000 0000
00000110: 0000 0000 0000 0000 0000 0000 0000 0000
00000120: 0000 0000 0000 0000 0000 0000 0000 0000
00000130: 0000 0000 0000 0000 0000 0000 0000 0000
00000140: 0000 0000 0000 0000 0000 0000 0000 0000
00000150: 0000 0000 0000 0000 0000 0000 0000 0000
00000160: 0000 0000 0000 0000 0000 0000 0000 0000
00000170: 0000 0000 0000 0000 0000 0000 0000 0000
00000180: 0000 0000 0000 0000 0000 0000 0000 0000
00000190: 0000 0000 0000 0000 0000 0000 0000 0000
000001a0: 0000 0000 0000 0000 0000 0000 0000 0000
000001b0: 0000 0000 0000 0000 0000 0000 0000 0000
000001c0: 0000 0000 0000 0000 0000 0000 0000 0000
000001d0: 0000 0000 0000 0000 0000 0000 0000 0000
000001e0: 0000 0000 0000 0000 0000 0000 0000 0000
000001f0: 0000 0000 0000 0000 0000 0000 0000 0000
0.0 0.0 0.0 0.0 0.0 0.0 0.0 0.0
0.0 0.0 0.0 0.0 0.0 0.0 0.0 0.0
0.0 0.0 0.0 0.0 0.0 0.0 0.0 0.0
0.0 0.0 0.0 0.0 0.0 0.0 0.0 0.0
0.0 0.0 0.0 0.0 0.0 0.0 0.0 0.0
0.0 0.0 0.0 0.0 0.0 0.0 0.0 0.0
0.0 0.0 0.0 0.0 0.0 0.0 0.0 0.0
0.0 0.0 0.0 0.0 0.0 0.0 0.0 0.0
0.0 0.0 0.0 0.0 0.0 0.0 0.0 0.0
0.0 0.0 0.0 0.0 0.0 0.0 0.0 0.0
0.0 0.0 0.0 0.0 0.0 0.0 0.0 0.0
0.0 0.0 0.0 0.0 0.0 0.0 0.0 0.0
0.0 0.0 0.0 0.0 0.0 0.0 0.0 0.0
0.0 0.0 0.0 0.0 0.0 0.0 0.0 0.0
0.0 0.0 0.0 0.0 0.0 0.0 0.0 0.0
0.0 0.0 0.0 0.0 0.0 0.0 0.0 0.0

network_body._body_endoder.seq_layers.2.weight f4 [128, 128]
00000000: 5150 a2bd c9e3 e73d d177 ab3d 9f2c 0f3e
00000010: 775c d7bc 9fe9 9d3d 822f 6cbb 760d 74be
00000020: c562 4cbd 747a 0c3d 4222 13be 2d0b c6bc
00000030: f347 f43d 0388 41bc 8ff1 243d b21d d43d
00000040: c463 eebd 1e7e d53d 5f7b 44bc a92f d6bd
00000050: 3699 3f3d fe8e 7c3d 8556 973c 33a6 4bbd
00000060: a02b 5e3d 5641 a63d 05f0 c8bd 7dbe a93d
00000070: c637 31be 938f bf3c 77e4 c73d ac82 9fbd
00000080: 9c1c 5fbd 354e 353e 8f36 503e c329 5d3c
00000090: cc31 f5bc 8d0c 36bd 6f4d 8fbd 2d1f 2c3d
000000a0: 65cc b1bc 02d6 693d 9fdb 58be 81cd e73d
000000b0: 01d6 09be 83bf 6a3e 2ab5 a0bb dd9a cdbd
000000c0: 21a1 d9bc cca0 c0bd a6c7 ab3d d0aa f93c
000000d0: 2702 bd3d 3b24 d0bd fdbe fa3c 2ff6 4cbc
000000e0: 5539 633d fb9e c3bb 0f46 f13d 9ec3 77bd
000000f0: dcec d2bc 4d69 53bc 70e9 0ebe 1fa3 c63d
00000100: 2b0b 45bd ccc3 75bd 87ca af3d b333 343b
00000110: fe89 33be 9190 503d 4a22 bdbd 5d4c 933c
00000120: 3b34 1abe c3ee 97bc 1dd5 c3bd 10e4 6b3d
00000130: d12c 1bbd 6467 e9bc 915a c33c aff7 933d
00000140: e7d7 233e c817 4abe 245a aebc 0f8a 373c
00000150: 2f48 87bb eb31 723d 7723 363d 3f77 4f3c
00000160: 19a6 2dbe 9e96 41bd 203f c6bc 91e0 a8bd
00000170: 266f 033e c4cf 823b 4572 cebb 0b4e fc3c
00000180: 97b3 0abe 5969 643c 0749 303d c4ff 31bd
00000190: 0a1f a6bc 621c cdbc 16cf 473d 57d1 8c3d
000001a0: 4d20 b8bc dbdb 803b 9719 1dbd c1e9 e43d
000001b0: 583c 333d 4584 a93b c247 993c 7826 453b
000001c0: b467 083d 36b5 0c3b 9993 b03c 1951 54bd
000001d0: c79a 443b c211 23bd 0469 8d3d b20a 943c
000001e0: f115 63bd 90e2 543c 3ded 46bc aa09 4ebd
000001f0: d3f6 dcbc d701 463d 0647 803e a332 21be
00000200: 5284 85bc fe59 a73b bc09 a53d e3db a43d
00000210: 911e 483d 157d 4cbd f4b5 3b3e f9f7 f4bc
00000220: 83e9 4bbe b587 3cbd 555e 1ebe 5a1a 1a3e
00000230: 93a0 903c 9e07 9d3b 624f f1bc 61f0 643d
00000240: cdda ca3d c31a 7f3c 4f2d 04bd d1db 39bd
00000250: 335b ae3d 4352 163d 1e0d 77bd aa90 f63d
00000260: 2091 a1bd 9f47 e13d 5059 8d3d e3c9 77be
00000270: 3e84 20bd 31d1 033c 8a2d 19be d676 6a3c
00000280: b5c2 2fbe b64c 813c 18c1 02bc 061b 4cbd
00000290: dedf 37bd 3f07 453d 701a 90bc 917e 14be
000002a0: e73b 95bd eaf2 cd3d 0db8 4bbd 20b5 f53d
000002b0: 12ff 83bc f83c ebbd 73a8 51bd bd60 93bd
000002c0: ed56 d5bd 3072 e13d 9277 d53d 7b44 543c
000002d0: a751 6dba 3d67 b8bb f72a 1fbe 673f 92bc
000002e0: 9650 1dbe de85 c33b 1b68 383c bc4c 883d
000002f0: 3f6c c03d 6e1e 943d ae1c bc3c 1d37 2c3d
00000300: 51c5 363d 0b2e 80bd 0398 9d3c da36 34bd
00000310: b259 653d b5d8 953d c536 7b3c 32a7 8c3d
00000320: 2b17 b13d 775d 393b 82ba 5b3d 5fb2 edbb
00000330: 136f 6d3d 9326 5a3e abd5 6e3e 1bd0 00be
00000340: a62f 92bd e736 013d 950a ae3d 734c 83bd
00000350: 56d6 2bbe cf0a a4bc 375d 04be df94 5d3e
00000360: c625 013b c13c 363d c325 493e f547 d23c
00000370: 28af 373d 9976 163d 50bd e4bd c826 a63d
00000380: dae7 953d 32d9 8a3c f3aa 3d3c 0b7a aabc
00000390: 5abd 97bd a6f8 823c 7c75 0bbd 90c3 0a3d
000003a0: 7ddd 8c3c e480 6dbd 0c6c d93c a38a a5bc
000003b0: 89e8 123d d4b1 3a3d c99c 1f3c 3a2a b23c
000003c0: 662c 5d3d a81c c2bc bbc6 6f3b b47c cabd
000003d0: a906 d8bd c272 d5bc 8611 3d3b 174e 883d
000003e0: 872d 803c 7ff7 523d 4031 0e3c 254c aa3d
000003f0: 1750 da3c f28e dfbc 002b 413d b371 b73d
-0.079254754 0.113227434 0.083724625 0.13981865 -0.026289208 0.07710575 -0.003603906 -0.2383326
-0.04989888 0.034296468 -0.14368537 -0.02417525 0.11927786 -0.011812213 0.04026943 0.103572264
-0.116401225 0.104244456 -0.011992305 -0.10458309 0.046776973 0.061659805 0.018473873 -0.049719047
0.054240823 0.081179306 -0.09811405 0.08288286 -0.17306432 0.023383891 0.09760373 -0.077885956
-0.054470643 0.17705615 0.20333312 0.013498726 -0.029930972 -0.044445563 -0.06997191 0.04202192
-0.021703908 0.05708886 -0.21177529 0.11318494 -0.13460542 0.22924618 -0.004904409 -0.100393035
-0.02656609 -0.094056696 0.08387689 0.030476958 0.09228926 -0.101631604 0.030608648 -0.012509867
0.055474598 -0.0059698797 0.11780941 -0.06048929 -0.025747709 -0.012903524 -0.13956237 0.09699082
-0.048106354 -0.06000118 0.08583551 0.0027496635 -0.17533109 0.05091912 -0.09235056 0.017980749
-0.15058987 -0.018546468 -0.095621325 0.057590544 -0.037884537 -0.028491683 0.023846896 0.07224976
0.16000329 -0.19735634 -0.021283217 0.011202349 -0.004128478 0.059129637 0.044467416 0.012662708
-0.16957892 -0.04726278 -0.024200022 -0.08245958 0.12835369 0.0039920527 -0.006300243 0.030798933
-0.1354507 0.013941132 0.043038394 -0.043456808 -0.020278472 -0.025037948 0.048781477 0.06875866
-0.02247634 0.003932459 -0.038354483 0.111773975 0.04375872 0.0051732385 0.018710975 0.0030082744
0.033302024 0.0021470315 0.021554755 -0.051835153 0.002999948 -0.039811857 0.06904796 0.018071506
-0.055440847 0.01299347 -0.012141523 -0.050302185 -0.026973164 0.0483416 0.25054187 -0.15741973
-0.016298447 0.0051071635 0.08058497 0.080497526 0.048857275 -0.049923975 0.18331128 -0.029903399
-0.19913296 -0.046027858 -0.15465672 0.15049115 0.017654693 0.004792168 -0.029456798 0.055893306
0.09905014 0.015570345 -0.032269772 -0.04537565 0.085134886 0.036699545 -0.060315244 0.12039311
-0.078890085 0.10999989 0.06901801 -0.24198107 -0.039188616 0.008045481 -0.14958778 0.014310559
-0.17164119 0.015783649 -0.007980607 -0.04983046 -0.04489123 0.048102614 -0.017590731 -0.14501406
-0.07286816 0.10056098 -0.04973607 0.119974375 -0.016112838 -0.11486238 -0.051186036 -0.07196186
-0.104169704 0.11008108 0.10423197 0.01295578 -0.00090529997 -0.0056275413 -0.15543734 -0.017852498
-0.15362772 0.005966886 0.011255289 0.06655261 0.09395646 0.072323665 0.022962894 0.042044748
0.04462177 -0.06258782 0.019237524 -0.043997623 0.055993743 0.07316724 0.015332882 0.068678275
0.08646997 0.002828447 0.053644665 -0.0072539295 0.057967257 0.21303777 0.23323695 -0.12579386
-0.071379945 0.0315465 0.08498112 -0.06411066 -0.16780981 -0.020024685 -0.12926184 0.21638821
0.0019706353 0.044491533 0.19643311 0.025669077 0.044844776 0.036734197 -0.11168921 0.08112866
0.07319613 0.01694927 0.011576402 -0.020810148 -0.07409163 0.015987705 -0.03404759 0.03387791
0.017195458 -0.057984248 0.026540779 -0.020207709 0.035866294 0.045579746 0.00974197 0.02174865
0.05399742 -0.023695305 0.0036586958 -0.098870665 -0.10548145 -0.026055697 0.0028849556 0.066555195
0.01564671 0.051505562 0.008678734 0.08315305 0.026649518 -0.027289841 0.04716015 0.08957233

network_body._body_endoder.seq_layers.2.bias f4 [128]
00000000: 0000 0000 0000 0000 0000 0000 0000 0000
00000010: 0000 0000 0000 0000 0000 0000 0000 0000
00000020: 0000 0000 0000 0000 0000 0000 0000 0000
00000030: 0000 0000 0000 0000 0000 0000 0000 0000
00000040: 0000 0000 0000 0000 0000 0000 0000 0000
00000050: 0000 0000 0000 0000 0000 0000 0000 0000
00000060: 0000 0000 0000 0000 0000 0000 0000 0000
00000070: 0000 0000 0000 0000 0000 0000 0000 0000
00000080: 0000 0000 0000 0000 0000 0000 0000 0000
00000090: 0000 0000 0000 0000 0000 0000 0000 0000
000000a0: 0000 0000 0000 0000 0000 0000 0000 0000
000000b0: 0000 0000 0000 0000 0000 0000 0000 0000
000000c0: 0000 0000 0000 0000 0000 0000 0000 0000
000000d0: 0000 0000 0000 0000 0000 0000 0000 0000
000000e0: 0000 0000 0000 0000 0000 0000 0000 0000
000000f0: 0000 0000 0000 0000 0000 0000 0000 0000
00000100: 0000 0000 0000 0000 0000 0000 0000 0000
00000110: 0000 0000 0000 0000 0000 0000 0000 0000
00000120: 0000 0000 0000 0000 0000 0000 0000 0000
00000130: 0000 0000 0000 0000 0000 0000 0000 0000
00000140: 0000 0000 0000 0000 0000 0000 0000 0000
00000150: 0000 0000 0000 0000 0000 0000 0000 0000
00000160: 0000 0000 0000 0000 0000 0000 0000 0000
00000170: 0000 0000 0000 0000 0000 0000 0000 0000
00000180: 0000 0000 0000 0000 0000 0000 0000 0000
00000190: 0000 0000 0000 0000 0000 0000 0000 0000
000001a0: 0000 0000 0000 0000 0000 0000 0000 0000
000001b0: 0000 0000 0000 0000 0000 0000 0000 0000
000001c0: 0000 0000 0000 0000 0000 0000 0000 0000
000001d0: 0000 0000 0000 0000 0000 0000 0000 0000
000001e0: 0000 0000 0000 0000 0000 0000 0000 0000
000001f0: 0000 0000 0000 0000 0000 0000 0000 0000
0.0 0.0 0.0 0.0 0.0 0.0 0.0 0.0
0.0 0.0 0.0 0.0 0.0 0.0 0.0 0.0
0.0 0.0 0.0 0.0 0.0 0.0 0.0 0.0
0.0 0.0 0.0 0.0 0.0 0.0 0.0 0.0
0.0 0.0 0.0 0.0 0.0 0.0 0.0 0.0
0.0 0.0 0.0 0.0 0.0 0.0 0.0 0.0
0.0 0.0 0.0 0.0 0.0 0.0 0.0 0.0
0.0 0.0 0.0 0.0 0.0 0.0 0.0 0.0
0.0 0.0 0.0 0.0 0.0 0.0 0.0 0.0
0.0 0.0 0.0 0.0 0.0 0.0 0.0 0.0
0.0 0.0 0.0 0.0 0.0 0.0 0.0 0.0
0.0 0.0 0.0 0.0 0.0 0.0 0.0 0.0
0.0 0.0 0.0 0.0 0.0 0.0 0.0 0.0
0.0 0.0 0.0 0.0 0.0 0.0 0.0 0.0
0.0 0.0 0.0 0.0 0.0 0.0 0.0 0.0
0.0 0.0 0.0 0.0 0.0 0.0 0.0 0.0

value_heads.value_heads.extrinsic.weight f4 [1, 128]
00000000: ecd2 9d3d 42b9 203e 0834 3f3d 488f a53c
00000010: 163b 35be e4c6 a9bd 18ce 8f3d 7a3b 2dbe
00000020: a894 4c3e fe54 a1bd d937 20be 96ca 403e
00000030: a417 a93d 205e 1fbd a099 223d 4c1d 9b3d
00000040: a444 cb3d 7223 193e e06e f33c 4ec4 063e
00000050: b06a 253c ed7c 2ebe b06a c53d c8f4 fa3c
00000060: dc44 b13d b750 10be f652 07be 4869 42bd
00000070: d810 d53d 9857 7a3d 649f 49be 2a6b 043e
00000080: 9090 1d3d b42e 803d c0ed 20bc b0d1 31be
00000090: 7a3b 2dbe 4cd9 d53d d06b 2d3e 980b 853d
000000a0: d01d 25bc 10b4 73bc 643c 86bd 18f7 3fbe
000000b0: 1bc1 3fbe 793d 13be 6023 173e 3055 0cbe
000000c0: f694 f8bd 281a 96bd b400 acbd de9d 95bd
000000d0: 385b 853c 37c8 14be b887 b7bc dcbd 113e
000000e0: 4881 edbd a87a aa3d 00da d73a bc8a 6cbd
000000f0: 2da2 32be 000b 7c3d a173 3dbe 92b1 48be
00000100: 128f 16be 309e 81bc 30f0 d23c de2e 123e
00000110: 02cf 4b3e 203b 0abd 24ca e4bd 34a6 5bbd
00000120: 26da 363e 0801 563e 3689 4cbe 96a1 0a3e
00000130: e02f 7fbd b281 103e 8c2b 213e cebc 3d3e
00000140: f4b4 023e 084b d23d 2947 30be 50d6 583e
00000150: ee9a 493e 3cf3 45bd a23e 04be 681b cb3d
00000160: 7726 bebd c695 2bbe 0c51 5c3e dccf dbbd
00000170: 38ed 333d 8ce4 1ebd 40b6 cb3d a0a9 47bd
00000180: 688c 36bd b0e6 6a3d c89a 0a3e 4432 f63d
00000190: d0ee 123d 6718 19be 76fe 2abe b59e 24be
000001a0: e42e 3bbe 345a 06be 6452 37bd 017e 10be
000001b0: 905a ba3d 7811 25be 1075 e1bc 70ea a13d
000001c0: 926e a7bd 7c71 c33d b43e 06bd 3295 343e
000001d0: 1849 233e 2b33 58be 903d 043e 2a94 f5bd
000001e0: 8a58 4abe e384 0dbe d34a c5bd 5811 1e3e
000001f0: 58c3 cdbc 98ce 4a3d 2069 a3bb 5080 253d
0.07706246 0.1569567 0.04668048 0.020209923 -0.17698321 -0.082898885 0.07021731 -0.1691722
0.19978583 -0.07877539 -0.15646304 0.1882728 0.08256462 -0.038908124 0.03969729 0.07573947
0.099252015 0.14954928 0.029715955 0.13160822 0.010096237 -0.17039843 0.0963949 0.030634299
0.08655712 -0.1409329 -0.13215241 -0.047463685 0.10403603 0.061118692 -0.19689709 0.12931505
0.038467944 0.06258908 -0.009822309 -0.17365146 -0.1691722 0.10441837 0.16935658 0.06496352
-0.010077909 -0.014874473 -0.06554487 -0.18746603 -0.18726008 -0.14378919 0.14759588 -0.13704371
-0.12137787 -0.07329208 -0.083985716 -0.073055014 0.016278848 -0.14529501 -0.022403583 0.14232582
-0.11596924 0.08324176 0.0016468167 -0.057749495 -0.17444678 0.061533928 -0.1850114 -0.19598988
-0.14703014 -0.0158225 0.025749296 0.14275691 0.19903186 -0.033747792 -0.11171368 -0.0536253
0.17856655 0.20898831 -0.19974217 0.13538203 -0.062301517 0.14111975 0.15739268 0.18529055
0.1276434 0.10268217 -0.17214645 0.21175504 0.19688007 -0.04832767 -0.12914518 0.09917337
-0.0928468 -0.16756353 0.21515292 -0.107330054 0.0439274 -0.038792178 0.09946871 -0.04874575
-0.044567496 0.057348907 0.13535607 0.12021306 0.03587228 -0.14950715 -0.16698632 -0.16076167
-0.18279606 -0.13120347 -0.04475631 -0.14110567 0.09099305 -0.16119945 -0.02752164 0.079060435
-0.081753865 0.0954313 -0.032774642 0.17635038 0.15945852 -0.21113269 0.12914109 -0.11991151
-0.19760337 -0.13820224 -0.09633412 0.15436304 -0.025117561 0.04951343 -0.004986897 0.04040557
