results/ppo/My Behavior/My Behavior-128.onnx (onnx, 74329 bytes, 9 tensors)

network_body._body_endoder.seq_layers.0.weight f4 [128, 1]
00000000: 3cea e2bd 648b 42bf 4dce f63e 5d05 d0bd
00000010: cc7a 3dbe e5d5 e3bf 90df 183f 5d57 ef3f
00000020: f670 723f 7022 febe 7246 83be bbf7 37bf
00000030: 264e 1e3f 2cb7 40be 364e ce3e 6517 b43e
00000040: daa1 edbe 8ee8 80bf 3d97 883f fe31 e1be
00000050: c5a0 053f 1715 353f d1ef 1b3e d8da 37be
00000060: adac 11be 1824 153f 36a2 10bd bbca 6b3f
00000070: 54c0 1d40 61cb ce3e 2ecd f93e a941 e0bf
00000080: 88cc 8f3d 9812 a1be 159f bbbf db0a b53f
00000090: 18df c5bf 77d4 f3be dbaa 833f 8202 12bf
000000a0: c32e df3e 1014 3d3e 3361 f83f e63e 25be
000000b0: 25a0 3a3f ceaa a53e 4eb5 853f c2d0 183e
000000c0: 3ae0 93be 5019 aabf 6525 05c0 79ab 94bf
000000d0: 22d0 3d3f ed80 ccbf a775 383f b897 d73f
000000e0: b946 b63f 68a8 60be ea95 743f 384e f23e
000000f0: 7f09 6c3f 229d 19bf 0243 03bd ea48 cdbf
00000100: 175e 0ebf ad26 be3f 94e9 a2bf 7a2c 9f3f
00000110: a36e a3be cceb 383f b1fb 9fbf 4c78 a5be
00000120: c87f 833f 3be7 b4bf 2f05 8d3e 2833 2a3d
00000130: 780e 693e 602d 963f 9a3c c73f 8d7c 9d3f
00000140: 2111 90be 1b01 f63f 12f5 81bf 7b13 b43f
00000150: 04f5 c53f e1c7 9d3f a647 f83e aeb2 f4bd
00000160: 5343 b0bf 797d 5dbf fece eb3e b1f3 ce3b
00000170: 883e 04be 6b43 53bf 7a7d cc3e 0cc5 07c0
00000180: be05 1240 7a12 ea3e 1168 51bf 88b9 9f3f
00000190: aa39 e0be 1968 f0bf 9e08 453e f5f0 6b3f
000001a0: 8985 92be 8d1e cc3e 0dbe a4be ab33 713f
000001b0: 127c 5c3f 8fe0 2dbd f851 acbe 2f7d 6a3f
000001c0: c693 1d3e 9662 ca3e d1ae d73d 2391 67bf
000001d0: 677d de3f b25f 473f ba15 293f c37c bcbf
000001e0: d6a0 d53f 37b6 1fbe 2c6d 413f d5ac ca3f
000001f0: fda7 223f 48b9 85bf af62 803f 5afa 253f
-0.11079833 -0.75993943 0.4820427 -0.10157273 -0.18503875 -1.779965 0.5971613 1.8698536
0.94703615 -0.4963565 -0.25639683 -0.7186238 0.61837995 -0.18819875 0.40294045 0.351741
-0.46412545 -1.007097 1.0671154 -0.43983454 0.5219844 0.70735306 0.15228201 -0.17954576
-0.14226027 0.582582 -0.035310946 0.9210622 2.4648638 0.4038954 0.48789352 -1.7520038
0.07021433 -0.31459498 -1.4657923 1.4143938 -1.5458708 -0.47623035 1.0286516 -0.57035077
0.43590364 0.18464684 1.9404663 -0.16137275 0.7290061 0.32356876 1.0445955 0.14923385
-0.2888201 -1.3288975 -2.0804074 -1.1614829 0.7414571 -1.5976845 0.72054523 1.6843176
1.4240333 -0.21939242 0.9554125 0.473253 0.9220199 -0.6000539 -0.032046326 -1.6037877
-0.5561232 1.4855553 -1.2727532 1.2435448 -0.31920347 0.722348 -1.2498685 -0.32318342
1.0273371 -1.4133066 0.27543017 0.041552693 0.22759426 1.1732597 1.5565369 1.2303635
-0.28138068 1.9219087 -1.0152915 1.4068445 1.5465398 1.2326623 0.48492163 -0.11948143
-1.3770546 -0.8651958 0.4605636 0.0063156714 -0.12914479 -0.82524747 0.3993948 -2.1214018
2.2816005 0.45717221 -0.8179942 1.2478495 -0.43793994 -1.8781768 0.19241568 0.92164546
-0.28617504 0.39867058 -0.32176247 0.94219464 0.86126816 -0.042450484 -0.33656287 0.91597265
0.15388402 0.3952834 0.105313905 -0.90455836 1.738202 0.77880394 0.6604878 -1.4725574
1.6689708 -0.15596853 0.7555721 1.5833994 0.6353758 -1.0447168 1.0030116 0.6483513

network_body._body_endoder.seq_layers.0.bias f4 [128]
00000000: 0000 0000 0000 0000 0000 0000 0000 0000
00000010: 0000 0000 0000 0000 0000 0000 0000 0000
00000020: 0000 0000 0000 0000 0000 0000 0000 0000
00000030: 0000 0000 0000 0000 0000 0000 0000 0000
00000040: 0000 0000 0000 0000 0000 0000 0000 0000
00000050: 0000 0000 0000 0000 0000 0000 0000 0000
00000060: 0000 0000 0000 0000 0000 0000 0000 0000
00000070: 0000 0000 0000 0000 0000 0000 0000 0000
00000080: 0000 0000 0000 0000 0000 0000 0000 0000
00000090: 0000 0000 0000 0000 0000 0000 0000 0000
000000a0: 0000 0000 0000 0000 0000 0000 0000 0000
000000b0: 0000 0000 0000 0000 0000 0000 0000 0000
000000c0: 0000 0000 0000 0000 0000 0000 0000 0000
000000d0: 0000 0000 0000 0000 0000 0000 0000 0000
000000e0: 0000 0000 0000 0000 0000 0000 0000 0000
000000f0: 0000 0000 0000 0000 0000 0000 0000 0000
00000100: 0000 0000 0000 0000 0000 0000 0000 0000
00000110: 0000 0000 0000 0000 0000 0000 0000 0000
00000120: 0000 0000 0000 0000 0000 0000 0000 0000
00000130: 0000 0000 0000 0000 0000 0000 0000 0000
00000140: 0000 0000 0000 0000 0000 0000 0000 0000
00000150: 0000 0000 0000 0000 0000 0000 0000 0000
00000160: 0000 0000 0000 0000 0000 0000 0000 0000
00000170: 0000 0000 0000 0000 0000 0000 0000 0000
00000180: 0000 0000 0000 0000 0000 0000 0000 0000
00000190: 0000 0000 0000 0000 0000 0000 0000 0000
000001a0: 0000 0000 0000 0000 0000 0000 0000 0000
000001b0: 0000 0000 0000 0000 0000 0000 0000 0000
000001c0: 0000 0000 0000 0000 0000 0000 0000 0000
000001d0: 0000 0000 0000 0000 0000 0000 0000 0000
000001e0: 0000 0000 0000 0000 0000 0000 0000 0000
000001f0: 0000 0000 0000 0000 0000 0000 0000 0000
0.0 0.0 0.0 0.0 0.0 0.0 0.0 0.0
0.0 0.0 0.0 0.0 0.0 0.0 0.0 0.0
0.0 0.0 0.0 0.0 0.0 0.0 0.0 0.0
0.0 0.0 0.0 0.0 0.0 0.0 0.0 0.0
0.0 0.0 0.0 0.0 0.0 0.0 0.0 0.0
0.0 0.0 0.0 0.0 0.0 0.0 0.0 0.0
0.0 0.0 0.0 0.0 0.0 0.0 0.0 0.0
0.0 0.0 0.0 0.0 0.0 0.0 0.0 0.0
0.0 0.0 0.0 0.0 0.0 0.0 0.0 0.0
0.0 0.0 0.0 0.0 0.0 0.0 0.0 0.0
0.0 0.0 0.0 0.0 0.0 0.0 0.0 0.0
0.0 0.0 0.0 0.0 0.0 0.0 0.0 0.0
0.0 0.0 0.0 0.0 0.0 0.0 0.0 0.0
0.0 0.0 0.0 0.0 0.0 0.0 0.0 0.0
0.0 0.0 0.0 0.0 0.0 0.0 0.0 0.0
0.0 0.0 0.0 0.0 0.0 0.0 0.0 0.0

network_body._body_endoder.seq_layers.2.weight f4 [128, 128]
00000000: 6963 8abd effa 563e 88a2 27bd b34e a4bd
00000010: 14b3 3f3d b96d 703c a035 843d fb53 72bd
00000020: 3312 46bd 9caf 683c 237b ad3d 8a94 bf3d
00000030: 8acf 5e3c 3bef 8ab9 887e e93b c084 9cbd
00000040: 622c 323e 6884 38bd 7a92 28bd 8d96 713d
00000050: 2066 063e 8e84 b03d 72a5 883c d8fa 1dbe
00000060: e931 e93c 8363 ec3c 9580 b7bc 8080 acbc
00000070: b03d 17be 52f2 d2bc 77f6 ee3b 0ca0 c0bd
00000080: e0cc 133e 87e2 363d 226c 3fbe 7799 dcbd
00000090: 8c7b ab3d 057e 913a 8a1a 2a3c d0db c43d
000000a0: de39 e4bd e420 25bd fdf2 7c3c 6431 c4bc
000000b0: 440e a7bd 82a2 cfbd ce36 593b 32bf 063e
000000c0: 29bd 82bd 9d06 e93d 50fe d4bd 066c 1fbd
000000d0: 860f f5bd 97ec 6b3d 0723 03be 35e2 ca3d
000000e0: f2b8 b2bb d12b 80bd 1764 ca3d 732a 92bd
000000f0: 3b83 1ebe d109 583d c5fe a7bd 237d ab3c
00000100: ff98 17be ebdf e33c b134 fb3c e85e 3abc
00000110: a3a2 643d cb4c 9fbd 12e4 493b bb6e 953d
00000120: 6c6e 17bd 301e 03be 2a11 463e 14db ee3c
00000130: a589 683c 99f0 4e3b 4cfd 49bd 452a 533d
00000140: 13ed 343e c447 e63d 9bd2 493e 962a 9bbd
00000150: da0a 4d3d ea9c d4bd b825 b4bd 6e7d be3b
00000160: f71d 523e 842b 253b fcc1 6cbc 0641 863e
00000170: 8739 ea3d 45e9 a6bd 327d e93a eef3 0a3e
00000180: f1a1 803d 342e b13b 1042 89bb 831f 1e3b
00000190: 0841 0abc 58c2 493e 709b 77bb 8d97 2a3e
000001a0: c870 22bb d961 2f3d 9183 11bb 6035 0e3e
000001b0: b108 913d 3107 0abe e2ab 2b3e 5b95 22be
000001c0: c558 9e3d 35a4 43bd 7b46 ea3c c3b4 e3bc
000001d0: 3942 de3c 6393 04bd 663b 68bd 9e80 1fbd
000001e0: 2db5 8fbd dfdf 78bd 3715 e23c 0b5f 8cbd
000001f0: 3fb4 4cbd a79e 27bc d5d9 0439 1b69 91bd
00000200: a06b cf3d 39a7 59bd 6a8d febc 2df3 3e3d
00000210: 79be d73d cf25 1f3e ee09 00be 5e38 e6bc
00000220: af35 c1bd 2c53 743d 0954 76bc e290 0dbd
00000230: 265d 3e3d ac14 8f3c 2928 df3d e738 393d
00000240: 92d2 863d 6de2 34be 0cfa be3c 6247 cbbd
00000250: a30e a73c 558a 423c e978 8c3c 43df c8bd
00000260: 8574 babd b487 82bd 53dc 98bd d93e 6abd
00000270: 8518 cfbd 8dc5 423e c95f a1bc e57a 8abd
00000280: afbc a7bc 9d73 4c3d 8083 813d 26fd cb3c
00000290: d58d 55bc 1b98 453d d583 833c 34df 963d
000002a0: 67cc 433d 9a17 e93d 9fb9 3e3d 8d9a 16bd
000002b0: 229b d13c 56db e2bc d93b b23d c34e bdba
000002c0: 4318 82bd fe0b 8ebc 9d75 8f3d 5ac7 edbc
000002d0: a00d 463d b74c d83d cd12 9ebd 4596 0cbe
000002e0: ba11 f3bc de7c 3dbd 4619 9b3d 1c8d 11bd
000002f0: 9006 13be ca7b 333d c587 34bd e05d b43c
00000300: 1ee5 a93c e738 3fbd 2544 64bd f446 60bd
00000310: 82f2 fa3d ac26 003d c4bc ad3d 727e 29bd
00000320: 10c4 a43a 2e79 4fbe c7e2 f23c 36d4 373d
00000330: 4f49 b9be ce0f 4b3e 52c6 e9bd 9d03 27bd
00000340: cdbe 40bd b155 853c c445 9fbd 5b2a bcb9
00000350: 4dbf 273d 24cb c13d c5e1 be3d 84f5 463d
00000360: dcff 1e3e 8590 c83d 99e7 02be 5b95 ff3d
00000370: 7ed4 903d 1ec5 b9bd aa0a 113d eb65 e9ba
00000380: 441c 51bd 9235 ab3d 1fbe f23c eb45 0f3e
00000390: c5c7 e6bc 8496 193d 5f46 98bc 028b 963c
000003a0: 01bd 65be 4cca 9f3c baaf b3bc 5ee1 23be
000003b0: c425 a43c ee2d 0cbb 5d47 213e 6659 c93d
000003c0: 1b63 7bbd 553a e73d 3d8b c83b 4fc2 8f3d
000003d0: 9857 dfbd df98 68bc 9868 90bd aa7c 09bd
000003e0: c97a 123d de89 d138 d1e7 c0bb 78a6 9cbd
000003f0: ba47 4ebd 5543 413e aeb2 07be 0830 7bbc
-0.06757242 0.20994161 -0.040926486 -0.08022823 0.04680164 0.014674597 0.06455541 -0.05916212
-0.0483572 0.014202025 0.08470752 0.093545035 0.013599286 -0.00026499652 0.0071256794 -0.076425076
0.17399743 -0.045048147 -0.041155316 0.058981467 0.13124895 0.08619033 0.016680453 -0.1542772
0.028466182 0.028856045 -0.02240018 -0.021057367 -0.14769626 -0.025750313 0.0072925645 -0.094055265
0.14433622 0.044649627 -0.18693593 -0.107714586 0.08373174 0.0011100179 0.010382304 0.096122384
-0.1114385 -0.04031457 0.015438792 -0.023949333 -0.08157018 -0.10138418 0.0033144238 0.13158873
-0.06383736 0.113782145 -0.10400069 -0.03892138 -0.119658515 0.057598677 -0.1280633 0.09906427
-0.005454176 -0.06258357 0.09882372 -0.07137003 -0.15479748 0.052743737 -0.0820289 0.020933693
-0.14804457 0.027816733 0.030664774 -0.0113751665 0.055819165 -0.07778319 0.0030806107 0.07296511
-0.03697054 -0.12804484 0.19342485 0.029157199 0.014192973 0.0031576513 -0.04931383 0.051553983
0.17668562 0.11244157 0.19709246 -0.07576482 0.050059177 -0.103814915 -0.08796257 0.005813292
0.20519243 0.002520294 -0.014450546 0.26221484 0.11436754 -0.081499614 0.00178138 0.13569614
0.06280888 0.005407119 -0.0041887835 0.002412767 -0.008438356 0.19703043 -0.0037781857 0.16659375
-0.002478646 0.042817924 -0.0022203664 0.13887548 0.07081736 -0.13479306 0.16764787 -0.15877287
0.07731775 -0.047764022 0.02859806 -0.027796155 0.027131187 -0.03236712 -0.05669727 -0.03894102
-0.070169784 -0.060760375 0.027598007 -0.068540655 -0.049976584 -0.010230697 0.0001266965 -0.071001254
0.1012795 -0.05313799 -0.03107329 0.04661863 0.10534377 0.15541767 -0.12503788 -0.02810305
-0.094340675 0.05964963 -0.015034684 -0.034562 0.046475552 0.017465912 0.10896332 0.045220282
0.06583132 -0.176645 0.023312591 -0.099257246 0.020392722 0.011873801 0.017147498 -0.09808209
-0.091042556 -0.063735396 -0.074638985 -0.057188842 -0.101120986 0.19020672 -0.019698994 -0.067617215
-0.020475714 0.049914945 0.0632391 0.024900984 -0.013034304 0.048240762 0.016054073 0.07366791
0.047802355 0.11381455 0.04656374 -0.036768485 0.025586668 -0.027692478 0.08702821 -0.0014443028
-0.06352284 -0.017339703 0.07004855 -0.029025722 0.048352838 0.10561507 -0.0771843 -0.13729198
-0.029671539 -0.04626166 0.0757318 -0.035534963 -0.14357972 0.043819226 -0.044074792 0.02201742
0.020739134 -0.046685126 -0.05572905 -0.054755166 0.12253286 0.03128688 0.0848327 -0.041380353
0.0012570638 -0.2026107 0.029649151 0.044880114 -0.36188743 0.19830248 -0.1141478 -0.04077493
-0.04705696 0.016276212 -0.077769786 -0.00035889712 0.040953923 0.09462574 0.09320406 0.048573986
0.1552729 0.0979319 -0.1278366 0.12479659 0.0707178 -0.090708 0.03541056 -0.0017806863
-0.051052347 0.08359827 0.029631672 0.13991515 -0.02817143 0.03749706 -0.018588243 0.018376831
-0.2243538 0.019505642 -0.021934379 -0.1600394 0.02003754 -0.002138968 0.15749879 0.098315045
-0.06137381 0.11290423 0.006120114 0.07019483 -0.10905379 -0.014196604 -0.070512 -0.033566155
0.03576163 9.9915764e-05 -0.0058870097 -0.07648939 -0.050361373 0.18873341 -0.13251755 -0.015331276

network_body._body_endoder.seq_layers.2.bias f4 [128]
00000000: 0000 0000 0000 0000 0000 0000 0000 0000
00000010: 0000 0000 0000 0000 0000 0000 0000 0000
00000020: 0000 0000 0000 0000 0000 0000 0000 0000
00000030: 0000 0000 0000 0000 0000 0000 0000 0000
00000040: 0000 0000 0000 0000 0000 0000 0000 0000
00000050: 0000 0000 0000 0000 0000 0000 0000 0000
00000060: 0000 0000 0000 0000 0000 0000 0000 0000
00000070: 0000 0000 0000 0000 0000 0000 0000 0000
00000080: 0000 0000 0000 0000 0000 0000 0000 0000
00000090: 0000 0000 0000 0000 0000 0000 0000 0000
000000a0: 0000 0000 0000 0000 0000 0000 0000 0000
000000b0: 0000 0000 0000 0000 0000 0000 0000 0000
000000c0: 0000 0000 0000 0000 0000 0000 0000 0000
000000d0: 0000 0000 0000 0000 0000 0000 0000 0000
000000e0: 0000 0000 0000 0000 0000 0000 0000 0000
000000f0: 0000 0000 0000 0000 0000 0000 0000 0000
00000100: 0000 0000 0000 0000 0000 0000 0000 0000
00000110: 0000 0000 0000 0000 0000 0000 0000 0000
00000120: 0000 0000 0000 0000 0000 0000 0000 0000
00000130: 0000 0000 0000 0000 0000 0000 0000 0000
00000140: 0000 0000 0000 0000 0000 0000 0000 0000
00000150: 0000 0000 0000 0000 0000 0000 0000 0000
00000160: 0000 0000 0000 0000 0000 0000 0000 0000
00000170: 0000 0000 0000 0000 0000 0000 0000 0000
00000180: 0000 0000 0000 0000 0000 0000 0000 0000
00000190: 0000 0000 0000 0000 0000 0000 0000 0000
000001a0: 0000 0000 0000 0000 0000 0000 0000 0000
000001b0: 0000 0000 0000 0000 0000 0000 0000 0000
000001c0: 0000 0000 0000 0000 0000 0000 0000 0000
000001d0: 0000 0000 0000 0000 0000 0000 0000 0000
000001e0: 0000 0000 0000 0000 0000 0000 0000 0000
000001f0: 0000 0000 0000 0000 0000 0000 0000 0000
0.0 0.0 0.0 0.0 0.0 0.0 0.0 0.0
0.0 0.0 0.0 0.0 0.0 0.0 0.0 0.0
0.0 0.0 0.0 0.0 0.0 0.0 0.0 0.0
0.0 0.0 0.0 0.0 0.0 0.0 0.0 0.0
0.0 0.0 0.0 0.0 0.0 0.0 0.0 0.0
0.0 0.0 0.0 0.0 0.0 0.0 0.0 0.0
0.0 0.0 0.0 0.0 0.0 0.0 0.0 0.0
0.0 0.0 0.0 0.0 0.0 0.0 0.0 0.0
0.0 0.0 0.0 0.0 0.0 0.0 0.0 0.0
0.0 0.0 0.0 0.0 0.0 0.0 0.0 0.0
0.0 0.0 0.0 0.0 0.0 0.0 0.0 0.0
0.0 0.0 0.0 0.0 0.0 0.0 0.0 0.0
0.0 0.0 0.0 0.0 0.0 0.0 0.0 0.0
0.0 0.0 0.0 0.0 0.0 0.0 0.0 0.0
0.0 0.0 0.0 0.0 0.0 0.0 0.0 0.0
0.0 0.0 0.0 0.0 0.0 0.0 0.0 0.0

action_model._continuous_distribution.log_sigma f4 [1, 3]
00000000: 0000 0000 0000 0000 0000 0000
0.0 0.0 0.0

action_model._continuous_distribution.mu.weight f4 [3, 128]
00000000: d86b eabc 61fb 443c 5b49 6bbc 434b 683c
00000010: 387e d1bb a734 d43c 95a2 d2bc 6b8f 71bc
00000020: db48 89bc c040 c83b 074a aabc 42fd 44bc
00000030: cf14 b9bb 9138 14bb 87b9 58bc 1235 d0bc
00000040: 25cb a0bc 7fc9 11bd c87d 04bb 605a a3bc
00000050: 1b94 dd3b d5fb 5cbc 9356 4fbc c0ac 09bb
00000060: ee74 12bd 92ad ce3b 9bda cb3c 12f9 cc3c
00000070: 9d0d 83bc c4ba 943c 4508 93bc 439f a1bb
00000080: 1eb5 49bc 276d 0a3d cb2c 46bc 23f9 db3c
00000090: d800 46bc 3b71 b3bb c71d c5bb 94e5 cabc
000000a0: c525 65bb 67c4 93bc 28b2 283c c30a 71bc
000000b0: 6fe9 00bd 2ff7 ebbc 923f 2ebb 21da 053a
000000c0: b190 babc d350 e83c a3d2 2ebd fd6e 38bc
000000d0: e20c 983c 5262 943c 4b80 02bb 9299 cdbb
000000e0: 2302 1abc 5290 23bc 115c 9ebb 2d1a dcbb
000000f0: 8a97 9a3b af90 81bc b75b 45bc 20df 7e3c
00000100: 0e67 8dbb 81f4 8a3c 9bdf d13a 7b8b ebbc
00000110: ab1a bd3c 5a01 d9bb 1830 ffbc 605e e2bb
00000120: d0e0 6bbc fb1c 013c a842 723c e2e1 fbbb
00000130: 66a5 10bd 6858 b0bb 49d8 36bb 408a 603c
00000140: a880 9bbc 80b4 703c 05cf 9ebc cef9 383c
00000150: 725c 783c 4729 9ebc e64a bebb e68e a13a
00000160: 6e43 22bb 27c4 c73c c805 d3bc 4ab5 173b
00000170: 25e3 03bd 487f 03ba 4ad6 bb3c 83a6 15bb
00000180: 58b1 d5ba 9fbd 773c 54a7 b83c 2363 12bc
00000190: 7026 debc cb85 b2bc 25ae 5f3c 7a74 653c
000001a0: 46d0 03bc 43dd 523b 7481 193a d745 e9bb
000001b0: e5b6 dbbb 4b8d 0f3c 8e8b b73b f710 263c
000001c0: 4b62 dd3b 6bb3 753c 654f a53b a804 36bc
000001d0: c942 4cbb 9b1e 4f3c 5a5c 883c feb3 883b
000001e0: 1fd3 89bc b873 06bd 2704 8abc eb8a 2b3b
000001f0: bf76 d33b 5b34 afbb da1b 06bb db5b e33c
00000200: ccb2 c3bc 5fd3 0a39 8f33 5cbc c8f8 6b3c
00000210: c240 273c af89 f93a ebe1 32bb ec41 8e3c
00000220: fad4 0dbc 28d6 69bb 14f5 3bbc 5fe6 233a
00000230: 0bac 40bc e7a7 9ebc 1d8d 053d 5520 64bb
00000240: bbfc 3cbc 5fac 023b 5717 303b 3e72 2738
00000250: e3b1 863c 5eb7 1b3c 5ffe 57bc 8730 633c
00000260: d2a5 263d dbdd 9abc aeb6 1d3c 153a 6ebc
00000270: 1901 c5bb c15f 0f3c ed53 1ebd 4876 523b
00000280: 8a73 b53c 8cc1 03bb 70d7 a538 1008 143c
00000290: 6a33 493c 6818 4ebb 6570 f23c f734 2dbb
000002a0: b2cd 02bc d76e c8bc e360 1fbc 84fe a23c
000002b0: e9d3 31bc 9ec5 3738 90e1 7d3a b057 173c
000002c0: 312e 163c 834c c0bc b36d a5ba 65ed af3b
000002d0: 5112 393b 0a3b a1ba b3bf d6ba 7797 063d
000002e0: ed1b 5b3c 8f1a 293b f784 88bc 5b41 403b
000002f0: 576d 8bbc cc4e 3abd 6b8c 65bc d482 93bb
00000300: 6b11 b1bc 4463 3fbc 5bea c0b9 cf9f 1bbc
00000310: cc8f 88bc a7ae d73c 59d7 2c3c 10e5 e0bc
00000320: dca7 88bb 5f9a 12bd ea8e 713c cb5b 0d3b
00000330: 8a16 62bc dff5 6d3c 55d9 6f3a 622f 2f3c
00000340: 7d57 503c 5b50 30bd 8973 c1bc 72f4 133b
00000350: b2c0 90bc 1fd3 ecbc 608a bbbb 5d8f a93c
00000360: 6867 5739 f6fe 093a 105a e33c 0f76 723c
00000370: 3e89 b4bc fff3 18bb 42d1 2dbb 360c 16bc
00000380: 1d0e dcbc 3787 1bbc ef23 a8bb 143c 23bd
00000390: 881c 4dbb f37b b73b 0273 0abc 0728 60bc
000003a0: af27 d43c ba16 e1bb e46d 99bc 526f 7fbc
000003b0: 5d19 a6bc 3214 0dbc 3a10 f6ba b36e d23c
000003c0: 9747 b8bc beb9 0a3c fc09 373c 9761 973c
000003d0: 9dc0 3dbc def3 233c 6512 a33c c26f dbbc
000003e0: 2b5b a73c 6793 403d d139 193c 1f6c 753b
000003f0: 3f99 183c 6b30 c13b 9397 fa3b bba5 293b
-0.028615877 0.012022824 -0.014360751 0.0141781 -0.0063932203 0.025904013 -0.02571229 -0.014743666
-0.016758373 0.0061112344 -0.020787252 -0.012023272 -0.0056482325 -0.0022616724 -0.013227827 -0.02541593
-0.019628117 -0.035592552 -0.0020216573 -0.019940555 0.0067620403 -0.013487776 -0.012654918 -0.0021007508
-0.035756044 0.0063073123 0.024884513 0.02502111 -0.015997702 0.018155463 -0.01794828 -0.0049323156
-0.012311248 0.033795502 -0.01209564 0.026852196 -0.012085162 -0.0054761446 -0.0060155126 -0.024767675
-0.003496514 -0.018037988 0.010296382 -0.014712038 -0.03147262 -0.02880439 -0.0026588184 0.0005106051
-0.022774072 0.028358852 -0.042681348 -0.01125693 0.01856083 0.018113289 -0.0019912894 -0.0062744105
-0.0093999235 -0.009983139 -0.0048327525 -0.0067169876 0.004717772 -0.01581606 -0.012045792 0.015556127
-0.0043152636 0.016962292 0.0016012074 -0.028753033 0.023084005 -0.0066224756 -0.031150863 -0.006908223
-0.014396861 0.007880445 0.0147864 -0.0076868394 -0.035313986 -0.0053816326 -0.0027899912 0.013704836
-0.018982247 0.014691472 -0.019385824 0.011290027 0.015158759 -0.019306792 -0.0058072684 0.0012325912
-0.002475943 0.024385525 -0.025759593 0.0023148828 -0.032199044 -0.000501622 0.02292933 -0.0022834844
-0.0016303463 0.015120893 0.022540726 -0.008934769 -0.027117938 -0.021792313 0.013652359 0.014004821
-0.008045262 0.003217534 0.0005855777 -0.0071189213 -0.0067051523 0.008761714 0.005601353 0.010135881
0.006756102 0.01499639 0.005044865 -0.011109509 -0.0031167737 0.012641574 0.0166456 0.0041718474
-0.016824303 -0.0328252 -0.016847683 0.002617533 0.0064533646 -0.0053468174 -0.0020463378 0.027753761
-0.023888968 0.00013239447 -0.013440027 0.014402576 0.010208311 0.0019038225 -0.0027295302 0.017365418
-0.008656735 -0.0035680626 -0.011472005 0.00062522845 -0.011759768 -0.019367171 0.03260528 -0.003480931
-0.011534865 0.0019939167 0.002686938 3.99223e-05 0.016442245 0.009504167 -0.013183205 0.01386655
0.040685482 -0.018904617 0.009626074 -0.014540215 -0.0060120937 0.008750857 -0.038654257 0.0032113958
0.02214982 -0.0020104377 7.9079415e-05 0.009035125 0.0122803245 -0.0031447653 0.02959461 -0.0026429275
-0.007983612 -0.024466915 -0.009727689 0.019896753 -0.010853746 4.3814645e-05 0.00096847955 0.009237215
0.009166286 -0.023473984 -0.0012621194 0.005368876 0.0028239677 -0.001230092 -0.0016384035 0.032859292
0.013373357 0.0025803184 -0.016664965 0.002933583 -0.01701991 -0.045485303 -0.014010529 -0.00450168
-0.02161475 -0.011681382 -0.00036795702 -0.009498551 -0.01667013 0.026328398 0.01054939 -0.027452976
-0.004170401 -0.03579175 0.014743546 0.0021569605 -0.013799319 0.014523952 0.00091495115 0.010692449
0.012716171 -0.043045383 -0.023614662 0.002257612 -0.01767001 -0.028909264 -0.0057232827 0.020698244
0.0002054252 0.00052641274 0.027752906 0.014798655 -0.022038098 -0.0023338792 -0.0026522432 -0.009158185
-0.026862198 -0.009492687 -0.0051312367 -0.039852217 -0.0031297524 0.0055994927 -0.008450272 -0.013681418
0.025897829 -0.0068691643 -0.018729158 -0.015590506 -0.020275766 -0.008610772 -0.0018773146 0.025687551
-0.022495074 0.008467136 0.011171814 0.018479152 -0.011581567 0.010006873 0.019906232 -0.026786689
0.020429214 0.047015574 0.009352163 0.0037448478 0.0093138805 0.0058956644 0.0076474636 0.0025886137

action_model._continuous_distribution.mu.bias f4 [3]
00000000: 0000 0000 0000 0000 0000 0000
0.0 0.0 0.0

action_model._discrete_distribution.branches.0.weight f4 [5, 128]
00000000: a3d8 df3b adc0 66bc 4aa7 68bc 359b 1fbb
00000010: 4b82 eb3b c31f e1ba ff4b a3bb ece5 033c
00000020: ff9e 3c3b 1b70 afbb b069 d4bb ed4f 1bbc
00000030: 5577 33bb cb17 3e3b c2f6 053c 552a bebb
00000040: d39a 833b de8d a73a 6958 473c 7361 55b9
00000050: dc60 323c 83ef c13b 992b 97bc 48d4 db3a
00000060: 7b9c ca3a cbaa 64bb b00a ac3c 4ee6 18ba
00000070: 4ab7 b3b9 a27a 2d3b ed0e 4e3b 1613 8fbb
00000080: 8767 8cbb 8570 2d3b 6176 a03b b085 abba
00000090: 139b 103b b7c6 963c a95a 08bc 72ab 00bc
000000a0: a8c1 36bc d83c 7cbc 6beb 893b 8fdd cbbb
000000b0: 4b95 9e3b 3dbe b43b ab39 f13b ae67 8dba
000000c0: a1b3 123c af91 1dbb 722d 58bb 1015 1bbc
000000d0: 228b e83c 1ea9 993a effa 423c a205 733b
000000e0: 373a 623c 2e33 22bc 7fe7 4e3c cd15 5d3c
000000f0: a23f e1bb cc8e 9d38 c401 163a 5486 abbb
00000100: 80c9 f1bb 9f56 3c3c 4db1 4bb9 5f9b b93b
00000110: 6f02 12bc 8cfe b73b 4a51 703b 6503 d83b
00000120: c7f6 a8bb b7da a03b 8423 8abc cbe7 9abb
00000130: d708 11bc 453b e23b e3e2 55bc 94c5 24bb
00000140: 6365 a6bb 4be4 4ebc 3903 14bc 5ffc 1c3c
00000150: 6b71 32bb 0c6f 95bc 5072 1abb d591 1c3c
00000160: 420a 21bc 85c5 bebb dacf 0f3c 0a08 ad3c
00000170: d37c fc3b f95a c3bb e575 47bb 50f3 9d3c
00000180: e8cc 8cbb d0b0 6c3c b2ee e13b 7e49 9639
00000190: 6b37 b4bb 2bfb 00bc 99f9 423c 17a3 923b
000001a0: ff0f 833b be37 a63b 346e 093b da35 c53c
000001b0: 7f72 ccba 5bb0 af3b 832e 82ba 76a2 473b
000001c0: 0238 053b 58df ac3b d5b0 27bb 0923 013c
000001d0: da94 f437 488b 12bb bbce dc3b 2539 a23c
000001e0: 69e1 91bb 27fe 183c d8fc b63b 47e8 b73b
000001f0: a3eb 563a bc40 b5ba 4284 063c 032f b43b
00000200: 67e0 cc3b 398a 063a b580 76ba 4886 29bb
00000210: 9f9c b6bb 9f97 2cbc bfe2 8b3b 3d03 1e3c
00000220: ab8d 7c3b 37cf 273c 5789 383b 3471 0c3c
00000230: c25b 30bb 52eb 57bb 1a43 e53b 8fb2 88bb
00000240: ef51 cdbb 1fcc 8fba b54d 953b c729 36bb
00000250: 2289 7dbc e8ef d0bc 30cf 603b 7169 a03b
00000260: ad84 db39 b78a ac3b 53e4 8d3b ee9d 0bbc
00000270: 9123 b13a 4af8 5c3c c7d5 473c 3698 8b3b
00000280: 98a6 0cbc 5eba 3cbc a70d 36bc 2382 bfbb
00000290: 485a 12bb f7fe f43b 3def 7fbc 427e aebc
000002a0: 1d5d c8bb f645 073a fe3d 363c 830f ae3b
000002b0: 7506 5d3b 385c 55bc 2b1f 05bc 73b8 a23b
000002c0: 414a 9dbb 14cb 1fbb e12d 803b ca66 333b
000002d0: ebb3 263c aa4c 5cbb 0845 6cbb f7a4 cc3b
000002e0: b6ee 0a3c 226e eebb d24e 7dba 3a4e 55ba
000002f0: 7cc2 b43b 5c08 8abc d33e 6b3c 4bb5 53bc
00000300: 0dde b23b e7b0 c13b 185c 943b 104f 31bc
00000310: 909d 07bb 4821 35b9 63ee 6dbb 4524 cf3b
00000320: 774d 7e3b 28b0 aabb a9ee 8a3c ef11 0e3c
00000330: 22a5 203c afba 863c ef3a 89bc 87e9 4239
00000340: 1b93 84bb 45d1 30bb eaf8 ef3a bd70 5dbc
00000350: e31b 06bc d735 95bb 2785 493c 92f0 e23a
00000360: 6f4a 2c3c 2fce 64b8 19ac a4bc e0b8 753b
00000370: a195 91bc 3feb 8cbc 5c30 283b 8dd3 663c
00000380: a932 84bb 6fb4 69bb ba5e 723c d71d 7cbb
00000390: 0b7e 213b 3aaf 6c3c dd6f 98bc 61de 12bc
000003a0: 0296 f5ba b393 4abc 077e 1f3a cc1e 353c
000003b0: 2d5c 9b3b d746 26bc 451e 083c d516 2ebc
000003c0: 025b fa39 17fc f83b 7730 b13a a28a 55bc
000003d0: eaf4 d5bb 13f1 f5bb 1039 b03b 1014 e9ba
000003e0: c2dc d5bb 3edf 83bc 15a4 09bb 27c3 113a
000003f0: 1b1a 9ebc f3b8 763b 4c00 09bb d84b 043b
0.006831245 -0.014084023 -0.014200041 -0.0024353985 0.007187163 -0.0017175603 -0.0049834247 0.008050423
0.0028781292 -0.00535394 -0.0064823255 -0.009479505 -0.002738436 0.002900588 0.008176507 -0.005803386
0.004016259 0.0012783369 0.012167075 -0.00020349566 0.010887351 0.0059184446 -0.018453406 0.0016771639
0.0015458012 -0.003489184 0.02100119 -0.0005832658 -0.00034278102 0.00264708 0.0031442002 -0.004366289
-0.0042848024 0.0026464772 0.0048969244 -0.0013086107 0.0022065088 0.018405301 -0.008322396 -0.007853376
-0.01115457 -0.015395366 0.004208972 -0.00622148 0.0048395745 0.0055158422 0.007361611 -0.0010788345
0.00895396 -0.0024043133 -0.0032986072 -0.009465471 0.028386656 0.0011723374 0.011900648 0.0037082215
0.013807825 -0.0098998975 0.012628435 0.013493967 -0.0068740407 7.5129414e-05 0.0005722309 -0.005234519
-0.007378757 0.011495261 -0.00019425638 0.0056642736 -0.008911713 0.005615061 0.0036669546 0.0065922015
-0.0051563713 0.0049088853 -0.016862638 -0.004727339 -0.008852205 0.006904038 -0.013054582 -0.002514218
-0.005078004 -0.0126276715 -0.0090339715 0.009581654 -0.0027228247 -0.018241428 -0.002356667 0.009556253
-0.009829106 -0.005821886 0.008777583 0.021121997 0.00770531 -0.0059617725 -0.003043526 0.01928106
-0.0042968877 0.014446452 0.00689491 0.00028664985 -0.0054997704 -0.007872383 0.011900329 0.004475008
0.0039997096 0.005072563 0.0020970227 0.02407353 -0.0015598087 0.0053615994 -0.0009932074 0.0030461824
0.0020327573 0.005275648 -0.0025587578 0.007881888 2.9156381e-05 -0.002236085 0.0067385114 0.01980264
-0.00445192 0.009337938 0.0055843405 0.0056124064 0.0008198565 -0.0013828496 0.008210244 0.0054987683
0.006252337 0.0005132291 -0.0009403334 -0.0025867391 -0.00557287 -0.010534196 0.0042689736 0.009644327
0.003853659 0.010242275 0.0028158033 0.008571912 -0.002691016 -0.0032946658 0.0069965245 -0.0041716765
-0.0062658708 -0.0010970867 0.0045563825 -0.0027795897 -0.01547459 -0.025505021 0.003430318 0.004895382
0.00041869786 0.0052655595 0.004330197 -0.00852154 0.0013514628 0.013486931 0.012196965 0.0042600883
-0.008584641 -0.011519043 -0.011111653 -0.005844371 -0.0022331644 0.0074766832 -0.015621004 -0.021300439
-0.0061146156 0.00051602663 0.0111231785 0.0053119077 0.0033725773 -0.013022475 -0.008125107 0.0049658357
-0.0048001115 -0.0024382519 0.003911719 0.00273745 0.010174732 -0.0033615031 -0.0036051888 0.0062452513
0.008479765 -0.0072763124 -0.0009662929 -0.0008136962 0.0055163484 -0.01684969 0.01435824 -0.012921642
0.0054585994 0.005910981 0.00452758 -0.010822073 -0.002069328 -0.00017273903 -0.003630542 0.0063214623
0.0038803497 -0.0052089877 0.016959505 0.008671268 0.009804996 0.01644644 -0.016751735 0.00018588277
-0.0040458567 -0.0026980203 0.0018308435 -0.013515648 -0.00818536 -0.0045535374 0.012299812 0.0017314127
0.010515793 -5.455146e-05 -0.020101594 0.0037494227 -0.017771544 -0.017202018 0.002566359 0.014088524
-0.0040343595 -0.0035660525 0.014793092 -0.0038469934 0.0024641778 0.014446074 -0.018608028 -0.008964152
-0.0018736722 -0.012364316 0.0006084148 0.011054706 0.004741213 -0.0101487255 0.008307998 -0.010625561
0.00047751522 0.007598411 0.0013518472 -0.013033541 -0.00652944 -0.007505545 0.005377896 -0.0017782468
-0.0065265605 -0.016097661 -0.0021002342 0.0005560391 -0.019299557 0.003764686 -0.0020904718 0.0020186808

action_model._discrete_distribution.branches.0.bias f4 [5]
00000000: 0000 0000 0000 0000 0000 0000 0000 0000
00000010: 0000 0000
0.0 0.0 0.0 0.0 0.0
