results/ppo/My Behavior/My Behavior-1344.pt (torch, 142764 bytes, 10 tensors)

network_body._body_endoder.seq_layers.0.weight f4 [128, 1]
000000 e3 18 26 bf 62 9a f7 3e af a7 89 3e cc ec 8d bf
       -0.64881724 0.48359972 0.26885745 -1.108789
000010 26 87 0f bf 56 6a e5 bf c6 56 0d 3f 35 47 fe 3d
       -0.56065595 -1.7923076 0.5521053 0.124159254
000020 83 d7 bb 3f 42 27 83 be 9d c7 e5 3f 41 55 58 bf
       1.4675144 -0.2561589 1.7951542 -0.8450509
000030 eb e0 3a 3f 80 08 e0 be 5c 66 c3 3e 1e 57 9c bf
       0.7299945 -0.43756485 0.38164032 -1.2214086
000040 5b 66 96 3f 87 7e 1b 3f c5 fa 26 bf 66 43 d6 be
       1.1749986 0.6073994 -0.65226394 -0.41848296
000050 8d 62 a0 3f f7 3a 45 bf 32 c4 84 bf c9 85 c1 bf
       1.2530075 -0.770431 -1.0372374 -1.5118953
000060 1c 8d 4d bf d0 b9 8f 3d 3a 56 8f 3e 5d e1 80 bf
       -0.8029344 0.07017863 0.27995473 -1.0068775
000070 0e 23 49 bf 30 59 d2 be 7d 9e cb bf 15 7d ff 3e
       -0.78569114 -0.4108367 -1.5907742 0.49900118
000080 68 64 b8 bf 48 a1 53 3c 4e f9 8c bf 4d 8b 91 bf
       -1.4405642 0.01291687 -1.1013582 -1.1370636
000090 77 4a c6 be 5e d7 ed be ab 9c 2d 3e 2a 88 16 3d
       -0.38728687 -0.46453375 0.16954295 0.03675095
0000a0 55 b2 b9 3f 53 83 9b be 61 2e 2e be d5 0d 49 bf
       1.4507548 -0.3037363 -0.1700988 -0.7853673
0000b0 54 a4 3b bf 70 f3 83 3f 5f 5b dd 3e dd 82 90 3e
       -0.7329762 1.0308666 0.43233773 0.2822484
0000c0 ba 0b ea be f2 49 9d be 1a 94 16 bf 3f 1a 06 40
       -0.45712072 -0.30720478 -0.58819735 2.095352
0000d0 1b 8d 3f 3f e5 5c c1 be a2 2e 10 bd ef 26 4e 3d
       0.74824685 -0.37766185 -0.035200723 0.0503301
0000e0 33 48 e8 3e fe 1c 5a bf 01 87 f6 be b3 eb 76 be
       0.45367584 -0.8520049 -0.48149875 -0.2411335
0000f0 a2 40 fb 3e ed b6 19 bf 79 ea c6 bf 17 f8 ba 3f
       0.49072748 -0.6004475 -1.5540305 1.4606961
000100 e4 fe 39 3e f9 c1 f2 3e 78 b4 c0 3f bd b2 fa bc
       0.1816364 0.47413614 1.5055075 -0.030602807
000110 a1 1c 93 bf 8c 83 35 3f d9 39 e5 3e 5a 94 95 bf
       -1.1493112 0.7090385 0.44770697 -1.1685898
000120 24 86 37 c0 57 fe 54 3d 03 71 c8 3f af 9d 91 3f
       -2.8675623 0.05200037 1.5659488 1.1376246
000130 48 b0 8f 3d 68 6b 9d 3f 2c 67 76 3f 5c 80 ee bf
       0.07016045 1.2298403 0.9625118 -1.8632922
000140 2b ea 95 be 20 9e 83 3d 6a f0 6a bf 18 52 92 3d
       -0.29280218 0.06426644 -0.9177309 0.071445644
000150 cd 57 ab be 61 01 93 bf 54 40 ea be 1f ba 3a bf
       -0.33465424 -1.1484796 -0.45752203 -0.7294025
000160 c6 ce a6 3f 31 af 81 bf 73 f5 c5 3e 4e 15 8e 3e
       1.3031852 -1.0131589 0.38663825 0.2775063
000170 da a7 32 be d7 75 16 c0 ff 68 f1 3e e6 b3 fc bf
       -0.17446843 -2.3509424 0.47150418 -1.9742401
000180 36 cd 59 3f 61 e4 a7 be 80 65 fb be 3f d4 c0 be
       0.8507875 -0.32791427 -0.49100876 -0.3766193
000190 09 79 92 3f ff 66 68 3f 48 95 4b bf 9d c5 21 bf
       1.1443187 0.9078216 -0.7952466 -0.6319216
0001a0 c8 f2 ce bf 2e cb 97 be 6f 3f 96 3f 48 30 c0 be
       -1.6167841 -0.296472 1.1738108 -0.37536836
0001b0 66 b7 2d c0 c6 d5 27 3f 0a 40 a5 3f 36 09 4f 3e
       -2.7143188 0.6556057 1.2910168 0.20218357
0001c0 ca 13 1a 3f 07 c3 27 bf 4d 08 3c be 33 08 73 3f
       0.60186446 -0.65531963 -0.18362541 0.94934386
0001d0 99 88 ba bf 4e 4c 06 bf 01 e9 da be c9 68 8d 3f
       -1.4572936 -0.5246018 -0.42755893 1.1047603
0001e0 f3 d7 25 c0 20 1e 69 bf 61 d4 9e 3e 29 28 bc 3f
       -2.5913055 -0.9106159 0.31021407 1.4699756
0001f0 78 0d c2 bf 37 ca fc 3d 70 ab 24 be 07 ae 1a bf
       -1.516036 0.12343257 -0.16081023 -0.60421795

network_body._body_endoder.seq_layers.0.bias f4 [128]
000000 00 00 00 00 00 00 00 00 00 00 00 00 00 00 00 00
       0.0 0.0 0.0 0.0
000010 00 00 00 00 00 00 00 00 00 00 00 00 00 00 00 00
       0.0 0.0 0.0 0.0
000020 00 00 00 00 00 00 00 00 00 00 00 00 00 00 00 00
       0.0 0.0 0.0 0.0
000030 00 00 00 00 00 00 00 00 00 00 00 00 00 00 00 00
       0.0 0.0 0.0 0.0
000040 00 00 00 00 00 00 00 00 00 00 00 00 00 00 00 00
       0.0 0.0 0.0 0.0
000050 00 00 00 00 00 00 00 00 00 00 00 00 00 00 00 00
       0.0 0.0 0.0 0.0
000060 00 00 00 00 00 00 00 00 00 00 00 00 00 00 00 00
       0.0 0.0 0.0 0.0
000070 00 00 00 00 00 00 00 00 00 00 00 00 00 00 00 00
       0.0 0.0 0.0 0.0
000080 00 00 00 00 00 00 00 00 00 00 00 00 00 00 00 00
       0.0 0.0 0.0 0.0
000090 00 00 00 00 00 00 00 00 00 00 00 00 00 00 00 00
       0.0 0.0 0.0 0.0
0000a0 00 00 00 00 00 00 00 00 00 00 00 00 00 00 00 00
       0.0 0.0 0.0 0.0
0000b0 00 00 00 00 00 00 00 00 00 00 00 00 00 00 00 00
       0.0 0.0 0.0 0.0
0000c0 00 00 00 00 00 00 00 00 00 00 00 00 00 00 00 00
       0.0 0.0 0.0 0.0
0000d0 00 00 00 00 00 00 00 00 00 00 00 00 00 00 00 00
       0.0 0.0 0.0 0.0
0000e0 00 00 00 00 00 00 00 00 00 00 00 00 00 00 00 00
       0.0 0.0 0.0 0.0
0000f0 00 00 00 00 00 00 00 00 00 00 00 00 00 00 00 00
       0.0 0.0 0.0 0.0
000100 00 00 00 00 00 00 00 00 00 00 00 00 00 00 00 00
       0.0 0.0 0.0 0.0
000110 00 00 00 00 00 00 00 00 00 00 00 00 00 00 00 00
       0.0 0.0 0.0 0.0
000120 00 00 00 00 00 00 00 00 00 00 00 00 00 00 00 00
       0.0 0.0 0.0 0.0
000130 00 00 00 00 00 00 00 00 00 00 00 00 00 00 00 00
       0.0 0.0 0.0 0.0
000140 00 00 00 00 00 00 00 00 00 00 00 00 00 00 00 00
       0.0 0.0 0.0 0.0
000150 00 00 00 00 00 00 00 00 00 00 00 00 00 00 00 00
       0.0 0.0 0.0 0.0
000160 00 00 00 00 00 00 00 00 00 00 00 00 00 00 00 00
       0.0 0.0 0.0 0.0
000170 00 00 00 00 00 00 00 00 00 00 00 00 00 00 00 00
       0.0 0.0 0.0 0.0
000180 00 00 00 00 00 00 00 00 00 00 00 00 00 00 00 00
       0.0 0.0 0.0 0.0
000190 00 00 00 00 00 00 00 00 00 00 00 00 00 00 00 00
       0.0 0.0 0.0 0.0
0001a0 00 00 00 00 00 00 00 00 00 00 00 00 00 00 00 00
       0.0 0.0 0.0 0.0
0001b0 00 00 00 00 00 00 00 00 00 00 00 00 00 00 00 00
       0.0 0.0 0.0 0.0
0001c0 00 00 00 00 00 00 00 00 00 00 00 00 00 00 00 00
       0.0 0.0 0.0 0.0
0001d0 00 00 00 00 00 00 00 00 00 00 00 00 00 00 00 00
       0.0 0.0 0.0 0.0
0001e0 00 00 00 00 00 00 00 00 00 00 00 00 00 00 00 00
       0.0 0.0 0.0 0.0
0001f0 00 00 00 00 00 00 00 00 00 00 00 00 00 00 00 00
       0.0 0.0 0.0 0.0

network_body._body_endoder.seq_layers.2.weight f4 [128, 128]
000000 37 d2 bc 3d 07 89 7e 3d 56 71 ac 3d 64 49 0b 3d
       0.09219783 0.0621424 0.084200546 0.034005538
000010 21 ba 14 3d 6d 9b 65 bb e8 45 4d 3c 8a a8 91 bc
       0.03631032 -0.0035035268 0.012528874 -0.017780561
000020 96 36 ef bd 17 2c 94 3d 5b c2 a0 3a 5c 55 9d bd
       -0.11680333 0.07234972 0.0012264954 -0.07682297
000030 0c 5c 30 bd b5 75 53 3b 46 25 2d 3d 47 8f 91 bd
       -0.043056533 0.0032266204 0.042271875 -0.07107406
000040 a1 e3 bd 3d af dd 32 be 89 8e 51 3d e3 a6 09 bd
       0.092719324 -0.17467378 0.051161323 -0.03360642
000050 f4 e9 0f 3e 66 80 43 3d a1 60 a5 3d 53 09 23 3c
       0.1405409 0.047729872 0.08075071 0.009950954
000060 be db fc bc 7d c9 19 3e 78 55 1a 3e 21 68 00 bd
       -0.0308665 0.15018268 0.15071666 -0.031349305
000070 50 da c1 3c 3b 8b af 3d fc 3d 38 bc 53 27 87 bd
       0.02366367 0.08571478 -0.011245247 -0.065992974
000080 5d a7 72 3e 1d 68 fd 3c fc 6e 9b bd a3 3a 23 bd
       0.23696657 0.030933434 -0.07589528 -0.039850842
000090 62 f4 9b bd 2e e5 f8 bc 1a e1 f1 3d 83 69 7c bd
       -0.07614972 -0.030382719 0.11810513 -0.06162406
0000a0 11 fb 99 3d 67 5a fb bd f1 8f 7d 3c 26 e0 84 3d
       0.0751859 -0.12273102 0.015476213 0.064880654
0000b0 87 f8 94 3d b2 a7 f8 3d a4 a2 bf 3b 9d ce cf bd
       0.07273965 0.1214136 0.0058482457 -0.1014683
0000c0 17 bf aa 3c e4 32 ab bc 9c 94 fe bc 20 cf 00 3e
       0.020843072 -0.02089829 -0.031076722 0.12579012
0000d0 5d ef 39 bc eb 9f 01 3d 27 3b 23 3d 45 8d 89 3c
       -0.011348573 0.03164665 0.039851334 0.016790995
0000e0 42 c6 be 3d d1 26 01 3d d8 6d ea bd bf 2f b0 bc
       0.093151584 0.03153116 -0.11446732 -0.021507142
0000f0 6d b0 15 be a2 5c f5 bc 20 55 1a 3e 69 f2 de bc
       -0.14618082 -0.029951397 0.15071535 -0.0272152
000100 8c 6d 0f bc ac c0 ed 3d 66 50 ee 3c 21 09 13 3c
       -0.008754145 0.11609015 0.029091071 0.0089743445
000110 9c f7 5e 3c 43 ce 0f 3e ba 3e cc 3c 0e 47 2c 3d
       0.013608839 0.14043526 0.024932254 0.04205995
000120 48 2a 23 3d b2 ec e3 bc b8 74 d2 bd bd c2 d8 bc
       0.039835244 -0.027822826 -0.102761686 -0.026460046
000130 0e 23 91 3c b2 76 a2 3c 75 fb 00 be 65 70 ab 3d
       0.01771691 0.019831989 -0.12595923 0.08371047
000140 55 fa a3 3b ee 18 a0 3d c6 4c bb bb 02 44 ac 3d
       0.005004207 0.07817255 -0.005715939 0.08411409
000150 cd 58 20 bd 9f 91 0d 3e de 06 3c bd 71 af 2c 3e
       -0.039147187 0.13825081 -0.045904987 0.168638
000160 80 07 2a 3e 4d 96 38 bc c0 25 81 bd c9 15 22 be
       0.16604424 -0.011266303 -0.06306028 -0.15828623
000170 31 1d 50 bd 29 77 8b 3d b0 12 5a bc 07 09 8d bc
       -0.05080909 0.06809837 -0.0133101195 -0.017216219
000180 f9 b7 13 3d 91 62 e3 bd bd 69 15 3e d3 54 8d 3c
       0.036064122 -0.111027844 0.14591117 0.017252361
000190 7e 49 b2 3d 0c 3d 2b bd 5d 13 50 3d fe 52 67 bd
       0.08705424 -0.041806266 0.050799716 -0.056475632
0001a0 55 c4 b0 bd de 36 8c 3d 09 bc 1c bd 16 bd e6 bd
       -0.08631197 0.068464026 -0.03826526 -0.11266534
0001b0 bd 6b e7 3d 3c 0a 53 3e 9e 00 95 bb 24 70 e7 3c
       0.11299846 0.20609373 -0.0045471927 0.028251715
0001c0 51 02 53 bd 95 91 9e 3c 9f 77 9f 3c 8d de 27 be
       -0.05151588 0.019356528 0.01946622 -0.1639349
0001d0 eb 73 b1 3d 6d 50 5c 3d 1c d8 17 bd 73 02 99 bc
       0.08664688 0.053787638 -0.037071332 -0.018677926
0001e0 9a 6f 17 bd be 33 7f 3d 42 15 31 be 48 c4 20 3e
       -0.036971666 0.062305205 -0.17293265 0.15699875
0001f0 2f 44 67 bc 32 b8 91 bc 64 9f ab 3d 8f 7b b0 3d
       -0.014115377 -0.017788026 0.08380011 0.08617317
000200 9d 95 71 3d 5b e0 b5 3d c0 7d cf 3d 90 c1 15 bd
       0.058980573 0.08880683 0.10131407 -0.03656155
000210 62 98 7e 3d 5d 42 8b 3c 9a db ae 3d 5d 99 e1 3d
       0.062157042 0.016999418 0.085379794 0.1101558
000220 50 1a 91 bd 16 11 90 3c d4 eb 24 3d 5f 89 aa bd
       -0.07085097 0.017586272 0.040263966 -0.08326983
000230 7a 5f 40 3b 76 99 af 3d a4 f4 02 3e 1f 8d 3f 3d
       0.0029353783 0.08574192 0.12788635 0.046765443
000240 14 64 61 3d 1c a9 13 be 75 30 7e 3d 8a 2c d2 bb
       0.055027083 -0.14419979 0.06205793 -0.006414001
000250 2d f7 0e 3e de 43 9e bd 99 2f f3 bd 60 76 fd 3d
       0.13961478 -0.077277884 -0.11874313 0.12376094
000260 84 a1 ad bc 5a 5f aa 3d 5e 88 51 3e 64 52 63 3d
       -0.02119518 0.08318968 0.20462176 0.055498496
000270 15 8a 8d 3c 73 7c f4 3d 65 1e 6d 3c ff 98 de bb
       0.017277757 0.11937799 0.014472579 -0.006793141
000280 85 fe f8 39 b4 cc 19 3e bb 65 3d bd ec 9f 3c bc
       0.00047491878 0.15019494 -0.046239596 -0.011512738
000290 64 d8 f0 3d a6 95 10 3e 1d e9 15 3e 9a 20 d5 3d
       0.11760023 0.14119586 0.14639707 0.10406609
0002a0 07 0b f9 3c 4e 72 10 3d 16 db 5e bd 01 f3 ae bc
       0.030400766 0.03526526 -0.054408155 -0.021356108
0002b0 a5 07 ec 3c a2 4e 2d 3d 59 da 0f 3e 69 3d d6 bd
       0.028812239 0.04231132 0.14048137 -0.10460932
0002c0 27 a2 38 3e e7 ce a0 bc 40 1d 10 bd 8a 8a 63 bc
       0.18030606 -0.019629909 -0.035184145 -0.013888011
0002d0 a5 c9 d3 3d 20 d2 8d 3d 4d 46 6a 3d 98 d2 29 be
       0.10341195 0.06924844 0.05719595 -0.16584241
0002e0 41 f1 f0 bb 7c ac 5b bd 18 ff 06 3c 64 45 f8 3d
       -0.0073529785 -0.05363129 0.00823953 0.1212261
0002f0 5a dd 1c 3e ec 4b 93 3d 32 7f 18 be 16 2d 56 bd
       0.15318814 0.07192215 -0.14892271 -0.05228909
000300 47 43 88 bd 45 86 11 be 99 b2 18 3c 00 0e 17 ba
       -0.06653457 -0.14211376 0.009319925 -0.0005762279
000310 57 7f 34 be 40 19 94 3d 94 21 3f bd 2d 19 8d bc
       -0.17626701 0.072313786 -0.046662882 -0.017223919
000320 f7 76 60 3e 5f 14 d2 bd f1 e1 8a 3d 8d 6a 05 be
       0.21920381 -0.10257792 0.06781376 -0.13028927
000330 73 01 68 bd 14 7c c7 bd b6 50 5f 3d e4 7b 8c bd
       -0.056642007 -0.09740463 0.05452033 -0.06859568
000340 97 14 37 3e 54 2f 62 3d cb ec 80 3c 42 50 f3 bd
       0.17878948 0.055220917 0.015737912 -0.11880542
000350 31 75 ab 3d 41 36 ce bd 4d c7 3f 3e 7c 3c 9a bd
       0.08371962 -0.10068942 0.18728371 -0.07531068
000360 25 76 e6 3d 70 b9 0c 3d dd 88 a1 3d 6a d9 3a 3b
       0.11253003 0.034356534 0.07887433 0.0028510937
000370 c7 eb b6 3d 76 95 ed bc 9f e5 45 3e 8f b6 16 3e
       0.0893169 -0.029001933 0.19325875 0.14718078
000380 75 9d 8e bd c7 4e 38 bd 22 c4 ba 3d 4b 2d af bc
       -0.06963626 -0.044997003 0.091194406 -0.021383902
000390 51 75 a1 bb ea 47 b3 bd 4a 9c 7e bc bd 3b 23 be
       -0.0049273153 -0.08753951 -0.015540192 -0.15940757
0003a0 38 76 5c 3c 68 73 5c bc 80 00 d6 bc 62 27 67 bc
       0.01345592 -0.013455249 -0.026123285 -0.014108511
0003b0 80 13 ae 3d 8d ef 1f 3d ed 4f f5 bd 1d 28 41 bd
       0.08499813 0.039046813 -0.11978135 -0.047157396
0003c0 af 60 af bc 96 67 10 3e a4 03 81 3e 3d 0c bc bc
       -0.021408407 0.14102015 0.2519809 -0.022955054
0003d0 7c 62 92 3a 46 56 bd bd ff 1b 08 3d 2e dd 73 bc
       0.0011168267 -0.09244971 0.033229824 -0.014884276
0003e0 99 ba 0e 3d ce 39 f4 3d 26 13 78 bd 8b 76 2a 3d
       0.034845922 0.11925088 -0.060565136 0.041616958
0003f0 22 fc f5 bb 28 ca 8e 3d 5d 10 60 bd ca f1 27 3c
       -0.007506863 0.06972152 -0.054703105 0.010250518

network_body._body_endoder.seq_layers.2.bias f4 [128]
000000 00 00 00 00 00 00 00 00 00 00 00 00 00 00 00 00
       0.0 0.0 0.0 0.0
000010 00 00 00 00 00 00 00 00 00 00 00 00 00 00 00 00
       0.0 0.0 0.0 0.0
000020 00 00 00 00 00 00 00 00 00 00 00 00 00 00 00 00
       0.0 0.0 0.0 0.0
000030 00 00 00 00 00 00 00 00 00 00 00 00 00 00 00 00
       0.0 0.0 0.0 0.0
000040 00 00 00 00 00 00 00 00 00 00 00 00 00 00 00 00
       0.0 0.0 0.0 0.0
000050 00 00 00 00 00 00 00 00 00 00 00 00 00 00 00 00
       0.0 0.0 0.0 0.0
000060 00 00 00 00 00 00 00 00 00 00 00 00 00 00 00 00
       0.0 0.0 0.0 0.0
000070 00 00 00 00 00 00 00 00 00 00 00 00 00 00 00 00
       0.0 0.0 0.0 0.0
000080 00 00 00 00 00 00 00 00 00 00 00 00 00 00 00 00
       0.0 0.0 0.0 0.0
000090 00 00 00 00 00 00 00 00 00 00 00 00 00 00 00 00
       0.0 0.0 0.0 0.0
0000a0 00 00 00 00 00 00 00 00 00 00 00 00 00 00 00 00
       0.0 0.0 0.0 0.0
0000b0 00 00 00 00 00 00 00 00 00 00 00 00 00 00 00 00
       0.0 0.0 0.0 0.0
0000c0 00 00 00 00 00 00 00 00 00 00 00 00 00 00 00 00
       0.0 0.0 0.0 0.0
0000d0 00 00 00 00 00 00 00 00 00 00 00 00 00 00 00 00
       0.0 0.0 0.0 0.0
0000e0 00 00 00 00 00 00 00 00 00 00 00 00 00 00 00 00
       0.0 0.0 0.0 0.0
0000f0 00 00 00 00 00 00 00 00 00 00 00 00 00 00 00 00
       0.0 0.0 0.0 0.0
000100 00 00 00 00 00 00 00 00 00 00 00 00 00 00 00 00
       0.0 0.0 0.0 0.0
000110 00 00 00 00 00 00 00 00 00 00 00 00 00 00 00 00
       0.0 0.0 0.0 0.0
000120 00 00 00 00 00 00 00 00 00 00 00 00 00 00 00 00
       0.0 0.0 0.0 0.0
000130 00 00 00 00 00 00 00 00 00 00 00 00 00 00 00 00
       0.0 0.0 0.0 0.0
000140 00 00 00 00 00 00 00 00 00 00 00 00 00 00 00 00
       0.0 0.0 0.0 0.0
000150 00 00 00 00 00 00 00 00 00 00 00 00 00 00 00 00
       0.0 0.0 0.0 0.0
000160 00 00 00 00 00 00 00 00 00 00 00 00 00 00 00 00
       0.0 0.0 0.0 0.0
000170 00 00 00 00 00 00 00 00 00 00 00 00 00 00 00 00
       0.0 0.0 0.0 0.0
000180 00 00 00 00 00 00 00 00 00 00 00 00 00 00 00 00
       0.0 0.0 0.0 0.0
000190 00 00 00 00 00 00 00 00 00 00 00 00 00 00 00 00
       0.0 0.0 0.0 0.0
0001a0 00 00 00 00 00 00 00 00 00 00 00 00 00 00 00 00
       0.0 0.0 0.0 0.0
0001b0 00 00 00 00 00 00 00 00 00 00 00 00 00 00 00 00
       0.0 0.0 0.0 0.0
0001c0 00 00 00 00 00 00 00 00 00 00 00 00 00 00 00 00
       0.0 0.0 0.0 0.0
0001d0 00 00 00 00 00 00 00 00 00 00 00 00 00 00 00 00
       0.0 0.0 0.0 0.0
0001e0 00 00 00 00 00 00 00 00 00 00 00 00 00 00 00 00
       0.0 0.0 0.0 0.0
0001f0 00 00 00 00 00 00 00 00 00 00 00 00 00 00 00 00
       0.0 0.0 0.0 0.0

action_model._discrete_distribution.branches.0.weight f4 [1, 128]
000000 d8 f4 f3 bb c5 30 06 bc 33 41 49 bb 27 1d 62 bc
       -0.007444959 -0.0081903385 -0.0030709028 -0.013800896
000010 df 6a 9f bb bd 92 bc bb 3b bc 69 bc 1d a0 55 3c
       -0.004865035 -0.0057547973 -0.014266069 0.013038662
000020 92 bc ae bb 52 c4 58 3b 63 27 b6 bc f9 f1 3b bc
       -0.005332538 0.0033076 -0.022235578 -0.011471265
000030 e1 a1 82 bb ef db ec bb d7 de f6 bb 90 2f b7 3b
       -0.0039865826 -0.0072283666 -0.007533889 0.0055903867
000040 fb eb ee 3b 68 11 b6 3c 4f fd 97 bb f7 13 0b 3c
       0.0072913147 0.022225097 -0.004638351 0.008488647
000050 4a 41 44 3b bf d2 62 3b de 22 37 bc 72 5e 20 bb
       0.0029946142 0.0034610478 -0.011177747 -0.0024470356
000060 4b a7 22 bc 88 cd c8 3a 1b 58 65 bc 1f 1d 9b 3c
       -0.009927581 0.0015320042 -0.013998057 0.018934784
000070 b0 f9 3a 3c 4d de 63 bb 87 7f 13 bb 0b 28 9e 3a
       0.011412069 -0.0034769953 -0.0022506432 0.0012066377
000080 b1 ad b2 3b 0f 7c 06 b8 a7 0d 0d bc 47 c0 19 3b
       0.0054528345 -3.2063628e-05 -0.008609212 0.0023460553
000090 d0 02 c6 bb 0b 85 87 3a 28 8f 18 3b 52 a6 51 3b
       -0.0060428157 0.0010339333 0.0023278687 0.0031990004
0000a0 98 60 5c bc 82 a3 cf 3b fb e5 6c 3b 33 61 0a 3a
       -0.013450764 0.0063366303 0.0036147821 0.0005278766
0000b0 81 99 11 bc d7 48 7e ba ab b4 c3 3b 4a cc d6 39
       -0.008886696 -0.0009700185 0.005972465 0.00040969468
0000c0 bd 92 1b 3c 57 72 b2 bc e4 f4 37 bc c7 33 c3 3b
       0.009495434 -0.021783037 -0.01122782 0.0059571
0000d0 98 a0 8c 3b 1b de 80 ba e0 3b ce 3a 09 5f 0d 3c
       0.004291605 -0.0009831818 0.0015734397 0.008628615
0000e0 ab 1a 12 bc 3f 5a 07 bc 08 0f 22 3b c3 96 07 3b
       -0.008917491 -0.008261262 0.0024728198 0.0020689226
0000f0 e2 be e0 3a 16 ca c0 bb 87 18 c4 3b 65 bc 4e ba
       0.0017146731 -0.0058834655 0.005984369 -0.00078863493
000100 bb 78 91 3b c3 48 00 3b 07 31 17 3c 1f 7b 33 3c
       0.004439441 0.001957462 0.009227998 0.010954647
000110 a3 c6 2a 3c 11 f0 0f 3a 8b eb 7e ba f3 a2 08 3c
       0.010423335 0.000549079 -0.00097244297 0.008339631
000120 9c a5 8c bc 1f d5 89 3c c1 dd 0d bb 4b fa 3c 3b
       -0.017168812 0.016825257 -0.0021647068 0.002883571
000130 8f da 27 bc 5f 8a c1 bb c5 fe ab 3b e8 4d e5 3b
       -0.0102449795 -0.0059063877 0.0052488768 0.0069978125
000140 db f4 21 3b 57 13 e5 3a 43 29 26 bc 55 73 ff 3a
       0.0024712596 0.0017477077 -0.0101416735 0.0019489328
000150 bd c4 4d bb 6d ad d6 3b fa 10 63 bc eb c4 a8 3b
       -0.0031397783 0.0065514357 -0.013859028 0.0051504276
000160 67 dc c4 3b bf 3f ff ba c6 2a 89 3c cf 82 34 3b
       0.0060077193 -0.0019473954 0.016744029 0.0027543788
000170 83 ed 0e 3c 8f e1 fe 3a 18 c1 a4 3c 7a 19 cf 3a
       0.008723619 0.0019445884 0.020111606 0.0015800439
000180 b4 be 3d 3b c0 4d 7f bb 8a f6 08 3c cc 1a 2e bc
       0.002895278 -0.0038956255 0.008359561 -0.010626506
000190 47 25 e4 3b cd e9 b9 bb 11 0e b7 ba b0 3d 3a 3c
       0.0069624516 -0.005673623 -0.0013965984 0.0113672465
0001a0 87 12 21 bb ad 36 16 3c 8a 72 17 bc 1d 85 db 3b
       -0.0024577694 0.009168309 -0.009243617 0.006699218
0001b0 5f f2 3c 3b 07 ff f3 bb a2 81 d5 bb 17 d8 85 b7
       0.0028830988 -0.007446173 -0.0065156976 -1.595546e-05
0001c0 db ab 81 bb b0 07 1c 3c 00 fd 8e 3c ef 2b 47 ba
       -0.0039572543 0.009523317 0.017454624 -0.0007597794
0001d0 9d e1 71 3b 0a f0 3c 3c f8 d3 0f bb 95 9b b0 3b
       0.0036908158 0.011531839 -0.0021946412 0.0053896406
0001e0 f2 93 77 3c 03 08 fb ba 35 0a b6 bc 1a 38 3b bc
       0.0151109565 -0.0019152168 -0.022221664 -0.01142695
0001f0 a9 fe 36 bc 7d 44 8e bc a1 08 0f 3c db 89 b7 39
       -0.011169114 -0.017366642 0.008730085 0.0003500719

network_body._body_endoder.seq_layers.0.weight f4 [128, 1]
000000 b2 55 78 bf 0a 2e 3e 3e 9e 30 fc bf b7 38 91 be
       -0.9700576 0.1857225 -1.9702337 -0.28363582
000010 bb be 39 3f 94 74 ba be 5b 17 cf be e8 d3 62 3f
       0.72556657 -0.36417067 -0.40447506 0.88604593
000020 db fc 2b bf 47 99 2f bd c3 28 b8 bd ec f2 ec 3f
       -0.671827 -0.042870786 -0.0899215 1.8511634
000030 ba 1f ef 3f 63 52 ca 3f 3f 7d 0e bf 5e 69 9f 3f
       1.8681557 1.5806392 -0.5565986 1.245403
000040 c6 02 a8 3f 6d ea 1d bf 0d af a1 bd c6 98 a9 bd
       1.3125846 -0.6168583 -0.078947164 -0.08281092
000050 c6 45 9d bf eb 63 9a be e5 b5 f1 bf 86 b7 74 be
       -1.2286918 -0.30154356 -1.8883635 -0.23898134
000060 53 52 3c 3f 50 4d 0f c0 e1 77 3e bf e8 62 84 3e
       0.73563117 -2.2390938 -0.7440167 0.2585671
000070 ae f7 d0 be e0 0f c6 3f e2 a1 f8 3e a6 59 dd be
       -0.40813965 1.5473595 0.48561007 -0.4323246
000080 16 be be be f9 0d f1 be b4 8b 6c bc 5b 23 d5 3e
       -0.372544 -0.47080973 -0.014437605 0.41628537
000090 90 d2 07 40 86 bc 9d 3f 66 da 0f bf 44 9d d9 3e
       2.1222267 1.2323158 -0.56192625 0.42502797
0000a0 4b 67 05 3f b9 b7 3b 3f 98 53 48 3f 4a 1f ae 3f
       0.5211074 0.73327214 0.78252554 1.3603299
0000b0 a6 1c 02 c0 5a b4 c6 bf fe bd 2b bf a0 0d 11 c0
       -2.0329986 -1.5523789 -0.6708678 -2.2664566
0000c0 ee 72 0f 40 17 ea 08 bf c8 3e ab 3d e6 d3 a9 bd
       2.2413898 -0.5348219 0.08361584 -0.082923695
0000d0 c4 d1 92 be 2c 16 c1 3e b2 5e 41 3e 3e 8c a6 bf
       -0.28675663 0.37712228 0.1888378 -1.3011549
0000e0 8d dc 8f be 86 a8 ba bf 48 d0 4d bf 99 11 29 bf
       -0.28097954 -1.4582679 -0.80395937 -0.66042477
0000f0 53 b4 30 3f d3 4b df be 91 0b 25 bf 0d cf e1 be
       0.6902515 -0.43612537 -0.64470774 -0.4410328
000100 42 a3 4a be b8 f5 9a 3f e6 fc 80 bf d9 8f 98 be
       -0.1978884 1.2106237 -1.0077178 -0.29797247
000110 e8 56 8e bf 43 2a f7 bb 9e 1d 09 40 22 dd a1 3f
       -1.1120272 -0.00754288 2.1424327 1.2645609
000120 08 1b 50 be 96 cd c9 bf e5 77 8b 3e 34 fd 18 40
       -0.20322812 -1.5765865 0.2723991 2.3904543
000130 db 02 1a 3f c8 1c 01 3e bd 02 d1 3e fd 4e 3b bf
       0.6016061 0.12608635 0.40822402 -0.731674
000140 32 7c 8f 3f 1f c6 86 3e 26 cc 07 bf fa 43 27 be
       1.1209776 0.2632303 -0.5304588 -0.16334525
000150 32 17 26 3d 2f e5 51 3f 20 e6 bb 3e 8c b2 aa bf
       0.040549465 0.8199033 0.3669901 -1.3335738
000160 93 5d bb 3f a9 15 f1 3e 54 ff 0c bf 38 d3 e7 3d
       1.4637932 0.47086838 -0.550771 0.11319584
000170 76 d3 d7 3e 17 f5 eb 3f 1b 57 b0 bf 08 41 2c be
       0.4215352 1.843417 -1.3776582 -0.16821682
000180 de d6 0f 3f c1 1a 98 3f 4e de 51 3f 5e ee 96 be
       0.56187236 1.1883165 0.81979835 -0.29478735
000190 e0 9d 7f bf 43 b3 eb be 3e b4 64 bf 7a bc 56 3f
       -0.99850273 -0.46035203 -0.8933753 0.8388134
0001a0 0e 47 36 3e c4 e1 06 3f a2 77 0b 3f ab c5 68 bf
       0.17800543 0.5268824 0.5447942 -0.9092662
0001b0 dc c9 30 3e 0a b1 81 bf 14 10 c3 bf a4 12 80 3e
       0.17264503 -1.0132153 -1.5239282 0.25014222
0001c0 c7 a7 09 bf 04 4e 87 3f ba 73 bb 3e 3e 46 9a 3e
       -0.5377163 1.0570683 0.3661173 0.30131716
0001d0 4e ee a0 3f 32 4e d1 3f b6 33 fd be 34 5b 60 3e
       1.2572725 1.6351988 -0.49453515 0.21909791
0001e0 4b 72 64 bf 04 23 33 bf 2d 93 03 3f a1 48 c6 3e
       -0.892369 -0.69975305 0.5139645 0.38727286
0001f0 af 78 0b be 24 22 7b bf cd 9a 26 bf ea a9 10 c0
       -0.13620256 -0.9809897 -0.6507996 -2.2603707

network_body._body_endoder.seq_layers.0.bias f4 [128]
000000 00 00 00 00 00 00 00 00 00 00 00 00 00 00 00 00
       0.0 0.0 0.0 0.0
000010 00 00 00 00 00 00 00 00 00 00 00 00 00 00 00 00
       0.0 0.0 0.0 0.0
000020 00 00 00 00 00 00 00 00 00 00 00 00 00 00 00 00
       0.0 0.0 0.0 0.0
000030 00 00 00 00 00 00 00 00 00 00 00 00 00 00 00 00
       0.0 0.0 0.0 0.0
000040 00 00 00 00 00 00 00 00 00 00 00 00 00 00 00 00
       0.0 0.0 0.0 0.0
000050 00 00 00 00 00 00 00 00 00 00 00 00 00 00 00 00
       0.0 0.0 0.0 0.0
000060 00 00 00 00 00 00 00 00 00 00 00 00 00 00 00 00
       0.0 0.0 0.0 0.0
000070 00 00 00 00 00 00 00 00 00 00 00 00 00 00 00 00
       0.0 0.0 0.0 0.0
000080 00 00 00 00 00 00 00 00 00 00 00 00 00 00 00 00
       0.0 0.0 0.0 0.0
000090 00 00 00 00 00 00 00 00 00 00 00 00 00 00 00 00
       0.0 0.0 0.0 0.0
0000a0 00 00 00 00 00 00 00 00 00 00 00 00 00 00 00 00
       0.0 0.0 0.0 0.0
0000b0 00 00 00 00 00 00 00 00 00 00 00 00 00 00 00 00
       0.0 0.0 0.0 0.0
0000c0 00 00 00 00 00 00 00 00 00 00 00 00 00 00 00 00
       0.0 0.0 0.0 0.0
0000d0 00 00 00 00 00 00 00 00 00 00 00 00 00 00 00 00
       0.0 0.0 0.0 0.0
0000e0 00 00 00 00 00 00 00 00 00 00 00 00 00 00 00 00
       0.0 0.0 0.0 0.0
0000f0 00 00 00 00 00 00 00 00 00 00 00 00 00 00 00 00
       0.0 0.0 0.0 0.0
000100 00 00 00 00 00 00 00 00 00 00 00 00 00 00 00 00
       0.0 0.0 0.0 0.0
000110 00 00 00 00 00 00 00 00 00 00 00 00 00 00 00 00
       0.0 0.0 0.0 0.0
000120 00 00 00 00 00 00 00 00 00 00 00 00 00 00 00 00
       0.0 0.0 0.0 0.0
000130 00 00 00 00 00 00 00 00 00 00 00 00 00 00 00 00
       0.0 0.0 0.0 0.0
000140 00 00 00 00 00 00 00 00 00 00 00 00 00 00 00 00
       0.0 0.0 0.0 0.0
000150 00 00 00 00 00 00 00 00 00 00 00 00 00 00 00 00
       0.0 0.0 0.0 0.0
000160 00 00 00 00 00 00 00 00 00 00 00 00 00 00 00 00
       0.0 0.0 0.0 0.0
000170 00 00 00 00 00 00 00 00 00 00 00 00 00 00 00 00
       0.0 0.0 0.0 0.0
000180 00 00 00 00 00 00 00 00 00 00 00 00 00 00 00 00
       0.0 0.0 0.0 0.0
000190 00 00 00 00 00 00 00 00 00 00 00 00 00 00 00 00
       0.0 0.0 0.0 0.0
0001a0 00 00 00 00 00 00 00 00 00 00 00 00 00 00 00 00
       0.0 0.0 0.0 0.0
0001b0 00 00 00 00 00 00 00 00 00 00 00 00 00 00 00 00
       0.0 0.0 0.0 0.0
0001c0 00 00 00 00 00 00 00 00 00 00 00 00 00 00 00 00
       0.0 0.0 0.0 0.0
0001d0 00 00 00 00 00 00 00 00 00 00 00 00 00 00 00 00
       0.0 0.0 0.0 0.0
0001e0 00 00 00 00 00 00 00 00 00 00 00 00 00 00 00 00
       0.0 0.0 0.0 0.0
0001f0 00 00 00 00 00 00 00 00 00 00 00 00 00 00 00 00
       0.0 0.0 0.0 0.0

network_body._body_endoder.seq_layers.2.weight f4 [128, 128]
000000 d3 98 35 bc f8 8d 90 3d e5 0c 7a 3d 18 a2 68 be
       -0.011083799 0.070583284 0.061047453 -0.22718084
000010 c8 13 32 bd 8a 14 4e 3d 15 bb 29 3d 70 e2 3f bd
       -0.043475896 0.050312556 0.04143818 -0.046846807
000020 21 56 0a bd 14 55 7f bc 4e ea 08 3e 80 8e 2a bd
       -0.033773545 -0.015584249 0.1337063 -0.041639805
000030 2b 30 0c be e9 80 19 3e d5 2f 28 bd 48 6d 46 3d
       -0.1369025 0.14990582 -0.04106124 0.048444062
000040 b7 61 19 be a1 cb dc bd 77 2a 12 3c 72 6e 2b 3d
       -0.14978682 -0.10781027 0.008921257 0.041853376
000050 83 b0 b2 bd 3d 2e c9 bd c6 f1 54 3d 0c 6a 0d 3d
       -0.08725073 -0.098232724 0.051988386 0.034524962
000060 3a 1f 8e bd 97 4a b3 bd 21 03 f6 bd da b8 69 bd
       -0.0693955 -0.08754461 -0.120123155 -0.057061054
000070 07 34 16 3d 4c 4b e9 bd c7 d2 37 3d c3 4b 44 3c
       0.03667071 -0.11391315 0.044878747 0.011980954
000080 2a a6 af bd cc 00 df 3d 68 68 2f bd 6c 5d f7 bd
       -0.08576615 0.10888824 -0.04282418 -0.12078366
000090 2c 42 9c 3b 1e 40 40 be 7d 74 11 3e 90 68 f4 3d
       0.0047686305 -0.18774459 0.14204593 0.11934006
0000a0 b9 11 de 3b b5 0e 1d be f0 17 0c 3d a1 88 24 3c
       0.006777015 -0.15337642 0.034202516 0.0100423405
0000b0 5e a1 03 bd 14 da 02 be 21 b8 24 be 6c d9 32 3e
       -0.032136314 -0.12778503 -0.16085865 0.17465752
0000c0 4c 42 b9 bc ba 5f 81 bc da 56 f2 bd 30 cf 2c 3e
       -0.02261462 -0.015792716 -0.11832972 0.16875911
0000d0 d9 ab 06 bd 76 83 9b 3c aa 78 59 3d c7 6d ff 3b
       -0.03287873 0.018983584 0.05309359 0.007795069
0000e0 04 f9 c7 3d c9 9d 01 3e e1 37 d0 bc 8a c5 59 bd
       0.09764293 0.12657847 -0.02541727 -0.053166904
0000f0 1a 6f f1 3d 8d 82 a2 3d 0b e1 d5 3d 31 ed 06 bc
       0.11788769 0.07935057 0.10443314 -0.008235262
000100 b4 30 b6 bd e4 cb 0d 3e 34 52 9b 3d 4d 80 0f 3e
       -0.08896008 0.1384731 0.075840384 0.14013787
000110 dd cb 0d be 24 11 23 3e 25 9d 30 3b 08 72 a2 3d
       -0.13847299 0.15924507 0.0026949134 0.07931906
000120 89 d7 75 3d fd 8c 42 3d 33 f7 a2 bc de be 47 3e
       0.060020003 0.04749774 -0.019893264 0.19506404
000130 c5 74 3d 3c 72 eb 63 3d 22 96 14 bd 4d ae e1 3c
       0.011563485 0.05564446 -0.03627599 0.027548933
000140 dc a0 c4 bd 3f c8 f8 bd 2c b7 17 3d d3 20 c3 3d
       -0.09600994 -0.12147569 0.03703992 0.09527745
000150 8e f8 24 bb 47 7d 81 3d bd 2a 7d bc 96 a9 1f 3c
       -0.0025172564 0.06322723 -0.015452084 0.009745022
000160 c5 ba bb 3c 2a 5d 68 bd c4 8d cd bd 5b 57 06 bd
       0.022916207 -0.056729473 -0.10036805 -0.032798152
000170 1d 9a 5a bd 30 a4 50 3d 3c 8f e6 bd 1a 48 5b bd
       -0.05336963 0.05093783 -0.112577885 -0.05353556
000180 45 7b 95 3d a7 c9 f5 bc c6 17 ea 3d 6b 03 16 3d
       0.072989024 -0.030003382 0.11430316 0.036624353
000190 a5 2a e4 3d 9c b9 ce bd a6 44 27 be a2 9b 70 be
       0.11140946 -0.10093996 -0.16334781 -0.23496869
0001a0 d8 73 09 3d ba 33 59 3e 58 ff 11 be 26 d1 3b 3e
       0.033557743 0.21211138 -0.14257562 0.18341503
0001b0 a1 6a 88 bd 65 67 76 bc a8 f4 27 bd 23 af 91 3c
       -0.06660963 -0.0150393 -0.041004807 0.017783707
0001c0 ab 62 f5 bc 10 10 fa bc f9 13 e4 3d ac 5d 92 3b
       -0.029954275 -0.030525237 0.11136622 0.004466733
0001d0 5c a2 ea bd 31 77 4f 3d 2f fc 82 3d af cb b2 3d
       -0.11456749 0.05065078 0.063957565 0.08730256
0001e0 13 e5 a5 3b b5 b3 28 3d a8 1c 64 3d 90 ea a8 bd
       0.005062708 0.041187007 0.05569139 -0.08247864
0001f0 34 11 34 bd f5 c6 52 bb 30 9f 9c 3d 1d 82 1f be
       -0.04396172 -0.0032162045 0.0764755 -0.15576978
000200 55 58 b1 bd 32 0f 0d bb 1d d5 13 3e 64 44 0f be
       -0.08659426 -0.002152395 0.14436765 -0.13990933
000210 3b 39 33 be 55 b6 e7 3c 3f 2b 30 3e 26 c1 31 3e
       -0.175023 0.028285185 0.17203997 0.17358837
000220 48 71 ca 3c 08 5d a1 3c df a9 9a bd ae 92 46 bc
       0.02471222 0.019697681 -0.075519316 -0.012119932
000230 99 b9 70 bc 34 62 69 bc ef 7d 3a 3c 5b 05 a7 3d
       -0.014692687 -0.014244605 0.011382564 0.08155318
000240 ac ba 25 bc d3 28 4f bd f2 ed 2c 3d 07 aa 06 bd
       -0.010115307 -0.050576042 0.04221911 -0.032876994
000250 b9 c6 83 3d d6 1d 93 bc b2 bd bf 3c 6d db 25 be
       0.06434388 -0.017958563 0.023405883 -0.16196986
000260 b8 4c db 3d 40 f3 6d 3c de b5 68 bc e5 0d 1b be
       0.10707992 0.014523327 -0.014203517 -0.15142019
000270 42 33 42 bc 93 15 55 bd 75 1f 66 bd e4 ba 11 3e
       -0.011853041 -0.052022528 -0.056182344 0.1423145
000280 67 ae 73 bc af 61 a7 bd 8d 13 31 bd 4b 60 f8 3d
       -0.014873124 -0.081729285 -0.043231536 0.121277414
000290 fb 72 95 bd db f8 98 3d 73 dd c4 bb a4 41 d5 3d
       -0.072973214 0.074693404 -0.006007844 0.104129106
0002a0 e7 3c c4 bd fc 84 98 3c a7 3a c0 3c db 3e 1c bd
       -0.09581929 0.0186181 0.023465468 -0.03814588
0002b0 60 d9 2a 3c 1c 65 17 be 86 b5 22 bc e1 f4 ec 3d
       0.010427803 -0.14784664 -0.009930974 0.115701444
0002c0 1e 51 0d be a4 d0 99 3c 08 75 ba 3a 2a 17 16 bd
       -0.13800475 0.018776245 0.0014225552 -0.036643185
0002d0 9f 83 e6 bd c1 df c2 3c 24 2e 41 bc b9 c3 43 3e
       -0.112555735 0.023788335 -0.011790786 0.19117631
0002e0 1c af 9a 3d 7e 93 75 3d e3 8e 0c 3d 21 06 b2 b9
       0.07552931 0.059955113 0.034315955 -0.00033955372
0002f0 bd a4 4b 3e b0 44 27 3e ed e8 e2 3d 1b 8f 98 3c
       0.19887061 0.16334796 0.11079583 0.018622926
000300 a8 40 2c bd 94 e3 4b bc 12 65 41 be d7 3d 7e bd
       -0.04205385 -0.012444396 -0.18886212 -0.062070694
000310 34 fd c3 3c a7 1a 28 3d f0 91 32 be 2d 79 3e 3e
       0.023924448 0.041041043 -0.17438483 0.18600912
000320 77 81 0f 3e 52 0c 3e 3d 05 97 b0 3c c4 89 01 3e
       0.1401423 0.04639847 0.021556387 0.1265021
000330 e5 e0 aa bd db b5 39 bc 90 cd 45 3c 41 da 21 3d
       -0.083436765 -0.011334862 0.012072936 0.039514784
000340 e1 76 d4 bd 63 92 c2 bc 77 88 86 3c 8f 80 96 3c
       -0.10374237 -0.023751443 0.016422493 0.018371848
000350 95 64 99 3d 4b d4 e6 3d bd 30 d9 bd 71 c1 2e be
       0.074898876 0.112709604 -0.10604999 -0.1706598
000360 4e e3 17 be c1 e8 9e bd 6c 70 9d bd 6f eb 76 3d
       -0.14832804 -0.07759238 -0.076874584 0.06028312
000370 5f cf 63 bc 02 96 6b bd 17 5c d2 bd 46 ce ae bd
       -0.013904422 -0.057516105 -0.10271471 -0.08535437
000380 16 7d 84 bd 67 dc 3f 3b ca a4 d0 3d 9c b7 a2 bb
       -0.06469171 0.0029275657 0.10187681 -0.0049657356
000390 26 40 a3 bd 95 c1 9b 3d 04 55 19 3d 2f 04 55 bd
       -0.0797122 0.07605282 0.037434593 -0.052005943
0003a0 e0 47 93 bd 2c be 57 bd 4d 29 49 bb cb 08 a3 3c
       -0.071914434 -0.052671596 -0.0030694783 0.019901654
0003b0 66 e5 85 bd 85 fa ed 3b a1 15 09 3e b5 7b 57 bb
       -0.06537895 0.0072625303 0.13387157 -0.0032880132
0003c0 79 e4 19 3d bb a0 d3 3c cd 4a 25 be ab 27 87 3d
       0.037571404 0.025833478 -0.16141815 0.06599363
0003d0 49 c3 eb bd e0 c8 19 3a 70 e7 04 3e 8a 75 08 3d
       -0.11511857 0.00058664195 0.12978911 0.03331522
0003e0 2b 90 0f bc e3 f4 ab 3d 7b b6 90 3d 1e e3 a0 3d
       -0.0087624 0.08396318 0.070660554 0.07855819
0003f0 68 87 26 be 57 76 ae 3d f8 40 a6 3c 8f 96 1c 3e
       -0.16262591 0.08518665 0.020294651 0.15291809

network_body._body_endoder.seq_layers.2.bias f4 [128]
000000 00 00 00 00 00 00 00 00 00 00 00 00 00 00 00 00
       0.0 0.0 0.0 0.0
000010 00 00 00 00 00 00 00 00 00 00 00 00 00 00 00 00
       0.0 0.0 0.0 0.0
000020 00 00 00 00 00 00 00 00 00 00 00 00 00 00 00 00
       0.0 0.0 0.0 0.0
000030 00 00 00 00 00 00 00 00 00 00 00 00 00 00 00 00
       0.0 0.0 0.0 0.0
000040 00 00 00 00 00 00 00 00 00 00 00 00 00 00 00 00
       0.0 0.0 0.0 0.0
000050 00 00 00 00 00 00 00 00 00 00 00 00 00 00 00 00
       0.0 0.0 0.0 0.0
000060 00 00 00 00 00 00 00 00 00 00 00 00 00 00 00 00
       0.0 0.0 0.0 0.0
000070 00 00 00 00 00 00 00 00 00 00 00 00 00 00 00 00
       0.0 0.0 0.0 0.0
000080 00 00 00 00 00 00 00 00 00 00 00 00 00 00 00 00
       0.0 0.0 0.0 0.0
000090 00 00 00 00 00 00 00 00 00 00 00 00 00 00 00 00
       0.0 0.0 0.0 0.0
0000a0 00 00 00 00 00 00 00 00 00 00 00 00 00 00 00 00
       0.0 0.0 0.0 0.0
0000b0 00 00 00 00 00 00 00 00 00 00 00 00 00 00 00 00
       0.0 0.0 0.0 0.0
0000c0 00 00 00 00 00 00 00 00 00 00 00 00 00 00 00 00
       0.0 0.0 0.0 0.0
0000d0 00 00 00 00 00 00 00 00 00 00 00 00 00 00 00 00
       0.0 0.0 0.0 0.0
0000e0 00 00 00 00 00 00 00 00 00 00 00 00 00 00 00 00
       0.0 0.0 0.0 0.0
0000f0 00 00 00 00 00 00 00 00 00 00 00 00 00 00 00 00
       0.0 0.0 0.0 0.0
000100 00 00 00 00 00 00 00 00 00 00 00 00 00 00 00 00
       0.0 0.0 0.0 0.0
000110 00 00 00 00 00 00 00 00 00 00 00 00 00 00 00 00
       0.0 0.0 0.0 0.0
000120 00 00 00 00 00 00 00 00 00 00 00 00 00 00 00 00
       0.0 0.0 0.0 0.0
000130 00 00 00 00 00 00 00 00 00 00 00 00 00 00 00 00
       0.0 0.0 0.0 0.0
000140 00 00 00 00 00 00 00 00 00 00 00 00 00 00 00 00
       0.0 0.0 0.0 0.0
000150 00 00 00 00 00 00 00 00 00 00 00 00 00 00 00 00
       0.0 0.0 0.0 0.0
000160 00 00 00 00 00 00 00 00 00 00 00 00 00 00 00 00
       0.0 0.0 0.0 0.0
000170 00 00 00 00 00 00 00 00 00 00 00 00 00 00 00 00
       0.0 0.0 0.0 0.0
000180 00 00 00 00 00 00 00 00 00 00 00 00 00 00 00 00
       0.0 0.0 0.0 0.0
000190 00 00 00 00 00 00 00 00 00 00 00 00 00 00 00 00
       0.0 0.0 0.0 0.0
0001a0 00 00 00 00 00 00 00 00 00 00 00 00 00 00 00 00
       0.0 0.0 0.0 0.0
0001b0 00 00 00 00 00 00 00 00 00 00 00 00 00 00 00 00
       0.0 0.0 0.0 0.0
0001c0 00 00 00 00 00 00 00 00 00 00 00 00 00 00 00 00
       0.0 0.0 0.0 0.0
0001d0 00 00 00 00 00 00 00 00 00 00 00 00 00 00 00 00
       0.0 0.0 0.0 0.0
0001e0 00 00 00 00 00 00 00 00 00 00 00 00 00 00 00 00
       0.0 0.0 0.0 0.0
0001f0 00 00 00 00 00 00 00 00 00 00 00 00 00 00 00 00
       0.0 0.0 0.0 0.0

value_heads.value_heads.extrinsic.weight f4 [1, 128]
000000 70 79 62 3d 18 a1 8f 3d 80 53 04 3d 9c b6 3f bd
       0.055291593 0.07013148 0.032306194 -0.04680501
000010 30 79 35 bd b0 54 51 bd 1a d4 0a 3e 90 61 aa 3c
       -0.044305027 -0.051106155 0.13557473 0.020798475
000020 68 0e 81 3d 40 36 b4 3b 8c bf 0a 3e 28 1b 83 3c
       0.06301576 0.005499631 0.13549632 0.01600416
000030 ea 23 91 bd e0 81 82 bc 80 75 a1 bc f8 0a 94 bc
       -0.07086928 -0.01593107 -0.019709349 -0.018071637
000040 52 31 54 be b3 cf dd bd a4 54 88 bd 96 33 d5 bd
       -0.20721939 -0.10830631 -0.06656769 -0.1041023
000050 40 c2 5f bd 94 fd b0 3d 98 1f 82 3d 46 58 25 3e
       -0.05462861 0.08642116 0.06353682 0.16146955
000060 80 6c 82 3a 60 47 5c 3e 78 9a 59 bd 83 74 44 be
       0.0009950548 0.21511602 -0.05312583 -0.1918507
000070 54 97 5c be 42 19 10 3e 34 bd 70 bd 02 f0 13 be
       -0.21542102 0.14072135 -0.05877419 -0.14447024
000080 ac b9 e0 3d fc d3 a9 3d e2 08 58 3e 3c c2 3c 3e
       0.10972914 0.08292386 0.21097139 0.1843347
000090 a8 4a 15 3d 0a d0 38 be 8b 40 3c be 82 06 3f 3e
       0.03644815 -0.1804811 -0.18383996 0.18654826
0000a0 10 cb 7c 3d c0 c3 a8 3d 46 38 40 be 9c 9d 1a 3e
       0.061717093 0.08240461 -0.18771467 0.15099186
0000b0 10 73 6a 3d 60 78 ab 3d 1a 72 d5 bd 72 14 d3 bd
       0.05723864 0.08372569 -0.10422154 -0.10306634
0000c0 68 a5 17 3d d8 01 e3 3c 84 27 03 bd 08 d2 76 3d
       0.037022978 0.02771084 -0.032020107 0.060258895
0000d0 44 31 33 3e b8 bc d5 3d 78 37 1c 3d 58 c4 41 3e
       0.17499262 0.10436386 0.038138837 0.18922555
0000e0 16 2d 95 bd 20 64 fc 3d 7c e3 40 3e 72 43 53 be
       -0.0728399 0.12323785 0.18836778 -0.20631197
0000f0 48 2c f0 3d 86 a3 0d 3e 10 cf 07 3d 2a 18 54 3e
       0.11727196 0.1383191 0.033156455 0.20712343
000100 00 ab 16 3e b8 1b 17 bd 00 60 6d 3b 1a 3d 12 3e
       0.14713669 -0.03689167 0.003622055 0.14281121
000110 08 26 7a 3d a6 49 14 3e 06 5c 23 be 5c 9d dd 3d
       0.061071426 0.1448122 -0.15953073 0.108210295
000120 c4 5e 55 be 2b 18 41 be fc 9b 9b 3d 68 eb da 3d
       -0.20836931 -0.18856876 0.07598111 0.106894314
000130 c0 5a b5 3c 66 0b 48 3e f8 c3 fd 3d 58 a7 48 3e
       0.022138 0.19535598 0.12390894 0.19595087
000140 60 55 03 be d4 2f 06 be 10 a2 3c 3d 80 d0 22 3d
       -0.12825537 -0.13104182 0.046052992 0.039749622
000150 e4 b8 43 be c0 17 6e bb f8 5a 8c bc 7a 12 39 3e
       -0.19113499 -0.0036330074 -0.017133221 0.18073454
000160 d0 76 45 bd 68 46 a3 bd 58 51 1f bd 8a 87 23 be
       -0.04820901 -0.07972413 -0.038895935 -0.15969673
000170 58 95 1d 3d 74 6b 50 3e cb e0 52 be ff 14 33 be
       0.038472503 0.2035349 -0.20593564 -0.17488478
000180 e0 f4 0a 3e 48 9d e1 bc 6c ca a0 bd 00 8f 83 3a
       0.13569975 -0.027540818 -0.07851109 0.0010037124
000190 9c b3 5b 3e c8 5e 95 3c 38 d7 ad 3d c0 d6 44 3d
       0.21455234 0.018233672 0.08488315 0.048056364
0001a0 f4 7d 9e 3d 8a 97 1a 3e 10 0e 21 3c c8 58 2c bd
       0.077388674 0.1509687 0.009830013 -0.042076856
0001b0 b0 cb cf 3d e0 13 9e 3d 2f 44 32 be d8 87 cd 3d
       0.10146272 0.077186346 -0.17408822 0.10035676
0001c0 ea cc 4c be 2c 56 2b 3e 48 84 0d bd 9c 38 09 bd
       -0.20000044 0.1673209 -0.03454998 -0.033501253
0001d0 4f 85 45 be bc fc ae 3d e2 ec 3b 3e ac 7b 4c 3e
       -0.19289134 0.08544299 0.18352082 0.19969052
0001e0 b8 86 38 3d f8 00 11 be bb 10 14 be a8 9f f1 bd
       0.045050353 -0.14160526 -0.14459507 -0.1179803
0001f0 d8 94 7d 3d fc 92 8c 3d 00 05 8a 3a fe 16 47 be
       0.061909527 0.068639725 0.0010530055 -0.19442365
