results/ppo/My Behavior/My Behavior-704.onnx (onnx, 73289 bytes, 7 tensors)

network_body._body_endoder.seq_layers.0.weight f4 [128, 1]
000000 c8 de 91 3f ea 74 0f bf f0 3d 5f be eb db 74 3e
       1.1396112 -0.5603777 -0.21800971 0.23912017
000010 a5 8e 96 3f 1a eb aa bf 63 ff 0f bf 14 f9 96 bc
       1.1762282 -1.3352997 -0.56249064 -0.018429317
000020 0d b7 3c bf dd 86 19 3f 05 33 12 3f 36 8d 99 3d
       -0.73716813 0.5997141 0.571091 0.07497637
000030 8e 9b 35 be 41 f3 bb be f4 f1 58 3f 82 71 f8 be
       -0.1773512 -0.36709026 0.8474419 -0.485241
000040 08 da 03 c0 c5 f1 db 3e b5 52 8e 3f 5f b1 9b bf
       -2.0601826 0.42957893 1.111899 -1.2163504
000050 48 b7 7b 3e dd 51 c5 3e 07 72 ba 3d 95 f3 1d 3f
       0.24581635 0.3853902 0.0910378 0.616998
000060 b1 fa 0d be b9 49 96 bf 62 23 2b 3f 69 15 81 3f
       -0.13865162 -1.1741248 0.66850865 1.0084659
000070 c8 25 10 3f 13 9a c0 be f2 f0 d1 3e 23 4e 09 be
       0.5630765 -0.3761755 0.4100414 -0.13408713
000080 77 e4 55 40 d6 9e dd bf 99 28 ad be 58 d8 65 3f
       3.3420694 -1.7314098 -0.33820036 0.8978324
000090 d6 bf a1 bf 8c 74 bd bf 1e 62 c5 3f 0c 77 2c 3f
       -1.2636669 -1.4801192 1.5420568 0.6736915
0000a0 29 34 c3 bd 95 e3 3a 3f 5f 11 bd 3e a8 18 ae 3f
       -0.09531433 0.7300351 0.36927316 1.3601274
0000b0 62 cc d6 3f 96 7a b6 3f e1 7f ca bf fd 74 98 be
       1.6781123 1.425616 -1.5820276 -0.29776755
0000c0 18 6b 8c 3f 43 42 07 be 0c 8a 12 bf 79 b7 3c bf
       1.0970182 -0.1320887 -0.5724189 -0.7371746
0000d0 2f 4d d2 3f a8 64 2d bf dd 84 a8 be 9c 4c 7d bf
       1.6429805 -0.67731714 -0.32913867 -0.9894502
0000e0 97 b2 3f bf 3d 17 a4 3e 04 75 2d 3f 3c 36 2f 3f
       -0.7488188 0.3204898 0.67756677 0.6844213
0000f0 cb 00 fa 3e e2 82 9e bf a2 12 00 3f f3 ae f3 be
       0.4882873 -1.2383692 0.5002843 -0.47594413
000100 04 0c 55 3f 23 13 66 3f 23 e7 8c be 4a ad 79 bf
       0.8322146 0.8987295 -0.27520093 -0.97530043
000110 be da 5c bf 7f c8 5a 3f 68 77 a6 be d2 e4 80 3e
       -0.86271274 0.8546218 -0.32512975 0.25174576
000120 12 0e a5 3e 19 fc 63 bf 2d f1 57 3e bf 19 75 bf
       0.32237297 -0.89056545 0.21088095 -0.9574241
000130 44 36 8a be dc 41 7a be 2c 9a 8f bf d0 83 51 bf
       -0.26994526 -0.24439186 -1.1218925 -0.81841755
000140 c8 a7 bf 3e bd 9a 29 3d f6 c1 a8 3f 39 97 98 3f
       0.37432694 0.041407336 1.3184192 1.192115
000150 49 e9 65 3f c5 7b 0f 3f 79 d9 8e 3d 82 91 05 40
       0.8980909 0.5604823 0.06975073 2.087006
000160 66 ec 0a 3f 23 bf 85 3f e0 64 5d 3f f4 a5 93 bf
       0.54266965 1.0448955 0.8648205 -1.153502
000170 94 70 37 be 40 61 8e 3f 87 3a 10 3f fc 39 a3 bf
       -0.17914039 1.1123428 0.56339306 -1.275207
000180 f2 e8 d8 3d 7d e2 f2 3d 70 20 09 bf 9a 97 de 3f
       0.10591306 0.118596055 -0.5356512 1.7390015
000190 ac e7 92 bf 91 e8 9d bf 07 59 e8 be b1 7b ff be
       -1.1476951 -1.2336599 -0.45380422 -0.49899057
0001a0 79 f4 c7 3e 11 20 4c bf aa ad 28 bf 08 3e 40 3e
       0.39053705 -0.7973643 -0.6588999 0.18773663
0001b0 c3 68 0a bf 2f ae 32 3e 8c f2 be be 2c e5 f8 bf
       -0.54066104 0.17449258 -0.37294424 -1.9444938
0001c0 32 d2 ad 3f 70 51 dd 3e fc 3d b0 be e3 3a b1 be
       1.3579772 0.43226194 -0.3442229 -0.3461524
0001d0 f0 a0 d8 be 93 ed a8 3e 3c 8d d3 3c 45 86 61 3f
       -0.42310286 0.32993755 0.025824182 0.88095504
0001e0 08 01 3e bf 42 e5 1c 3f 99 ed 1b bf 50 71 54 bc
       -0.74220324 0.6128732 -0.6090942 -0.012966469
0001f0 3a 81 86 3c 8d 64 f8 be 49 44 7a bf 51 de a7 3f
       0.016419042 -0.48514214 -0.97760445 1.311472

network_body._body_endoder.seq_layers.0.bias f4 [128]
000000 00 00 00 00 00 00 00 00 00 00 00 00 00 00 00 00
       0.0 0.0 0.0 0.0
000010 00 00 00 00 00 00 00 00 00 00 00 00 00 00 00 00
       0.0 0.0 0.0 0.0
000020 00 00 00 00 00 00 00 00 00 00 00 00 00 00 00 00
       0.0 0.0 0.0 0.0
000030 00 00 00 00 00 00 00 00 00 00 00 00 00 00 00 00
       0.0 0.0 0.0 0.0
000040 00 00 00 00 00 00 00 00 00 00 00 00 00 00 00 00
       0.0 0.0 0.0 0.0
000050 00 00 00 00 00 00 00 00 00 00 00 00 00 00 00 00
       0.0 0.0 0.0 0.0
000060 00 00 00 00 00 00 00 00 00 00 00 00 00 00 00 00
       0.0 0.0 0.0 0.0
000070 00 00 00 00 00 00 00 00 00 00 00 00 00 00 00 00
       0.0 0.0 0.0 0.0
000080 00 00 00 00 00 00 00 00 00 00 00 00 00 00 00 00
       0.0 0.0 0.0 0.0
000090 00 00 00 00 00 00 00 00 00 00 00 00 00 00 00 00
       0.0 0.0 0.0 0.0
0000a0 00 00 00 00 00 00 00 00 00 00 00 00 00 00 00 00
       0.0 0.0 0.0 0.0
0000b0 00 00 00 00 00 00 00 00 00 00 00 00 00 00 00 00
       0.0 0.0 0.0 0.0
0000c0 00 00 00 00 00 00 00 00 00 00 00 00 00 00 00 00
       0.0 0.0 0.0 0.0
0000d0 00 00 00 00 00 00 00 00 00 00 00 00 00 00 00 00
       0.0 0.0 0.0 0.0
0000e0 00 00 00 00 00 00 00 00 00 00 00 00 00 00 00 00
       0.0 0.0 0.0 0.0
0000f0 00 00 00 00 00 00 00 00 00 00 00 00 00 00 00 00
       0.0 0.0 0.0 0.0
000100 00 00 00 00 00 00 00 00 00 00 00 00 00 00 00 00
       0.0 0.0 0.0 0.0
000110 00 00 00 00 00 00 00 00 00 00 00 00 00 00 00 00
       0.0 0.0 0.0 0.0
000120 00 00 00 00 00 00 00 00 00 00 00 00 00 00 00 00
       0.0 0.0 0.0 0.0
000130 00 00 00 00 00 00 00 00 00 00 00 00 00 00 00 00
       0.0 0.0 0.0 0.0
000140 00 00 00 00 00 00 00 00 00 00 00 00 00 00 00 00
       0.0 0.0 0.0 0.0
000150 00 00 00 00 00 00 00 00 00 00 00 00 00 00 00 00
       0.0 0.0 0.0 0.0
000160 00 00 00 00 00 00 00 00 00 00 00 00 00 00 00 00
       0.0 0.0 0.0 0.0
000170 00 00 00 00 00 00 00 00 00 00 00 00 00 00 00 00
       0.0 0.0 0.0 0.0
000180 00 00 00 00 00 00 00 00 00 00 00 00 00 00 00 00
       0.0 0.0 0.0 0.0
000190 00 00 00 00 00 00 00 00 00 00 00 00 00 00 00 00
       0.0 0.0 0.0 0.0
0001a0 00 00 00 00 00 00 00 00 00 00 00 00 00 00 00 00
       0.0 0.0 0.0 0.0
0001b0 00 00 00 00 00 00 00 00 00 00 00 00 00 00 00 00
       0.0 0.0 0.0 0.0
0001c0 00 00 00 00 00 00 00 00 00 00 00 00 00 00 00 00
       0.0 0.0 0.0 0.0
0001d0 00 00 00 00 00 00 00 00 00 00 00 00 00 00 00 00
       0.0 0.0 0.0 0.0
0001e0 00 00 00 00 00 00 00 00 00 00 00 00 00 00 00 00
       0.0 0.0 0.0 0.0
0001f0 00 00 00 00 00 00 00 00 00 00 00 00 00 00 00 00
       0.0 0.0 0.0 0.0

network_body._body_endoder.seq_layers.2.weight f4 [128, 128]
000000 11 e0 b9 3d 26 67 21 be c0 65 20 3d d8 cd 8e 3d
       0.090759404 -0.15762004 0.039159536 0.06972855
000010 a2 18 e1 39 e2 33 c4 bd 81 b5 9e bc a9 49 e1 3c
       0.00042933697 -0.09580208 -0.019373657 0.027500944
000020 8b c8 5d bd 75 3e 90 3c 31 35 f0 3b 53 7c 46 3d
       -0.05414633 0.017607907 0.0073305597 0.04845841
000030 d4 d8 0a bc 48 36 61 3c 39 d7 70 3d 11 9a 75 3c
       -0.008474547 0.013745852 0.058799002 0.014990346
000040 97 57 47 3d b3 ee e5 3d 8b 72 6a bc 5d d9 4b be
       0.048667517 0.11227169 -0.014309536 -0.19907136
000050 22 3f 2b bd b0 1d 36 3d 34 e3 e7 3d f0 0d 3c bc
       -0.041808255 0.044461906 0.113226324 -0.011477932
000060 d9 fa 85 bd f9 3c 66 3d 52 5c 13 3e 1f 35 af 3c
       -0.06541986 0.05621049 0.14390686 0.021387635
000070 62 6a 9d bc e1 47 3f 3c ed 29 1d be 71 d7 bb 3d
       -0.019215766 0.011674852 -0.15348025 0.091719516
000080 10 99 ca 3c 59 98 dc bb ba 23 3d 3d 20 7b ba 3d
       0.024731189 -0.0067320284 0.04617665 0.091055155
000090 5e e8 16 3e f4 37 2f 3d 05 e5 3c 3e ac ef fb bd
       0.14737079 0.04277797 0.18446739 -0.12301573
0000a0 30 70 b0 3d 4f 42 35 bd f9 68 32 3e 49 91 07 bd
       0.08615148 -0.04425269 0.17422856 -0.03309754
0000b0 bc f6 c2 3d d2 3c a1 3d 83 bc 16 3e 06 91 8b 3d
       0.09519717 0.07872929 0.14720349 0.068147704
0000c0 74 37 1a 3e a0 8f 38 3e 5c 95 2f bd 6a cc 0a 3d
       0.15060216 0.18023539 -0.04286705 0.03388635
0000d0 cc d0 26 3d ad aa 95 bd dd ba 27 be af 1f be 3d
       0.040726468 -0.073079444 -0.16379876 0.09283387
0000e0 ef d8 16 be fc f7 ed bd 50 f4 df bd 78 d6 88 bd
       -0.14731191 -0.11619565 -0.10935271 -0.06681532
0000f0 a1 eb c2 bd 61 e8 be 3d 1b a1 66 3c 43 fe 55 3d
       -0.09517599 0.093216665 0.0140764965 0.052244436
000100 bc 2f ba 3b 60 e9 19 be 52 35 86 bd ea e6 88 bc
       0.00568196 -0.15030432 -0.06553139 -0.01671167
000110 1b 80 fe 3d 23 48 1b be 03 cf 95 bd 7d eb 18 3d
       0.12426778 -0.15164237 -0.07314875 0.037333954
000120 75 95 6a bd 63 fd a4 3d 12 bf 1f 3d af 01 fd 3d
       -0.05727144 0.08056142 0.03900058 0.12353837
000130 eb 59 de bd b3 be 8e bd c6 b8 d5 3c d5 57 8f 3d
       -0.10856994 -0.06969967 0.026089083 0.069991745
000140 94 ba 55 bd 1e 4c b3 3c ac 1b 0b be dc 59 37 3d
       -0.052179888 0.021886881 -0.13584775 0.04476343
000150 2f d8 2c 3d f1 d5 9d bc 0d a4 30 bc c5 0b 46 3d
       0.042198356 -0.019267054 -0.0107813 0.048351068
000160 e0 34 b0 bb db 19 bf 3d f8 8d 2a 3d 52 22 dc 3d
       -0.005377397 0.093311034 0.0416393 0.107487336
000170 fd 77 a1 3d d1 3d 1a bd 27 a0 5a bd 5d ef 1f 3e
       0.07884214 -0.03765661 -0.05337539 0.15618654
000180 86 ca 8c 3d 4e 76 44 3d 8f 9e 77 3d 24 98 c5 bd
       0.06874566 0.047964387 0.060453948 -0.09648159
000190 35 b2 1d 3d 02 f7 b4 bc 42 44 bc bd de 72 b3 bd
       0.03850003 -0.022090439 -0.09192707 -0.087621436
0001a0 d9 52 9f 3d 03 9a a9 bd 9a 8a 47 3e d5 4f b8 bd
       0.07779474 -0.082813285 0.19486466 -0.08999602
0001b0 96 30 b0 bd 6c 24 51 bd d5 94 14 be 7f b5 a6 bd
       -0.08603017 -0.051060125 -0.145099 -0.081400864
0001c0 30 1a 7c bd 4f 61 04 bd 2f f1 11 bc 9f 2c 85 3d
       -0.06154841 -0.032319363 -0.0089076 0.065026514
0001d0 ea c1 e0 bc bc 3b 2c be cb a3 ec bc 7d 67 d9 bd
       -0.027436215 -0.16819662 -0.028886696 -0.10615442
0001e0 4e ae 24 3d 0b 00 ec bc 14 51 a4 3d 53 1c a7 bb
       0.040205292 -0.028808614 0.08023277 -0.005099812
0001f0 f9 80 3d 3d 4b 95 a8 bd 40 e4 a8 bd 0b a6 50 bd
       0.046265576 -0.082316004 -0.0824666 -0.0509396
000200 aa e0 3f 3d 5a fb ed 3d d0 3b 92 bd ae 5e f7 bd
       0.046845116 0.11620207 -0.071403146 -0.120786056
000210 f3 73 20 3e ac cc 09 bd c4 c6 78 3d 99 04 99 3c
       0.15669231 -0.033642456 0.060736433 0.01867895
000220 5a a6 33 be e5 76 ad bd 07 3e 41 3d f5 37 18 3e
       -0.17543927 -0.08469943 0.047178295 0.14865096
000230 4c 8c b1 bd df e9 79 be 74 79 0b 3e 55 ba 49 3d
       -0.08669338 -0.24405621 0.1362055 0.049249966
000240 90 86 eb bc 5a e4 ad bd 6d 0f 95 bb 17 95 11 be
       -0.028750688 -0.0849082 -0.004548958 -0.1421703
000250 13 be a2 3d 03 e2 9c 3d 10 7e 6b bb 11 c1 90 b9
       0.0794641 0.07660296 -0.0035933293 -0.00027609666
000260 07 83 0e bd 03 74 91 3d f2 23 22 3d d0 4e 09 3c
       -0.034792926 0.071022056 0.03958506 0.008380607
000270 09 9d 10 3c 32 20 fa bd 71 df 3c be d7 26 24 3c
       0.008826503 -0.12213172 -0.18444611 0.010019026
000280 9e 30 81 3d e2 6b d8 bc e3 34 9e bd 6d 56 05 3d
       0.06308101 -0.02641863 -0.07724931 0.032553125
000290 07 6e b2 bc 4c e4 fa bd 8b af 36 3e ca 21 ec bd
       -0.02178098 -0.122505754 0.17840402 -0.11529882
0002a0 b3 b2 b7 bd 78 fc 91 3d a6 77 db 3d 86 22 39 bc
       -0.08969631 0.07128233 0.107161805 -0.011299735
0002b0 75 23 c3 bd 68 57 d1 bd a3 54 0c bb cb 2b 1e be
       -0.09528247 -0.102217495 -0.0021412752 -0.15446393
0002c0 af ad 67 bc 2a a1 8f bd d2 3f b1 bd d1 29 46 bc
       -0.0141405305 -0.070131615 -0.08654751 -0.012094931
0002d0 ca ca 0c be db 20 80 3c fe f5 24 be 76 a0 e4 bc
       -0.13749233 0.015640667 -0.16109464 -0.027908545
0002e0 ab 98 9f bd 07 7d a6 3c 9e e1 1f 3d 85 70 32 be
       -0.07792791 0.02032329 0.039033525 -0.17425735
0002f0 bd 6f 21 3e 98 22 05 3d 3f 27 4d 3d 09 a1 3b 3c
       0.15765281 0.032503694 0.050086256 0.011451968
000300 7e f2 26 bc 73 5b 20 bd ac ac af 3d bf 3a 76 3d
       -0.010189651 -0.039149713 0.085778564 0.06011462
000310 15 f4 0c 3e ea f2 f6 bd 96 3c 3a bd 68 4a 59 bd
       0.13764985 -0.12058051 -0.045467936 -0.053049475
000320 c1 aa 49 3d 22 38 e0 bc a6 d6 89 3d ef f8 c6 3d
       0.04923511 -0.027370516 0.06730394 0.09715449
000330 5c 2c 10 be 4d 99 4f bd 8d fb ab bd d6 ca 23 3e
       -0.14079422 -0.05068331 -0.08397589 0.15995345
000340 f1 de c4 3d 6d 15 d0 bd f9 ed 42 bd e7 c3 10 bd
       0.09612835 -0.10160337 -0.04759023 -0.035343077
000350 e0 35 24 bd 02 8c d1 3c 42 3b 99 3c cc 28 1f 3d
       -0.04009044 0.025579456 0.018705014 0.038857266
000360 30 a3 1d 3d 5d 44 2b be aa 29 4d 3c 5b 2f 1c be
       0.038485706 -0.16725297 0.0125221405 -0.1525244
000370 41 e5 a2 bd 1c a9 c7 3c c4 f4 88 bd a2 4b cf 3d
       -0.07953883 0.02437263 -0.0668731 0.10121848
000380 1c a8 88 bd 56 ab 30 bd 6c d0 96 3c a0 fe 13 3d
       -0.06672689 -0.04313215 0.01840993 0.0361315
000390 aa bc 6d bc ee 3b 98 3d 7e 76 42 3e 0e ec 56 3c
       -0.014510313 0.07433306 0.18990514 0.013117803
0003a0 e7 7f 05 ba 6e da 01 3d 89 90 6f 3d fd 2c 13 3d
       -0.00050926063 0.03170245 0.05848745 0.035931576
0003b0 b9 e6 b4 bd f7 09 84 be e3 58 7d 3d 01 50 2d bd
       -0.08833069 -0.25788853 0.061852347 -0.042312626
0003c0 b3 d1 ec bd 5f cd 9d bd 90 6f d1 3d 3c 80 08 bd
       -0.115634345 -0.07705187 0.10226357 -0.03332542
0003d0 75 18 1c bd 6e fc ff bc 49 d5 37 3e 5a ee 26 3d
       -0.03810926 -0.031248298 0.17952456 0.040754654
0003e0 c8 e5 af 3d 65 28 76 bd e0 80 30 3d 4b fd 33 3d
       0.08588749 -0.060097117 0.043091655 0.04394273
0003f0 14 b2 a1 bd 8c 02 33 3e 6f 25 b0 3b 1d 61 24 bd
       -0.07895294 0.1748144 0.005375556 -0.040131677

network_body._body_endoder.seq_layers.2.bias f4 [128]
000000 00 00 00 00 00 00 00 00 00 00 00 00 00 00 00 00
       0.0 0.0 0.0 0.0
000010 00 00 00 00 00 00 00 00 00 00 00 00 00 00 00 00
       0.0 0.0 0.0 0.0
000020 00 00 00 00 00 00 00 00 00 00 00 00 00 00 00 00
       0.0 0.0 0.0 0.0
000030 00 00 00 00 00 00 00 00 00 00 00 00 00 00 00 00
       0.0 0.0 0.0 0.0
000040 00 00 00 00 00 00 00 00 00 00 00 00 00 00 00 00
       0.0 0.0 0.0 0.0
000050 00 00 00 00 00 00 00 00 00 00 00 00 00 00 00 00
       0.0 0.0 0.0 0.0
000060 00 00 00 00 00 00 00 00 00 00 00 00 00 00 00 00
       0.0 0.0 0.0 0.0
000070 00 00 00 00 00 00 00 00 00 00 00 00 00 00 00 00
       0.0 0.0 0.0 0.0
000080 00 00 00 00 00 00 00 00 00 00 00 00 00 00 00 00
       0.0 0.0 0.0 0.0
000090 00 00 00 00 00 00 00 00 00 00 00 00 00 00 00 00
       0.0 0.0 0.0 0.0
0000a0 00 00 00 00 00 00 00 00 00 00 00 00 00 00 00 00
       0.0 0.0 0.0 0.0
0000b0 00 00 00 00 00 00 00 00 00 00 00 00 00 00 00 00
       0.0 0.0 0.0 0.0
0000c0 00 00 00 00 00 00 00 00 00 00 00 00 00 00 00 00
       0.0 0.0 0.0 0.0
0000d0 00 00 00 00 00 00 00 00 00 00 00 00 00 00 00 00
       0.0 0.0 0.0 0.0
0000e0 00 00 00 00 00 00 00 00 00 00 00 00 00 00 00 00
       0.0 0.0 0.0 0.0
0000f0 00 00 00 00 00 00 00 00 00 00 00 00 00 00 00 00
       0.0 0.0 0.0 0.0
000100 00 00 00 00 00 00 00 00 00 00 00 00 00 00 00 00
       0.0 0.0 0.0 0.0
000110 00 00 00 00 00 00 00 00 00 00 00 00 00 00 00 00
       0.0 0.0 0.0 0.0
000120 00 00 00 00 00 00 00 00 00 00 00 00 00 00 00 00
       0.0 0.0 0.0 0.0
000130 00 00 00 00 00 00 00 00 00 00 00 00 00 00 00 00
       0.0 0.0 0.0 0.0
000140 00 00 00 00 00 00 00 00 00 00 00 00 00 00 00 00
       0.0 0.0 0.0 0.0
000150 00 00 00 00 00 00 00 00 00 00 00 00 00 00 00 00
       0.0 0.0 0.0 0.0
000160 00 00 00 00 00 00 00 00 00 00 00 00 00 00 00 00
       0.0 0.0 0.0 0.0
000170 00 00 00 00 00 00 00 00 00 00 00 00 00 00 00 00
       0.0 0.0 0.0 0.0
000180 00 00 00 00 00 00 00 00 00 00 00 00 00 00 00 00
       0.0 0.0 0.0 0.0
000190 00 00 00 00 00 00 00 00 00 00 00 00 00 00 00 00
       0.0 0.0 0.0 0.0
0001a0 00 00 00 00 00 00 00 00 00 00 00 00 00 00 00 00
       0.0 0.0 0.0 0.0
0001b0 00 00 00 00 00 00 00 00 00 00 00 00 00 00 00 00
       0.0 0.0 0.0 0.0
0001c0 00 00 00 00 00 00 00 00 00 00 00 00 00 00 00 00
       0.0 0.0 0.0 0.0
0001d0 00 00 00 00 00 00 00 00 00 00 00 00 00 00 00 00
       0.0 0.0 0.0 0.0
0001e0 00 00 00 00 00 00 00 00 00 00 00 00 00 00 00 00
       0.0 0.0 0.0 0.0
0001f0 00 00 00 00 00 00 00 00 00 00 00 00 00 00 00 00
       0.0 0.0 0.0 0.0

action_model._continuous_distribution.mu.weight f4 [1, 128]
000000 6c c5 4c bc 7a 21 75 3b 74 d2 b3 39 ac 2c 00 bd
       -0.012498241 0.0037403987 0.0003429834 -0.031292602
000010 82 5c 25 bd b0 9d ad bc 5b 77 75 bb 60 11 e3 bc
       -0.040371425 -0.021193355 -0.0037455175 -0.027718246
000020 bd 8c 5a 3b 65 90 9c 3c df 10 21 bc 10 a9 f4 3c
       0.0033348047 0.019111821 -0.009830683 0.029865772
000030 02 31 1b 3c fd b9 7c ba 23 d3 cd bc 83 9a bf 3a
       0.009472134 -0.00096407515 -0.025125092 0.0014618192
000040 af 53 b7 bc bd 95 e1 bc ef 1c 0d bc 84 19 a2 bb
       -0.02237877 -0.027537221 -0.008612855 -0.0049468894
000050 e7 6a 90 3c 15 99 41 3c a2 9a 98 bc a9 b5 a4 bc
       0.0176291 0.011816283 -0.018628422 -0.020106154
000060 0a 1d 75 bc c3 c5 9d bc ba c0 e9 bc 1f e1 1e 3c
       -0.014960537 -0.01925934 -0.028534282 0.009697228
000070 80 0d 11 bc 7b 0b f4 3c cc 02 c0 bc ab 9d 69 3c
       -0.008853316 0.02979063 -0.023438834 0.014258782
000080 9e db 07 ba 48 ee f2 bb 3b 0f d4 bb c3 98 1f bc
       -0.0005182567 -0.0074136592 -0.006471542 -0.009741011
000090 60 37 24 bc a3 e3 32 bc 8f d5 b3 3c a7 d4 9c 3c
       -0.010022968 -0.010918531 0.021952419 0.01914437
0000a0 1b e2 3f 3c 80 bd 96 bb 62 ba 42 3a 66 29 8d bc
       0.011711623 -0.004600227 0.0007428286 -0.017231654
0000b0 b0 87 a5 3c 45 70 ff bc 5b 7d 15 3c 02 52 ef bc
       0.020206302 -0.031181464 0.009124125 -0.029213909
0000c0 ca 67 f3 bc 65 1f 7e bc 70 45 a6 bb 77 3d 18 bd
       -0.029712576 -0.015510415 -0.0050741956 -0.037167992
0000d0 1f 79 06 3d 63 45 8e bc 2d ad 00 3c df f2 45 bc
       0.032830354 -0.01736707 0.007853788 -0.012081831
0000e0 a8 84 16 bc 95 50 a6 bc b5 34 3f bb aa 83 05 ba
       -0.009186901 -0.020302096 -0.0029175703 -0.0005093167
0000f0 37 90 d0 bb cf 68 d3 bb df 89 ac 3b 6b b3 39 3c
       -0.006364848 -0.006451703 0.005265459 0.0113342805
000100 db 82 32 bc b7 94 65 3c 9f d8 ae 3b 60 03 fd bb
       -0.010895456 0.014012507 0.005335882 -0.0077213496
000110 77 af 6d 3c ed 66 bf bb 9d 77 c3 bb f2 43 75 bc
       0.014507166 -0.005841127 -0.0059651867 -0.014969813
000120 43 87 61 bc aa a4 62 3a eb 6b fc 3c d7 5e 17 bc
       -0.013765159 0.00086457527 0.030813178 -0.00923892
000130 4a 12 d2 bb b8 94 35 3b 5a e7 3d bc 2b fa 6f 3b
       -0.0064108716 0.0027707051 -0.011590803 0.0036617618
000140 4f 41 35 bc bf d5 a8 bc cf 84 b7 3b aa 96 aa bb
       -0.011062934 -0.020609735 0.005600549 -0.005205949
000150 1a 89 03 3c a3 b3 1f 3c 21 92 bb 3c af 47 02 3c
       0.008028293 0.009747419 0.022896828 0.007951661
000160 d8 4c c5 bc 4f e4 13 3c e4 48 cc 3b 9a 5e c8 bc
       -0.024084494 0.009026601 0.006234275 -0.024459172
000170 28 46 b1 3b 6e 74 9a 3c 1b a1 96 bc d5 84 65 3b
       0.0054099746 0.018854346 -0.018387368 0.00350218
000180 fc 86 0f 3c 9e d0 9f bb bf fd a2 bc 90 0e 72 bb
       0.00876021 -0.004877164 -0.019896386 -0.003693495
000190 cd ed 2b bc e9 21 b7 3c 6f fa a0 bb 75 df 0c bb
       -0.010493708 0.022355037 -0.0049126665 -0.0021495495
0001a0 c7 5d 1f 3d 10 ef f8 3a 5f e9 a4 39 79 f1 2e bc
       0.038907792 0.0018992145 0.00031454393 -0.010677689
0001b0 ab 65 11 bd 67 db f5 3c 5f a5 91 bc c7 e8 a2 3c
       -0.03549735 0.030011846 -0.01777905 0.019886388
0001c0 c2 68 cc bb 68 86 ee bc 04 9c 42 3c a3 3c c5 bc
       -0.006238074 -0.029116824 0.011878017 -0.024076765
0001d0 d7 82 ee bc d2 a4 49 bc da 08 eb 3b 77 68 ab 3c
       -0.029115124 -0.012307363 0.007172686 0.020923836
0001e0 b2 1e bf bc eb 69 7e bc 7f a1 26 bd 03 e8 50 bb
       -0.023330066 -0.0155281825 -0.04068136 -0.003187657
0001f0 0b e2 09 bb 57 b8 9f 3b b6 d3 34 ba 5a 7d d4 3c
       -0.0021039273 0.00487427 -0.00068980025 0.025938679

action_model._discrete_distribution.branches.0.weight f4 [5, 128]
000000 dd 7d 4e 3c 4f 4e 6e bb 1d 59 1c bb a3 44 2b 3c
       0.01260325 -0.0036362594 -0.0023856827 0.010453376
000010 aa a8 76 3b c7 61 0a bc dd 45 f4 bb 04 43 a4 bc
       0.0037637153 -0.0084461635 -0.0074546174 -0.020051487
000020 c8 7b f6 3a a5 2e c4 bb 30 17 de 3b 9f a6 99 bb
       0.00188052 -0.005987006 0.0067776665 -0.0046890522
000030 3a a5 23 3c c2 02 d2 3a a0 2d 07 ba fb be 23 3b
       0.009988124 0.001602255 -0.000515664 0.002498566
000040 8a 84 95 3b c7 57 95 3c 9d 03 da b9 61 a5 09 ba
       0.004562919 0.018230332 -0.00041582892 -0.00052507786
000050 5e 93 45 3b b3 fa 64 bc cf f2 0f 3b 1c 67 01 bb
       0.0030147652 -0.013975787 0.0021964794 -0.0019745296
000060 9a 42 94 3c dd dc e0 bb ed e4 3a 3c 9f 01 5e 3b
       0.018098164 -0.0068622665 0.011407119 0.0033875478
000070 c0 32 a9 ba 4f d7 d8 3a b7 67 29 bc 07 f1 35 bc
       -0.0012908801 0.0016543659 -0.010339669 -0.011104829
000080 30 0a 62 bc b5 17 2e 3c ba 9c f9 3b 62 4e 9b bb
       -0.013796374 0.010625769 0.00761756 -0.0047395686
000090 ae d1 06 bb 61 42 c6 3b 4c 97 37 bc ca e0 6b ba
       -0.0020571756 0.0060503935 -0.011205506 -0.0008998035
0000a0 c7 ee 9d 3b 95 c4 95 bb 60 c2 34 3c fd b8 87 bb
       0.0048197242 -0.0045705535 0.011032671 -0.0041419254
0000b0 dd af f5 3b c9 96 0d 3c e9 45 a1 bb 2b f2 00 3c
       0.007497771 0.008641907 -0.004921664 0.007870237
0000c0 ac 61 c7 3b 5d a7 c6 bb 16 d0 8d 3b db 72 09 ba
       0.0060846414 -0.0060624317 0.0043277843 -0.000524325
0000d0 d3 12 2d 3b 5f d3 51 bc 8f 87 22 3c 42 98 7c 3b
       0.0026408925 -0.012806742 0.009920015 0.0038542901
0000e0 64 cc 39 3b 97 2c 88 bb dd 41 16 bc a9 5a 20 bc
       0.0028350586 -0.004155706 -0.0091709765 -0.00978724
0000f0 fd b3 f9 bb a3 f8 96 3b 0f ed 6d 3c 47 ac 41 3c
       -0.007620333 0.0046072765 0.014521851 0.011820859
000100 67 00 a0 bc 19 92 1b bb b3 1e 62 3c 77 82 eb 3c
       -0.019531442 -0.0023738204 0.013801265 0.028748734
000110 b1 23 4a bb fa 2c a6 3a 27 32 25 3c dd 96 a9 3a
       -0.0030844028 0.0012678199 0.010082758 0.0012938638
000120 8f 0a 79 39 17 d0 17 bc 27 4a 2a 3b 25 77 b8 3b
       0.00023750424 -0.009265921 0.002598414 0.0056294375
000130 0f 16 73 ba eb 0d 0d 3c ef 51 77 3b a1 60 a3 3c
       -0.00092730013 0.008609275 0.0037738045 0.019943537
000140 4d 42 13 bb 4b 30 a0 3a 63 93 b3 3b 52 ae b9 3b
       -0.0022469938 0.0012221424 0.0054802164 0.0056665326
000150 d0 ae 59 3a 43 d2 33 bc 65 40 fb 3b 07 c8 44 bc
       0.0008303942 -0.010975423 0.0076675885 -0.012010581
000160 eb db 11 3c 13 49 84 3b b0 e7 3c bb 39 35 af 3b
       0.00890253 0.0040370314 -0.002882462 0.005346921
000170 ab dc f3 ba d2 f7 cc 3b 85 9e 1d 3c 61 08 31 3c
       -0.0018605193 0.0062551284 0.0096203135 0.01080522
000180 dc 79 b5 3b 30 45 da 3b 8b 84 aa 3b eb c4 fa ba
       0.0055382084 0.00666108 0.0052037886 -0.0019132172
000190 3f 1e 64 bc d8 3a 12 3c 07 d5 e5 ba 00 22 79 3c
       -0.013923227 0.008925162 -0.00175348 0.01520586
0001a0 7d 9e 1a 3c cd b8 b6 3c a0 1a 82 3b cb 9c 98 3b
       0.009437201 0.022304917 0.003970459 0.004657363
0001b0 87 ef 0f 3b d3 8e 4a bb 59 32 8c b8 bd a5 30 bc
       0.0021962838 -0.0030907884 -6.685098e-05 -0.010781703
0001c0 92 33 d0 3b 36 03 1a 3b 3f c2 0e 3c 0b 64 24 3b
       0.006353804 0.002350045 0.008713304 0.0025084044
0001d0 8d 59 fe 3b db e6 87 b8 aa 19 b6 b9 c0 f1 8c bb
       0.00776214 -6.480302e-05 -0.00034732866 -0.00430128
0001e0 b5 28 a1 3a 13 ac aa 3b 99 e2 03 39 57 27 ea 3b
       0.0012295457 0.005208501 0.00012577548 0.007145803
0001f0 4a c8 4c 3b e6 f1 a9 3b 19 3b b5 ba 0a 49 87 3a
       0.0031247311 0.0051863072 -0.0013826817 0.001032145
000200 0b 3c d5 bb 65 52 d6 bb 40 3a d2 ba 6f 2b 1f bc
       -0.006507402 -0.006540584 -0.0016039088 -0.009714945
000210 05 08 7e 3a eb 11 56 3c 95 b5 a5 3c 78 a2 0b bc
       0.0009690526 0.013065795 0.020228187 -0.008522622
000220 44 36 c1 3b cb 47 20 3b 68 c7 17 bc 1f e6 3d 3c
       0.0058963615 0.0024456854 -0.009263851 0.01159051
000230 48 c8 72 bc 73 0d 7f 3c 68 ba e5 bb 4a 6c 8c 3c
       -0.014818259 0.015567171 -0.0070107467 0.01714148
000240 95 9e a7 3c 95 27 14 3c 5b 9c 93 bc b1 d0 8b bb
       0.02046136 0.00904264 -0.018018892 -0.0042668213
000250 5c 02 08 3b 8b 52 16 bc 30 0c 92 bb 27 9c 08 3b
       0.002075336 -0.009174953 -0.0044570193 0.0020845027
000260 bc 71 a3 3b 08 49 7e 3b 87 79 88 3b 18 c3 ec b9
       0.0049879234 0.0038800854 0.004164878 -0.00045158784
000270 4f 34 09 3c 81 85 1f bc ad 2a cc bb ac 39 84 bc
       0.008374288 -0.00973642 -0.0062306733 -0.016140781
000280 ac 29 28 bc 30 19 cf bc e0 a3 f4 3a e0 bb a4 bc
       -0.010263842 -0.025280565 0.0018664561 -0.020109117
000290 60 94 2b 3c bb c0 6c 3b a0 31 53 3b e7 49 a8 bb
       0.010472387 0.0036125618 0.0032225624 -0.005135763
0002a0 37 ab 5b 3b f7 16 bd bb ff 1e c3 3c 60 e3 be 3b
       0.00335188 -0.00577056 0.023818491 0.005825445
0002b0 f5 8b 43 3c 70 2e 87 bb 13 06 7a 3b 26 ea 0f 3c
       0.011935224 -0.004125409 0.0038150593 0.008783853
0002c0 e7 a6 9e 39 2f 9f 64 bb cd 98 d0 3a 73 16 fd 39
       0.0003026046 -0.003488492 0.0015914679 0.00048272646
0002d0 e4 b7 87 3b 08 d6 d3 bb ab 70 6c 3c df ab 18 3c
       0.0041417945 -0.0064647235 0.014431159 0.009318321
0002e0 1f ff 6f bc 0b 5e 83 3b 21 b8 3c bb cc fb 48 3a
       -0.014648228 0.0040090135 -0.0028796273 0.0007666915
0002f0 6e 3d c0 3a 27 da 07 3c 97 f3 ce bb ad 3d 19 bc
       0.0014666745 0.008291758 -0.0063156593 -0.009353084
000300 6f 81 a1 3c 16 25 b4 bb 02 51 4f bb 13 30 19 bb
       0.019715039 -0.005497585 -0.0031633978 -0.0023374602
000310 93 86 82 bc fa 97 46 bb 47 59 76 3b db 41 bc 3b
       -0.01593331 -0.0030302987 0.0037589835 0.0057451553
000320 e7 56 0c 3b a1 52 18 bb 0d 72 ef 3a 29 85 83 3a
       0.0021414103 -0.002324261 0.0018268243 0.0010034192
000330 c6 97 c8 3b 10 d8 da 3b 3b f5 26 3c 67 27 81 3b
       0.0061216084 0.0066785887 0.010190303 0.0039414647
000340 ed ce 09 3c 02 b2 4a bc ff 79 80 3b fb 1a 1d 3c
       0.008411151 -0.012371542 0.003920793 0.009588952
000350 f2 cc 9e 3b db 87 ab 3b cd 01 f9 bb e6 c1 29 bb
       0.0048462087 0.005234701 -0.0075990916 -0.0025902926
000360 5b e9 45 3c a2 fb 85 bb ec 91 82 3a 6f aa d2 bb
       0.012079562 -0.004088835 0.0009961701 -0.0064290087
000370 f1 db 11 3b e2 49 67 bc a4 f0 87 3c 74 82 a7 bb
       0.002225634 -0.014116736 0.016594239 -0.005111987
000380 e8 c4 34 3c f5 be 4c 38 a3 21 23 bc ef 27 a8 3c
       0.011033274 4.8815233e-05 -0.00995675 0.020526854
000390 96 db ac 3b cd 09 02 bc 9f 8a d8 bb b0 de 5e 3c
       0.0052752 -0.007936907 -0.006608322 0.0136028975
0003a0 17 31 6d bb e3 63 71 bb 2a 59 e1 bb b0 d4 0a bc
       -0.003619259 -0.0036833219 -0.0068770843 -0.00847356
0003b0 7b ab 6e 3c 9b e3 db ba 4b 1f a9 3b 4b 72 c8 3b
       0.014567251 -0.0016776206 0.005161201 0.0061171404
0003c0 d1 b4 c1 3b dd b5 c1 3a c0 d9 e0 3b 49 48 30 bb
       0.0059114476 0.0014778931 0.0068618953 -0.0026898554
0003d0 7f 85 73 3c ea df 93 3c 79 56 94 3b df 07 1e bc
       0.014863371 0.018051106 0.00452691 -0.009645431
0003e0 a5 36 a6 3b f2 d9 1b bb 15 d4 ff 39 e8 77 00 3c
       0.005072432 -0.0023781029 0.00048795404 0.007841088
0003f0 71 f4 37 3c 93 31 b0 bb f7 96 5b 3b 90 21 da 3b
       0.011227713 -0.0053770035 0.003350673 0.006656833

action_model._discrete_distribution.branches.0.bias f4 [5]
000000 00 00 00 00 00 00 00 00 00 00 00 00 00 00 00 00
       0.0 0.0 0.0 0.0
000010 00 00 00 00
       0.0
