results/ppo/My Behavior/My Behavior-576.pt (torch, 144812 bytes, 11 tensors)

network_body._body_endoder.seq_layers.0.weight f4 [128, 1]
00000000: 7b16 523f 5312 1abf 306b 1ebf c9da 82be
00000010: 82d0 e3bf 346c 0cc0 d5f2 693d a757 dd3f
00000020: 3e27 ed3e ebd7 acbe 60c7 d0bf 1d71 a0be
00000030: 359d b5bf 58d2 b0be 7a83 2e3f 3f8f a8bf
00000040: ddd7 ed3e c685 12bd e962 a33f 25f4 b8be
00000050: 94c7 85bf 00f6 a63d c4ab 893f 4c7b 61be
00000060: ba6b 87bf a249 4bbd 0535 0fbf 73f5 ad3f
00000070: ff55 41bf 8868 3cbd e75d 353e 83e0 cd3f
00000080: 0822 d33f 6f7a 26bf a57f edbf 5dc2 e93f
00000090: 06be 23bf 7795 babf b1d8 65bf e5c0 38bf
000000a0: b435 c0be 4873 1cbf ed92 7e3f d87a c53e
000000b0: e936 b13e 376e 03c0 b5b6 ccbe 6291 873f
000000c0: 7854 23c0 4095 9b3e 8513 82bf d447 97bf
000000d0: f735 a1bf f24e 0b3f 8274 ea3f 941f dc3e
000000e0: 5a25 73bf 2a83 0ac0 11ec 2dbf 34c0 45bd
000000f0: 05da 7d3f 5b13 e1be c294 0e3f 6945 233f
00000100: 4ac0 333f c764 d33f 5f94 353f 0aac 5dbf
00000110: 9019 65be eff2 1240 ce5e a5bf 6698 c13d
00000120: 986b 02bf f71f 27be fd00 1e3e 2ab3 243f
00000130: ffb5 c2be bfe3 33bf b610 803e ce2f 783f
00000140: 9c7d 153f dbfb 783f 3dca 663e e8a8 813f
00000150: ff08 843f 2451 703e ef06 613f bd5a b83f
00000160: a244 02bf 4a61 fe3f 59b4 c83e c03d 30bf
00000170: b170 82be f22b a93e 4854 6abf 89e9 b2bf
00000180: 8ec9 8c3e 2001 5b3f 99ca 17bf 7d00 9a3f
00000190: c4d5 333f 4391 523e 436f d83e 2b74 32bf
000001a0: 523b 8d3c d7e3 9bbc 702c ad3f 6588 1cbd
000001b0: 7861 bebf 8854 f1be d7bd 07bf 5fa3 c53f
000001c0: e12b a53e 72f9 3b3f dc90 d43d 7474 69bf
000001d0: cb13 e63f 1ced 013f 98ad 47bf e8b6 44bf
000001e0: d56d b2be 2cc1 1abe 98dc 633f 1769 633e
000001f0: 6e86 0d3f e261 0fc0 1830 11bf 6c97 8c3f
0.8206555 -0.6018421 -0.61882305 -0.25557545 -1.7798007 -2.1941042 0.05711635 1.7292374
0.46319002 -0.33758482 -1.6310844 -0.313363 -1.4188601 -0.3453548 0.6816937 -1.3168715
0.46453753 -0.035772108 1.276456 -0.36123767 -1.0451531 0.081523895 1.0755544 -0.2201969
-1.057975 -0.04963077 -0.55940276 1.359053 -0.75521845 -0.045998126 0.17711602 1.608414
1.649476 -0.6503057 -1.8554579 1.826244 -0.6396183 -1.4576863 -0.8978377 -0.72169334
-0.37540972 -0.61113405 0.9944294 0.38570285 0.34612206 -2.053602 -0.39983144 1.0591242
-2.5520306 0.30387306 -1.0162207 -1.1818795 -1.2594594 0.54417336 1.8316805 0.42992842
-0.9497887 -2.1642556 -0.67938334 -0.048279002 0.99160796 -0.4396008 0.55695736 0.63777786
0.70215285 1.651513 0.7092952 -0.86590636 -0.22373033 2.2960775 -1.2919557 0.09452896
-0.50945425 -0.16320787 0.15430064 0.6433588 -0.38029477 -0.7026939 0.2501275 0.96947944
0.5839479 0.972593 0.22538085 1.0129671 1.0315245 0.23468453 0.87901205 1.4402691
-0.50885975 1.987344 0.39200094 -0.68844223 -0.25476602 0.3304134 -0.91534853 -1.3977519
0.27497524 0.8554859 -0.59293514 1.2031399 0.70248055 0.20563225 0.42272386 -0.6970851
0.0172402 -0.019029541 1.3529186 -0.038216013 -1.4873495 -0.47134805 -0.5302405 1.5440482
0.3226004 0.734275 0.10379192 -0.9119332 1.797479 0.50752425 -0.7799926 -0.7684159
-0.3484942 -0.15112752 0.89008474 0.22208057 0.5528325 -2.2403493 -0.5671401 1.098371

network_body._body_endoder.seq_layers.0.bias f4 [128]
00000000: 0000 0000 0000 0000 0000 0000 0000 0000
00000010: 0000 0000 0000 0000 0000 0000 0000 0000
00000020: 0000 0000 0000 0000 0000 0000 0000 0000
00000030: 0000 0000 0000 0000 0000 0000 0000 0000
00000040: 0000 0000 0000 0000 0000 0000 0000 0000
00000050: 0000 0000 0000 0000 0000 0000 0000 0000
00000060: 0000 0000 0000 0000 0000 0000 0000 0000
00000070: 0000 0000 0000 0000 0000 0000 0000 0000
00000080: 0000 0000 0000 0000 0000 0000 0000 0000
00000090: 0000 0000 0000 0000 0000 0000 0000 0000
000000a0: 0000 0000 0000 0000 0000 0000 0000 0000
000000b0: 0000 0000 0000 0000 0000 0000 0000 0000
000000c0: 0000 0000 0000 0000 0000 0000 0000 0000
000000d0: 0000 0000 0000 0000 0000 0000 0000 0000
000000e0: 0000 0000 0000 0000 0000 0000 0000 0000
000000f0: 0000 0000 0000 0000 0000 0000 0000 0000
00000100: 0000 0000 0000 0000 0000 0000 0000 0000
00000110: 0000 0000 0000 0000 0000 0000 0000 0000
00000120: 0000 0000 0000 0000 0000 0000 0000 0000
00000130: 0000 0000 0000 0000 0000 0000 0000 0000
00000140: 0000 0000 0000 0000 0000 0000 0000 0000
00000150: 0000 0000 0000 0000 0000 0000 0000 0000
00000160: 0000 0000 0000 0000 0000 0000 0000 0000
00000170: 0000 0000 0000 0000 0000 0000 0000 0000
00000180: 0000 0000 0000 0000 0000 0000 0000 0000
00000190: 0000 0000 0000 0000 0000 0000 0000 0000
000001a0: 0000 0000 0000 0000 0000 0000 0000 0000
000001b0: 0000 0000 0000 0000 0000 0000 0000 0000
000001c0: 0000 0000 0000 0000 0000 0000 0000 0000
000001d0: 0000 0000 0000 0000 0000 0000 0000 0000
000001e0: 0000 0000 0000 0000 0000 0000 0000 0000
000001f0: 0000 0000 0000 0000 0000 0000 0000 0000
0.0 0.0 0.0 0.0 0.0 0.0 0.0 0.0
0.0 0.0 0.0 0.0 0.0 0.0 0.0 0.0
0.0 0.0 0.0 0.0 0.0 0.0 0.0 0.0
0.0 0.0 0.0 0.0 0.0 0.0 0.0 0.0
0.0 0.0 0.0 0.0 0.0 0.0 0.0 0.0
0.0 0.0 0.0 0.0 0.0 0.0 0.0 0.0
0.0 0.0 0.0 0.0 0.0 0.0 0.0 0.0
0.0 0.0 0.0 0.0 0.0 0.0 0.0 0.0
0.0 0.0 0.0 0.0 0.0 0.0 0.0 0.0
0.0 0.0 0.0 0.0 0.0 0.0 0.0 0.0
0.0 0.0 0.0 0.0 0.0 0.0 0.0 0.0
0.0 0.0 0.0 0.0 0.0 0.0 0.0 0.0
0.0 0.0 0.0 0.0 0.0 0.0 0.0 0.0
0.0 0.0 0.0 0.0 0.0 0.0 0.0 0.0
0.0 0.0 0.0 0.0 0.0 0.0 0.0 0.0
0.0 0.0 0.0 0.0 0.0 0.0 0.0 0.0

network_body._body_endoder.seq_layers.2.weight f4 [128, 128]
00000000: 1035 123d 65ee c5bc 8c57 bfbd 93e2 d63d
00000010: be0e e7bc 2489 49be 56fd a13d 7011 be3d
00000020: d382 c4bb 05a5 a63c 2acf ef3c 382a 523d
00000030: 19b7 bc3c 02d1 233d 707d 723d 739d 003d
00000040: 44a9 aabd 802a d6bd 0b6a c4bd 60e2 19bd
00000050: 803d 8b3d 4936 3ebd 85f6 d6bd e8c8 10bd
00000060: ae18 053e 490b 60bd 6604 5f3d 39b6 eebd
00000070: 9011 c83d dfe9 90bd 9f13 243e ce76 773d
00000080: 8be0 943b e803 023c 8c12 bb3d 1f22 6cbe
00000090: 3edc e63c e6b8 ffbd 1d73 203d ad1e 8dba
000000a0: a7b5 0dbd 0208 8a3d c3f1 673e 6f3e dfbd
000000b0: 43b5 1a3d e889 f0bc ce7b bf3d c975 3b3b
000000c0: 0db2 8abd 016a da3c 45e2 55bd 441d 173e
000000d0: e339 323d 1f7f c53d 3e43 803d 2482 2dbd
000000e0: dd1b b7bd ccf3 763d 7071 06bc 9f62 60be
000000f0: 48c0 c0bd a452 643c dd3f c63c 95bf 4cbd
00000100: 8285 f7bd b541 04bd f2b8 f0bc a3e4 073c
00000110: 8072 d63c 8794 973b 79b2 f83b 0541 5a3d
00000120: 056c de3d db98 35bd 870e 8ebd c347 2fbd
00000130: ffd5 a83d e558 18be b73a 9f3d 0f2a ef3d
00000140: daca 793d 2d2e a33d 3511 753d c407 02bd
00000150: 8055 7dbd 2199 7e3c 734f ccbd 1e0d afba
00000160: f0db 083d e7ac 1e3d f7a2 2b3d ed02 e83d
00000170: 17a5 be3d 8603 c4ba 455a 6c3c ea68 803d
00000180: af17 adbd 805f 3e3e 2197 98bd 5c6c 023d
00000190: 9707 82bd 971c c4bb ba3c c3bc 2348 b4bd
000001a0: b100 ccbc 0d4d 023e 167b aa3d 1c8f 163e
000001b0: eb6f 4bbd 96bd 873d 6e54 43be 1395 a23c
000001c0: 83fd 10bd a552 4a3e 9a8a 1fbe 02af 233e
000001d0: 02ea 103e ad5b 863d 9f77 1b3e 7094 35bd
000001e0: aed7 bd3d 1126 5ebc d5fe 5dbd 2341 0f3e
000001f0: 80ba 03be b6ed 503e e3b4 b63d 7584 39bd
00000200: c81e 1bbc 40e7 273d 7b3c dd3d bd24 7b3d
00000210: d4ee 9bbd 6842 733d abb2 adbd eccd 4abc
00000220: 41e4 e33c e44f dabb 248a 4dbd bef7 a03c
00000230: ca84 ff3c 45e0 b2bd 38b4 2d3e a85b ddbd
00000240: ac42 13be c209 98bc 5fba 1b3e a899 a13c
00000250: 42d1 b5bd b2fb febd 8ebc 18bc b6bb d43d
00000260: c53f 1c3d 1580 bcbc bea6 203d d299 783c
00000270: b201 033c 2d2e 59bd 765b 28bd 88af a13c
00000280: 91c2 7f3c 2e2e 7bbd ebed 14be f2cf f43c
00000290: a710 0c3d 90f9 31bd 2ae2 b83d b4eb a03a
000002a0: 0021 ae3d 9fd8 a9bc f9eb 8b3d 0618 c63b
000002b0: 3327 973d cc21 44bc 77a0 a13d a1e0 0abe
000002c0: f06b 6f3d 22c3 b03d dc2e e93c 0f9b 523d
000002d0: fc86 d7bd e0e0 69bd 264c 593d 8c97 853d
000002e0: 4a16 063d 470a a9bd a8df 0dbd c944 b03c
000002f0: 0faf 733d 8768 3f3e db6e bd3a 880e 9e3d
00000300: 2eb0 1ebe ce0f 70be 52d6 1c3d 36a8 2a3d
00000310: 2624 043e f4db f2bd ea04 ff3d e413 88bd
00000320: bd78 82be 6f21 0c3e e24d 3bbd 2d76 2a3d
00000330: 84a9 ef3d a050 b1bd bd39 563d d4f0 e9bc
00000340: 7234 a8bb 688e 873d 41da 51bd d50f 60bd
00000350: b0dc a0bd 3bb6 36bd 3983 c2bd d710 81bc
00000360: 3b6c 073e c9f6 e1bc fd05 093c 7373 5bbd
00000370: 7da7 2cbc d667 b3bc da70 7a3d b362 93bb
00000380: c832 8f3c f22d f2bd a886 51bd 03e2 c43c
00000390: a16a 303b f89b 60bd 5a89 4abb 002c 12bd
000003a0: fede 5fbd 48dd 0dbc 7706 25be f5cd 233e
000003b0: 8c9e 16be 91bd 34bd 97eb bebd f21a 48bd
000003c0: 8034 3fbc da21 c33c b4f9 c0bd 29c2 ae3d
000003d0: 8494 a93c d3b1 1d3e 0a05 0ebe ec4c 7fbd
000003e0: fe4d 89bd 0d4a a3bd 2773 ae3c 0154 eabd
000003f0: 1231 f2bd 700e ec3d aa7f 163d 6f77 41bd
0.035695136 -0.024161527 -0.0934287 0.10492434 -0.028205272 -0.19681221 0.07909648 0.0928067
-0.005997041 0.02034236 0.029273588 0.051309794 0.023036527 0.039994247 0.059201658 0.031400155
-0.08333066 -0.10457325 -0.095905386 -0.037569404 0.067988396 -0.04643849 -0.104962386 -0.03534785
0.12997696 -0.054698262 0.054447554 -0.1165585 0.09768975 -0.07075857 0.1602311 0.060416035
0.004543369 0.007935502 0.09134397 -0.23059891 0.028181192 -0.124864385 0.03917228 -0.0010766588
-0.034597065 0.067398086 0.22650819 -0.1090058 0.03777052 -0.029362634 0.09349786 0.002860414
-0.06772242 0.026661875 -0.05221774 0.14757258 0.043512236 0.09643387 0.062628254 -0.04236044
-0.089408614 0.060291097 -0.008205757 -0.21912621 -0.09411675 0.013935719 0.024200374 -0.049987394
-0.120860115 -0.032289226 -0.029385064 0.008294257 0.026177645 0.00462586 0.007589635 0.053284664
0.10860447 -0.044335227 -0.069363646 -0.042793047 0.082439415 -0.1487766 0.07774871 0.11677944
0.06098447 0.07967792 0.059830863 -0.031745687 -0.061849117 0.015539438 -0.09976091 -0.001335535
0.033412874 0.03873911 0.041903462 0.11328683 0.09308832 -0.0014954663 0.014425819 0.06270011
-0.08451783 0.18591118 -0.074507006 0.03184162 -0.06349104 -0.0059848535 -0.023832668 -0.088028215
-0.024902673 0.12724705 0.08324258 0.1470303 -0.04966728 0.066279575 -0.19075176 0.019846475
-0.035398018 0.19758089 -0.15580216 0.15984729 0.14151767 0.065604545 0.1518235 -0.044331014
0.09269653 -0.01355888 -0.054198105 0.13989691 -0.12864113 0.2040318 0.0892122 -0.045292336
-0.009467788 0.04099202 0.10802551 0.061314333 -0.07613912 0.0593895 -0.08481344 -0.012378197
0.0278188 -0.0066623557 -0.05018057 0.019649383 0.031191248 -0.08734182 0.16963279 -0.10808498
-0.14380902 -0.01855934 0.15207814 0.01972659 -0.088778034 -0.12450351 -0.009322299 0.103873655
0.038146753 -0.023010293 0.039221518 0.015173392 0.00799601 -0.053022552 -0.04110285 0.01973702
0.015610353 -0.061323337 -0.14543884 0.029884312 0.03419557 -0.043450892 0.09027512 0.0012277276
0.08502388 -0.020733176 0.068321176 0.0060453443 0.073805235 -0.011970948 0.07891934 -0.13562252
0.058452547 0.08630969 0.028464727 0.051417407 -0.10523793 -0.057099223 0.053051136 0.06523046
0.0327361 -0.082539134 -0.034637123 0.021517174 0.05949312 0.18692218 0.0014452593 0.07717615
-0.15496895 -0.23443529 0.03829033 0.041664325 0.12904415 -0.11858359 0.12452109 -0.06644419
-0.2548274 0.13684629 -0.04572857 0.041616607 0.117022544 -0.08657956 0.052301157 -0.028557219
-0.005133205 0.06618959 -0.051233534 -0.0547026 -0.07854593 -0.044607382 -0.09497685 -0.0157551
0.1322488 -0.027583497 0.008363244 -0.053576898 -0.010537979 -0.021900099 0.06114278 -0.00449785
0.01748027 -0.118251696 -0.05115381 0.024033552 0.0026919025 -0.054836243 -0.0030904622 -0.035686493
-0.05465602 -0.008658715 -0.16115747 0.15996535 -0.14708918 -0.044126097 -0.09322279 -0.048853822
-0.011670232 0.023819853 -0.09422627 0.08533127 0.0207007 0.15399866 -0.1386911 -0.062329218
-0.06704329 -0.079731084 0.021295143 -0.11441804 -0.11825766 0.11526191 0.036742844 -0.04723304

network_body._body_endoder.seq_layers.2.bias f4 [128]
00000000: 0000 0000 0000 0000 0000 0000 0000 0000
00000010: 0000 0000 0000 0000 0000 0000 0000 0000
00000020: 0000 0000 0000 0000 0000 0000 0000 0000
00000030: 0000 0000 0000 0000 0000 0000 0000 0000
00000040: 0000 0000 0000 0000 0000 0000 0000 0000
00000050: 0000 0000 0000 0000 0000 0000 0000 0000
00000060: 0000 0000 0000 0000 0000 0000 0000 0000
00000070: 0000 0000 0000 0000 0000 0000 0000 0000
00000080: 0000 0000 0000 0000 0000 0000 0000 0000
00000090: 0000 0000 0000 0000 0000 0000 0000 0000
000000a0: 0000 0000 0000 0000 0000 0000 0000 0000
000000b0: 0000 0000 0000 0000 0000 0000 0000 0000
000000c0: 0000 0000 0000 0000 0000 0000 0000 0000
000000d0: 0000 0000 0000 0000 0000 0000 0000 0000
000000e0: 0000 0000 0000 0000 0000 0000 0000 0000
000000f0: 0000 0000 0000 0000 0000 0000 0000 0000
00000100: 0000 0000 0000 0000 0000 0000 0000 0000
00000110: 0000 0000 0000 0000 0000 0000 0000 0000
00000120: 0000 0000 0000 0000 0000 0000 0000 0000
00000130: 0000 0000 0000 0000 0000 0000 0000 0000
00000140: 0000 0000 0000 0000 0000 0000 0000 0000
00000150: 0000 0000 0000 0000 0000 0000 0000 0000
00000160: 0000 0000 0000 0000 0000 0000 0000 0000
00000170: 0000 0000 0000 0000 0000 0000 0000 0000
00000180: 0000 0000 0000 0000 0000 0000 0000 0000
00000190: 0000 0000 0000 0000 0000 0000 0000 0000
000001a0: 0000 0000 0000 0000 0000 0000 0000 0000
000001b0: 0000 0000 0000 0000 0000 0000 0000 0000
000001c0: 0000 0000 0000 0000 0000 0000 0000 0000
000001d0: 0000 0000 0000 0000 0000 0000 0000 0000
000001e0: 0000 0000 0000 0000 0000 0000 0000 0000
000001f0: 0000 0000 0000 0000 0000 0000 0000 0000
0.0 0.0 0.0 0.0 0.0 0.0 0.0 0.0
0.0 0.0 0.0 0.0 0.0 0.0 0.0 0.0
0.0 0.0 0.0 0.0 0.0 0.0 0.0 0.0
0.0 0.0 0.0 0.0 0.0 0.0 0.0 0.0
0.0 0.0 0.0 0.0 0.0 0.0 0.0 0.0
0.0 0.0 0.0 0.0 0.0 0.0 0.0 0.0
0.0 0.0 0.0 0.0 0.0 0.0 0.0 0.0
0.0 0.0 0.0 0.0 0.0 0.0 0.0 0.0
0.0 0.0 0.0 0.0 0.0 0.0 0.0 0.0
0.0 0.0 0.0 0.0 0.0 0.0 0.0 0.0
0.0 0.0 0.0 0.0 0.0 0.0 0.0 0.0
0.0 0.0 0.0 0.0 0.0 0.0 0.0 0.0
0.0 0.0 0.0 0.0 0.0 0.0 0.0 0.0
0.0 0.0 0.0 0.0 0.0 0.0 0.0 0.0
0.0 0.0 0.0 0.0 0.0 0.0 0.0 0.0
0.0 0.0 0.0 0.0 0.0 0.0 0.0 0.0

action_model._discrete_distribution.branches.0.weight f4 [5, 128]
00000000: 131e ea3b bbb5 daba c0f9 5dbb f7ec 393c
00000010: df79 cd3a a7c9 863b 1de0 04bb 8f97 60bc
00000020: 3f5d c7ba f306 763a 1d69 cdba 8f8c 0dbb
00000030: 2b4f a73b 7392 ebbb 1b83 513b a3b5 f8bb
00000040: 45aa 96b9 5a19 61bb f256 ca3c dfd6 a5ba
00000050: 3154 c3bb 0582 02bc 4efd be39 5f6a 82bc
00000060: 990e 3b3c 8332 8ebc 8efd 1cbc c384 4d3c
00000070: 68ab 52bb b6a2 113c 3f5f df3c 5b9c 853c
00000080: 308a d0bb 4761 d8bb 6b11 ebbb 033d 3b3b
00000090: 0811 54bc 0574 5d3b 5358 253c 5c46 16bc
000000a0: 46b8 883a 8a68 643b fe91 ac39 072a 043c
000000b0: 1399 c3bb bf39 793c 8b62 70ba f3c8 abbb
000000c0: 0da4 7b3c a08c 403c fadd 50bc 1eb1 2fbc
000000d0: cdc0 05bc 5bb1 0d3c aaeb 3cbc 4736 6d3b
000000e0: 7752 923c 07d3 473c 8083 f8bb 8aac 86bc
000000f0: ed59 a53b 9d97 a03c 5330 32bc 577f 6cbb
00000100: b8af 52bc e16f 2fba 9b92 e9bb 06a4 ba3a
00000110: d735 3abb 7ef0 293c 6784 dd3b 6fd8 b03b
00000120: e39d 07bc 8e93 27bc 2da4 1b3c 17ab ca3b
00000130: 8839 fdbb 8daf d43a 80d3 1f3b 948a 033b
00000140: 98ca f3ba 2040 52bc a3d3 deba 50cb 913b
00000150: 48fd 16bc d703 fab9 7233 86bc 1f20 3f3c
00000160: dc64 8f3b a2c1 8fbc 7b77 d53b 4bec ec3b
00000170: 2f36 fc3b 1935 94bb 6792 bcbb 0716 663c
00000180: efa7 e53b 1d90 aa3b 934a 86b9 3c40 91bb
00000190: 1ed2 203c a52f f3bb dbac 383b cc34 c7bb
000001a0: 6d0e cf3b 0f79 43bc 2c90 a4ba e9d5 35bc
000001b0: ff89 193a f7e0 823a a062 6bbc b762 8a3b
000001c0: 17f0 1e3c 3f91 603b 680c 5abc 18da 493a
000001d0: f564 ee3b 3d55 7b3c bf36 dc3c eb9b 11bb
000001e0: b254 18bc 7d1b cb38 9206 77ba d401 0d3b
000001f0: c36a 203c 27e4 8bbb 7aca a0bc 175e 8f3b
00000200: dbff 03bc 6aa8 d0bb cddb fd3b bb21 cc3a
00000210: 73cf 0c3b 5847 7fbb 59ec aebb d6d6 1c3b
00000220: 7d6f 033c a36f aebb f041 6b3a 5f3b f3ba
00000230: dbd1 2d3c 2769 91bc d31e 3f3a 7280 55bb
00000240: 6f0d 903b 6001 d0ba 1c49 9f3a 9e33 2dbc
00000250: 10f4 c0bb 7d06 84bb 6a8a 6b3b d181 a33c
00000260: ed0e afbb 936d 5c3c 2e0c 0e3c 1007 133a
00000270: 1825 4dbb a8cc bd3b f27c b1bb fbb9 413b
00000280: 0b4d 3bbc 3904 83bb fb73 bcbb e127 1ebc
00000290: 9cf5 80bc 5f29 82bc 1f54 963b db0c af3b
000002a0: 6729 1c3c aea7 b43b 431a fa3b e502 0c3c
000002b0: 6b0c 48bc 5081 63bc 9a1e 2b3c 159e 583b
000002c0: 7f09 2f3b bf62 bdbb eb58 29bc 7ca5 3fbc
000002d0: b9af b8bb 27f2 a83a e190 b93c eb02 ee3b
000002e0: 38f4 cf3b ef14 173b 0f18 8a3b a697 ccb7
000002f0: 592b 443b 88a8 d6ba ea4f b9bb 544f c4ba
00000300: 9b64 f0b7 d90d 153a 25fe 10bc 6fe4 6b3c
00000310: 8808 60bc 777b 57bc d86f 8e39 4e61 383a
00000320: 71b7 9a39 15f8 58bb f8a8 443b ebc2 dfbb
00000330: bd63 03bb 4bce babb 13b8 703b 2ccf 163c
00000340: ed91 233c 44b3 adbc 4a09 283c 45e8 81bb
00000350: c2de 91bc 78f3 7cbc 7189 a83b d882 5f3b
00000360: 7ba1 263c bf85 b9bb 44ec a4bb 9215 36bb
00000370: 578e 573c e0c0 ac3b 6a1a 5a3c b5da 4d3c
00000380: 5034 dabb d234 5fba b8b4 3fbc 7f3f 9eba
00000390: 031c 2cbc f713 983b 3c1d 233c 3680 363a
000003a0: 7208 783c 4e7c a23b e5d1 483c 9ebe 8fbb
000003b0: ea69 19bc dadf 7c3b c0f4 9c3b ebd2 03bc
000003c0: 468c 2e3c e309 973b 814a 13bc 4d30 883c
000003d0: 2751 943b 218c 0bbc b501 e6bb b68d 27bb
000003e0: 23aa aabb eff6 4a3b 5ddc cfbc 0bbf 8bbb
000003f0: d8b2 2b3b 0c51 ab3a 1041 e13b f720 b73b
0.0071446984 -0.001668624 -0.0033870786 0.011348001 0.0015676579 0.0041133943 -0.0020275183 -0.013708009
-0.0015210285 0.0009385191 -0.0015671585 -0.0021598672 0.005105873 -0.007189089 0.0031969014 -0.007590012
-0.0002873709 -0.0034347386 0.024699662 -0.0012652538 -0.005960964 -0.007965569 0.0003642835 -0.015919862
0.011417055 -0.01735807 -0.0095819365 0.01254386 -0.0032145623 0.008888891 0.027267097 0.016309908
-0.0063641295 -0.0066033932 -0.0071737072 0.0028570301 -0.012943514 0.0033791077 0.010091859 -0.009172048
0.0010430894 0.003485235 0.0003291517 0.008066661 -0.0059691756 0.015211522 -0.00091699575 -0.005242461
0.015358937 0.011752278 -0.012748236 -0.01072338 -0.008163643 0.008648242 -0.011530796 0.0036195682
0.017861588 0.012196309 -0.0075840354 -0.016439695 0.0050461204 0.019603545 -0.010875779 -0.0036086643
-0.012859277 -0.00066923915 -0.0071280724 0.0014239557 -0.0028413439 0.010372279 0.0067601684 0.0053968946
-0.008277389 -0.010228051 0.009499592 0.0061849463 -0.0077278055 0.0016226635 0.0024387538 0.0020071613
-0.0018599806 -0.012832671 -0.0017000329 0.0044492856 -0.00921566 -0.00047686577 -0.016381953 0.011665373
0.004376037 -0.017548386 0.0065144873 0.0072303168 0.007696889 -0.0045229313 -0.005754757 0.014043338
0.0070085446 0.005205168 -0.00025614034 -0.004432706 0.009815721 -0.007421451 0.0028179202 -0.006079292
0.0063188584 -0.011930718 -0.0012555174 -0.011098363 0.000585705 0.0009985258 -0.014366776 0.0042231935
0.009700797 0.003426626 -0.013308622 0.000770004 0.0072752186 0.015340147 0.026881574 -0.0022218178
-0.009297537 9.6849144e-05 -0.00094232813 0.0021515982 0.009791079 -0.0042691412 -0.019627798 0.00437523
-0.008056606 -0.006367733 0.0077471496 0.0015574017 0.0021485954 -0.0038952436 -0.0053382334 0.0023931763
0.008022186 -0.0053233667 0.0008974364 -0.0018557123 0.0106091155 -0.017750336 0.0007290665 -0.003257778
0.0043961327 -0.001586955 0.0012152526 -0.0105713885 -0.0058884695 -0.004029094 0.0035940656 0.019959362
-0.0053423555 0.013453859 0.008669896 0.00056086574 -0.0031302627 0.005792219 -0.005416506 0.0029560316
-0.011431943 -0.003998306 -0.0057511306 -0.009653063 -0.015742116 -0.015888868 0.0045876647 0.0053421087
0.009531355 0.005513153 0.007632525 0.008545612 -0.012209992 -0.013885811 0.010444308 0.0033053209
0.002670854 -0.0057795937 -0.010336141 -0.011697169 -0.005636182 0.001288955 0.022652091 0.0072635314
0.006346252 0.002305325 0.004214294 -2.4389312e-05 0.0029933064 -0.001637713 -0.0056552785 -0.0014977255
-2.8657078e-05 0.00056859624 -0.008849655 0.0143977245 -0.013673909 -0.013151995 0.0002716768 0.00070335425
0.00029509843 -0.0033106853 0.003000794 -0.006828656 -0.0020048462 -0.0057008616 0.003673081 0.009204667
0.009983522 -0.021203645 0.010256121 -0.0039644563 -0.017806415 -0.015438907 0.0051433374 0.0034105089
0.010170336 -0.0056616957 -0.005033048 -0.0027783853 0.013156495 0.005272016 0.013311962 0.012564351
-0.006659068 -0.0008514646 -0.011700802 -0.0012073367 -0.010504725 0.004641052 0.0099557005 0.0006961854
0.015138732 0.004958666 0.012257074 -0.004386737 -0.009363631 0.0038585574 0.0047899187 -0.008045892
0.010653561 0.004609333 -0.008989931 0.016624594 0.0045262757 -0.008517296 -0.0070192465 -0.0025566644
-0.00520827 0.0030969938 -0.025373632 -0.0042647175 0.0026199128 0.0013070418 0.006874211 0.0055886465

action_model._discrete_distribution.branches.0.bias f4 [5]
00000000: 0000 0000 0000 0000 0000 0000 0000 0000
00000010: 0000 0000
0.0 0.0 0.0 0.0 0.0

network_body._body_endoder.seq_layers.0.weight f4 [128, 1]
00000000: 590f c6bf ad79 813f 5a1a 23bf 3d4e bc3d
00000010: a87e 14c0 b04b 3fbf cd2c 6dbf cc50 9dbf
00000020: 7288 02bf 722a 42be 6e07 b2bf 4799 96be
00000030: 7def 82be 33f0 223f e514 2ebf 26e3 663d
00000040: c0eb f4be 8321 e83f 0f8e 023f 62bc 5dbd
00000050: bdff 943f bf3f 2f3f cf81 88bf 9cd9 6a3e
00000060: 56aa c73e 8eeb ac3f 343d 4c3d 1813 ba3d
00000070: 28b8 3bbf 903d 013f 0ad5 9a3f 903f 8ebe
00000080: a62d 5b3f f36d cfbe 3470 b3bf df98 21bf
00000090: 984d a13f 5b49 41bf dca5 083f c6b6 8cbe
000000a0: 8066 b5be 4071 a3bf 0918 2840 c631 4bbe
000000b0: 024f 663f 424f 20bf dfa6 b13f a127 a6bf
000000c0: d699 8a3f 149c b3bd d650 ebbd d066 31bf
000000d0: ba1e 483e e3f2 e1be a662 853e 9f18 99bd
000000e0: 447b 82be 52b1 3f3f c4aa 103f 4281 953e
000000f0: 6c44 efbd e534 0ec0 da51 9d3f 3692 c6bf
00000100: f589 13bf c8ac 9cbe a63b 9d3f cf7c 64bf
00000110: 24ad c0be 9b5d 83bf 2ffb 4bbf f53d b0be
00000120: 1710 9a3e 92e8 a03e ce73 8d3e 1596 6e3f
00000130: 2240 1fbf 66f4 96bf 7ca0 b9be f23f 04bf
00000140: 2dad 2d3f 2cf5 01bf 3662 95bf 015c c83e
00000150: d272 b53f f1b7 3d3f 11b4 c6be fc2a b83f
00000160: 01b0 05c0 161a 9a3f ad19 353f 7518 e83e
00000170: f61b cbbe 696b 04c0 0017 853f 2cd0 d7bf
00000180: 39d5 bcbe b83b babf f6f5 c0bf e746 923f
00000190: 70ca d7be 6df8 32bf 39b1 35bf cbfe 66bf
000001a0: a723 99bf 1a06 213f d877 82bf f688 0040
000001b0: 0c7d b4be d869 47bf 9963 04bf fec8 acbf
000001c0: 7243 a5bf 99e6 09bf 15c4 fe3e c34f 59bf
000001d0: 8f10 7ebf 0369 f7be e365 26c0 1508 09bd
000001e0: cd1a c6be 875b 7abf 2e15 b8be 22fb 383f
000001f0: e1dc e33f 42d2 51bf d8ae b3bf c526 1d3f
-1.5473434 1.0115258 -0.63712084 0.0919461 -2.3202305 -0.74724865 -0.92646486 -1.2290282
-0.5098945 -0.18961504 -1.3908517 -0.29413816 -0.2557334 0.63647765 -0.6800063 0.05636897
-0.47836113 1.8135227 0.50998014 -0.054134734 1.1640545 0.68456644 -1.0664614 0.22934574
0.38997144 1.3509386 0.049863055 0.09085673 -0.73327875 0.5048456 1.2096264 -0.2778287
0.8561653 -0.40513572 -1.4018617 -0.6312389 1.2601805 -0.75502557 0.5337808 -0.27483195
-0.35429764 -1.2768936 2.626467 -0.19843206 0.89964306 -0.6262094 1.387905 -1.2980844
1.0828197 -0.08770004 -0.114900276 -0.69297504 0.19542971 -0.4413062 0.26051825 -0.07475399
-0.2548467 0.74879944 0.5651057 0.29200178 -0.11682972 -2.2219784 1.2290604 -1.551337
-0.5763238 -0.30600572 1.2283828 -0.8925294 -0.37632096 -1.0262941 -0.7968015 -0.3442227
0.300904 0.31427437 0.27627414 0.93197757 -0.62207234 -1.1793334 -0.36255252 -0.5166007
0.6784237 -0.5076473 -1.1670597 0.39132693 1.4175665 0.741088 -0.38809255 1.4388118
-2.0888674 1.2039211 0.70742303 0.4533116 -0.3966977 -2.0690558 1.0397644 -1.6860404
-0.36881426 -1.4549475 -1.5075061 1.1427888 -0.42146635 -0.6991032 -0.70973545 -0.90232533
-1.1964005 0.62899935 -1.0192823 2.0083594 -0.35251653 -0.7789588 -0.51714474 -1.3498838
-1.2911208 -0.5386749 0.49758974 -0.8488733 -0.99244016 -0.48322305 -2.5999687 -0.033454973
-0.38692322 -0.9779591 -0.3595366 0.722582 1.7801782 -0.8196145 -1.4037733 0.6138728

network_body._body_endoder.seq_layers.0.bias f4 [128]
00000000: 0000 0000 0000 0000 0000 0000 0000 0000
00000010: 0000 0000 0000 0000 0000 0000 0000 0000
00000020: 0000 0000 0000 0000 0000 0000 0000 0000
00000030: 0000 0000 0000 0000 0000 0000 0000 0000
00000040: 0000 0000 0000 0000 0000 0000 0000 0000
00000050: 0000 0000 0000 0000 0000 0000 0000 0000
00000060: 0000 0000 0000 0000 0000 0000 0000 0000
00000070: 0000 0000 0000 0000 0000 0000 0000 0000
00000080: 0000 0000 0000 0000 0000 0000 0000 0000
00000090: 0000 0000 0000 0000 0000 0000 0000 0000
000000a0: 0000 0000 0000 0000 0000 0000 0000 0000
000000b0: 0000 0000 0000 0000 0000 0000 0000 0000
000000c0: 0000 0000 0000 0000 0000 0000 0000 0000
000000d0: 0000 0000 0000 0000 0000 0000 0000 0000
000000e0: 0000 0000 0000 0000 0000 0000 0000 0000
000000f0: 0000 0000 0000 0000 0000 0000 0000 0000
00000100: 0000 0000 0000 0000 0000 0000 0000 0000
00000110: 0000 0000 0000 0000 0000 0000 0000 0000
00000120: 0000 0000 0000 0000 0000 0000 0000 0000
00000130: 0000 0000 0000 0000 0000 0000 0000 0000
00000140: 0000 0000 0000 0000 0000 0000 0000 0000
00000150: 0000 0000 0000 0000 0000 0000 0000 0000
00000160: 0000 0000 0000 0000 0000 0000 0000 0000
00000170: 0000 0000 0000 0000 0000 0000 0000 0000
00000180: 0000 0000 0000 0000 0000 0000 0000 0000
00000190: 0000 0000 0000 0000 0000 0000 0000 0000
000001a0: 0000 0000 0000 0000 0000 0000 0000 0000
000001b0: 0000 0000 0000 0000 0000 0000 0000 0000
000001c0: 0000 0000 0000 0000 0000 0000 0000 0000
000001d0: 0000 0000 0000 0000 0000 0000 0000 0000
000001e0: 0000 0000 0000 0000 0000 0000 0000 0000
000001f0: 0000 0000 0000 0000 0000 0000 0000 0000
0.0 0.0 0.0 0.0 0.0 0.0 0.0 0.0
0.0 0.0 0.0 0.0 0.0 0.0 0.0 0.0
0.0 0.0 0.0 0.0 0.0 0.0 0.0 0.0
0.0 0.0 0.0 0.0 0.0 0.0 0.0 0.0
0.0 0.0 0.0 0.0 0.0 0.0 0.0 0.0
0.0 0.0 0.0 0.0 0.0 0.0 0.0 0.0
0.0 0.0 0.0 0.0 0.0 0.0 0.0 0.0
0.0 0.0 0.0 0.0 0.0 0.0 0.0 0.0
0.0 0.0 0.0 0.0 0.0 0.0 0.0 0.0
0.0 0.0 0.0 0.0 0.0 0.0 0.0 0.0
0.0 0.0 0.0 0.0 0.0 0.0 0.0 0.0
0.0 0.0 0.0 0.0 0.0 0.0 0.0 0.0
0.0 0.0 0.0 0.0 0.0 0.0 0.0 0.0
0.0 0.0 0.0 0.0 0.0 0.0 0.0 0.0
0.0 0.0 0.0 0.0 0.0 0.0 0.0 0.0
0.0 0.0 0.0 0.0 0.0 0.0 0.0 0.0

network_body._body_endoder.seq_layers.2.weight f4 [128, 128]
00000000: ccce 8fbd 3bb9 9bbd dd49 b0bd 4f72 67bd
00000010: 96e8 ed3d 15be 7e3d 7a87 4cbd 6a48 d0bd
00000020: a1c5 dab9 fc59 ed3d d699 cd3d 9171 b23d
00000030: c5b9 24be aa31 01bd b688 fa3d eb9c b03d
00000040: a071 90ba 04c2 fabd a9a6 82bc 9c4e 633d
00000050: 16a2 73bd b985 263e efb4 c0bb 5321 0b3e
00000060: 7d56 833c b943 0b3e b805 713a 954d 0c3d
00000070: edb0 82bd 45c4 5cbd 2f67 2e3d 5532 b53c
00000080: 14c1 08be 5e18 ba3d ca65 323d 06dc 1ebe
00000090: 4f10 f7bd 6dbf 463d 87ea b5bd ccb9 273d
000000a0: a714 ba3d cd0c 523c 6740 1e3c 86e8 eabc
000000b0: 3ea2 39be 8623 06be 03c1 c63d 6beb b4bd
000000c0: c54a 013e 318a 073e 4141 09bd ff73 49bd
000000d0: dd49 0dba bc78 55bd 481d 52bc 30d1 4fbd
000000e0: 1c06 803d df60 c8bd e1ab 513c 1b52 a1bb
000000f0: e849 6fbe a7e5 b23d 1b98 8abc ac8d d5bd
00000100: 3be6 fd3d 90d7 8f3d f0df 85bc bc28 36bd
00000110: 9594 b6bc 00b9 71bd cf0b c83c 4d97 09bd
00000120: c4bb a2bd 26e5 893d fca6 88bd 1135 c63d
00000130: a212 3a3c 5716 46be 81c3 5abd 8e72 1a3d
00000140: 2f1a a5bd c59b 3ebd 246d f23d f30d 34bd
00000150: dab3 0a3c 07e8 a2bd 927f 303e c4c9 5abe
00000160: 970d d9bb ce12 493d a242 8c3d ddbc 9d3b
00000170: 0054 83bc 1c1a d03b e46e 293e 69bd af3d
00000180: ac5f 523d 9618 3bbd 66e7 54bd b4f6 503d
00000190: 85fd 75bc d9b6 00be e225 fe3a cb13 39bd
000001a0: 6333 09bd 3eb4 8abd ee97 d1bc de4a e2bc
000001b0: 2163 853d 809c 93bc 89a9 08bd ab80 263e
000001c0: e19a 3abe 4ee3 99bd 6dd6 d33c 8120 5b3d
000001d0: 3c02 fb3c e013 98bc 35b7 01bd d025 e1bd
000001e0: b4f8 a0bd b1ac 7f3d 5ea5 31bd 5784 3cbe
000001f0: 00f4 983d 596a 83bd f144 49bc 3855 8c3c
00000200: 39b7 23be 7ac2 34be f8c6 4dbd 3508 b03d
00000210: eed5 7fbc bfff e5bc d82f a7bd 8353 0fbd
00000220: 51cb 4a3c 3979 263d 2313 debd 87ab a33b
00000230: d3f7 39bc bd57 7a3d b9fe 033e b91d e23c
00000240: d2b8 633d 6068 103e f803 62bd fcd1 3abd
00000250: bff1 533e 2ab8 84bd 67e2 e53d ab91 593d
00000260: c7c8 c9bb a404 b83c 7191 003e 42fe 48bc
00000270: e42f fdba dc36 94bd 63bd 463d 343c e4bc
00000280: 9ddb 51bd 5c34 34bd 121f 4cbd e9e2 9f3d
00000290: 2245 f53b 1fb6 ee3b ad3d 3dbd 91ad b93c
000002a0: c8d8 8cbd e72a 69be 3cb0 b93d c724 393d
000002b0: 294c eabd f4e8 5e3b 7515 8fbd aed2 323d
000002c0: 8fa4 b7bd 52ec 7abd ce1f 383d c012 82bd
000002d0: ecee d0bc e37c 503c 030d e53c 6a5b acbd
000002e0: b631 d9bd 8877 6dbc 64f3 bdbd 7c61 b53d
000002f0: 028d b4bb 1dfe 053e 88a6 e73d 0cbe fbbc
00000300: e9b6 bdbc a600 013d a14f 2ebe d89c 58be
00000310: 6f04 893d 8ae9 173d 59e0 0bbe e8fc ba3d
00000320: 763f 88bc 8516 3f3d 1254 7b3d 1451 e7bc
00000330: 6865 b03d f139 0dbe fe5c 0a3c 692d f7bd
00000340: 3ec7 e9bd 561b 6abd 7fad 8d3d fa81 253d
00000350: 81f4 5cbc d171 12bc 1614 8f3d cc98 84bc
00000360: 672b 8cbd 6efe d3bb e5de c23c ffad 58be
00000370: 29e7 93bc e963 083e 3dd9 9a3d 1df0 1fbe
00000380: 2f86 413c 2ef6 99bc 3bd4 f1bd 6a10 e43d
00000390: a669 2fbe d2ee 653d f7eb 033e 9b0c efbd
000003a0: fa32 8abd 6d7f 1dbd 41e5 9a3c 7566 cbbd
000003b0: 08cb c13d a2d9 a03c ff59 e63c 30e7 09be
000003c0: eb58 363e 4eaa b2bd 6160 c3bd ef04 663c
000003d0: 6039 1bbc 7c0a b03d 9bfa 1ebe 4b84 503e
000003e0: d768 183c 10c8 4abd 2ca0 2bbd fa3c 03bc
000003f0: b29d 3c3d 1270 143e 0bce abbd 3340 ff3b
-0.07021865 -0.07603689 -0.08607838 -0.056505498 0.11616628 0.062192995 -0.049933888 -0.10170062
-0.00041727445 0.11589429 0.100391075 0.08713067 -0.1608649 -0.031541504 0.12233107 0.0862368
-0.0011020191 -0.12244037 -0.01594861 0.05549489 -0.05948075 0.16261949 -0.005880944 0.13586931
0.016032452 0.13600053 0.00091942726 0.034253675 -0.06381402 -0.053898115 0.042578872 0.022118727
-0.13354903 0.09086679 0.043554105 -0.1551362 -0.120636575 0.0485224 -0.08882623 0.040948674
0.0908597 0.012820435 0.009658909 -0.028675329 -0.18128297 -0.13099489 0.09704783 -0.08833965
0.12626179 0.1323631 -0.033509497 -0.049182888 -0.00053897296 -0.052117094 -0.012824364 -0.050736606
0.06251165 -0.09784102 0.012797327 -0.004923118 -0.23368037 0.08735209 -0.016918233 -0.104274124
0.123974286 0.07023537 -0.016342133 -0.04447244 -0.022287646 -0.05901432 0.024419693 -0.033591557
-0.0794597 0.0673316 -0.06672475 0.0967809 0.0113569815 -0.1934446 -0.053409103 0.037706904
-0.08061635 -0.046535272 0.11837223 -0.043958616 0.0084657315 -0.07954412 0.17236164 -0.2136603
-0.0066239345 0.0490902 0.06848647 0.004813774 -0.016031265 0.0063507687 0.16546208 0.08581049
0.05136077 -0.045677744 -0.05197849 0.051016524 -0.015014057 -0.12569751 0.0019389952 -0.04518489
-0.03349627 -0.0677266 -0.025585141 -0.02762359 0.06513048 -0.018018961 -0.033364806 0.1626002
-0.18223144 -0.07514058 0.025859082 0.053497795 0.030640714 -0.018564165 -0.03166886 -0.1099354
-0.07859936 0.06242055 -0.043370597 -0.18409859 0.07468414 -0.064167686 -0.012284503 0.01713048
-0.15987863 -0.17652312 -0.05023858 0.08595315 -0.01561497 -0.02807605 -0.08163422 -0.034991752
0.012377576 0.04064295 -0.10843494 0.004994813 -0.01135059 0.06111883 0.12890138 0.027602063
0.05559618 0.14102316 -0.055179566 -0.045610413 0.20697688 -0.06480439 0.112248234 0.053117435
-0.0061579677 0.02246315 0.12555481 -0.012267651 -0.0019316641 -0.07237026 0.048520457 -0.027860738
-0.05123483 -0.043995246 -0.04983432 0.078069516 0.007485048 0.007284894 -0.046201397 0.02266577
-0.06877285 -0.22770272 0.09066817 0.04520109 -0.11440308 0.0034013363 -0.069865145 0.04365795
-0.08966934 -0.06126053 0.044952206 -0.063512325 -0.025504552 0.012725088 0.027960306 -0.08415873
-0.10605185 -0.0144938305 -0.09274939 0.08856484 -0.0055099735 0.13085218 0.1131106 -0.03073027
-0.023158507 0.03149476 -0.17022564 -0.21153581 0.06690299 0.037087955 -0.136598 0.09130269
-0.016631823 0.046652336 0.061359473 -0.028236903 0.08613092 -0.13791634 0.008445023 -0.12069208
-0.114149556 -0.057154976 0.069178574 0.04040716 -0.013486029 -0.008938269 0.06986253 -0.01618614
-0.06844216 -0.0064695394 0.023787925 -0.21160124 -0.018054562 0.13319363 0.07560966 -0.1561894
0.011811777 -0.018794145 -0.11808058 0.11135943 -0.17130145 0.05613596 0.12882982 -0.11672326
-0.06748004 -0.0384516 0.018908145 -0.099316515 0.09462553 0.019635025 0.028119085 -0.13467097
0.17807357 -0.08723889 -0.09539867 0.014039262 -0.0094741285 0.0859575 -0.15525286 0.20362966
0.0093023395 -0.0495072 -0.0419008 -0.008010143 0.046048827 0.14495876 -0.08388909 0.0077896356

network_body._body_endoder.seq_layers.2.bias f4 [128]
00000000: 0000 0000 0000 0000 0000 0000 0000 0000
00000010: 0000 0000 0000 0000 0000 0000 0000 0000
00000020: 0000 0000 0000 0000 0000 0000 0000 0000
00000030: 0000 0000 0000 0000 0000 0000 0000 0000
00000040: 0000 0000 0000 0000 0000 0000 0000 0000
00000050: 0000 0000 0000 0000 0000 0000 0000 0000
00000060: 0000 0000 0000 0000 0000 0000 0000 0000
00000070: 0000 0000 0000 0000 0000 0000 0000 0000
00000080: 0000 0000 0000 0000 0000 0000 0000 0000
00000090: 0000 0000 0000 0000 0000 0000 0000 0000
000000a0: 0000 0000 0000 0000 0000 0000 0000 0000
000000b0: 0000 0000 0000 0000 0000 0000 0000 0000
000000c0: 0000 0000 0000 0000 0000 0000 0000 0000
000000d0: 0000 0000 0000 0000 0000 0000 0000 0000
000000e0: 0000 0000 0000 0000 0000 0000 0000 0000
000000f0: 0000 0000 0000 0000 0000 0000 0000 0000
00000100: 0000 0000 0000 0000 0000 0000 0000 0000
00000110: 0000 0000 0000 0000 0000 0000 0000 0000
00000120: 0000 0000 0000 0000 0000 0000 0000 0000
00000130: 0000 0000 0000 0000 0000 0000 0000 0000
00000140: 0000 0000 0000 0000 0000 0000 0000 0000
00000150: 0000 0000 0000 0000 0000 0000 0000 0000
00000160: 0000 0000 0000 0000 0000 0000 0000 0000
00000170: 0000 0000 0000 0000 0000 0000 0000 0000
00000180: 0000 0000 0000 0000 0000 0000 0000 0000
00000190: 0000 0000 0000 0000 0000 0000 0000 0000
000001a0: 0000 0000 0000 0000 0000 0000 0000 0000
000001b0: 0000 0000 0000 0000 0000 0000 0000 0000
000001c0: 0000 0000 0000 0000 0000 0000 0000 0000
000001d0: 0000 0000 0000 0000 0000 0000 0000 0000
000001e0: 0000 0000 0000 0000 0000 0000 0000 0000
000001f0: 0000 0000 0000 0000 0000 0000 0000 0000
0.0 0.0 0.0 0.0 0.0 0.0 0.0 0.0
0.0 0.0 0.0 0.0 0.0 0.0 0.0 0.0
0.0 0.0 0.0 0.0 0.0 0.0 0.0 0.0
0.0 0.0 0.0 0.0 0.0 0.0 0.0 0.0
0.0 0.0 0.0 0.0 0.0 0.0 0.0 0.0
0.0 0.0 0.0 0.0 0.0 0.0 0.0 0.0
0.0 0.0 0.0 0.0 0.0 0.0 0.0 0.0
0.0 0.0 0.0 0.0 0.0 0.0 0.0 0.0
0.0 0.0 0.0 0.0 0.0 0.0 0.0 0.0
0.0 0.0 0.0 0.0 0.0 0.0 0.0 0.0
0.0 0.0 0.0 0.0 0.0 0.0 0.0 0.0
0.0 0.0 0.0 0.0 0.0 0.0 0.0 0.0
0.0 0.0 0.0 0.0 0.0 0.0 0.0 0.0
0.0 0.0 0.0 0.0 0.0 0.0 0.0 0.0
0.0 0.0 0.0 0.0 0.0 0.0 0.0 0.0
0.0 0.0 0.0 0.0 0.0 0.0 0.0 0.0

value_heads.value_heads.extrinsic.weight f4 [1, 128]
00000000: 76d4 593e fc84 7fbd 3904 24be 6cb7 8fbd
00000010: e6eb b4bd e231 9bbd 3495 42be e8dd f3bc
00000020: f001 3b3e 6dbe 57be 6065 2c3c 848d 0e3e
00000030: e403 953d ed75 21be da0c 413e 04dd eebd
00000040: f8af 433d fdb3 55be a031 fb3b d4e2 0e3e
00000050: d8f2 0a3e 48ee aa3c 68c5 e13c 083a 44be
00000060: c613 2dbe 28fb e83d c4d6 183e de54 1fbe
00000070: 4c20 0a3e 7843 c03d ac74 0a3e 9e59 273e
00000080: 968e 4abe f638 523e d2c4 a3bd 9c8d ee3d
00000090: f0b1 973c 00bf 5cba 808f fa3b 348d d73d
000000a0: d009 5a3e 60be 88bb 2ec1 3f3e cc56 a6bd
000000b0: fa79 1a3e 30c5 4b3d 68eb 2cbd 2844 25be
000000c0: 7903 2bbe 18d4 4d3d b04e 1cbd 44dd 203e
000000d0: 58c5 673d e548 41be 608e 433d 7099 babc
000000e0: 8098 263d 8626 aabd 602d 07bc b610 3c3e
000000f0: 961e f5bd 5ad5 5c3e c407 8f3d 60e3 2abd
00000100: 6fe7 40be f4b7 f63d f24a 293e 4a6d 583e
00000110: 5dd9 4cbe 00ed 8fbb 0c4a c53d c47e d73d
00000120: a450 123e 9387 23be b449 30be 44ee 9d3d
00000130: 209b acbb f8d6 4d3d 0cf9 8ebd 4e8f 4a3e
00000140: c848 403d 009e 323a b216 98bd 0811 5fbd
00000150: 10ba eebd 8079 5a3b cf50 cdbd 9e2d aabd
00000160: 7e75 1bbe e8b1 f33d 70bb dc3d 8007 1e3c
00000170: add9 42be 7ab2 1c3e 145d df3d 3079 da3c
00000180: 0b59 f3bd 106c 193c 9452 4a3e a0f3 e13d
00000190: f817 7e3d 6233 e5bd 6240 583e 441c 56bd
000001a0: f02c 9dbd 4635 5c3e f8bc b23d 5c65 34be
000001b0: 68e7 83bc 4a32 5cbe 3592 d3bd 50f1 bc3c
000001c0: 9419 04be a581 43be 1c15 33bd 50d8 013c
000001d0: d0bb 1ebd 6868 78bd 1a56 cebd 8879 293e
000001e0: ce13 30be 9a7c 3e3e d405 233e 1490 e03d
000001f0: 682b d7bd 88b0 a03c b0a2 9a3d 8c2c 92bd
0.21272454 -0.062382683 -0.16017236 -0.07017407 -0.088340566 -0.07577874 -0.19002229 -0.0297689
0.18262458 -0.21068735 0.010522217 0.13921171 0.07276133 -0.15767641 0.18852559 -0.11663249
0.04777524 -0.20869441 0.007665828 0.13953716 0.135692 0.020865574 0.027559951 -0.19162762
-0.16902074 0.11376029 0.14925677 -0.15559718 0.13488883 0.09387869 0.1352107 0.1634278
-0.19780955 0.20529541 -0.07996525 0.116481036 0.018517464 -0.0008420795 0.007646501 0.10524979
0.21292806 -0.004173085 0.18726036 -0.08122024 0.15085593 0.0497486 -0.04221669 -0.16139281
-0.16700543 0.050251096 -0.03816098 0.15709406 0.056584686 -0.18875463 0.0477432 -0.022778243
0.04067278 -0.08308129 -0.008250564 0.1836575 -0.119687244 0.21565762 0.06983903 -0.041720748
-0.18838285 0.12046805 0.16532496 0.2113544 -0.20004793 -0.0043922663 0.09633264 0.105222255
0.14288574 -0.15969686 -0.17215616 0.07711461 -0.005267516 0.05025384 -0.06981096 0.19781229
0.04694441 0.0006813705 -0.07426204 -0.0544596 -0.11656582 0.003333658 -0.10025179 -0.08309482
-0.15181538 0.11899167 0.10777938 0.009645343 -0.19028349 0.15302458 0.10906425 0.026669115
-0.11882218 0.009364143 0.19758064 0.11032796 0.062034577 -0.11191441 0.2111831 -0.05227305
-0.07674587 0.21504697 0.08727449 -0.1761679 -0.016101554 -0.21503559 -0.10330621 0.023064286
-0.12900382 -0.19092424 -0.043721303 0.007925108 -0.03875333 -0.060646445 -0.10075016 0.16550267
-0.17195055 0.18602219 0.15920192 0.10964981 -0.10506326 0.019615427 0.075505614 -0.07137403
