results/ppo/My Behavior/My Behavior-1209.onnx (onnx, 74329 bytes, 9 tensors)

network_body._body_endoder.seq_layers.0.weight f4 [128, 1]
0	0xbf2944ab	-0.66120404
1	0x3ed86064	0.4226104
2	0x3f999168	1.19975
3	0x3fadca75	1.357741
4	0x3e9d140d	0.3067936
5	0xbbb432e1	-0.0054992293
6	0xbcea7701	-0.028621199
7	0xbea4fdb1	-0.322248
8	0xbf2d7bbf	-0.67766947
9	0xbf0c21b6	-0.5473894
10	0x3f1da9d9	0.6158729
11	0x3f52ce84	0.8234637
12	0xbe9d846e	-0.30765098
13	0xbfb27a2a	-1.3943532
14	0xc00727ae	-2.1117969
15	0x3fddbd1b	1.7323335
16	0x3e6650d2	0.22491768
17	0x3f3b0ff9	0.7307125
18	0x3f39a596	0.7251829
19	0x3fd537c7	1.6657647
20	0xbfb43bdb	-1.4080766
21	0xbdbe3f89	-0.09289462
22	0x3c0ae220	0.008476764
23	0xbeec19c8	-0.4611342
24	0xbf9334a7	-1.1500443
25	0x3cb3d5c6	0.021952521
26	0xbf9a22bc	-1.204185
27	0xbe815395	-0.2525908
28	0xc00bc918	-2.1841488
29	0xbea95a09	-0.33076504
30	0x3e9b698a	0.30353957
31	0xbf83f388	-1.0308695
32	0xc03d1319	-2.9542906
33	0x3f19cb3d	0.6007574
34	0x3f478414	0.7793591
35	0xbfdc689e	-1.7219427
36	0xbee484e3	-0.44632635
37	0x3ee6c9b8	0.45075774
38	0x3f3b4cfb	0.7316434
39	0x401674b6	2.3508735
40	0x40136d31	2.3035395
41	0x3e9fddec	0.31224
42	0x3ec4d495	0.38443437
43	0x3f8db7dd	1.1071736
44	0xbee4870d	-0.44634286
45	0xbf9f379d	-1.2438847
46	0x3f060c7e	0.5236281
47	0xc01da90e	-2.4634433
48	0xbda1c1e0	-0.07898307
49	0xbf28e7d4	-0.6597874
50	0x3ecc475d	0.39898196
51	0x3fb35815	1.4011256
52	0xbf47c38a	-0.78032744
53	0xbef9bed9	-0.48778418
54	0xbe2e53a6	-0.17024097
55	0xbfaf4864	-1.3693967
56	0x3f1af9bf	0.6053733
57	0xbf9d7b36	-1.2303226
58	0xbfaf2fdb	-1.3686479
59	0xbf8a9e83	-1.0829624
60	0x3f83cbcf	1.0296572
61	0x3f39b823	0.72546595
62	0x3f810c9e	1.0081975
63	0x3f560db2	0.8361465
64	0x3efbae08	0.49156213
65	0xbf632019	-0.8872085
66	0xbf80b9b0	-1.0056667
67	0xbfcf01c3	-1.6172413
68	0xbffad226	-1.9595382
69	0x39ec0f87	0.00045024997
70	0x3eb69e28	0.3566754
71	0xbf9371ba	-1.1519082
72	0xbece562d	-0.40300122
73	0x3f154ae5	0.58317405
74	0xbdcacd38	-0.099024236
75	0x3f1ad063	0.6047422
76	0x400ad08e	2.1689792
77	0xbf7c0dd3	-0.98458594
78	0x3f4b1199	0.79323727
79	0x3db4cda8	0.08828288
80	0xbfd5685d	-1.6672474
81	0xbf50f3f5	-0.8162225
82	0x3fd0cec0	1.6313095
83	0xbe85bf5c	-0.26122558
84	0x40057160	2.0850449
85	0xbe04656a	-0.12929311
86	0x3efe0094	0.49609816
87	0xbefde53c	-0.49588954
88	0xbf904060	-1.1269646
89	0xbfd2b2a5	-1.6460768
90	0x3faf6af8	1.3704519
91	0x3f8bda71	1.0926038
92	0xbfa6783b	-1.3005441
93	0x3f0eefaf	0.5583448
94	0x3f0e5402	0.55596936
95	0x3e1c0b7e	0.15238759
96	0x3e8cd934	0.27509463
97	0x3f383d97	0.7196898
98	0xbf500938	-0.81264067
99	0xbd591ce9	-0.053006086
100	0x3f876a8a	1.0579388
101	0x3f8fedec	1.1244483
102	0xbefee3c7	-0.49783155
103	0x3f611196	0.8791746
104	0xbf93477a	-1.1506188
105	0xbf197911	-0.5995036
106	0x3f88df93	1.069323
107	0xbf71d9ce	-0.9447297
108	0x3f6079ff	0.8768615
109	0xbe9328bc	-0.28742015
110	0x3fc874a1	1.5660592
111	0x3cfb50b3	0.030678129
112	0x3f1ff77e	0.6248702
113	0x3f077960	0.5291958
114	0x3fdf1d03	1.7430729
115	0xbcef3b60	-0.029203117
116	0xbe58820b	-0.21143357
117	0xbf9d42de	-1.2286031
118	0xbe1d597c	-0.15366167
119	0x3f88a154	1.0674233
120	0xbe8765ad	-0.2644476
121	0x3ff532eb	1.9156164
122	0xbfd9b1cc	-1.7007384
123	0xbf4d5aa2	-0.8021642
124	0x3d95a40a	0.073066786
125	0xbf2920d0	-0.6606569
126	0x3e14f27a	0.14545622
127	0x3f293e11	0.6611033

network_body._body_endoder.seq_layers.0.bias f4 [128]
0	0x00000000	0.0
1	0x00000000	0.0
2	0x00000000	0.0
3	0x00000000	0.0
4	0x00000000	0.0
5	0x00000000	0.0
6	0x00000000	0.0
7	0x00000000	0.0
8	0x00000000	0.0
9	0x00000000	0.0
10	0x00000000	0.0
11	0x00000000	0.0
12	0x00000000	0.0
13	0x00000000	0.0
14	0x00000000	0.0
15	0x00000000	0.0
16	0x00000000	0.0
17	0x00000000	0.0
18	0x00000000	0.0
19	0x00000000	0.0
20	0x00000000	0.0
21	0x00000000	0.0
22	0x00000000	0.0
23	0x00000000	0.0
24	0x00000000	0.0
25	0x00000000	0.0
26	0x00000000	0.0
27	0x00000000	0.0
28	0x00000000	0.0
29	0x00000000	0.0
30	0x00000000	0.0
31	0x00000000	0.0
32	0x00000000	0.0
33	0x00000000	0.0
34	0x00000000	0.0
35	0x00000000	0.0
36	0x00000000	0.0
37	0x00000000	0.0
38	0x00000000	0.0
39	0x00000000	0.0
40	0x00000000	0.0
41	0x00000000	0.0
42	0x00000000	0.0
43	0x00000000	0.0
44	0x00000000	0.0
45	0x00000000	0.0
46	0x00000000	0.0
47	0x00000000	0.0
48	0x00000000	0.0
49	0x00000000	0.0
50	0x00000000	0.0
51	0x00000000	0.0
52	0x00000000	0.0
53	0x00000000	0.0
54	0x00000000	0.0
55	0x00000000	0.0
56	0x00000000	0.0
57	0x00000000	0.0
58	0x00000000	0.0
59	0x00000000	0.0
60	0x00000000	0.0
61	0x00000000	0.0
62	0x00000000	0.0
63	0x00000000	0.0
64	0x00000000	0.0
65	0x00000000	0.0
66	0x00000000	0.0
67	0x00000000	0.0
68	0x00000000	0.0
69	0x00000000	0.0
70	0x00000000	0.0
71	0x00000000	0.0
72	0x00000000	0.0
73	0x00000000	0.0
74	0x00000000	0.0
75	0x00000000	0.0
76	0x00000000	0.0
77	0x00000000	0.0
78	0x00000000	0.0
79	0x00000000	0.0
80	0x00000000	0.0
81	0x00000000	0.0
82	0x00000000	0.0
83	0x00000000	0.0
84	0x00000000	0.0
85	0x00000000	0.0
86	0x00000000	0.0
87	0x00000000	0.0
88	0x00000000	0.0
89	0x00000000	0.0
90	0x00000000	0.0
91	0x00000000	0.0
92	0x00000000	0.0
93	0x00000000	0.0
94	0x00000000	0.0
95	0x00000000	0.0
96	0x00000000	0.0
97	0x00000000	0.0
98	0x00000000	0.0
99	0x00000000	0.0
100	0x00000000	0.0
101	0x00000000	0.0
102	0x00000000	0.0
103	0x00000000	0.0
104	0x00000000	0.0
105	0x00000000	0.0
106	0x00000000	0.0
107	0x00000000	0.0
108	0x00000000	0.0
109	0x00000000	0.0
110	0x00000000	0.0
111	0x00000000	0.0
112	0x00000000	0.0
113	0x00000000	0.0
114	0x00000000	0.0
115	0x00000000	0.0
116	0x00000000	0.0
117	0x00000000	0.0
118	0x00000000	0.0
119	0x00000000	0.0
120	0x00000000	0.0
121	0x00000000	0.0
122	0x00000000	0.0
123	0x00000000	0.0
124	0x00000000	0.0
125	0x00000000	0.0
126	0x00000000	0.0
127	0x00000000	0.0

network_body._body_endoder.seq_layers.2.weight f4 [128, 128]
0	0xbda3f49d	-0.08005641
1	0x3cb9f047	0.022697581
2	0x3ba16bd5	0.0049261847
3	0x3da59278	0.08084577
4	0x3d2ddc0a	0.042446174
5	0x3de73f7e	0.11291407
6	0xbd022322	-0.031771787
7	0x3d54104e	0.05177336
8	0xbbd912e3	-0.006624566
9	0x3c4c9b56	0.012488207
10	0x3d94b985	0.072619475
11	0x3dc11911	0.09428609
12	0xbd9be0df	-0.0761125
13	0xbe20626f	-0.1566255
14	0x3ca13ab3	0.01968131
15	0x3d99d8b1	0.07512034
16	0xbdb9269d	-0.09040568
17	0x3d39fbfd	0.04540633
18	0x3dacc8a1	0.084367044
19	0x3d9b2005	0.075744666
20	0xbb80ea03	-0.0039341464
21	0xbdfab67e	-0.12241839
22	0xbcb46c95	-0.022024432
23	0x3e2fdbb8	0.1717366
24	0x3aa258be	0.0012386066
25	0x3d57162f	0.05251139
26	0x3cf0b9c6	0.029385459
27	0xbdc85084	-0.09780982
28	0xbda8266c	-0.082104534
29	0xbd3bf969	-0.045892153
30	0x3db89674	0.09013072
31	0x3cb1d554	0.021708168
32	0xbd0aff66	-0.033934973
33	0x3d947298	0.072484195
34	0x3e08efcd	0.13372727
35	0xbe05ab8d	-0.13053723
36	0xbd8840d7	-0.06652992
37	0xbbe45b8e	-0.006968922
38	0xbe1bb5bc	-0.15206045
39	0x3c115c33	0.00887208
40	0xbd84a776	-0.06477253
41	0xbe02981f	-0.12753342
42	0x3dfafd0f	0.12255298
43	0xbd8af9f1	-0.06785954
44	0xbd6bf94f	-0.057610806
45	0xbd9970ff	-0.074922554
46	0x3d2dfd5e	0.042477958
47	0x3d8a0430	0.0673908
48	0xbd9fca96	-0.07802312
49	0xbd3219be	-0.04348158
50	0xbc8fa8cb	-0.017536541
51	0x3d41db22	0.047328122
52	0x3d9ed951	0.077562936
53	0x3d39c336	0.045352183
54	0xbcfa6591	-0.030566009
55	0x3d43a351	0.047763173
56	0xbd58b87f	-0.052910324
57	0x3d92bb1e	0.07164596
58	0xbdb9a22c	-0.09064135
59	0xbb0be78a	-0.0021347725
60	0x3c22dda5	0.0099405395
61	0xbd16882d	-0.03675096
62	0xbca02304	-0.019547947
63	0xbd0022d2	-0.031283207
64	0x3e0dda5e	0.13852832
65	0x3d0319fa	0.032007195
66	0xbb83c950	-0.004021801
67	0xbdec5ddc	-0.1154134
68	0x3d11883f	0.035530325
69	0xbd34a56b	-0.044103067
70	0x3b82c3d7	0.003990631
71	0x3d01f4f6	0.031727754
72	0x3d1a8b5e	0.037730567
73	0xbd03f689	-0.032217536
74	0xbcf0b473	-0.02938292
75	0xbd0dbd49	-0.034604345
76	0xbdca70d8	-0.098848045
77	0x3dda2636	0.106518194
78	0x3dbfc5ad	0.093638755
79	0x3dcf1c6a	0.101128414
80	0x3ca1dcdf	0.01975864
81	0x3d29a953	0.041421246
82	0xbdb30618	-0.08741397
83	0x3d1c438f	0.038150366
84	0xbc3d5771	-0.011556492
85	0x3dcc4307	0.09973722
86	0xbdae7a05	-0.08519367
87	0x3e87844f	0.2646813
88	0x3d506646	0.050878786
89	0x3dbd2aa3	0.09236648
90	0xbcac0998	-0.021000668
91	0xbd5577c1	-0.05211616
92	0xbe9a058c	-0.30082357
93	0xbc2b2576	-0.010445943
94	0x3df553ba	0.1197886
95	0xbe343bb2	-0.17600897
96	0xbb4ee244	-0.003156797
97	0xbd4e9dc5	-0.05044343
98	0xbca42ed4	-0.02004186
99	0x3e1e150f	0.1543772
100	0x3c19e4d6	0.009392938
101	0xbdae2c22	-0.085045114
102	0x3d9cdd8f	0.076594464
103	0xbdace7ff	-0.08442687
104	0x3d5a3179	0.053269837
105	0xbdf526cf	-0.11970293
106	0x3d5c487a	0.053780057
107	0xbd805811	-0.06266797
108	0xbc97ba17	-0.018521352
109	0xbd488ec9	-0.048964296
110	0x3d399c47	0.045315053
111	0xbd948a9f	-0.072530024
112	0xbe280f0d	-0.16411991
113	0x3e4e4bc3	0.20146088
114	0x3d22153a	0.039571024
115	0x3d49a30c	0.04922776
116	0xbcbea4c8	-0.023271933
117	0x3e0105b2	0.12599829
118	0x3e159eba	0.1461133
119	0xbde15a51	-0.110035546
120	0x3e02fb90	0.12791276
121	0xbca24afd	-0.019811148
122	0xbdd1308b	-0.10214337
123	0x3c392b06	0.0113017615
124	0x3dd3cd3f	0.10341882
125	0xbda9d462	-0.08292462
126	0xbe267e20	-0.1625905
127	0x3ddcee79	0.107876725
128	0xbc28a5d7	-0.010293446
129	0x3e43c10f	0.19116615
130	0x3cdd9537	0.02704869
131	0x3e11705b	0.14203016
132	0x3e83da3a	0.2575243
133	0xbd07cb33	-0.03315277
134	0x3dc8d41f	0.09806084
135	0xbc879ce8	-0.01655431
136	0x3cccc878	0.024997935
137	0x3cd5c5b0	0.026095241
138	0x3980fb2c	0.000246012
139	0x3e0d3894	0.13791114
140	0x3da6bed1	0.08141864
141	0x3de164da	0.11005564
142	0xbdec6bbb	-0.115439855
143	0x3c89957e	0.016794916
144	0xbc18ace5	-0.009318565
145	0x3daf0249	0.08545358
146	0x3dd9bb7b	0.10631462
147	0xbd208799	-0.039191816
148	0x3c081219	0.008305096
149	0xbd00acc1	-0.03141475
150	0x3d43cfb3	0.0478055
151	0x3db1f7a0	0.08689809
152	0x3c9d9bad	0.019239271
153	0x3c8a8e91	0.016913684
154	0x3ca1aa98	0.019734666
155	0xbdd2219a	-0.10260315
156	0xbd2f2b49	-0.04276589
157	0xbdf060b8	-0.11737198
158	0x3c8ff329	0.017572002
159	0x3d16402b	0.03668229
160	0x3d113df7	0.035459485
161	0x3db08e4c	0.08620891
162	0xbd8d0dde	-0.068874106
163	0x3dec8de2	0.115504995
164	0xbd997c8e	-0.0749446
165	0x3d5ff584	0.0546775
166	0x3d4348c9	0.047676835
167	0x3d8969ab	0.06709608
168	0x3ce17ba2	0.027524773
169	0x3dd10a37	0.102070265
170	0x3d18ea14	0.03733261
171	0x3e602630	0.21889567
172	0x3dd518e7	0.1040514
173	0xbd4c7fcb	-0.04992656
174	0xbdc36f38	-0.09542698
175	0x3d326dc6	0.04356172
176	0xbd6e9705	-0.058249492
177	0xbd8a3d18	-0.06749934
178	0xbca648fd	-0.020298475
179	0xbda89f52	-0.08233513
180	0xbd071392	-0.032977648
181	0x3c6ee009	0.014579781
182	0x3d89ae44	0.06722692
183	0xbc14dd77	-0.009086004
184	0x3da7aeeb	0.0818766
185	0x3a39acc4	0.0007082934
186	0xbdcbf321	-0.099584825
187	0x3daed9fa	0.085376695
188	0xbd619fb4	-0.055083945
189	0xbd46953f	-0.048482176
190	0x3d7ae994	0.061257914
191	0xbbb4d8c0	-0.0055190027
192	0x3d9e48d7	0.07728737
193	0x3c1ebaa4	0.009688053
194	0xbe0314b9	-0.12800874
195	0xbc9897b3	-0.018627023
196	0x3d192e3d	0.037397612
197	0xbd84e8c7	-0.06489711
198	0xbd126bcd	-0.035747338
199	0xbbef38b6	-0.0073004616
200	0xbe051bda	-0.12998906
201	0xbcb3bd43	-0.021940833
202	0xbc40b221	-0.011761219
203	0xbbbd2065	-0.005771684
204	0x3daccc67	0.08437424
205	0xbd854445	-0.06507162
206	0x3d145995	0.036218245
207	0xbbe25cc6	-0.006908032
208	0xbca92e8a	-0.020652074
209	0xbe318e53	-0.17339449
210	0xbd1ab84b	-0.03777341
211	0x3d6a6305	0.05722334
212	0xbdec09b8	-0.11525291
213	0x3da9aa80	0.082844734
214	0x3e2df338	0.16987312
215	0x3dc4d4a5	0.09610871
216	0xbe121804	-0.14266974
217	0xbe0867ed	-0.13320895
218	0x3db0d011	0.086334355
219	0xbdbc9b46	-0.092093036
220	0x3d3257db	0.043540817
221	0x3da84112	0.08215536
222	0xbdb54383	-0.088507675
223	0x3b92ecf4	0.0044838134
224	0x3e0998f2	0.1343725
225	0xbdba2928	-0.09089881
226	0x3e0302cb	0.12794034
227	0xbd956f08	-0.07296568
228	0x3b8b6391	0.0042538126
229	0x3d56c1a1	0.052430753
230	0xbbd3e5f3	-0.006466621
231	0x3d078637	0.03308698
232	0xbde6e023	-0.112732194
233	0x3ddefdc9	0.108882494
234	0x3ca55386	0.020181429
235	0x3cf2e2e6	0.02964921
236	0x3bbc1277	0.005739506
237	0x3e0aa886	0.13540849
238	0x3d8e2ca1	0.06942106
239	0xbc5af906	-0.013365036
240	0xbd483489	-0.048878226
241	0xbd8471c9	-0.06467015
242	0xbc85b0f4	-0.01631973
243	0x3d984c93	0.074364804
244	0x3d23ad63	0.039960276
245	0xbda30f41	-0.07961894
246	0x3da04c3d	0.07827041
247	0x3d261153	0.040543865
248	0x3da804e0	0.08204055
249	0xbdc7d782	-0.09757902
250	0xbc88b51d	-0.016687924
251	0xbb7cdbf3	-0.0038583248
252	0x3dfdcc49	0.1239248
253	0xbda3959a	-0.079875186
254	0x3dbedff9	0.09320063
255	0x3c79badb	0.015242304

network_body._body_endoder.seq_layers.2.bias f4 [128]
0	0x00000000	0.0
1	0x00000000	0.0
2	0x00000000	0.0
3	0x00000000	0.0
4	0x00000000	0.0
5	0x00000000	0.0
6	0x00000000	0.0
7	0x00000000	0.0
8	0x00000000	0.0
9	0x00000000	0.0
10	0x00000000	0.0
11	0x00000000	0.0
12	0x00000000	0.0
13	0x00000000	0.0
14	0x00000000	0.0
15	0x00000000	0.0
16	0x00000000	0.0
17	0x00000000	0.0
18	0x00000000	0.0
19	0x00000000	0.0
20	0x00000000	0.0
21	0x00000000	0.0
22	0x00000000	0.0
23	0x00000000	0.0
24	0x00000000	0.0
25	0x00000000	0.0
26	0x00000000	0.0
27	0x00000000	0.0
28	0x00000000	0.0
29	0x00000000	0.0
30	0x00000000	0.0
31	0x00000000	0.0
32	0x00000000	0.0
33	0x00000000	0.0
34	0x00000000	0.0
35	0x00000000	0.0
36	0x00000000	0.0
37	0x00000000	0.0
38	0x00000000	0.0
39	0x00000000	0.0
40	0x00000000	0.0
41	0x00000000	0.0
42	0x00000000	0.0
43	0x00000000	0.0
44	0x00000000	0.0
45	0x00000000	0.0
46	0x00000000	0.0
47	0x00000000	0.0
48	0x00000000	0.0
49	0x00000000	0.0
50	0x00000000	0.0
51	0x00000000	0.0
52	0x00000000	0.0
53	0x00000000	0.0
54	0x00000000	0.0
55	0x00000000	0.0
56	0x00000000	0.0
57	0x00000000	0.0
58	0x00000000	0.0
59	0x00000000	0.0
60	0x00000000	0.0
61	0x00000000	0.0
62	0x00000000	0.0
63	0x00000000	0.0
64	0x00000000	0.0
65	0x00000000	0.0
66	0x00000000	0.0
67	0x00000000	0.0
68	0x00000000	0.0
69	0x00000000	0.0
70	0x00000000	0.0
71	0x00000000	0.0
72	0x00000000	0.0
73	0x00000000	0.0
74	0x00000000	0.0
75	0x00000000	0.0
76	0x00000000	0.0
77	0x00000000	0.0
78	0x00000000	0.0
79	0x00000000	0.0
80	0x00000000	0.0
81	0x00000000	0.0
82	0x00000000	0.0
83	0x00000000	0.0
84	0x00000000	0.0
85	0x00000000	0.0
86	0x00000000	0.0
87	0x00000000	0.0
88	0x00000000	0.0
89	0x00000000	0.0
90	0x00000000	0.0
91	0x00000000	0.0
92	0x00000000	0.0
93	0x00000000	0.0
94	0x00000000	0.0
95	0x00000000	0.0
96	0x00000000	0.0
97	0x00000000	0.0
98	0x00000000	0.0
99	0x00000000	0.0
100	0x00000000	0.0
101	0x00000000	0.0
102	0x00000000	0.0
103	0x00000000	0.0
104	0x00000000	0.0
105	0x00000000	0.0
106	0x00000000	0.0
107	0x00000000	0.0
108	0x00000000	0.0
109	0x00000000	0.0
110	0x00000000	0.0
111	0x00000000	0.0
112	0x00000000	0.0
113	0x00000000	0.0
114	0x00000000	0.0
115	0x00000000	0.0
116	0x00000000	0.0
117	0x00000000	0.0
118	0x00000000	0.0
119	0x00000000	0.0
120	0x00000000	0.0
121	0x00000000	0.0
122	0x00000000	0.0
123	0x00000000	0.0
124	0x00000000	0.0
125	0x00000000	0.0
126	0x00000000	0.0
127	0x00000000	0.0

action_model._continuous_distribution.log_sigma f4 [1, 3]
0	0x00000000	0.0
1	0x00000000	0.0
2	0x00000000	0.0

action_model._continuous_distribution.mu.weight f4 [3, 128]
0	0xbca21432	-0.01978502
1	0xbc098758	-0.008394085
2	0x3cc83c1b	0.024442723
3	0xbbd39dcf	-0.0064580212
4	0xbbb8741c	-0.0056290757
5	0x3c25a605	0.010110383
6	0xbc34a592	-0.011025803
7	0x3a857a4c	0.0010183542
8	0xbcf37170	-0.029717177
9	0x3cb69e3f	0.022292254
10	0x3ccd9fe7	0.025100661
11	0xbbb7a614	-0.005604515
12	0x3c66e2fd	0.014092204
13	0xbb916fbb	-0.004438368
14	0xba3d6763	-0.00072251837
15	0x3ceb402a	0.02871712
16	0xbb2f6d6d	-0.0026768104
17	0xbc84ab44	-0.016194947
18	0x3c391a94	0.011297841
19	0xbc9164d7	-0.01774828
20	0xbb8754a8	-0.004129965
21	0xbd3541ac	-0.044252083
22	0x3c6ddfb2	0.014518665
23	0x3a0998f4	0.0005248927
24	0x3ceb02f7	0.028687937
25	0x3c229c03	0.009924891
26	0xbc4168fb	-0.011804814
27	0xbb095a93	-0.0020958527
28	0x3bdb2767	0.0066880467
29	0x37c6a8d0	2.3682049e-05
30	0xbc9d2e53	-0.019187128
31	0x3c1ce9f4	0.009577263
32	0x3b8fe487	0.0043912563
33	0xbcb9ecb9	-0.022695886
34	0x3bcaf150	0.0061933175
35	0x3ccc49c3	0.024937516
36	0x3cd0c56b	0.025484761
37	0xbc125030	-0.008930251
38	0xbcbaf847	-0.022823466
39	0x3ba3fba0	0.0050043613
40	0xbccee5b7	-0.025256021
41	0xbb83efa1	-0.0040263687
42	0xbc8fdb22	-0.017560545
43	0x3c3a27f6	0.0113620665
44	0x3ccdaa9d	0.025105769
45	0x3b023daf	0.0019873192
46	0x3d138ce6	0.036023043
47	0xbcdef933	-0.027218437
48	0xbaf5105d	-0.0018696893
49	0x3c168131	0.009186075
50	0xbc76a4e0	-0.015053958
51	0xbbb82624	-0.005619781
52	0xbc95c059	-0.018280195
53	0xbc52fec2	-0.012878122
54	0x3c9ced7c	0.01915621
55	0xbd0adb2b	-0.03390042
56	0x3c48e30d	0.012261164
57	0xbc8766fb	-0.016528597
58	0x3cbc4778	0.022983298
59	0xbca936ab	-0.02065595
60	0x3ca8ea3f	0.02061951
61	0xbb673a28	-0.0035282467
62	0x3c81f495	0.015863696
63	0xbc0d0bfc	-0.008608814
64	0x3d6ff15d	0.05857979
65	0x3bb1b1e7	0.005422819
66	0x3c69f703	0.014280084
67	0xbc1250c4	-0.008930389
68	0xbc19dac4	-0.009390537
69	0x3c6b13b2	0.014347957
70	0xbc2900aa	-0.0103151
71	0x3c29abca	0.010355899
72	0xbc69cc48	-0.014269896
73	0xbc244bff	-0.0100278845
74	0xbb320fb0	-0.0027169995
75	0x3c75a3df	0.014992683
76	0xbce9800b	-0.028503438
77	0x3bc2b3c7	0.0059418413
78	0x3b19e681	0.0023483338
79	0xbc5a2fda	-0.013317073
80	0xbc0aac7f	-0.008463978
81	0x3cf42acd	0.029805565
82	0xbc0879b2	-0.008329796
83	0xbc8d898d	-0.017277503
84	0x3c5808ea	0.013185719
85	0xbb683252	-0.0035430384
86	0x3c5f2972	0.013620721
87	0x3cd2b5c7	0.025721444
88	0xbc218951	-0.009859399
89	0xbb829c76	-0.0039859368
90	0xbc0391a6	-0.008030331
91	0xbb9cdcac	-0.0047870483
92	0x3c2bac84	0.010478143
93	0x3bb0c1e7	0.0053942087
94	0xb8cfe7c5	-9.9136996e-05
95	0x3ad4d1a8	0.0016236799
96	0x3b84ba37	0.004050519
97	0x3c8caf30	0.01717338
98	0xbc617c18	-0.013762496
99	0xbcb9b373	-0.022668576
100	0x3ca902fa	0.020631302
101	0x3c889e92	0.016677175
102	0xbd2c09a3	-0.042001378
103	0x39f2fc85	0.0004634598
104	0x3bf42ecd	0.007451868
105	0xbd0fbc5f	-0.035091754
106	0x3c74500d	0.014911664
107	0x3c92aa1f	0.017903386
108	0xbd133203	-0.035936367
109	0x3cacaef4	0.021079518
110	0x3c28ad89	0.01029528
111	0xbce9f7e3	-0.028560584
112	0x3cde2e98	0.027121827
113	0x3cde42cb	0.027131459
114	0xbcf9a075	-0.03047202
115	0xbcc26fcb	-0.023734948
116	0xbc5a6fe0	-0.013332337
117	0x3c823d41	0.015898349
118	0x3c542903	0.012949231
119	0xbce68eaf	-0.028144209
120	0xbc90db1f	-0.01768261
121	0x3cf1f9ef	0.029538123
122	0xbbc16a0b	-0.005902534
123	0xb98dad9b	-0.00027022962
124	0xbc683a8b	-0.014174114
125	0xbc20c07f	-0.00981152
126	0xbc650fbb	-0.013980801
127	0x3bce8282	0.006302179
128	0x3b8f8040	0.0043793023
129	0xbcd0f4cf	-0.025507359
130	0xbbfe98a3	-0.0077696606
131	0xbc825919	-0.015911626
132	0xbcc2c6e5	-0.02377648
133	0x3a9018d7	0.0010993731
134	0x3a5f636a	0.0008521589
135	0xba660127	-0.00087739754
136	0x3bd6071b	0.0065316088
137	0x3c5a528d	0.013325346
138	0x3c11168c	0.008855473
139	0x3c4010c7	0.01172275
140	0x3ce95f82	0.028487924
141	0x3cfaf3f8	0.030633911
142	0x3b7fb31b	0.0039016667
143	0x3c7ee3eb	0.01555727
144	0x3cde215b	0.027115515
145	0xbca07c7e	-0.019590613
146	0x3ac17e21	0.0014762321
147	0xbc721b60	-0.0147770345
148	0xbc7c378b	-0.015394102
149	0xbc91177e	-0.017711397
150	0xba1dbe3e	-0.0006017423
151	0x3a204cb3	0.00061149447
152	0xbacfa6e5	-0.0015842585
153	0xbc69d1d8	-0.014271222
154	0xbb4ce32b	-0.0031263332
155	0xbd09f922	-0.033684857
156	0x3d04b2f4	0.032397225
157	0x3cfee840	0.031116605
158	0xbd380091	-0.044922415
159	0x3c419e7d	0.011817572
160	0x3b75949d	0.0037472614
161	0x3c85065c	0.016238384
162	0xbbc652fb	-0.0060523725
163	0x3bdb9c6a	0.0067019956
164	0x3b507fe7	0.0031814517
165	0x3c8b5263	0.017007058
166	0xbbadfa03	-0.0053093447
167	0x3c25ac45	0.010111873
168	0xb9bbf936	-0.00035853096
169	0x3c1569fb	0.009119506
170	0xbcfe981a	-0.031078387
171	0xbc78e993	-0.015192407
172	0xbc16b934	-0.009199429
173	0xbca03c57	-0.019560022
174	0xbd024eab	-0.031813305
175	0x3bb9b1a3	0.005666928
176	0xbc476888	-0.012170918
177	0x3c8c7e02	0.017149929
178	0x3ced7885	0.028988132
179	0x3c27ba32	0.0102372635
180	0xbbf186fb	-0.0073708273
181	0x3bfb962f	0.0076778154
182	0xbc902554	-0.017595924
183	0xbbe2da78	-0.006923016
184	0xbc16322e	-0.009167237
185	0xbbdeb6a2	-0.006796674
186	0x3c5f61b5	0.013634135
187	0xbb393dfc	-0.0028265705
188	0x3b06430a	0.0020486736
189	0x3c202444	0.009774271
190	0xbb8eb083	-0.004354538
191	0x3c639ded	0.013892633
192	0xbba05bbc	-0.004893748
193	0xbcce2723	-0.025165146
194	0xbaa3f735	-0.0012509587
195	0xbc2ef317	-0.010678074
196	0xbcbe259b	-0.023211291
197	0x3ad9e795	0.0016624803
198	0x3cd9a902	0.026569847
199	0x3c0630c1	0.008190335
200	0x3ca51ef7	0.020156367
201	0x3c192175	0.009346356
202	0xbcc6161c	-0.024180464
203	0x3bdf4252	0.006813326
204	0xbbe518a7	-0.006991464
205	0x39c67323	0.00037851286
206	0x3ccd1d03	0.025038248
207	0x3c578120	0.013153344
208	0x3c106167	0.008812285
209	0xbc8f72e4	-0.017510839
210	0xbc478ba3	-0.012179288
211	0x3ba16c03	0.004926206
212	0xbbc5502a	-0.006021519
213	0xbb9a1220	-0.0047018677
214	0xbbcb5b00	-0.0062059164
215	0xbd417037	-0.047226157
216	0xbc9c5087	-0.019081367
217	0xbb88fd77	-0.004180606
218	0x3c162c9c	0.009165909
219	0x3d08cc54	0.033397987
220	0x3bb59cfb	0.005542395
221	0xbb9eefe4	-0.0048503745
222	0x3c2e5bcb	0.010642002
223	0xbc8e521b	-0.017373135
224	0x3bad117f	0.0052816267
225	0x3caeef17	0.021354241
226	0xbbf6f6d0	-0.0075367466
227	0x3956b622	0.0002047648
228	0x3d3fdeb3	0.046843242
229	0x3d2820d4	0.041046932
230	0xbc0ffedb	-0.00878879
231	0xbb60fcdd	-0.0034330406
232	0x3d1077cf	0.03527051
233	0x3c819920	0.015820086
234	0x3cc49387	0.023996128
235	0xbc513d5d	-0.012770978
236	0x3c86daa4	0.016461678
237	0xbcbc622b	-0.022996029
238	0x39009ffa	0.00012266627
239	0x3b30b951	0.0026965926
240	0xbc8f700a	-0.01750948
241	0x3aa9c5d3	0.0012952633
242	0x3bfde017	0.007747661
243	0x3d268753	0.0406564
244	0xbc99bb3b	-0.018766036
245	0x3c5ff3bd	0.013668952
246	0xbbb88a4b	-0.00563172
247	0xb9a55804	-0.0003153683
248	0xbaff14f7	-0.0019461204
249	0x3c47d111	0.012195841
250	0x3c1bd4e3	0.009511205
251	0x3cb39ed2	0.021926317
252	0x3c66ea80	0.014093995
253	0x3bbbc442	0.005730183
254	0xbce8a4a3	-0.028398817
255	0xbbfbadf0	-0.007680647

action_model._continuous_distribution.mu.bias f4 [3]
0	0x00000000	0.0
1	0x00000000	0.0
2	0x00000000	0.0

action_model._discrete_distribution.branches.0.weight f4 [5, 128]
0	0xbb90a813	-0.0044145673
1	0xbc4c2113	-0.012459057
2	0x3a038406	0.00050169264
3	0xbb120daf	-0.0022285988
4	0x3c39906e	0.011325939
5	0xbc4ec9af	-0.012621327
6	0x3c2b99f7	0.01047372
7	0xbb963e97	-0.004585098
8	0xbb95f800	-0.004576683
9	0xbc02073d	-0.007936296
10	0xbaeda847	-0.0018131816
11	0x3aebb703	0.0017983619
12	0x3c243377	0.010022036
13	0x3a38aff7	0.0007045264
14	0xbbe0b43b	-0.0068574226
15	0xbc1290ff	-0.008945703
16	0xbc591698	-0.013250016
17	0xbc35c8f6	-0.011095276
18	0xbc7dacbd	-0.015483079
19	0x3c5b43df	0.013382881
20	0x3c4550d3	0.012043196
21	0xbb54d7ff	-0.0032477377
22	0xbb325a8f	-0.0027214622
23	0x3b3da7d3	0.0028939142
24	0xbab181b6	-0.0013542685
25	0xbc416ebc	-0.011806186
26	0x3b6bfc4b	0.0036008533
27	0x3bf2fac3	0.007415147
28	0xba789987	-0.00094833266
29	0x39c5107f	0.0003758706
30	0xbc8836bb	-0.01662766
31	0xba8ae895	-0.0010597879
32	0xbc48166a	-0.012212375
33	0x3afbeca7	0.0019220308
34	0xbb80550f	-0.00391639
35	0xbae2746f	-0.0017277132
36	0xbc67f55f	-0.014157622
37	0xbc22c7c8	-0.009935327
38	0x3c01eccb	0.007929991
39	0xbc56a18a	-0.013100037
40	0x3ad9c9ef	0.0016615967
41	0x3c56cc1a	0.013110185
42	0xbbe53a5b	-0.006995482
43	0x3b8e55fa	0.0043437453
44	0xbb25f354	-0.0025322037
45	0x3c212ce7	0.009837366
46	0x384a1b8c	4.8186208e-05
47	0xba8b8ad8	-0.0010646237
48	0x3c1a74bf	0.0094272485
49	0xbc058377	-0.008149019
50	0x3caa671a	0.020801116
51	0x3c76bbb5	0.015059401
52	0x3b930658	0.00448684
53	0xbb112dee	-0.002215262
54	0xbb1fc913	-0.0024381324
55	0x3b67861d	0.003532774
56	0xbc231de3	-0.009955856
57	0xbb550df3	-0.0032509535
58	0x3b16d157	0.002301296
59	0x3b0c349f	0.002139367
60	0xbbeb93df	-0.0071892585
61	0x3be4596f	0.006968669
62	0xbb5a85d7	-0.0033343935
63	0x3c0284ac	0.007966202
64	0x3957e82b	0.00020590487
65	0xbbc99758	-0.006152075
66	0xbc99511a	-0.01871543
67	0xbb36fd13	-0.002792184
68	0xbc1a35d7	-0.0094122505
69	0xba15428c	-0.0005693815
70	0xbb14f9cb	-0.0022731896
71	0x3bf03bf8	0.0073313676
72	0xbb2f9c61	-0.002679609
73	0xbb6efcf3	-0.0036466687
74	0x3c148e98	0.0090672
75	0xbc172937	-0.009226135
76	0x3b98b76d	0.004660538
77	0x3a687c68	0.00088686356
78	0xbbbae1f7	-0.0057032066
79	0x3a0c06ef	0.00053416094
80	0x3b48d2fa	0.003064333
81	0x3be79c90	0.0070682243
82	0xbaa15951	-0.0012309944
83	0xbbf384b8	-0.007431593
84	0x3b93696d	0.0044986517
85	0xb7067a82	-8.015546e-06
86	0xbb1206a7	-0.0022281797
87	0x3c4eec9d	0.012629655
88	0x3c8572a6	0.01629002
89	0x3c1f3b84	0.0097187795
90	0x3a1ba585	0.0005937445
91	0xbbcdd505	-0.0062814974
92	0x3ae75db5	0.0017651828
93	0xbc66170f	-0.014043584
94	0x3b12da60	0.0022407994
95	0xbc6639a2	-0.014051827
96	0xbb393b3a	-0.0028264062
97	0xbbaf9831	-0.005358719
98	0x3bef379a	0.0073003294
99	0x3c5ca7dd	0.013467756
100	0x3b4692de	0.0030299942
101	0x3b8bcb6e	0.004266194
102	0x3c19f4f3	0.009396779
103	0xbbb37531	-0.005476617
104	0x3c03a403	0.008034709
105	0x3c356433	0.011071253
106	0x3c6f2d67	0.014598227
107	0xbbc682a7	-0.0060580554
108	0xbbbe377e	-0.005804955
109	0x3c062f63	0.008190009
110	0x3c18ee44	0.009334151
111	0xbc192c02	-0.009348871
112	0xba68047f	-0.00088507676
113	0xbcbe61c0	-0.02323997
114	0xbbb04192	-0.0053789103
115	0xbb0e1d5b	-0.0021684978
116	0xbbab56e6	-0.005228865
117	0x3b8f6d74	0.0043770615
118	0x3ba08024	0.004898088
119	0xbca04703	-0.019565111
120	0xbb11469d	-0.0022167333
121	0x3c7f817a	0.015594834
122	0x3c2724ef	0.010201677
123	0x3b946639	0.0045287875
124	0xbc18fa68	-0.009337045
125	0x3a96313f	0.0011458768
126	0xbaf112a3	-0.0018392395
127	0x3b6abdad	0.0035818622
128	0xbc801655	-0.015635649
129	0xbc2b166e	-0.010442359
130	0xbbca0fe1	-0.0061664437
131	0x3ca5ec60	0.020254314
132	0xbbed1b82	-0.007235945
133	0xbb78a4cd	-0.0037940026
134	0x3c265611	0.010152356
135	0xbaaf8e53	-0.0013393856
136	0x3bbc38ca	0.0057440745
137	0x3b2e25ed	0.0026572898
138	0x3c35f90f	0.0111067435
139	0xbb524a87	-0.0032087879
140	0xbb9c1fb2	-0.0047645206
141	0x3b820e66	0.0039690016
142	0xbba8ef83	-0.005155505
143	0x3bc2594f	0.0059310566
144	0xba91743f	-0.0011097266
145	0xbc827e16	-0.015929263
146	0x3c467bb2	0.012114452
147	0x3bef81cb	0.0073091737
148	0x3ba73ecf	0.005103923
149	0xbbfbc703	-0.007683636
150	0x3c2ebc23	0.0106649725
151	0x3c73c657	0.014878831
152	0xbb7ff80a	-0.0039057755
153	0x3b463fc4	0.003025041
154	0x3bdea710	0.0067948177
155	0x3bae5f39	0.00532141
156	0xbb152d0d	-0.0022762448
157	0xbc455039	-0.012043052
158	0xbc2c5ddb	-0.010520424
159	0x3c12d733	0.00896244
160	0xbc547de5	-0.012969469
161	0xbc82ceaf	-0.015967695
162	0xbbcd9fc7	-0.0062751505
163	0x3a2a17d7	0.0006488538
164	0xbae0512d	-0.0017114036
165	0xb9fbea4f	-0.00048049024
166	0xbb75adef	-0.0037487706
167	0xbc164687	-0.0091720885
168	0x3c18ae33	0.009318876
169	0x3c4a5172	0.01234852
170	0xbbdf6b5b	-0.0068182177
171	0x3a20b567	0.00061305467
172	0xbb8187ef	-0.003952972
173	0xbc06d3a8	-0.008229174
174	0x3969e135	0.00022304508
175	0xbbf77ef8	-0.0075529777
176	0xbbe0834f	-0.0068515907
177	0x3a6fbf4b	0.00091456313
178	0x3bfadf4d	0.007656014
179	0xba977a76	-0.0011556882
180	0x3c6ef007	0.014583594
181	0xbbbeb4d3	-0.005819896
182	0xbbd2a1f2	-0.006427997
183	0xbc285d6b	-0.010276179
184	0xbb41cc13	-0.00295711
185	0x3bb19dec	0.005420437
186	0x3c473cc2	0.012160482
187	0xbbe34bdf	-0.006936535
188	0x3ca149d9	0.019688534
189	0x3b3e6dbf	0.0029057113
190	0xb9178da4	-0.00014453247
191	0xbb7f15b0	-0.003892284
192	0xbc2a94fb	-0.010411496
193	0xbcdfde7a	-0.027327765
194	0x3a84f275	0.0010143059
195	0x3a9489a8	0.0011332529
196	0x3ca7a32a	0.020463545
197	0x3c280de8	0.010257222
198	0x3bf00032	0.007324242
199	0x3c3eb5fd	0.011640069
200	0xbb90f984	-0.004424276
201	0x3abc4c14	0.0014365935
202	0xbc57a013	-0.013160723
203	0xbb46ce28	-0.003033528
204	0x3b61afe5	0.0034437117
205	0xbbaf33d2	-0.0053467536
206	0xbc322dbb	-0.010875161
207	0xbc44be45	-0.012008254
208	0xbbaed37f	-0.005335271
209	0x3c6a01ba	0.014282638
210	0x3c0003ba	0.0078133885
211	0xbb053413	-0.0020325228
212	0x3c09de83	0.008414867
213	0x3bb2141b	0.0054345257
214	0xbb197e4f	-0.0023421233
215	0x3a39a19f	0.00070812734
216	0xbc3844e1	-0.011246891
217	0xbc97b287	-0.018517746
218	0xbb83f9e8	-0.004027594
219	0xbb5695cb	-0.0032743092
220	0x3c1c90fb	0.00955605
221	0x3c091a9a	0.008368159
222	0x3c68d222	0.014210256
223	0x3b9118e3	0.0044280156
224	0x3bb4eebd	0.005521624
225	0x3c162cfa	0.009165997
226	0xba98b386	-0.0011650182
227	0x3bcd9a4b	0.0062744967
228	0xbbdc1115	-0.0067159035
229	0xbab96b17	-0.0014146295
230	0x3c43659c	0.011926081
231	0xba8836a8	-0.0010392265
232	0xbacbc7de	-0.0015547236
233	0xbc127c4f	-0.00894077
234	0xbc3b1aa7	-0.011419929
235	0xbb07e07c	-0.0020733168
236	0x3b96429c	0.004585577
237	0xbc260ca1	-0.010134847
238	0x3bdb29ba	0.006688324
239	0xbc4428e2	-0.011972638
240	0x3b18431f	0.0023233367
241	0xbc1d0452	-0.00958355
242	0xbc0d93c7	-0.00864119
243	0xbba069ba	-0.004895416
244	0x3935ac2f	0.00017325649
245	0x3c69765f	0.014249413
246	0x3aea1647	0.0017859422
247	0x3c45a7a3	0.0120638935
248	0x3ca0884f	0.019596247
249	0x3be33788	0.00693411
250	0x3a49938e	0.0007689529
251	0x3ba0c154	0.004905859
252	0xba151cfb	-0.00056882174
253	0x3bc35b38	0.005961802
254	0xbb4b5747	-0.0031027363
255	0xbb83fc5f	-0.0040278877

action_model._discrete_distribution.branches.0.bias f4 [5]
0	0x00000000	0.0
1	0x00000000	0.0
2	0x00000000	0.0
3	0x00000000	0.0
4	0x00000000	0.0
