results/ppo/My Behavior/My Behavior-640.pt (torch, 142764 bytes, 10 tensors)

network_body._body_endoder.seq_layers.0.weight f4 [128, 1]
00000000: a4be 39bf 0996 923d 84c3 a93f b7ff e8be
00000010: 92a2 a43d 8edf bcbf 1177 953f 583c ed3f
00000020: 6c36 adbf 0352 a2be 73d0 903f 9ca8 ba3e
00000030: aad3 6d3f 17ad f5bf 6185 473e 3236 f13f
00000040: 8f4f 8ebf 74a4 7e3f 10db f93e fea8 fdbd
00000050: 17e2 debe 3e8f c73e 3660 813f a59c 263e
00000060: e92b 12bf fd79 36be 82c5 a6be 5938 95be
00000070: fce4 c9be 7d90 24c0 eb2d 803e e481 4a40
00000080: 1056 21bf 55d3 49bf 5737 02bf 73a1 153c
00000090: fa02 c8bf 468b 853f 4597 e63e d3da 613e
000000a0: 5717 86be 9117 9d3e 704d 3fbf 0c8a c73f
000000b0: ac1d a2bf 8fa2 703e f7a6 da3d a65d 33bf
000000c0: f5b3 0ebf cf8a a4bf 3736 7b3e f1f0 83bf
000000d0: e8eb 233d 6412 923f 173c 99be 42e1 303f
000000e0: a6f6 dcbe 6d19 0bbf fee8 cfbf 754c 193e
000000f0: cf9e 9c3f 3a45 403f 715c c73f db15 18c0
00000100: f73e 793f 9747 2d40 bd96 9a3f 853f c93f
00000110: 6930 f53d d74c dfbd a115 04bf 06b6 583f
00000120: 4c52 7d3f b21a 3ebf 30ef c23e d091 1a3f
00000130: f2a0 9fbf a14f 953f 1f4e d83e 821c b0ba
00000140: ded6 2bbc 9a9a 86bf 43b8 e93c dc72 b83e
00000150: 321b 8e3f 74c1 a43d 715c 2ebf 0db6 21bf
00000160: e9a0 ed3f bbe0 3bbf f53c 57bf d828 9dbf
00000170: 0da4 9abe 7e0c f53f 92ff 663f e6a7 983f
00000180: fef3 d0be a24c 403f 8db1 50bf afda f4be
00000190: bb55 a6bf a3ef 653f c3fc 82bf b141 e2bd
000001a0: ae68 6dbf ce7a a23f f897 40bf b947 48be
000001b0: 557d 863f 1947 3fc0 b954 853e fa12 4d3e
000001c0: e3a5 b53e 6635 98be a1df b5bf ce47 0dbf
000001d0: f4a0 943f 2cb4 75bf 634c bd3f 3fd7 37bf
000001e0: 623b 88bd 28dc a7be 96da b63e f14b 71be
000001f0: ca07 6c3e dbd6 f7be 84cd 47bf 32ae 213f
-0.7255652 0.07157523 1.3262792 -0.45507595 0.0803882 -1.4755723 1.1676961 1.853404
-1.3532233 -0.31703195 1.1313614 0.36456764 0.929011 -1.9193448 0.19484474 1.8844664
-1.1118029 0.99469686 0.48799944 -0.12385748 -0.43531868 0.38976473 1.0107486 0.16270693
-0.5709825 -0.17819972 -0.32572562 -0.29144552 -0.39432514 -2.5713189 0.25035033 3.164178
-0.63021946 -0.7883809 -0.5086569 0.009132731 -1.5625908 1.0433128 0.45037284 0.22056131
-0.26189682 0.30682042 -0.74727535 1.5589004 -1.2665305 0.23499511 0.10676377 -0.7006477
-0.5574334 -1.2854861 0.245324 -1.0307904 0.0400199 1.1411862 -0.29928657 0.69093716
-0.43156928 -0.5433567 -1.6242979 0.14970572 1.2235965 0.7510563 1.5575086 -2.376334
0.973617 2.7074945 1.2077252 1.572251 0.11972124 -0.10903328 -0.51595503 0.84652746
0.989537 -0.74259484 0.3807311 0.6037874 -1.2470992 1.1664926 0.42247102 -0.001343623
-0.01048824 -1.0515931 0.028530246 0.3602513 1.1102049 0.08044711 -0.68109804 -0.6316841
1.8564731 -0.73389786 -0.8407739 -1.227809 -0.30203286 1.9144437 0.9023372 1.1926239
-0.4081115 0.7511693 -0.8152092 -0.47823092 -1.2994913 0.8981878 -1.0233387 -0.11047686
-0.92737854 1.2693727 -0.75231886 -0.1955861 1.0506998 -2.9887145 0.260412 0.2002677
0.35478124 -0.2972824 -1.4208871 -0.5518769 1.1611619 -0.95978045 1.4788936 -0.71812814
-0.066519514 -0.32785153 0.35713643 -0.23564126 0.23049846 -0.4840611 -0.78047967 0.63156426

network_body._body_endoder.seq_layers.0.bias f4 [128]
00000000: 0000 0000 0000 0000 0000 0000 0000 0000
00000010: 0000 0000 0000 0000 0000 0000 0000 0000
00000020: 0000 0000 0000 0000 0000 0000 0000 0000
00000030: 0000 0000 0000 0000 0000 0000 0000 0000
00000040: 0000 0000 0000 0000 0000 0000 0000 0000
00000050: 0000 0000 0000 0000 0000 0000 0000 0000
00000060: 0000 0000 0000 0000 0000 0000 0000 0000
00000070: 0000 0000 0000 0000 0000 0000 0000 0000
00000080: 0000 0000 0000 0000 0000 0000 0000 0000
00000090: 0000 0000 0000 0000 0000 0000 0000 0000
000000a0: 0000 0000 0000 0000 0000 0000 0000 0000
000000b0: 0000 0000 0000 0000 0000 0000 0000 0000
000000c0: 0000 0000 0000 0000 0000 0000 0000 0000
000000d0: 0000 0000 0000 0000 0000 0000 0000 0000
000000e0: 0000 0000 0000 0000 0000 0000 0000 0000
000000f0: 0000 0000 0000 0000 0000 0000 0000 0000
00000100: 0000 0000 0000 0000 0000 0000 0000 0000
00000110: 0000 0000 0000 0000 0000 0000 0000 0000
00000120: 0000 0000 0000 0000 0000 0000 0000 0000
00000130: 0000 0000 0000 0000 0000 0000 0000 0000
00000140: 0000 0000 0000 0000 0000 0000 0000 0000
00000150: 0000 0000 0000 0000 0000 0000 0000 0000
00000160: 0000 0000 0000 0000 0000 0000 0000 0000
00000170: 0000 0000 0000 0000 0000 0000 0000 0000
00000180: 0000 0000 0000 0000 0000 0000 0000 0000
00000190: 0000 0000 0000 0000 0000 0000 0000 0000
000001a0: 0000 0000 0000 0000 0000 0000 0000 0000
000001b0: 0000 0000 0000 0000 0000 0000 0000 0000
000001c0: 0000 0000 0000 0000 0000 0000 0000 0000
000001d0: 0000 0000 0000 0000 0000 0000 0000 0000
000001e0: 0000 0000 0000 0000 0000 0000 0000 0000
000001f0: 0000 0000 0000 0000 0000 0000 0000 0000
0.0 0.0 0.0 0.0 0.0 0.0 0.0 0.0
0.0 0.0 0.0 0.0 0.0 0.0 0.0 0.0
0.0 0.0 0.0 0.0 0.0 0.0 0.0 0.0
0.0 0.0 0.0 0.0 0.0 0.0 0.0 0.0
0.0 0.0 0.0 0.0 0.0 0.0 0.0 0.0
0.0 0.0 0.0 0.0 0.0 0.0 0.0 0.0
0.0 0.0 0.0 0.0 0.0 0.0 0.0 0.0
0.0 0.0 0.0 0.0 0.0 0.0 0.0 0.0
0.0 0.0 0.0 0.0 0.0 0.0 0.0 0.0
0.0 0.0 0.0 0.0 0.0 0.0 0.0 0.0
0.0 0.0 0.0 0.0 0.0 0.0 0.0 0.0
0.0 0.0 0.0 0.0 0.0 0.0 0.0 0.0
0.0 0.0 0.0 0.0 0.0 0.0 0.0 0.0
0.0 0.0 0.0 0.0 0.0 0.0 0.0 0.0
0.0 0.0 0.0 0.0 0.0 0.0 0.0 0.0
0.0 0.0 0.0 0.0 0.0 0.0 0.0 0.0

network_body._body_endoder.seq_layers.2.weight f4 [128, 128]
00000000: 4f83 87bb 8a9a 05be e3bb 22be 351c 373c
00000010: 68c1 073e 4aca 153c 8a6c 2a3d 757a 763d
00000020: 7e38 3dbc 8582 3f3d 9441 19bd b30b 02be
00000030: 1aac 73bd e489 62bd ea3a 50bd c2ee 37be
00000040: 0c3a c1bd 47ea 0fbc 88b3 3fbd 16f9 333d
00000050: 6305 f7bd b876 a53c 47d5 f6bd 2f7a 313d
00000060: 1ecf 3c3d eb97 d33d 5d71 9bbc 47fa 93bd
00000070: 9df0 0dbd 6aa7 223d 216e b3bd efcd 113d
00000080: f94c bebd 634b b1bd 7b06 0b3c 6330 cc3d
00000090: fcfb 9e3d 235d 29bc aa77 81bd 48d1 323c
000000a0: ca12 3b3d ba77 413c 1a3d 9abd 8ccb 253e
000000b0: b4b0 df3d 09f6 e0bc d63a a93c 9b33 aabc
000000c0: 0d6d d8bd 665f 1fbe 4a9d 783d 138f 15be
000000d0: bf35 80bd 4b40 c33d 0d06 a5bb 7cf2 afbd
000000e0: ef2a 94bd e00b ee3d f376 b1bd 913a b43c
000000f0: bc8d a6bd 7b1e 48be 91a3 97bd 6d1c 203e
00000100: 21a2 c23d d7e6 9f3d 1827 8fbd 56b1 35bd
00000110: edd7 8c3d 0a0c 1cbe 8756 dfbc fb3d ad3d
00000120: a762 643d fb09 113e dd33 06be 8690 2abe
00000130: 9e74 583e 5c1f 09be a6e7 d63d ea64 4f3b
00000140: 942e d13d ab06 f0bc 28c7 a9bd 4b12 1cbb
00000150: 0918 dabc de3b 333d 724c 3a3d 576e 9f3d
00000160: 43b5 4abd b3ce ddbd c4e3 f03c 0229 babd
00000170: 9be0 cabc 3d84 0bbd da9d 813d 762e 6bb7
00000180: 68da 453b cc8c 8bbd 39c5 1a3d 781a 59bd
00000190: f344 e83d 9a7e fc3d 0f2c 543d ec8d e8bd
000001a0: 3885 fe3c 6cea 19bd dc02 a3bc cf6d 11bb
000001b0: 454e b6bd 7e8a e1bd 1bf6 debd 6a61 aabd
000001c0: df40 43be 207c 08be d848 aa3c ab6a 8a3d
000001d0: 893e b7bc 20e1 df3c f5cb 023e 8c5a 493d
000001e0: 6122 c23c df44 5d3d cceb 033d ac4d 3b3d
000001f0: f948 db3d 5bc0 013e cdd9 533d b254 e5bd
00000200: dee6 d5bd 9fc3 85bd e983 d33d c56c 533e
00000210: 52fd 43bd 1eec 0f3d 0fad 95bd 41b2 64bd
00000220: 6151 3ebd 4497 29bd ce5d c3bd b954 5bbd
00000230: 9e29 913d d1b2 90bd 20c3 463d 7395 643d
00000240: 6c43 fbbd 5165 52bd 553e afbc 7005 abbd
00000250: cee7 4e3e 470e 97bd 029c 00be 4cd6 2bbd
00000260: 04dc 513c f9e6 29bb 7061 a73c 384f 39bd
00000270: d52a 09be cb1c 3dbe 6f61 0f3b b9c9 3f3b
00000280: be63 743d 7ae0 bfbc a584 853d 73f0 12bd
00000290: f3e1 633e bdd2 703d 3100 66bc 6f98 edbd
000002a0: a426 6f3a 5aeb 4c3e 44c9 113d 2588 8f3c
000002b0: ecbd 7abd 873f 9e3d 59d5 523d 810c c63d
000002c0: ef53 863d 4f22 b43c afd6 debd bfa0 9a3b
000002d0: 1f09 8c3d fe1e 18bd bc60 a3bd e7cd 583b
000002e0: c9dd 4e3d b502 b9bd 0be7 883d 4908 04bd
000002f0: a790 cf3d ba1a adbc 53e7 0c3e 9b74 a5bd
00000300: e16e 8e3c 94ff aabc a131 b83d 22b6 823d
00000310: 5971 1fbd 38db ee3d 7b0b d4bc 93f1 903d
00000320: 264b 993c 9d33 06be 4b25 4cbd 668e 033e
00000330: b340 a43d 682b d83d 88cd 953b dfa6 cd3d
00000340: 49cc 6c3c 6e76 063d 4a88 1d3d 7199 273e
00000350: 37e1 74bc 8ade f73d a63f 453d f302 f2bc
00000360: e265 22be f2e4 00bd 61ad 633d 5e10 8c3d
00000370: b2a3 c63d f48b 0b3e 7e3c 403d 8f17 c9bb
00000380: 8b6e fa3d 1052 38be 70ae 403e 91c6 27bd
00000390: 3f04 fa3c e311 183e 526e b2bd 5ca1 27bc
000003a0: 62e2 fe3d 7a0f 9e3c 111d d1bd bc00 933d
000003b0: e7c3 29be a45b f4bd fb87 d2bd 36b6 ae3d
000003c0: 8aa9 da3d f295 84bc 06e3 03bd c746 0bbe
000003d0: a1a7 0d3b 1b85 4bbd b1b8 b03d 96be adbd
000003e0: 1f32 e03d 1bb4 c83d 33f1 5a3d 21f2 b4bd
000003f0: e5b0 0e3c 67fe 98bd b497 183e 591d abbd
-0.0041355263 -0.13047233 -0.15891986 0.011176159 0.13257372 0.009142468 0.041607417 0.060175378
-0.011549113 0.046755332 -0.037416056 -0.12699775 -0.0594903 -0.055307284 -0.050837435 -0.17962173
-0.094349 -0.008783883 -0.046802074 0.04393872 -0.12061574 0.020198211 -0.12052398 0.043329414
0.04609596 0.103317104 -0.018974954 -0.07225471 -0.034653295 0.03971044 -0.0876124 0.035596784
-0.09292025 -0.08656957 0.008485432 0.099701665 0.07762906 -0.010337147 -0.06321652 0.010914154
0.045672216 0.01180833 -0.075311854 0.16190928 0.10922375 -0.027461069 0.020657938 -0.02077656
-0.10567675 -0.15563735 0.060696878 -0.1460536 -0.06260251 0.09533747 -0.0050361217 -0.08591172
-0.072347514 0.11623359 -0.08665266 0.022000583 -0.081325024 -0.19542877 -0.07404245 0.15635844
0.0950358 0.07807701 -0.069898784 -0.044358574 0.06877122 -0.15238968 -0.02726294 0.084590875
0.055758145 0.14163963 -0.13105722 -0.16656694 0.21138236 -0.13390869 0.10493402 0.0031645843
0.10213962 -0.029300055 -0.08289939 -0.0023814614 -0.026622789 0.043758266 0.04548306 0.077847175
-0.04948927 -0.1083044 0.029405482 -0.09089853 -0.024765303 -0.03406166 0.06328936 -1.4017909e-05
0.0030189995 -0.06813964 0.037785742 -0.05300376 0.11341276 0.12328835 0.05179983 -0.113551944
0.031069383 -0.037577078 -0.019898824 -0.0022190695 -0.089016475 -0.110127434 -0.10886785 -0.083193615
-0.19067715 -0.133286 0.020786688 0.067586266 -0.022368686 0.027329028 0.12773116 0.049158618
0.023698034 0.05402076 0.032207295 0.04572837 0.10707278 0.12671034 0.051721383 -0.11197795
-0.10444425 -0.065314524 0.10327894 0.20646961 -0.047849007 0.03513729 -0.07308399 -0.05583406
-0.046464328 -0.041404024 -0.09539376 -0.053547595 0.07088016 -0.070653565 0.04852593 0.05580659
-0.12268719 -0.051366154 -0.021392027 -0.083506465 0.20205614 -0.0737577 -0.12559512 -0.041952416
0.0128088035 -0.0025925024 0.020432204 -0.045241565 -0.13395245 -0.18468015 0.0021878143 0.0029264523
0.059665434 -0.023422468 0.065194406 -0.03587384 0.22254162 0.058794726 -0.014038132 -0.1160134
0.00091228844 0.20011654 0.035592332 0.017520973 -0.06121628 0.07726961 0.051472995 0.09670354
0.06558978 0.021989016 -0.108807914 0.0047188695 0.06837677 -0.03713893 -0.07977435 0.0033081712
0.05050448 -0.090337195 0.06684693 -0.032234464 0.10135012 -0.021130908 0.13760118 -0.08078881
0.017386856 -0.020873822 0.08993841 0.06382395 -0.038926456 0.116629064 -0.02588438 0.070773266
0.018712591 -0.13105626 -0.049840253 0.1284729 0.08020153 0.10555154 0.0045716204 0.10041594
0.014453002 0.032827787 0.038460054 0.16367127 -0.0149462735 0.12102993 0.048156403 -0.029542422
-0.15859178 -0.03146834 0.05558527 0.06839059 0.09699191 0.13627607 0.04693269 -0.0061368416
0.12228116 -0.18000054 0.18816543 -0.040960852 0.030519603 0.14850573 -0.08712448 -0.010231342
0.12445523 0.01929449 -0.10210622 0.071778744 -0.16578637 -0.119315416 -0.102798425 0.08530848
0.10676868 -0.01618478 -0.03219893 -0.13601218 0.0021614807 -0.049687486 0.08628977 -0.08483617
0.1094706 0.097999774 0.05345268 -0.08835245 0.008709167 -0.074703984 0.1490162 -0.08355207

network_body._body_endoder.seq_layers.2.bias f4 [128]
00000000: 0000 0000 0000 0000 0000 0000 0000 0000
00000010: 0000 0000 0000 0000 0000 0000 0000 0000
00000020: 0000 0000 0000 0000 0000 0000 0000 0000
00000030: 0000 0000 0000 0000 0000 0000 0000 0000
00000040: 0000 0000 0000 0000 0000 0000 0000 0000
00000050: 0000 0000 0000 0000 0000 0000 0000 0000
00000060: 0000 0000 0000 0000 0000 0000 0000 0000
00000070: 0000 0000 0000 0000 0000 0000 0000 0000
00000080: 0000 0000 0000 0000 0000 0000 0000 0000
00000090: 0000 0000 0000 0000 0000 0000 0000 0000
000000a0: 0000 0000 0000 0000 0000 0000 0000 0000
000000b0: 0000 0000 0000 0000 0000 0000 0000 0000
000000c0: 0000 0000 0000 0000 0000 0000 0000 0000
000000d0: 0000 0000 0000 0000 0000 0000 0000 0000
000000e0: 0000 0000 0000 0000 0000 0000 0000 0000
000000f0: 0000 0000 0000 0000 0000 0000 0000 0000
00000100: 0000 0000 0000 0000 0000 0000 0000 0000
00000110: 0000 0000 0000 0000 0000 0000 0000 0000
00000120: 0000 0000 0000 0000 0000 0000 0000 0000
00000130: 0000 0000 0000 0000 0000 0000 0000 0000
00000140: 0000 0000 0000 0000 0000 0000 0000 0000
00000150: 0000 0000 0000 0000 0000 0000 0000 0000
00000160: 0000 0000 0000 0000 0000 0000 0000 0000
00000170: 0000 0000 0000 0000 0000 0000 0000 0000
00000180: 0000 0000 0000 0000 0000 0000 0000 0000
00000190: 0000 0000 0000 0000 0000 0000 0000 0000
000001a0: 0000 0000 0000 0000 0000 0000 0000 0000
000001b0: 0000 0000 0000 0000 0000 0000 0000 0000
000001c0: 0000 0000 0000 0000 0000 0000 0000 0000
000001d0: 0000 0000 0000 0000 0000 0000 0000 0000
000001e0: 0000 0000 0000 0000 0000 0000 0000 0000
000001f0: 0000 0000 0000 0000 0000 0000 0000 0000
0.0 0.0 0.0 0.0 0.0 0.0 0.0 0.0
0.0 0.0 0.0 0.0 0.0 0.0 0.0 0.0
0.0 0.0 0.0 0.0 0.0 0.0 0.0 0.0
0.0 0.0 0.0 0.0 0.0 0.0 0.0 0.0
0.0 0.0 0.0 0.0 0.0 0.0 0.0 0.0
0.0 0.0 0.0 0.0 0.0 0.0 0.0 0.0
0.0 0.0 0.0 0.0 0.0 0.0 0.0 0.0
0.0 0.0 0.0 0.0 0.0 0.0 0.0 0.0
0.0 0.0 0.0 0.0 0.0 0.0 0.0 0.0
0.0 0.0 0.0 0.0 0.0 0.0 0.0 0.0
0.0 0.0 0.0 0.0 0.0 0.0 0.0 0.0
0.0 0.0 0.0 0.0 0.0 0.0 0.0 0.0
0.0 0.0 0.0 0.0 0.0 0.0 0.0 0.0
0.0 0.0 0.0 0.0 0.0 0.0 0.0 0.0
0.0 0.0 0.0 0.0 0.0 0.0 0.0 0.0
0.0 0.0 0.0 0.0 0.0 0.0 0.0 0.0

action_model._discrete_distribution.branches.0.weight f4 [1, 128]
00000000: c655 213c 4bec 86ba 9e3c 30bc 2b6f 843b
00000010: d548 0c3b 7b97 513a e5cb ccba 0ffa 7eba
00000020: 7b81 183b a9f9 92bb b271 9ebb a753 72b9
00000030: 774a fd3a 47fe 89bc e73b 36bc 1b86 d33b
00000040: b5f6 e1ba 2397 3a3b f88f 413c c7fe 5ebc
00000050: 6800 0fbb 8784 5b3c dfa8 3b3b 3b6b 3f3c
00000060: 2416 a73b ba6e b7bb 6bd3 17bb 6dec ab3b
00000070: 7969 1dbc 731e e4ba 8f0b dd3a ba5c b93b
00000080: 8c77 343c 49f8 13bb 7818 ef3b 6f27 563b
00000090: 49b2 9ebb 3adc 1a3c b37a 103b 1bae 263a
000000a0: 2160 3fbc 2f61 c13a d011 b13b ae40 86bb
000000b0: 58ee cc3a 8f11 c5bb d8a4 143c 73c0 aebb
000000c0: 62be acbb b0b3 09ba 420c b33b fd42 4dbc
000000d0: 0c6d 9b3c 172f 8d3a 3fc9 29bb 596c 8fbb
000000e0: c709 053c efe3 793c ead6 083c 6664 c9bb
000000f0: 234a c73b f0ec 58bc 3260 d7bb e226 873a
00000100: 0fa4 31b9 2185 c8bb 07d9 89ba 6530 e5bb
00000110: 5ae5 523c 2c01 9f38 736a c93b 07bc 913b
00000120: c00f b0bb 6009 b1bb 9254 db3b f540 893c
00000130: 9061 053b 8ef7 4b3c 2201 e3ba cb98 fb3b
00000140: bd0a a2ba 54a6 a13b c50d 2e3c 678a 05bc
00000150: ef74 bd3b 371d b3bc 48b9 10bc cfb9 7b3b
00000160: 447f 3ebc c56e 24bb 0a43 df3a 8749 5ebc
00000170: 4f24 d73a f7f1 01bc cf7f 993b 3bbe fa3b
00000180: 8f84 3abc a692 c13b 8b5e 263c 17c0 f23b
00000190: df34 37bb 0375 01bc 8059 703b aada 70bc
000001a0: 67fd be3b ecd3 a8b9 d3a1 b1bc af15 2ebc
000001b0: 1393 6cbb 9b11 27bb 1dd5 cf3b f536 933b
000001c0: d41d 21bb 6eb7 a5bb cae8 523c 8556 75bc
000001d0: 5702 4abb 43e4 b43b b702 783c 0078 cd3a
000001e0: 80d8 2e3b 9327 a4bc 0bb0 4e3c 9dc5 de3a
000001f0: a710 143c 4ca0 ae3b 7f6b 673a f7f9 84bc
0.00984711 -0.001029381 -0.01075664 0.0040415726 0.0021405716 0.00079952896 -0.001562473 -0.00097265927
0.0023270536 -0.004485328 -0.004835331 -0.00023110081 0.001932456 -0.016844882 -0.01112268 0.0064551956
-0.0017239662 0.0028471432 0.01181411 -0.013610548 -0.002182031 0.013398296 0.002863459 0.011683281
0.005099075 -0.0055979164 -0.0023166786 0.00524669 -0.009607666 -0.0017404094 0.0016864407 0.005656806
0.01101483 -0.002257841 0.007296618 0.0032677313 -0.0048430306 0.00945192 0.002204579 0.0006358341
-0.011680634 0.0014753694 0.0054037347 -0.004097066 0.0015634997 -0.006014056 0.009072505 -0.0053330003
-0.005271719 -0.0005252911 0.0054641077 -0.012528178 0.018972896 0.001077148 -0.0025907306 -0.0043769297
0.008120007 0.0152520975 0.008352021 -0.0061460016 0.006081836 -0.013240084 -0.0065727467 0.0010311271
-0.00016941152 -0.006119386 -0.001051695 -0.0069942945 0.0128720645 7.581929e-05 0.006146723 0.0044474634
-0.0053729713 -0.005402729 0.006693431 0.016754607 0.0020352341 0.012449158 -0.0017319063 0.0076781265
-0.0012362819 0.004933158 0.0106234 -0.0081506735 0.005781762 -0.021864517 -0.008833237 0.003841031
-0.011627022 -0.0025090438 0.0017033529 -0.013567335 0.0016414019 -0.007931224 0.0046844254 0.007652072
-0.0113841435 0.0059073744 0.010154377 0.007408153 -0.0027955098 -0.007901433 0.003667444 -0.014700571
0.0058285478 -0.0003220135 -0.02168361 -0.010625287 -0.0036098405 -0.0025492671 0.0063425438 0.0044926354
-0.002458443 -0.005057267 0.012872884 -0.014974241 -0.0030824149 0.005520375 0.015137366 0.0015676022
0.0026679337 -0.020038402 0.012615214 0.0016996149 0.009037173 0.0053291675 0.0008827969 -0.016232474

network_body._body_endoder.seq_layers.0.weight f4 [128, 1]
00000000: f20a 693f 8e66 643f 6cf3 2fbf 043f 1d3e
00000010: 4b70 b53e 8ed6 0cbf fc34 70bf df6f f2bd
00000020: 2052 59bf e59d e9bf e3c2 67bf eb07 b53d
00000030: 906d 963f 7262 983f be35 363f 6243 383f
00000040: e37b a23d f8d1 bc3e 762c 0fc0 5f6f a73d
00000050: da71 d93f 4dc5 123f bd6d 8e3d 5a59 a0bf
00000060: 78b6 1fbe 4f02 61bf eba7 283e 9b91 093f
00000070: 0d8f e93e 2f6f a0be bb47 52bf cb85 80be
00000080: 7410 b13e f5ca c63f 8126 cabf 1828 f1bd
00000090: a280 873d 6715 293f 5a9e 863f c507 873d
000000a0: 6795 0fbf ac35 80be af4c 81bf 5da7 a5bf
000000b0: 8f69 14c0 024d 91bf 5163 0d40 675c d1bf
000000c0: a862 ea3e 0b68 de3d ef38 6a3f f3be 60bf
000000d0: 8cc0 3d40 dcdf c93b 95bf aabf 7239 a43e
000000e0: 7695 1ebf 8df8 7cbf 6541 c73e 5e6a 103f
000000f0: 30a0 2cbf 1417 3bbe 647f 8bbf 3f0f ca3e
00000100: 9a8e 903f d10d aebf c866 95bf 37ed d83e
00000110: 507f ebbe 56ce 3abf 77f8 74bf f7da 9e3e
00000120: 4421 89bf 0367 123f 085a f3bf 5be0 273f
00000130: 690e 23bf d94b fd3f 90f3 0f3f 058f 38bf
00000140: 3106 79bf 9ef7 d63e 1edd f03e 5b4c afbd
00000150: fdbb 2b3e 979e 2b40 4df0 d23d afd4 85bd
00000160: 2505 64bf b73e bf3d 1717 afbf 33cf b33f
00000170: 4c31 9fbe 853c 6c3f b6cb 433f 4dd3 413f
00000180: f75d 083f 647b bdbe e9cd 143f 9016 eb3e
00000190: e484 d0be 5100 133f ee15 acbf ecbb 203f
000001a0: 0d5c ac3e 0641 17c0 623a ff3e 2268 153f
000001b0: 3e00 7f3f a7fa 203e 40a2 923f b97a fb3f
000001c0: d633 d63f 2aef a1bf f270 ca3f 7e16 b13f
000001d0: d1ac 06be 524c 463f 7c6b 173f 096e 3fbd
000001e0: 6513 7b3f f68b 773f ea1f c7bd 0759 26bf
000001f0: 49cf 933e 23af 83bf 822d 9bbd 8778 ca3e
0.91032326 0.89218986 -0.6873081 0.1535607 0.35437235 -0.55014884 -0.9383085 -0.11837744
-0.8489094 -1.825131 -0.9053175 0.08839401 1.1752186 1.1905043 0.71175754 0.7197782
0.07933786 0.36878943 -2.2370887 0.08175539 1.698787 0.5733231 0.06954525 -1.2527268
-0.1559695 -0.8789415 0.16470306 0.537378 0.45616952 -0.31334826 -0.821407 -0.25102076
0.34582865 1.5530688 -1.5793 -0.117752254 0.06616332 0.6604828 1.0517075 0.06593279
-0.56087345 -0.25040948 -1.0101527 -1.29417 -2.3189428 -1.1351626 2.2091868 -1.6356324
0.45778394 0.10859688 0.91493124 -0.87791365 2.9648771 0.0061607193 -1.3339716 0.32075077
-0.6194681 -0.9881676 0.3891708 0.56412303 -0.67431927 -0.18270522 -1.0898252 0.39464757
1.1293519 -1.3597966 -1.1671991 0.4236848 -0.4599557 -0.72971094 -0.9569163 0.31026432
-1.0713277 0.57188433 -1.901185 0.65576714 -0.63693863 1.9788772 0.5623102 -0.7209323
-0.9727507 0.41985792 0.470437 -0.085594855 0.1677093 2.6815546 0.1029974 -0.06534707
-0.8907035 0.09338134 -1.3678921 1.4047607 -0.31092298 0.92279845 0.76482713 0.75713044
0.5326838 -0.37008202 0.58126694 0.4591565 -0.40726388 0.5742236 -1.3444192 0.62786746
0.3366398 -2.3633437 0.4984923 0.5836202 0.99609745 0.15720616 1.1455765 1.9646827
1.6734569 -1.2651112 1.5815718 1.3834989 -0.13151862 0.77460206 0.59148383 -0.046735797
0.9807647 0.9669794 -0.09722884 -0.64979595 0.28869084 -1.0287822 -0.07577039 0.3954508

network_body._body_endoder.seq_layers.0.bias f4 [128]
00000000: 0000 0000 0000 0000 0000 0000 0000 0000
00000010: 0000 0000 0000 0000 0000 0000 0000 0000
00000020: 0000 0000 0000 0000 0000 0000 0000 0000
00000030: 0000 0000 0000 0000 0000 0000 0000 0000
00000040: 0000 0000 0000 0000 0000 0000 0000 0000
00000050: 0000 0000 0000 0000 0000 0000 0000 0000
00000060: 0000 0000 0000 0000 0000 0000 0000 0000
00000070: 0000 0000 0000 0000 0000 0000 0000 0000
00000080: 0000 0000 0000 0000 0000 0000 0000 0000
00000090: 0000 0000 0000 0000 0000 0000 0000 0000
000000a0: 0000 0000 0000 0000 0000 0000 0000 0000
000000b0: 0000 0000 0000 0000 0000 0000 0000 0000
000000c0: 0000 0000 0000 0000 0000 0000 0000 0000
000000d0: 0000 0000 0000 0000 0000 0000 0000 0000
000000e0: 0000 0000 0000 0000 0000 0000 0000 0000
000000f0: 0000 0000 0000 0000 0000 0000 0000 0000
00000100: 0000 0000 0000 0000 0000 0000 0000 0000
00000110: 0000 0000 0000 0000 0000 0000 0000 0000
00000120: 0000 0000 0000 0000 0000 0000 0000 0000
00000130: 0000 0000 0000 0000 0000 0000 0000 0000
00000140: 0000 0000 0000 0000 0000 0000 0000 0000
00000150: 0000 0000 0000 0000 0000 0000 0000 0000
00000160: 0000 0000 0000 0000 0000 0000 0000 0000
00000170: 0000 0000 0000 0000 0000 0000 0000 0000
00000180: 0000 0000 0000 0000 0000 0000 0000 0000
00000190: 0000 0000 0000 0000 0000 0000 0000 0000
000001a0: 0000 0000 0000 0000 0000 0000 0000 0000
000001b0: 0000 0000 0000 0000 0000 0000 0000 0000
000001c0: 0000 0000 0000 0000 0000 0000 0000 0000
000001d0: 0000 0000 0000 0000 0000 0000 0000 0000
000001e0: 0000 0000 0000 0000 0000 0000 0000 0000
000001f0: 0000 0000 0000 0000 0000 0000 0000 0000
0.0 0.0 0.0 0.0 0.0 0.0 0.0 0.0
0.0 0.0 0.0 0.0 0.0 0.0 0.0 0.0
0.0 0.0 0.0 0.0 0.0 0.0 0.0 0.0
0.0 0.0 0.0 0.0 0.0 0.0 0.0 0.0
0.0 0.0 0.0 0.0 0.0 0.0 0.0 0.0
0.0 0.0 0.0 0.0 0.0 0.0 0.0 0.0
0.0 0.0 0.0 0.0 0.0 0.0 0.0 0.0
0.0 0.0 0.0 0.0 0.0 0.0 0.0 0.0
0.0 0.0 0.0 0.0 0.0 0.0 0.0 0.0
0.0 0.0 0.0 0.0 0.0 0.0 0.0 0.0
0.0 0.0 0.0 0.0 0.0 0.0 0.0 0.0
0.0 0.0 0.0 0.0 0.0 0.0 0.0 0.0
0.0 0.0 0.0 0.0 0.0 0.0 0.0 0.0
0.0 0.0 0.0 0.0 0.0 0.0 0.0 0.0
0.0 0.0 0.0 0.0 0.0 0.0 0.0 0.0
0.0 0.0 0.0 0.0 0.0 0.0 0.0 0.0

network_body._body_endoder.seq_layers.2.weight f4 [128, 128]
00000000: 745f 5c3c 821c 03bd 9b8b a2bd f313 ce3c
00000010: 4a7d 2e3d e075 1fbe f51c df3c 4a91 16be
00000020: 90ba a63d 0479 1f3c ea26 903d 4c47 f53b
00000030: 8f02 b33d 7ac3 dcbb d104 c73d f547 53bd
00000040: 4c1a 9dbd fe49 c6bc b1a7 27bd f14a 34be
00000050: 8bc6 99bc 990a 143e 365e e1bc c957 ff3c
00000060: 8a77 e2bd d000 c73d cf5b 34bb e950 8abc
00000070: cef0 05bd 4fc7 5d3d 3fe3 c83a d1c9 4b3d
00000080: 980f 8ebc 77e8 013d 3bdc a83c f2d2 163c
00000090: b2ee a83e b764 e3bd e068 be3c c020 ab3d
000000a0: 43f9 053d c01c 68bc f4e2 933d f3e9 b9bc
000000b0: 6103 72bd 6f05 0ebc 56c1 2a3d 5c46 913d
000000c0: 7dad 6d3c 189e 083e 0e46 243e 9f2b 033e
000000d0: 09a8 f0bd f5bb e23d d9bd aa3d 0d8e 163e
000000e0: 7639 783e 4ddf 7ebd ea99 3f3d c343 ce3d
000000f0: 06b9 123d 1043 5d3d ad5a f7bd 8514 e8bd
00000100: 7198 5f3d 7051 483d bd9b 3dbd f60c 34bc
00000110: cb8f bdbd 6ac8 97bd 697c a6bc 881d 7cbd
00000120: a94e 723d b6b6 85bd 9151 883d 5e4e 983d
00000130: 4268 b53d 455c 68bd 2696 08bd ae84 debb
00000140: b2c4 523d 9aae 01be 197f 113e 227f 1f3e
00000150: 5a8b 053d d025 843c c974 a9bc a278 143e
00000160: 24c3 613d 7e5b 103d b4df 933d 1708 563d
00000170: 08d4 d8bc 7584 7a3d b064 91bc 1775 7abc
00000180: 4cba 12be 67ed 103c 072a ac3b 67eb 85bc
00000190: 0ca0 e7bc e263 a8bb 9ee0 9a3d e41b 693d
000001a0: d5c8 1fbd c5bb f2bd fbb5 143e bce1 d13c
000001b0: 62a8 70bd 6c21 123d db90 6fbd 4e9e b3bc
000001c0: 2ec1 213d f59f 04be 9736 8d3b 5398 bfbd
000001d0: 1b1f febd a98a cdbb 5c23 c7bd 42ea 973c
000001e0: b4aa bdbd 64fb f13d 2b86 93bc 9cc8 f5bd
000001f0: 8438 d53c 9b0e 903d cc03 e8bd ea92 f53c
00000200: 6c84 b8bc aa90 9cbc 6675 cf3c e11d 99bc
00000210: 401b 0f3e e7f9 d03c 74dc f73d 887c 6a3c
00000220: c6fb 123e 9920 5fbe 13dc 593d d885 083c
00000230: 10ff 8a3c 0b08 c83c e572 b6bc b10c c2bd
00000240: 9124 723d 974f 7dbd 4ffa 173e cd6e 85bd
00000250: 7f56 c5bc 8086 a2bc 97d4 26be a62b aa3d
00000260: bd5d 59bd 033b ce3d 2d67 8ebb 4d4a 9e3c
00000270: 4dfe 3ebe a9dc 9abd 10f7 153e 946f d6bd
00000280: 4ffe 553a 388b d6bd dd35 0d3e ec22 ef3d
00000290: 8df0 e93d 99ff e93c 4272 2fbd 0ce7 823c
000002a0: 3fa3 47be bea4 933d d0ea 203b 4823 5d3c
000002b0: 4a84 f1bd abcb 24be 37eb eebc 6413 893d
000002c0: a205 a43d c851 15bd 2c09 643b 8e48 a2bd
000002d0: 30a1 7b3c 0f65 e9bc 79ff ff3c 07e8 d63d
000002e0: 4b57 48bb bc27 32bc fcff 9ebc c8c7 083d
000002f0: 7256 293d f57a e73d c0b6 bc3c dc46 243d
00000300: 1414 1ebd b710 b73d b393 e9bd b555 983c
00000310: 241f 893c 024b a0bd 0977 d63d fc1d 8d3d
00000320: 4068 e6bc 6858 05be 34ff 9f3c 5a48 223e
00000330: e7d6 d93d 68e5 1d3e 5877 7d3c 74fd b7bc
00000340: f298 04be f66c b43d eaae b93d 637a bd3d
00000350: a766 90bc 7014 58bc d239 0abe abc8 c33d
00000360: 1a24 bdbd 0e60 75bc 267a 423d 5503 023e
00000370: 10a7 943d 7304 fe3a 1b3b ce3d 1959 6abd
00000380: e0c7 c2bb cf1a 1a3e f6a9 1d3d c3e2 c2bd
00000390: c5c6 b63d 7b03 3d3c e7a6 adbc feff 9ebd
000003a0: 935a 03be c345 40bd fd49 8fbd 5a02 82bc
000003b0: 07fe 013d 3091 b23d b1d4 113e 2f62 fabd
000003c0: 2432 0ebd 5f8e c8bd 8874 3f3e 4211 25bd
000003d0: 15e3 693d 489e 803d 160b 4c3e d360 8f3d
000003e0: 9c21 27be 1143 31bd 1681 653d cd4a 933d
000003f0: 4f15 a93d a19b a3bd ca47 3dbd 41d6 0c3e
0.013450492 -0.03200961 -0.07936784 0.025155997 0.042599954 -0.1557231 0.027235487 -0.14703861
0.08141053 0.009733442 0.07038672 0.007485306 0.087407224 -0.00673717 0.097177155 -0.051582295
-0.07671031 -0.024205204 -0.040931407 -0.17606713 -0.01877143 0.14457168 -0.027510744 0.031169789
-0.110579565 0.09716952 -0.0027520542 -0.016884284 -0.032700352 0.054145154 0.0015326514 0.049753014
-0.01734142 0.031715836 0.020612827 0.009205567 0.3299461 -0.11103194 0.023243368 0.08355856
0.032708418 -0.014167011 0.07221022 -0.022694563 -0.059085254 -0.008668288 0.041688286 0.07093498
0.014506695 0.13341558 0.16042349 0.12809609 -0.117508 0.11071006 0.08336992 0.14702626
0.2424067 -0.062224675 0.046777643 0.10071518 0.035820983 0.054019034 -0.12077842 -0.11332039
0.05458874 0.04890579 -0.0462911 -0.010989418 -0.09255942 -0.07411273 -0.020322995 -0.0615516
0.059157047 -0.0652899 0.066561826 0.07436822 0.08857776 -0.05672862 -0.033346318 -0.006790719
0.051457115 -0.12664261 0.1420864 0.15575841 0.0326036 0.016131312 -0.02068557 0.14499143
0.05511774 0.035243504 0.07220402 0.05225381 -0.026468292 0.061161477 -0.017748207 -0.015286705
-0.14328879 0.008845664 0.0052540335 -0.0163476 -0.028274558 -0.00513886 0.075623736 0.056911364
-0.039009888 -0.118522204 0.14522545 0.025620334 -0.058754332 0.035676405 -0.058487754 -0.021926071
0.03949087 -0.12951644 0.004309486 -0.093552254 -0.12408277 -0.006272633 -0.09723541 0.01854432
-0.09261075 0.11815527 -0.018008312 -0.12001154 0.026027925 0.07034036 -0.11328849 0.02997728
-0.022524081 -0.01911195 0.025324535 -0.018691005 0.13975239 0.025509788 0.12102595 0.014311917
0.14353856 -0.21789779 0.053188395 0.008332692 0.016967326 0.024417898 -0.022271583 -0.09475077
0.059116904 -0.06184348 0.14841579 -0.06515274 -0.024089096 -0.019839525 -0.16292034 0.083091065
-0.05306791 0.10069849 -0.0043457956 0.019322539 -0.18651696 -0.07561619 0.14645028 -0.104705006
0.00081632 -0.104757726 0.13790078 0.11676583 0.114228345 0.028564261 -0.042833574 0.015979312
-0.19495867 0.072091565 0.0024554022 0.013497181 -0.1179281 -0.16093318 -0.029164894 0.066931516
0.08008887 -0.036454946 0.0034795506 -0.07923995 0.015358254 -0.028490571 0.031249749 0.104934745
-0.0030569609 -0.010873731 -0.019409172 0.03339365 0.041342206 0.11302749 0.02303636 0.04010664
-0.038593367 0.08938735 -0.114051245 0.018595556 0.016738482 -0.078268066 0.10471923 0.06890485
-0.028125882 -0.13022006 0.01953087 0.15847912 0.106366925 0.15419543 0.015470348 -0.022459723
-0.12948969 0.08809845 0.09066565 0.09251859 -0.017627073 -0.013188466 -0.13498619 0.09559759
-0.092354015 -0.0149765145 0.04747977 0.12696584 0.07258427 0.0019379988 0.10069867 -0.057213876
-0.005944237 0.15049289 0.038492166 -0.095159076 0.08924631 0.011536474 -0.02119775 -0.077636704
-0.1282752 -0.04694153 -0.06996534 -0.015870262 0.0317364 0.087190986 0.14241292 -0.12225758
-0.034715787 -0.0979278 0.18696797 -0.04029966 0.057101328 0.0628019 0.19926104 0.0700089
-0.16321415 -0.04327685 0.05603131 0.071920015 0.082560174 -0.07988668 -0.04621104 0.13753606

network_body._body_endoder.seq_layers.2.bias f4 [128]
00000000: 0000 0000 0000 0000 0000 0000 0000 0000
00000010: 0000 0000 0000 0000 0000 0000 0000 0000
00000020: 0000 0000 0000 0000 0000 0000 0000 0000
00000030: 0000 0000 0000 0000 0000 0000 0000 0000
00000040: 0000 0000 0000 0000 0000 0000 0000 0000
00000050: 0000 0000 0000 0000 0000 0000 0000 0000
00000060: 0000 0000 0000 0000 0000 0000 0000 0000
00000070: 0000 0000 0000 0000 0000 0000 0000 0000
00000080: 0000 0000 0000 0000 0000 0000 0000 0000
00000090: 0000 0000 0000 0000 0000 0000 0000 0000
000000a0: 0000 0000 0000 0000 0000 0000 0000 0000
000000b0: 0000 0000 0000 0000 0000 0000 0000 0000
000000c0: 0000 0000 0000 0000 0000 0000 0000 0000
000000d0: 0000 0000 0000 0000 0000 0000 0000 0000
000000e0: 0000 0000 0000 0000 0000 0000 0000 0000
000000f0: 0000 0000 0000 0000 0000 0000 0000 0000
00000100: 0000 0000 0000 0000 0000 0000 0000 0000
00000110: 0000 0000 0000 0000 0000 0000 0000 0000
00000120: 0000 0000 0000 0000 0000 0000 0000 0000
00000130: 0000 0000 0000 0000 0000 0000 0000 0000
00000140: 0000 0000 0000 0000 0000 0000 0000 0000
00000150: 0000 0000 0000 0000 0000 0000 0000 0000
00000160: 0000 0000 0000 0000 0000 0000 0000 0000
00000170: 0000 0000 0000 0000 0000 0000 0000 0000
00000180: 0000 0000 0000 0000 0000 0000 0000 0000
00000190: 0000 0000 0000 0000 0000 0000 0000 0000
000001a0: 0000 0000 0000 0000 0000 0000 0000 0000
000001b0: 0000 0000 0000 0000 0000 0000 0000 0000
000001c0: 0000 0000 0000 0000 0000 0000 0000 0000
000001d0: 0000 0000 0000 0000 0000 0000 0000 0000
000001e0: 0000 0000 0000 0000 0000 0000 0000 0000
000001f0: 0000 0000 0000 0000 0000 0000 0000 0000
0.0 0.0 0.0 0.0 0.0 0.0 0.0 0.0
0.0 0.0 0.0 0.0 0.0 0.0 0.0 0.0
0.0 0.0 0.0 0.0 0.0 0.0 0.0 0.0
0.0 0.0 0.0 0.0 0.0 0.0 0.0 0.0
0.0 0.0 0.0 0.0 0.0 0.0 0.0 0.0
0.0 0.0 0.0 0.0 0.0 0.0 0.0 0.0
0.0 0.0 0.0 0.0 0.0 0.0 0.0 0.0
0.0 0.0 0.0 0.0 0.0 0.0 0.0 0.0
0.0 0.0 0.0 0.0 0.0 0.0 0.0 0.0
0.0 0.0 0.0 0.0 0.0 0.0 0.0 0.0
0.0 0.0 0.0 0.0 0.0 0.0 0.0 0.0
0.0 0.0 0.0 0.0 0.0 0.0 0.0 0.0
0.0 0.0 0.0 0.0 0.0 0.0 0.0 0.0
0.0 0.0 0.0 0.0 0.0 0.0 0.0 0.0
0.0 0.0 0.0 0.0 0.0 0.0 0.0 0.0
0.0 0.0 0.0 0.0 0.0 0.0 0.0 0.0

value_heads.value_heads.extrinsic.weight f4 [1, 128]
00000000: 5c9f 5abe e1ea 2abe b455 953d b042 e33d
00000010: c012 de3d 5ec8 54be bc40 e53d f408 e73d
00000020: 78c7 ef3c fe0e 503e fa0a 0bbe 5640 173e
00000030: fb2f 36be f0bc 033c dcf9 4f3e 024d 1fbe
00000040: d4ca 0bbe 5447 883d e1da 41be b47e d83d
00000050: 2435 55be fe6e 1bbe 9a3b 183e 75d8 4abe
00000060: 0041 023a 66e2 11be 804b e5bd 9814 2d3d
00000070: 90ce 6cbd 34aa 42be 5038 e83d f447 0c3e
00000080: fcd2 aebd 18f5 e63c a445 16be 67e0 bfbd
00000090: a1a4 c6bd 20a9 75bc 5a66 b7bd eaab 55be
000000a0: a0e4 833b fe27 203e b0e6 3ebe ec5d f3bd
000000b0: d8e1 5e3d e06a 143e fd41 5cbe 3003 9f3d
000000c0: 8ae5 86bd 208c 3fbd f88e f9bc 88d3 44be
000000d0: 7806 8b3c e62a d1bd e883 41bd bc38 ed3d
000000e0: 0464 9d3d a081 87bb 3e73 98bd 104e 00bc
000000f0: 2a7c 99bd 4009 593c 5861 dcbc 309d 393c
00000100: 02b8 3c3e c8c6 15bd a304 45be cebf 133e
00000110: 8ee0 2e3e c026 db3b a814 3b3e 0061 24ba
00000120: 44aa 1e3e 4402 083d 1bae f4bd 94f7 a0bd
00000130: e43b 0abe 708b f8bc 1448 5cbe 00c4 2bba
00000140: 95cc 55be 98ca 0dbe 38b0 883c 2c8c a83d
00000150: d45c 303e 1845 703d bcde 383e 1826 1bbe
00000160: 84f5 d33d ccc1 453e 48ef ff3d a889 be3c
00000170: 2015 6d3d 28d4 623d e8fa ffbd 481e 41bd
00000180: b4a6 b43d 1422 1bbe 7cba 3abe 40f3 613b
00000190: 783b f93d 18a2 f93d 5632 cfbd 983a 953d
000001a0: a045 6fbd 33da 51be 02d5 093e 947a 63bd
000001b0: 84f9 553e 6646 35be 955a f0bd 4c36 ad3d
000001c0: aa21 2d3e 4033 1d3e 8eb8 3d3e 200f f8bb
000001d0: b06d 7b3d 1801 acbd 30be a2bd d49f d43d
000001e0: e0ff 97bc ae3a acbd de66 26be 0c03 333e
000001f0: c05a adbc c032 e83c 26ce 8fbd 5055 6f3d
-0.21349853 -0.16691162 0.07291737 0.11096704 0.1084342 -0.20779559 0.11193988 0.112810045
0.029269919 0.20318219 -0.13578406 0.14770636 -0.1779174 0.008040652 0.20310158 -0.1555672
-0.13651592 0.0665423 -0.18931152 0.10571042 -0.20821053 -0.15179059 0.14866486 -0.19809134
0.0004968792 -0.1424652 -0.11196041 0.042255968 -0.05781418 -0.1901024 0.11338866 0.13699323
-0.08536336 0.028193042 -0.14675003 -0.09368973 -0.09699369 -0.014993936 -0.08955069 -0.20866361
0.004025057 0.15640256 -0.18642688 -0.118831486 0.0544146 0.14493895 -0.21509548 0.0776428
-0.0658675 -0.046764493 -0.03046368 -0.19221318 0.016970858 -0.1021326 -0.047244936 0.11583087
0.07685092 -0.0041353256 -0.07443856 -0.007831112 -0.074943855 0.013246834 -0.026901886 0.01132898
0.18429568 -0.036566526 -0.1924005 0.14428636 0.17077848 0.006687969 0.18269598 -0.00062705576
0.15494639 0.033205286 -0.119472705 -0.07859722 -0.13499409 -0.030339926 -0.2151187 -0.00065523386
-0.20878823 -0.13846815 0.01668559 0.08229861 0.17222911 0.058659643 0.18053716 -0.1515125
0.10349563 0.19312209 0.12496811 0.023258999 0.057881474 0.05537811 -0.124990284 -0.04714802
0.088208586 -0.15149719 -0.182352 0.0034477264 0.12169546 0.1218912 -0.10117023 0.072865665
-0.05841601 -0.20493393 0.13460162 -0.05553682 0.20895964 -0.17702636 -0.11736027 0.08457622
0.16907373 0.15351582 0.18527433 -0.0075701624 0.061383903 -0.08398646 -0.07946432 0.10382047
-0.018554628 -0.0840963 -0.16250178 0.17481631 -0.021161437 0.028344512 -0.070217416 0.05843097
