results/ppo/My Behavior/My Behavior-1209.pt (torch, 147363 bytes, 14 tensors)

network_body._body_endoder.seq_layers.0.weight f4 [128, 1]
00000000: ab44 29bf 6460 d83e 6891 993f 75ca ad3f
00000010: 0d14 9d3e e132 b4bb 0177 eabc b1fd a4be
00000020: bf7b 2dbf b621 0cbf d9a9 1d3f 84ce 523f
00000030: 6e84 9dbe 2a7a b2bf ae27 07c0 1bbd dd3f
00000040: d250 663e f90f 3b3f 96a5 393f c737 d53f
00000050: db3b b4bf 893f bebd 20e2 0a3c c819 ecbe
00000060: a734 93bf c6d5 b33c bc22 9abf 9553 81be
00000070: 18c9 0bc0 095a a9be 8a69 9b3e 88f3 83bf
00000080: 1913 3dc0 3dcb 193f 1484 473f 9e68 dcbf
00000090: e384 e4be b8c9 e63e fb4c 3b3f b674 1640
000000a0: 316d 1340 ecdd 9f3e 95d4 c43e ddb7 8d3f
000000b0: 0d87 e4be 9d37 9fbf 7e0c 063f 0ea9 1dc0
000000c0: e0c1 a1bd d4e7 28bf 5d47 cc3e 1558 b33f
000000d0: 8ac3 47bf d9be f9be a653 2ebe 6448 afbf
000000e0: bff9 1a3f 367b 9dbf db2f afbf 839e 8abf
000000f0: cfcb 833f 23b8 393f 9e0c 813f b20d 563f
00000100: 08ae fb3e 1920 63bf b0b9 80bf c301 cfbf
00000110: 26d2 fabf 870f ec39 289e b63e ba71 93bf
00000120: 2d56 cebe e54a 153f 38cd cabd 63d0 1a3f
00000130: 8ed0 0a40 d30d 7cbf 9911 4b3f a8cd b43d
00000140: 5d68 d5bf f5f3 50bf c0ce d03f 5cbf 85be
00000150: 6071 0540 6a65 04be 9400 fe3e 3ce5 fdbe
00000160: 6040 90bf a5b2 d2bf f86a af3f 71da 8b3f
00000170: 3b78 a6bf afef 0e3f 0254 0e3f 7e0b 1c3e
00000180: 34d9 8c3e 973d 383f 3809 50bf e91c 59bd
00000190: 8a6a 873f eced 8f3f c7e3 febe 9611 613f
000001a0: 7a47 93bf 1179 19bf 93df 883f ced9 71bf
000001b0: ff79 603f bc28 93be a174 c83f b350 fb3c
000001c0: 7ef7 1f3f 6079 073f 031d df3f 603b efbc
000001d0: 0b82 58be de42 9dbf 7c59 1dbe 54a1 883f
000001e0: ad65 87be eb32 f53f ccb1 d9bf a25a 4dbf
000001f0: 0aa4 953d d020 29bf 7af2 143e 113e 293f
-0.66120404 0.4226104 1.19975 1.357741 0.3067936 -0.0054992293 -0.028621199 -0.322248
-0.67766947 -0.5473894 0.6158729 0.8234637 -0.30765098 -1.3943532 -2.1117969 1.7323335
0.22491768 0.7307125 0.7251829 1.6657647 -1.4080766 -0.09289462 0.008476764 -0.4611342
-1.1500443 0.021952521 -1.204185 -0.2525908 -2.1841488 -0.33076504 0.30353957 -1.0308695
-2.9542906 0.6007574 0.7793591 -1.7219427 -0.44632635 0.45075774 0.7316434 2.3508735
2.3035395 0.31224 0.38443437 1.1071736 -0.44634286 -1.2438847 0.5236281 -2.4634433
-0.07898307 -0.6597874 0.39898196 1.4011256 -0.78032744 -0.48778418 -0.17024097 -1.3693967
0.6053733 -1.2303226 -1.3686479 -1.0829624 1.0296572 0.72546595 1.0081975 0.8361465
0.49156213 -0.8872085 -1.0056667 -1.6172413 -1.9595382 0.00045024997 0.3566754 -1.1519082
-0.40300122 0.58317405 -0.099024236 0.6047422 2.1689792 -0.98458594 0.79323727 0.08828288
-1.6672474 -0.8162225 1.6313095 -0.26122558 2.0850449 -0.12929311 0.49609816 -0.49588954
-1.1269646 -1.6460768 1.3704519 1.0926038 -1.3005441 0.5583448 0.55596936 0.15238759
0.27509463 0.7196898 -0.81264067 -0.053006086 1.0579388 1.1244483 -0.49783155 0.8791746
-1.1506188 -0.5995036 1.069323 -0.9447297 0.8768615 -0.28742015 1.5660592 0.030678129
0.6248702 0.5291958 1.7430729 -0.029203117 -0.21143357 -1.2286031 -0.15366167 1.0674233
-0.2644476 1.9156164 -1.7007384 -0.8021642 0.073066786 -0.6606569 0.14545622 0.6611033

network_body._body_endoder.seq_layers.0.bias f4 [128]
00000000: 0000 0000 0000 0000 0000 0000 0000 0000
00000010: 0000 0000 0000 0000 0000 0000 0000 0000
00000020: 0000 0000 0000 0000 0000 0000 0000 0000
00000030: 0000 0000 0000 0000 0000 0000 0000 0000
00000040: 0000 0000 0000 0000 0000 0000 0000 0000
00000050: 0000 0000 0000 0000 0000 0000 0000 0000
00000060: 0000 0000 0000 0000 0000 0000 0000 0000
00000070: 0000 0000 0000 0000 0000 0000 0000 0000
00000080: 0000 0000 0000 0000 0000 0000 0000 0000
00000090: 0000 0000 0000 0000 0000 0000 0000 0000
000000a0: 0000 0000 0000 0000 0000 0000 0000 0000
000000b0: 0000 0000 0000 0000 0000 0000 0000 0000
000000c0: 0000 0000 0000 0000 0000 0000 0000 0000
000000d0: 0000 0000 0000 0000 0000 0000 0000 0000
000000e0: 0000 0000 0000 0000 0000 0000 0000 0000
000000f0: 0000 0000 0000 0000 0000 0000 0000 0000
00000100: 0000 0000 0000 0000 0000 0000 0000 0000
00000110: 0000 0000 0000 0000 0000 0000 0000 0000
00000120: 0000 0000 0000 0000 0000 0000 0000 0000
00000130: 0000 0000 0000 0000 0000 0000 0000 0000
00000140: 0000 0000 0000 0000 0000 0000 0000 0000
00000150: 0000 0000 0000 0000 0000 0000 0000 0000
00000160: 0000 0000 0000 0000 0000 0000 0000 0000
00000170: 0000 0000 0000 0000 0000 0000 0000 0000
00000180: 0000 0000 0000 0000 0000 0000 0000 0000
00000190: 0000 0000 0000 0000 0000 0000 0000 0000
000001a0: 0000 0000 0000 0000 0000 0000 0000 0000
000001b0: 0000 0000 0000 0000 0000 0000 0000 0000
000001c0: 0000 0000 0000 0000 0000 0000 0000 0000
000001d0: 0000 0000 0000 0000 0000 0000 0000 0000
000001e0: 0000 0000 0000 0000 0000 0000 0000 0000
000001f0: 0000 0000 0000 0000 0000 0000 0000 0000
0.0 0.0 0.0 0.0 0.0 0.0 0.0 0.0
0.0 0.0 0.0 0.0 0.0 0.0 0.0 0.0
0.0 0.0 0.0 0.0 0.0 0.0 0.0 0.0
0.0 0.0 0.0 0.0 0.0 0.0 0.0 0.0
0.0 0.0 0.0 0.0 0.0 0.0 0.0 0.0
0.0 0.0 0.0 0.0 0.0 0.0 0.0 0.0
0.0 0.0 0.0 0.0 0.0 0.0 0.0 0.0
0.0 0.0 0.0 0.0 0.0 0.0 0.0 0.0
0.0 0.0 0.0 0.0 0.0 0.0 0.0 0.0
0.0 0.0 0.0 0.0 0.0 0.0 0.0 0.0
0.0 0.0 0.0 0.0 0.0 0.0 0.0 0.0
0.0 0.0 0.0 0.0 0.0 0.0 0.0 0.0
0.0 0.0 0.0 0.0 0.0 0.0 0.0 0.0
0.0 0.0 0.0 0.0 0.0 0.0 0.0 0.0
0.0 0.0 0.0 0.0 0.0 0.0 0.0 0.0
0.0 0.0 0.0 0.0 0.0 0.0 0.0 0.0

network_body._body_endoder.seq_layers.2.weight f4 [128, 128]
00000000: 9df4 a3bd 47f0 b93c d56b a13b 7892 a53d
00000010: 0adc 2d3d 7e3f e73d 2223 02bd 4e10 543d
00000020: e312 d9bb 569b 4c3c 85b9 943d 1119 c13d
00000030: dfe0 9bbd 6f62 20be b33a a13c b1d8 993d
00000040: 9d26 b9bd fdfb 393d a1c8 ac3d 0520 9b3d
00000050: 03ea 80bb 7eb6 fabd 956c b4bc b8db 2f3e
00000060: be58 a23a 2f16 573d c6b9 f03c 8450 c8bd
00000070: 6c26 a8bd 69f9 3bbd 7496 b83d 54d5 b13c
00000080: 66ff 0abd 9872 943d cdef 083e 8dab 05be
00000090: d740 88bd 8e5b e4bb bcb5 1bbe 335c 113c
000000a0: 76a7 84bd 1f98 02be 0ffd fa3d f1f9 8abd
000000b0: 4ff9 6bbd ff70 99bd 5efd 2d3d 3004 8a3d
000000c0: 96ca 9fbd be19 32bd cba8 8fbc 22db 413d
000000d0: 51d9 9e3d 36c3 393d 9165 fabc 51a3 433d
000000e0: 7fb8 58bd 1ebb 923d 2ca2 b9bd 8ae7 0bbb
000000f0: a5dd 223c 2d88 16bd 0423 a0bc d222 00bd
00000100: 5eda 0d3e fa19 033d 50c9 83bb dc5d ecbd
00000110: 3f88 113d 6ba5 34bd d7c3 823b f6f4 013d
00000120: 5e8b 1a3d 89f6 03bd 73b4 f0bc 49bd 0dbd
00000130: d870 cabd 3626 da3d adc5 bf3d 6a1c cf3d
00000140: dfdc a13c 53a9 293d 1806 b3bd 8f43 1c3d
00000150: 7157 3dbc 0743 cc3d 057a aebd 4f84 873e
00000160: 4666 503d a32a bd3d 9809 acbc c177 55bd
00000170: 8c05 9abe 7625 2bbc ba53 f53d b23b 34be
00000180: 44e2 4ebb c59d 4ebd d42e a4bc 0f15 1e3e
00000190: d6e4 193c 222c aebd 8fdd 9c3d ffe7 acbd
000001a0: 7931 5a3d cf26 f5bd 7a48 5c3d 1158 80bd
000001b0: 17ba 97bc c98e 48bd 479c 393d 9f8a 94bd
000001c0: 0d0f 28be c34b 4e3e 3a15 223d 0ca3 493d
000001d0: c8a4 bebc b205 013e ba9e 153e 515a e1bd
000001e0: 90fb 023e fd4a a2bc 8b30 d1bd 062b 393c
000001f0: 3fcd d33d 62d4 a9bd 207e 26be 79ee dc3d
00000200: d7a5 28bc 0fc1 433e 3795 dd3c 5b70 113e
00000210: 3ada 833e 33cb 07bd 1fd4 c83d e89c 87bc
00000220: 78c8 cc3c b0c5 d53c 2cfb 8039 9438 0d3e
00000230: d1be a63d da64 e13d bb6b ecbd 7e95 893c
00000240: e5ac 18bc 4902 af3d 7bbb d93d 9987 20bd
00000250: 1912 083c c1ac 00bd b3cf 433d a0f7 b13d
00000260: ad9b 9d3c 918e 8a3c 98aa a13c 9a21 d2bd
00000270: 492b 2fbd b860 f0bd 29f3 8f3c 2b40 163d
00000280: f73d 113d 4c8e b03d de0d 8dbd e28d ec3d
00000290: 8e7c 99bd 84f5 5f3d c948 433d ab69 893d
000002a0: a27b e13c 370a d13d 14ea 183d 3026 603e
000002b0: e718 d53d cb7f 4cbd 386f c3bd c66d 323d
000002c0: 0597 6ebd 183d 8abd fd48 a6bc 529f a8bd
000002d0: 9213 07bd 09e0 6e3c 44ae 893d 77dd 14bc
000002e0: ebae a73d c4ac 393a 21f3 cbbd fad9 ae3d
000002f0: b49f 61bd 3f95 46bd 94e9 7a3d c0d8 b4bb
00000300: d748 9e3d a4ba 1e3c b914 03be b397 98bc
00000310: 3d2e 193d c7e8 84bd cd6b 12bd b638 efbb
00000320: da1b 05be 43bd b3bc 21b2 40bc 6520 bdbb
00000330: 67cc ac3d 4544 85bd 9559 143d c65c e2bb
00000340: 8a2e a9bc 538e 31be 4bb8 1abd 0563 6a3d
00000350: b809 ecbd 80aa a93d 38f3 2d3e a5d4 c43d
00000360: 0418 12be ed67 08be 11d0 b03d 469b bcbd
00000370: db57 323d 1241 a83d 8343 b5bd f4ec 923b
00000380: f298 093e 2829 babd cb02 033e 086f 95bd
00000390: 9163 8b3b a1c1 563d f3e5 d3bb 3786 073d
000003a0: 23e0 e6bd c9fd de3d 8653 a53c e6e2 f23c
000003b0: 7712 bc3b 86a8 0a3e a12c 8e3d 06f9 5abc
000003c0: 8934 48bd c971 84bd f4b0 85bc 934c 983d
000003d0: 63ad 233d 410f a3bd 3d4c a03d 5311 263d
000003e0: e004 a83d 82d7 c7bd 1db5 88bc f3db 7cbb
000003f0: 49cc fd3d 9a95 a3bd f9df be3d dbba 793c
-0.08005641 0.022697581 0.0049261847 0.08084577 0.042446174 0.11291407 -0.031771787 0.05177336
-0.006624566 0.012488207 0.072619475 0.09428609 -0.0761125 -0.1566255 0.01968131 0.07512034
-0.09040568 0.04540633 0.084367044 0.075744666 -0.0039341464 -0.12241839 -0.022024432 0.1717366
0.0012386066 0.05251139 0.029385459 -0.09780982 -0.082104534 -0.045892153 0.09013072 0.021708168
-0.033934973 0.072484195 0.13372727 -0.13053723 -0.06652992 -0.006968922 -0.15206045 0.00887208
-0.06477253 -0.12753342 0.12255298 -0.06785954 -0.057610806 -0.074922554 0.042477958 0.0673908
-0.07802312 -0.04348158 -0.017536541 0.047328122 0.077562936 0.045352183 -0.030566009 0.047763173
-0.052910324 0.07164596 -0.09064135 -0.0021347725 0.0099405395 -0.03675096 -0.019547947 -0.031283207
0.13852832 0.032007195 -0.004021801 -0.1154134 0.035530325 -0.044103067 0.003990631 0.031727754
0.037730567 -0.032217536 -0.02938292 -0.034604345 -0.098848045 0.106518194 0.093638755 0.101128414
0.01975864 0.041421246 -0.08741397 0.038150366 -0.011556492 0.09973722 -0.08519367 0.2646813
0.050878786 0.09236648 -0.021000668 -0.05211616 -0.30082357 -0.010445943 0.1197886 -0.17600897
-0.003156797 -0.05044343 -0.02004186 0.1543772 0.009392938 -0.085045114 0.076594464 -0.08442687
0.053269837 -0.11970293 0.053780057 -0.06266797 -0.018521352 -0.048964296 0.045315053 -0.072530024
-0.16411991 0.20146088 0.039571024 0.04922776 -0.023271933 0.12599829 0.1461133 -0.110035546
0.12791276 -0.019811148 -0.10214337 0.0113017615 0.10341882 -0.08292462 -0.1625905 0.107876725
-0.010293446 0.19116615 0.02704869 0.14203016 0.2575243 -0.03315277 0.09806084 -0.01655431
0.024997935 0.026095241 0.000246012 0.13791114 0.08141864 0.11005564 -0.115439855 0.016794916
-0.009318565 0.08545358 0.10631462 -0.039191816 0.008305096 -0.03141475 0.0478055 0.08689809
0.019239271 0.016913684 0.019734666 -0.10260315 -0.04276589 -0.11737198 0.017572002 0.03668229
0.035459485 0.08620891 -0.068874106 0.115504995 -0.0749446 0.0546775 0.047676835 0.06709608
0.027524773 0.102070265 0.03733261 0.21889567 0.1040514 -0.04992656 -0.09542698 0.04356172
-0.058249492 -0.06749934 -0.020298475 -0.08233513 -0.032977648 0.014579781 0.06722692 -0.009086004
0.0818766 0.0007082934 -0.099584825 0.085376695 -0.055083945 -0.048482176 0.061257914 -0.0055190027
0.07728737 0.009688053 -0.12800874 -0.018627023 0.037397612 -0.06489711 -0.035747338 -0.0073004616
-0.12998906 -0.021940833 -0.011761219 -0.005771684 0.08437424 -0.06507162 0.036218245 -0.006908032
-0.020652074 -0.17339449 -0.03777341 0.05722334 -0.11525291 0.082844734 0.16987312 0.09610871
-0.14266974 -0.13320895 0.086334355 -0.092093036 0.043540817 0.08215536 -0.088507675 0.0044838134
0.1343725 -0.09089881 0.12794034 -0.07296568 0.0042538126 0.052430753 -0.006466621 0.03308698
-0.112732194 0.108882494 0.020181429 0.02964921 0.005739506 0.13540849 0.06942106 -0.013365036
-0.048878226 -0.06467015 -0.01631973 0.074364804 0.039960276 -0.07961894 0.07827041 0.040543865
0.08204055 -0.09757902 -0.016687924 -0.0038583248 0.1239248 -0.079875186 0.09320063 0.015242304

network_body._body_endoder.seq_layers.2.bias f4 [128]
00000000: 0000 0000 0000 0000 0000 0000 0000 0000
00000010: 0000 0000 0000 0000 0000 0000 0000 0000
00000020: 0000 0000 0000 0000 0000 0000 0000 0000
00000030: 0000 0000 0000 0000 0000 0000 0000 0000
00000040: 0000 0000 0000 0000 0000 0000 0000 0000
00000050: 0000 0000 0000 0000 0000 0000 0000 0000
00000060: 0000 0000 0000 0000 0000 0000 0000 0000
00000070: 0000 0000 0000 0000 0000 0000 0000 0000
00000080: 0000 0000 0000 0000 0000 0000 0000 0000
00000090: 0000 0000 0000 0000 0000 0000 0000 0000
000000a0: 0000 0000 0000 0000 0000 0000 0000 0000
000000b0: 0000 0000 0000 0000 0000 0000 0000 0000
000000c0: 0000 0000 0000 0000 0000 0000 0000 0000
000000d0: 0000 0000 0000 0000 0000 0000 0000 0000
000000e0: 0000 0000 0000 0000 0000 0000 0000 0000
000000f0: 0000 0000 0000 0000 0000 0000 0000 0000
00000100: 0000 0000 0000 0000 0000 0000 0000 0000
00000110: 0000 0000 0000 0000 0000 0000 0000 0000
00000120: 0000 0000 0000 0000 0000 0000 0000 0000
00000130: 0000 0000 0000 0000 0000 0000 0000 0000
00000140: 0000 0000 0000 0000 0000 0000 0000 0000
00000150: 0000 0000 0000 0000 0000 0000 0000 0000
00000160: 0000 0000 0000 0000 0000 0000 0000 0000
00000170: 0000 0000 0000 0000 0000 0000 0000 0000
00000180: 0000 0000 0000 0000 0000 0000 0000 0000
00000190: 0000 0000 0000 0000 0000 0000 0000 0000
000001a0: 0000 0000 0000 0000 0000 0000 0000 0000
000001b0: 0000 0000 0000 0000 0000 0000 0000 0000
000001c0: 0000 0000 0000 0000 0000 0000 0000 0000
000001d0: 0000 0000 0000 0000 0000 0000 0000 0000
000001e0: 0000 0000 0000 0000 0000 0000 0000 0000
000001f0: 0000 0000 0000 0000 0000 0000 0000 0000
0.0 0.0 0.0 0.0 0.0 0.0 0.0 0.0
0.0 0.0 0.0 0.0 0.0 0.0 0.0 0.0
0.0 0.0 0.0 0.0 0.0 0.0 0.0 0.0
0.0 0.0 0.0 0.0 0.0 0.0 0.0 0.0
0.0 0.0 0.0 0.0 0.0 0.0 0.0 0.0
0.0 0.0 0.0 0.0 0.0 0.0 0.0 0.0
0.0 0.0 0.0 0.0 0.0 0.0 0.0 0.0
0.0 0.0 0.0 0.0 0.0 0.0 0.0 0.0
0.0 0.0 0.0 0.0 0.0 0.0 0.0 0.0
0.0 0.0 0.0 0.0 0.0 0.0 0.0 0.0
0.0 0.0 0.0 0.0 0.0 0.0 0.0 0.0
0.0 0.0 0.0 0.0 0.0 0.0 0.0 0.0
0.0 0.0 0.0 0.0 0.0 0.0 0.0 0.0
0.0 0.0 0.0 0.0 0.0 0.0 0.0 0.0
0.0 0.0 0.0 0.0 0.0 0.0 0.0 0.0
0.0 0.0 0.0 0.0 0.0 0.0 0.0 0.0

action_model._continuous_distribution.log_sigma f4 [1, 3]
00000000: 0000 0000 0000 0000 0000 0000
0.0 0.0 0.0

action_model._continuous_distribution.mu.weight f4 [3, 128]
00000000: 3214 a2bc 5887 09bc 1b3c c83c cf9d d3bb
00000010: 1c74 b8bb 05a6 253c 92a5 34bc 4c7a 853a
00000020: 7071 f3bc 3f9e b63c e79f cd3c 14a6 b7bb
00000030: fde2 663c bb6f 91bb 6367 3dba 2a40 eb3c
00000040: 6d6d 2fbb 44ab 84bc 941a 393c d764 91bc
00000050: a854 87bb ac41 35bd b2df 6d3c f498 093a
00000060: f702 eb3c 039c 223c fb68 41bc 935a 09bb
00000070: 6727 db3b d0a8 c637 532e 9dbc f4e9 1c3c
00000080: 87e4 8f3b b9ec b9bc 50f1 ca3b c349 cc3c
00000090: 6bc5 d03c 3050 12bc 47f8 babc a0fb a33b
000000a0: b7e5 cebc a1ef 83bb 22db 8fbc f627 3a3c
000000b0: 9daa cd3c af3d 023b e68c 133d 33f9 debc
000000c0: 5d10 f5ba 3181 163c e0a4 76bc 2426 b8bb
000000d0: 59c0 95bc c2fe 52bc 7ced 9c3c 2bdb 0abd
000000e0: 0de3 483c fb66 87bc 7847 bc3c ab36 a9bc
000000f0: 3fea a83c 283a 67bb 95f4 813c fc0b 0dbc
00000100: 5df1 6f3d e7b1 b13b 03f7 693c c450 12bc
00000110: c4da 19bc b213 6b3c aa00 29bc caab 293c
00000120: 48cc 69bc ff4b 24bc b00f 32bb dfa3 753c
00000130: 0b80 e9bc c7b3 c23b 81e6 193b da2f 5abc
00000140: 7fac 0abc cd2a f43c b279 08bc 8d89 8dbc
00000150: ea08 583c 5232 68bb 7229 5f3c c7b5 d23c
00000160: 5189 21bc 769c 82bb a691 03bc acdc 9cbb
00000170: 84ac 2b3c e7c1 b03b c5e7 cfb8 a8d1 d43a
00000180: 37ba 843b 30af 8c3c 187c 61bc 73b3 b9bc
00000190: fa02 a93c 929e 883c a309 2cbd 85fc f239
000001a0: cd2e f43b 5fbc 0fbd 0d50 743c 1faa 923c
000001b0: 0332 13bd f4ae ac3c 89ad 283c e3f7 e9bc
000001c0: 982e de3c cb42 de3c 75a0 f9bc cb6f c2bc
000001d0: e06f 5abc 413d 823c 0329 543c af8e e6bc
000001e0: 1fdb 90bc eff9 f13c 0b6a c1bb 9bad 8db9
000001f0: 8b3a 68bc 7fc0 20bc bb0f 65bc 8282 ce3b
00000200: 4080 8f3b cff4 d0bc a398 febb 1959 82bc
00000210: e5c6 c2bc d718 903a 6a63 5f3a 2701 66ba
00000220: 1b07 d63b 8d52 5a3c 8c16 113c c710 403c
00000230: 825f e93c f8f3 fa3c 1bb3 7f3b ebe3 7e3c
00000240: 5b21 de3c 7e7c a0bc 217e c13a 601b 72bc
00000250: 8b37 7cbc 7e17 91bc 3ebe 1dba b34c 203a
00000260: e5a6 cfba d8d1 69bc 2be3 4cbb 22f9 09bd
00000270: f4b2 043d 40e8 fe3c 9100 38bd 7d9e 413c
00000280: 9d94 753b 5c06 853c fb52 c6bb 6a9c db3b
00000290: e77f 503b 6352 8b3c 03fa adbb 45ac 253c
000002a0: 36f9 bbb9 fb69 153c 1a98 febc 93e9 78bc
000002b0: 34b9 16bc 573c a0bc ab4e 02bd a3b1 b93b
000002c0: 8868 47bc 027e 8c3c 8578 ed3c 32ba 273c
000002d0: fb86 f1bb 2f96 fb3b 5425 90bc 78da e2bb
000002e0: 2e32 16bc a2b6 debb b561 5f3c fc3d 39bb
000002f0: 0a43 063b 4424 203c 83b0 8ebb ed9d 633c
00000300: bc5b a0bb 2327 cebc 35f7 a3ba 17f3 2ebc
00000310: 9b25 bebc 95e7 d93a 02a9 d93c c130 063c
00000320: f71e a53c 7521 193c 1c16 c6bc 5242 df3b
00000330: a718 e5bb 2373 c639 031d cd3c 2081 573c
00000340: 6761 103c e472 8fbc a38b 47bc 036c a13b
00000350: 2a50 c5bb 2012 9abb 005b cbbb 3770 41bd
00000360: 8750 9cbc 77fd 88bb 9c2c 163c 54cc 083d
00000370: fb9c b53b e4ef 9ebb cb5b 2e3c 1b52 8ebc
00000380: 7f11 ad3b 17ef ae3c d0f6 f6bb 22b6 5639
00000390: b3de 3f3d d420 283d dbfe 0fbc ddfc 60bb
000003a0: cf77 103d 2099 813c 8793 c43c 5d3d 51bc
000003b0: a4da 863c 2b62 bcbc fa9f 0039 51b9 303b
000003c0: 0a70 8fbc d3c5 a93a 17e0 fd3b 5387 263d
000003d0: 3bbb 99bc bdf3 5f3c 4b8a b8bb 0458 a5b9
000003e0: f714 ffba 11d1 473c e3d4 1b3c d29e b33c
000003f0: 80ea 663c 42c4 bb3b a3a4 e8bc f0ad fbbb
-0.01978502 -0.008394085 0.024442723 -0.0064580212 -0.0056290757 0.010110383 -0.011025803 0.0010183542
-0.029717177 0.022292254 0.025100661 -0.005604515 0.014092204 -0.004438368 -0.00072251837 0.02871712
-0.0026768104 -0.016194947 0.011297841 -0.01774828 -0.004129965 -0.044252083 0.014518665 0.0005248927
0.028687937 0.009924891 -0.011804814 -0.0020958527 0.0066880467 2.3682049e-05 -0.019187128 0.009577263
0.0043912563 -0.022695886 0.0061933175 0.024937516 0.025484761 -0.008930251 -0.022823466 0.0050043613
-0.025256021 -0.0040263687 -0.017560545 0.0113620665 0.025105769 0.0019873192 0.036023043 -0.027218437
-0.0018696893 0.009186075 -0.015053958 -0.005619781 -0.018280195 -0.012878122 0.01915621 -0.03390042
0.012261164 -0.016528597 0.022983298 -0.02065595 0.02061951 -0.0035282467 0.015863696 -0.008608814
0.05857979 0.005422819 0.014280084 -0.008930389 -0.009390537 0.014347957 -0.0103151 0.010355899
-0.014269896 -0.0100278845 -0.0027169995 0.014992683 -0.028503438 0.0059418413 0.0023483338 -0.013317073
-0.008463978 0.029805565 -0.008329796 -0.017277503 0.013185719 -0.0035430384 0.013620721 0.025721444
-0.009859399 -0.0039859368 -0.008030331 -0.0047870483 0.010478143 0.0053942087 -9.9136996e-05 0.0016236799
0.004050519 0.01717338 -0.013762496 -0.022668576 0.020631302 0.016677175 -0.042001378 0.0004634598
0.007451868 -0.035091754 0.014911664 0.017903386 -0.035936367 0.021079518 0.01029528 -0.028560584
0.027121827 0.027131459 -0.03047202 -0.023734948 -0.013332337 0.015898349 0.012949231 -0.028144209
-0.01768261 0.029538123 -0.005902534 -0.00027022962 -0.014174114 -0.00981152 -0.013980801 0.006302179
0.0043793023 -0.025507359 -0.0077696606 -0.015911626 -0.02377648 0.0010993731 0.0008521589 -0.00087739754
0.0065316088 0.013325346 0.008855473 0.01172275 0.028487924 0.030633911 0.0039016667 0.01555727
0.027115515 -0.019590613 0.0014762321 -0.0147770345 -0.015394102 -0.017711397 -0.0006017423 0.00061149447
-0.0015842585 -0.014271222 -0.0031263332 -0.033684857 0.032397225 0.031116605 -0.044922415 0.011817572
0.0037472614 0.016238384 -0.0060523725 0.0067019956 0.0031814517 0.017007058 -0.0053093447 0.010111873
-0.00035853096 0.009119506 -0.031078387 -0.015192407 -0.009199429 -0.019560022 -0.031813305 0.005666928
-0.012170918 0.017149929 0.028988132 0.0102372635 -0.0073708273 0.0076778154 -0.017595924 -0.006923016
-0.009167237 -0.006796674 0.013634135 -0.0028265705 0.0020486736 0.009774271 -0.004354538 0.013892633
-0.004893748 -0.025165146 -0.0012509587 -0.010678074 -0.023211291 0.0016624803 0.026569847 0.008190335
0.020156367 0.009346356 -0.024180464 0.006813326 -0.006991464 0.00037851286 0.025038248 0.013153344
0.008812285 -0.017510839 -0.012179288 0.004926206 -0.006021519 -0.0047018677 -0.0062059164 -0.047226157
-0.019081367 -0.004180606 0.009165909 0.033397987 0.005542395 -0.0048503745 0.010642002 -0.017373135
0.0052816267 0.021354241 -0.0075367466 0.0002047648 0.046843242 0.041046932 -0.00878879 -0.0034330406
0.03527051 0.015820086 0.023996128 -0.012770978 0.016461678 -0.022996029 0.00012266627 0.0026965926
-0.01750948 0.0012952633 0.007747661 0.0406564 -0.018766036 0.013668952 -0.00563172 -0.0003153683
-0.0019461204 0.012195841 0.009511205 0.021926317 0.014093995 0.005730183 -0.028398817 -0.007680647

action_model._continuous_distribution.mu.bias f4 [3]
00000000: 0000 0000 0000 0000 0000 0000
0.0 0.0 0.0

action_model._discrete_distribution.branches.0.weight f4 [5, 128]
00000000: 13a8 90bb 1321 4cbc 0684 033a af0d 12bb
00000010: 6e90 393c afc9 4ebc f799 2b3c 973e 96bb
00000020: 00f8 95bb 3d07 02bc 47a8 edba 03b7 eb3a
00000030: 7733 243c f7af 383a 3bb4 e0bb ff90 12bc
00000040: 9816 59bc f6c8 35bc bdac 7dbc df43 5b3c
00000050: d350 453c ffd7 54bb 8f5a 32bb d3a7 3d3b
00000060: b681 b1ba bc6e 41bc 4bfc 6b3b c3fa f23b
00000070: 8799 78ba 7f10 c539 bb36 88bc 95e8 8aba
00000080: 6a16 48bc a7ec fb3a 0f55 80bb 6f74 e2ba
00000090: 5ff5 67bc c8c7 22bc cbec 013c 8aa1 56bc
000000a0: efc9 d93a 1acc 563c 5b3a e5bb fa55 8e3b
000000b0: 54f3 25bb e72c 213c 8c1b 4a38 d88a 8bba
000000c0: bf74 1a3c 7783 05bc 1a67 aa3c b5bb 763c
000000d0: 5806 933b ee2d 11bb 13c9 1fbb 1d86 673b
000000e0: e31d 23bc f30d 55bb 57d1 163b 9f34 0c3b
000000f0: df93 ebbb 6f59 e43b d785 5abb ac84 023c
00000100: 2be8 5739 5897 c9bb 1a51 99bc 13fd 36bb
00000110: d735 1abc 8c42 15ba cbf9 14bb f83b f03b
00000120: 619c 2fbb f3fc 6ebb 988e 143c 3729 17bc
00000130: 6db7 983b 687c 683a f7e1 babb ef06 0c3a
00000140: fad2 483b 909c e73b 5159 a1ba b884 f3bb
00000150: 6d69 933b 827a 06b7 a706 12bb 9dec 4e3c
00000160: a672 853c 843b 1f3c 85a5 1b3a 05d5 cdbb
00000170: b55d e73a 0f17 66bc 60da 123b a239 66bc
00000180: 3a3b 39bb 3198 afbb 9a37 ef3b dda7 5c3c
00000190: de92 463b 6ecb 8b3b f3f4 193c 3175 b3bb
000001a0: 03a4 033c 3364 353c 672d 6f3c a782 c6bb
000001b0: 7e37 bebb 632f 063c 44ee 183c 022c 19bc
000001c0: 7f04 68ba c061 bebc 9241 b0bb 5b1d 0ebb
000001d0: e656 abbb 746d 8f3b 2480 a03b 0347 a0bc
000001e0: 9d46 11bb 7a81 7f3c ef24 273c 3966 943b
000001f0: 68fa 18bc 3f31 963a a312 f1ba adbd 6a3b
00000200: 5516 80bc 6e16 2bbc e10f cabb 60ec a53c
00000210: 821b edbb cda4 78bb 1156 263c 538e afba
00000220: ca38 bc3b ed25 2e3b 0ff9 353c 874a 52bb
00000230: b21f 9cbb 660e 823b 83ef a8bb 4f59 c23b
00000240: 3f74 91ba 167e 82bc b27b 463c cb81 ef3b
00000250: cf3e a73b 03c7 fbbb 23bc 2e3c 57c6 733c
00000260: 0af8 7fbb c43f 463b 10a7 de3b 395f ae3b
00000270: 0d2d 15bb 3950 45bc db5d 2cbc 33d7 123c
00000280: e57d 54bc afce 82bc c79f cdbb d717 2a3a
00000290: 2d51 e0ba 4fea fbb9 efad 75bb 8746 16bc
000002a0: 33ae 183c 7251 4a3c 5b6b dfbb 67b5 203a
000002b0: ef87 81bb a8d3 06bc 35e1 6939 f87e f7bb
000002c0: 4f83 e0bb 4bbf 6f3a 4ddf fa3b 767a 97ba
000002d0: 07f0 6e3c d3b4 bebb f2a1 d2bb 6b5d 28bc
000002e0: 13cc 41bb ec9d b13b c23c 473c df4b e3bb
000002f0: d949 a13c bf6d 3e3b a48d 17b9 b015 7fbb
00000300: fb94 2abc 7ade dfbc 75f2 843a a889 943a
00000310: 2aa3 a73c e80d 283c 3200 f03b fdb5 3e3c
00000320: 84f9 90bb 144c bc3a 13a0 57bc 28ce 46bb
00000330: e5af 613b d233 afbb bb2d 32bc 45be 44bc
00000340: 7fd3 aebb ba01 6a3c ba03 003c 1334 05bb
00000350: 83de 093c 1b14 b23b 4f7e 19bb 9fa1 393a
00000360: e144 38bc 87b2 97bc e8f9 83bb cb95 56bb
00000370: fb90 1c3c 9a1a 093c 22d2 683c e318 913b
00000380: bdee b43b fa2c 163c 86b3 98ba 4b9a cd3b
00000390: 1511 dcbb 176b b9ba 9c65 433c a836 88ba
000003a0: dec7 cbba 4f7c 12bc a71a 3bbc 7ce0 07bb
000003b0: 9c42 963b a10c 26bc ba29 db3b e228 44bc
000003c0: 1f43 183b 5204 1dbc c793 0dbc ba69 a0bb
000003d0: 2fac 3539 5f76 693c 4716 ea3a a3a7 453c
000003e0: 4f88 a03c 8837 e33b 8e93 493a 54c1 a03b
000003f0: fb1c 15ba 385b c33b 4757 4bbb 5ffc 83bb
-0.0044145673 -0.012459057 0.00050169264 -0.0022285988 0.011325939 -0.012621327 0.01047372 -0.004585098
-0.004576683 -0.007936296 -0.0018131816 0.0017983619 0.010022036 0.0007045264 -0.0068574226 -0.008945703
-0.013250016 -0.011095276 -0.015483079 0.013382881 0.012043196 -0.0032477377 -0.0027214622 0.0028939142
-0.0013542685 -0.011806186 0.0036008533 0.007415147 -0.00094833266 0.0003758706 -0.01662766 -0.0010597879
-0.012212375 0.0019220308 -0.00391639 -0.0017277132 -0.014157622 -0.009935327 0.007929991 -0.013100037
0.0016615967 0.013110185 -0.006995482 0.0043437453 -0.0025322037 0.009837366 4.8186208e-05 -0.0010646237
0.0094272485 -0.008149019 0.020801116 0.015059401 0.00448684 -0.002215262 -0.0024381324 0.003532774
-0.009955856 -0.0032509535 0.002301296 0.002139367 -0.0071892585 0.006968669 -0.0033343935 0.007966202
0.00020590487 -0.006152075 -0.01871543 -0.002792184 -0.0094122505 -0.0005693815 -0.0022731896 0.0073313676
-0.002679609 -0.0036466687 0.0090672 -0.009226135 0.004660538 0.00088686356 -0.0057032066 0.00053416094
0.003064333 0.0070682243 -0.0012309944 -0.007431593 0.0044986517 -8.015546e-06 -0.0022281797 0.012629655
0.01629002 0.0097187795 0.0005937445 -0.0062814974 0.0017651828 -0.014043584 0.0022407994 -0.014051827
-0.0028264062 -0.005358719 0.0073003294 0.013467756 0.0030299942 0.004266194 0.009396779 -0.005476617
0.008034709 0.011071253 0.014598227 -0.0060580554 -0.005804955 0.008190009 0.009334151 -0.009348871
-0.00088507676 -0.02323997 -0.0053789103 -0.0021684978 -0.005228865 0.0043770615 0.004898088 -0.019565111
-0.0022167333 0.015594834 0.010201677 0.0045287875 -0.009337045 0.0011458768 -0.0018392395 0.0035818622
-0.015635649 -0.010442359 -0.0061664437 0.020254314 -0.007235945 -0.0037940026 0.010152356 -0.0013393856
0.0057440745 0.0026572898 0.0111067435 -0.0032087879 -0.0047645206 0.0039690016 -0.005155505 0.0059310566
-0.0011097266 -0.015929263 0.012114452 0.0073091737 0.005103923 -0.007683636 0.0106649725 0.014878831
-0.0039057755 0.003025041 0.0067948177 0.00532141 -0.0022762448 -0.012043052 -0.010520424 0.00896244
-0.012969469 -0.015967695 -0.0062751505 0.0006488538 -0.0017114036 -0.00048049024 -0.0037487706 -0.0091720885
0.009318876 0.01234852 -0.0068182177 0.00061305467 -0.003952972 -0.008229174 0.00022304508 -0.0075529777
-0.0068515907 0.00091456313 0.007656014 -0.0011556882 0.014583594 -0.005819896 -0.006427997 -0.010276179
-0.00295711 0.005420437 0.012160482 -0.006936535 0.019688534 0.0029057113 -0.00014453247 -0.003892284
-0.010411496 -0.027327765 0.0010143059 0.0011332529 0.020463545 0.010257222 0.007324242 0.011640069
-0.004424276 0.0014365935 -0.013160723 -0.003033528 0.0034437117 -0.0053467536 -0.010875161 -0.012008254
-0.005335271 0.014282638 0.0078133885 -0.0020325228 0.008414867 0.0054345257 -0.0023421233 0.00070812734
-0.011246891 -0.018517746 -0.004027594 -0.0032743092 0.00955605 0.008368159 0.014210256 0.0044280156
0.005521624 0.009165997 -0.0011650182 0.0062744967 -0.0067159035 -0.0014146295 0.011926081 -0.0010392265
-0.0015547236 -0.00894077 -0.011419929 -0.0020733168 0.004585577 -0.010134847 0.006688324 -0.011972638
0.0023233367 -0.00958355 -0.00864119 -0.004895416 0.00017325649 0.014249413 0.0017859422 0.0120638935
0.019596247 0.00693411 0.0007689529 0.004905859 -0.00056882174 0.005961802 -0.0031027363 -0.0040278877

action_model._discrete_distribution.branches.0.bias f4 [5]
00000000: 0000 0000 0000 0000 0000 0000 0000 0000
00000010: 0000 0000
0.0 0.0 0.0 0.0 0.0

network_body._body_endoder.seq_layers.0.weight f4 [128, 1]
00000000: 4909 61bf c05c 74be fadc a33f f381 57bf
00000010: 43b5 2f3f 1784 dbbd 1302 91bf c33e 87be
00000020: ea63 65bf 640e 42be 8fe6 823e 45a5 e1bf
00000030: df34 5fbd 191d 9c3f 9c92 e9be e40d e4bd
00000040: 6d7c a23e 2e6c 52bf b55e 3cbf 6d07 843f
00000050: b2a7 40bf 2ac5 e8be 067e 80bf 0cd4 9ebf
00000060: d83d 71bd 5ed7 a93d 7995 bd3f f517 5c3f
00000070: 49a4 8dbf 3c41 313f f341 02bd 7efc 963c
00000080: c364 8bbf b4f8 933f 053f 2f3f 5db4 11bf
00000090: 0bdd 3ebf 8376 e13e 211e b8bf 4f11 ac3f
000000a0: 72c7 293e d8c6 183f c06a c7bf d261 0440
000000b0: cfbe 753f 84dd 1a40 e651 a13e 1776 c83e
000000c0: d572 a0be 5899 cabe ba22 4f3f 808f ae3f
000000d0: e0bc 9a3e a586 30bf 1685 853f b7b0 bdbe
000000e0: bf0c 94be 069c e33c d790 b5bf db89 2bbe
000000f0: 7c42 6a3f e57f 85bf 04be 9b3e ade6 54bf
00000100: 8a19 213f e838 ff3e d455 08bf 6f55 2dbf
00000110: cff4 553f 19bc 88bf db93 0d3f 2032 4abf
00000120: e003 343f cf4c 44be 0ace 5abe 12b3 10be
00000130: 5a4c 843f a101 063f 3793 5f3c f93f dd3d
00000140: 6370 613f d0bd a23f f9ce 3b3e 1b75 da3f
00000150: 376f 55be ec87 243f 8a15 ad3f 015e a2bf
00000160: 8674 383f d68a 8e3e be00 173f 4a22 c23f
00000170: 3fe5 9a3f 111a d9bd f550 293f fd20 0ebe
00000180: ed86 6bbf 84ad 3f3e 3d8b 163f 09ed ad3f
00000190: a4ed 7d3e 5356 60be 6e1c 3ebe 5324 6bbf
000001a0: 21bf 833f 29b5 43be 70b2 75bf bdb3 c7bf
000001b0: 61d7 ca3e 5a93 23bf 8786 43bf ab3b a93f
000001c0: 767a c63e 6491 6fbe ff4f c43e 8220 2dbe
000001d0: 9dae b0bf ca36 cebd ecd3 d9be 037e 9dbf
000001e0: f23d b23e 7bb4 afbf fa03 5b3f 37dd 023f
000001f0: 95e1 453e ac42 77bf 98f9 2c3e 89f1 fabe
-0.87904793 -0.23863506 1.2801812 -0.8418266 0.6863596 -0.107185535 -1.1328758 -0.2641507
-0.8960558 -0.18950802 0.25566527 -1.7628561 -0.05449378 1.219638 -0.45619667 -0.11135462
0.31735554 -0.8219632 -0.7358201 1.0314766 -0.7525588 -0.45462924 -1.0038459 -1.2408462
-0.05889687 0.08293031 1.481124 0.85974056 -1.1065761 0.69240165 -0.031801175 0.018430945
-1.0890125 1.1560273 0.68455535 -0.5691584 -0.74556035 0.4403573 -1.4384195 1.3442782
0.16579989 0.5967841 -1.5579453 2.0684705 0.95994276 2.4197702 0.31507796 0.39152595
-0.3133761 -0.39570117 0.80912364 1.3637543 0.30222225 -0.6895545 1.043124 -0.37048885
-0.28915974 0.027784359 -1.4184827 -0.16751806 0.915077 -1.0429655 0.30418408 -0.83164483
0.62929595 0.49848104 -0.53255963 -0.67708486 0.83576673 -1.0682403 0.55303735 -0.78982735
0.7031841 -0.19169925 -0.2136766 -0.1413081 1.0335801 0.52346236 0.013645939 0.108032174
0.88062114 1.2714176 0.18340673 1.7066988 -0.20843206 0.642699 1.3522198 -1.2684938
0.720528 0.27840298 0.5898551 1.5166714 1.210121 -0.10600675 0.66139156 -0.13879772
-0.92002755 0.18718535 0.5880621 1.3587962 0.24797684 -0.2190793 -0.18565533 -0.918523
1.0292703 -0.19112076 -0.959754 -1.5601727 0.39617446 -0.63896716 -0.7637715 1.3221334
0.38765305 -0.23395306 0.38342282 -0.16906932 -1.3803288 -0.10069044 -0.42544496 -1.2304081
0.34812886 -1.3726953 0.8555294 0.511188 0.19324334 -0.9658611 0.16892087 -0.49012402

network_body._body_endoder.seq_layers.0.bias f4 [128]
00000000: 0000 0000 0000 0000 0000 0000 0000 0000
00000010: 0000 0000 0000 0000 0000 0000 0000 0000
00000020: 0000 0000 0000 0000 0000 0000 0000 0000
00000030: 0000 0000 0000 0000 0000 0000 0000 0000
00000040: 0000 0000 0000 0000 0000 0000 0000 0000
00000050: 0000 0000 0000 0000 0000 0000 0000 0000
00000060: 0000 0000 0000 0000 0000 0000 0000 0000
00000070: 0000 0000 0000 0000 0000 0000 0000 0000
00000080: 0000 0000 0000 0000 0000 0000 0000 0000
00000090: 0000 0000 0000 0000 0000 0000 0000 0000
000000a0: 0000 0000 0000 0000 0000 0000 0000 0000
000000b0: 0000 0000 0000 0000 0000 0000 0000 0000
000000c0: 0000 0000 0000 0000 0000 0000 0000 0000
000000d0: 0000 0000 0000 0000 0000 0000 0000 0000
000000e0: 0000 0000 0000 0000 0000 0000 0000 0000
000000f0: 0000 0000 0000 0000 0000 0000 0000 0000
00000100: 0000 0000 0000 0000 0000 0000 0000 0000
00000110: 0000 0000 0000 0000 0000 0000 0000 0000
00000120: 0000 0000 0000 0000 0000 0000 0000 0000
00000130: 0000 0000 0000 0000 0000 0000 0000 0000
00000140: 0000 0000 0000 0000 0000 0000 0000 0000
00000150: 0000 0000 0000 0000 0000 0000 0000 0000
00000160: 0000 0000 0000 0000 0000 0000 0000 0000
00000170: 0000 0000 0000 0000 0000 0000 0000 0000
00000180: 0000 0000 0000 0000 0000 0000 0000 0000
00000190: 0000 0000 0000 0000 0000 0000 0000 0000
000001a0: 0000 0000 0000 0000 0000 0000 0000 0000
000001b0: 0000 0000 0000 0000 0000 0000 0000 0000
000001c0: 0000 0000 0000 0000 0000 0000 0000 0000
000001d0: 0000 0000 0000 0000 0000 0000 0000 0000
000001e0: 0000 0000 0000 0000 0000 0000 0000 0000
000001f0: 0000 0000 0000 0000 0000 0000 0000 0000
0.0 0.0 0.0 0.0 0.0 0.0 0.0 0.0
0.0 0.0 0.0 0.0 0.0 0.0 0.0 0.0
0.0 0.0 0.0 0.0 0.0 0.0 0.0 0.0
0.0 0.0 0.0 0.0 0.0 0.0 0.0 0.0
0.0 0.0 0.0 0.0 0.0 0.0 0.0 0.0
0.0 0.0 0.0 0.0 0.0 0.0 0.0 0.0
0.0 0.0 0.0 0.0 0.0 0.0 0.0 0.0
0.0 0.0 0.0 0.0 0.0 0.0 0.0 0.0
0.0 0.0 0.0 0.0 0.0 0.0 0.0 0.0
0.0 0.0 0.0 0.0 0.0 0.0 0.0 0.0
0.0 0.0 0.0 0.0 0.0 0.0 0.0 0.0
0.0 0.0 0.0 0.0 0.0 0.0 0.0 0.0
0.0 0.0 0.0 0.0 0.0 0.0 0.0 0.0
0.0 0.0 0.0 0.0 0.0 0.0 0.0 0.0
0.0 0.0 0.0 0.0 0.0 0.0 0.0 0.0
0.0 0.0 0.0 0.0 0.0 0.0 0.0 0.0

network_body._body_endoder.seq_layers.2.weight f4 [128, 128]
00000000: 1070 3ebc 7769 533d a9f3 c93c 8e69 acbd
00000010: 1cbc 88bd ce04 2d3e 2c45 13bd f008 083c
00000020: ef95 c3bd 9eae 8bbd 6d51 593d 6908 f63c
00000030: 6cf8 273d 959d fcbd c775 f33d 29bc 7abc
00000040: 8d6b e1bd 530d a63c e5ab fabd 3a3e 69bc
00000050: 7991 023d b2cc 113e 7fcc b93c 7149 34bd
00000060: 05d8 a63b 8f55 75bd 28ec b43c edbb 4dbc
00000070: 3843 b8bd 4aec a43d 182d 6bbd 5c68 fabd
00000080: 9483 773c 05d3 3dbd e34f 1cbe af3b 6fbc
00000090: 6399 f2bd 867f 2ebd ea19 ca3d ead6 96bb
000000a0: 3ad9 0fbd f8f6 cc3d afcc 35ba 6ee0 3abd
000000b0: a675 c43c 714d 9d3c 20e0 de3d 2fc5 efbd
000000c0: 0259 473c 44dc e93d 691f 4f3c 74b3 933d
000000d0: 8e99 43bd 6184 4ebd f0ec e43d 8786 bebd
000000e0: 46d8 c23d 7c4b 87bc 67b4 52be df75 32be
000000f0: d2e0 123e e1b0 783b 1c1a b13c 7812 e8ba
00000100: b05b 863b fd56 05bc 9610 623e 35dc 8d3c
00000110: 41a4 20bd f7b4 823d 256a d43d 0a43 30bd
00000120: ccfa d0bc 561c 013d b0b6 acbd 1d22 303e
00000130: ec60 fdbc ed06 10be 976d a13d bae9 253b
00000140: 9d9d 733d d8e8 f9bd c38a 6fbc 9d94 71be
00000150: 54a7 82bd 00fd e03d 4bf9 293d 3eab 213e
00000160: 844c f53d 8270 793c e760 a83d 1cfe 5a3c
00000170: 840e d5bd 1db1 45bd 0150 983c b49f c53c
00000180: b11f 563d 42fc fe3d 290a 8abd 38db 6b3d
00000190: bf59 403e af4a 6abc 2336 193d 58c9 a4bd
000001a0: 1b09 5ebd 6f07 49be 3361 aa3b d644 5cbc
000001b0: bd58 bd3d 5694 29bd b580 1b3e 46ec 97bd
000001c0: 4482 1f3e 6b0a 303d 9fad f33d e991 c7bc
000001d0: fc72 88bd 4e94 8ebd af87 b2bd b625 b0bd
000001e0: e7de abbd 0396 293d 5b21 753c a169 08be
000001f0: 0792 9a3d c777 fa3c 0dcb 5dbc c19f 95bd
00000200: 47fa 933c b160 8abd 40b0 6e3c 41cd f63c
00000210: c546 16bc 7516 003c 1ec1 3abe 1b79 fabd
00000220: a668 e7bc 53a1 dfbd 17df d2bd 65bd 8f3c
00000230: 7bb2 a23d 7185 bdbd cc2c cb3d 5142 96bd
00000240: eaa4 8b3d ec08 963d 0e83 9abc 4913 06be
00000250: c346 d03d 3e5c 47be 9cb2 883d 4a78 c63c
00000260: 59a8 84bd eadd 0d3e 70e2 0abc 9e3a 23bc
00000270: 1a06 ec3b 09f3 7b3d 4c23 1dbe 0314 8a3d
00000280: 2e5e 173e 7553 25bd 7ae6 98bc 6d4a d2bd
00000290: ba54 0fbd 3daf 63bd 9bed 69ba a899 033e
000002a0: e376 75bd 852c 2e3e 58f0 96bd 611c 4e3e
000002b0: a661 833d 1a70 84bb 7336 53be 503f 04be
000002c0: b673 b2bd 050a 283e ec38 f6bd 1af5 953d
000002d0: 07db e23d f7c6 a0bc b603 ef3c 164a 653d
000002e0: 4acb 393d 7d77 10be 7cb0 46be ec66 21be
000002f0: 883c 24bc 7392 2d3d 008d 49bb 5b13 553d
00000300: bb66 23be 354c 37bd 0f62 7fbd fbab aebc
00000310: 2835 24bd c0a8 bc3d 3e88 0d3d 903b f6bd
00000320: af7c 603d 29ec c2ba 6941 13be 1a42 52bd
00000330: 4fc3 923d 5d83 963d 734e dfbd 1185 e63c
00000340: 7be3 79bd 4098 19be 8267 d83c e3f3 383e
00000350: ac61 5bbd e93f 72bd 5ec4 aabd 3713 bc3d
00000360: 6814 603e eb46 8dbd 0379 073d e8df 3f3e
00000370: 3c3c 89bd e423 13be ef69 183d 564d 9d3e
00000380: feaf 5fbd 4ed9 063e aa65 74bd 68d3 c13d
00000390: 61b6 173c d5f8 873d d74c 7dbd 07a4 f13d
000003a0: 746f 0cbe 1d41 4439 17bd cf3d e19e bb3c
000003b0: a93a b63d dd28 14bb 3399 823d 0265 7e3c
000003c0: 96b5 003e 2e50 833d c700 04bd d6e6 433c
000003d0: 9083 afbc 6508 ff3b a777 243c e8c1 4a3d
000003e0: 2047 3e3c d18f a5bd 91e0 b53b 393b bf3d
000003f0: 18b5 bc3d 0e26 03bd 426c ef3d 8f3c 883d
-0.0116233975 0.05161425 0.024652319 -0.084185705 -0.06676504 0.16896364 -0.03595464 0.008302912
-0.09550082 -0.06820415 0.05305617 0.030033307 0.041008398 -0.12334744 0.118876986 -0.01530365
-0.11006842 0.020270025 -0.122398175 -0.014236027 0.031877015 0.14238241 0.02268052 -0.04401535
0.0050916695 -0.05989605 0.022085264 -0.012557012 -0.08997196 0.08052881 -0.05741605 -0.12226936
0.015107054 -0.046343822 -0.1526485 -0.014601632 -0.118456624 -0.042602085 0.09868224 -0.0046032565
-0.035119273 0.10008043 -0.0006935102 -0.04562419 0.02398188 0.019201966 0.10882592 -0.11707532
0.012167217 0.114189655 0.012641766 0.07211962 -0.047753863 -0.050419215 0.11178005 -0.09303003
0.09513907 -0.016515486 -0.2057663 -0.17427777 0.14343575 0.0037947225 0.021618895 -0.00177057
0.0041002855 -0.008138415 0.2207664 0.017316917 -0.039219145 0.063821726 0.10371808 -0.043032683
-0.025510214 0.031521164 -0.084332824 0.17200513 -0.030930005 -0.14065142 0.07882231 0.0025316314
0.059476484 -0.122026145 -0.014620486 -0.23591848 -0.063795716 0.10985756 0.04149751 0.1578798
0.11977485 0.015224578 0.08221608 0.013366248 -0.10403159 -0.04826461 0.018592836 0.024124004
0.052276317 0.12450458 -0.06740219 0.05758211 0.18784235 -0.0143000325 0.037405144 -0.08046216
-0.054207902 -0.19631742 0.0051995753 -0.013444146 0.09245441 -0.04140123 0.15185817 -0.074181125
0.15577036 0.042978685 0.1189835 -0.024361568 -0.066625565 -0.069618806 -0.08717286 -0.08600943
-0.083921246 0.041402828 0.014961566 -0.13321544 0.07547384 0.030574692 -0.013537181 -0.07305861
0.018063677 -0.06756724 0.014568388 0.03012717 -0.009172146 0.007817854 -0.18237731 -0.1223013
-0.028248142 -0.10919442 -0.10296457 0.017546365 0.07944199 -0.092539676 0.09920654 -0.073368676
0.06818564 0.073259205 -0.01886132 -0.13093294 0.10169747 -0.19468781 0.06674692 0.02422728
-0.06477422 0.13854185 -0.0084768385 -0.009962706 0.007202876 0.061511073 -0.15345496 0.06742098
0.1478202 -0.040362794 -0.018664587 -0.10268102 -0.03499291 -0.055587042 -0.00089236506 0.12851584
-0.059927832 0.1700917 -0.07370061 0.20128013 0.06415109 -0.004041684 -0.2062624 -0.12914777
-0.08713476 0.16410072 -0.12022576 0.0732214 0.110769324 -0.019626124 0.029176574 0.055978857
0.045359887 -0.14108081 -0.19403261 -0.15761918 -0.010024197 0.042375993 -0.0030754209 0.052020412
-0.15957157 -0.04475041 -0.062349375 -0.021322241 -0.040089756 0.09211874 0.03455376 -0.120230794
0.054806408 -0.0014871407 -0.1438042 -0.05133257 0.071661584 0.07349274 -0.10903635 0.028139623
-0.061007958 -0.14999485 0.026416544 0.18061785 -0.053559944 -0.05914298 -0.08338235 0.091833524
0.21882784 -0.06898292 0.03307439 0.18737757 -0.06700942 -0.1436916 0.0372104 0.30723065
-0.0546112 0.13168833 -0.059667267 0.09464151 0.009259791 0.06639258 -0.06184086 0.11798864
-0.13714391 0.00018716273 0.10143488 0.022902908 0.08897907 -0.0022607364 0.06376877 0.015527012
0.1256927 0.064117774 -0.032227304 0.011956891 -0.021425039 0.007782983 0.010038293 0.04950133
0.011613637 -0.080840714 0.005550452 0.09337468 0.092142284 -0.032018714 0.116905704 0.06652176

network_body._body_endoder.seq_layers.2.bias f4 [128]
00000000: 0000 0000 0000 0000 0000 0000 0000 0000
00000010: 0000 0000 0000 0000 0000 0000 0000 0000
00000020: 0000 0000 0000 0000 0000 0000 0000 0000
00000030: 0000 0000 0000 0000 0000 0000 0000 0000
00000040: 0000 0000 0000 0000 0000 0000 0000 0000
00000050: 0000 0000 0000 0000 0000 0000 0000 0000
00000060: 0000 0000 0000 0000 0000 0000 0000 0000
00000070: 0000 0000 0000 0000 0000 0000 0000 0000
00000080: 0000 0000 0000 0000 0000 0000 0000 0000
00000090: 0000 0000 0000 0000 0000 0000 0000 0000
000000a0: 0000 0000 0000 0000 0000 0000 0000 0000
000000b0: 0000 0000 0000 0000 0000 0000 0000 0000
000000c0: 0000 0000 0000 0000 0000 0000 0000 0000
000000d0: 0000 0000 0000 0000 0000 0000 0000 0000
000000e0: 0000 0000 0000 0000 0000 0000 0000 0000
000000f0: 0000 0000 0000 0000 0000 0000 0000 0000
00000100: 0000 0000 0000 0000 0000 0000 0000 0000
00000110: 0000 0000 0000 0000 0000 0000 0000 0000
00000120: 0000 0000 0000 0000 0000 0000 0000 0000
00000130: 0000 0000 0000 0000 0000 0000 0000 0000
00000140: 0000 0000 0000 0000 0000 0000 0000 0000
00000150: 0000 0000 0000 0000 0000 0000 0000 0000
00000160: 0000 0000 0000 0000 0000 0000 0000 0000
00000170: 0000 0000 0000 0000 0000 0000 0000 0000
00000180: 0000 0000 0000 0000 0000 0000 0000 0000
00000190: 0000 0000 0000 0000 0000 0000 0000 0000
000001a0: 0000 0000 0000 0000 0000 0000 0000 0000
000001b0: 0000 0000 0000 0000 0000 0000 0000 0000
000001c0: 0000 0000 0000 0000 0000 0000 0000 0000
000001d0: 0000 0000 0000 0000 0000 0000 0000 0000
000001e0: 0000 0000 0000 0000 0000 0000 0000 0000
000001f0: 0000 0000 0000 0000 0000 0000 0000 0000
0.0 0.0 0.0 0.0 0.0 0.0 0.0 0.0
0.0 0.0 0.0 0.0 0.0 0.0 0.0 0.0
0.0 0.0 0.0 0.0 0.0 0.0 0.0 0.0
0.0 0.0 0.0 0.0 0.0 0.0 0.0 0.0
0.0 0.0 0.0 0.0 0.0 0.0 0.0 0.0
0.0 0.0 0.0 0.0 0.0 0.0 0.0 0.0
0.0 0.0 0.0 0.0 0.0 0.0 0.0 0.0
0.0 0.0 0.0 0.0 0.0 0.0 0.0 0.0
0.0 0.0 0.0 0.0 0.0 0.0 0.0 0.0
0.0 0.0 0.0 0.0 0.0 0.0 0.0 0.0
0.0 0.0 0.0 0.0 0.0 0.0 0.0 0.0
0.0 0.0 0.0 0.0 0.0 0.0 0.0 0.0
0.0 0.0 0.0 0.0 0.0 0.0 0.0 0.0
0.0 0.0 0.0 0.0 0.0 0.0 0.0 0.0
0.0 0.0 0.0 0.0 0.0 0.0 0.0 0.0
0.0 0.0 0.0 0.0 0.0 0.0 0.0 0.0

value_heads.value_heads.extrinsic.weight f4 [1, 128]
00000000: c071 1a3e 28b5 513e 4846 f43d 66d9 0d3e
00000010: d0cf dfbd 203c 933c d867 69bd 4133 d4bd
00000020: 7357 28be 4825 bcbc ca63 5bbe 521e 423e
00000030: e8c0 fcbd 0ee1 39be 205e 90bb 6092 dfbd
00000040: e031 d9bc 96e4 0d3e 001d e53b 48bd 2c3e
00000050: 3a9f adbd 6132 efbd 682d ca3d c06a 543c
00000060: d0e4 453d 0e4b 563e fc82 d03d aad3 003e
00000070: 50d6 3ebc 3495 fe3d f6db 1c3e 2caf 8e3d
00000080: 6c34 fc3d 2821 433e fcde eebd 16e1 393e
00000090: 3014 4a3e 603d bcbb 57aa 4fbe 6068 45bc
000000a0: 8c33 3bbe 3f68 16be 6c2e 1bbe 3ce2 dc3d
000000b0: ae20 d9bd 89ee 3bbe f85f 253e b41c 31be
000000c0: e01b 5b3d 6e5f 22be a480 213e 4ec9 11be
000000d0: 1555 08be ae87 363e 2c26 49be 59bb c5bd
000000e0: 18dc 55bd 1059 653d 160b 4a3e 9c8f 5bbe
000000f0: 306f 4f3e 546d df3d fab8 cfbd 4261 2e3e
00000100: 407d 7a3c 3b9a 4ebe 9622 3dbe f87b 54bd
00000110: 20a8 51bd cc14 083e ee3f 5a3e e4aa 3b3e
00000120: 3672 4e3e d607 283e 9817 153e fcff b7bd
00000130: c2ca 1a3e de8e 9abd 3bff 21be d4ba da3d
00000140: 0815 46be 512d d5bd 249c ebbd c064 0bbe
00000150: 38b9 033e d148 f8bd 0d4c babd 7d55 2cbe
00000160: fc03 0c3d 7448 56be 465c 3abe 927d 8dbd
00000170: 0802 a4bc b41d e9bd e252 4d3e b886 903d
00000180: 03a9 4ebe de4a 56be 1e43 1d3e 7328 47be
00000190: f070 3d3e 5a5f 49be 24d0 f53d 9d45 e1bd
000001a0: 5013 cd3d 5e39 46be cc63 063d fc4e 11bd
000001b0: 4a98 203e 3451 9d3d 786b 04bd 649c 89bd
000001c0: 58d3 9cbd 682d f73c 08ca 233d b465 56be
000001d0: c6b1 cbbd c265 2a3e a622 153e e822 abbd
000001e0: a050 783c 7efe 00be 3a79 493e c0d3 43bc
000001f0: 8eff 1dbe 7003 dc3d 2c1e 143e a660 aabd
0.15082455 0.20479262 0.119274676 0.13852462 -0.10928309 0.017973006 -0.0569838 -0.103613384
-0.16439609 -0.022966996 -0.21424785 0.18956879 -0.123414814 -0.18152258 -0.004405752 -0.10916591
-0.02651304 0.1385673 0.0069919825 0.1686908 -0.08477636 -0.11679531 0.09871942 0.012964904
0.048313916 0.20927069 0.10181233 0.12580743 -0.011647776 0.12430802 0.15318283 0.06967005
0.12314686 0.19055617 -0.11663625 0.1815227 0.19734263 -0.005744621 -0.20279823 -0.012048811
-0.18281382 -0.14688204 -0.15154427 0.10785338 -0.10601936 -0.18352713 0.1614989 -0.17296106
0.05349338 -0.15856716 0.15771729 -0.14236948 -0.13313706 0.17825195 -0.19643468 -0.09654874
-0.05221185 0.05599314 0.19730791 -0.21441501 0.20257258 0.109095246 -0.10142703 0.17029288
0.015288651 -0.20176022 -0.18470225 -0.05187604 -0.051185727 0.13289183 0.2131345 0.18326908
0.20160756 0.16409239 0.14559782 -0.08984372 0.15116408 -0.07546781 -0.15820019 0.10680166
-0.1934396 -0.10409034 -0.11504391 -0.13612652 0.12863624 -0.121232636 -0.09096537 -0.16829486
0.034183487 -0.20926076 -0.18199262 -0.06908716 -0.0200205 -0.113826185 0.20051149 0.070569456
-0.2018166 -0.20926997 0.15357634 -0.19449024 0.18500113 -0.1966528 0.1200259 -0.10999606
0.10013449 -0.19357821 0.032810017 -0.035475716 0.15683094 0.07681504 -0.032329053 -0.06719282
-0.07657498 0.030173019 0.039987594 -0.20937234 -0.09946017 0.1664038 0.14563999 -0.08356267
0.015155941 -0.12597081 0.1967515 -0.011952341 -0.15429518 0.10742843 0.14464635 -0.083192155
