results/MoveToGoal/MoveToGoal/MoveToGoal-52779.pt (torch, 432969 bytes, 42 tensors)

network_body._body_endoder.seq_layers.0.weight f4 [128, 1]
-0.06968894 0.81585157 -0.27803698 0.057591785 -0.30344436 -1.6770067 0.6027934 -0.36639938
-1.1236838 -0.61380154 -1.2083651 0.68075836 0.59198684 -1.1476041 1.0098578 0.07766832
-1.549281 -0.49703106 0.4812342 -1.2758273 -0.43005648 -1.2833794 0.05067266 0.4846572
-1.2691698 -0.9101124 0.19303675 -0.27287686 -0.2611821 0.35874704 1.0621537 0.40470278
-0.9865418 -0.4891961 0.19219628 2.0394988 -0.4956338 -0.25073555 -0.41562018 0.49900237
0.11858114 0.18950768 -0.97482127 -0.762959 -0.42389312 1.6357216 0.57317203 -0.44129428
-1.28029 1.3579308 -0.692066 -0.18336478 -0.63033915 -1.3293154 -0.95565104 -0.76808614
2.6595001 -0.89009917 -0.5074875 1.1829238 -0.5182156 -0.83629364 1.8402865 0.8634538
-2.3376336 -1.2726024 0.28023466 0.6030565 0.2544308 -0.23559558 -2.8508465 1.2954713
-1.0362092 -2.314026 0.8536252 -1.7057115 -0.12147103 -1.0186424 -0.056677952 -0.284856
-0.18944432 1.0363624 0.20997667 -0.1173633 0.3360859 -0.8174626 -1.4287212 0.717384
-0.40255386 0.6245739 -0.76187253 2.515477 -0.19686003 0.26070297 -0.13893443 0.75983155
1.0584302 -0.019338619 -1.0074496 0.8505195 -0.63570875 -0.31045204 0.6147043 -0.60773325
-1.4029351 1.597161 -0.23941545 -1.7534989 0.094556265 0.5514429 2.4441676 -2.2714384
0.80729383 -0.42944804 -0.3550407 -0.06879492 0.11626318 0.6045147 0.6064239 0.102523975
-0.871972 -0.2978347 -1.2304133 0.59637713 0.38727817 0.8157108 0.38120455 0.29996154
00000000: 13b9 8ebd a6db 503f dd5a 8ebe 5de5 6b3d
00000010: 0f5d 9bbe 28a8 d6bf ab50 1a3f b398 bbbe
00000020: dfd4 8fbf 1922 1dbf b5ab 9abf 2e46 2e3f
00000030: 738c 173f b1e4 92bf 0543 813f 9110 9f3d
00000040: d74e c6bf db7a febe 5464 f63e 4f4e a3bf
00000050: 5d30 dcbe c745 a4bf 238e 4f3d fd24 f83e
00000060: 2874 a2bf 20fd 68bf 6dab 453e 84b6 8bbe
00000070: a9b9 85be b1ad b73e a7f4 873f 3435 cf3e
00000080: 018e 7cbf e977 fabe 1acf 443e 2687 0240
00000090: b7c3 fdbe 6960 80be 2bcc d4be 3d7d ff3e
000000a0: abda f23d 4d0e 423e e38d 79bf 4851 43bf
000000b0: 8508 d9be 535f d13f 67bb 123f 53f1 e1be
000000c0: 8be0 a3bf add0 ad3f 3d2b 31bf fac3 3bbe
000000d0: e85d 21bf 0227 aabf 8ca5 74bf 4ba1 44bf
000000e0: 4035 2a40 8add 63bf b3ea 01bf 0c6a 973f
000000f0: c7a9 04bf 5717 56bf 828e eb3f 4f0b 5d3f
00000100: ca9b 15c0 a3e4 a2bf eb7a 8f3e e961 1a3f
00000110: c144 823e f83f 71be 4574 36c0 01d2 a53f
00000120: 81a2 84bf 0119 14c0 2e87 5a3f c154 dabf
00000130: cec5 f8bd e062 82bf 2427 68bd a5d8 91be
00000140: b1fd 41be 86a7 843f 2004 573e 2b5c f0bd
00000150: 7313 ac3e 3b45 51bf 56e0 b6bf 7aa6 373f
00000160: 8a1b cebe 13e4 1f3f 140a 43bf 93fd 2040
00000170: ad95 49be dc7a 853e d444 0ebe 5284 423f
00000180: a47a 873f 066c 9ebc 1cf4 80bf a5bb 593f
00000190: cfbd 22bf 92f3 9ebe 435d 1d3f 6894 1bbf
000001a0: 6193 b3bf c66f cc3f 5329 75be a772 e0bf
000001b0: b7a6 c13d 5d2b 0d3f 3e6d 1c40 3f5f 11c0
000001c0: cfaa 4e3f 9de0 dbbe e5c7 b5be 5ae4 8cbd
000001d0: 641b ee3d 7ac1 1a3f 993e 1b3f 17f8 d13d
000001e0: 8f39 5fbf ca7d 98be 2f7e 9dbf 2cac 183f
000001f0: 5349 c63e 6cd2 503f 3e2d c33e 8f94 993e

network_body._body_endoder.seq_layers.0.bias f4 [128]
0.03082076 -0.034340065 -0.02860771 -0.04609182 -0.03286839 0.015273654 0.032169636 0.022764806
-0.036100864 0.0011000873 0.006123073 -0.03997261 -0.005539015 0.03733862 0.014065345 0.020162674
0.033957977 -0.035258293 0.0076074377 -0.024261001 0.02309609 0.037380278 -0.04391975 -0.03969445
0.040499236 0.021922112 -0.021277256 -0.025357751 -0.035397343 -0.014477948 -0.013526296 0.03842441
-0.0379578 -0.004033385 0.036462165 0.040003378 0.030071111 0.028748715 0.02000176 -0.043646287
-0.03796888 -0.015562998 0.011498113 -0.041789297 0.0049911067 0.044337735 0.031737592 -0.024588894
0.019363059 0.00064009323 -0.020127565 0.03867201 0.014911123 0.033894055 0.025141185 -0.038065042
-0.004416012 -0.032978565 0.03541279 -0.02052606 -0.028306546 0.039035987 0.04170994 -0.017705018
0.008574707 -0.026819443 0.028210996 -0.03532726 -0.043237135 -0.008848965 0.04107767 -0.018230988
0.035902996 0.03855 0.016298614 -0.019790338 0.04261202 0.0059862062 0.04681833 0.017013587
-0.008501727 -0.014411969 -0.027226457 0.046663985 -0.014566504 -0.014327641 0.042323623 0.038935274
0.04134467 -0.012463287 0.036962535 0.044593617 -0.0009810937 0.030852104 -0.04083718 0.02487911
-0.033125535 0.04716503 0.010117613 -0.026351245 -0.022100512 0.01829139 0.043126423 0.034369756
0.008224932 -0.01011522 -0.0111895995 -0.0024242145 0.046452302 0.008519279 0.015279288 -0.0057267896
0.013761115 0.0045719524 0.045458388 -0.04667731 -0.020481909 0.035973754 0.01909959 0.040176716
-0.031055631 -0.007519695 -0.022476105 -0.033029024 -0.025584968 -0.021009162 0.03019023 0.014063102
00000000: d27b fc3c 2ba8 0cbd b75a eabc c7ca 3cbd
00000010: 01a1 06bd 593e 7a3c 4fc4 033d 427d ba3c
00000020: 80de 13bd ce30 903a 0fa4 c83b 52ba 23bd
00000030: a080 b5bb 61f0 183d 5572 663c 312c a53c
00000040: 8517 0b3d 006b 10bd d047 f93b 02bf c6bc
00000050: 0334 bd3c 101c 193d 32e5 33bd a696 22bd
00000060: 87e2 253d 0096 b33c a44d aebc 0fbb cfbc
00000070: cefc 10bd ea34 6dbc 669d 5dbc ea62 1d3d
00000080: a379 1bbd 7c2a 84bb 5a59 153d 95da 233d
00000090: b157 f63c 6d82 eb3c bbda a33c 73c6 32bd
000000a0: 4285 1bbd f2fb 7ebc 9562 3c3c 412b 2bbd
000000b0: 708c a33b 7c9b 353d 47ff 013d a66e c9bc
000000c0: 479f 9e3c eecb 273a 90e2 a4bc 8b66 1e3d
000000d0: c84d 743c 7ed4 0a3d e3f4 cd3c 17ea 1bbd
000000e0: 32b4 90bb 8814 07bd 000d 113d 4526 a8bc
000000f0: 21e3 e7bc 33e4 1f3d 0bd8 2a3d 1d0a 91bc
00000100: ee7c 0c3c 73b4 dbbc bf1a e73c 51b3 10bd
00000110: 6c19 31bd 40fb 10bc 0f41 283d 2759 95bc
00000120: 050f 133d 9be6 1d3d ac84 853c 591f a2bc
00000130: f189 2e3d f027 c43b 94c4 3f3d 1460 8b3c
00000140: d44a 0bbc 2e20 6cbc 050a dfbc bc22 3f3d
00000150: 59a8 6ebc 7bbe 6abc 895b 2d3d 987a 1f3d
00000160: 0759 293d d132 4cbc 0766 173d cca7 363d
00000170: 0b98 80ba 8dbd fc3c e344 27bd 46cf cb3c
00000180: a4ae 07bd 1e30 413d 58c4 253c 91de d7bc
00000190: 220c b5bc d3d7 953c 55a5 303d 4dc7 0c3d
000001a0: ddc1 063c 4fba 25bc 9554 37bc 92df 1ebb
000001b0: c544 3e3d 7294 0b3c fb55 7a3c cba7 bbbb
000001c0: 4d76 613c 51d0 953b 9332 3a3d b530 3fbd
000001d0: adc9 a7bc 3759 133d be76 9c3c 5790 243d
000001e0: 6168 febc c667 f6bb cf1f b8bc 7149 07bd
000001f0: 9197 d1bc 681b acbc 8051 f73c ed68 663c

network_body._body_endoder.seq_layers.2.weight f4 [128, 128]
0.10208178 0.12676772 -0.01695431 -0.073137686 -0.051458277 0.0012162761 0.114190236 -0.124429874
0.123499945 -0.0068071177 0.026744895 -0.13165386 -0.06671355 -0.0077355695 0.05741234 0.008209753
0.04837124 -0.09082858 0.0076245847 -0.086299755 0.12271276 -0.12201484 0.25860986 -0.13597924
-0.045770783 0.07421701 -0.018607382 0.17139302 -0.030806936 -0.060867146 -0.028283484 -0.023371859
0.0011318225 -0.08622164 -0.018806247 -0.13101254 -0.005194599 0.064089425 -0.101440914 0.107703626
-0.0033861739 0.17898418 -0.1270608 -0.0014789785 -0.13971454 -0.05911676 -0.013901018 0.059584636
-0.06686762 0.04424993 -0.0887436 0.0149818435 -0.10643267 -0.046809975 -0.025434358 -0.039913956
-0.06808271 0.19261901 -0.021299385 0.0047226576 -0.012198426 -0.025912598 -0.0745381 -0.02263587
-0.11240057 -0.23292139 0.10415224 -0.0715968 0.024744375 0.023059504 0.13609764 0.025877183
-0.07977203 0.08841819 0.023653693 0.050470956 -0.11340573 -0.07397077 0.024429066 -0.0128896
-0.020510808 0.034202814 -0.009615146 -0.016859047 -0.09422013 -0.030740712 0.19162656 -0.0145662725
-0.13666734 -0.041050386 -0.025274156 -0.172829 0.023938596 0.20572886 0.05020362 0.061892506
0.055743635 -0.25068754 -0.13308147 0.09292131 0.057371095 0.078471035 0.20792787 0.1940174
-0.025532115 -0.14465392 -0.13213715 0.10973968 -0.0277097 0.10027933 -0.011402766 0.059813876
0.08036884 0.074218966 -0.027610468 0.08608468 -0.0062610093 -0.15164493 0.07765712 -0.17947419
-0.033853922 -0.1319563 0.013839238 0.024131566 0.03807845 -0.051582124 0.12502216 -0.12947467
0.10516446 0.07825579 -0.005382557 0.0065655676 -0.12489939 0.007901808 0.09570538 -0.22839206
-0.03988461 -0.04410193 -0.111635655 0.15536869 0.09658768 -0.016520869 0.02874089 -0.04963666
0.038927827 -0.104194246 -0.028711839 0.047622513 -0.04760421 0.11489138 0.01145411 -0.2386651
-0.009002783 0.07166972 0.03420885 0.06715458 0.09452671 0.097026505 0.08057227 -0.047888033
0.016146006 0.020788833 0.11352102 -0.0535333 -0.07392585 0.14995244 -0.06634117 -0.106750175
0.12214108 0.03731328 0.00904514 0.060132116 0.049324643 0.1915937 -0.010011885 0.036674034
0.048131354 0.029087894 -0.07106059 -0.1448308 -0.14786997 0.03561662 0.04817718 0.044474408
-0.1641126 0.10954808 0.01836221 0.17129537 0.002469674 0.06732958 0.034793448 0.14006355
-0.07155136 0.10557775 -0.10414752 -0.06457329 0.059691314 0.18567963 0.11359839 0.1365369
0.0077644032 -0.07476954 -0.12880729 0.11738785 0.09573587 -0.012646395 0.018638134 -0.023528332
0.05005231 0.046075635 0.18517348 -0.14049074 -0.13079558 0.0012050442 -0.044020895 0.08308141
-0.07276335 -0.04859982 0.106357686 -0.009339241 0.08159309 0.13691074 0.0006760363 0.022965975
-0.14434062 0.13914531 0.058054056 0.13760795 -0.16404471 -0.06007782 0.0031889386 0.01552766
-0.111527875 0.04138238 0.03250442 -0.0614437 0.010397091 0.057713557 0.029387422 0.15820901
0.05867369 0.14501484 -0.025039516 0.12342531 -0.131875 -0.035874 0.15341234 -0.10108465
0.10489338 -0.021706188 -0.07259392 -0.10708506 -0.006005758 0.08348898 -0.03271401 -0.071062155
00000000: 4110 d13d 66cf 013e c4e3 8abc 36c9 95bd
00000010: eac5 52bd 746b 9f3a 92dc e93d 17d5 febd
00000020: 8aed fc3d 3e0e dfbb 1c18 db3c 45d0 06be
00000030: 1da1 88bd a97a fdbb 3429 6b3d 3382 063c
00000040: ec20 463d 5604 babd a7d7 f93b edbd b0bd
00000050: d450 fb3d ebe2 f9bd 8368 843e 243e 0bbe
00000060: 257a 3bbd 16ff 973d 826e 98bc a781 2f3e
00000070: d45e fcbc d44f 79bd c4b2 e7bc 5776 bfbc
00000080: a959 943a f994 b0bd 8f0f 9abc 2728 06be
00000090: 7437 aabb 5141 833d 41c0 cfbd b893 dc3d
000000a0: 92ea 5dbb a147 373e 3a1c 02be 49da c1ba
000000b0: 5411 0fbe 6a24 72bd 18c1 63bc 050f 743d
000000c0: e4f1 88bd 6a3f 353d 34bf b5bd 6876 753c
000000d0: 5ff9 d9bd d1bb 3fbd b75b d0bc d17c 23bd
000000e0: f36e 8bbd eb3d 453e 0c7c aebc 86c0 9a3b
000000f0: e8db 47bc a846 d4bc 6ea7 98bd dc6e b9bc
00000100: 4532 e6bd f282 6ebe c54d d53d 58a1 92bd
00000110: b7b4 ca3c 49e7 bc3c 2e5d 0b3e 63fc d33c
00000120: 855f a3bd 9914 b53d 64c5 c13c a2ba 4e3d
00000130: 4341 e8bd fd7d 97bd 771f c83c e72e 53bc
00000140: 4806 a8bc 4018 0c3d d888 1dbc fc1b 8abc
00000150: 7cf6 c0bd f2d3 fbbc c139 443e 60a7 6ebc
00000160: 86f2 0bbe 7324 28bd bf0b cfbc 16fa 30be
00000170: e01a c43c 96aa 523e 50a2 4d3d ff82 7d3d
00000180: 7053 643d 1e5a 80be 8246 08be 874d be3d
00000190: f4fd 6a3d 6cb5 a03d 0beb 543e 7fac 463e
000001a0: ba28 d1bc 2820 14be f64e 07be 33bf e03d
000001b0: 74ff e2bc 405f cd3d abd2 3abc 65ff 743d
000001c0: 6b98 a43d 1d00 983d 592f e2bc 2a4d b03d
000001d0: 2729 cdbb cf48 1bbe b20a 9f3d 15c8 37be
000001e0: 69aa 0abd 8d1f 07be f9bd 623c 90af c53c
000001f0: 26f8 1b3d c747 53bd cf05 003e 0295 04be
00000200: 7760 d73d 9244 a03d 2960 b0bb f923 d73b
00000210: 40cb ffbd 9676 013c 2f01 c43d 9cdf 69be
00000220: 0b5e 23bd 3aa4 34bd 3ca1 e4bd f818 1f3e
00000230: c3cf c53d c656 87bc 0472 eb3c cf4f 4bbd
00000240: c972 1f3d cb63 d5bd 1735 ebbc d30f 433d
00000250: a2fc 42bd 2c4c eb3d 05aa 3b3c a064 74be
00000260: 6980 13bc 93c7 923d 941e 0c3d 5788 893d
00000270: 3897 c13d d5b5 c63d 1303 a53d 3e26 44bd
00000280: a144 843c 584d aa3c b57d e83d bc45 5bbd
00000290: 7066 97bd 228d 193e e1dd 87bd d69f dabd
000002a0: 1a25 fa3d cfd5 183d 1132 143c 184d 763d
000002b0: a308 4a3d 2431 443e e408 24bc 8337 163d
000002c0: 6225 453d bc49 ee3c 3788 91bd 864e 14be
000002d0: 3a6b 17be bce2 113d 6f55 453d cc2a 363d
000002e0: 220d 28be be5a e03d 586c 963c 0e68 2f3e
000002f0: 41da 213b 17e4 893d 9383 0e3d d26c 0f3e
00000300: 8589 92bd 2639 d83d 4c4b d5bd 003f 84bd
00000310: e17e 743d cd22 3e3e 46a6 e83d 54d0 0b3e
00000320: 896c fe3b c620 99bd 0fe6 03be 0b69 f03d
00000330: 2b11 c43d d332 4fbc 00af 983c 7dbe c0bc
00000340: a703 4d3d ceb9 3c3d 1e9e 3d3e cedc 0fbe
00000350: 47ef 05be 93f2 9d3a 414f 34bd 9626 aa3d
00000360: f404 95bd 9b10 47bd 0fd2 d93d 9e03 19bc
00000370: 471a a73d 5432 0c3e 0738 313a 2423 bc3c
00000380: 07ce 13be 1c7c 0e3e 17ca 6d3d 19e9 0c3e
00000390: 56fb 27be 2914 76bd 83fd 503b ba67 7e3c
000003a0: ba68 e4bd 9280 293d 5b23 053d 64ac 7bbd
000003b0: 8f58 2a3c 0d65 6c3d e4bd f03c 8b01 223e
000003c0: d353 703d c57e 143e ac1f cdbc 69c6 fc3d
000003d0: 3d0a 07be 9ef0 12bd 2018 1d3e 7805 cfbd
000003e0: 57d2 d63d 2dd1 b1bc 1fac 94bd 694f dbbd
000003f0: f3cb c4bb 45fc aa3d 20ff 05bd 0989 91bd

network_body._body_endoder.seq_layers.2.bias f4 [128]
-0.037089627 -0.007816508 0.02343174 -0.036176037 0.037147813 0.032956548 -0.02974892 -0.026392031
0.04410078 -0.03046269 -0.0012454496 0.028010156 0.042463914 -0.038338676 0.040769856 -0.026480032
-0.039179895 0.035011254 0.004507542 -0.0026828574 0.016686684 0.025845436 0.041843604 0.03893093
-0.025573447 0.024041103 -0.039131694 0.03870453 0.010054111 -0.00075490365 -0.025530374 -0.03402579
-0.008946906 -0.043723937 -0.016029606 0.03474947 0.01957591 -0.045297615 -0.035180103 0.045648515
0.031400863 0.035821408 -0.028383328 0.035628393 -0.04106658 -0.036285657 0.0015925549 -0.033684403
0.011805271 -0.04366712 -0.033574495 0.037861917 -0.010650367 -0.009168107 -0.030301986 0.032996118
0.037452526 0.024015551 -0.03899141 -0.034649648 -0.0004792001 -0.0010258286 0.03680967 -0.019279005
0.038682956 0.0113995215 -0.023979476 -0.037643064 0.017427826 -0.042524073 0.010753781 -0.03931132
-0.033836253 -0.029054878 0.013140568 -0.027822139 -0.030657578 -0.029625414 -0.043717686 0.016698288
0.027205998 -0.020921478 0.0233155 -0.021568153 -0.011778108 -0.033424202 -0.03461131 -0.038417995
0.012731795 -0.019415116 0.036121853 0.03703519 0.03852442 -0.04303656 0.033800334 -0.033779383
0.022198765 0.043295164 0.037064105 -0.029362323 -0.041232646 0.036283515 -0.033832572 -0.020221822
-0.040209193 0.042340107 -0.019744422 -0.025450457 -0.023710122 -0.04281443 -0.02969147 0.038358577
0.041738987 0.009325474 0.029364256 0.02751425 -0.04163804 -0.0369039 0.03826662 0.043222334
0.013256496 0.02451721 -0.0310364 -0.004321958 0.035940714 0.030587833 -0.010173934 0.04063229
00000000: 4beb 17bd d010 00bc ecf3 bf3c 532d 14bd
00000010: 4e28 183d 72fd 063d 02b4 f3bc 1a34 d8bc
00000020: 05a3 343d e48c f9bc 5b3e a3ba 8e75 e53c
00000030: a4ee 2d3d 0409 1dbd 4bfe 263d a7ec d8bc
00000040: 197b 20bd f667 0f3d 01b4 933b e1d2 2fbb
00000050: 83b2 883c cfb9 d33c 3364 2b3d 0a76 1f3d
00000060: 687f d1bc d9f1 c43c 8e48 20bd a488 1e3d
00000070: ffb9 243c bae4 45ba 1325 d1bc a05e 0bbd
00000080: 0b96 12bc df17 33bd 8550 83bc 7655 0e3d
00000090: a95d a03c fe89 39bd 0319 10bd f0f9 3a3d
000000a0: 319e 003d 78b9 123d 2784 e8bc 14ef 113d
000000b0: 6e35 28bd 45a0 14bd 46bd d03a a8f8 09bd
000000c0: e56a 413c 4bdc 32bd 6985 09bd 1915 1b3d
000000d0: e07e 2ebc d435 16bc df3b f8bc f026 073d
000000e0: d267 193d 43bc c43c 75b5 1fbd caec 0dbd
000000f0: 263d fbb9 1975 86ba bdc5 163d 01ef 9dbc
00000100: 0572 1e3d 0fc5 3a3c 9b70 c4bc 9d2f 1abd
00000110: cdc4 8e3c b92d 2ebd a030 303c e804 21bd
00000120: e297 0abd 7f04 eebc 894b 573c 41eb e3bc
00000130: 9a25 fbbc ffb0 f2bc 5111 33bd d9ca 883c
00000140: 1ddf de3c 8563 abbc 2600 bf3c b2af b0bc
00000150: f7f8 40bc d1e7 08bd 97c4 0dbd 305c 1dbd
00000160: 0599 503c 730c 9fbc 82f4 133d 36b2 173d
00000170: c8cb 1d3d 1b47 30bd 3872 0a3d 405c 0abd
00000180: 2fda b53c 4556 313d 88d0 173d 4189 f0bc
00000190: 90e3 28bd 069e 143d 0694 0abd 3ca8 a5bc
000001a0: 65b2 24bd d26c 2d3d 0ebf a1bc 7a7d d0bc
000001b0: bb3b c2bc 2f5e 2fbd 873b f3bc e21d 1d3d
000001c0: 80f6 2a3d dfc9 183c 4f8d f03c 9065 e13c
000001d0: a68c 2abd 8b28 17bd 76bd 1c3d e709 313d
000001e0: c631 593c 51d8 c83c 0c40 febc 369f 8dbb
000001f0: 9236 133d 5693 fa3c 92b0 26bc 0b6e 263d

action_model._continuous_distribution.log_sigma f4 [1, 3]
-0.003148757 -0.00051529217 0.0071578845
00000000: 605b 4ebb ac14 07ba b08c ea3b

action_model._continuous_distribution.mu.weight f4 [3, 128]
0.003280376 -0.0094848685 0.014480302 -0.018313447 -0.009133954 -0.008713933 -0.014831135 -0.0042913887
0.014068838 -0.02777442 -0.016770916 0.012007321 0.013216207 -0.030358888 0.0132443 -0.034349516
0.0020737168 0.00738207 0.0065478478 -0.014254066 -0.01812844 -0.0012228745 0.00786332 0.03484731
-0.023240162 0.018106908 0.005443519 0.0012790239 0.037824057 0.014624436 -0.03097373 -0.007733384
-0.0152139515 -0.010661676 -0.0043906597 0.010551803 0.011664557 -0.024200363 -0.016608665 0.018433776
0.023615196 0.030364523 -0.023220133 0.008678424 -0.03918436 -0.050366465 -0.00665282 -0.017741444
0.0027768423 -0.031751383 -0.01456137 0.035160806 0.0141021805 -0.004310449 0.011499769 0.03961499
0.010259751 0.005596042 -0.039505303 -0.010637379 0.029050093 -0.0047934204 0.00040254966 -0.026708234
0.017779188 -0.021988725 -0.03963412 0.0008554128 -0.008732775 -0.0069892365 0.025381435 -0.01839667
0.0020805704 -0.015031297 0.003929345 -0.020984503 -0.01834681 -0.027760614 -0.019921593 -0.006177859
0.049049698 0.006385031 0.032598883 0.016952671 -0.013380147 0.012760894 1.7506543e-05 -0.014174914
-0.01736597 -0.02565761 0.028622061 0.027652306 -0.0043289023 -0.021245321 0.019984929 -0.0120304935
0.001752439 0.0011024674 -0.0032773775 -0.051475007 -0.028229002 0.018281579 -0.021484701 -0.0032797959
-0.012921188 0.02331225 -0.011631322 -0.015054724 -0.0051576355 -0.0191766 0.00048737013 0.015531703
0.0123761585 0.03753915 0.021094162 -0.014491774 -0.0332093 -0.01687887 -0.005376413 0.0049973857
-0.017886078 -0.013719834 0.009071987 -0.015266039 0.0012602698 0.036833577 0.026324743 0.026176345
-0.022567071 0.008511341 -0.0061998577 -0.016241353 0.042274136 0.03356037 -0.0012953111 -0.022468712
0.042516224 -0.006721988 -0.004799317 0.024247983 0.040956285 -0.02153288 0.06871429 0.001695487
-0.054073725 0.012827732 0.002539021 0.007115444 0.0038182938 0.015634427 0.040484317 0.029755063
-0.012088855 0.006350172 -0.041757796 0.019628098 -0.018374251 0.0009012175 0.0013209728 -0.019444685
0.016517522 -0.050969683 0.0029241676 0.03029395 0.01134107 -0.058615085 -0.015641553 0.059338022
0.0072553414 0.025253389 -0.0034643358 0.036868576 -0.04829049 -0.022450048 0.012957013 -0.015296595
-0.009986532 -0.045445073 -0.002009062 0.03817495 -0.02245647 0.0043577766 -0.027288621 0.024076926
0.03559846 -0.0012364214 -0.049695726 -0.010743694 -0.03559056 0.0034892405 0.029515084 0.011908331
0.03220902 0.033811096 0.004575547 -0.041138414 0.0050168564 -0.031899285 -0.004175229 -0.04462698
-0.03192521 -0.00070120883 0.0008412103 -0.018772485 -0.004809644 -0.008372617 -0.0448555 0.015013403
-0.0036813985 -0.006122659 0.0028184953 -0.046973776 0.010333512 -0.030946882 -0.023603158 -0.03317483
0.03215819 0.012274494 0.015219945 0.024192013 0.0515394 -0.0396346 0.0064183557 -0.024282904
0.011730318 0.045286663 0.042147964 7.356216e-05 -0.03716367 0.022908408 -0.013012578 -0.0035945764
-0.029479668 0.052212395 0.0021397306 0.0020450088 -0.00084121624 -0.038907707 -0.010583808 0.02768835
0.028720656 -0.022223547 0.007502052 0.03752816 -0.021735711 -0.025816595 0.03140298 0.04175254
0.023303036 0.023315283 -0.037689317 0.018279636 0.02123031 0.0074176383 -0.020423595 0.051467683
00000000: 94fb 563b 6c66 1bbc ca3e 6d3c 1506 96bc
00000010: 94a6 15bc e2c4 0ebc 4afe 72bc c79e 8cbb
00000020: fc80 663c 2e87 e3bc 2963 89bc 5bba 443c
00000030: ca88 583c 34b3 f8bc 9ffe 583c 14b2 0cbd
00000040: 32e7 073b 4be5 f13b 548f d63b e389 69bc
00000050: 1882 94bc dc48 a0ba 28d5 003c 0ebc 0e3d
00000060: 2762 bebc f054 943c 8c5f b23b eca4 a73a
00000070: 66ed 1a3d 559b 6f3c 9fbc fdbc 5468 fdbb
00000080: f043 79bc 4fae 2ebc 86df 8fbb 78e1 2c3c
00000090: b31c 3f3c d73f c6bc e50e 88bc 6e02 973c
000000a0: a874 c13c 05bf f83c 2638 bebc f32f 0e3c
000000b0: c87f 20bd 114d 4ebd e6ff d9bb 8156 91bc
000000c0: affb 353b bd0d 02bd d092 6ebc c704 103d
000000d0: d50c 673c ab3e 8dbb 8769 3c3c 5443 223d
000000e0: 8418 283c 015f b73b 50d0 21bd 6748 2ebc
000000f0: 76fa ed3c 2012 9dbb 4d0d d339 3acb dabc
00000100: a9a5 913c b321 b4bc 6357 22bd c83d 603a
00000110: ea13 0fbc f705 e5bb baec cf3c 9db4 96bc
00000120: 2e5a 083b d445 76bc bcc1 803b b1e7 abbc
00000130: 0d4c 96bc 3a6a e3bc 9c32 a3bc a36f cabb
00000140: 56e8 483d 8639 d13b 6886 053d 54e0 8a3c
00000150: 6738 5bbc 1213 513c 04db 9237 e63d 68bc
00000160: 1443 8ebc e82f d2bc d078 ea3c 1787 e23c
00000170: 77d9 8dbb ab0a aebc 6fb7 a33c 8c1b 45bc
00000180: 18b2 e53a ab80 903a 45c9 56bb 75d7 52bd
00000190: 8240 e7bc 40c3 953c af00 b0bc d8f1 56bb
000001a0: 64b3 53bc 55f9 be3c 4d91 3ebc 17a8 76bc
000001b0: 6201 a9bb 3f18 9dbc b685 ff39 af78 7e3c
000001c0: 5fc5 4a3c a7c2 193d aacd ac3c e86e 6dbc
000001d0: 7a06 08bd 8e45 8abc 9f2c b0bb 1cc1 a33b
000001e0: d385 92bc 28c9 60bc aca2 143c 691e 7abc
000001f0: a32f a53a cede 163d fda6 d73c c66f d63c
00000200: 94de b8bc 2773 0b3c 2d28 cbbb 960c 85bc
00000210: a527 2d3d 9976 093d 6ec7 a9ba 4e10 b8bc
00000220: 7e25 2e3d 1f44 dcbb 9743 9dbb b5a3 c63c
00000230: c7c1 273d b965 b0bc 14ba 8c3d 1a3b de3a
00000240: 697c 5dbd 682b 523c b465 263b ac28 e93b
00000250: 573c 7a3b c513 803c e2d2 253d e4c0 f33c
00000260: 5510 46bc 1b15 d03b 390a 2bbd 1bcb a03c
00000270: 9985 96bc af3f 6c3a 7e24 ad3a 764a 9fbc
00000280: c14f 873c 96c5 50bd 64a3 3f3b 052b f83c
00000290: e5cf 393c 5f16 70bd b722 80bc 6d0c 733d
000002a0: 37be ed3b 32e0 ce3c e909 63bb 8103 173d
000002b0: 40cc 45bd 2ae9 b7bc a749 543c 929e 7abc
000002c0: 8d9e 23bc 9d24 3abd 78aa 03bb 565d 1c3d
000002d0: a2f6 b7bc aecb 8e3b 638c dfbc f93c c53c
000002e0: b1cf 113d 6b0f a2ba bf8d 4bbd 5206 30bc
000002f0: 68c7 11bd beab 643b 9ec9 f13c 291b 433c
00000300: 9bed 033d 817d 0a3d 78ee 953b c180 28bd
00000310: 7164 a43b d3a8 02bd 5cd0 88bb c8ca 36bd
00000320: 02c4 02bd 54d1 37ba ab84 5c3a c1c8 99bc
00000330: 389a 9dbb 4d2d 09bc 67ba 37bd c7fa 753c
00000340: 9e43 71bb 96a0 c8bb 81b6 383b 9367 40bd
00000350: e44d 293c 5184 fdbc 695b c1bc 55e2 07bd
00000360: 4eb8 033d f61a 493c 145d 793c 542e c63c
00000370: fa1a 533d e457 22bd 1251 d23b f1ec c6bc
00000380: 8530 403c 827e 393d 58a3 2c3d 6245 9a38
00000390: ef38 18bd 6aaa bb3c b532 55bc fc92 6bbb
000003a0: 587f f1bc aadc 553d b93a 0c3b 8e05 063b
000003b0: 1185 5cba b05d 1fbd b567 2dbc aed2 e23c
000003c0: 9547 eb3c 280e b6bc c6d3 f53b 21b7 193d
000003d0: 170f b2bc 537d d3bc 69a0 003d b604 2b3d
000003e0: 02e6 be3c b1ff be3c 1d60 1abd 2dbf 953c
000003f0: 30eb ad3c a90f f33b 624f a7bc c7cf 523d

action_model._continuous_distribution.mu.bias f4 [3]
0.029965414 0.038766105 -0.010727768
00000000: 077a f53c 35c9 1e3d 85c3 2fbc

action_model._discrete_distribution.branches.0.weight f4 [5, 128]
-0.00046216277 0.008022416 -0.00800657 -0.011059454 -0.0045629055 -0.00926962 -0.0019305119 0.017066866
0.016154671 -0.022279836 0.01668449 0.0044532204 -0.0014096583 0.0009002802 0.0040238956 0.011425196
-0.0065246206 -0.0041814907 0.004713913 0.012845502 0.010482229 0.006067166 -0.00017431373 0.013791795
-0.007616309 -0.0045205434 -0.005756155 0.013852452 -0.003844609 -0.0043199444 0.0030556584 -0.010930296
0.0034250435 -0.011158213 -0.0012001334 0.0060931644 0.014974922 -0.0077593364 -0.00050534203 0.001809145
0.0012920657 0.0025879596 0.00055706943 0.0054429234 0.0007152192 6.3481595e-05 0.016997628 -0.013800182
-0.0032089096 -0.010838275 -0.0063570198 0.0056674867 0.0015538686 -0.017667277 -0.0026090876 -0.020897388
-0.0008296978 -0.00064761675 -0.02385173 -0.0030737761 -0.008409492 0.0051365555 -0.009353015 -0.011138908
0.0070315064 0.009432318 -0.00012376718 -0.0024247156 0.017353848 -0.009218147 0.011312892 -0.017468987
0.008852864 -0.01649222 0.0019181498 0.0006545713 0.0030053337 0.011134407 0.008642228 0.006724756
-0.007477489 0.016136011 0.012835654 -0.007226063 -0.001341879 -0.012870312 -0.011341508 -0.0008531265
0.008012681 0.0114680445 0.017179824 0.007714788 0.012148757 -0.0073007215 0.012504178 -0.0051227063
-0.00890379 0.0032759013 -0.0054958984 0.0063276375 -0.012978601 -0.004032467 0.006879385 0.013639131
-0.005849068 0.00019126973 0.013668306 0.0121225575 -0.0025264984 0.0024938665 0.0008434133 0.010281115
0.0034132546 0.0040282668 0.022076312 0.0030208481 -0.014285316 0.014838863 0.014561498 -0.0015721432
-0.0032469952 -0.023537146 0.016748795 0.004441741 -0.008155051 0.013137567 -0.00024232834 0.00034196422
-0.005069543 -0.027198529 0.009032632 0.004193033 -0.010006737 -0.0114271585 -0.008383327 -0.010531016
8.2242404e-05 -3.9497747e-05 -0.0036215424 -0.011808099 0.0071414877 -0.0019089016 -0.011401295 0.006969237
-0.0011314371 0.00067240006 0.00026927958 0.0034998076 0.011358898 0.00842396 -0.006257811 0.0038576536
-0.0032432966 -0.00940509 0.00074172573 -0.0023575027 0.008663211 -0.01445849 -0.0024003952 -0.013022545
-0.021055253 -0.0075539486 0.00093383656 -0.010561588 -0.011188986 0.006460488 -0.012436415 -0.005649301
0.009511857 -0.012743448 -0.0020499253 0.010612885 0.0032580122 0.014031148 -0.010795628 0.0023147578
-0.0026885793 0.013433832 0.014951439 0.0042707715 -0.00085261936 -1.5400597e-05 -0.0006323403 -0.005574585
-9.191623e-05 -0.011214612 -0.0011833969 -0.00048731035 0.024428608 0.01373769 0.005123247 -0.0042849886
0.0033687744 -0.0058684167 0.0038416798 0.00018372652 0.00708339 0.017440844 -0.016480021 -0.0051133
-0.0033205021 -0.0029487843 0.004202825 -0.015557788 0.004244558 0.003452394 -0.007287015 -0.025489789
0.006190406 -0.008117399 -0.008604217 0.0011377683 0.014180389 0.009954959 -0.010153361 0.005122519
-0.012961714 -0.0034798195 -0.016033266 -0.02032289 -0.0023306997 -0.012418306 -2.0365369e-05 -0.010549294
-0.010492199 0.0053577563 -0.013166287 -0.016273791 -0.0022050682 0.018022418 0.002511993 -0.0041822214
0.009136084 0.016950408 -0.003526464 0.0029692561 -0.0089162635 0.012747323 0.0056158598 -0.0047257445
-0.030394599 0.002585109 0.0017103412 0.018581092 0.015704617 -0.009403167 -0.013406162 -0.008260405
-0.021810168 -0.0042974246 -0.007286964 -0.0021918006 -8.631138e-05 0.0001624732 -0.007301939 -0.0067733503
00000000: 704e f2b9 7470 033c fd2d 03bc b632 35bc
00000010: 6d84 95bb 9bdf 17bc 3b09 fdba d0cf 8b3c
00000020: cd56 843c 3484 b6bc e9ad 883c 52ec 913b
00000030: 49c4 b8ba c800 6c3a e2da 833b bf30 3b3c
00000040: 7ccc d5bb e304 89bb 2b77 9a3b f175 523c
00000050: a8bd 2b3c 14cf c63b fcc7 36b9 fbf6 613c
00000060: 3b92 f9bb 1121 94bb 219e bcbb 65f5 623c
00000070: d6f5 7bbb 528e 8dbb 7141 483b fc14 33bc
00000080: b276 603b f0d0 36bc cb4d 9dba 2ba9 c73b
00000090: 6059 753c 0842 febb ee78 04ba d520 ed3a
000000a0: 885a a93a c29a 293b 4c08 123a 8d5a b23b
000000b0: 8c7d 3b3a 6c21 8538 9c3e 8b3c 291a 62bc
000000c0: 924c 52bb 0593 31bc 8c4e d0bb 53b6 b93b
000000d0: 2eab cb3a f7ba 90bc 3afd 2abb 0031 abbc
000000e0: 1480 59ba d3c4 29ba b464 c3bc 6871 49bb
000000f0: f7c7 09bc 8d50 a83b 633d 19bc f77f 36bc
00000100: 8d68 e63b 028a 1a3c 80c7 01b9 fae7 1ebb
00000110: a829 8e3c b607 17bc b559 393c 1f1b 8fbc
00000120: 9a0b 113c b11a 87bc 6d6a fb3a 8997 2b3a
00000130: 22f5 443b 166d 363c 2298 0d3c 585b dc3b
00000140: b905 f5bb ab2f 843c a34c 523c 9cc8 ecbb
00000150: fde1 afba 00de 52bc bbd1 39bc 5aa4 5fba
00000160: 9f47 033c 77e4 3b3c b4bc 8c3c 55cc fc3b
00000170: 950b 473c e43a efbb 53de 4c3c 60dc a7bb
00000180: 34e1 11bc 81b0 563b f016 b4bb 1258 cf3b
00000190: 33a4 54bc c922 84bb 776c e13b a976 5f3c
000001a0: 8aa9 bfbb 948f 4839 08f1 5f3c b19d 463c
000001b0: 9c93 25bb 2370 233b 8218 5d3a 1f72 283c
000001c0: e9b0 5f3b 8dff 833b 62d9 b43c 6cf9 453b
000001d0: f50c 6abc b41e 733c 5993 6e3c 5f10 ceba
000001e0: 8acb 54bb f9d0 c0bc c534 893c 068c 913b
000001f0: c39c 05bc f33e 573c 8519 7eb9 a949 b339
00000200: 691e a6bb 73cf debc 9bfd 133c b665 893b
00000210: 4cf3 23bc fa38 3bbc 395a 09bc 488a 2cbc
00000220: 8e79 ac38 62aa 25b8 6657 6dbb c276 41bc
00000230: 2403 ea3b 1c34 faba 7fcc 3abc 325e e43b
00000240: bb4c 94ba 0144 303a 182e 8d39 075d 653b
00000250: ac1a 3a3c a604 0a3c 530e cdbb b0d0 7c3b
00000260: 7d8d 54bb ce17 1abc 5f70 423a 5580 1abb
00000270: 24f0 0d3c 4de3 6cbc f34f 1dbb 835c 55bc
00000280: 117c acbc 1d87 f7bb b6cc 743a 830a 2dbc
00000290: 0252 37bc 80b2 d33b 1bc2 4bbc c61d b9bb
000002a0: 9fd7 1b3c e5c9 50bc 0a58 06bb aae1 2d3c
000002b0: 6084 553b e6e2 653c 25e0 30bc 31b3 173b
000002c0: e032 30bb 9319 5c3c e1f6 743c d4f1 8b3b
000002d0: 5182 5fba 8830 81b7 a4c3 25ba 02ab b6bb
000002e0: 26c3 c0b8 7ebd 37bc 361c 9bba b07d ffb9
000002f0: 811e c83c 0c14 613c e9e0 a73b 1769 8cbb
00000300: a8c6 5c3b d94b c0bb b1c4 7b3b b6a6 4039
00000310: c81b e83b 1ae0 8e3c 1c01 87bc 788d a7bb
00000320: c89c 59bb 6440 41bb dab7 893b 18e6 7ebc
00000330: ef15 8b3b 8f41 623b eac7 eebb f6cf d0bc
00000340: e4d8 ca3b d7fe 04bc b4f8 0cbc 2b21 953a
00000350: dd54 683c 201a 233c 485a 26bc ceda a73b
00000360: 5e5d 54bc af0d 64bb 3258 83bc 307c a6bc
00000370: a7be 18bb 2776 4bbc 4cd6 aab7 f2d6 2cbc
00000380: 79e7 2bbc 1e90 af3b 69b7 57bc 9d50 85bc
00000390: e882 10bb c0a3 933c 40a0 243b 040b 89bb
000003a0: 83af 153c 95db 8a3c 401c 67bb da97 423b
000003b0: 8515 12bc 26da 503c 3f05 b83b 6bda 9abb
000003c0: 18fe f8bc ef6a 293b 872d e03a 6037 983c
000003d0: f8a6 803c be0f 1abc 85a5 5bbc a656 07bc
000003e0: 3dab b2bc 69d1 8cbb 7cc7 eebb 50a4 0fbb
000003f0: 1202 b5b8 915d 2a39 1b45 efbb fbf2 ddbb

action_model._discrete_distribution.branches.0.bias f4 [5]
-0.0019535823 -0.0057069007 -0.0019580673 0.0008841536 0.008293577
00000000: ac07 00bb f400 bbbb eb52 00bb 8bc6 673a
00000010: c8e1 073c

exp_avg f4 [128, 1]
1.4621288e-06 -7.458698e-06 1.1656329e-05 7.288704e-06 -1.2459528e-05 2.852434e-05 -5.5071637e-06 -7.0926167e-06
-1.088446e-05 -1.1167415e-05 1.4336792e-05 4.9545497e-06 -5.131688e-06 3.5499557e-05 4.248896e-06 -8.458517e-06
2.0017114e-05 -3.1784684e-06 3.1441352e-06 -1.5061387e-05 1.0527063e-05 1.9733547e-05 -8.585506e-06 6.33086e-06
2.2688986e-05 1.053248e-05 -1.0187073e-05 -6.594649e-06 -1.1095117e-06 1.1544338e-05 -1.1014357e-05 7.65383e-06
-3.873759e-06 1.3024798e-05 -1.4283456e-05 -5.9763686e-05 1.3582786e-05 -1.6942915e-05 1.9473402e-05 1.0360293e-05
4.5361e-06 -8.903938e-06 1.5506506e-05 -9.495385e-06 6.8212103e-06 -6.158303e-05 6.413765e-06 -5.2967184e-06
5.5901555e-06 -8.235776e-06 1.923414e-07 -3.94775e-06 -6.3069638e-06 4.0287097e-05 7.86563e-06 5.824313e-08
-3.2530992e-05 7.8279425e-07 3.9681286e-06 1.5739386e-05 7.420861e-06 1.8249157e-05 -4.8324197e-05 2.560888e-05
3.1290565e-05 -8.474717e-07 -7.9011215e-07 -2.7162323e-06 -7.495534e-06 9.898639e-06 8.669375e-05 1.3529431e-05
8.902587e-06 5.803373e-05 -1.8339078e-06 7.3853056e-07 9.175359e-06 6.427088e-06 9.537849e-06 -9.3552035e-07
1.4234228e-05 -8.333814e-06 -1.4369693e-06 -5.1696893e-06 1.0045991e-05 1.33042795e-05 2.6192789e-05 -4.5304216e-05
4.688036e-06 1.8123897e-06 2.251753e-05 -9.779082e-05 6.872174e-07 -1.877714e-05 -9.904206e-07 9.543546e-07
8.986595e-06 -6.3777034e-06 9.357837e-06 7.5196394e-06 -3.0225906e-06 1.761765e-05 8.161046e-06 2.7520205e-06
1.1770289e-06 -2.7448928e-05 9.900447e-06 1.19546285e-05 3.9917377e-06 9.978732e-06 -5.052006e-05 1.7609933e-05
-7.79779e-06 -8.246771e-06 1.1923819e-05 8.677448e-06 -4.540151e-06 -2.0735546e-05 -1.6501395e-05 7.935995e-06
-1.3128878e-05 1.29131495e-05 -3.928137e-06 4.290823e-06 9.972972e-07 5.504565e-06 1.0426906e-05 6.4412197e-06
00000000: 5d3e c435 ba45 fab6 8d8f 4337 7e91 f436
00000010: 4409 51b7 8e47 ef37 2dca b8b6 1dfd edb6
00000020: 669c 36b7 af5b 3bb7 0e88 7037 423f a636
00000030: dd30 acb6 5ce5 1438 bd91 8e36 0ee9 0db7
00000040: 6dea a737 ac4d 55b6 d5ff 5236 2ab0 7cb7
00000050: 649d 3037 7889 a537 780a 10b7 ac6d d436
00000060: 3a54 be37 a8b4 3037 25e9 2ab7 9b47 ddb6
00000070: 88ea 94b5 8eae 4137 4eca 38b7 f368 0037
00000080: 56fb 81b6 1585 5a37 faa2 6fb7 c5aa 7ab8
00000090: 9fe1 6337 a220 8eb7 d05a a337 1fd1 2d37
000000a0: cd34 9836 1f62 15b7 f813 8237 5e4e 1fb7
000000b0: c0e1 e436 2326 81b8 d235 d736 77ba b1b6
000000c0: 1293 bb36 632c 0ab7 6786 4e34 ea76 84b6
000000d0: 68a0 d3b6 f1f9 2838 a0f6 0337 0027 7a33
000000e0: e371 08b8 3621 5235 f725 8536 1308 8437
000000f0: b600 f936 c415 9937 b6af 4ab8 a7d2 d637
00000100: fd3d 0338 d07d 63b5 1818 54b5 8448 36b6
00000110: 2682 fbb6 5512 2637 5acf b538 77fc 6237
00000120: 525c 1537 3e69 7338 9824 f6b5 6f3f 4635
00000130: deef 1937 44a8 d736 c004 2037 7820 7bb5
00000140: 8bcf 6e37 75d1 0bb7 e4dd c0b5 4b77 adb6
00000150: 348b 2837 7235 5f37 96b8 db37 0805 3eb8
00000160: ec4d 9d36 3c41 f335 07e4 bc37 0c15 cdb8
00000170: 3879 3835 9a83 9db7 98ee 84b5 6017 8035
00000180: 22c5 1637 0e00 d6b6 9bff 1c37 3651 fc36
00000190: b6d7 4ab6 9ec9 9337 6deb 0837 5aaf 3836
000001a0: 68fa 9d35 2042 e6b7 191a 2637 bd90 4837
000001b0: c4f0 8536 546a 2737 80e5 53b8 0bb9 9337
000001c0: 41d3 02b7 9d5b 0ab7 6a0c 4837 5b95 1137
000001d0: 9a57 98b6 3ff1 adb7 7a6c 8ab7 d724 0537
000001e0: 1a44 5cb7 8ea5 5837 71ce 83b6 e4f9 8f36
000001f0: dfda 8535 dab3 b836 38ef 2e37 a821 d836

exp_avg_sq f4 [128, 1]
1.0397282e-09 9.614749e-10 6.0476857e-10 3.4018216e-10 9.620978e-10 5.3754123e-10 9.380708e-10 1.3036919e-09
9.2686464e-10 2.4285978e-09 3.4621223e-10 5.924831e-10 1.8859962e-09 2.2941724e-09 6.547952e-10 8.479381e-10
1.6870368e-09 9.577898e-10 1.9019694e-10 7.626118e-09 3.0096134e-10 6.9614536e-10 1.0810439e-09 5.413986e-10
1.2411562e-09 2.1379382e-10 4.6176743e-10 1.5993104e-09 7.391227e-11 2.2080278e-09 2.8926348e-09 7.036757e-10
6.997691e-10 1.7790507e-09 8.563767e-10 3.0746163e-09 2.2783052e-10 4.879176e-10 1.7400524e-09 1.1621989e-09
1.6110383e-09 3.9480935e-10 4.344389e-10 6.165979e-10 3.7175926e-10 3.5854208e-09 1.0327831e-09 9.643858e-10
2.3903348e-09 9.138987e-10 2.2636636e-10 6.322377e-10 1.2390996e-09 4.5897632e-09 1.5487847e-09 8.4779067e-10
3.770781e-09 1.0476746e-09 2.6058594e-10 2.344419e-09 5.4504445e-10 1.6521715e-09 1.1897352e-09 3.8826e-09
2.2953504e-09 3.7321884e-10 4.4137208e-10 1.7597824e-09 1.5321854e-09 2.1483966e-10 1.559809e-09 4.9425664e-09
9.50087e-10 2.472112e-09 3.714949e-09 7.9588136e-10 4.0148207e-10 1.1812364e-10 1.1273708e-09 3.6919542e-10
6.2844846e-10 7.9192813e-10 2.9652283e-10 4.3903942e-10 1.5397821e-09 4.0822987e-10 1.5809112e-09 3.8710835e-09
8.3049423e-10 3.0165441e-09 2.8381966e-09 5.2110143e-09 1.7686816e-10 1.469549e-09 1.7666703e-09 2.3673228e-09
1.6479702e-09 2.301702e-09 6.360204e-10 2.56876e-10 1.5088265e-09 1.2644162e-09 2.5653074e-10 9.813429e-10
2.7220708e-09 1.8134947e-09 4.5941204e-10 3.968684e-10 1.6857526e-09 3.6692774e-10 1.7458253e-09 3.179009e-09
2.3241102e-09 7.513182e-10 6.754206e-10 5.442764e-10 2.6473515e-10 1.2383925e-09 1.1622665e-09 1.9692368e-09
6.7213995e-10 3.0177794e-10 1.7042827e-09 1.5511052e-09 4.766038e-10 1.3966903e-09 6.677247e-10 2.7717267e-10
00000000: 2fe6 8e30 e424 8430 ce3c 2630 6204 bb2f
00000010: cf3a 8430 1ac2 1330 6fed 8030 952d b330
00000020: 4dc6 7e30 58e4 2631 0a55 be2f 4bdc 2230
00000030: cc9a 0131 82a7 1d31 1efd 3330 5714 6930
00000040: 55dd e730 3ca3 8330 ae1f 512f 0604 0332
00000050: 8b74 a52f e05a 3f30 da93 9430 8ad1 1430
00000060: 4d95 aa30 9c11 6b2f fddb fd2f bbce db30
00000070: e988 a22e 09bc 1731 c5c7 4631 c66c 4130
00000080: df59 4030 c882 f430 2766 6b30 3949 5331
00000090: 9780 7a2f 261e 0630 a726 ef30 3dbb 9f30
000000a0: 5f6b dd30 7a0c d92f d7d5 ee2f 387d 2930
000000b0: 7760 cc2f 6463 7631 d3f1 8d30 4f8b 8430
000000c0: 3743 2431 e735 7b30 77e4 782f c6c9 2d30
000000d0: f14c aa30 fcb3 9d31 04dd d430 f709 6930
000000e0: 2490 8131 c6fd 8f30 3642 8f2f 751b 2131
000000f0: 18d2 1530 9e12 e330 1684 a330 b667 8531
00000100: 3bbc 1d31 e22d cd2f 99a5 f22f d7dc f130
00000110: fb94 d230 fd37 6c2f e660 d630 46d3 a931
00000120: 3794 8230 dbe1 2931 134a 7f31 2cc5 5a30
00000130: 94b7 dc2f d9e0 012f d5f1 9a30 a3f7 ca2f
00000140: 21bf 2c30 fdae 5930 e103 a32f 4e5d f12f
00000150: 44a0 d330 3f6d e02f 5e47 d930 6902 8531
00000160: d648 6430 9b4b 4f31 150a 4331 910c b331
00000170: f677 422f 29f9 c930 2fcf f230 62ae 2231
00000180: cc7e e230 f82b 1e31 f5d3 2e30 1538 8d2f
00000190: 1d5f cf30 b1c7 ad30 7e07 8d2f efdf 8630
000001a0: 2d0f 3b31 ac3e f930 7f90 fc2f 432e da2f
000001b0: 26b0 e730 7db8 c92f c4f1 ef30 b875 5a31
000001c0: 2eb6 1f31 5185 4e30 80a8 3930 0c9c 1530
000001d0: 298a 912f 1034 aa30 9ebd 9f30 2e53 0731
000001e0: a5c1 3830 78e7 a52f 1e3c ea30 aa2e d530
000001f0: 0302 0330 acf5 bf30 f38a 3730 9660 982f

exp_avg f4 [128]
-0.00019874448 0.000123927 8.916591e-05 0.00027010054 0.0001672354 -0.0001115393 -0.0001678984 -6.719336e-05
0.00016272068 0.00010503264 -8.0151694e-05 0.00016968443 2.4481078e-05 -0.00025934417 -1.2772874e-05 -9.003198e-05
-0.00021010646 0.00016417123 -4.1243493e-05 0.0001283379 -3.9585866e-05 -0.0001805721 0.00037834566 0.00015859822
-0.00024580918 -7.704617e-05 6.644391e-05 0.00020975513 6.5121e-05 2.2880558e-05 -1.2828903e-05 -0.0001393686
0.0001854132 9.046089e-05 -0.00020144324 -0.00041150072 -8.3839725e-05 -8.722124e-05 -9.633166e-05 0.00026018918
0.00026396496 5.9516282e-05 -6.829476e-05 0.0002442751 5.4915745e-06 -0.00041908634 -0.00014415056 6.0552153e-05
-6.179499e-05 -8.181782e-05 4.971616e-05 -0.00020804162 -3.8724243e-05 -0.000305366 -8.8500004e-05 0.00019116064
-0.00018508261 0.00015705213 -7.672963e-05 5.390078e-05 6.61529e-05 -0.00029242746 -0.0002883592 6.495271e-05
-0.00014212931 4.8472815e-05 -0.00010059817 0.00015675886 0.00032765546 7.4867785e-05 -0.00040918996 1.0214593e-06
-0.00018009052 -0.00032342065 -0.00015618761 3.545714e-05 -0.00024987734 -2.613883e-05 -0.00043206045 -6.330455e-07
5.4525728e-05 -2.4416937e-05 4.536973e-05 -0.00025980754 -4.0011044e-05 3.7121445e-05 -0.0003530638 -0.00039995238
-0.00023531122 1.3812665e-05 -0.0003453273 -0.0005137738 -2.6071295e-05 -0.00023566921 0.0003832242 -0.00021031949
0.00012366027 -0.00075578596 -2.2916194e-05 5.5713983e-05 7.9628655e-05 -8.1356426e-05 -0.00015914121 -0.00015127407
-8.740055e-05 -3.3819266e-05 3.5752662e-05 -5.9499976e-05 -0.00048274323 -5.7757723e-05 -0.0002876052 -0.00013085917
-0.0001773705 -1.0385471e-05 -0.00035663042 0.0003237734 4.6210353e-05 -0.00029517416 -0.00013691973 -0.00036482117
0.00012373405 -2.328424e-05 3.071238e-05 0.00014173354 7.89705e-05 5.569141e-05 -9.273532e-05 -6.4565786e-05
00000000: 1166 50b9 67f2 0139 95fe ba38 489c 8d39
00000010: e95b 2f39 35ea e9b8 e20d 30b9 29ea 8cb8
00000020: 00a0 2a39 f844 dc38 1d17 a8b8 51ed 3139
00000030: b75c cd37 96f8 87b9 134b 56b7 8dcf bcb8
00000040: 0650 5cb9 6125 2c39 ddfc 2cb8 7192 0639
00000050: 0009 26b8 f457 3db9 b25c c639 634d 2639
00000060: f3df 80b9 d993 a1b8 cd57 8b38 b7f1 5b39
00000070: 9291 8838 a0ef bf37 b83b 57b7 7923 12b9
00000080: 7a6b 4239 d2b5 bd38 823a 53b9 b1be d7b9
00000090: 1cd3 afb8 8cea b6b8 ab05 cab8 006a 8839
000000a0: c764 8a39 1fa1 7938 7839 8fb8 0d12 8039
000000b0: 4444 b836 d1b8 dbb9 1f27 17b9 61f9 7d38
000000c0: ef97 81b8 9c95 abb8 5286 5038 bf25 5ab9
000000d0: d76b 22b8 8819 a0b9 1499 b9b8 4b72 4839
000000e0: bc12 42b9 5cae 2439 e8e9 a0b8 8613 6238
000000f0: 91bb 8a38 f350 99b9 eb2e 97b9 3837 8838
00000100: 8c08 15b9 4a4f 4b38 3bf8 d2b8 a35f 2439
00000110: 2cc9 ab39 5602 9d38 8c88 d6b9 1319 8935
00000120: aed6 3cb9 c990 a9b9 4bc6 23b9 d0b7 1438
00000130: f801 83b9 b644 dbb7 2c86 e2b9 8eee 29b5
00000140: 8eb2 6438 f9d2 ccb7 604b 3e38 c736 88b9
00000150: 88d1 27b8 d9b2 1b38 6c1b b9b9 b3b0 d1b9
00000160: e0bd 76b9 f2bc 6737 0c0d b5b9 c7ae 06ba
00000170: aeb3 dab7 f91d 77b9 7beb c839 3589 5cb9
00000180: cdaa 0139 f01f 46ba 273c c0b7 6fae 6938
00000190: 4ffe a638 e69d aab8 25df 26b9 539f 1eb9
000001a0: d04a b7b8 29d9 0db8 21f5 1538 9d8f 79b8
000001b0: b318 fdb9 e240 72b8 b7c9 96b9 3e37 09b9
000001c0: 88fc 39b9 423d 2eb7 20fa bab9 21c0 a939
000001d0: fdd1 4138 9bc1 9ab9 1c92 0fb9 7845 bfb9
000001e0: 9bbe 0139 8652 c3b7 2bd1 0038 4f9e 1439
000001f0: f79c a538 3296 6938 e57a c2b8 7e67 87b8

exp_avg_sq f4 [128]
3.0308909e-09 4.341019e-09 9.950935e-10 3.6912327e-09 3.0474638e-09 1.2843622e-09 3.2395095e-09 2.39444e-09
4.4537942e-09 3.9300043e-09 5.787409e-10 4.1932764e-09 1.8380149e-09 8.991025e-09 7.3654405e-10 1.5873429e-09
6.488421e-09 3.3205116e-09 2.0026239e-10 1.4011904e-08 5.5462124e-10 4.215518e-09 1.0510919e-08 3.8341086e-09
5.860234e-09 6.454118e-10 9.722719e-10 4.5727284e-09 7.6732487e-10 2.6056055e-09 3.7311567e-09 2.3449072e-09
4.286255e-09 2.2482385e-09 3.6634127e-09 1.4508042e-08 5.8972e-10 9.603962e-10 2.7850924e-09 7.1185093e-09
7.758071e-09 4.4864137e-10 6.8328304e-10 6.167712e-09 4.873138e-10 1.7012376e-08 3.0060796e-09 1.6975424e-09
3.5557632e-09 1.4647007e-09 2.7843314e-10 3.5584058e-09 1.361558e-09 1.3978097e-08 3.4675476e-09 4.2987027e-09
7.556282e-09 4.470632e-09 9.032929e-10 3.2232501e-09 1.5992035e-09 9.206447e-09 6.885227e-09 4.7802726e-09
2.6746294e-09 1.0655834e-09 9.893374e-10 7.3337665e-09 1.1856818e-08 5.413033e-10 1.1866838e-08 5.469411e-09
4.6103907e-09 1.06812905e-08 5.0155258e-09 1.1366643e-09 3.990404e-09 1.8562317e-10 1.3145389e-08 7.910111e-10
6.8368955e-10 1.1757144e-09 1.4240739e-09 4.5651896e-09 2.4938025e-09 4.6844273e-10 1.16057555e-08 1.7941304e-08
4.688999e-09 2.4618565e-09 1.42861705e-08 2.311065e-08 2.1001356e-10 4.23589e-09 1.4969283e-08 5.7755853e-09
6.535944e-09 4.0876408e-08 5.473349e-10 4.943787e-10 1.7683701e-09 1.3569214e-09 2.5256148e-09 3.2360838e-09
2.097124e-09 2.3248177e-09 6.147806e-10 5.9264516e-10 1.8811239e-08 4.819737e-10 6.012508e-09 4.2098107e-09
4.5961546e-09 7.6605594e-10 1.0420591e-08 6.3514567e-09 4.3638754e-10 6.9928316e-09 2.1086553e-09 1.3471434e-08
1.5286176e-09 4.797861e-10 2.8258043e-09 5.3869544e-09 9.523872e-10 1.8514458e-09 1.4966689e-09 5.598304e-10
00000000: ff47 5031 0228 9531 bdc3 8830 daa8 7d31
00000010: 8d6b 5131 7a85 b030 0e9e 5e31 6f8b 2431
00000020: fd07 9931 af08 8731 4515 1f30 7314 9031
00000030: 669d fc30 f276 1a32 ae75 4a30 aa29 da30
00000040: c1f0 de31 0f2f 6431 da30 5c2f 01b9 7032
00000050: 0074 1830 17d8 9031 8393 3432 2dbd 8331
00000060: 2a5b c931 d168 3130 c7a0 8530 251e 9d31
00000070: b0eb 5230 4c0e 3331 9a33 8031 0b24 2131
00000080: 4c46 9331 6e7f 1a31 70bf 7b31 0b3f 7932
00000090: db19 2230 f0fe 8330 dd63 3f31 1297 f431
000000a0: 5b48 0532 a9a4 f62f c5d1 3b30 c5eb d331
000000b0: a9f3 0530 9c22 9232 8393 4e31 f74e e930
000000c0: a659 7431 934e c930 fb11 992f 2388 7431
000000d0: 9021 bb30 5224 7032 be49 6e31 cab3 9331
000000e0: e1d0 0132 189c 9931 964b 7830 0480 5d31
000000f0: f9ca db30 622a 1e32 1993 ec31 b93f a431
00000100: 94cc 3731 e273 9230 37f9 8730 7efc fb31
00000110: d6b2 4b32 d5ca 1430 e8de 4b32 73ed bb31
00000120: 6d69 9e31 d080 3732 0855 ac31 d238 9c30
00000130: f71b 8931 4718 4c2f 08d6 6132 756e 5930
00000140: 60ee 3b30 c696 a130 25b9 c330 d5db 9c31
00000150: 705f 2b31 bac3 0030 a762 4732 581d 9a32
00000160: df1c a131 702d 2931 3e6f 7532 db84 c632
00000170: 90e9 662f 488b 9131 cd95 8032 9672 c631
00000180: c592 e031 1690 2f33 4573 1630 cfe4 0730
00000190: fe0a f330 6d7e ba30 168f 2d31 ca61 5e31
000001a0: ff1c 1031 a0c2 1f31 57fd 2830 b2e7 2230
000001b0: 5a96 a132 e27b 0430 9496 ce31 e3a5 9031
000001c0: 34ec 9d31 6592 5230 3e06 3332 013c da31
000001d0: 16e8 ef2f 9945 f031 dbe7 1031 fe6f 6732
000001e0: 7317 d230 f2e1 0330 1330 4231 2718 b931
000001f0: 25e5 8230 f575 fe30 5bb3 cd30 90e2 1930

exp_avg f4 [128, 128]
2.6215062e-06 -4.3016444e-06 -4.4893767e-08 -3.5244357e-06 -1.0404361e-07 2.3291643e-05 1.9324455e-07 4.577278e-06
9.554565e-06 5.638819e-06 1.3878414e-05 -4.7642375e-06 -2.3791335e-06 1.5666452e-05 -5.82897e-07 1.0046155e-06
2.2539825e-05 1.5039427e-06 -1.4714869e-06 1.2876007e-05 5.152987e-06 1.7957746e-05 -3.369323e-06 -4.6265727e-06
1.7928907e-05 1.0718065e-05 -2.4454685e-06 2.3481772e-07 -7.462248e-07 -2.6641442e-06 -2.3824855e-06 1.0210342e-06
7.3527735e-06 3.850169e-06 1.62019e-06 7.938255e-06 6.2316017e-06 3.9116344e-06 4.7538215e-06 -4.882459e-06
-3.332732e-06 -1.9637102e-06 1.0777813e-05 4.052912e-06 3.8068697e-06 4.660097e-06 2.2948649e-07 1.6759091e-06
1.6513171e-05 -2.1590506e-07 4.872271e-06 4.1170274e-06 6.7408373e-06 1.8460529e-05 1.1814501e-05 4.384554e-06
1.2552233e-05 6.3391776e-06 6.910423e-06 -2.340233e-06 2.1587075e-06 1.1164741e-05 6.1531987e-06 -3.121335e-06
3.747051e-05 1.2643865e-05 5.891758e-07 -4.4740596e-06 -4.266587e-06 1.201027e-06 5.335629e-05 -1.693382e-06
1.3836341e-05 3.957055e-05 -8.7546584e-07 2.1221618e-05 3.906641e-06 1.10579895e-05 3.8137196e-06 3.4638138e-06
7.4296184e-07 -2.5920358e-06 -3.0633091e-06 4.235946e-06 -2.698245e-06 6.819204e-06 2.0929961e-05 6.887415e-07
6.258707e-06 -2.9054886e-06 1.0024858e-05 1.3776557e-05 1.1284948e-06 8.5724116e-07 -2.0102673e-06 -3.845438e-07
-3.6526026e-06 3.6051233e-06 1.1303216e-05 -3.6087633e-06 3.98096e-06 3.6002075e-06 1.0267186e-06 7.943559e-06
1.7607508e-05 7.3327965e-07 8.9230764e-07 2.339751e-05 2.880103e-06 -1.5416135e-06 1.0866484e-05 3.4665976e-05
-1.1455115e-06 3.7971997e-06 6.1322535e-06 -2.8622342e-06 -2.0469902e-06 4.650085e-07 -7.800928e-07 2.3638645e-06
6.357976e-06 1.4824903e-06 1.2226454e-05 -4.2920246e-06 -3.4155564e-06 -3.3913993e-06 4.6858378e-07 -5.185344e-07
-5.1643786e-07 -1.4928207e-06 3.3161007e-07 7.4269474e-07 3.6092155e-07 -6.996796e-06 -1.744635e-06 -7.129595e-07
-2.5564927e-06 -9.8895e-07 -3.699105e-06 -8.102745e-07 -1.0634185e-06 -3.978756e-06 -3.3523042e-06 -3.8596664e-07
-6.484319e-06 1.5798435e-08 -8.8838726e-07 -3.6302047e-06 -8.321781e-07 -4.7895574e-06 7.22291e-07 -1.1517943e-07
-4.7485605e-06 -2.4435844e-06 1.9699692e-07 2.611322e-07 4.9037214e-07 -1.9711956e-07 -3.1387885e-06 -1.2516924e-06
-1.8044444e-06 -5.319447e-07 -7.912419e-07 -1.123471e-05 -1.0805887e-06 -6.162053e-07 -7.4061376e-07 -1.0596955e-07
5.80326e-07 8.516838e-08 -2.5560153e-06 -7.430748e-07 -5.203541e-07 -8.05449e-06 -1.6500974e-06 -1.7629475e-08
-4.461158e-06 -5.2331034e-06 -8.6346193e-07 -7.3056157e-07 -1.2493665e-06 -5.009225e-06 -2.7661397e-06 -8.235752e-07
-1.599245e-05 -1.4222651e-06 -1.2416155e-06 -3.770619e-06 -1.3955244e-07 -2.4491162e-06 -9.616924e-06 -2.008861e-06
-1.2117784e-05 -3.570313e-06 -7.670076e-07 -5.744521e-07 4.8832993e-07 1.5180319e-09 -1.717837e-05 -4.528482e-06
-3.356819e-06 -1.2528309e-05 -2.5314903e-06 -6.616915e-06 -7.5448685e-07 -2.695142e-06 -8.228691e-07 -4.9297176e-07
7.375064e-08 -2.945651e-06 3.1154218e-07 -8.346403e-07 -1.1589452e-07 -1.436422e-06 -5.805984e-06 -2.3315845e-06
-1.0941872e-06 -1.0577937e-06 -2.106645e-06 -1.5475645e-05 -3.2236187e-09 -7.788159e-07 6.786214e-07 -2.2382271e-06
-2.800864e-06 -8.323293e-07 -2.732918e-06 -1.8400074e-06 -6.151489e-07 -5.070463e-07 -2.007746e-06 -1.5131316e-06
-4.996861e-06 -6.8193685e-06 8.366317e-08 -7.2376943e-06 -8.7542065e-07 -1.117158e-06 -1.431811e-05 -1.1286337e-05
-2.2518723e-06 -5.1619804e-07 -1.0808424e-06 7.9016706e-07 2.725621e-07 -1.8205085e-06 -1.513798e-06 -7.695394e-07
-1.4040959e-06 -1.2715361e-08 -3.3814001e-06 -6.010457e-07 -9.81081e-08 -1.7276416e-06 -1.0404235e-06 -5.574756e-07
00000000: 22ed 2f36 d856 90b6 38d1 40b3 5885 6cb6
00000010: 946e dfb3 6c62 c337 a87e 4f34 8596 9936
00000020: 8b4c 2037 1635 bd36 56d7 6837 7ddc 9fb6
00000030: 34a9 1fb6 736b 8337 6078 1cb5 53d6 8635
00000040: e813 bd37 14db c935 e87f c5b5 0706 5837
00000050: d2e7 ac36 f7a3 9637 871c 62b6 f53d 9bb6
00000060: 0966 9637 bdd1 3337 d41c 24b6 3422 7c34
00000070: 2e50 48b5 a6c9 32b6 cae2 1fb6 780a 8935
00000080: d8b7 f636 b330 8136 4e75 d935 8c2e 0537
00000090: 0d19 d136 af40 8336 0483 9f36 01d4 a3b6
000000a0: e6a7 5fb6 49c8 03b6 5bd2 3437 40fe 8736
000000b0: 8679 7f36 ee5d 9c36 c468 7634 ccef e035
000000c0: c485 8a37 88d3 67b4 7d7c a336 ff24 8a36
000000d0: 5a2f e236 afdb 9a37 e536 4637 081f 9336
000000e0: 6e97 5237 1fb5 d436 15e0 e736 e60c 1db6
000000f0: 50de 1036 3350 3b37 9377 ce36 2178 51b6
00000100: a729 1d38 fd20 5437 da27 1e35 e11f 96b6
00000110: b429 8fb6 f932 a135 e1ca 5f38 2a48 e3b5
00000120: a222 6837 8ef8 2538 8e01 6bb5 1405 b237
00000130: ca15 8336 b485 3937 34ef 7f36 de73 6836
00000140: f36f 4735 d6f2 2db6 4093 4db6 8022 8e36
00000150: 7f13 35b6 84d0 e436 c092 af37 f5e1 3835
00000160: e201 d236 eafb 42b6 7030 2837 dd21 6737
00000170: c976 9735 2a1d 6635 21e8 06b6 4c73 ceb4
00000180: 3c1f 75b6 8cef 7136 f1a2 3d37 152e 72b6
00000190: 3094 8536 189b 7136 c8cd 8935 5345 0537
000001a0: d6b3 9337 98d6 4435 ea86 6f35 c545 c437
000001b0: cb47 4136 70e9 ceb5 324f 3637 4f66 1138
000001c0: 7abf 99b5 65d3 7e36 a8c3 cd36 cf14 40b6
000001d0: 065f 09b6 48a6 f934 9267 51b5 e2a2 1e36
000001e0: 9956 d536 fbf9 c635 3820 4d37 3604 90b6
000001f0: d036 65b6 cc97 63b6 aa91 fb34 6a31 0bb5
00000200: 57a1 0ab5 ee5c c8b5 2408 b234 985d 4735
00000210: aec4 c134 05c6 eab6 3429 eab5 3462 3fb5
00000220: 3690 2bb6 10bc 84b5 243e 78b6 a481 59b5
00000230: c8ba 8eb5 4181 85b6 26f8 60b6 da36 cfb4
00000240: e093 d9b6 20b5 8732 8279 6eb5 719e 73b6
00000250: d862 5fb5 fcb5 a0b6 76e3 4135 9058 f7b3
00000260: d355 9fb6 76fc 23b6 1a86 5334 bc31 8c34
00000270: 1ea2 0335 d0a7 53b4 faa3 52b6 d3ff a7b5
00000280: 3d30 f2b5 f6ca 0eb5 bb65 54b5 b67c 3cb7
00000290: bf08 91b5 4e69 25b5 97ce 46b5 6091 e3b3
000002a0: b3c7 1b35 d0e5 b633 0288 2bb6 b677 47b5
000002b0: 76ae 0bb5 c521 07b7 ea78 ddb5 a06f 97b2
000002c0: 0eb1 95b6 0498 afb6 a7c8 67b5 cf1b 44b5
000002d0: e8af a7b5 ea14 a8b6 eba1 39b6 a813 5db5
000002e0: 8627 86b7 a8e4 beb5 95a5 a6b5 be0a 7db6
000002f0: e2d7 15b4 7f5b 24b6 6058 21b7 f8cf 06b6
00000300: 7c4d 4bb7 8399 6fb6 5ce4 4db5 0c34 1ab5
00000310: c715 0335 00a3 d030 451a 90b7 5df3 97b6
00000320: b645 61b6 ad30 52b7 ace2 29b6 de06 deb6
00000330: f187 4ab5 30de 34b6 22e3 5cb5 c354 04b5
00000340: d860 9e33 e6ad 45b6 0842 a734 0b0c 60b5
00000350: b0e1 f8b3 16cb c0b5 06d1 c2b6 5178 1cb6
00000360: fcdb 92b5 84f9 8db5 e35f 0db6 b2d1 81b7
00000370: 8086 5db1 d20f 51b5 822a 3635 7334 16b6
00000380: 7af6 3bb6 3c6d 5fb5 2c67 37b6 2cf6 f6b5
00000390: b620 25b5 f51b 08b5 d0bc 06b6 ce16 cbb5
000003a0: b6aa a7b6 eed1 e4b6 50aa b333 52db f2b6
000003b0: 73fe 6ab5 42f1 95b5 d037 70b7 735a 3db7
000003c0: df1e 17b6 dc90 0ab5 7611 91b5 de1b 5435
000003d0: a654 9234 3258 f4b5 b42d cbb5 5892 4eb5
000003e0: 5e74 bcb5 c072 5ab2 03ec 62b6 8c57 21b5
000003f0: 80af d2b3 50e1 e7b5 aea4 8bb5 6ea5 15b5
