Assets/Models/MoveToGoal/MoveToGoalFinal.onnx (onnx, 73181 bytes, 7 tensors)

network_body._body_endoder.seq_layers.0.weight f4 [128, 7]
000000 7b cd 3e 3e fd 74 fe 3c f9 c3 93 3e 22 80 e9 3e
       0.18633072 0.031061644 0.28860453 0.4560557
000010 6f 92 20 3e 2f c3 da 3d 69 04 57 be 4b 57 6a 3e
       0.1568086 0.106817596 -0.20997776 0.22884862
000020 c4 50 aa 3e 52 71 1d bd d3 83 0e be 9a 0c a0 3e
       0.33264744 -0.03843815 -0.13917474 0.31259614
000030 9d 88 c5 bc fd 68 7a be b6 64 e3 3e ca 76 da be
       -0.024112994 -0.24454112 0.44412774 -0.42668754
000040 eb 07 42 3d c7 bb fb bc 92 03 fb be 39 7a 8f bc
       0.047370832 -0.030729188 -0.4902616 -0.017514335
000050 0d 7d ac 3e 7d f4 66 bd a5 d8 8b 3e 0f 71 92 be
       0.33689156 -0.056385506 0.27313724 -0.28601882
000060 c7 bd a6 be 7c d3 9f 3a af 21 ff be 12 4f b6 be
       -0.32566664 0.0012193765 -0.49830386 -0.356072
000070 b0 c3 14 bf 5b 0c 40 3f 15 7d 1d be ee f2 37 3e
       -0.58111095 0.7501885 -0.15379746 0.17963764
000080 c5 c3 9a 3e e6 eb 75 3e e7 9f b9 3d f0 07 3b 3e
       0.30227485 0.2401577 0.09063702 0.18264747
000090 46 ef 40 be aa 08 4b 3e db 7d 8e be bb ac 16 bf
       -0.18841276 0.19827524 -0.27830395 -0.58857316
0000a0 9a b7 8b be 69 17 4c be 0b ea a9 bd 6a 50 0f 3e
       -0.27288514 -0.19930805 -0.08296593 0.1399552
0000b0 41 13 8c 3e ad d2 39 bf 42 e6 56 3d 51 38 f8 bd
       0.2735844 -0.7258709 0.052465685 -0.121201165
0000c0 a4 9b 25 be 25 c9 86 3d 1a f0 91 3e 9f 52 8a 3e
       -0.16172653 0.06581334 0.28503495 0.2701616
0000d0 f7 c9 27 3f 9c f7 86 bd 32 03 54 be 4f cd 18 3e
       0.6554255 -0.065901965 -0.20704344 0.14922069
0000e0 a0 0f 84 be d8 80 16 be c2 c2 0a be 6b bf 81 bd
       -0.2579317 -0.14697587 -0.13550857 -0.06335338
0000f0 92 bc 32 bf 2e 28 9e be 83 02 a8 bd b7 0e e0 3e
       -0.69818985 -0.3089003 -0.08203604 0.43761227
000100 0f 73 07 bf 8d d2 84 be 91 28 ee 3e 89 70 03 3e
       -0.5290994 -0.25941887 0.46515325 0.12835898
000110 a8 8f 37 be 12 16 2e 3f 98 89 15 bf 59 4b e2 be
       -0.17925894 0.68002427 -0.58413076 -0.4419811
000120 a0 70 8f be 87 18 2d 3e 11 61 6a be d1 0c d5 bd
       -0.28015614 0.16903888 -0.2288859 -0.10402835
000130 7b 4f dd be cb d6 10 bf 1e 83 64 bd 36 a2 4f bd
       -0.432247 -0.5657775 -0.055789106 -0.050691806
000140 b3 0f 64 be 81 b0 35 3e 9b c8 79 3c d9 a3 40 3e
       -0.22271614 0.17743112 0.015245582 0.18812503
000150 27 61 1f bf 4c 2d cf 3e 4e 0d 2a 3e 4a 39 0f 3f
       -0.6225762 0.40464246 0.16606638 0.5594679
000160 cb ab 19 be 77 cd 71 3e 00 6f 67 3d cd 5b 83 3e
       -0.1500694 0.23613535 0.056502342 0.25655976
000170 2f ac b0 bd f7 a4 0c bf 6d 93 16 3f 8f 7e 4f be
       -0.086265914 -0.54939216 0.58818704 -0.20263122
000180 40 53 ec 3e 68 06 92 be 03 d3 8a be 26 2d 0b bf
       0.46157265 -0.28520513 -0.27114114 -0.54365766
000190 4f 6c a3 be 88 de e3 3d 00 a4 ab 3d 8e 5d b6 be
       -0.3191857 0.11126429 0.0838089 -0.35618252
0001a0 3f f0 8a bd ed d5 b5 3e 66 17 af 3d 25 82 05 be
       -0.067841046 0.35514775 0.08549385 -0.13037927
0001b0 a7 49 b1 3e ef 7f 5f be ae 70 05 bd 87 68 26 3e
       0.34626505 -0.21826147 -0.032578163 0.16250812
0001c0 c9 db e0 3d 1b d1 07 be d8 12 d4 be 71 d9 20 bf
       0.10979421 -0.13263361 -0.41420627 -0.6283179
0001d0 d2 79 81 be 72 18 bc be ab b1 e8 be 5b f6 16 3e
       -0.25288254 -0.367374 -0.4544805 0.14742415
0001e0 47 e7 8e be ea 3d d0 bc 66 0c fe be 69 16 55 be
       -0.27910826 -0.025420148 -0.49618834 -0.2080933
0001f0 ad e4 ed be d1 00 19 3f 0b 63 16 bf 1a 41 df 3e
       -0.46463528 0.5976687 -0.5874488 0.43604356
000200 e5 a7 83 be f2 1f fb 3e 24 6a 7d be 36 96 76 3e
       -0.2571403 0.4904781 -0.2474752 0.24080738
000210 05 9a 42 bf b9 b6 15 3f 12 d2 95 be c3 ca ce 3e
       -0.76016265 0.5848194 -0.29261833 0.4038907
000220 3d 3d 4a be d6 de a6 be 93 e3 44 3f 32 3a 9b 3d
       -0.19749923 -0.32591885 0.7690975 0.07579459
000230 2a b6 d5 3d 64 63 a4 be 98 2d a3 be 46 41 81 3c
       0.10435136 -0.3210708 -0.31870723 0.015778195
000240 42 c8 f0 bd 67 18 08 3f 97 47 22 bf 98 5b 98 3e
       -0.11756946 0.53162235 -0.6339049 0.2975738
000250 87 3c bd be 8a bf 6f 3e 69 c2 c5 bd fd 0d 49 be
       -0.3696024 0.2341291 -0.096562214 -0.19634242
000260 eb 21 12 bf 3e aa a8 3d d7 5c 13 be ac 97 0a 3f
       -0.57083005 0.08235596 -0.14390884 0.5413768
000270 1e 6c af 3e c4 85 08 be 9a 44 51 bf 6e 40 af be
       0.34262174 -0.13332278 -0.817453 -0.34228843
000280 26 4b 87 bd 51 28 59 be d7 75 20 bf 16 6a 02 bd
       -0.0660613 -0.21206786 -0.6267981 -0.031839453
000290 d6 d8 2a 3e 7d 48 35 be 62 7c 66 3d 03 f2 aa 3e
       0.16684279 -0.17703433 0.056270964 0.33387765
0002a0 66 df b7 3e 2d 6d 17 be 6a 46 8d 3e 4f 24 e8 be
       0.35912627 -0.14787741 0.27592784 -0.453402
0002b0 03 2d 46 3f cd ae 19 bf 6b da e1 bc db 92 2f 3f
       0.7741243 -0.6003235 -0.02756997 0.6858346
0002c0 f0 5a a7 bd a7 be a3 3e 6e 41 05 3f 56 09 01 3f
       -0.08171642 0.31981394 0.5205296 0.5040487
0002d0 9c ac e9 3e 60 ba 69 3e 01 43 17 3f c3 51 5a 3d
       0.45639503 0.22825003 0.59086615 0.05330063
0002e0 e2 cb 97 3e de 98 68 bf 01 20 cd 3e 6b cc 6b be
       0.29647738 -0.90858257 0.4006348 -0.23027198
0002f0 0c 40 4e 3e 28 88 bb 3c 9a 0d 6c bf 3a b4 f0 be
       0.2014162 0.022892073 -0.92208254 -0.47012502
000300 1b c4 51 be a0 3f 5f be e4 05 7d bd f4 ff 97 3e
       -0.20484965 -0.21801615 -0.061773196 0.29687464
000310 bd 07 1b be 5b f7 9a be 0b f1 e2 bd 24 ae 4f be
       -0.1513967 -0.30266842 -0.110811315 -0.20281273
000320 32 25 9d bd c5 2a 05 3e 18 c3 98 be 10 c7 d3 be
       -0.0767311 0.13004597 -0.29836345 -0.4136281
000330 78 ee 10 bf 40 f0 b6 3e 78 52 ab 3e 6d f8 9a be
       -0.56613874 0.3573017 0.33461356 -0.3026766
000340 b3 40 13 3f 76 c9 b0 3d 6d 89 24 3e b8 d3 85 be
       0.575206 0.086321756 0.16068049 -0.2613809
000350 17 95 a3 3d f8 0c ac bd 3f 2a 7f 3e ab 1f f3 be
       0.07987421 -0.08400911 0.2491846 -0.47485098
000360 28 7f 01 3e bc 3c 2b 3f 4b 30 95 3e e4 48 c7 be
       0.12646163 0.6688955 0.29138407 -0.389228
000370 ea 82 d9 3e c1 42 d6 3d 99 49 04 bd 2e 6d 02 3e
       0.42482692 0.10461951 -0.03229675 0.12736961
000380 91 83 86 3d 3a 7c 45 bc a7 73 8a 3b c5 4b 2c be
       0.06568063 -0.012053544 0.0042252126 -0.16825779
000390 a0 10 8f 3d fe 1d ce be 03 d1 44 be d3 d3 05 bf
       0.06985593 -0.40257257 -0.19220357 -0.52276343
0003a0 23 61 b2 3d 37 1e b7 3e ab 6b 85 bd 17 07 79 3d
       0.087099336 0.3576524 -0.06514677 0.060797777
0003b0 4b 46 7f be ab ff 50 3d 2c 42 66 3e 3c d4 69 3c
       -0.24929158 0.051025074 0.2248618 0.014271792
0003c0 d7 39 e1 3d 08 b6 ab be 0f 48 98 bc 1a b0 e2 3d
       0.1099736 -0.33537316 -0.018589048 0.11068745
0003d0 81 fc 13 bd e7 dd 10 be 95 35 5b be 52 95 b0 3e
       -0.03612948 -0.14147149 -0.21407159 0.34488922
0003e0 2d d5 9a 3f 77 a1 67 bb ab 94 ae bd 88 25 b5 bd
       1.2096306 -0.0035344043 -0.0852445 -0.08845049
0003f0 7f 61 a6 bd aa c8 0f bd 78 bd 89 bd 7c 90 ae bd
       -0.08124065 -0.035103478 -0.067255914 -0.08523652

network_body._body_endoder.seq_layers.0.bias f4 [128]
000000 16 f4 ed bc fc 22 51 bc 43 1d a5 3c a8 bb 2f bd
       -0.029047053 -0.012764689 0.020155555 -0.042903572
000010 70 26 d0 3c 2e f5 b9 bc 31 26 37 3d da b7 21 3d
       0.025408953 -0.022699919 0.044714157 0.039481975
000020 04 28 de bc f9 ea 5c bc 92 84 58 bd ae 66 b3 3c
       -0.02711869 -0.013483756 -0.052860804 0.021899547
000030 8e d6 33 3d 9b be aa bc df 1e 29 bd bf 55 86 bc
       0.043905787 -0.02084284 -0.041289207 -0.016398309
000040 8c 61 fc ba 6b 8c d1 bb f1 e8 6b bd dc 5a e6 3b
       -0.0019255145 -0.006394913 -0.057595197 0.0070298743
000050 90 7c 9f bc 67 bc f4 ba 21 a2 5f bd ad 29 3e 39
       -0.019468576 -0.0018671871 -0.054597978 0.00018135337
000060 02 4e 4e 3d 24 60 f3 3c e1 5a 47 3d 3e e4 a9 bc
       0.050367363 0.02970893 0.048670653 -0.020738717
000070 5a 18 05 bd fd 72 10 3d 79 9c c7 bc cc 4c 01 3c
       -0.032493927 0.03526591 -0.024366604 0.007891845
000080 63 32 1a bd 1a 2e 0e 3b 96 cd dc 3c 11 b7 95 3d
       -0.03764571 0.002169496 0.0269535 0.07310308
000090 62 a0 62 bd 83 b1 66 bc 58 4f 08 bd 2a b8 0d 3d
       -0.055328734 -0.014080408 -0.033278793 0.03459946
0000a0 fe c6 25 3d 2c b4 a8 bb 3a 37 98 3c d0 07 d6 3a
       0.040472977 -0.0051484313 0.018581022 0.0016329233
0000b0 ae 42 01 3d 96 44 f6 3b 37 57 50 bc 0e a7 04 3d
       0.03155773 0.0075155003 -0.012716106 0.03238588
0000c0 2e 50 bd bc c8 f0 40 bd 59 3c ec 3b 2f b3 f4 3c
       -0.023109522 -0.047104627 0.0072093424 0.029870598
0000d0 3f 09 e9 3b 8b 1d 4d 3d c0 d1 8e 3c 03 28 9c 3c
       0.007111698 0.050077002 0.017434001 0.019062048
0000e0 c2 13 a8 3c 0f e7 29 3d eb a4 a6 3b dc b9 e3 3c
       0.020517234 0.04148012 0.0050855777 0.027798586
0000f0 cb 7e 30 3d 30 c2 92 3c b0 a5 50 bc d0 1b 47 bc
       0.04308967 0.017914861 -0.0127348155 -0.012152627
000100 f8 0d d7 bc cf d7 fb 3c 20 54 4b bd 3f 71 7f 3c
       -0.026251778 0.030742554 -0.049640775 0.015590965
000110 bd 9b 83 3c 95 ab ab 3b 4c f2 44 3c c1 59 90 3c
       0.016065473 0.00523896 0.012020659 0.017620923
000120 4d 53 c3 bc e6 0e 63 3a ec e5 63 3d 8b 10 c8 bc
       -0.023843432 0.0008661583 0.055639192 -0.02442195
000130 02 f2 08 3b 63 9f 25 3c 7d b2 ca 3b 83 57 e5 3b
       0.00208962 0.010108802 0.0061858282 0.0069989576
000140 9a 1d c5 3c 48 ff 27 3d 34 76 02 3d 4b 23 88 ba
       0.024061967 0.04101494 0.03185101 -0.0010386495
000150 ac 32 09 bd 1a b5 31 bd 4e d3 ec 3c 3f 0b 59 3d
       -0.03349559 -0.043385603 0.028909352 0.05298924
000160 28 aa ec bc ac 38 b9 ba 03 f2 2b 3d 2a 95 08 3d
       -0.02888973 -0.0014131269 0.041978847 0.03334538
000170 36 72 48 bc 71 60 75 3c c8 8c 44 bc 7c a7 f6 bc
       -0.012234261 0.014976607 -0.0119964555 -0.03010916
000180 06 a9 05 3d 2b 59 85 bc b2 33 a9 bb 47 5e 33 3c
       0.032631896 -0.01627787 -0.0051636333 0.01094777
000190 c6 47 1e bd 7f f9 a1 3b 0d 63 ae 3b f2 06 0f 3d
       -0.038642667 0.0049430723 0.0053218664 0.034918733
0001a0 af 3a f2 bc 86 06 83 3d f1 53 ac 3c 2d 89 3f bd
       -0.029568998 0.063977286 0.02103612 -0.04676168
0001b0 33 2d f2 3c 18 4c 0e bc 6c 97 96 bc 49 2f 1f 3d
       0.029562568 -0.008685134 -0.01838275 0.038863454
0001c0 a5 02 2f bc 00 4d fe 3a f3 13 d7 3c 8a f4 bc bc
       -0.010681783 0.001940161 0.02625463 -0.023065824
0001d0 15 a7 e9 bc d9 62 ea 3b 85 22 54 3c 7a 64 24 bb
       -0.028522054 0.007152897 0.012947683 -0.0025084303
0001e0 8f 17 b8 3c bc 4e 88 3d 29 fc 2c 3c 29 71 d6 bc
       0.022472171 0.066556424 0.010558167 -0.026177006
0001f0 f3 aa af 3b 7d 5d 54 bc 11 95 cf bc 3a 8e cd 3c
       0.005360955 -0.0129617425 -0.025339635 0.025092233

network_body._body_endoder.seq_layers.2.weight f4 [128, 128]
000000 0e 21 18 3c 17 ce fa 3a f9 b8 15 bb 33 02 e7 bd
       0.009285225 0.0019134906 -0.0022845848 -0.11279716
000010 17 63 07 bc 95 07 f6 3d d2 78 a0 bd cd 40 0d be
       -0.008263371 0.12013165 -0.07835545 -0.13794251
000020 92 bc 5f 3c 3f 36 a6 bd 60 59 cd 3b 0b 46 0c be
       0.0136557985 -0.08115815 0.006266758 -0.13698594
000030 de 8c 5b 3e 9c f7 ad bd 58 91 08 be 9c 0d df 3a
       0.21440455 -0.08494493 -0.13336694 0.0017017606
000040 c5 d6 2a be fe 19 3e bd 81 cb 53 bd 21 49 37 bd
       -0.1668349 -0.046411507 -0.05170775 -0.044747476
000050 28 6f fe bd 88 e3 8b bd 5f ba 46 bc 0a 77 34 3d
       -0.12423545 -0.068305075 -0.012129395 0.044058837
000060 b9 16 6c bd 0b 8d 51 bd c1 90 a5 3d 4f d4 cf 3c
       -0.057638858 -0.0511599 0.0808425 0.025369791
000070 33 88 77 3d 36 06 1c bc c1 36 f9 bd f3 7b 1e 3e
       0.060432624 -0.009522965 -0.121686466 0.1547697
000080 a9 93 b4 3a b3 e5 a5 3d 79 f2 b0 bd 73 9d b2 3b
       0.0013776916 0.08100452 -0.08639998 0.0054508983
000090 3d ff 69 3d 34 6c 91 bd 80 85 96 bb 73 de be bc
       0.05712818 -0.07100716 -0.004593551 -0.023299431
0000a0 c0 41 9e 3d 8b 75 b1 3c d8 d8 d9 bc 23 b8 73 3d
       0.077273846 0.021662494 -0.026592657 0.05950178
0000b0 43 43 50 3d ba da 1c bd 84 69 61 3d 7d b0 d3 bd
       0.050845396 -0.03829453 0.05503227 -0.10336397
0000c0 36 5c 1d 3e e4 f9 d8 bc a9 8e 00 bd 0e 06 9c 3c
       0.15367207 -0.026486345 -0.03138605 0.019045856
0000d0 25 75 b0 bc ba 1a aa bc 64 20 f7 bd 09 6e d3 bc
       -0.021540234 -0.020764697 -0.12066725 -0.025809305
0000e0 c5 90 d5 3b 5a 35 35 3e 3f e6 ae 3c 1c ce a6 3d
       0.006517502 0.17696133 0.021350024 0.08144781
0000f0 71 e4 ec 3d 33 c9 c5 bd 6f fc 89 3d 4e a3 84 3d
       0.11567009 -0.09657516 0.06737601 0.064764604
000100 0b 01 f7 bd 5e 89 7d bd e5 82 96 bd 16 1f 20 be
       -0.12060746 -0.06189858 -0.07349185 -0.15636858
000110 ef 32 45 3e 42 0e f5 3c 61 35 9a bd d1 1f fd 3d
       0.19257711 0.029914025 -0.075297125 0.12359584
000120 84 e1 5c bc 1a 7c e0 bd 54 98 e1 3c a9 a3 67 3d
       -0.0134815015 -0.109611705 0.027538456 0.056552563
000130 ba 66 fe bd 8d 3e 83 ba 67 88 7c bd 6b 50 3a 3c
       -0.12421937 -0.0010013148 -0.06165352 0.011371712
000140 cd a6 fd bd b5 58 aa 3d 39 22 27 be 16 e3 42 3d
       -0.1238533 0.08317701 -0.16321649 0.047579847
000150 3d 45 24 be 4c 1f a0 3d e8 54 07 bd fb fd 68 3d
       -0.16042037 0.078184694 -0.033039957 0.05688284
000160 94 17 e1 bd c7 bd e7 bd 53 de 7b bd fa 3a cf bd
       -0.10990825 -0.11315494 -0.06149132 -0.10118671
000170 3c 4b cf 3d 07 9f a5 3d 17 27 d3 bb 63 e1 04 3d
       0.10121772 0.08086973 -0.006443869 0.032441508
000180 64 74 14 3e d4 40 c5 bd 89 73 53 bd b4 fd 31 be
       0.14497524 -0.096315056 -0.051623855 -0.17381936
000190 80 d8 c8 3c 91 19 9b bd 5b 36 98 be 82 36 39 3e
       0.024517298 -0.07573236 -0.2972897 0.180872
0001a0 89 99 ca 3d 6a 00 69 be a1 ba 19 3d 0b f5 d1 bd
       0.09892566 -0.22754064 0.0375315 -0.10251816
0001b0 33 a5 7a bd 18 41 8e bd 5f c9 89 bd 3f bb e2 3d
       -0.061192703 -0.069460094 -0.067278616 0.110708706
0001c0 77 a8 41 3d bc 01 a2 bd 7e 40 29 ba 70 1a 21 3b
       0.0472798 -0.07910487 -0.00064564485 0.0024582408
0001d0 23 cd 1e be bf 53 f9 3d a8 c8 4d 3d ca f1 6b bd
       -0.15507941 0.121741764 0.05024019 -0.057603635
0001e0 33 15 bf bd 3b 59 cc bd 74 e8 d9 bd 8d e1 65 be
       -0.09330215 -0.09977957 -0.1064004 -0.22449322
0001f0 19 46 54 bd 68 20 f9 3d dc 45 25 be e7 fb c9 bd
       -0.051824663 0.12164384 -0.1613993 -0.098625
000200 9b b7 ad bc 4e a3 77 b9 d5 69 f2 bd 23 0d 0f bc
       -0.021205714 -0.00023616591 -0.11836592 -0.008731159
000210 ea 03 01 3d 06 41 80 bd 55 5c 0c be 9e 3b 03 3e
       0.031497873 -0.06262402 -0.13707097 0.12815711
000220 1d 6a 94 bd bd f3 36 3c 2e 75 f8 bd 94 e7 44 3e
       -0.07246802 0.01116651 -0.12131725 0.19228965
000230 df 5f b3 3d cb 6c 77 bd 72 44 b4 3a 86 58 8e 3c
       0.0875852 -0.060406487 0.0013753308 0.017376196
000240 f8 b1 4a 3e d8 5f 81 bd 1d 64 28 bd 7d 12 08 bd
       0.19794452 -0.06317109 -0.0411111 -0.033220757
000250 ff 66 02 bc 92 70 3e be 59 c6 16 be c8 55 81 3d
       -0.0079591265 -0.1859763 -0.14724101 0.063151896
000260 c0 bb 0b bd cb 6e d8 3c c1 f6 a0 bd 9b e8 11 3d
       -0.0341146 0.026420018 -0.078595646 0.03562222
000270 a2 a9 45 be 38 03 6e 3d be ef bb bd 57 f1 2f 3d
       -0.19302991 0.05810854 -0.091765866 0.04295477
000280 6b a3 ba 3d 41 13 7d 3d ac 13 0e bd eb a0 01 bc
       0.09113201 0.06178594 -0.03468673 -0.007911901
000290 7f da 9d 3d db 5e 2e 3c c1 bc 55 bd 43 8f 19 3c
       0.077076904 0.0106427325 -0.052181963 0.009372535
0002a0 4e 71 0e 3e f9 94 a6 3c 94 2d 8b bd bf 6f 93 3a
       0.1391041 0.020334708 -0.06795803 0.0011248513
0002b0 51 54 ee 3d cb c1 96 bd fe 98 2b 3d 48 73 8d 3d
       0.11637176 -0.07361182 0.04189395 0.06906754
0002c0 8e 45 8e bb 26 00 d2 bd 41 43 9b 3d 76 0a c5 3d
       -0.0043417877 -0.102539346 0.07581187 0.09621136
0002d0 e4 dc c8 3c 8a 66 2f 3d ea 10 8a 3d bd 19 ae 3d
       0.024519391 0.0428224 0.06741507 0.08501003
0002e0 5c 90 6c be 26 c8 2a 3d 3c 15 84 3d fe 29 ce 3d
       -0.23101944 0.041694783 0.06449363 0.10066603
0002f0 a8 34 4e 3d e2 5f 11 3e ec fe 1b be 0d 02 e5 bd
       0.050343186 0.14196733 -0.15233964 -0.11182032
000300 87 26 5a bd 68 bf 51 3b b4 0d bb 3d 9c 32 f4 3d
       -0.0532594 0.0032004956 0.09133473 0.119237155
000310 33 47 4c 3d 0a de 58 bd 2c 95 87 bd 2b 93 09 be
       0.04987259 -0.052946128 -0.06620249 -0.13435046
000320 6f d6 25 be bf 3c 32 3d e0 aa 1e 3d c2 0e 4a bd
       -0.16195081 0.043514963 0.038737178 -0.04933048
000330 09 66 72 bc 6e 50 3c be 00 d0 d3 3c 30 a5 a8 3c
       -0.014794835 -0.18390056 0.025856018 0.02058658
000340 58 cf 8c bd a6 82 58 3d 5a 95 97 bb 3b bc 70 bd
       -0.06875485 0.05285897 -0.0046259584 -0.05877326
000350 a3 b2 b5 3c 8f 9e de bc ba 4a 6c bd 04 bb 59 bd
       0.022179907 -0.027175216 -0.057688452 -0.053156868
000360 f1 a6 ce 3c 4a 3f 59 be 51 96 22 be 66 75 a1 bd
       0.025226088 -0.21215549 -0.15877654 -0.0788372
000370 54 59 a3 bc cb 0c 1f be bb ae 2b 3d f4 60 86 bd
       -0.019940056 -0.15532224 0.041914683 -0.06561461
000380 ff 26 e9 3d 66 58 23 bb 73 ee 67 3d fe d4 30 bd
       0.11384391 -0.0024924516 0.056623887 -0.043171875
000390 5e 09 64 3d 82 7c 02 bd bc 7d cf bd 74 0a a1 3d
       0.055672996 -0.03185702 -0.10131404 0.07863322
0003a0 dc b2 56 bd ab 86 90 3d 36 59 f4 3d e8 f2 ce bd
       -0.052416667 0.07056936 0.11931078 -0.101049244
0003b0 f8 46 57 3e 71 32 d1 3d 9e 77 44 bc 79 75 42 3d
       0.21023166 0.10214699 -0.01199141 0.047475312
0003c0 9a af 83 bd 61 b6 20 be a6 90 af 3c 94 84 c4 3d
       -0.06429978 -0.15694572 0.021431278 0.095956
0003d0 e6 f6 ee 3c 3f 4c 44 3e 41 1c 65 3c 78 a5 d8 3a
       0.029170465 0.1916971 0.013983787 0.0016528806
0003e0 4a 88 58 bd 36 ea 81 bc 82 06 d4 bc 12 41 ec 3a
       -0.05286435 -0.01585875 -0.02588201 0.0018024764
0003f0 5f 31 08 3e 86 3d 85 3d 07 29 4e be bf 6b e1 bd
       0.13300084 0.06505875 -0.20132838 -0.11006879

network_body._body_endoder.seq_layers.2.bias f4 [128]
000000 ff d1 17 3d 41 e7 12 3d 9c 3b c0 3c 65 5d 4c 3c
       0.037065502 0.035865072 0.023465924 0.012473439
000010 13 b6 3a 3d a1 59 c3 3c 82 ee eb bb 1d 84 88 3b
       0.045583796 0.02384645 -0.007200063 0.0041661398
000020 0e 30 c2 bc 2c 92 b2 3c b1 8f 8d 3c 69 23 c3 3b
       -0.023704555 0.021798216 0.017280431 0.005955149
000030 f5 a5 8c 3c 4b 6a 40 bb 6f d6 d1 bc 65 41 52 bc
       0.017168978 -0.002936023 -0.025614945 -0.012832974
000040 8c c9 ec 3c ff eb a3 3a 0b b3 00 3d 1c da f0 3c
       0.028904699 0.0012506245 0.03142075 0.029400878
000050 ef 28 95 3b 86 1c 03 3d 0c 6f 6d 3d 89 83 87 3b
       0.004551999 0.032009624 0.05796723 0.0041355533
000060 e4 9f 9d 3c ce 0b c1 bc 6d d4 ef 3c de 1d b0 bc
       0.01924128 -0.0235652 0.029276097 -0.021498617
000070 6b 9d 0b 3b ab 4c a8 bc cf 81 7e 3c ce 45 e8 3c
       0.0021303545 -0.02054437 0.0155338785 0.028353598
000080 92 96 fc bb 62 9b 93 bc c2 53 0b 3d a7 e2 85 bc
       -0.007708379 -0.018018428 0.034015425 -0.016343428
000090 6e 29 00 3d e3 b1 5b bc 36 8e d7 3c 22 7c df 3c
       0.03128951 -0.013409111 0.026312929 0.02728087
0000a0 59 05 97 bc 82 a0 bf bc 99 f5 66 bc e9 42 bc bc
       -0.018435167 -0.023391966 -0.014096641 -0.022981124
0000b0 0d 95 b2 3b 17 3c 11 3c e8 c0 42 bc 08 83 b4 3b
       0.005449897 0.008864424 -0.011886813 0.005508784
0000c0 aa 35 a7 bc 9c 26 ed 3c c5 03 a4 bc b6 55 1a bb
       -0.020411331 0.028949074 -0.020021329 -0.0023549623
0000d0 a4 67 06 3b 63 0e 18 3c 96 50 d0 3c f3 eb 5c bc
       0.0020508552 0.009280774 0.025429051 -0.013483989
0000e0 7b ed e4 bc b1 53 8b bb 43 67 e9 bb d5 df ac bc
       -0.02794527 -0.00425192 -0.0071229055 -0.021102825
0000f0 c2 a1 65 bc c9 4b 0b 3d 7e 9f 8f 3c 29 19 04 3c
       -0.014015617 0.03400782 0.017532106 0.008062639
000100 80 b3 cb bc f9 e9 b8 bc 6d d9 09 3d 1d 8a 00 3d
       -0.024865866 -0.022572504 0.03365462 0.031381715
000110 36 bb 01 3d 5d d0 f4 3a 80 cf 22 3d e2 b7 13 3d
       0.03167268 0.001867782 0.03974867 0.036064036
000120 89 6a 23 3c 0d 01 64 bc 3f bd 92 3c 9c b7 92 bc
       0.00997413 -0.013916266 0.017912505 -0.017909817
000130 a9 3d a6 bc de a8 e7 3c cd 94 12 3d c0 e0 7a bc
       -0.020293074 0.028278764 0.03578644 -0.015312374
000140 dd 95 2d 3d 86 64 32 3c 45 72 a7 bc 13 78 da bc
       0.04237925 0.0108882245 -0.02044023 -0.026668584
000150 18 b1 8d 3c 12 9c 9b bc ea da d7 bc 75 16 2a bc
       0.017296359 -0.018995319 -0.026349504 -0.010381331
000160 4b bf 3f ba 96 2a e8 3c 8f a3 0a 3d 9e 7b 23 bb
       -0.00073145767 0.028340619 0.033847388 -0.0024945508
000170 05 28 82 bb 7a 9f e1 3b f6 53 c8 bc cb 05 bd bc
       -0.003972056 0.006885466 -0.024454098 -0.023074051
000180 ca 1f 0d 3d db 46 18 3d 0e 69 b2 3c b2 74 c5 3c
       0.034454145 0.037176948 0.02177861 0.024103496
000190 38 bc c9 bc f0 78 0e 3d 80 d4 2b 3d a9 a3 0d bc
       -0.024625883 0.034783304 0.041950703 -0.008644977
0001a0 f6 1b 99 bc ec c8 ac bc 86 cf 76 3c a7 9c 00 3d
       -0.01869009 -0.0210919 0.015064126 0.031399395
0001b0 0c 48 bc bc 7f 4d e3 3c 3f 2d e9 3c 78 5a 69 3b
       -0.022983573 0.027746914 0.028463958 0.0035606902
0001c0 02 5b 25 3d aa 2b 21 bc 2f 80 4d bc 81 a4 8f bb
       0.040369995 -0.0098370705 -0.012542768 -0.004383624
0001d0 52 ec 9c 3c 3d 8b e5 3c 65 bf 2d 3d 44 9d 9c bc
       0.019155655 0.028020496 0.042418856 -0.019117959
0001e0 a0 42 69 bc e7 9b 62 bc 8c bb f6 3b 7f 4e 75 bc
       -0.014237076 -0.013831115 0.0075296815 -0.014972328
0001f0 3a 79 f0 3c bc 30 39 3c d3 76 c1 bc 84 c2 86 bc
       0.02935468 0.011303123 -0.02361623 -0.016450174

action_model._continuous_distribution.log_sigma f4 [1, 2]
000000 48 f2 71 bd f6 96 7b bd
       -0.059068948 -0.061423264

action_model._continuous_distribution.mu.weight f4 [2, 128]
000000 51 ca 79 3d b6 4b a7 3d 03 3c 09 bd 6e 94 87 3b
       0.06098396 0.081687376 -0.033504497 0.0041375672
000010 00 d2 8d 3d c0 5d ac bc bb f5 22 3d ed ee 1f bd
       0.0692482 -0.021040797 0.039785128 -0.039046217
000020 ab 14 90 bc 95 a6 34 3d 89 65 8a ba 51 4d b6 bb
       -0.01758798 0.044104178 -0.0010558824 -0.005563416
000030 92 60 cf bc e9 c5 d0 bc 27 17 b1 ba fa 38 b5 bb
       -0.025314603 -0.025484996 -0.0013510928 -0.005530474
000040 7d 15 0f 3d 14 e3 a7 3c 75 72 13 3b 0d 1c bc 3c
       0.034932602 0.020494021 0.0022498642 0.022962594
000050 64 04 39 bd 09 8c 27 bc 0f f5 aa 3d 1c 33 42 bd
       -0.045170203 -0.010226258 0.083475225 -0.047412023
000060 77 25 34 bd ad 9a 10 3c bd 48 ef bc 45 19 1a bd
       -0.04398104 0.00882594 -0.029209489 -0.037621755
000070 d4 04 ae bb 2b be d8 bc 80 34 9e bd 3c ac 1d 3d
       -0.005310634 -0.026457867 -0.07724857 0.038494334
000080 ec 48 80 bd 68 af 22 bc 51 f5 8e bc ec 59 2b bc
       -0.06263909 -0.009929515 -0.01745096 -0.010458451
000090 df c8 07 bc 04 79 26 bd d3 26 a8 bc 06 b1 0d 3d
       -0.0082876375 -0.040642753 -0.020526325 0.03459265
0000a0 b7 5c e0 ba 9c 0b bf bc 21 89 13 bd 8b 85 3a 3a
       -0.0017117475 -0.023320965 -0.03601945 0.00071152364
0000b0 11 be 0c 3d ff cf d6 bb d8 52 6d bc ff 6f 36 3c
       0.03436095 -0.006555557 -0.0144850835 0.0111351
0000c0 09 c6 98 3c 3f b9 9c 3c 8e 06 90 3c 03 0b 9b bc
       0.018649118 0.019131301 0.01758125 -0.01892615
0000d0 91 5a 24 bd c5 e4 fe bb b4 b7 36 3d 16 27 07 bd
       -0.040125433 -0.0077787363 0.044608787 -0.03299626
0000e0 50 d3 36 bc f6 95 1e 3d 3d dd 16 3d 0b 18 e7 3c
       -0.011158779 0.038717233 0.036832083 0.028209707
0000f0 27 d1 e9 3c f7 20 c7 3c 03 4c b4 bb 4e 8f 5f bc
       0.028542114 0.024307711 -0.0055022254 -0.013645006
000100 19 1d 22 bc 69 e9 86 bc 41 a6 01 3d 96 11 cf bc
       -0.009894633 -0.01646872 0.031652693 -0.02527694
000110 6b f9 1b 3d fa 98 a3 3b e8 26 0f 3d c0 f6 32 3d
       0.03807966 0.0049926015 0.034949213 0.04369235
000120 7b 3d 50 bd 37 35 e8 bc 6d 22 27 3c 7f c1 d8 bb
       -0.050839882 -0.028345687 0.010201079 -0.0066148634
000130 63 cc 04 bd fe 33 f0 3c ec 8e ca bb f2 b2 1b bd
       -0.03242148 0.029321667 -0.0061815884 -0.038012452
000140 9a cf ce bc b8 c8 61 3d 5e fa 5c 3c 37 bb f4 bc
       -0.025245477 0.05512306 0.013487427 -0.029874427
000150 2c 93 c5 bc dc dc 51 3d 1a 46 b0 b8 b0 b6 b8 bb
       -0.024118029 0.05123602 -8.4053914e-05 -0.0056370124
000160 1c 88 d3 bb a1 61 b2 bc 81 48 83 bc 5f 0d 74 bc
       -0.0064554345 -0.021775069 -0.016025783 -0.014895766
000170 57 53 86 bd a3 56 ce 3c 3b b6 b6 38 5b 07 6a ba
       -0.065588646 0.025187796 8.712379e-05 -0.00089274877
000180 f0 61 0b bd 89 ee 8c bd cc 23 77 bd 99 4e 99 3c
       -0.034028947 -0.068814345 -0.060336873 0.018714236
000190 69 24 f4 bb 80 52 00 bd f8 ad 32 3c 7e 42 ab bc
       -0.0074506295 -0.031328678 0.010905735 -0.02090573
0001a0 36 e5 32 3d 05 49 96 3c 69 c0 ca 3c de 37 79 bd
       0.043675624 0.018345365 0.024749951 -0.060844295
0001b0 71 45 ad 3c 59 d9 92 3a a6 85 a0 bd 56 51 94 3d
       0.021151276 0.0011203691 -0.078379914 0.07242076
0001c0 5f cc 71 3d 1b 3c b8 3c f3 a2 dd 3c 6a 2c 08 bd
       0.059032794 0.022489598 0.02705524 -0.03324548
0001d0 b3 8e 3d bc a7 70 a6 bc 1d 7d 1e bd 1e 46 a0 3c
       -0.011569667 -0.020317389 -0.038693536 0.019564684
0001e0 3d 14 43 bd 13 ff fb bc e1 1c 29 3d 04 b8 a6 bb
       -0.047626723 -0.030761277 0.041287307 -0.0050878543
0001f0 88 2e 9b 3b 91 4f 36 3c c8 56 26 3d 56 1a 48 bc
       0.0047357716 0.011127369 0.040610105 -0.01221331
000200 57 2f f9 3c c2 88 08 3c b1 35 76 3c 66 b3 9d bd
       0.030418081 0.008333387 0.0150274495 -0.07700233
000210 bb 1b f0 bb 88 07 92 3c fb 95 e2 bc 46 cd 86 bd
       -0.0073275245 0.017825857 -0.027659407 -0.065821216
000220 1b c1 25 bd 3e f6 5b 3c f3 fe 32 3c 69 ba 68 bd
       -0.040467363 0.013425408 0.010925042 -0.0568184
000230 39 d0 98 3c a5 b3 77 bd c1 59 39 bb 27 34 47 bd
       0.018653976 -0.060474057 -0.0028282257 -0.04863372
000240 93 af 01 3d 98 50 1c 3c 12 2e f7 3c 74 2a c0 3c
       0.03166158 0.009540699 0.030173335 0.023457743
000250 9d e5 4c bc 3f c2 26 3d 7a cc 9c 3d 04 63 7f bd
       -0.012505916 0.04071259 0.07656188 -0.062350288
000260 be 41 8c 3c 57 dc 20 bc cc 12 3c 3d d2 5a f3 bc
       0.017121192 -0.009818158 0.045916364 -0.029706392
000270 87 17 f2 bc b4 71 37 bc 6d 37 3b bd 4d 7e 20 bb
       -0.029552234 -0.0111965425 -0.045707155 -0.0024489344
000280 f4 d9 5b bd db ed 49 bd 3c 67 e6 3c 83 d6 50 bd
       -0.053674653 -0.049299102 0.028125398 -0.050985824
000290 ce 04 bb 3c d1 ff 39 bd b8 34 09 3d 2d a0 dc 3b
       0.02282944 -0.04540998 0.033497542 0.0067329616
0002a0 02 a9 7d bd 14 67 4c bd c9 40 24 bd c1 39 5e bc
       -0.061928757 -0.04990299 -0.040100846 -0.013563574
0002b0 16 79 37 3b 68 42 08 3c 1e 81 90 bd e2 83 8d ba
       0.0027995757 0.008316614 -0.07055877 -0.001079675
0002c0 51 f5 31 bd a4 04 14 3d c8 86 4b bd a0 8f 8a bd
       -0.043446843 0.03613724 -0.049689084 -0.067656755
0002d0 06 5b 36 3c 7b 91 40 3c ce 98 d6 3c 71 14 4e bc
       0.0111301 0.011753435 0.02619591 -0.012578116
0002e0 9c 15 c8 bc 00 58 19 bd eb 2d 92 bb 86 d9 52 bd
       -0.024424367 -0.03743744 -0.0044610403 -0.051476978
0002f0 c2 a3 cc bc a3 de c5 3a de d5 81 3c ee 93 19 3c
       -0.02498043 0.0015096258 0.01584905 0.009373648
000300 8f 65 f8 bb 1a 06 f0 bc db 15 05 3d b7 a4 97 3c
       -0.007580466 -0.029299784 0.032491546 0.01851116
000310 b8 6d 0f 3b 1e 40 6d bd 2f 20 0a 3d 7f 46 e4 3c
       0.0021885466 -0.057922475 0.0337221 0.027865646
000320 62 5f 0b bd 29 8c cb bb ed b1 e6 3b 05 b6 84 bd
       -0.03402651 -0.0062117768 0.0070402534 -0.0648003
000330 a1 4f db bc 45 d3 87 3c e9 0d e6 3c 86 23 78 bd
       -0.026771368 0.016580233 0.028082805 -0.060580753
000340 50 6a 33 3d 32 b5 b3 bb 5b 21 ef bb c1 56 35 bd
       0.04380256 -0.0054842466 -0.0072976775 -0.044272188
000350 3b c8 8e 3b 27 12 4f bd cd 77 8b bc cd 28 6e bd
       0.0043573654 -0.05055442 -0.017024899 -0.05814438
000360 6b 63 86 bd 02 a1 18 3d 4f d6 e9 3c 00 99 c2 3b
       -0.06561931 0.037262924 0.028544573 0.005938649
000370 84 14 1b bd 9e 0e 07 bb 5f 77 57 bd 0a 7b 5e bc
       -0.037861362 -0.0020608078 -0.052604076 -0.0135791395
000380 6e 4b 60 3c 92 77 cc 3b 83 66 2d 3c b8 8f c7 3c
       0.013689859 0.00623984 0.010583523 0.024360523
000390 33 ed 8a bc 77 12 0b 3d 63 43 e5 3c bf d0 3a ba
       -0.016958809 0.033953156 0.027986234 -0.00071264425
0003a0 82 9f 35 bd c9 28 41 bd 50 e7 35 bc 9d e1 2e 3c
       -0.04434157 -0.047158036 -0.0111025125 0.010673908
0003b0 c7 f4 6b bd 58 0f 5c 3c a7 bf e2 ba 58 7c c0 bc
       -0.057606485 0.013431393 -0.0017299548 -0.023496792
0003c0 67 0e 79 3c bc 40 1a bd c9 e3 aa bb d6 11 2e bd
       0.015201188 -0.03765939 -0.0052151424 -0.04249748
0003d0 15 c1 0e 3d 50 bb cc 3c 67 51 bf 3c a9 92 48 bd
       0.034852106 0.024991661 0.023354245 -0.04896799
0003e0 36 27 9c bd 80 03 7d bd c9 d0 f8 3b 02 dd 85 bd
       -0.076246664 -0.061770916 0.0075932485 -0.065362945
0003f0 84 29 b1 3c 82 64 25 3c af 0a 9f bd d1 1c 7e bb
       0.021626242 0.010094764 -0.077657096 -0.00387745

action_model._continuous_distribution.mu.bias f4 [2]
000000 76 de eb 3b d5 c2 00 3d
       0.0071981503 0.031435806
