Assets/Models/MoveToGoal/MoveToGoal.onnx (onnx, 108036 bytes, 7 tensors)

network_body._body_endoder.seq_layers.0.weight f4 [128, 75]
-0.113665566 0.08585299 -0.13610399 0.10221455 0.026491437 0.09868093 -0.085180566 -0.072540365
-0.056074 -0.08516165 0.17190415 0.12314003 0.13866436 0.033302166 -0.01583541 0.11063991
-0.079213195 -0.07039143 -0.42305267 0.094201215 0.0042332737 0.0049390374 0.1346361 -0.08726035
0.1033502 -0.20764704 0.05791164 0.11157942 -0.17461617 0.08985227 0.3138041 0.065142356
-0.14855671 -0.20079309 -0.06624686 -0.16996285 0.12906136 -0.04245451 0.28819525 -0.10088468
0.2120298 -0.010788435 0.13635224 0.16529942 0.026201552 -0.17076787 -0.19119415 0.14040059
-0.06296648 0.078175284 0.19113499 -0.02752611 -0.15146095 0.051653747 0.15685639 -0.14539291
0.062113393 0.05212359 0.056586795 0.047091775 0.20881099 -0.22040875 -0.03438493 0.1438686
-0.0066443416 -0.051724173 -0.027987728 -0.013712633 0.012637655 -0.036732003 -0.08345257 -0.01210734
0.21718203 -0.0109644625 0.013044382 -0.029854214 -0.033924114 -0.084609196 0.13935232 -0.07384829
-0.012262626 0.19101849 0.08930491 -0.037730422 0.066216975 0.03763494 0.077362366 -0.15112562
-0.14705361 -0.098002136 -0.06982213 0.1811462 0.035062928 0.012821967 -0.124382734 0.1282491
-0.058232628 0.08729796 -0.028331159 -0.16422197 0.045824166 0.0474079 -0.022797948 -0.04867881
-0.1276158 -0.014886722 0.052055094 -0.047695164 0.16054642 0.081027254 0.034453698 -0.07754716
0.123599686 0.09628631 -0.098270394 -0.03114796 -0.17594595 0.20220119 -0.24082205 0.10344904
0.11635712 0.16477029 0.03397914 0.024629945 -0.053560477 0.21480817 -0.1056659 0.2734502
0.07391477 0.13344781 -0.14976293 0.0077035455 0.15370198 -0.020176752 -0.033295594 -0.0656642
0.24246632 0.09507149 -0.1344982 -0.1061332 0.018634118 -0.11337651 -0.08870449 0.050609697
0.057479553 -0.018329898 0.32014254 0.073803134 -0.0565037 0.02590655 0.002589047 0.04250321
-0.006882404 0.012269731 -0.23750317 0.039427467 -0.10536011 0.102990806 -0.14227504 -0.1283863
-0.07377897 0.15803139 0.1661404 0.027006729 0.01952453 0.20999898 -0.01674927 0.123912364
-0.0064603933 0.005695879 0.16027215 -0.10673598 -0.10433814 0.07821738 0.041325662 0.016197616
-0.10178171 -0.010003576 -0.11374726 0.012287165 0.014654922 0.12211572 -0.0050387606 0.06588459
-0.11629799 -0.07454754 -0.09960386 0.01835127 -0.030671192 -0.010177354 0.061103094 -0.08015524
-0.056874987 0.0098182205 -0.023117518 0.009178372 0.06742341 0.019460147 0.03156761 -0.1786669
0.22616781 -0.23839314 -0.0037675702 -0.036616664 0.0023831194 0.04683962 0.06731471 0.1319743
0.011407259 -0.09804166 0.082423195 -0.09331171 -0.06448454 0.09178469 0.016636219 -0.117988266
0.006523206 -0.016755152 0.061318737 0.12922838 0.14418265 -0.10501613 0.058962587 -0.020155154
0.10754658 0.117479704 -0.22596562 0.11816738 0.14888808 -0.119525805 0.15682039 0.028300105
-0.21554035 -0.12257417 0.164885 -0.007818645 -0.21678561 -0.1045208 0.060302887 0.01770936
0.047102526 -0.12691832 0.05259664 -0.0022674368 0.12347536 0.028795723 -0.08995942 -0.07010631
0.08832921 0.16828635 -0.13540095 0.06871954 0.026994092 0.23067823 0.107338086 -0.18758367
00000000: 7ec9 e8bd b1d3 af3d d85e 0bbe dd55 d13d
00000010: 9204 d93c 3a19 ca3d 2673 aebd 0b90 94bd
00000020: daad 65bd 3b69 aebd a407 303e d730 fc3d
00000030: 08fe 0d3e da67 083d 43b9 81bc 2d97 e23d
00000040: 873a a2bd 6229 90bd 5c9a d8be 91ec c03d
00000050: 46b7 8a3b a6d7 a13b 0cde 093e 8eb5 b2bd
00000060: 45a9 d33d 6da1 54be c134 6d3d c083 e43d
00000070: 95ce 32be 7804 b83d eeaa a03e 5b69 853d
00000080: 401f 18be b49c 4dbe 6fac 87bd be0a 2ebe
00000090: a928 043e c8e4 2dbd 548e 933e a19c cebd
000000a0: 571e 593e fac1 30bc ec9f 0b3e 4044 293e
000000b0: a3a4 d63c c6dd 2ebe 66c8 43be 2cc5 0f3e
000000c0: 92f4 80bd 5d1a a03d e4b8 433e 707e e1bc
000000d0: 9418 1bbe e192 533d f69e 203e e1e1 14be
000000e0: 9d6a 7e3d 8c7f 553d 8ec7 673d 4ee3 403d
000000f0: 8cd2 553e d5b2 61be 36d7 0cbd 4a52 133e
00000100: c7b8 d9bb badc 53bd 8546 e5bc f4aa 60bc
00000110: 2b0e 4f3c 4c74 16bd 2ee9 aabd dd5d 46bc
00000120: f764 5e3e 4aa4 33bc 1bb8 553c d390 f4bc
00000130: 03f4 0abd 9647 adbd 60b2 0e3e c63d 97bd
00000140: 2ee9 48bc 5a9a 433e 7ee5 b63d 378b 1abd
00000150: c49c 873d 1827 1a3d 2970 9e3d adc0 1abe
00000160: 3995 16be 58b5 c8bd e8fe 8ebd 647e 393e
00000170: 259e 0f3d 3a13 523c 60bc febd bb53 033e
00000180: 5685 6ebd 46c9 b23d bf16 e8bc ce29 28be
00000190: 1fb2 3b3d c92e 423d c3c2 babc 6f63 47bd
000001a0: b7ad 02be 70e7 73bc b937 553d 015c 43bd
000001b0: 4866 243e 9ef1 a53d 521f 0d3d 0cd1 9ebd
000001c0: d521 fd3d c231 c53d fd41 c9bd 022a ffbc
000001d0: 2d2b 34be d40d 4f3e 0e9a 76be 17dd d33d
000001e0: a44c ee3d 8bb9 283e b62d 0b3d bdc4 c93c
000001f0: 3b62 5bbd acf6 5b3e 5d67 d8bd aa01 8c3e
00000200: a060 973d 8ba6 083e 745b 19be 066e fc3b
00000210: 0d64 1d3e b749 a5bc f660 08bd f47a 86bd
00000220: 1749 783e d7b4 c23d e5b9 09be 5d5c d9bd
00000230: 94a6 983c f231 e8bd b3aa b5bd 1d4c 4f3d
00000240: ae6f 6b3d 9528 96bc b9e9 a33e 1926 973d
00000250: 6c70 67bd f939 d43c 00ad 293b d917 2e3d
00000260: ca85 e1bb fb06 493c 0834 73be b27e 213d
00000270: 0bc7 d7bd d8ec d23d 8cb0 11be b377 03be
00000280: 6e19 97bd fbd2 213e b620 2a3e 373d dd3c
00000290: e8f1 9f3c f909 573e c435 89bc c4c5 fd3d
000002a0: b5b1 d3bb 7fa4 ba3b 621e 243e 6598 dabd
000002b0: 3caf d5bd 6f30 a03d 1945 293d ddb0 843c
000002c0: ee72 d0bd 0ae6 23bc 53f4 e8bd 1b50 493c
000002d0: 331b 703c ce17 fa3d 301c a5bb 80ee 863d
000002e0: a42d eebd 61ac 98bd 1cfd cbbd 6755 963c
000002f0: 2742 fbbc ebbe 26bc 3d47 7a3d 6e28 a4bd
00000300: bff5 68bd 9adc 203c f360 bdbc e260 163c
00000310: 4915 8a3d e36a 9f3c 0a4d 013d 75f4 36be
00000320: 8998 673e 551d 74be 57e9 76bb 5bfb 15bd
00000330: 1c2e 1c3b e7da 3f3d 4bdc 893d 4524 073e
00000340: 83e5 3a3c 11ca c8bd 7ecd a83d 361a bfbd
00000350: 7810 84bd 9df9 bb3d ae48 883c d5a3 f1bd
00000360: 9ec0 d53b 1a42 89bc 5b29 7b3d 7254 043e
00000370: 9ea4 133e b212 d7bd c182 713d 6c1c a5bc
00000380: 6241 dc3d 3399 f03d 8863 67be bd01 f23d
00000390: 1e76 183e f2c9 f4bd 8695 203e 9fd5 e73c
000003a0: 9cb6 5cbe 2b08 fbbd 9dd7 283e c619 00bc
000003b0: 0cfd 5dbe 000f d6bd 2900 773d 3813 913c
000003c0: 94ee 403d e0f6 01be 936f 573d 4799 14bb
000003d0: a6e0 fc3d 02e5 eb3c a53c b8bd e693 8fbd
000003e0: f2e5 b43d 4253 2c3e 8ca6 0abe d5bc 8c3d
000003f0: b722 dd3c ea36 6c3e 12d4 db3d ef15 40be

network_body._body_endoder.seq_layers.0.bias f4 [128]
0.014472156 0.0029011655 0.015493215 0.011196412 -0.0033755112 0.0027659102 0.001232112 -0.00020685642
0.0060001337 0.008504242 -0.014138829 -0.004297025 0.0123738125 0.001470478 0.00025251054 0.026068589
-0.0089714015 0.01032111 0.00096920086 0.0021968696 0.0076255025 -0.0021052049 0.00028455682 -0.0027743655
0.00093075447 -0.0061599445 -0.0006185928 0.012257042 0.019523293 -0.012014345 0.0044772206 -0.0119681135
0.006604212 0.0013544805 0.013090349 -0.006214139 -0.0041770213 -0.0008317593 0.008300945 -0.0009705558
0.0076148864 -0.0028541107 0.00017016291 -0.0066543096 -0.005322931 -0.0032657403 0.0066946526 -0.0025158778
-0.019661212 0.0062164743 0.014981166 0.009692658 -0.002984364 0.012876104 0.002225326 -0.0054739113
0.00818475 0.009087099 -0.00056497863 0.0070831194 0.001500411 -0.004389212 0.01552832 -0.0065465933
-0.013770507 0.013936528 0.007815029 -0.0017856699 -0.004057457 0.009511379 0.0053533004 0.008251908
0.0005275264 0.007338719 -0.0071754195 -0.014479442 -0.00048068812 0.00877322 0.010400467 -0.0066985763
0.005201733 -0.00085936557 -0.011132794 -0.008666021 0.005358877 -0.008531774 0.008906194 0.0062781223
-0.0069112666 -0.011330731 -0.007654835 -0.020877577 -0.006353719 0.002535235 0.0045847516 0.0039156373
0.0002823125 -0.00069133675 -0.0171401 -0.009224704 -0.003219659 0.00542189 -0.00024623907 -0.000107710395
0.0044228598 0.00412229 0.0033738664 0.022412837 0.009303595 0.0073641525 0.004937195 0.011051156
0.010274522 0.014924407 -0.0065301456 -0.004750272 0.010360932 0.004192761 -0.0097099105 0.0075012012
-0.0064861192 -0.0053218845 -0.0056632585 0.00042228473 0.011959628 0.009800702 -2.264851e-05 -0.009075059
00000000: 9f1c 6d3c 7b21 3e3b 41d7 7d3c 2871 373c
00000010: ae37 5dbb 4644 353b d17e a13a 99e7 58b9
00000020: c59c c43b 6055 0b3c 8ca6 67bc 0fce 8cbb
00000030: 88bb 4a3c 0ebd c03a 6463 8439 cb8d d53c
00000040: c9fc 12bc df19 293c f811 7e3a 5bf9 0f3b
00000050: 5adf f93b 7af7 09bb 9230 9539 21d2 35bb
00000060: e0fd 733a 5cd9 c9bb 0f29 22ba c3d1 483c
00000070: 50ef 9f3c d1d7 44bc a6b5 923b e815 44bc
00000080: 2568 d83b d388 b13a e778 563c fa9f cbbb
00000090: 65df 88bb 6c0a 5aba b000 083c e66c 7eba
000000a0: 4c86 f93b 080c 3bbb c26d 3239 650c dabb
000000b0: fb6b aebb 0806 56bb d15e db3b 6de1 24bb
000000c0: 8d10 a1bc 91b3 cb3b 9173 753c f4cd 1e3c
000000d0: 5295 43bb 4bf6 523c c6d6 113b 7f5e b3bb
000000e0: 5419 063c 0ee2 143c 131b 14ba 8319 e83b
000000f0: 70a9 c43a 61d3 8fbb 7f6a 7e3c ce84 d6bb
00000100: b19d 61bc 0956 643c 9b0a 003c 240d eaba
00000110: 6bf4 84bb 9dd5 1b3c bd6a af3b 0333 073c
00000120: b349 0a3a a379 f03b c81f ebbb 2e3b 6dbc
00000130: de04 fcb9 8dbd 0f3c b866 2a3c bb7f dbbb
00000140: 4d73 aa3b 0c47 61ba 5366 36bc edfb 0dbc
00000150: 8599 af3b dbc8 0bbc 49eb 113c b5b8 cd3b
00000160: e877 e2bb 88a4 39bc 69d5 fabb 7407 abbc
00000170: dc32 d0bb 2f26 263b af3b 963b bf4e 803b
00000180: 5803 9439 d33a 35ba 6569 8cbc 3623 17bc
00000190: ea00 53bb 1caa b13b a619 81b9 94e2 e1b8
000001a0: a3ed 903b 4614 873b 161c 5d3b 209b b73c
000001b0: 1b6e 183c fd4e f13b 32c8 a13b e80f 353c
000001c0: 7856 283c 8085 743c d5fa d5bb 2ba8 9bbb
000001d0: e6c0 293c 6e63 893b 5116 1fbc a3cc f53b
000001e0: 8389 d4bb 3463 aebb db92 b9bb 1966 dd39
000001f0: 51f2 433c 2093 203c 4efd bdb7 8eaf 14bc

network_body._body_endoder.seq_layers.2.weight f4 [128, 128]
0.15853651 0.09777446 0.050369754 0.13336726 -0.04935163 0.04183404 -0.11377404 0.059604175
-0.017737582 0.10014556 -0.17714585 -0.014317224 -0.087150104 -0.05576256 0.2541678 -0.08473223
-0.023890423 -0.06233281 0.09172444 0.20750998 0.03994959 -0.016517963 -0.06494424 -0.0054652696
0.042082947 0.061819583 0.075957164 0.071356714 -0.08731054 -0.14842749 -0.0033705325 0.1543628
0.081988536 0.08815088 0.044062726 0.11642424 0.1344944 -0.050272666 0.1294923 -0.06461117
0.041768193 0.04881616 -0.25319463 -0.16484018 -0.14677517 0.13814944 0.004152162 -0.07999719
0.05851995 0.14515384 -0.0017042804 0.010646454 0.008076737 0.10840956 0.029653776 0.08860149
0.020459065 0.09065361 -0.05613821 -0.13245721 -0.07206046 -0.03914684 -0.027725276 0.009776218
-0.084017985 0.053436223 -0.065745585 0.04291207 0.14578265 -0.0793021 -0.04873502 0.107558355
0.04490966 0.1586181 -0.0079526305 -0.05326386 -0.06971288 -0.07532025 0.007713937 -0.05164004
-0.18816906 0.025650714 0.07039464 0.18439375 -0.077273116 0.05475216 -0.012898264 0.0128951585
-0.085346855 -0.096246496 0.04759574 -0.07484304 -0.049828775 0.018276228 -0.04275052 -0.049626645
-0.07659023 0.06545611 0.07921335 0.102135815 -0.05723673 -0.16485271 -0.069418296 -0.11605468
0.05823134 0.029710408 0.13726336 -0.027199725 -0.29867214 -0.18327816 -0.07390639 -0.06590045
-0.0077157896 -0.17638518 -0.058526468 0.09736615 9.441046e-05 0.15412907 0.06897949 0.006871082
0.025653826 -0.0737388 -0.049459774 0.012524868 -0.10330855 0.0539595 0.14375462 0.16703044
-0.012365092 -0.008344879 -0.043538585 0.12978685 -0.07333625 -0.099556096 -0.007513776 -0.13025413
-0.11072955 0.076031104 -0.053985976 -0.069195226 0.08937824 0.08072899 -0.098417476 0.1546057
0.069077566 0.11514101 -0.06598716 -0.027272739 0.095601834 0.026650291 0.009198441 -0.057280544
0.01488957 -0.14962108 -0.042541318 -0.018192003 0.07106494 -0.030587126 0.15091655 0.02142538
-0.04365797 -0.06540933 0.012834832 -0.14834094 -0.019227857 0.023920367 0.019568393 0.0045300494
0.06766852 0.0037747433 0.04050939 -0.024531191 -0.14099042 -0.008364236 0.079801075 -0.025069255
-0.046819493 -0.17561145 0.063561186 0.078908294 0.1320954 -0.13797121 0.07391636 0.062099654
-0.014714853 0.20587139 0.05342805 0.031305984 -0.0689087 -0.0797454 0.0056098923 0.019185929
-0.18580575 0.038344573 -0.08643703 -0.06448546 0.016528865 0.09201956 0.018608347 -0.00037853184
-0.03536425 -0.043533914 -0.04349861 -0.0831634 0.05933614 0.10743249 0.07201314 -0.08314843
-0.1934417 0.04788037 0.0019153052 -0.07178889 0.06309574 0.014133664 0.08604923 -0.085842125
-0.09545727 0.058332648 0.12729944 0.07956042 0.05004492 0.19942687 -0.07810323 0.13350868
-0.0018218256 -0.08615004 0.023006232 -0.07996848 0.04632653 -0.0024497148 0.06947583 0.067513816
0.07269657 0.07892087 0.06626937 0.0042046574 -0.08414151 -0.07297362 0.076863766 0.24360542
-0.016890889 0.039753545 -0.014375285 -0.014047888 0.027582606 0.059212495 0.03398149 -0.10017623
0.042746846 0.07259688 -0.011851489 -0.042962622 0.05268762 -0.048060942 -0.020472826 -0.16283941
00000000: 6557 223e fa3d c83d 8450 4e3d 6d91 083e
00000010: ef24 4abd 2c5a 2b3d 5d02 e9bd 8223 743d
00000020: 684e 91bc 1e19 cd3d b965 35be ca92 6abc
00000030: c17b b2bd 4867 64bd 4822 823e 1788 adbd
00000040: d9b5 c3bc b050 7fbd 06da bb3d 7f7d 543e
00000050: 2ea2 233d ae50 87bc 7c01 85bd 0116 b3bb
00000060: 2b5f 2c3d 8836 7d3d 6e8f 9b3d 7823 923d
00000070: decf b2bd 60fd 17be 27e4 5cbb 4811 1e3e
00000080: 9be9 a73d 7388 b43d 1e7b 343d d56f ee3d
00000090: e6b8 093e b6ea 4dbd a199 043e dc52 84bd
000000a0: 2015 2b3d 74f3 473d baa2 81be ddcb 28be
000000b0: 3b4c 16be 0c77 0d3e dc0e 883b 91d5 a3bd
000000c0: 9db2 6f3d 35a3 143e 2962 dfba 776e 2e3c
000000d0: 4a54 043c d505 de3d 7aec f23c b374 b53d
000000e0: c599 a73c 9aa8 b93d 2ef1 65bd dda2 07be
000000f0: 6f94 93bd 7058 20bd 1e20 e3bc 6e2c 203c
00000100: 9f11 acbd f1df 5a3d 9fa5 86bd 91c4 2f3d
00000110: 0c48 153e 2469 a2bd 5f9e 47bd 8e47 dc3d
00000120: 31f3 373d c96c 223e c04b 02bc 352b 5abd
00000130: a0c5 8ebd 8141 9abd 32c5 fc3b 8284 53bd
00000140: 64af 40be 7221 d23c 112b 903d b7d1 3c3e
00000150: 5e41 9ebd cd43 603d 3e53 53bc 3746 533c
00000160: 55ca aebd e21c c5bd c0f3 423d 4f47 99bd
00000170: 4219 4cbd 07b8 953c 2b1b 2fbd 4f45 4bbd
00000180: 57db 9cbd da0d 863d 9c3a a23d 952c d13d
00000190: 1071 6abd 26cf 28be 2e2b 8ebd 13ae edbd
000001a0: fc83 6e3d 3e63 f33c c48e 0c3e f5d1 debc
000001b0: 8eeb 98be 45ad 3bbe 3c5c 97bd d1f6 86bd
000001c0: bcd4 fcbb 519e 34be 73b9 6fbd e767 c73d
000001d0: 3bfe c538 03d4 1d3e 1e45 8d3d d026 e13b
000001e0: f927 d23c 5e04 97bd 5596 4abd 1b35 4d3c
000001f0: 6f93 d3bd a304 5d3d 6934 133e 070a 2b3e
00000200: f496 4abc f6b8 08bc 8455 32bd d8e6 043e
00000210: 5131 96bd 11e4 cbbd 1f36 f6bb 5761 05be
00000220: 2dc6 e2bd 32b6 9b3d 6620 5dbd 3ab6 8dbd
00000230: f00b b73d 3e55 a53d 1a8f c9bd f550 1e3e
00000240: 8a78 8d3d 0dcf eb3d 4724 87bd 146b dfbc
00000250: e5ca c33d b651 da3c 0fb5 163c 019f 6abd
00000260: 62f3 733c 4536 19be ce3f 2ebd 6507 95bc
00000270: 7f8a 913d da91 fabc de89 1a3e 4784 af3c
00000280: b3d2 32bd 54f5 85bd 3049 523c b0e6 17be
00000290: bd83 9dbc a5f4 c33c e54d a03c cf70 943b
000002a0: cb95 8a3d af61 773b 2ded 253d a3f5 c8bc
000002b0: cb5f 10be 260a 09bc bf6e a33d 0a5e cdbc
000002c0: ccc5 3fbd 7dd3 33be 5e2c 823d ac9a a13d
000002d0: 0444 073e 5348 0dbe 7661 973d 355c 7e3d
000002e0: 9116 71bc f3cf 523e 5fd7 5a3d b43a 003d
000002f0: 0120 8dbd 8e51 a3bd 30d3 b73b cf2b 9d3c
00000300: dd43 3ebe 330f 1d3d e605 b1bd f410 84bd
00000310: 8b67 873c c074 bc3d 8870 983c af75 c6b9
00000320: 1bda 10bd 9e50 32bd 992b 32bd 9351 aabd
00000330: 740a 733d 9105 dc3d a07b 933d b949 aabd
00000340: 9515 46be 351e 443d fa0a fb3a 0e06 93bd
00000350: 5738 813d e290 673c 943a b03d ffcd afbd
00000360: 1a7f c3bd 37ee 6e3d c95a 023e 93f0 a23d
00000370: e7fb 4c3d 8f36 4c3e 96f4 9fbd 80b6 083e
00000380: 53ca eeba 6f6f b0bd 9177 bc3c 84c6 a3bd
00000390: e3c0 3d3d 658b 20bb 5849 8e3d af44 8a3d
000003a0: f0e1 943d 44a1 a13d 3cb8 873d 39c7 893b
000003b0: 6252 acbd 3173 95bd c06a 9d3d b373 793e
000003c0: c35e 8abc 9dd4 223d 5186 6bbc 1d29 66bc
000003d0: ebf4 e13c cd88 723d 2d30 0b3d 3229 cdbd
000003e0: 5117 2f3d acad 943d bf2c 42bc 93f9 2fbd
000003f0: f9ce 573d 8ddb 44bd a1b6 a7bc 60bf 26be

network_body._body_endoder.seq_layers.2.bias f4 [128]
0.00135449 0.00979172 -0.01080625 -0.004232948 -0.0057273917 -0.0074490625 0.015685929 0.0012122344
-0.00857885 -0.007839199 0.0176942 -0.0016025703 0.016449925 -0.0090155685 -0.010650535 -0.0014595742
0.009655347 0.0062380745 0.0065874327 0.009020249 0.011865688 0.011280942 0.006629929 0.012315248
0.015751407 -0.0073135532 0.010612393 -0.008284246 -0.0068743443 0.010325981 0.0018703084 -0.0075514102
0.010256405 0.011744314 0.008491782 0.008441428 -0.01033866 0.0068868496 0.004706359 -0.00843557
0.010484778 0.011369688 -0.007118112 0.009507131 0.009314958 -0.0014643152 -0.005760293 -0.0068793916
0.007961047 0.0033321409 -0.009845449 0.0056587113 0.008421059 0.0033683488 -0.009861462 0.007876054
0.010890907 -0.0047461013 0.008098614 0.0092333425 -0.008561441 0.0076536895 0.0062072817 0.002969003
-0.0070294607 0.0026700562 0.0006859012 -3.290078e-05 0.007933834 -0.008142309 0.008123039 0.009544065
-0.0052417694 0.004982303 -0.0065161064 0.009346921 0.0020348264 -0.00471756 0.014850278 0.011436132
-0.009662851 -0.007656898 0.0019768786 0.004787549 0.009015234 0.0055468692 -0.0012601253 0.007142367
-0.005783167 -0.0053586983 0.007963733 -0.003955847 0.013379157 0.010119169 -0.0017662827 -0.009528015
0.007173746 0.005869569 -0.004565688 0.00038929438 -0.007541968 0.010568801 -0.003011418 -0.007829888
0.010184842 -0.004857376 0.0067534125 -0.0029396478 -0.012030044 0.014374551 0.0032924048 0.013198144
0.007780958 0.009957715 0.010236768 0.019091697 0.015612301 0.005110275 -0.005399299 -0.008164137
0.004496475 -0.0081201615 -0.00067998737 0.0011107337 -0.005777815 -0.0069587864 -0.008172387 0.015450649
00000000: 2589 b13a 736d 203c b30c 31bc 8bb4 8abb
00000010: d8ac bbbb 4417 f4bb c77f 803c d6e3 9e3a
00000020: 4e8e 0cbc fc6f 00bc 6df3 903c 560d d2ba
00000030: fec1 863c 09b6 13bc 957f 2ebc 2f4f bfba
00000040: 7631 1e3c c368 cc3b 64db d73b abc9 133c
00000050: 4d68 423c b3d3 383c e03f d93b e5c5 493c
00000060: 1809 813c 88a6 efbb 9adf 2d3c a5ba 07bc
00000070: 2e42 e1bb 4e2e 293c 2325 f53a d271 f7bb
00000080: 7b0a 283c 396b 403c 1d21 0b3c ea4d 0a3c
00000090: 7c63 29bc 15ab e13b cd37 9a3b 5835 0abc
000000a0: 59c8 2b3c ee47 3a3c 0d3f e9bb ccc3 1b3c
000000b0: c49d 183c 44ee bfba d7c0 bcbb 856c e1bb
000000c0: 0d6f 023c 0c60 5a3b ce4e 21bc b66c b93b
000000d0: 7bf8 093c 84bf 5c3b f891 21bc 910a 013c
000000e0: c66f 323c 2f85 9bbb 0db0 043c 7247 173c
000000f0: 4945 0cbc cdcb fa3b 7466 cb3b 9b93 423b
00000100: 6457 e6bb 1cfc 2e3b 0dce 333a f2fe 09b8
00000110: e9fc 013c 5267 05bc 7f16 053c b65e 1c3c
00000120: 26c3 abbb 9642 a33b 1085 d5bb d423 193c
00000130: b95a 053b c395 9abb 954e 733c 9d5e 3b3c
00000140: ef50 1ebc b7e6 fabb 858e 013b dfe0 9c3b
00000150: a2b4 133c 83c2 b53b ca2a a5ba 840a ea3b
00000160: b980 bdbb 0598 afbb 517a 023c 0da0 81bb
00000170: 4034 5b3c dfca 253c 9d82 e7ba 641b 1cbc
00000180: be11 eb3b 8355 c03b c49b 95bb 351a cc39
00000190: 9d22 f7bb c428 2d3c 365b 45bb ee48 00bc
000001a0: 53de 263c a02a 9fbb bb4b dd3b 1ba7 40bb
000001b0: a919 45bc 3d83 6b3c 63c5 573b 073d 583c
000001c0: 68f7 fe3b af25 233c 1eb8 273c 3166 9c3c
000001d0: bdca 7f3c 1874 a73b 9aec b0bb dfc2 05bc
000001e0: 2b57 933b 6d0a 05bc 2e41 32ba 0a96 913a
000001f0: d353 bdbb 8806 e4bb 7ae5 05bc b824 7d3c

action_model._continuous_distribution.log_sigma f4 [1, 2]
-0.04269197 -0.033015016
00000000: c6dd 2ebd c13a 07bd

action_model._continuous_distribution.mu.weight f4 [2, 128]
-0.021872547 -0.03953172 -0.027093908 -0.010017576 0.030889545 -0.021246947 -0.016535215 -0.0039155604
0.01075245 0.017727928 0.04635635 0.03932289 -0.04204314 -0.008956148 0.014358998 -0.035049193
0.07515658 0.030393545 0.00040161167 0.03006731 -0.021479933 0.00045391088 -0.0008249736 0.04712106
0.030351395 0.028504618 -0.054768387 0.01186264 0.022133932 -0.035409894 0.025696239 -0.0015518693
-0.055037756 0.032784924 -0.030921042 -0.043672778 0.00011019861 0.004184833 -0.03431848 0.008046552
0.04003704 -0.033601653 -0.014215729 -0.053191293 0.013338273 0.02686793 -0.036826666 -7.736316e-05
-0.015247154 0.005013657 -0.003634331 -0.011400473 0.05058865 -0.056050807 -0.00903625 0.013853082
0.062141053 0.006720949 -0.010578988 -0.039997622 -0.026010472 0.010918273 -0.010278979 0.015115498
0.020733055 0.012984695 0.035994273 0.02930211 0.0050413874 0.03124786 -0.030906804 -0.040143583
0.007636236 -0.00071777543 0.00155637 0.022765415 0.018072266 0.025927141 0.051500764 -0.052245002
0.0078083756 0.030538497 -0.037320346 0.027532548 -0.0258894 -0.020626707 -0.03994638 -0.034274995
-0.021525795 0.037261836 0.06478125 0.045158047 -0.051387273 -0.04187993 -0.0065112803 0.0122587755
0.004142341 -0.0030912838 0.004829238 0.009351028 -0.011305044 -0.050528377 0.035982873 0.005644044
-0.028111015 0.02931077 -0.021541156 0.040737804 -0.00802993 0.049207702 -0.022424845 0.049168475
-0.014906178 -0.027720802 0.063379586 -0.041095715 0.051429484 -0.04697771 0.026814662 0.010880366
0.036749847 0.016163344 0.03188747 0.040017083 0.007644693 -0.003174838 0.002690669 0.050489396
-0.019801423 0.028907288 -0.024613043 -0.012303742 -0.0080038 -0.042347442 -0.01405421 0.013807492
-0.034326266 -0.030702109 0.0021143672 -0.042891722 0.014698591 -0.047942154 -0.02865104 -0.009516101
-0.018918952 0.0045459475 0.0036783451 0.017855018 0.016686823 0.028408086 0.012811788 0.018382363
0.0057393243 -0.005794861 0.0022280265 -0.031503193 0.00060055783 0.014731989 0.009034198 -0.022903873
0.0028566103 0.009485313 0.0061056255 0.006993487 -0.04038668 0.010515229 -0.008067307 0.0021055273
0.009894455 -0.015240321 -0.02201848 -0.003173314 0.03255525 0.0050840857 -0.01526757 -0.041107487
0.022787135 -0.0019159743 -0.015160525 0.017512573 0.010452602 -0.0034951845 -0.024982153 0.031183217
0.02403694 -0.0038715815 0.037598282 0.048773456 -0.01306611 0.022933414 0.012911243 0.015151729
-0.005424036 -0.000553683 0.011356334 0.009514121 0.031111123 -0.02604213 0.01301231 0.0018652794
-0.018653154 0.0002369148 -0.0015148708 0.030245876 -0.008557248 -0.015355817 0.024709804 0.012941446
-0.004363964 -0.045745328 -0.017923333 0.013093421 0.005982221 -0.0193761 -0.024676273 -0.0036996454
-0.0018103195 -0.030446999 -0.0004830088 -0.0071618636 0.011858628 0.039201822 -0.013297146 -0.015667206
0.01943055 0.018027132 -0.03728471 0.0058991085 -0.019423345 0.005681975 -0.0051378175 -0.031780943
-1.1722244e-05 -0.005740268 0.00081716926 -0.030241085 -0.027401112 0.018868728 0.0007400052 0.010577998
0.0490156 0.03181791 0.019378 0.002072252 0.01470099 -0.0034664483 -0.024498435 -0.035047963
0.010013125 -0.027781796 -0.0035761185 0.0054915794 -0.0012830185 0.0004356241 -0.026460448 0.019487325
00000000: 0e2e b3bc 03ec 21bd 0bf4 ddbc c220 24bc
00000010: 120c fd3c 140e aebc dc74 87bc 1a4e 80bb
00000020: 0b2b 303c 293a 913c 28e0 3d3d 0a11 213d
00000030: 6d35 2cbd cfbc 12bc 0142 6b3c be8f 0fbd
00000040: b1eb 993d e2fb f83c 688f d239 b84f f63c
00000050: aff6 afbc e3fa ed39 0b43 58ba 0302 413d
00000060: 7da3 f83c 8482 e93c d154 60bd 855b 423c
00000070: 3852 b53c f709 11bd eb80 d23c 1868 cbba
00000080: 456f 61bd 7c49 063d 204e fdbc 3ae2 32bd
00000090: 6e1a e738 ec20 893b 8991 0cbd afd5 033c
000000a0: e1fd 233d e3a1 09bd 17e9 68bc 1ddf 59bd
000000b0: c688 5a3c 221a dc3c 8fd7 16bd 083e a2b8
000000c0: 33cf 79bc 9a49 a43b f52d 6ebb 0dc9 3abc
000000d0: 0b36 4f3d 8895 65bd c80c 14bc 0af8 623c
000000e0: 9e87 7e3d 683b dc3b 7e53 2dbc 8cd4 23bd
000000f0: ea13 d5bc 8ee2 323c 2a69 28bc fea6 773c
00000100: 5ed8 a93c c2bd 543c bb6e 133d fb0a f03c
00000110: 3932 a53b 83fb ff3c 4430 fdbc 996d 24bd
00000120: 6439 fa3b 1829 3cba 1dff cb3a 897e ba3c
00000130: 4a0c 943c 2865 d43c 77f2 523d dbfe 55bd
00000140: 67dd ff3b df2b fa3c 38dd 18bd f08b e13c
00000150: 0216 d4bc 57f9 a8bc d19e 23bd f063 0cbd
00000160: dd56 b0bc de9f 183d 08ac 843d a5f7 383d
00000170: 767b 52bd 4a8a 2bbd 945c d5bb 08d9 483c
00000180: 7abc 873b 2397 4abb 963e 9e3b 0e35 193c
00000190: cb38 39bc d8f6 4ebd c762 133d acf1 b83b
000001a0: 1249 e6bc 241d f03c 1477 b0bc afdc 263d
000001b0: f88f 03bc 048e 493d 4fb4 b7bc e264 493d
000001c0: 0b39 74bc bc16 e3bc 28cd 813d fb53 28bd
000001d0: b9a7 523d b36b 40bd 6caa db3c 9043 323c
000001e0: 0287 163d fd68 843c 709c 023d f4e8 233d
000001f0: 5580 fa3b f110 50bb ef55 303b f8cd 4e3d
00000200: 9836 a2bc face ec3c 4ba1 c9bc a295 49bc
00000210: 5f22 03bc 8374 2dbd a143 66bc d238 623c
00000220: b399 0cbd fd82 fbbc 3291 0a3b 3baf 2fbd
00000230: 5cd2 703c fe5e 44bd 96b5 eabc 6ce9 1bbc
00000240: ebfb 9abc 2cf6 943b 6410 713b b044 923c
00000250: ceb2 883c 13b8 e83c 89e8 513c 9c96 963c
00000260: f110 bc3b d1e2 bdbb 1504 123b 7e09 01bd
00000270: c16e 1d3a 715e 713c 2c04 143c e7a0 bbbc
00000280: f835 3b3b 4968 1b3c b311 c83b 9f29 e53b
00000290: 816c 25bd 1148 2c3c bd2c 04bc e3fc 093b
000002a0: 5a1c 223c 8ab2 79bc 1960 b4bc 60f7 4fbb
000002b0: a758 053d 6798 a63b d424 7abc 5360 28bd
000002c0: 16ac ba3c 6e21 fbba da63 78bc 8776 8f3c
000002d0: 6441 2b3c 770f 65bb 5fa7 ccbc f273 ff3c
000002e0: 1ee9 c43c 5cba 7dbb a800 1a3d adc6 473d
000002f0: 3d13 56bc dbde bb3c ae89 533c f53e 783c
00000300: 1dbc b1bb 0a25 11ba eb0f 3a3c 1ee1 1b3c
00000310: c1dc fe3c 4e56 d5bc 9531 553c 647c f43a
00000320: 80ce 98bc 556c 7839 a18e c6ba 33c6 f73c
00000330: b333 0cbc f796 7bbc 376c ca3c 5c08 543c
00000340: 95ff 8ebb 745f 3bbd f4d3 92bc ca85 563c
00000350: 8206 c43b a0ba 9ebc e525 cabc c075 72bb
00000360: 3e48 edba fc6b f9bc 583c fdb9 11ae eabb
00000370: b14a 423c 1792 203d 46dc 59bc 8358 80bc
00000380: d12c 9f3c a3ad 933c dab7 18bd 4f4d c13b
00000390: b51d 9fbc dc2f ba3b 235b a8bb bc2c 02bd
000003a0: a8aa 44b7 dc18 bcbb 4d37 563a 27bc f7bc
000003b0: 4c78 e0bc 9792 9a3c e9fc 413a 574f 2d3c
000003c0: 95c4 483d 7f53 023d 9dbe 9e3c 9fce 073b
000003d0: 6cdc 703c 5a2d 63bb f1b0 c8bc 748e 0fbd
000003e0: 170e 243c a696 e3bc 505d 6abb b5f2 b33b
000003f0: f52a a8ba 7a64 e439 95c3 d8bc e2a3 9f3c

action_model._continuous_distribution.mu.bias f4 [2]
-0.005599664 0.009353449
00000000: 637d b7bb 353f 193c
