Assets/Models/RayBigLevel/LetztesLevelNichtGeschafftWändeDefault.onnx (onnx, 416358 bytes, 13 tensors)

discrete_act_size_vector f4 [1, 4]
0	0x40000000	2.0
1	0x40000000	2.0
2	0x40400000	3.0
3	0x40400000	3.0

network_body._body_endoder.seq_layers.0.weight f4 [256, 134]
0	0x3e8c0994	0.27351058
1	0x3ed7c817	0.42144844
2	0x3cb6d901	0.022320272
3	0xbc9775cc	-0.018488787
4	0xbe175334	-0.14777833
5	0x3e2163a3	0.15760665
6	0x3e284dfe	0.16436002
7	0x3cfde62a	0.03099354
8	0xbd26b0bd	-0.040695895
9	0x3d2f22cf	0.042757805
10	0x3daad657	0.08341663
11	0x3c0b3cb9	0.008498364
12	0x3e8d1872	0.27557713
13	0x3dff94d9	0.12479562
14	0xbc75a10d	-0.014992011
15	0x3d9d60aa	0.07684453
16	0xbdde805b	-0.108643256
17	0xbe046302	-0.12928393
18	0x3de522b4	0.1118826
19	0x3da4b71d	0.080427386
20	0x3dfeb3c8	0.12436634
21	0x3de62fa3	0.11239555
22	0xbd08828e	-0.03332763
23	0x3e1f5f97	0.15563808
24	0x3dd36037	0.10321086
25	0x3c57aaf3	0.013163316
26	0xbdf12006	-0.11773686
27	0x3d20b5b0	0.03923577
28	0xbc54d40d	-0.01299001
29	0xbd65f1f1	-0.056138936
30	0x3ce804fe	0.028322693
31	0xbdae9016	-0.08523576
32	0xbddc79fe	-0.10765456
33	0xbdbeda15	-0.093189396
34	0xbd70b96a	-0.058770575
35	0xbd6cb6af	-0.05779141
36	0xba24f26c	-0.0006292227
37	0x3d59c965	0.05317058
38	0x3d67c9c1	0.056588892
39	0xbdc9ae49	-0.098476954
40	0xbd01a573	-0.031651925
41	0x3e786115	0.24255784
42	0x3ba88bc8	0.0051436163
43	0xbd52ff0b	-0.05151276
44	0x3ccd681a	0.025074054
45	0xbda8dafc	-0.08244893
46	0x3dca24eb	0.09870323
47	0x3de0d4a9	0.10978062
48	0xbd0ac56c	-0.033879682
49	0xbdca14c8	-0.09867245
50	0xbd880f1b	-0.06643506
51	0xbc03a7c1	-0.008035601
52	0xbde35bc4	-0.11101487
53	0xbced2f61	-0.028953256
54	0x3df7f089	0.12106425
55	0xbe7eb1f5	-0.24872573
56	0xbd8d1d27	-0.06890326
57	0xbd8b3aa2	-0.06798293
58	0xbb93d0a2	-0.004510955
59	0x3e4c806b	0.19970863
60	0x3d3e3883	0.046440613
61	0xbd78dd94	-0.06075819
62	0xbd816a6b	-0.06319126
63	0xbe675556	-0.22591147
64	0xbcd2ff32	-0.025756452
65	0x3e545843	0.20736794
66	0x3da1d4a5	0.07901887
67	0xbd855ca2	-0.06511809
68	0x3d9a7d55	0.075434364
69	0xbd522aac	-0.051310226
70	0x3d07c0ff	0.03314304
71	0x3e88537c	0.26626194
72	0xbd3ea2ba	-0.046541907
73	0xbdc0bfd2	-0.09411587
74	0xbdb3a314	-0.08771339
75	0xbe4805ae	-0.19533417
76	0xbd8ef5b5	-0.06980459
77	0x3d9df730	0.07713163
78	0x3e1d07b1	0.15334965
79	0xbdde19e0	-0.10844779
80	0x3e01b28a	0.12665763
81	0x3e556e8c	0.20842952
82	0x3d843220	0.06454873
83	0xbcb7bc01	-0.022428514
84	0xbdc7824a	-0.097416475
85	0xbdb55faa	-0.08856137
86	0x3e523458	0.2052778
87	0x3d9370f9	0.07199282
88	0xbc147415	-0.009060879
89	0xbe20c45c	-0.15699905
90	0x3e043c83	0.12913708
91	0xbd532aa7	-0.05155435
92	0x3d42688d	0.04746299
93	0xbc004dd8	-0.007831059
94	0xbdb45128	-0.08804542
95	0x3cba185b	0.022716692
96	0xbddc3c14	-0.107536465
97	0xbdcedc73	-0.10100641
98	0xbdca405f	-0.09875559
99	0xbdaf7238	-0.085667074
100	0x3de66db7	0.11251395
101	0xbd78bccd	-0.06072693
102	0x3cc43631	0.023951622
103	0x3da0e082	0.078553215
104	0x3e2167d8	0.1576227
105	0xbdca469a	-0.098767474
106	0xbd68f4ae	-0.05687397
107	0xbd131ccf	-0.035916146
108	0xbd5e93df	-0.05434024
109	0xbdb6ffd9	-0.08935518
110	0xbbee4f29	-0.00727262
111	0xbe30efb7	-0.17278944
112	0xbde3dcaa	-0.11126073
113	0x3e00236a	0.1251351
114	0x3ea1f468	0.3163178
115	0x3eac5f1d	0.33666316
116	0xbd42344d	-0.04741316
117	0x3c654d2b	0.013995449
118	0xbdb5625d	-0.08856652
119	0xbcd982de	-0.02655166
120	0x3cffbb00	0.031217098
121	0xbd7b428a	-0.061342753
122	0xbc9a3cc4	-0.018827803
123	0xbddc9c5b	-0.1077201
124	0x3db4580b	0.08805855
125	0xba534cdb	-0.00080604636
126	0xbe9bfe0d	-0.30467263
127	0x3ec05fc0	0.3757305
128	0xbdb5993a	-0.08867116
129	0x3d85c23c	0.06531188
130	0x3cd410ba	0.025886882
131	0x3d10f86e	0.03539317
132	0xbdf7fbde	-0.12108587
133	0xbd79f94b	-0.06102876
134	0x3e1d4e61	0.1536193
135	0x3dfc2d48	0.12313324
136	0x3e3ff79a	0.18746796
137	0x3ca0b018	0.019615218
138	0xbe53912e	-0.2066085
139	0x3d50d35c	0.050982818
140	0x3e3d9e93	0.18517523
141	0x3e045c76	0.12925896
142	0x3e6635ea	0.22481504
143	0xbe167bfa	-0.14695731
144	0xbe329bef	-0.17442296
145	0xbdd7304e	-0.1050726
146	0x3e7bd587	0.24593173
147	0xbca214c1	-0.019785287
148	0x3ea83f3b	0.3286074
149	0x3cab945e	0.02094477
150	0xbdea5410	-0.11441815
151	0xbda20ffd	-0.07913206
152	0x3e1eef16	0.15520892
153	0x3d781b06	0.060572647
154	0x3e00a856	0.12564215
155	0x3c73cc66	0.014880275
156	0xbdbd1d4d	-0.09234104
157	0x3da8c4cd	0.08240662
158	0x3e13fff3	0.14453106
159	0x3cf723a2	0.030168358
160	0x3e564e42	0.2092829
161	0xbd6827d5	-0.05667861
162	0xbe2f570f	-0.17123054
163	0xbcbe6ea4	-0.023246117
164	0x3db46ac9	0.0880943
165	0x3dbba0c8	0.09161526
166	0x3e01eb33	0.12687378
167	0xbdb98b73	-0.09059801
168	0xbe0b0bcb	-0.13578717
169	0xbc4d0336	-0.012512973
170	0x3c28ce31	0.010303066
171	0x3dd921c1	0.10602141
172	0x3e20ae1e	0.1569142
173	0xbb828058	-0.003982585
174	0xbd968ba0	-0.0735085
175	0xbaea85ff	-0.0017892717
176	0xbd95a309	-0.07306487
177	0x3d3a00ba	0.04541085
178	0xbc864e7f	-0.016394852
179	0x3d4220f0	0.047394693
180	0xbe6a5f52	-0.22887924
181	0xbdf78264	-0.12085417
182	0x3de6729c	0.11252329
183	0x3e1ffcce	0.15623781
184	0x3d2e3660	0.042532325
185	0x3cad806a	0.021179397
186	0xbde40424	-0.11133602
187	0xbd8833f0	-0.06650531
188	0x3c503227	0.01270727
189	0x3e4b9142	0.1987963
190	0x3e144d3d	0.14482589
191	0x3e0f7030	0.1400764
192	0xbe26d205	-0.16291054
193	0x3d5d5ea3	0.05404533
194	0x3dc65753	0.096846245
195	0x3e11cc30	0.14238048
196	0x3cf25480	0.029581308
197	0x3e029837	0.12753378
198	0xbddd36d1	-0.10801471
199	0xbda179c7	-0.07884555
200	0x3e746917	0.23868214
201	0x3c523763	0.012830588
202	0x3e240728	0.16018355
203	0xbdf325a0	-0.11872411
204	0xbd93ca63	-0.072163366
205	0x3c3eb7de	0.011640517
206	0x3d93912c	0.07205424
207	0x3d80a990	0.062823415
208	0x3d84cafa	0.06484027
209	0xba0a8604	-0.0005284252
210	0x3ca543d7	0.02017395
211	0xbd5c8b60	-0.053843856
212	0x3e01cc13	0.12675504
213	0xbdcb4ef1	-0.09927166
214	0x3ddff535	0.109354414
215	0xbe82c6af	-0.2554221
216	0xbd513a92	-0.051081248
217	0x3cba52f9	0.022744643
218	0x3e1b3dcf	0.15160297
219	0x3e97aca9	0.29623917
220	0xbd81bdc2	-0.063350216
221	0xbde526bf	-0.11189031
222	0xbddbc594	-0.107310444
223	0x3ba29570	0.004961662
224	0x3e03b234	0.12860948
225	0x3d9ec130	0.07751691
226	0x3d8c5389	0.068518706
227	0xbd8b76fd	-0.068098046
228	0xbe7ac2d3	-0.24488382
229	0x3c38451b	0.011246945
230	0x3d9b9211	0.07596219
231	0x3e0b249b	0.13588183
232	0x3df0d3bd	0.11759136
233	0x3cb04d74	0.021521308
234	0xbe73440b	-0.23756425
235	0xbcbb2826	-0.022846293
236	0x3d9a8f42	0.075468555
237	0x3e213162	0.15741494
238	0x3e8eb2af	0.278707
239	0x3d071f47	0.032988813
240	0xbd5145dd	-0.051092017
241	0xbce289ca	-0.027653594
242	0x3e88ae4d	0.2669548
243	0x3e4e12f7	0.20124422
244	0x3e48fca3	0.19627623
245	0x3d1bf84d	0.038078595
246	0xbdd18e2d	-0.10232196
247	0xbdafd349	-0.08585221
248	0xbd9b86c0	-0.07594061
249	0xbc43e5d9	-0.011956655
250	0x3e6b0c77	0.22953974
251	0x3d8a48df	0.0675218
252	0x3d27c633	0.040960502
253	0x3cbb4e90	0.02286461
254	0x3e23f942	0.16013053
255	0x3de24221	0.11047769

network_body._body_endoder.seq_layers.0.bias f4 [256]
0	0xbc127160	-0.0089381635
1	0xba026849	-0.0004974646
2	0xbd9424b3	-0.07233562
3	0xbc5fedf6	-0.013667574
4	0x3d816e43	0.06319859
5	0x3cbf4f72	0.023353312
6	0xbd0834bf	-0.033253428
7	0x3be3c1d5	0.006950597
8	0x3c55ccac	0.013049286
9	0x3d7da162	0.061921485
10	0xbccf1735	-0.02527962
11	0xbd5deede	-0.05418288
12	0x3cba809a	0.0227664
13	0x3c9042ff	0.017610071
14	0xbc30ab71	-0.010783062
15	0xbd8ee5b9	-0.0697741
16	0x3b97c51e	0.0046316525
17	0xbd80af7d	-0.06283472
18	0xbc275e23	-0.010215315
19	0x3cd7fad4	0.026364721
20	0xbd0acbe3	-0.033885848
21	0x3ca8e3ee	0.020616498
22	0x3d07f0ea	0.033188738
23	0xbb436c92	-0.0029819352
24	0xbbd354ed	-0.006449333
25	0xbb391f49	-0.0028247407
26	0xbd034254	-0.032045677
27	0x3c503710	0.01270844
28	0x3c6f91ce	0.014622165
29	0x3d1792be	0.03700518
30	0xbcdbda35	-0.026837448
31	0x3db56639	0.08857388
32	0xbc78c82c	-0.015184443
33	0x3cdfab63	0.027303403
34	0x3d618854	0.055061653
35	0xba90bf67	-0.001104337
36	0x3badba4c	0.0053017493
37	0xbcf9991b	-0.030468514
38	0x3c903ded	0.017607654
39	0x3ccb3e7a	0.024810065
40	0x3d642ac7	0.05570486
41	0x3c51f140	0.012813866
42	0x3cdb302b	0.026756367
43	0xbdcc875e	-0.09986757
44	0x3d769d0a	0.060208358
45	0xbcc0e841	-0.023548247
46	0x3c9b765f	0.018977342
47	0x3b98b94a	0.00466076
48	0x3da6f502	0.081522
49	0x39d490c2	0.00040543644
50	0x3d8c3e5f	0.06847834
51	0x3b9a4acb	0.004708623
52	0x3c810287	0.015748275
53	0xbc806f85	-0.015678177
54	0xbd318e1a	-0.04334841
55	0xbd39ded8	-0.045378536
56	0x39d0bc4e	0.0003981315
57	0x3c67a9a3	0.014139566
58	0xbba465cd	-0.0050170184
59	0xbb430e33	-0.0029763102
60	0xbe09cfd7	-0.13458191
61	0xbd9a803b	-0.07543989
62	0x3d59d594	0.0531822
63	0x3d2f7e50	0.04284507
64	0x3dba8a7f	0.09108447
65	0xba7163d3	-0.00092082954
66	0xbcd2ac41	-0.025716903
67	0xbcc5f56a	-0.024164874
68	0x3d0327bc	0.032020316
69	0x3d4c85ea	0.049932398
70	0x3d51aaf7	0.051188435
71	0x3cc82f1c	0.024436526
72	0xbd07a20e	-0.03311353
73	0xbd5b11f0	-0.053483903
74	0x3d317058	0.04332003
75	0x3db2745b	0.08713599
76	0x3cc7b4cc	0.024378203
77	0xbb1ed044	-0.0024233023
78	0xbc9df1ca	-0.019280333
79	0x3d0ba915	0.034096796
80	0x3a277748	0.0006388319
81	0xbca26f6b	-0.019828519
82	0x3b4c34c4	0.003115938
83	0xbd1290f7	-0.03578278
84	0x3db71a68	0.089405835
85	0x3c89b954	0.016812004
86	0xbce04587	-0.027376903
87	0xbc2cc7e6	-0.010545706
88	0x3d2d62de	0.042330615
89	0x3c4bc928	0.012438096
90	0x3c327c17	0.010893843
91	0x3c4212ea	0.01184533
92	0xbc94cf7d	-0.018165344
93	0x3c8dfd1e	0.01733261
94	0x3cba3394	0.022729672
95	0x3d6845d9	0.056707237
96	0x3d7d57df	0.06185138
97	0xbd24bc7d	-0.04021882
98	0xbc8036db	-0.015651157
99	0x3d7bf55b	0.061513286
100	0xbc6b9678	-0.014379136
101	0xba26649d	-0.000634739
102	0x3b2fe6bd	0.0026840412
103	0xbd4091ae	-0.04701393
104	0x3cff2754	0.031146683
105	0x3c1e0fb1	0.009647296
106	0xbd2726a4	-0.040808335
107	0xb803c9b1	-3.1420674e-05
108	0xbcf4b9e1	-0.02987379
109	0x3d3bb63a	0.04582808
110	0x3c9fdf52	0.019515667
111	0x3da4f324	0.08054188
112	0xbe0dac5c	-0.13835281
113	0x3d3482f9	0.044070218
114	0x3bbc57e6	0.005747783
115	0xbc6115d8	-0.013738118
116	0x3cc6c4a4	0.024263687
117	0xba6c4f0b	-0.0009014464
118	0x3d6179ef	0.055047926
119	0x3d925052	0.07144226
120	0xbe2719c2	-0.1631842
121	0x3d9e765b	0.07737418
122	0x3d34faec	0.04418461
123	0xbd755055	-0.059891064
124	0xbe18a7d9	-0.14907779
125	0xbd02be6d	-0.031919885
126	0xbb61c4c8	-0.0034449566
127	0xbcc175ac	-0.02361568
128	0x3bbf6c3c	0.00584176
129	0x3dd9c1de	0.1063268
130	0xbcd8e7f4	-0.026477791
131	0x3c3d2170	0.011543617
132	0x3d9160df	0.07098555
133	0xbda52745	-0.08064131
134	0xbd7f16d4	-0.06227763
135	0xbc4945c0	-0.012284696
136	0x3d5001b5	0.050782878
137	0x3d82cc89	0.06386668
138	0x3cb207f1	0.021732302
139	0xbd82b9fa	-0.063831285
140	0x3cb3f97a	0.021969546
141	0xbd0f36aa	-0.03496424
142	0x3c7518ce	0.014959527
143	0xbdfbb82b	-0.122909866
144	0x3ca0ba59	0.019620107
145	0x3d30f963	0.043206584
146	0x3c7a7c8a	0.0152884815
147	0x3da97aad	0.08275352
148	0x3c00a09c	0.007850792
149	0xbc3c1c1a	-0.011481309
150	0x3d160d25	0.03663363
151	0xbd20f1fd	-0.039293278
152	0x3c11c867	0.008897877
153	0xbd769802	-0.06020356
154	0xbdb3e8f9	-0.087846704
155	0x3d92879a	0.0715477
156	0xbb71efa7	-0.0036916526
157	0x3c0f1b6d	0.008734566
158	0x3c40e360	0.01177296
159	0x3bce80cd	0.0063019753
160	0xbc9ec8f9	-0.01938294
161	0xbcfc40bf	-0.030792592
162	0xbb94b16f	-0.0045377533
163	0x3bc615b3	0.006045067
164	0x3d1a8a84	0.037729755
165	0x3aa372dc	0.0012470144
166	0x3c9d9ea2	0.019240681
167	0xbd0df1f2	-0.034654565
168	0xbd9aacc9	-0.075524874
169	0x3d090af2	0.033457704
170	0xbcb3ea6d	-0.021962369
171	0x3dcfb45e	0.10141824
172	0xbc78e6c9	-0.015191742
173	0x3d0071a3	0.031358372
174	0xbce77955	-0.028256098
175	0xbc3e2a15	-0.011606713
176	0xbc950ba2	-0.018194024
177	0x3ca01201	0.019539835
178	0x3ca23b2d	0.019803608
179	0xbd4911a8	-0.049089104
180	0xbdc65bc6	-0.09685473
181	0x3b78e81c	0.0037980145
182	0xbc64444a	-0.013932297
183	0x3d177a85	0.036982078
184	0xbc36b6b9	-0.011151963
185	0x3d35b71f	0.04436409
186	0x3cfa20b7	0.030533178
187	0xbc41d9d8	-0.011831723
188	0xbd1fe966	-0.039040945
189	0xbc7de9c3	-0.015497628
190	0xbcb49537	-0.022043807
191	0xbc8ba24a	-0.017045159
192	0xbd45e414	-0.048313215
193	0xbce2fe14	-0.027709045
194	0x3d991e27	0.07476454
195	0x3cc9e108	0.024643436
196	0xbb287116	-0.002570217
197	0x3c5a3bc3	0.013319912
198	0xbb477a92	-0.0030438048
199	0x3c3326e4	0.010934565
200	0x3cf4bd61	0.02987546
201	0x3d792566	0.06082668
202	0xbcfbb7e1	-0.030727329
203	0x3ce5a425	0.028032372
204	0x3d02bab2	0.031916328
205	0x3d2ba16d	0.041901994
206	0x3d771397	0.060321417
207	0xbc82c515	-0.015963117
208	0xbca2ce75	-0.019873837
209	0xbc7d4534	-0.015458394
210	0xbcb0fe54	-0.021605648
211	0xbb50d213	-0.0031863495
212	0xbd4e48f0	-0.050362527
213	0xbd0f0f0a	-0.03492645
214	0xbb37f9a6	-0.0028072386
215	0x3d90c810	0.07069409
216	0x3de90f57	0.11379879
217	0xbb7346bd	-0.003712102
218	0x3cccba53	0.02499119
219	0xbce139a3	-0.027493304
220	0xbcc214b7	-0.023691518
221	0x3c0c2cb1	0.008555577
222	0x3b4a52a7	0.0030872019
223	0xbd55cb0a	-0.052195586
224	0xbace9cd3	-0.001576329
225	0x3b32b66f	0.0027269383
226	0xbb4611e4	-0.0030223066
227	0xbdc22f76	-0.09481709
228	0x3c49fab2	0.012327837
229	0x3d95c439	0.07312817
230	0xbb98dc13	-0.0046649068
231	0xbb3086cf	-0.002693582
232	0x3d00068d	0.031256247
233	0xbc1935ba	-0.009351188
234	0x3c1ce124	0.009575162
235	0xbc2f9d79	-0.010718697
236	0xbd5668db	-0.05234609
237	0x3c047f32	0.008086966
238	0x3d6a5149	0.057206426
239	0x3cb4b542	0.022059087
240	0xbd1b65ee	-0.037939005
241	0x3c221f59	0.009895169
242	0x3d2f6a82	0.042826183
243	0xbced09be	-0.02893531
244	0x3c5a9cf3	0.013343084
245	0xbda7a1be	-0.08185147
246	0x3c349816	0.011022588
247	0x3cc4421c	0.023957305
248	0xbd1f226d	-0.03885119
249	0xbd59016c	-0.05297987
250	0xbd1cc563	-0.03827418
251	0x3b76f294	0.003768121
252	0x3dd0e93a	0.102007344
253	0xbcde4cec	-0.027136289
254	0xbc0e1bdf	-0.008673637
255	0x3d033044	0.03202845

network_body._body_endoder.seq_layers.2.weight f4 [256, 256]
0	0xbd5dc4cd	-0.054142762
1	0xbe27f211	-0.16400935
2	0x3e5fb5b7	0.21846662
3	0xbd37eb7c	-0.04490231
4	0x3ce8b94b	0.028408667
5	0x3e37e8f8	0.17959964
6	0xbe1f18d9	-0.15536822
7	0xbbe34f3f	-0.006936937
8	0x3e925e46	0.2858755
9	0xbcee64d3	-0.029100811
10	0xbd38c7d2	-0.04511244
11	0x3dab78df	0.08372664
12	0x3e625efc	0.22106546
13	0x3d30ea64	0.043192282
14	0xbe201085	-0.15631302
15	0x3e0b070b	0.13576905
16	0x3dbaa79b	0.091139995
17	0x3cfc2df6	0.030783635
18	0xbd903078	-0.07040495
19	0xbd164a7f	-0.03669214
20	0xbe8dfe0a	-0.2773288
21	0xbd008947	-0.031380918
22	0xbd7e5171	-0.062089387
23	0xbe021b6d	-0.12705775
24	0xbe23c377	-0.15992533
25	0xbc4b7d7b	-0.012420054
26	0xbe6376f4	-0.22213346
27	0x3db84cf0	0.0899905
28	0xbcee927a	-0.02912258
29	0x3d37dba0	0.044887185
30	0xbd1f05de	-0.038823955
31	0xbd857d53	-0.06518044
32	0x3c7dbd53	0.015487033
33	0x3e35de92	0.17760685
34	0xbca6a598	-0.020342633
35	0x3db3d6c2	0.08781196
36	0xbd5282b5	-0.051394183
37	0x3d6c3679	0.057669137
38	0xbbda2742	-0.006657512
39	0xbe2d7b34	-0.1694153
40	0xbde414f8	-0.11136812
41	0xbe87b4b0	-0.2650504
42	0xbe3365d3	-0.17519312
43	0xbd3ee7f3	-0.046607923
44	0xbe087faa	-0.1332995
45	0x3b95d62a	0.0045726495
46	0x3d51d65a	0.051229812
47	0xbd570c01	-0.052501682
48	0xbdaeac07	-0.08528905
49	0xbecae3cb	-0.39626917
50	0xbd4cfaba	-0.0500438
51	0xbcffd930	-0.031231493
52	0x3ae986b8	0.0017816639
53	0xbd2c10ea	-0.042008318
54	0x3d8ec300	0.06970787
55	0xbd748685	-0.0596986
56	0xbe7fd484	-0.24983412
57	0x3e8a98c9	0.2706969
58	0x3d5269e8	0.05137053
59	0x3db787b6	0.08961432
60	0x3dfe2837	0.12410014
61	0xbc87ec95	-0.016592303
62	0x3d0f1b9b	0.034938436
63	0x3dbb1768	0.09135324
64	0x3b2ee76b	0.0026688229
65	0x3dbba5a3	0.09162452
66	0x3dc1e72c	0.09467921
67	0xbe705d22	-0.23473027
68	0xbe38cbc0	-0.18046474
69	0xbd51da5a	-0.051233627
70	0xbe29a431	-0.1656654
71	0xbe122c1e	-0.14274642
72	0xbdee8a86	-0.11647515
73	0xbe2cc386	-0.16871461
74	0xbd9317c7	-0.071822695
75	0xbe1c45e6	-0.15261039
76	0xbdd90ae7	-0.105977826
77	0xbe154af5	-0.14579375
78	0xbdbe9843	-0.09306385
79	0xbd7d6c5b	-0.061870914
80	0x3d9fc1fb	0.07800671
81	0x3cb8f447	0.022577418
82	0xbd5036dd	-0.05083357
83	0xbe4df241	-0.20111944
84	0xbd8b4dd1	-0.06801952
85	0x3d8986e9	0.06715185
86	0xbdd9c76f	-0.10633742
87	0xbd6f7ae7	-0.05846682
88	0xbbf5ae52	-0.0074975872
89	0x3e868b13	0.2627798
90	0x3d75e4b8	0.060032576
91	0xbc8f702e	-0.017509546
92	0x3d970874	0.07374659
93	0xbd582c9d	-0.05277692
94	0x3c650f24	0.013980661
95	0x3d4f92b3	0.050677013
96	0x3e1c6825	0.15274103
97	0xbe8db55f	-0.27677438
98	0x3d010b1e	0.031504743
99	0xbe36dde0	-0.17858076
100	0xbc71abc1	-0.014750422
101	0xbdb74e24	-0.08950451
102	0x3e009435	0.12556536
103	0xbe4aa59b	-0.19789736
104	0x3d8580da	0.06518717
105	0xbd0880c9	-0.033325944
106	0xbe3acbdc	-0.18241829
107	0x3d9d6b5a	0.07686491
108	0xbdd94c6b	-0.10610279
109	0x3c6f4d54	0.014605839
110	0xbd1db197	-0.03849944
111	0xbe537032	-0.20648268
112	0xbd214fa2	-0.039382584
113	0xbdaca950	-0.08430731
114	0x3d6862ba	0.056734778
115	0xbd101600	-0.03517723
116	0x3d896dfd	0.06710432
117	0xbdbbd075	-0.091706194
118	0x3d566b90	0.052348673
119	0xbd9e8593	-0.07740321
120	0x3d84ef44	0.06490949
121	0x3c2d3d15	0.010573645
122	0x3cfa545e	0.030557808
123	0x3db9afba	0.0906672
124	0x3e0fb362	0.14033273
125	0xbe2f98bd	-0.17148109
126	0xbe4213bf	-0.18952845
127	0xbe550fd7	-0.20806824
128	0x3d057067	0.0325779
129	0x3df47127	0.119356446
130	0xbe2fa6f7	-0.17153536
131	0x3db7ee3e	0.08980988
132	0xbe4e8a30	-0.20169902
133	0xbd2af51d	-0.041737664
134	0xbd97ff8c	-0.074217886
135	0x3d7770e4	0.060410395
136	0x3e0cf5a0	0.13765574
137	0x3e39b494	0.18135291
138	0xbc34e6ae	-0.011041326
139	0xbd38c02d	-0.045105148
140	0xbdd16a5a	-0.10225363
141	0x3d0810ae	0.033219032
142	0x3e64cd89	0.2234403
143	0xbe3ce05f	-0.18444966
144	0xbe070a5a	-0.13187543
145	0xbc98c91e	-0.018650588
146	0xbd58af80	-0.052901745
147	0xbadd18aa	-0.0016868312
148	0x3e5363c3	0.20643525
149	0xbd74d1db	-0.059770446
150	0x3df3a3aa	0.11896451
151	0xbe46671d	-0.19375272
152	0x3d37fbfa	0.044918038
153	0xbe1d5a8b	-0.1536657
154	0xbcf84d82	-0.030310396
155	0xbc067b60	-0.008208126
156	0x3c950f28	0.018195704
157	0xbd1c32f8	-0.038134545
158	0xbe8d1bd3	-0.2756029
159	0xbdd460ce	-0.103700265
160	0xbe708da4	-0.23491532
161	0xbe441e26	-0.19152126
162	0x3d9410ba	0.07229753
163	0xbcefdfd1	-0.029281529
164	0xbd2aa0cd	-0.041657258
165	0xbe8f9263	-0.28041372
166	0xbd06164c	-0.032736108
167	0x3c7a67c2	0.015283527
168	0xbd9a79e4	-0.0754278
169	0xbc57c9f3	-0.013170707
170	0xbd6ba5c8	-0.05753115
171	0xbd4135a7	-0.047170307
172	0x3c98e623	0.018664425
173	0xbd87468f	-0.06605255
174	0x3ccd0b8f	0.025029926
175	0x3da45e98	0.08025855
176	0xbdc0c037	-0.09411662
177	0x3d9e6128	0.07733375
178	0x3e4037e5	0.18771322
179	0xbe35cf9e	-0.17754981
180	0xbd000208	-0.031251937
181	0xbe135946	-0.14389524
182	0xbe719ec1	-0.23595716
183	0xbc17e12f	-0.009269997
184	0xbda3eb4e	-0.08003865
185	0xbe008aff	-0.12553023
186	0x3d292934	0.04129906
187	0xbd31a5fe	-0.043371193
188	0x3b9268cb	0.0044680587
189	0x3e28db42	0.1648989
190	0xbcff587f	-0.031170128
191	0x3bd42263	0.006473826
192	0xbb53e6b5	-0.0032333557
193	0x3daac907	0.08339124
194	0xbe26c4db	-0.16286032
195	0xbb2ce90e	-0.0026384029
196	0x3c940567	0.018068982
197	0x3cafb37c	0.02144789
198	0x3dfefaf2	0.12450208
199	0x3c242431	0.010018394
200	0xbde3db13	-0.111257695
201	0x3d289620	0.041158795
202	0x3d18f625	0.037344117
203	0xbe219183	-0.15778165
204	0xbcb00a6a	-0.02148934
205	0x3d8a5435	0.067543425
206	0xbdd344b4	-0.103158385
207	0x3d41a96d	0.047280718
208	0x3c95a01a	0.018264819
209	0x3b74ff05	0.0037383449
210	0xbd0a1dfb	-0.033719998
211	0x3c9f272b	0.019427856
212	0x3cd2acc2	0.025717143
213	0xbdcbac7c	-0.09945008
214	0xbdb64d0f	-0.089014165
215	0xbe159399	-0.14607085
216	0x3d7d58bd	0.061852206
217	0xbe0b0e6f	-0.13579725
218	0xbdff3c91	-0.12462724
219	0xbcb393a8	-0.021920994
220	0x3d72e7e4	0.05930318
221	0xbd96aa54	-0.07356706
222	0xbe4db9ec	-0.20090455
223	0x3dde9bef	0.10869586
224	0xbdb4aacf	-0.08821642
225	0xbe1cdcd7	-0.15318619
226	0x3d8d3858	0.06895512
227	0x3e3400c3	0.17578416
228	0xbdbcb9eb	-0.092151485
229	0xbdcc45ab	-0.099742256
230	0xbda0a8f7	-0.078447275
231	0x3d74fdae	0.05981224
232	0xbde9edbb	-0.114222966
233	0xbd8667d6	-0.06562774
234	0xbd2e8283	-0.042604934
235	0xbe2ceec8	-0.16887963
236	0x3d9d8eea	0.07693274
237	0xbd66247f	-0.05618715
238	0xbe851af4	-0.25997126
239	0xbde4a66d	-0.11164556
240	0xbe6dfa0c	-0.23239917
241	0x3d802916	0.062578365
242	0xbe1627bf	-0.146636
243	0x3e1246b6	0.14284787
244	0xbcd4f37c	-0.025995009
245	0x3e5fa9a2	0.21842054
246	0xbdd10535	-0.10206071
247	0x3d9a00f4	0.07519713
248	0x3dd142fd	0.10217855
249	0xbe33f5a5	-0.17574175
250	0xbde6ea74	-0.11275187
251	0x3d31011c	0.04321395
252	0x3d3eed7d	0.046613205
253	0x3d9de74c	0.07710132
254	0xbebebacb	-0.37251887
255	0x3e5f8e33	0.21831588

network_body._body_endoder.seq_layers.2.bias f4 [256]
0	0xbba09c60	-0.004901454
1	0xbd942b95	-0.07234875
2	0xbd9d4182	-0.0767851
3	0xbe0a4348	-0.13502228
4	0xba08e733	-0.00052224396
5	0xbda5344b	-0.08066615
6	0xbd75b306	-0.059985183
7	0x3cb19e47	0.021681918
8	0xbd980898	-0.07423514
9	0xbda3363e	-0.0796933
10	0xbd31a0d2	-0.04336626
11	0xbca87e89	-0.02056815
12	0xbd54ca53	-0.051950764
13	0x3ae590a9	0.0017514426
14	0xbd64c2f1	-0.055849973
15	0xbd3c2e8f	-0.04594284
16	0x3ce608d5	0.028080383
17	0xbe182c25	-0.1486059
18	0xbe01bd75	-0.12669928
19	0xbdf16d6e	-0.1178845
20	0xbcabc9bd	-0.02097022
21	0x3bacbbdd	0.0052714185
22	0xbd22ca27	-0.03974357
23	0xbbe2ab54	-0.0069173966
24	0xbd4e6b65	-0.05039539
25	0xbd6d5e9e	-0.057951562
26	0x3bf98822	0.0076151052
27	0xbdd4f3df	-0.10398077
28	0xbcc7ccb6	-0.024389606
29	0xbd02f308	-0.031970054
30	0xbe57ff7d	-0.21093555
31	0xbc84cf57	-0.016212149
32	0x3d63b7f6	0.05559536
33	0xbd9f45da	-0.07776995
34	0xbdf5c4b3	-0.12000408
35	0xbd56d308	-0.05244735
36	0xbd80a179	-0.062807985
37	0x3cb2f76b	0.021846494
38	0xbdb42895	-0.08796803
39	0xbdf034ac	-0.11728796
40	0xbd850626	-0.06495313
41	0xbc8cae70	-0.017173022
42	0xbc5ca932	-0.013468074
43	0xbd3be016	-0.045868002
44	0xbe09bce6	-0.13450965
45	0xbc15ba60	-0.009138674
46	0x3c938555	0.018007914
47	0xbdacbc01	-0.084342964
48	0xbda11d3a	-0.07866903
49	0xbd725e89	-0.059172187
50	0xbd8575df	-0.06516623
51	0xbdb6af95	-0.08920208
52	0xbe0bccb1	-0.13652302
53	0xbdd19402	-0.102333084
54	0xbce240f9	-0.027618872
55	0xbd91d040	-0.07119799
56	0xbc2ab28c	-0.010418545
57	0xbd9dc5e9	-0.07703764
58	0xbd9d3393	-0.076758526
59	0xbdc1b1f0	-0.09457767
60	0xbd7d1900	-0.06179142
61	0x3d32c810	0.043647826
62	0xbddab26a	-0.10678561
63	0xbe69548c	-0.22786158
64	0xbd61d1c1	-0.055131678
65	0xbd42d386	-0.047565006
66	0x3c2b7ba3	0.010466489
67	0xbcff5923	-0.031170433
68	0x3c18c820	0.009325057
69	0x3ba57afd	0.0050500617
70	0xbe122a0f	-0.14273857
71	0xbdc75f9e	-0.097350344
72	0x3be59dfe	0.0070073595
73	0xbcbe118c	-0.023201726
74	0xbcfd4897	-0.030918403
75	0xbc8f43cf	-0.017488388
76	0xbe0ac910	-0.13553262
77	0xbd7920fd	-0.060822476
78	0xbe2471c0	-0.16059017
79	0xbd3dab0f	-0.046305712
80	0x3d7006ed	0.058600355
81	0xbd2a6622	-0.041601308
82	0xbd429676	-0.047506772
83	0xbc5309b4	-0.012880731
84	0xbccb3e8e	-0.024810102
85	0xbc40acef	-0.011759981
86	0xbc445be9	-0.011984804
87	0xba400271	-0.00073245825
88	0xbb975dcc	-0.0046193358
89	0xbdcaed56	-0.099085495
90	0xbdb11f06	-0.086484954
91	0xbdd7af14	-0.105314404
92	0x3b87bdf3	0.0041425168
93	0xbd8778ba	-0.06614824
94	0xbd3868ff	-0.045022007
95	0xbc1c0959	-0.009523713
96	0xbd0b53a4	-0.034015313
97	0xbc3d7e73	-0.011565792
98	0xbc7af8be	-0.015318094
99	0xbdaec951	-0.08534492
100	0xbc9b18b8	-0.018932685
101	0x3b865079	0.0040989486
102	0x3d45a1e8	0.04825011
103	0xbdab59b0	-0.08366716
104	0xbd47c080	-0.048767567
105	0xbdf5d176	-0.12002842
106	0xbe0ca9fa	-0.13736716
107	0x3c819b41	0.015821101
108	0xbc464f14	-0.012103815
109	0x3c22e07b	0.009941216
110	0xbdea91c4	-0.11453584
111	0xbd13db06	-0.03609755
112	0xbe0ce6f6	-0.1375998
113	0x3d2cc8c7	0.042183664
114	0xbd9c2355	-0.076239266
115	0xbcef1eed	-0.029189551
116	0xbd51e00a	-0.05123905
117	0xbd03c60a	-0.032171287
118	0xbcd4880a	-0.025943775
119	0xbd2d2640	-0.042272806
120	0xbce29f94	-0.027663983
121	0x3aeee09b	0.0018224897
122	0xbdc9c036	-0.098511145
123	0xbdc1ccd8	-0.09462899
124	0xbe1800b3	-0.14844017
125	0xbab3cdc7	-0.0013717943
126	0x3d3658dc	0.044518337
127	0xbd167968	-0.036736876
128	0xbcd13da0	-0.02554208
129	0xbda14b6e	-0.07875715
130	0xbaeff1b0	-0.0018306281
131	0xbca865fa	-0.020556439
132	0xbd49deb5	-0.049284656
133	0xbd419b10	-0.04726702
134	0xbb8e0eae	-0.004335246
135	0xbca13189	-0.01967694
136	0xbd790dad	-0.060804058
137	0xbdf1cf69	-0.118071385
138	0xbcca5f73	-0.024703717
139	0xbe35690f	-0.17715858
140	0xbcd9b0b8	-0.026573524
141	0xbdae1c39	-0.08501477
142	0xbab90319	-0.0014115303
143	0x3d8b422a	0.06799729
144	0xbc4e5275	-0.0125929015
145	0x3bb18144	0.005417021
146	0xbd381461	-0.04494131
147	0xbdf1f8a6	-0.11815004
148	0xbd80fca3	-0.06298187
149	0xbc6778ac	-0.0141278915
150	0xbe2d9915	-0.16952927
151	0xbd341305	-0.04396345
152	0x3b3ecd4d	0.0029114068
153	0xbe29982c	-0.16561955
154	0xbdb00cb5	-0.08596174
155	0xbcbb4a5c	-0.022862606
156	0x3d14008b	0.03613333
157	0xbc8dc7ff	-0.01730728
158	0x3c8cf71d	0.017207677
159	0xbc8a9262	-0.016915504
160	0xbc899660	-0.016795337
161	0xbe0b37a4	-0.13595444
162	0xbc83c88e	-0.016086843
163	0xbe198573	-0.14992313
164	0xbe1163dd	-0.14198251
165	0x3d0614fd	0.03273486
166	0xbc8431b2	-0.016136978
167	0xbc96fcff	-0.018431185
168	0xbd3ef280	-0.046617985
169	0xbd6eec35	-0.058330733
170	0xbd110fba	-0.03541539
171	0xbcd13384	-0.02553726
172	0xbca9db52	-0.020734463
173	0x3cf9f97d	0.030514473
174	0xbc77a72b	-0.01511554
175	0xbe23161b	-0.15926401
176	0xbdf9fbda	-0.1220624
177	0x3c8cafd0	0.017173678
178	0xbbe97f93	-0.0071258037
179	0x3c090e9e	0.008365301
180	0xbdbc2b04	-0.09187892
181	0xbdecd262	-0.11563565
182	0xbd21e080	-0.03952074
183	0x3b979532	0.0046259398
184	0xbdbe9784	-0.09306243
185	0xbe312259	-0.17298259
186	0xbd9004e7	-0.07032185
187	0xbdbc10d2	-0.09182896
188	0xbc719501	-0.014744998
189	0xbca687be	-0.020328399
190	0xbde10827	-0.10987883
191	0x3d30db9c	0.043178186
192	0xbddb8042	-0.107178226
193	0xbb2f730b	-0.0026771452
194	0xbd2f763c	-0.042837366
195	0xbd315cd0	-0.043301404
196	0xbe5460a7	-0.20739995
197	0xbc4c382c	-0.012464564
198	0x3cf0b2d1	0.029382141
199	0xbd014c53	-0.03156693
200	0x3c54d617	0.012990496
201	0xbe48d4df	-0.19612454
202	0xbd9e6fcd	-0.07736168
203	0xb92e7b7d	-0.00016639936
204	0x3c961d9a	0.018324662
205	0x3b02d6c8	0.0019964445
206	0x3a3a57c6	0.0007108416
207	0xbe1d83b0	-0.15382266
208	0xbdf96f11	-0.12179387
209	0xbc6c43d9	-0.014420473
210	0xbd4d4142	-0.050111063
211	0xbdb2cb07	-0.08730131
212	0x3c68328b	0.014172207
213	0xbd5dd641	-0.054159407
214	0xbdd8e10a	-0.10589798
215	0xbdf99c80	-0.12188053
216	0xbd3b30b4	-0.045700744
217	0xbcf28dc1	-0.02960861
218	0xbcefe922	-0.029285971
219	0xbd98fa73	-0.074696444
220	0xbc2abd81	-0.010421158
221	0x3d244670	0.040106237
222	0xbdb3db69	-0.087820835
223	0xbbec2065	-0.00720601
224	0xbcbc6940	-0.022999406
225	0xbcff0f6c	-0.031135283
226	0xbe09b162	-0.13446572
227	0xbc7b9f6c	-0.015357833
228	0xbe0ae4e5	-0.13563879
229	0xbe28da12	-0.16489437
230	0xbe3d5e39	-0.18492974
231	0x3d54f0bd	0.0519874
232	0xbda2dce7	-0.0795229
233	0x3d7e8981	0.062142853
234	0x3b87f58f	0.004149146
235	0xbd98de4d	-0.074642755
236	0xba50273d	-0.0007940417
237	0xbce0fdac	-0.02746471
238	0xbd96c4e9	-0.073617764
239	0xbd503ca8	-0.050839096
240	0x3ccc197b	0.024914494
241	0x3d0b48e4	0.03400506
242	0xbb13a45b	-0.0022528383
243	0xbb1a6579	-0.0023559018
244	0x3cf92f50	0.030418068
245	0xbe3aa8a3	-0.18228392
246	0xbd54a8f0	-0.051918924
247	0xbc5288c2	-0.012849988
248	0x3caa5da8	0.020796612
249	0xbd9d8704	-0.07691768
250	0xbdf9f8e8	-0.12205678
251	0xbcfa5deb	-0.030562362
252	0x3a61099b	0.00085845
253	0xbda47e74	-0.080319315
254	0xbe0b5087	-0.13604937
255	0x3cd1343a	0.025537599

action_model._discrete_distribution.branches.0.weight f4 [2, 256]
0	0x3c9aba63	0.018887704
1	0x3bb98df9	0.0056626764
2	0x3b9e549b	0.004831863
3	0x3cdb8231	0.026795479
4	0x3d129d7d	0.035794724
5	0xbc5c18b2	-0.013433622
6	0xbd5f25c5	-0.05447938
7	0xbd1b8c63	-0.03797568
8	0x3d5f194a	0.054467477
9	0xbcc59109	-0.02411701
10	0xbd91e60f	-0.07123958
11	0x3d14354b	0.036183637
12	0xbc835a0e	-0.016034152
13	0x3d8ba02b	0.06817659
14	0xbdea0e36	-0.11428492
15	0x3c828f46	0.015937459
16	0xbd649507	-0.055806186
17	0xbd056d5d	-0.032575
18	0xbd0f19b9	-0.03493664
19	0xbd48858d	-0.04895549
20	0x3b3faa94	0.002924596
21	0xbdcd3d54	-0.10021463
22	0xbbbea28d	-0.0058177174
23	0x3cb6d02a	0.022316057
24	0xbcb07dc8	-0.021544352
25	0xbbad773e	-0.005293756
26	0x3d174cd5	0.036938507
27	0xbd8143d4	-0.06311765
28	0xbcc4a401	-0.024003984
29	0x3c9b972e	0.018992987
30	0xbd7cff67	-0.06176701
31	0xbc035e2f	-0.008018061
32	0x3da42ebe	0.08016728
33	0xbd3b43f1	-0.04571909
34	0x3c2735e0	0.010205716
35	0xbc5dec2c	-0.013545077
36	0xbcdc01e3	-0.026856368
37	0xbbfcc924	-0.0077144075
38	0xbd48a905	-0.048989315
39	0xbcdbd3eb	-0.026834449
40	0x3cf96361	0.030442895
41	0xbaa091d1	-0.0012250488
42	0x3dabb883	0.08384802
43	0x3c69733f	0.014248668
44	0x3bb4cdb1	0.0055176844
45	0xbd8546ef	-0.0650767
46	0xbd9ff2b2	-0.07809962
47	0xbcee18ba	-0.029064525
48	0x3ce7fe1b	0.02831941
49	0xbc9cde41	-0.019148948
50	0x3c8d88e2	0.017277185
51	0xbcc03508	-0.023462787
52	0xbc73995c	-0.014868107
53	0x3cd72369	0.026262002
54	0x3cbf43ba	0.023347724
55	0xbc6f7369	-0.014614918
56	0xbc746725	-0.01491717
57	0x3ce9343e	0.028467294
58	0xbcf2e9b1	-0.029652448
59	0xbd153656	-0.036428772
60	0xbd7047f6	-0.058662377
61	0xbc4732ae	-0.012158079
62	0xbcebb6c3	-0.028773671
63	0x3cd30492	0.025759015
64	0xbc856409	-0.016283052
65	0x3c3d3d0d	0.0115502
66	0x3cd238b4	0.025661804
67	0x3d1a14be	0.037617438
68	0x3d23ccf6	0.039990388
69	0x3d3c2720	0.04593575
70	0xbd0bbc0d	-0.034114886
71	0x3c6548fa	0.01399445
72	0xbcc55fce	-0.024093535
73	0x3bac4296	0.005256961
74	0x3cecb1b4	0.02889333
75	0xbcb79765	-0.022411058
76	0xbb88aafa	-0.0041707726
77	0xbd9f864a	-0.077892855
78	0xbd356ee4	-0.044295207
79	0xbccc7761	-0.024959268
80	0x3cb6fbe3	0.022336906
81	0x3bf8951b	0.007586134
82	0xbdae78e1	-0.085191496
83	0xba9a4e5c	-0.001177262
84	0xbd126a64	-0.035745993
85	0x3cb94b29	0.022618847
86	0x3d5d0cf7	0.053967442
87	0x3d868318	0.06567973
88	0x3dcb6407	0.09931188
89	0xbd44bc90	-0.04803139
90	0xbcb1e400	-0.021715164
91	0xbce31f96	-0.027725022
92	0x3cf796db	0.0302233
93	0xbd5278e2	-0.051384814
94	0xbc7188a5	-0.014742051
95	0xbdc8cfd0	-0.09805262
96	0x3c855875	0.016277531
97	0xbcb203c3	-0.02173031
98	0xbca65faa	-0.020309288
99	0xbba361c0	-0.004986018
100	0xbc6adfce	-0.014335586
101	0x3caadd24	0.020857401
102	0xbcae908a	-0.021309156
103	0x3d5789e4	0.052621737
104	0xbc34494d	-0.011003804
105	0xbd1141d7	-0.03546318
106	0xbdb277be	-0.08714245
107	0xbc02e676	-0.0079895165
108	0x3bbcd064	0.005762147
109	0x3abe6b22	0.0014527778
110	0xbd3da719	-0.046301935
111	0x3affe010	0.0019521732
112	0xbcf74555	-0.030184427
113	0x3d9fcac1	0.07802344
114	0xbbaccf58	-0.0052737407
115	0xbc23570f	-0.009969487
116	0xbd8ae91d	-0.06782744
117	0xbd9a77bb	-0.07542368
118	0xbbbc9be3	-0.005755888
119	0x3d53e8c9	0.051735673
120	0x3c76ed3f	0.015071212
121	0xbc77597f	-0.015097021
122	0x3d24f09e	0.040268533
123	0x3ad1ffbd	0.001602165
124	0xbd7ddd4c	-0.061978623
125	0xbe283249	-0.16425432
126	0x3d8f4a7a	0.06996627
127	0xbc9ae0ff	-0.018906115
128	0xbdc92998	-0.098223865
129	0x3ce83d58	0.028349563
130	0xbda33818	-0.079696834
131	0xbcabaf99	-0.020957755
132	0x3c8d2393	0.017228877
133	0x3d29fde7	0.041501906
134	0xbd46480b	-0.04840855
135	0x3d11769d	0.03551351
136	0x3cfb4d3d	0.030676479
137	0xbdce6c01	-0.10079194
138	0x3c94d814	0.01816944
139	0xb99117ea	-0.00027674373
140	0xbd073926	-0.033013485
141	0xbc379558	-0.01120504
142	0xbca60cfa	-0.02026986
143	0xbcc25477	-0.023721917
144	0xbdb2d900	-0.08732796
145	0xbc9be4fb	-0.019030085
146	0x3ca60629	0.02026661
147	0x3dbdcdc4	0.09267762
148	0x3d89d2da	0.0672967
149	0xbd8faea7	-0.07015734
150	0x3c249326	0.010044849
151	0xbcdef983	-0.027218586
152	0xbd1cecae	-0.038311653
153	0xbd453060	-0.048141837
154	0x3d33dc61	0.04391134
155	0x3d09c2e7	0.03363314
156	0xbd4a8ff6	-0.049453698
157	0xbc9568d5	-0.018238464
158	0x3c522ade	0.012827603
159	0x3dba3db5	0.09093801
160	0x3db86ddd	0.0900533
161	0xbd6edd3f	-0.058316465
162	0xbcc8fa7e	-0.024533506
163	0x3d0203a0	0.03174174
164	0xbd39aa8a	-0.045328654
165	0x3bb7f4e0	0.005613908
166	0xbcef60d1	-0.02922097
167	0x3c43ef44	0.011958901
168	0xbd4ef2f0	-0.050524652
169	0x3d54f6a0	0.051993012
170	0xbd158a12	-0.036508627
171	0x3d5a1a5e	0.053247802
172	0xbca60238	-0.02026473
173	0x3d0e76cb	0.03478126
174	0xbdc50602	-0.096202865
175	0x3bf0082b	0.0073251924
176	0xbc89ee96	-0.0168374
177	0xbcbfd555	-0.023417154
178	0x3da77d84	0.08178237
179	0xbd3304ac	-0.043705627
180	0x3c4eea87	0.012629158
181	0x3d151885	0.036400337
182	0x3c73fe0e	0.014892114
183	0xbce50682	-0.027957205
184	0xbb29bd03	-0.0025900013
185	0x3d98e732	0.07465972
186	0x3d0711b4	0.032975867
187	0xbdac44d0	-0.084115624
188	0xbd0b5575	-0.034017045
189	0x3d914804	0.07093814
190	0xbd62a058	-0.055328697
191	0x3d8a8c6f	0.06765067
192	0xbd509033	-0.05091877
193	0xbd92ecff	-0.0717411
194	0x3b11caf1	0.0022246207
195	0x3c0b150a	0.008488903
196	0xbce44870	-0.027866572
197	0x3cc575ec	0.024104081
198	0xbd3e5523	-0.04646791
199	0xbcadc991	-0.021214278
200	0xbc28dfe8	-0.01030729
201	0xbd8972f2	-0.06711377
202	0x396ff810	0.00022885227
203	0x3ccff81d	0.025386864
204	0x3d27d46c	0.040974066
205	0x3d80812a	0.06274636
206	0xbd1cebb8	-0.038310736
207	0x3d0ab230	0.03386134
208	0xbc3bbc9f	-0.011458545
209	0x3d4523cb	0.048129838
210	0xbc322604	-0.010873321
211	0xba628aa2	-0.0008641874
212	0x3d495184	0.049150005
213	0xbc69f2a0	-0.014279038
214	0xbc8c9d98	-0.01716499
215	0xbc357d93	-0.0110773025
216	0xbd183758	-0.037162155
217	0x3ce4910d	0.027901197
218	0x3dc47e36	0.09594385
219	0xbc7db575	-0.015485157
220	0x3cfe3950	0.031033188
221	0xbd05b597	-0.03264388
222	0xbd33eb84	-0.043925777
223	0x3c14db0b	0.009085427
224	0xbd6f2909	-0.058388744
225	0x3d19b295	0.037523825
226	0xbcb568a8	-0.02214463
227	0x3d258ba4	0.040416375
228	0xbd3be2ff	-0.045870777
229	0xbc7da328	-0.015480794
230	0xbd51b87b	-0.051201325
231	0xbd016302	-0.03158856
232	0x3d03bf83	0.03216506
233	0x3d3a208e	0.045441203
234	0xbd8b7f45	-0.06811384
235	0x3de776ff	0.113019936
236	0x3c980c78	0.018560633
237	0x3d905c18	0.070488155
238	0x3d43f2d6	0.04783901
239	0xbcb3f147	-0.021965636
240	0x3dd56b92	0.10420908
241	0xbc0da49c	-0.008645203
242	0x3d681550	0.05666095
243	0x3ce09ba0	0.027417958
244	0x3c6a850b	0.0143139465
245	0xbd3e275a	-0.046424247
246	0xbdca5ce9	-0.098810025
247	0xbdcbd2df	-0.0995233
248	0xbcd70027	-0.02624519
249	0xbc31a854	-0.010843355
250	0x3d31924d	0.043352414
251	0xba0277d1	-0.00049769605
252	0x3dbac27b	0.091191255
253	0xbd3d0aa4	-0.046152726
254	0x3c6ed6a6	0.014577543
255	0xbd4cee2b	-0.050031822

action_model._discrete_distribution.branches.0.bias f4 [2]
0	0xbadd4d89	-0.0016884069
1	0x3add4d72	0.0016884042

action_model._discrete_distribution.branches.1.weight f4 [2, 256]
0	0x3d8ff735	0.07029573
1	0x3c09d8dd	0.008413521
2	0xbdb846aa	-0.08997853
3	0x3e069dd7	0.13146149
4	0xbcb491d3	-0.02204219
5	0x3d5c98d8	0.0538567
6	0x3bef0983	0.007294835
7	0xbcd376af	-0.025813429
8	0x3d885b1d	0.066580035
9	0xbbca09dd	-0.0061657266
10	0x3d4d660f	0.05014616
11	0x3d194650	0.03742057
12	0x3c8065a1	0.01567346
13	0xbd075570	-0.033040464
14	0x3d8bd669	0.06828005
15	0x3daa2ca2	0.08309294
16	0xbce34240	-0.027741551
17	0x3c10ecf4	0.0088455565
18	0x3b68fe5f	0.0035552008
19	0xbc19540c	-0.009358417
20	0x3b6285c0	0.0034564584
21	0xbd924e03	-0.07143786
22	0x3cc4a5a2	0.024004761
23	0x3c17382a	0.009229699
24	0x3b7d3622	0.0038637002
25	0x3d8ff2a9	0.070287056
26	0x3d30afe1	0.04313648
27	0xbb5f39cb	-0.0034061547
28	0x3c981195	0.018563071
29	0x3be74f2e	0.0070589995
30	0xbba4cda3	-0.0050293966
31	0x3c24ba02	0.010054113
32	0xb9145741	-0.00014146884
33	0x3d65c3b8	0.056094855
34	0x3c7ac7b9	0.015306407
35	0x3d61a5b5	0.05508967
36	0x3d0925c3	0.033483278
37	0xbdeead5e	-0.11654161
38	0x3cbf7e5b	0.02337568
39	0x3beb66cc	0.007183885
40	0x3df7e08f	0.12103378
41	0x3d32444a	0.043522157
42	0x3d593a45	0.053034086
43	0x3d75b298	0.059984773
44	0xbd02239c	-0.03177224
45	0x3d71e675	0.05905767
46	0xbd56d014	-0.052444533
47	0x3d92bdb0	0.07165086
48	0x3db5892c	0.08864054
49	0x3dadddbc	0.08489558
50	0x3cfb233b	0.030656448
51	0x3d8968db	0.06709453
52	0x3d8040a4	0.06262329
53	0x3dc3fa9a	0.09569283
54	0xbd5e6ea3	-0.05430473
55	0xbd04ca3c	-0.03241943
56	0xbd4e2f71	-0.050338212
57	0xbd15b326	-0.036547802
58	0x3cef3fb5	0.029205183
59	0x3d58ed41	0.052960638
60	0x3ddcc0c8	0.107789576
61	0xbcacde49	-0.021102088
62	0xbd9ed57f	-0.07755565
63	0xbc476936	-0.01217108
64	0xbca19ef4	-0.019729115
65	0xbc367762	-0.0111368615
66	0xbdc49a72	-0.095997706
67	0x3ddefb6f	0.10887801
68	0x3daa4bcf	0.083152406
69	0xbd83ccb6	-0.0643553
70	0x3b9d7ac6	0.0048058955
71	0x3c318cb5	0.01083677
72	0xbd392f16	-0.04521092
73	0x3dbbe905	0.09175304
74	0xbce64cf0	-0.028112859
75	0x3db6d6ab	0.089276634
76	0xbd12abaa	-0.035808243
77	0xbc48c5b7	-0.01225417
78	0xbcc74afb	-0.024327746
79	0x3dbf047a	0.09327026
80	0xbc7fdde6	-0.01561687
81	0xbdb1500a	-0.08657844
82	0x3bc4e036	0.0060081733
83	0xbd074a11	-0.03302962
84	0xbd075f4a	-0.03304986
85	0xbd33ded0	-0.043913662
86	0x3cb5235c	0.022111587
87	0x3d003268	0.03129807
88	0x3dd4a4d2	0.103829995
89	0x3db56d67	0.088587575
90	0x3cedb0c7	0.029014958
91	0x3d4459bb	0.047937136
92	0xbe09e82d	-0.13467474
93	0x3cb95c3c	0.022626989
94	0x3d2e480d	0.04254918
95	0x3d331a8b	0.043726485
96	0x3cfbc93c	0.030735604
97	0x3c197f3f	0.009368717
98	0x3d9f822e	0.07788502
99	0x3d8164e4	0.063180715
100	0xbbafff58	-0.0053710155
101	0x3d5f0b01	0.054453854
102	0xbd2a7314	-0.041613653
103	0xbd5bb622	-0.053640492
104	0x3c0c8770	0.008577213
105	0xbc3151fa	-0.010822767
106	0x3a6aff49	0.0008964432
107	0xbd2141be	-0.039369337
108	0x3d5b8621	0.053594712
109	0x3d852b9c	0.065024585
110	0xbd187e8d	-0.037230063
111	0x3dc8b76c	0.0980061
112	0x3d36dc29	0.044643555
113	0x3c2f7840	0.010709822
114	0x3d1aa4cd	0.037754823
115	0xbd2487ee	-0.040168695
116	0x3d204142	0.039124735
117	0xbb4bd1bf	-0.003110036
118	0xbc12225a	-0.008919323
119	0x3b8ce1a4	0.0042993594
120	0x3ba2aab4	0.004964197
121	0xbd1d9f80	-0.03848219
122	0xbd72d40b	-0.05928425
123	0x3d7117b1	0.058860485
124	0x3c0a6350	0.0084465295
125	0x3c9d433c	0.019197099
126	0xbd60b4c0	-0.054859877
127	0xbd071c3d	-0.032985914
128	0xbd662dc9	-0.056196008
129	0x3d11a08d	0.035553504
130	0xbd3c5ac3	-0.045984995
131	0xbc2db36d	-0.0106018605
132	0x3cbdef3b	0.023185363
133	0x3d13e5a0	0.03610766
134	0xbc9c79ef	-0.019101111
135	0x3cbeffba	0.0233153
136	0x3de4e212	0.11175932
137	0xbc71a5b6	-0.014748981
138	0x3d2f07fd	0.042732228
139	0xbcccf385	-0.025018463
140	0x3d962eef	0.073331706
141	0x3d50b17c	0.050950512
142	0x3d8aa107	0.06768995
143	0xbdd6708b	-0.104706846
144	0x3d657b0c	0.05602555
145	0x3cf3be17	0.029753728
146	0x3df81778	0.12113851
147	0x3ccfc7ef	0.02536389
148	0x3d55b6e9	0.05217639
149	0xbc9a2661	-0.018817129
150	0x3d825ce5	0.063653745
151	0xbc52e8ef	-0.0128729185
152	0x3d5a5575	0.053304154
153	0x3befe17b	0.0073205805
154	0x3cca1e44	0.024672635
155	0xbd35fa97	-0.044428434
156	0xbcb16427	-0.021654202
157	0xbdbb60b6	-0.091493055
158	0xbd429f72	-0.04751534
159	0x3d2b5c48	0.041836053
160	0x3da3bedb	0.07995387
161	0xbcacaeb0	-0.021079391
162	0xbcd2e92f	-0.025745956
163	0x3d13e81d	0.036110032
164	0x3d8e8f1d	0.069608904
165	0xbb695a39	-0.0035606755
166	0xbcfae0f8	-0.030624852
167	0xbe00ad72	-0.12566164
168	0x3ca4efcc	0.020133875
169	0xbd5ef51e	-0.05443298
170	0x3cf1af4f	0.029502539
171	0x3be7ded4	0.0070761237
172	0x3a9c4b4f	0.0011924299
173	0xbd030f2d	-0.031996895
174	0xbd035d5b	-0.032071453
175	0x3c024052	0.0079499055
176	0x3ca4583a	0.020061601
177	0x3be5a7fb	0.00700855
178	0xbcd06638	-0.025439367
179	0xbd3a12e3	-0.045428168
180	0x3d87face	0.06639634
181	0xbc051e5d	-0.008124915
182	0x3cc78d85	0.024359474
183	0x3d3bbca3	0.045834195
184	0xbc3aabc2	-0.011393489
185	0xbc68ee97	-0.0142170405
186	0x3bfbef3f	0.0076884325
187	0x3ca456e3	0.020060962
188	0x3ce9b878	0.028530344
189	0x3d86e1a9	0.0658601
190	0x3ca364c0	0.019945502
191	0x3d679bbc	0.056545004
192	0x3c95448b	0.01822116
193	0xbc7c152a	-0.015385905
194	0xbdcb468c	-0.09925565
195	0x3db75d15	0.08953301
196	0x3c80f623	0.015742367
197	0xbc69da1e	-0.014273195
198	0x3d142690	0.03616959
199	0xba8c0fe0	-0.0010685883
200	0xbdaa29f4	-0.08308783
201	0x3d457ada	0.048212864
202	0xbd1a5d43	-0.037686598
203	0xbbf8a3ae	-0.0075878715
204	0xbd21796a	-0.03942243
205	0xbd8e3621	-0.06943918
206	0x3d851de2	0.0649984
207	0xbd155a94	-0.036463335
208	0x3d46b271	0.04851002
209	0x3ca79c7b	0.020460358
210	0x3cc88eba	0.02448212
211	0x3dae3148	0.085054934
212	0xbdaf071e	-0.08546279
213	0xbcba45c3	-0.022738343
214	0x3cbe6042	0.023239259
215	0x3cefdb51	0.029279383
216	0xbcedb103	-0.02901507
217	0x3ba150b7	0.004922952
218	0x3e071f1e	0.13195464
219	0x3df4863c	0.11939666
220	0x3d330d84	0.04371406
221	0x3c4858ba	0.012228185
222	0x3db1a995	0.08674923
223	0xbc0d83ba	-0.008637363
224	0xbddea434	-0.10871163
225	0xbdb4b1bf	-0.08822965
226	0x3d805f61	0.06268192
227	0x3d6e900e	0.05824285
228	0x3d4628f1	0.04837889
229	0x3d485f74	0.048919156
230	0xbd1bddbb	-0.038053256
231	0xbc2b0aa3	-0.010439548
232	0xbca10c1d	-0.019659096
233	0xbdb3c418	-0.08777636
234	0x3cb74e77	0.022376282
235	0xbcc50a10	-0.02405265
236	0xbc1d6c15	-0.009608288
237	0xbdafe879	-0.085892625
238	0x3e2e80e8	0.17041361
239	0xbd1df8ae	-0.038567238
240	0x3d4a061d	0.049322236
241	0x3e1edefc	0.1551475
242	0xba91b5dd	-0.0011116822
243	0x3d43d154	0.047807053
244	0xbd4b85d3	-0.04968817
245	0x3cbc707c	0.023002855
246	0xbda76c6b	-0.08174976
247	0xbd18453c	-0.037175402
248	0xbd4580b3	-0.04821844
249	0x3d359404	0.04433061
250	0x3c2ec7a2	0.010667713
251	0x3d2f8687	0.042852905
252	0xbc272a19	-0.010202908
253	0x3d1bc684	0.038031116
254	0xbd3faa92	-0.046793528
255	0xbd916b61	-0.07100559

action_model._discrete_distribution.branches.1.bias f4 [2]
0	0x3d9e9182	0.07742597
1	0xbd9e9174	-0.07742587

action_model._discrete_distribution.branches.2.weight f4 [3, 256]
0	0xbe1c06fc	-0.1523704
1	0xbcb08d65	-0.021551797
2	0xbe109248	-0.14118302
3	0xbd560a6c	-0.052256033
4	0x3d518c4a	0.05115918
5	0x3d228718	0.039679617
6	0x3d227f56	0.03967222
7	0xbdb403d9	-0.087897964
8	0x3cb1ef1e	0.021720465
9	0x3cf5f5dd	0.030024463
10	0x3ce0e9de	0.027455267
11	0xbde68cbb	-0.11257311
12	0x3d4c185d	0.049827922
13	0xbca0c997	-0.019627376
14	0xbcb49a10	-0.022046119
15	0xbdb2e9c3	-0.08735993
16	0xbd92f118	-0.07174891
17	0x3c66ae71	0.014079676
18	0x3d2a754d	0.041615773
19	0xbc389271	-0.011265383
20	0xbdb78800	-0.08961487
21	0xbd86a692	-0.065747395
22	0xbd95260d	-0.07282648
23	0x3d342123	0.043976914
24	0xbcd7b82a	-0.026332933
25	0xbc11615d	-0.008873311
26	0xbe35788f	-0.1772177
27	0xbd2a255c	-0.041539535
28	0x3d1be126	0.038056515
29	0xbd5da9af	-0.0541169
30	0xbda2c0b9	-0.07946915
31	0xbd1d8dad	-0.03846519
32	0x3d85af13	0.065275334
33	0x3d126857	0.035744037
34	0xbbcce4e6	-0.0062528728
35	0x3d646182	0.055757053
36	0x3ced3528	0.028956011
37	0x3c521bed	0.012824041
38	0xbd0ff16c	-0.035142347
39	0xbdb68f30	-0.089140296
40	0x3cd7dd92	0.02635077
41	0xbd8856d6	-0.06657188
42	0xbe22d1a1	-0.1590028
43	0x3ce37113	0.027763879
44	0xbd3a68b4	-0.04551001
45	0xbc67ba49	-0.014143535
46	0x3d6d7c5e	0.057979934
47	0xbdedefed	-0.11618028
48	0x3c86a9b8	0.01643835
49	0x3d22da7f	0.039759155
50	0xbba214b4	-0.0049463157
51	0xbd0b62f7	-0.034029927
52	0xbd7e3576	-0.062062703
53	0xbcff66ce	-0.03117695
54	0xbd19b6b2	-0.037527747
55	0xbdb68a61	-0.089131124
56	0x3d88b42e	0.066749915
57	0xbccf7b8f	-0.025327472
58	0xbc07ede1	-0.008296461
59	0x3d876620	0.06611276
60	0xbd4c3433	-0.04985447
61	0xbdd8ce28	-0.10586196
62	0xbd8b4551	-0.068003304
63	0x3c9d5d95	0.019209662
64	0xbd89355c	-0.066996306
65	0xbcf292e9	-0.029611068
66	0x3b5778de	0.003287844
67	0x3cafea49	0.02147402
68	0x3d7bf2d8	0.06151089
69	0x3dc885be	0.09791134
70	0x3d386a40	0.045023203
71	0x3d0ee288	0.034884006
72	0x3c6961f9	0.01424455
73	0xbd0f59ef	-0.034997877
74	0x3d0027f5	0.031288106
75	0x3d208db2	0.03919763
76	0xbdc27144	-0.0949426
77	0x3c814033	0.015777683
78	0xbd53e345	-0.051730413
79	0xbda0ac3d	-0.07845352
80	0xbbf39a8c	-0.007434195
81	0x3c87b664	0.016566463
82	0xbd57687c	-0.05258988
83	0xbde7c1c7	-0.11316257
84	0xbc208420	-0.009797126
85	0xbd481938	-0.048852175
86	0xbc81c56b	-0.015841207
87	0x3cf2a494	0.029619493
88	0x3d06975b	0.032859188
89	0xbb809896	-0.0039244397
90	0x3c9507b0	0.018192142
91	0xbd644801	-0.05573273
92	0x3cbb8701	0.022891523
93	0xbd86eff0	-0.06588733
94	0xbe0f7620	-0.14009905
95	0xbd87f344	-0.06638196
96	0x3da48882	0.08033849
97	0xbd82a598	-0.06379241
98	0x3ba1a3bd	0.004932849
99	0x3cc8218a	0.024430055
100	0x3d9c48f6	0.07631104
101	0xbe2f1661	-0.1709838
102	0x3d132ffc	0.035934433
103	0xbd28bbd7	-0.041194763
104	0x3d3fe5df	0.04685008
105	0xbdd1de35	-0.10247461
106	0x3bb41625	0.005495804
107	0xbdd9a6e6	-0.106275365
108	0x3d98494e	0.07435857
109	0xbd63291d	-0.05545913
110	0xbc1613a5	-0.009159957
111	0x3d124fed	0.035720754
112	0xbd600ad6	-0.054697834
113	0xbbf868ab	-0.007580837
114	0xbc885c48	-0.016645566
115	0x3d1f7963	0.038934123
116	0xbd20082d	-0.039070297
117	0x3d6a6869	0.05722848
118	0xb9d1c915	-0.00040013404
119	0xbde7ec38	-0.11324352
120	0xbdc00d47	-0.093775325
121	0x3d84b98f	0.06480705
122	0xbd8a7f65	-0.0676258
123	0xbb9efff6	-0.0048522903
124	0xbd360006	-0.044433616
125	0xbd353106	-0.044236206
126	0x3d9f9636	0.07792322
127	0x3d9c14a4	0.076211244
128	0x3b090896	0.0020909659
129	0x3c063a2e	0.008192582
130	0xbdf9b07f	-0.12191867
131	0xbd85c37b	-0.065314256
132	0x3d6c2051	0.057648007
133	0x3d8fe8a7	0.07026797
134	0x3d61f9fb	0.05517004
135	0xbd65766f	-0.05602115
136	0xbc8a05df	-0.016848503
137	0xbd14124f	-0.036150273
138	0xbd3ae6fc	-0.04563044
139	0xbd88b060	-0.06674266
140	0x3c9de7f0	0.019275635
141	0xbc7a3e13	-0.015273589
142	0x3db668b7	0.089066915
143	0x3d8f950c	0.0701085
144	0x3ba079a9	0.0048973155
145	0xbc93ea22	-0.01805598
146	0x3d68a830	0.05680102
147	0xbd48c7ae	-0.049018554
148	0xbd643570	-0.055715024
149	0x3cf5416c	0.029938422
150	0xbd3c8b8b	-0.046031516
151	0xbe2ad9d9	-0.16684665
152	0xbb9c2c82	-0.004766048
153	0xbdb0a7e7	-0.08625775
154	0x3d8457b2	0.06462039
155	0x3a924561	0.0011159593
156	0x3c9e7745	0.019343982
157	0x3c93c157	0.018036528
158	0xbdb3096f	-0.08742034
159	0x3c305c8d	0.010764253
160	0xbcb7feed	-0.022460425
161	0xbcd09395	-0.025460998
162	0xbd93ab2d	-0.072103836
163	0xbdafe6d3	-0.08588948
164	0xbd48a144	-0.04898192
165	0xbcd6f0a0	-0.026237786
166	0x3d87ae48	0.066250384
167	0x3ca1ac13	0.019735372
168	0xbbbc3dd0	-0.0057446733
169	0x3dea9de0	0.114558935
170	0x3cdbb9cd	0.026821995
171	0x3c704c16	0.014666578
172	0xbde6b90e	-0.11265765
173	0x3c43c072	0.011947738
174	0xbd9e9366	-0.07742958
175	0xbcf127ca	-0.029437918
176	0x3cc3fb9e	0.023923691
177	0x3e007b8e	0.12547132
178	0xbd958373	-0.073004626
179	0xbd1adcb5	-0.03780814
180	0x3dba0a5d	0.09084008
181	0xbd1b25af	-0.037877735
182	0xbde6d521	-0.1127112
183	0x3d894c26	0.06703977
184	0x3cd4a018	0.025955245
185	0x3c1db86f	0.009626492
186	0xbbb4110b	-0.0054951957
187	0xbd2562a6	-0.04037728
188	0x3d645fb0	0.055755317
189	0x3d6f67cb	0.058448594
190	0xbd804218	-0.062626064
191	0x3d0503c3	0.03247429
192	0xbbf1ba36	-0.0073769344
193	0xbd91ef80	-0.07125759
194	0x3d59a196	0.053132616
195	0x3d086e6c	0.03330843
196	0xbd767a90	-0.06017548
197	0xbdb72a9e	-0.089436755
198	0xbbd9fe30	-0.006652616
199	0xbd676639	-0.05649397
200	0xbd9de441	-0.077095516
201	0x3d143d9c	0.036191568
202	0xbc8f8580	-0.017519712
203	0x3caed3f9	0.02134131
204	0x3cfa58fa	0.030560005
205	0xbc6db551	-0.014508561
206	0xbd8985a4	-0.06714943
207	0xbc58c156	-0.013229689
208	0x3c483989	0.012220749
209	0x3d7bfc1d	0.06151973
210	0xbc644392	-0.013932126
211	0xbd08dc63	-0.033413302
212	0x3da3dd0d	0.080011465
213	0xbcc0260b	-0.02345564
214	0xbd84a3aa	-0.06476529
215	0x3ccbb217	0.024865193
216	0x3cc88cde	0.024481233
217	0xbdeb063a	-0.11475797
218	0xbd9908e8	-0.07472402
219	0xbd42eaa7	-0.047587063
220	0x3c800761	0.015628519
221	0xbdc22c97	-0.09481161
222	0xbdb8f8d0	-0.09031832
223	0x3c6f84de	0.01461908
224	0xbd0b62e3	-0.034029853
225	0x3cd63213	0.026146924
226	0xbccaa999	-0.024739074
227	0xbe0b673d	-0.13613601
228	0x3c7cc5bd	0.015428004
229	0xbd49b675	-0.04924627
230	0xbd858698	-0.06519812
231	0x3d3ce803	0.0461197
232	0xbce5db80	-0.028058767
233	0x3d6e58f7	0.058190312
234	0xbc8d86e8	-0.017276242
235	0x3d016cdd	0.03159796
236	0xbc4a3077	-0.0123406565
237	0xbcb8acf6	-0.022543412
238	0xbb5e5a11	-0.0033928195
239	0x3d8b8aa0	0.0681355
240	0x3c01f43d	0.007931766
241	0x3e0d5b90	0.1380446
242	0xbe208ba8	-0.15678275
243	0xbccce14d	-0.025009776
244	0x3d0f1b65	0.034938235
245	0xbd75ab10	-0.05997759
246	0xbcc23518	-0.023706958
247	0xbc885fc0	-0.01664722
248	0x3da65fc6	0.08123736
249	0xbbf69beb	-0.007525911
250	0xbdce50ed	-0.10074029
251	0x3ceb783b	0.028743854
252	0xbd134695	-0.035955984
253	0x3cd69e86	0.026198637
254	0xbe16027c	-0.14649385
255	0xbcbd498f	-0.023106365

action_model._discrete_distribution.branches.2.bias f4 [3]
0	0x3e139d18	0.14415395
1	0xbdd12847	-0.102127604
2	0xbd548eb3	-0.0518939
