results/ppo/My Behavior.onnx (onnx, 74329 bytes, 9 tensors)

network_body._body_endoder.seq_layers.0.weight f4 [128, 1]
000000 1c 4f b3 bf db 89 23 3f fc d2 15 3f 8a 1b 01 3f
       -1.4008517 0.63882226 0.5852506 0.50432646
000010 46 fd 17 bf ce 25 78 bf fb dd 3b bf 31 67 7f 3f
       -0.5937084 -0.96932685 -0.7338559 0.9976683
000020 5e b8 1a bf 18 87 8d 3f 30 2a 72 3f d7 dd 10 c0
       -0.6043757 1.1056852 0.94595623 -2.26354
000030 89 38 c5 bf 4a 9e b3 3f be 9c 0d bf 09 e0 b9 3f
       -1.5407878 1.4032681 -0.55317295 1.4521495
000040 1e 9e 1a 3f 0a e4 9b 3f c5 b1 2d 3e d2 1f ca 3e
       0.6039752 1.2178967 0.16962345 0.39477402
000050 d0 01 0e 40 9b 2a 3e bf 79 e2 1c bf 7d 04 18 bf
       2.2188606 -0.7428376 -0.6128307 -0.5938185
000060 d5 e0 65 bf 85 e5 86 3f 99 46 2b bf b8 ff 67 bf
       -0.8979619 1.0538794 -0.669046 -0.9062457
000070 6b 4d 60 3f 24 8a 14 bf c9 e9 93 bf 33 fe 5d 3e
       0.8761813 -0.58023286 -1.155572 0.21679
000080 b4 08 74 be 22 f9 89 3e 6e d6 1c 3d 5d 27 f0 bf
       -0.23831445 0.26947886 0.038290434 -1.8762013
000090 2a 4a a0 bf aa 44 3d bf b3 9a b8 be bc 34 f7 bd
       -1.2522633 -0.739329 -0.36055526 -0.12070605
0000a0 97 c9 a1 be a0 b9 5e bf c3 99 d7 3f b8 37 0f 3d
       -0.31599113 -0.8700199 1.6843799 0.034965247
0000b0 81 c0 93 3e c6 bb ac 3f ba de 94 bf 9c 24 97 bf
       0.28857806 1.3494804 -1.1630471 -1.1808047
0000c0 10 63 bc 3f 15 78 c5 be 80 91 ec bd e9 48 14 3f
       1.4717731 -0.38568178 -0.115511894 0.5792375
0000d0 2d e5 4b 3f 80 f5 06 bf 92 01 34 3f d0 74 b3 be
       0.7964657 -0.52718353 0.70314896 -0.35050058
0000e0 b0 f9 08 c0 12 c6 dc bf b8 1f 91 3f ab 0f 87 3e
       -2.1402397 -1.7247946 1.1337805 0.2637914
0000f0 f9 0b 10 bf 96 80 17 bf a9 d8 a1 3e 40 56 15 3f
       -0.5626827 -0.5918058 0.3161061 0.5833473
000100 6f f7 ce 3e 6b 8a 16 bf c0 fd 86 3f 2e b5 55 3e
       0.40423152 -0.5880496 1.0546188 0.20869896
000110 87 c7 64 3f bd b2 e7 3e 88 2e 6c bf 6d ae 8d 3f
       0.89366955 0.45253554 -0.922585 1.1068856
000120 09 c5 28 be 02 e7 70 bf c2 9d 20 3e 6b 1d 8c be
       -0.16481413 -0.9410249 0.1568518 -0.27366194
000130 74 77 02 40 e9 42 84 3d c7 16 52 bf 7e 62 07 bf
       2.0385408 0.064580746 -0.82066005 -0.5288466
000140 29 95 a6 3e 6d 73 9d be 45 78 93 3f ea bf 91 3e
       0.32535675 -0.30752125 1.1521078 0.2846673
000150 86 ad b0 bf 4d d7 a9 3e 07 20 3c 3e 25 2c c3 3f
       -1.3802955 0.33172074 0.18371592 1.5247847
000160 83 7e 06 3f 14 3a 9c bf da 80 ef 3e 69 8a e0 3e
       0.5253679 -1.2205224 0.46777993 0.438556
000170 12 78 eb 3e 03 80 6a be 07 64 8e be 58 3f 92 3e
       0.45990044 -0.22900395 -0.2781069 0.28563952
000180 ff 12 9b bf 2c 2f 00 3f d8 c0 b1 bd 3d a4 a8 3e
       -1.2115172 0.5007198 -0.0867936 0.32937804
000190 55 ca 51 bd 84 69 af be 9f c3 58 bf 43 d5 ce 3e
       -0.05121835 -0.3426019 -0.84673494 0.4039708
0001a0 1f a1 c9 bd f0 70 08 3e 2b 0d 0d 40 d6 f8 5f 3f
       -0.098451845 0.13324332 2.2039287 0.8748907
0001b0 c4 7a d6 bf 91 35 f2 be 2c 9b 0a 40 b6 d6 2c 3f
       -1.6756215 -0.47306493 2.165721 0.6751512
0001c0 bb b3 ae bf f3 b2 d7 3f 8e f2 1c bf e8 a3 54 3f
       -1.3648599 1.6851486 -0.6130761 0.830626
0001d0 62 c2 e4 3e d1 21 ae bf 04 99 62 3e 66 8f cc 3f
       0.44679552 -1.360407 0.22128683 1.5981262
0001e0 2c 14 8d bf 7b e9 9a bf d4 cd 17 3f 99 c1 3f 3f
       -1.1021781 -1.2102503 0.59298444 0.7490478
0001f0 7b d5 eb 3f ba 8f 02 bf 40 66 15 c0 6d e3 c5 3f
       1.8424524 -0.5100056 -2.3343658 1.546003

network_body._body_endoder.seq_layers.0.bias f4 [128]
000000 8d 3a 8e 3d 02 0c 9b bd e4 dd 2e 3d 40 40 91 bd
       0.069447614 -0.0757065 0.04269208 -0.07092333
000010 25 53 f9 bc ae 2e 2d 3c de 59 a6 3d 91 01 36 bd
       -0.030435154 0.010570211 0.081226096 -0.044435088
000020 75 4f 29 bc 29 8e 4e 3d 97 1d 2a bd 94 c8 8b 3b
       -0.010333885 0.050428543 -0.041532125 0.004265854
000030 0f 94 96 3d 4a 22 4d 3d a0 7c 1f bd 43 d5 82 3d
       0.07352459 0.05008153 -0.03893721 0.06388333
000040 87 a1 86 bc 7d ec 13 bd 19 3f a0 3d 40 9a 95 bd
       -0.016434444 -0.036114205 0.07824535 -0.073048115
000050 61 45 22 3d ad 9f ae bc 4f 2c 02 bd 0c 98 f8 bc
       0.039616946 -0.021316374 -0.031780537 -0.03034594
000060 98 a6 93 3c 3e 24 69 39 51 92 ab 3d 7d 57 a7 3d
       0.018023774 0.00022234113 0.08377517 0.08170984
000070 61 50 41 3c b5 06 5b bc 7b 3b ff bc 16 f0 7e bd
       0.011798949 -0.013368298 -0.031156292 -0.062240683
000080 ef 0b 90 bd d7 aa b0 3d 3a 91 a1 3d b9 75 a7 3d
       -0.07033526 0.08626335 0.07889028 0.08176751
000090 78 cf 0e bd 19 be 45 bd 77 d3 64 bd f8 ad 95 3d
       -0.034865826 -0.048276994 -0.05586573 0.073085725
0000a0 18 20 8e bd a2 52 13 bd d8 14 5c 3d 51 da fe 3c
       -0.06939715 -0.035967477 0.053730816 0.03110996
0000b0 08 c8 64 bd 77 4c 0f 3c ac bb 2f 3d 29 a9 75 3c
       -0.055854827 0.008746258 0.042903587 0.014993944
0000c0 ab 0f 5d bd 95 fc 07 bd 8a 86 e6 3c 4e 7e a0 bd
       -0.05397002 -0.033199865 0.028140325 -0.07836591
0000d0 6c 61 5e 3d a8 3a 6e bd d8 b4 9d bd e5 df a5 bb
       0.054292127 -0.058161408 -0.07700509 -0.0050620907
0000e0 8c 77 18 3c c2 20 6d bd 11 6b 8a bd 2d e6 a5 3d
       0.009305846 -0.05789257 -0.067587025 0.08100543
0000f0 c9 66 76 bd a2 47 02 bd 47 9a fe 3c 70 02 3e 3c
       -0.060156617 -0.031806596 0.031079425 0.011597261
000100 f4 ec 85 3d 14 68 3c 3d 3f 47 56 bd c3 32 76 bd
       0.06539336 0.045997694 -0.05231404 -0.060107004
000110 67 b5 8b bb 68 4b 19 3d 37 7f 8a 3d ff ff 82 3d
       -0.004263568 0.03742543 0.067625456 0.06396484
000120 2c 33 9e 3d 3d 32 20 bd ad 12 5b 3d 75 cf 81 bd
       0.07724604 -0.03911041 0.053484607 -0.063383974
000130 9e 64 97 3b 6c d5 c3 3d c5 8d ad 3d e8 20 86 bd
       0.004620149 0.09562191 0.08474306 -0.06549245
000140 78 26 98 bd 22 32 0b 3d 8b aa 22 bd 77 81 30 3d
       -0.07429212 0.033983357 -0.039713424 0.043092217
000150 c5 d0 b0 3d c1 6f 9c 3d 3f 16 82 bd 13 0a 3b 3d
       0.0863357 0.07638503 -0.06351899 0.045663904
000160 e6 42 2e 3d d8 c9 41 3d 60 bb 03 bd 49 eb 7b bd
       0.042544268 0.047311634 -0.032161117 -0.061503682
000170 80 ef a6 3c c2 c6 05 bd 32 e8 80 bd d5 71 94 3d
       0.020377874 -0.032660253 -0.06294288 0.07248274
000180 cc 91 a4 3d 57 e2 0c bd 16 c0 98 bd 7e a5 b1 bc
       0.08035621 -0.034395542 -0.074585125 -0.021685358
000190 86 82 b4 bd b6 14 09 bd d5 3e 8e bd 94 e0 75 3d
       -0.08813958 -0.033467017 -0.06945578 0.060028628
0001a0 50 2d ae 3d a6 0f c7 3c bd 8c 8a 3d e4 2e 80 bb
       0.085047364 0.024299454 0.06765125 -0.00391184
0001b0 b3 b1 53 3d 5c a1 52 bd b9 f5 1b bd e3 40 4b bd
       0.05168314 -0.051423416 -0.038076136 -0.049622428
0001c0 5b f9 a2 3d 83 de 38 bd c8 a4 66 bd 3e 82 55 3d
       0.07957717 -0.04513408 -0.05630949 0.05212616
0001d0 cc 33 3f 3d e5 d1 1b 3d 87 f9 8f bd 18 ec cf 3c
       0.046680257 0.038041968 -0.070300154 0.025381133
0001e0 5a 77 96 3d b6 8b 1a bd f7 7c 61 3d fd 58 19 bc
       0.07346983 -0.037730895 0.055050816 -0.009359595
0001f0 8b f9 76 3d 1c 29 00 bd 66 20 01 3d ef bf 64 bd
       0.060296576 -0.031289205 0.03152504 -0.055847105

network_body._body_endoder.seq_layers.2.weight f4 [128, 128]
000000 33 86 9e 3d 7b 5a be bd 91 41 85 3d 1b 75 03 be
       0.0774044 -0.092946015 0.065066464 -0.12837641
000010 d9 31 02 3d 5a 03 08 be 3b 9d 3c 3d fd 0c 01 be
       0.03178582 -0.13282529 0.046048384 -0.12602611
000020 ba 74 66 bc 29 66 2c 3e 8c 89 54 3d 16 33 52 be
       -0.014065916 0.16835846 0.051888987 -0.205273
000030 51 99 8d 3d f3 51 b4 3d 44 c3 f5 ba 71 e0 de 3d
       0.069140084 0.08804693 -0.001875021 0.108826526
000040 03 39 1b 3e 32 0c e8 3d 14 55 08 3d 5d 30 42 3d
       0.15158467 0.11330451 0.03328426 0.047409404
000050 04 df b5 3c 9c 13 9b 3d 5d 77 95 3d 2f a0 1f bd
       0.022201069 0.075720996 0.07298157 -0.038971122
000060 31 fa 72 3d fe 3c 84 3d e7 09 21 bd 5c ef e2 bd
       0.059320632 0.06456946 -0.039316084 -0.110808104
000070 4b f8 1d be ce a3 4f be 7e 83 1a 3d 2b 61 99 3d
       -0.15426748 -0.2027733 0.037723057 0.074892364
000080 41 c9 82 3d 7e 50 14 bd 6d 9d 85 3d 3c 21 5a 3d
       0.063860424 -0.036209576 0.06524167 0.05325435
000090 43 42 07 be c3 01 84 bd 3c 5e 12 be b4 f3 9b bc
       -0.1320887 -0.064456485 -0.1429376 -0.019037105
0000a0 fb 3a 80 bd 0e fe 7e 3d 12 35 89 3d 2a 39 f0 3d
       -0.0626125 0.062254004 0.066995755 0.11729653
0000b0 dd 17 01 3d ba 74 57 3c 43 b8 7e bd 5d 94 d1 3c
       0.0315169 0.013150388 -0.062187444 0.02558344
0000c0 2d b9 30 bd 5a 8b 1b 3d cf 2b 26 3d 89 cb 45 bd
       -0.043145347 0.037974693 0.040569123 -0.04828981
0000d0 17 52 4f ba 13 52 01 3e d0 b1 f5 3c 49 55 09 be
       -0.00079086557 0.12628965 0.029992014 -0.1341144
0000e0 a7 39 3b 3e fe df 53 bc b9 af 5d 3e d7 24 cb 3b
       0.18283711 -0.012931822 0.21649064 0.00619946
0000f0 4e 42 6f bd 82 7c 40 bd 57 50 0f 3e d0 d4 b0 bc
       -0.058412842 -0.04699374 0.13995491 -0.021585852
000100 3b 3e ec 3b 91 af ea bd e9 49 3b bd e5 cb 9c bd
       0.007209567 -0.11459268 -0.045724783 -0.07656077
000110 67 29 4c bd 60 4e bb 3c bb 9d cf 3d 73 07 05 be
       -0.04984417 0.02286452 0.101375066 -0.12991123
000120 ce c7 1d 3e dd 4c 5c 3e e7 ce 0b 3b 09 63 91 3d
       0.1540825 0.21513696 0.002133304 0.070989676
000130 11 0e bd bc 63 59 e3 3d 7b 01 b8 3d 68 7c cf 3d
       -0.023077996 0.111010335 0.089846574 0.101311505
000140 99 a0 85 bd ad cd 96 ba be 0f d5 3d f6 a3 9b ba
       -0.06524772 -0.0011505388 0.10403393 -0.0011874426
000150 e4 85 d7 3d 86 0a 69 bd 49 48 0f be 88 be ed 3c
       0.105235845 -0.0568948 -0.13992418 0.029021516
000160 b9 76 99 3d d7 ca e3 bd 9d f1 2c be cd cc 4d bd
       0.07493348 -0.11122673 -0.16889043 -0.05024414
000170 97 e9 35 bc 8a 97 30 bd 66 a4 e2 bb 91 d4 bc bd
       -0.011103055 -0.04311327 -0.0069165705 -0.09220231
000180 61 2a 0b 3d 04 e9 d2 bd ca 4a 06 be cc c2 cd bb
       0.033975963 -0.102983505 -0.13114467 -0.006279325
000190 3e 8b e4 bd 82 b0 93 3d 79 92 b8 3d 4a 97 67 bd
       -0.11159371 0.072114006 0.090123124 -0.056540765
0001a0 43 bd 7b bb 92 dc b3 3d 1c 41 1c be 0a 30 92 bd
       -0.003841237 0.08782305 -0.15259212 -0.07138069
0001b0 4b 48 37 bd 3b ae 1c 3d f1 c1 64 3d 5d ac 19 bd
       -0.04474668 0.038252097 0.05584902 -0.037517894
0001c0 02 3c d1 bd 25 a2 85 bd 6e c5 d8 bc ae 27 3d 3e
       -0.10216524 -0.06525067 -0.02646133 0.18472168
0001d0 03 29 4c bc 5a ff f0 bc ef f3 05 3e 79 99 38 3e
       -0.01246095 -0.029418636 0.13081335 0.18027295
0001e0 72 c2 50 3d 2c d2 0f be 1c 24 bf 3d 1e 8b 0c 3d
       0.050966688 -0.14045018 0.09333059 0.03431236
0001f0 c6 be 06 be 38 3c 38 3e 46 85 82 3d ec 37 47 3e
       -0.13158712 0.17991722 0.06373076 0.19454926
000200 bd dc 2d 3e 07 35 18 3c a0 a5 10 be c0 0d c4 bd
       0.16978736 0.009289986 -0.14125681 -0.09572935
000210 40 c4 53 bb 7d e3 5a bd 72 b2 39 bd 1e f3 86 3d
       -0.003231302 -0.053439606 -0.045336194 0.0658934
000220 a8 46 d1 bd 69 4a d3 bd 52 a3 b3 3d b8 d2 b1 bc
       -0.10218555 -0.10316927 0.08771385 -0.021706924
000230 bb df b9 bd b1 aa 32 3e 87 d1 b7 bd 04 63 e8 bd
       -0.09075876 0.17447926 -0.08975511 -0.11347011
000240 5a ea d8 3c e5 c3 70 3b 4a a8 a2 bd 70 c4 7d 3e
       0.026478935 0.0036737856 -0.07942255 0.24781966
000250 86 64 5a 3c cb 10 2c 3d 80 eb 11 3d 51 7d ad 3d
       0.013329631 0.042008203 0.03562498 0.08471168
000260 ed 67 87 bd 35 82 4b 3e 78 ee 08 be d6 e3 eb 3b
       -0.06611619 0.19873889 -0.13372219 0.007198791
000270 f9 0a 44 3d c5 7f f6 3d d2 6d 35 3d 21 93 2f bd
       0.047862027 0.12036089 0.044294186 -0.042864922
000280 f5 54 40 be 0b 60 82 bd 19 8d a9 bd 16 2c 5e 3c
       -0.18782409 -0.06365975 -0.08278865 0.013560316
000290 bc 5d a4 3d ce 81 04 bd bb c7 ed 3c 32 7f 14 3d
       0.08025691 -0.032350354 0.029025903 0.036254115
0002a0 c3 16 be 3d 03 6c 1e 3e 4e 94 86 3c 59 0e 1f be
       0.09281685 0.1547089 0.016428139 -0.15532817
0002b0 d5 3a a8 3d 57 5a 92 bc 3e e4 aa bb 1c b6 13 3c
       0.08214346 -0.017865343 -0.005215197 0.009015586
0002c0 a3 1b d6 3b 35 95 9b bc 04 5d 09 bd 54 31 5c 3d
       0.0065340563 -0.018992046 -0.033535972 0.05375798
0002d0 2a 84 85 bc a7 4e 56 3d 9c 7b 2c 3d a8 cd 98 bd
       -0.016298372 0.052321102 0.04211007 -0.07461101
0002e0 3c 64 c7 bd 3b 38 a8 bd e8 7f 94 bd 87 c5 f2 3b
       -0.09735915 -0.0821385 -0.07250959 0.007408801
0002f0 d0 07 26 3d 2c 06 82 3c c2 6e 1e be 3b 58 5a bc
       0.040534794 0.015872084 -0.15471938 -0.0133267
000300 79 b0 39 bc 31 f2 a0 3c 06 dc 27 3d ef 52 05 3e
       -0.011333578 0.019646736 0.040981315 0.13019918
000310 0a a3 48 3d 9e 2a 5b bd c7 c6 4d bb 8a 77 29 3e
       0.04898361 -0.05350744 -0.0031398998 0.16549507
000320 8a 62 f4 bc 47 7c 04 3d 28 23 9f 3c c3 03 4d 3e
       -0.029832143 0.032345083 0.019425943 0.20020966
000330 e2 bf 04 3e 8f fa 3d bd c8 1a 89 3d f0 54 bd bb
       0.12963822 -0.04638153 0.06694561 -0.0057779476
000340 b9 85 e7 3d 08 cb 4c bd e7 50 86 bd 6d 8e 55 3d
       0.113048024 -0.049998313 -0.065584 0.05213778
000350 b9 30 dd 3d 44 5d b4 bb 7f 33 a6 3c 07 69 17 be
       0.10800309 -0.005504282 0.020288227 -0.14786159
000360 ec b5 98 3c d6 dc 92 3d ab 8d 0b be 99 5b 06 be
       0.018641435 0.07171027 -0.13628261 -0.13120879
000370 df 39 e8 bd 9e a8 90 3d 48 be 23 bc a4 3e c3 bd
       -0.11339163 0.07063411 -0.009994097 -0.09533432
000380 6b 9f b1 3c 61 3d 30 3e 8e 96 ba 3d be 91 e8 bd
       0.021682462 0.17210914 0.09110747 -0.11355923
000390 f8 aa aa 3d 21 72 a4 bd f5 12 cf 3c b1 eb d6 3d
       0.08333391 -0.08029581 0.025277594 0.10494173
0003a0 e1 04 c2 3d ae 3d 44 bc 6c 34 3c bd d2 d1 25 3c
       0.09473587 -0.011977596 -0.04594843 0.010120826
0003b0 1a c7 19 bd fb be d7 3d 87 f0 8b 3d 06 5f c1 bd
       -0.037543394 0.105344735 0.06832986 -0.094419524
0003c0 de bd 4b 3d d4 8a f2 3d 89 fe 86 bc e0 a8 82 3d
       0.04974162 0.118428856 -0.016478794 0.063798666
0003d0 dc 86 c5 bd 0b cf 0e bd c4 d4 d4 3d af e1 94 bd
       -0.09644863 -0.03486542 0.10392144 -0.07269608
0003e0 be b4 a9 bd 9c 76 be bd e7 2e 0b be 3e 54 f8 bb
       -0.08286427 -0.09299967 -0.1359211 -0.007578402
0003f0 aa 8e fe 3b 2e 79 84 3d 11 42 e0 3c 97 e6 88 ba
       0.0077684717 0.06468426 0.027375253 -0.0010444698

network_body._body_endoder.seq_layers.2.bias f4 [128]
000000 2b 6b 0e 3d 1f 69 66 bd c9 b1 57 3d 0b 40 5b 3d
       0.034770172 -0.056252595 0.052659784 0.053527873
000010 b5 d5 9a 3d 6e 92 50 bd 41 31 4d 3d d6 7d 91 bc
       0.07560293 -0.050920896 0.0500958 -0.017760199
000020 62 c3 14 3d 03 14 6e bd f9 13 43 bb 10 6c 33 bd
       0.036319144 -0.058124553 -0.0029766543 -0.04380423
000030 48 4a 1c bd e1 26 9e 3d c3 6b 7d 3d ec 82 14 3d
       -0.038156778 0.07722259 0.061870348 0.03625767
000040 06 f8 e7 3b dd c7 59 3d af d9 37 bd 04 07 94 3d
       0.0070791272 0.05316912 -0.044885334 0.072279006
000050 df f0 8b 3d 16 8d 0b 3d 5e 14 90 bd c8 38 a8 bd
       0.06833052 0.034070097 -0.07035135 -0.08213955
000060 fe 26 88 bd 05 ad 80 3d 02 5c b2 bc 79 02 72 bd
       -0.06648062 0.06283001 -0.021772388 -0.05908439
000070 46 81 24 bd 49 da 50 3d 27 8d 84 3d db 57 76 3d
       -0.040162347 0.050989423 0.06472235 0.06014238
000080 d4 44 13 3d e2 a4 83 3d af 14 a8 bd 1f 16 79 3d
       0.03595431 0.06427933 -0.0820707 0.060812112
000090 72 1c 9a 3d 48 7f 31 3d 2d ac ad 3d 74 12 ce 3c
       0.07524957 0.043334275 0.084801055 0.025155284
0000a0 2f 9f 62 3d bb 56 ac bd e4 27 43 3d a9 5d 2d bd
       0.05532759 -0.0841498 0.047645465 -0.04232565
0000b0 32 ca 85 3d 29 f4 31 bd c6 ad 71 3d 7f a5 86 bd
       0.06532706 -0.04344574 0.059003614 -0.065745346
0000c0 6f a1 db 3c ea 01 d3 ba a4 a3 4e 3d ef 8a 03 bd
       0.026810376 -0.0016098593 0.05044903 -0.03211492
0000d0 1a 32 6c 3c 63 47 60 bd 81 f1 3e 3d df 07 9f 3c
       0.014416242 -0.05475558 0.046617035 0.019412933
0000e0 34 d7 78 bd 1e d5 35 bd 2f f9 d4 3c 83 0d 63 bd
       -0.06075211 -0.044392698 0.025997726 -0.055432808
0000f0 bd 2d 34 3d 73 a4 5d 3d 4b c9 85 3d 01 63 e8 3b
       0.043988932 0.05411191 0.06532534 0.0070918803
000100 fe 40 03 3d e8 bd a4 bc ea b7 22 bd f7 3f 31 3d
       0.032044403 -0.020110086 -0.039726175 0.043273892
000110 cb bc dd 3c bc fe 86 3d 65 34 91 bd 2d 1b ee bc
       0.027067563 0.065915555 -0.070900716 -0.029065693
000120 35 dc 9e bc a6 89 81 bd c7 38 ba bc 50 16 e0 bc
       -0.019392112 -0.063250825 -0.022732152 -0.02735439
000130 50 89 ad 3d 88 df 83 bb 0d eb db bc ad 1c 9c bd
       0.08473456 -0.0040244497 -0.02684548 -0.07622657
000140 0a e2 69 3d 22 92 a7 39 e5 e4 76 3d 42 e1 0d 3d
       0.057100333 0.000319616 0.060276885 0.03463865
000150 81 66 0c bd 1c 5a 90 3d 8e b5 a9 3c 60 cf 3b 3d
       -0.034277443 0.07048437 0.020716455 0.045852065
000160 02 61 75 3d 0f 94 e0 bc f3 4b 5a 3d 37 b5 58 3d
       0.059906967 -0.02741435 0.053295087 0.052907195
000170 03 90 31 3c e0 a3 2e 3d 4c 8a 0b 3d cb 2c 3d bd
       0.010837558 0.042636752 0.034067437 -0.046185296
000180 e9 7f b4 bd f6 06 a5 3d 7f dc 95 3d f5 66 42 bc
       -0.088134594 0.08057968 0.07317447 -0.011865367
000190 b5 ef a6 bd cf d7 64 3d c8 ae c1 bb 20 10 6c bd
       -0.08151189 0.055869874 -0.005910728 -0.057632565
0001a0 6e 54 65 bd 97 de a8 ba 84 dc 94 3d 42 41 61 3d
       -0.05598872 -0.001288372 0.072686225 0.054993875
0001b0 bb 01 6d 3d f4 f0 16 bd 02 b2 03 bd a0 ab b1 3c
       0.05786298 -0.036850885 -0.032152183 0.021688282
0001c0 72 74 f6 3c 84 b3 85 3d 10 ce 28 3d 80 86 4e bd
       0.030084822 0.065283805 0.04121214 -0.050421238
0001d0 b2 32 bf 3c 62 3c 58 3d 65 db 66 bd 33 da 18 3c
       0.023339603 0.05279196 -0.056361575 0.0093293665
0001e0 5e 52 60 3b ce d7 28 3d 2f 1c 31 bb f2 9d 85 3d
       0.0034228782 0.041221432 -0.0027024855 0.06524266
0001f0 da 3a 68 bd ab ac b2 3d 60 14 4d bd a7 55 52 39
       -0.05669675 0.0872434 -0.05006826 0.00020059069

action_model._continuous_distribution.log_sigma f4 [1, 3]
000000 b2 9b 5e 39 38 4c 10 3b e7 45 fd 3b
       0.00021229571 0.0022018086 0.0077292803

action_model._continuous_distribution.mu.weight f4 [3, 128]
000000 3e 1c c7 bc 3c 32 ec 3c c0 64 c1 bc a1 66 91 bb
       -0.02430546 0.028832547 -0.023607612 -0.004437283
000010 95 3c 68 3b 14 9c 95 3c 8f 26 89 3c 04 64 1c bd
       0.00354365 0.0182629 0.016742019 -0.03818132
000020 5c a8 50 bd db 25 91 3c f5 8b 1e 3d 25 73 bd bc
       -0.05094181 0.017718246 0.038707692 -0.023126194
000030 b9 e7 5c 3d 72 01 d5 3b dc 87 04 bd 33 07 d4 3c
       0.053931925 0.0065004164 -0.032356128 0.02588234
000040 71 2c aa 3c 69 3c 02 bd 71 3c 1a 3d 73 b2 33 bc
       0.020773144 -0.031795893 0.037655298 -0.010967839
000050 8c ed 4b 3c 5a 5e 62 bc e2 fc 02 3c 84 db 12 3c
       0.012446772 -0.0138164405 0.007994862 0.008963469
000060 83 bf 52 3c 6e 6c aa bc b0 17 3d 3a 37 dd 84 3c
       0.012863043 -0.020803656 0.00072133075 0.016218765
000070 0e 68 f6 3c a7 7a f8 3b 75 78 b5 bb df 93 d1 bc
       0.030078914 0.0075829807 -0.0055380412 -0.025583206
000080 4c ed 73 3c 02 8a ac bc 77 0c 4f 3c 89 3f be ba
       0.014888119 -0.021061901 0.012637249 -0.0014514785
000090 7e 07 c4 b9 b2 76 a4 bc ab 4e aa bc 24 08 5f bc
       -0.00037389615 -0.02007613 -0.020789465 -0.013612781
0000a0 58 6b 21 bd 87 a2 59 3c d8 4b 4d bd 15 bf a9 3c
       -0.03940901 0.013283378 -0.05012116 0.020720998
0000b0 69 2d 5b bc e0 77 f7 3c bd 4a 6b bc 26 83 0a 3b
       -0.013377526 0.030208528 -0.014361081 0.00211353
0000c0 5a 76 4f bd 40 00 e2 bc 7c b9 b8 bb 15 ed a1 bc
       -0.05064998 -0.02758801 -0.005637346 -0.01976637
0000d0 59 bc 82 bd 45 23 2b bc af 84 92 bc 8c 79 c1 bc
       -0.06383581 -0.010445421 -0.017885534 -0.023617528
0000e0 3e 37 25 3d f3 0f 02 3d 83 25 95 3c b2 ec 54 bc
       0.040335886 0.03175349 0.018206364 -0.012995886
0000f0 e7 ec 10 bd c6 e5 b7 bc be 38 ff bb 0d 1b 02 3d
       -0.035382178 -0.022448432 -0.0077887466 0.03176408
000100 1a 38 ee bc b5 cc 2d 3b fa d6 b1 3c 95 93 8e bc
       -0.029079486 0.002651972 0.021708954 -0.017404357
000110 4f 9d 05 bd b3 d6 e0 bc 71 7c d0 3c 67 fe 80 3d
       -0.032620724 -0.027446127 0.025449963 0.062985234
000120 9d 4e b6 3c 8b e2 3d bc b0 d4 b5 3c 54 a1 27 3d
       0.022254283 -0.011589657 0.022196144 0.04092534
000130 94 c6 02 3c 70 70 2f bc 53 46 f9 3b 3e 86 64 bb
       0.007981915 -0.0107079595 0.0076072603 -0.0034870054
000140 2b d8 2d bd e4 b4 53 3d fb 90 a6 bb de a9 14 bd
       -0.042442482 0.051686183 -0.005083201 -0.03629481
000150 af 57 6a bc 04 fa 44 bd e7 81 48 bd df 8e 8c bd
       -0.014303132 -0.048089996 -0.04895201 -0.06863188
000160 69 e1 0b bc ac f1 d0 3c 8a 40 09 bd 14 0a 2a bd
       -0.008537629 0.025505863 -0.033508815 -0.041513517
000170 53 97 04 bd 71 9c b4 3c ac 19 14 3c 94 e9 85 bc
       -0.032370877 0.022047253 0.009039324 -0.01634673
000180 78 f2 85 3c 7f ff 2b bc 21 2e 43 bb b1 13 dc bc
       0.01635097 -0.010497927 -0.0029782134 -0.026864858
000190 6f 6f cf 3a dc d5 48 ba ed 46 f4 bb 50 11 74 3c
       0.0015826056 -0.0007661262 -0.007454744 0.014896706
0001a0 96 f4 3e bc d1 94 49 bc 1a 2a 07 3b a4 ff f7 bc
       -0.0116549935 -0.012303547 0.002062446 -0.030273266
0001b0 d0 71 4c 3c 6b 94 2c 3c 65 34 45 3c b1 10 25 bd
       0.012478307 0.0105334325 0.012036418 -0.04029912
0001c0 32 b2 31 3d 04 c3 be 3b fc 77 8d 3c 4c 44 44 3c
       0.04338283 0.0058215875 0.017269127 0.011979174
0001d0 f7 ef da 3c 75 0d 06 bd 1d 78 0c 3c f5 1a 02 3d
       0.026725752 -0.032727677 0.008573559 0.03176399
0001e0 2d 2a c1 3c 6f 8b 9e bc 09 6b de bc f1 03 c8 bc
       0.023579681 -0.019353596 -0.027150648 -0.024415942
0001f0 7b 7b 5d 3c cf 70 a1 bb 22 6c e6 3c 13 c1 2d 3d
       0.01351821 -0.004926778 0.028127734 0.042420458
000200 91 fb 88 3c 3b f3 64 bd 23 01 00 3d c6 80 d6 3c
       0.016721519 -0.055896025 0.031251084 0.02618445
000210 d9 86 94 3d 1b 90 fa bc 90 3b 32 3d f4 1b 48 bd
       0.07252283 -0.030586293 0.043513834 -0.048854783
000220 ab 27 ce 3b 35 44 c1 bc db 28 c4 3c 34 f6 9c bd
       0.00629135 -0.023592094 0.023945263 -0.07664147
000230 a4 1f 9f bc 21 8a 2f 3d 9a bc 2a 3d 40 67 0a 3d
       -0.019424267 0.04285634 0.04168377 0.033789873
000240 72 8a 4e 3c 9b bd f2 3c 0b 00 29 bc dd 93 50 3d
       0.01260625 0.029631427 -0.010314952 0.050922263
000250 f6 b6 6d 3d 2f d3 5d 3b c2 ff 64 bd d5 2d 9b bd
       0.058035813 0.00338478 -0.055907972 -0.07577101
000260 59 d2 59 bd b2 9f 47 3d 48 0d b5 3a 67 dc 40 bd
       -0.05317912 0.04873628 0.0013813162 -0.047085192
000270 0f 67 b7 bc c1 2b 22 3d f5 20 28 3d ed 63 d1 3c
       -0.02238801 0.03959251 0.041047055 0.025560344
000280 eb 75 0e 3d 4c ab 3e 3d e1 23 71 bd 1a 7f 7b 3c
       0.034780424 0.04655008 -0.058872107 0.015350128
000290 14 d8 29 3d 57 b0 32 3c ad 84 7d 3d 68 f7 76 3a
       0.041465834 0.0109063005 0.061894108 0.00094210217
0002a0 e9 2a 4c 3d ca 65 85 bd 37 74 d5 3c ec 21 89 bc
       0.04984561 -0.06513555 0.026056392 -0.016739808
0002b0 65 32 1f 3d 9f 68 54 bc 04 81 3c 3d 6f 1f 08 bd
       0.03886642 -0.012964397 0.046021476 -0.033233102
0002c0 29 61 91 bb da 56 ae bc 84 3d 07 3d 54 3b e6 bc
       -0.004436631 -0.021281648 0.03301765 -0.028104462
0002d0 2f b5 c0 bc 5c 4f 21 bd 3f d7 5b 3c 02 9c 88 bb
       -0.023523895 -0.039382324 0.013418018 -0.004168988
0002e0 bf 8f 63 bd 48 02 0b bd d7 c3 ce 3c 8a 4a 03 bd
       -0.05555701 -0.033937722 0.025239868 -0.032053508
0002f0 f9 0f f6 3c ac 88 d4 3c 26 3f 15 3d 42 2b ac 3c
       0.030036913 0.025944076 0.036437176 0.02101672
000300 6a 32 6d 3b 2b cc a7 ba 59 d0 3d bc 4d 03 51 3c
       0.003619338 -0.0012801936 -0.0115853185 0.012757135
000310 fc 17 95 3c 26 8b 4c 3d 48 6a 90 bd d6 1e 76 bb
       0.018199913 0.04993739 -0.070515215 -0.0037555
000320 c6 9e 82 ba 27 ed 20 bd 1b d6 03 3a f6 e2 3c 3a
       -0.0009965531 -0.039288666 0.00050291576 0.00072054507
000330 0b 42 73 3d 7b 24 ae bc af 5a b3 bb fa 4a 45 bd
       0.059389155 -0.02125763 -0.005473457 -0.048167206
000340 9e ed 34 3d d0 48 06 3d 67 de 1a 3d 91 fb 31 3c
       0.044171922 0.032784283 0.037809756 0.010863201
000350 78 09 eb bc 6e e0 ba 3d f2 17 eb bb 5e ee 18 3d
       -0.028691038 0.09124838 -0.0071744854 0.0373367
000360 91 bd f4 3c 95 01 0e 3b 3d d8 c5 3c fe a2 09 3d
       0.029875549 0.0021668423 0.024150962 0.033602707
000370 c0 07 13 bc d5 45 d4 3c 26 ca c2 3c ab 2a 1e bd
       -0.008974016 0.025912205 0.023778033 -0.03861491
000380 7e ed 8b bd c9 ca 76 3d f2 1d 98 3d aa ad 01 bd
       -0.068324074 0.060251985 0.074275866 -0.03165976
000390 0b 1f 7b bd 04 19 1d 3d bc d4 9d bb fd 9b d8 bc
       -0.0613089 0.038353935 -0.0048166197 -0.026441569
0003a0 79 c1 1d bd 82 a8 b1 bb b9 0d 55 3d ee fa c1 3c
       -0.038514588 -0.005421699 0.05201504 0.023679223
0003b0 1f cc 47 3d 0c 91 97 bc 87 1f 41 bb c6 03 f8 bb
       0.04877865 -0.01850178 -0.0029468255 -0.007568809
0003c0 a7 6c 52 3d 8c 38 27 3d 71 fe 08 3d 70 16 cf bc
       0.05137315 0.04082541 0.03344578 -0.025279254
0003d0 ab 88 1e 3d 53 3c 29 3d 36 b5 ea bc 85 9f d6 3c
       0.038704555 0.041317295 -0.028650861 0.026199112
0003e0 46 f1 c2 3c 18 19 60 3c 9d ab a0 bc 05 f5 51 3d
       0.023796689 0.013677858 -0.019613082 0.05125906
0003f0 65 81 0c bd a4 19 8e 3d 15 0a 9d bc 13 c9 d5 3c
       -0.034303088 0.06938484 -0.019169847 0.026096856

action_model._continuous_distribution.mu.bias f4 [3]
000000 fb 4a f0 bc 58 15 8b 3d 1b bb 3a 3b
       -0.029332628 0.0679118 0.0028492871

action_model._discrete_distribution.branches.0.weight f4 [5, 128]
000000 f5 c1 ac ba 76 13 f6 3b 23 e2 30 bb c1 40 ae bb
       -0.0013180362 0.007509644 -0.0026990257 -0.005317778
000010 d3 9a 31 3c 2e 7f bc 39 d6 2d 0d 3c b9 f9 57 3c
       0.010840136 0.0003595291 0.008616885 0.013182097
000020 0b ed bf bb 6a 4f 67 bc 1f 31 6a bc c0 ad 67 3c
       -0.005857115 -0.014118055 -0.014293938 0.014140546
000030 e2 22 b3 3a 64 af f5 3b f4 54 be bb 85 2c 42 bb
       0.0013667012 0.007497715 -0.005808467 -0.0029628586
000040 20 79 af bb 01 0e 3d 39 bf f8 fd bb 60 59 16 3c
       -0.0053550154 0.00018029661 -0.0077506 0.009176582
000050 c3 fe c9 3b 3f 39 b3 3b 52 b5 23 3a b0 96 86 bb
       0.006164403 0.0054694708 0.00062449754 -0.004107319
000060 cb 80 34 3c f0 58 92 3b 10 ed 18 ba 98 97 07 3b
       0.011017035 0.0044661686 -0.0005833665 0.0020689722
000070 cb 68 fa bb c5 ae a2 bb bc 0e 06 bb 2b 81 6f ba
       -0.007641887 -0.004964682 -0.002045556 -0.0009136374
000080 a8 48 06 3b f1 ac 71 3b eb 38 32 3c 56 1c d7 3b
       0.0020490084 0.0036876763 0.010877828 0.006564657
000090 47 9e 87 3b 2c 81 08 bb 80 a9 a1 3a 44 74 fa 3a
       0.004138741 -0.0020828946 0.001233384 0.0019108136
0000a0 dc 4e 06 3c 59 75 99 3b 7e 6b ca 3b 41 12 45 bc
       0.0081975125 0.0046831784 0.006177365 -0.012028278
0000b0 23 b6 29 3c b9 73 28 bc 13 b6 af 3a 4e aa 41 39
       0.010358366 -0.010281497 0.0013405703 0.00018469358
0000c0 82 a5 04 3b 8b c3 14 bc 56 2c 80 3a 29 2b c0 bb
       0.0020240252 -0.009079824 0.0009778838 -0.00586452
0000d0 b6 9e 98 bb aa 41 9d ba b0 7b 80 bb 8a 44 48 3a
       -0.0046575917 -0.0011997719 -0.0039209947 0.00076396076
0000e0 68 f0 89 3c 2b 58 12 3b 16 71 eb bb f1 f6 43 bc
       0.016838267 0.0022330384 -0.0071851118 -0.011960731
0000f0 b7 8a 9f bc 97 47 05 bc 92 81 ec 39 76 eb 24 bc
       -0.019475324 -0.008134744 0.00045109965 -0.010065904
000100 b3 04 ac bb 29 75 0d b9 d6 74 bc 3b 90 27 94 bb
       -0.0052495836 -0.00013490453 0.0057512326 -0.004521318
000110 84 71 b1 b9 00 43 15 bb fe f2 95 3b 56 b5 1c 3a
       -0.00033844647 -0.002277553 0.004576086 0.0005977949
000120 0f af d4 bb 17 e1 ab bc a4 07 ed 3b db a2 f5 ba
       -0.006490595 -0.020981355 0.007233577 -0.0018740551
000130 41 42 c4 bb 11 3b 6f bb bd bc a7 bb d2 88 97 3b
       -0.0059893434 -0.0036503712 -0.005118935 0.0046244645
000140 8b 28 13 bc 18 10 19 3c 80 3e e2 bb 94 75 6c bb
       -0.008981834 0.009342216 -0.0069044232 -0.0036080824
000150 f6 9b 2d bb 9d 55 3a bb 9a 48 93 3b cd fd 51 bb
       -0.0026490665 -0.0028432377 0.0044947388 -0.0032042146
000160 70 3d a3 39 bc 46 8e 3a 3c 7e de 3b cf 85 b8 bb
       0.00031135557 0.0010854821 0.0067899507 -0.0056311856
000170 58 19 31 bb 15 a8 bf bb 58 62 7e 3b a7 81 5c bc
       -0.0027023163 -0.0058488944 0.0038815942 -0.013458646
000180 75 36 58 3c 69 e4 ea 3c cc ad 82 bb bc 06 88 bb
       0.013196577 0.028673368 -0.0039880034 -0.0041511934
000190 c7 20 79 3c 28 c6 91 3b f0 d2 d4 3b f3 4a 99 3a
       0.015205569 0.004448671 0.0064948723 0.001169531
0001a0 0a 39 0a bb c5 85 48 3c d7 1e 3a 3c 89 81 aa bb
       -0.0021091127 0.012238924 0.011359892 -0.00520343
0001b0 90 c4 2e b9 4f 5e f9 3b 5b ee 0e 39 94 35 45 3c
       -0.00016667158 0.0076101194 0.0001363097 0.0120367
0001c0 92 72 42 bc d8 f1 ae 3a ed cb 63 bc b1 62 85 bc
       -0.011868136 0.0013347222 -0.0139036 -0.016282411
0001d0 1a 81 1f bc 16 f0 4a bc 24 c4 13 ba 29 e7 63 bb
       -0.00973537 -0.0123863425 -0.0005636832 -0.0034775233
0001e0 b8 4a 3d 3b 5d d8 c2 bb 70 f8 11 3c fe 1e d1 39
       0.0028883647 -0.0059462027 0.00890933 0.00039886677
0001f0 ce 9e 94 bb cc 6b a6 bb bc 80 4f 3b a6 32 06 3b
       -0.0045355326 -0.0050787684 0.0031662425 0.0020476966
000200 4a 3e 66 bb c6 59 58 bb 81 38 1c bc 98 87 14 3b
       -0.0035132342 -0.0033012494 -0.009534956 0.0022663828
000210 a8 e6 47 39 bf 2c 4f bb df 0c b4 3b 18 2f 9c bb
       0.00019064045 -0.0031612364 0.0054946984 -0.004766356
000220 80 2f 5a 3c 85 18 2f bc e9 09 00 bc ae 98 58 bc
       0.013316989 -0.010686998 -0.007814863 -0.013219995
000230 6e 84 8c bc 75 60 9d bc 37 c4 e1 ba 52 36 7c 3c
       -0.017152991 -0.019211033 -0.0017224614 0.01539381
000240 df 75 5a 3b b0 33 e9 bb 3a 48 13 ba e5 1c 74 bc
       0.0033334417 -0.0071167573 -0.00056183676 -0.014899467
000250 7e 67 c9 ba 9b b2 c5 3b bc af 32 3c c8 6a fa 3a
       -0.0015365926 0.0060332543 0.010906156 0.001910531
000260 e5 17 2a 3c f1 f7 30 3c 21 5f f0 bb 1b 04 17 3b
       0.010381673 0.010801301 -0.007335559 0.0023043219
000270 d3 17 51 3c 28 68 65 3c 18 3d 7e 3a c9 ab 09 bc
       0.012762028 0.014001884 0.0009698435 -0.008402773
000280 0b 5c 88 3c 8d de 8d 3c a2 38 d9 bb 2f 35 f9 b9
       0.016645452 0.017318035 -0.0066290656 -0.00047532606
000290 a4 07 09 3b 93 20 48 bc bc 40 36 bb fc 14 91 3a
       0.0020909095 -0.012214798 -0.002780958 0.0011068876
0002a0 0c a4 53 bc b4 89 31 3c d0 8e fb b7 59 ff 1a 3c
       -0.01291753 0.010836054 -2.9988034e-05 0.009460294
0002b0 d1 3b c6 bb dd a5 98 bc 5a 01 59 bc ee 84 7d 3c
       -0.006049611 -0.018633777 -0.013244951 0.015473587
0002c0 e2 5f 31 3c b5 5e dd 38 19 c7 15 3b 69 af 23 ba
       0.010826083 0.00010555742 0.0022854267 -0.00062440947
0002d0 5b a5 91 3c 83 41 3e 3c 6b 2f 94 3b a8 f6 23 3c
       0.017779043 0.011612299 0.004522254 0.010007538
0002e0 bf 13 3b bc 44 1b 8e bb e3 ad 82 3b 3d f3 00 3c
       -0.011418282 -0.0043367464 0.003988014 0.0078704925
0002f0 97 da b4 3b 88 58 b0 3b 84 05 79 3b 4e 3e 05 3c
       0.005519222 0.0053816475 0.0037997672 0.00813253
000300 b4 2f b7 bb 67 13 fb 3a f1 6d 0c bc af d2 99 ba
       -0.0055904035 0.0019155563 -0.008571134 -0.0011735762
000310 84 af f8 3a ff 70 e9 ba 9c b0 82 3c 91 e3 96 3b
       0.0018973206 -0.0017810165 0.015953355 0.0046047647
000320 a5 e9 e6 3a 66 18 c5 bb e3 a3 72 3b d7 78 3c bb
       0.0017617239 -0.0060148714 0.0037023954 -0.002875855
000330 1e a4 d2 3b e6 0a 1a b9 23 57 1a bc 65 1b 11 bc
       0.0064282557 -0.00014690644 -0.009420189 -0.008856629
000340 2a d3 58 bc c1 e9 24 bc 4e 76 7f 38 23 59 c6 bb
       -0.013233939 -0.010065497 6.0906917e-05 -0.0060531064
000350 43 ac 3f 3b 0e f1 29 3c 51 79 8d 3b 17 6d 95 3c
       0.0029246963 0.010372413 0.0043174406 0.018240495
000360 5b de 27 3c 2a a0 50 3a 4e e5 01 3c 12 2a 83 3c
       0.010245885 0.00079584366 0.007928206 0.016011272
000370 16 63 01 3c 55 5b 1b 3c 79 47 fd bb e1 96 35 3a
       0.007897159 0.0094822245 -0.0077294675 0.0006927085
000380 a2 7f b5 3a ca 57 b1 bb ad 04 9f 3b 3f 76 49 bc
       0.0013847242 -0.0054120766 0.0048528523 -0.0122962585
000390 8f d3 c1 3b 6d e9 19 3b 81 33 aa 3b f4 0a a0 3b
       0.0059151123 0.002348508 0.005194128 0.004884118
0003a0 cb 7f a3 3b 7e e6 d0 3b b5 29 08 bc 74 b6 ba 3b
       0.0049895993 0.006375133 -0.008310725 0.0056980196
0003b0 8a 8d fe 3b bd cc 02 3c 10 a0 f5 3a 26 48 85 39
       0.0077683376 0.007983384 0.0018739719 0.00025421492
0003c0 3b ba cd 3b 88 06 9b 3b 09 19 bf ba dc ae 03 3c
       0.006278304 0.004731003 -0.0014579605 0.008037295
0003d0 64 1c 23 bc bc 83 f0 3b da 6d 5a bb 13 24 5c bc
       -0.009955499 0.0073399227 -0.0033329637 -0.013436335
0003e0 50 23 7d bc eb 45 18 bb 0d da 23 3a c3 7d c8 3b
       -0.015450314 -0.0023235034 0.00062504486 0.0061185076
0003f0 76 2c 56 3a 4e 47 25 3b cb d5 32 3c f3 44 32 3b
       0.00081700773 0.0025219503 0.01091523 0.0027201741

action_model._discrete_distribution.branches.0.bias f4 [5]
000000 6e 15 d9 ba 28 cc 25 bb 07 b0 fd 3b fb d7 8d 3b
       -0.0016562173 -0.0025298689 0.0077419314 0.0043287254
000010 32 d1 f9 bb
       -0.007623815
