results/ppo/My Behavior.onnx (onnx, 74821 bytes, 9 tensors)

network_body._body_endoder.seq_layers.0.weight f4 [128, 6]
0	0xbe88ff78	-0.26757407
1	0x3eccb80b	0.39984164
2	0x3dc87e1b	0.09789678
3	0xbdb4091d	-0.08790801
4	0xbea2a301	-0.31764987
5	0xbf5869e3	-0.8453657
6	0x3efc2dcf	0.492537
7	0x3e629243	0.22126107
8	0x3d856b92	0.06514658
9	0x3e3c0362	0.18360665
10	0x3d5e1164	0.054215804
11	0x3ec1a2e7	0.37819597
12	0x3f01d045	0.5070842
13	0x3ea5b778	0.32366538
14	0xbe0833fd	-0.13301082
15	0x3ea66d9b	0.32505497
16	0xbe8b46b7	-0.2720239
17	0x3ea6fa59	0.32612875
18	0xbd231592	-0.039815493
19	0xbc9914f2	-0.018686745
20	0x3f1d23ec	0.6138294
21	0x3d78352a	0.060597576
22	0x3f1a33d3	0.6023533
23	0x3e53cee8	0.20684397
24	0x3eb4d847	0.35321257
25	0xbd982f9d	-0.074309565
26	0xbeaaae5c	-0.3333615
27	0x3ebf0506	0.3730852
28	0x3d2375fc	0.03990744
29	0x3f34a316	0.7056135
30	0xbe1c79a7	-0.15280782
31	0x3e9747fd	0.2954711
32	0xbf0eb20c	-0.5574043
33	0x3e3dcb75	0.18534644
34	0x3e9488f5	0.2901074
35	0x3dc14cdf	0.0943849
36	0x3cc2632f	0.023728935
37	0xbd449eac	-0.048002884
38	0x3e35ab51	0.17741133
39	0xbe00e0e5	-0.1258579
40	0xbf67bf56	-0.9052633
41	0xbe2a05b2	-0.16603735
42	0xbe58c640	-0.21169376
43	0xbee8bf51	-0.45458463
44	0xbf42233f	-0.7583503
45	0xbe97e84d	-0.2966942
46	0x3e8d0bd7	0.27548096
47	0xbe829dd2	-0.25511032
48	0x3ed5915c	0.41712463
49	0x3d99b906	0.075059935
50	0xbe9c1db6	-0.30491418
51	0xbf1fbcbd	-0.62397367
52	0xbe3fdbdf	-0.18736218
53	0xbf15e375	-0.58550197
54	0xbd5f74f7	-0.054554906
55	0x3cc37bb6	0.0238627
56	0x3f50fd29	0.8163629
57	0x3f10dd7b	0.5658795
58	0x3e955e86	0.29173678
59	0xbef93853	-0.48675784
60	0xbeb9140d	-0.3614811
61	0x3f486405	0.7827762
62	0xbe139599	-0.14412536
63	0x3e73d4f8	0.2381171
64	0xbe37af65	-0.17938001
65	0xbd99f189	-0.07516772
66	0x3f223c7f	0.6337356
67	0x3ea12688	0.3147471
68	0xbda93fbe	-0.08264111
69	0xbf20c88c	-0.6280601
70	0x3c0d0727	0.008607662
71	0xbf525504	-0.82160974
72	0x3dbee4da	0.09320994
73	0x3e0700fe	0.13183972
74	0x3c6cf920	0.014463693
75	0x3f8f2ab2	1.1184905
76	0x3e237dc4	0.15965945
77	0x3e352b7e	0.17692372
78	0xbebefc8d	-0.37302056
79	0xbe87988d	-0.26483575
80	0x3ebd73a4	0.3700229
81	0xbe998c04	-0.29989636
82	0xbed7f6f6	-0.42180604
83	0xbe41e186	-0.18933687
84	0x3e941cc3	0.28928193
85	0x3ea2f5cb	0.3182815
86	0x3ea9a5a3	0.33134183
87	0x3f3e76e7	0.7440018
88	0x3eb5dfb0	0.35522223
89	0xbe97fb97	-0.29684135
90	0x3e5cc6ce	0.21560213
91	0x3d4333ea	0.04765693
92	0x3ee2039f	0.44143388
93	0x3ec2a35c	0.38015258
94	0x3f1aa897	0.604135
95	0xbefb06b5	-0.49028555
96	0x3eed578b	0.46355852
97	0xbd212299	-0.039339636
98	0x3e0958ee	0.1341283
99	0x3df80dda	0.12112017
100	0xbf48254a	-0.781819
101	0xbf3f5976	-0.7474588
102	0x3ed33eca	0.41258842
103	0xbf3fab8b	-0.7487113
104	0x3f0fb470	0.561347
105	0x3e281638	0.16414726
106	0xbe4e2256	-0.20130286
107	0x3ddc2ecc	0.10751113
108	0x3ee0355f	0.4379072
109	0x3f691829	0.9105249
110	0xbf4756ab	-0.7786662
111	0x3d502768	0.05081883
112	0x3dfddf89	0.123961516
113	0xbdf478f5	-0.11937133
114	0x3eab2481	0.33426288
115	0xbf58a093	-0.84620017
116	0xbf0d7e7c	-0.55271125
117	0xbe980134	-0.29688418
118	0xbd7bee05	-0.06150629
119	0xbf065d44	-0.5248606
120	0x3ad93892	0.0016572645
121	0x3d022710	0.031775534
122	0xbf255b5c	-0.6459253
123	0xbec99781	-0.393734
124	0x3f1ef5a9	0.620936
125	0xbe416d2b	-0.188893
126	0xbe24d2a9	-0.16095985
127	0xbced456d	-0.028963769
128	0xbd92482b	-0.07142671
129	0xbf0ea9a3	-0.55727595
130	0x3ef6eed2	0.4822908
131	0x3ea0e87a	0.31427366
132	0xbe58dd12	-0.21178082
133	0x3da077a0	0.07835317
134	0x3decb4fa	0.11557956
135	0x3d167055	0.036728222
136	0xbeb672ad	-0.35634366
137	0xbe96276f	-0.2932696
138	0xbe546b1b	-0.20743982
139	0xbedb5254	-0.4283625
140	0x3f2a4504	0.6651156
141	0xbe79ecf2	-0.24406794
142	0x3dfd69aa	0.123736694
143	0xbe9761da	-0.29566842
144	0x3efab626	0.48967093
145	0x3f2fe281	0.6870499
146	0x3eb11f05	0.3459398
147	0x3ed765ad	0.4206976
148	0xbed16b2e	-0.40902084
149	0x3ed60ab0	0.4180503
150	0xbec44ee8	-0.3834145
151	0xbdd9c62b	-0.10633501
152	0xbf64864e	-0.8926743
153	0xbe2a5304	-0.1663323
154	0xbeca8d60	-0.39560986
155	0x3ec5560b	0.38542208
156	0x3f51d02e	0.8195828
157	0x3e42c8e3	0.19021945
158	0x3d8c0c55	0.0683829
159	0x3ec5d60e	0.38639873
160	0xbf199511	-0.5999308
161	0xbed9f993	-0.42573223
162	0x3de9d448	0.114174426
163	0x3a41578f	0.0007375413
164	0x3e48043f	0.1953287
165	0xbe4b5d82	-0.19859889
166	0x3c3ca0b3	0.011512923
167	0xbe5a9c1f	-0.21348618
168	0xbeb2affa	-0.34899884
169	0x3e4e3e8a	0.20141044
170	0xbe3f77a1	-0.18697979
171	0xbe63e76a	-0.22256246
172	0xbe29397f	-0.1652584
173	0xbebf6896	-0.3738448
174	0xbefc3d37	-0.49265453
175	0x3e72cba5	0.23710497
176	0xbf2bb7d9	-0.67077404
177	0x3e9f5c3a	0.3112505
178	0xbd7e8bc1	-0.062145
179	0xbe66e49c	-0.22548145
180	0xbf8b6b8c	-1.0892196
181	0x3f2de627	0.6792931
182	0x3f362edb	0.71165246
183	0x3f27e0b1	0.65577227
184	0xbeb79747	-0.35857603
185	0x3ec5f92a	0.3866666
186	0x3ee193f5	0.44058195
187	0xbe043ad6	-0.12913069
188	0x3cc6f442	0.024286393
189	0x3cc9f923	0.02465493
190	0xbea70452	-0.32620484
191	0xbf24c103	-0.6435701
192	0x3e5b460e	0.21413442
193	0xbe10d20f	-0.14142631
194	0x3ec1d300	0.37856293
195	0x3cdefb3e	0.027219411
196	0xbb2a8efe	-0.0026025171
197	0x3de2bab5	0.11070768
198	0xbe3b1b56	-0.18272147
199	0x3e02993f	0.12753771
200	0x3e82fc13	0.25582942
201	0xbeddbae5	-0.43306652
202	0xbef8696a	-0.48517925
203	0x3e5501fd	0.2080154
204	0x3d726f45	0.059188146
205	0xbca3249c	-0.019914918
206	0x3f28435d	0.6572779
207	0x3d02dcf8	0.031949013
208	0xbef7d75b	-0.4840649
209	0xbe9a8a41	-0.30183604
210	0xbe82b256	-0.25526685
211	0x3f004cda	0.50117266
212	0x3e8f1d03	0.27951822
213	0x3e940846	0.28912562
214	0x3e4648a9	0.19363655
215	0xbec3d82d	-0.38250867
216	0xbf0b4124	-0.5439627
217	0xbf147701	-0.57994086
218	0x3daee0b9	0.08538956
219	0xbe7ac285	-0.24488266
220	0x3ecc3580	0.39884567
221	0x3edba884	0.42902005
222	0xbe840a9f	-0.25789353
223	0x3ed6a31d	0.4192132
224	0x3e44120a	0.19147506
225	0x3f1c4d6e	0.6105565
226	0xbd8c534b	-0.068518244
227	0xbf3f2bad	-0.7467602
228	0x3f7e02b9	0.99222904
229	0x3eaaf5dc	0.333907
230	0xbf4b5639	-0.7942844
231	0xbeef57f3	-0.46746787
232	0xbee39987	-0.4445307
233	0xbea29820	-0.31756687
234	0xbed1547b	-0.40884766
235	0xbeed255e	-0.4631757
236	0xbe268992	-0.16263416
237	0xbe0dd571	-0.13850953
238	0xbd795ab2	-0.06087751
239	0xbea6bb8c	-0.32564962
240	0x3ddc56f2	0.10758771
241	0xbeff1e3f	-0.49827763
242	0x3ea43b06	0.3207628
243	0x3f2bc4b9	0.6709705
244	0x3f392af5	0.7233117
245	0xbe785473	-0.24250965
246	0x3ef2d445	0.47427574
247	0x3f68328f	0.90702146
248	0xbf0616d4	-0.5237858
249	0x3f073a8e	0.5282372
250	0xbc9a6b8c	-0.01885011
251	0xbe921009	-0.2852786
252	0x3e72973b	0.23690502
253	0xbdce6d7c	-0.10079476
254	0x3f67a687	0.90488476
255	0xbf06e94b	-0.52699727

network_body._body_endoder.seq_layers.0.bias f4 [128]
0	0xbbe30951	-0.006928601
1	0xbc7ea1ce	-0.015541507
2	0x3ce627c4	0.028095134
3	0x3ccd0df6	0.025031071
4	0xbbe2962b	-0.006914874
5	0x3bbe5d95	0.0058094957
6	0xbc11e4ef	-0.00890468
7	0x3d414ab7	0.047190394
8	0x3d1c50d1	0.03816301
9	0xbb93c955	-0.0045100846
10	0x3d1632dd	0.0366696
11	0x3c0d1b46	0.0086124595
12	0x3ca9df9e	0.020736512
13	0xbc9122e4	-0.017716832
14	0x3c4559af	0.012045308
15	0xbc2c7a68	-0.010527231
16	0xbb3f4421	-0.0029184895
17	0x3bd75e23	0.0065725013
18	0x3cf599bf	0.029980538
19	0xbbcb80ed	-0.0062104375
20	0x3c389ce3	0.011267873
21	0x3cc9f1a8	0.024651363
22	0xbcb68523	-0.022280281
23	0xbd0c7cd8	-0.034298748
24	0x3cfa2792	0.030536447
25	0xbc78d11a	-0.015186572
26	0x3c9177dd	0.01775735
27	0xbcd78ea6	-0.026313137
28	0x3d23d02a	0.039993443
29	0x3d2d0e34	0.042249873
30	0x3cc43114	0.023949184
31	0x3c0bc129	0.00852994
32	0x3c884483	0.016634231
33	0xbbbea4f2	-0.005818003
34	0x3d1e4024	0.038635388
35	0x3af7332f	0.0018859858
36	0x3d13fdc7	0.036130693
37	0xbb586835	-0.0033021097
38	0xbbbbf7aa	-0.005736311
39	0xbcaad287	-0.02085234
40	0x3c151d61	0.009101243
41	0xbb15be7c	-0.0022849133
42	0x3c838d2c	0.016058527
43	0x3c2379b5	0.009977748
44	0xbc980952	-0.018559132
45	0x3cf4e0bf	0.029892324
46	0x3ac6cca9	0.0015167195
47	0x3d232646	0.039831422
48	0xbca58359	-0.020204233
49	0x3cb081ea	0.021546323
50	0xbbd3c649	-0.0064628464
51	0xbbb493dd	-0.0055107907
52	0x3cf7c4b8	0.03024517
53	0x3c69ac05	0.014262204
54	0xbc737eca	-0.014861772
55	0x3caefdc2	0.021361236
56	0x3cca7fdf	0.024719177
57	0xbc98cafa	-0.018651474
58	0x3d5d5d84	0.05404426
59	0xbc13de50	-0.009025171
60	0x3cbeebd3	0.02330581
61	0x3cb80dce	0.02246752
62	0xbca7765a	-0.020442177
63	0x3bbfc318	0.0058521144
64	0xbcedb7bf	-0.029018281
65	0x3d2e19b7	0.042504992
66	0x3d0259fa	0.03182409
67	0x3d19d883	0.037559997
68	0x3cc7848c	0.024355195
69	0x3cd6b75a	0.026210476
70	0xbc1f9c2f	-0.009741827
71	0x3d18c30e	0.037295394
72	0x3c5c638a	0.013451466
73	0xbbe4b89e	-0.006980016
74	0x3d847325	0.064672746
75	0x3d23e52f	0.04001349
76	0xbcd3d84d	-0.025859976
77	0x3c26c30e	0.010178341
78	0x3d2aa6b8	0.0416629
79	0x3c7fa12f	0.015602394
80	0xbbd20813	-0.006409654
81	0x3cd52bae	0.026021805
82	0x3d07d0d8	0.033158153
83	0xbca4783d	-0.020076865
84	0x3caba549	0.020952838
85	0x3bc38d72	0.0059677893
86	0x3d0add82	0.033902653
87	0xbb71414d	-0.0036812604
88	0x3c8aa6c9	0.016925232
89	0x3ce074a0	0.027399361
90	0x3be9a496	0.007130216
91	0x3b038b4a	0.0020072036
92	0x3cdcb21b	0.026940396
93	0x3caa9cc5	0.020826707
94	0xbc5141dc	-0.01277205
95	0x3c2ea867	0.010660267
96	0x3c81caff	0.015843866
97	0x3abf0c04	0.0014575724
98	0xbc4211ac	-0.011845034
99	0x3c3caea9	0.011516252
100	0x3b8392dd	0.00401531
101	0xbc8d1201	-0.017220499
102	0xbc6ad854	-0.014333803
103	0xbcaa8fc8	-0.020820513
104	0x3c2d1adf	0.010565489
105	0x3a5afaf0	0.00083534326
106	0x3bcbc19b	0.006218148
107	0x3c1a9dae	0.009437008
108	0x3a35b161	0.00069310336
109	0x3c8e752f	0.017389862
110	0x3bb164cc	0.0054136273
111	0x3c32a6ca	0.010904023
112	0xbc115842	-0.00887114
113	0x3cfd8934	0.030949213
114	0xbc9da982	-0.019245867
115	0xbb9e6b09	-0.004834537
116	0x3b16dc5a	0.0023019523
117	0x3c5b5785	0.0133875655
118	0xbb84afe3	-0.0040492876
119	0xbc6aaef1	-0.014323936
120	0x3cf38d87	0.029730571
121	0xbccce830	-0.02501306
122	0x3c24d43e	0.010060368
123	0x3cf307c5	0.02966679
124	0xbbfa296b	-0.007634332
125	0x3cde0fd2	0.027107153
126	0x3cb32dfb	0.021872511
127	0x3d0b539b	0.03401528

network_body._body_endoder.seq_layers.2.weight f4 [128, 128]
0	0x3d8a0977	0.067400865
1	0xbdac9ddb	-0.08428546
2	0x39827b50	0.00024887407
3	0xbe2edfbf	-0.1707754
4	0xbcfccf57	-0.030860586
5	0xbd317041	-0.043319944
6	0x3d8caec9	0.06869275
7	0xbc8fcbdb	-0.01755326
8	0xbc6f8fb0	-0.01462166
9	0x3e4e57e7	0.2015072
10	0xbae83940	-0.0017717257
11	0xbd0642e5	-0.03277864
12	0x3b2838d2	0.0025668633
13	0xbdde7a13	-0.108631276
14	0xbcbeba21	-0.023282113
15	0xbd2a90d0	-0.04164201
16	0xbdb62ee3	-0.08895662
17	0xbcbb83dd	-0.022890026
18	0xbd69853b	-0.057011824
19	0x3ba4c9eb	0.0050289533
20	0xba009967	-0.0004905671
21	0xbcc1c161	-0.02365178
22	0x3cdea0d7	0.027176304
23	0x3dc70535	0.0971779
24	0x3d6eece1	0.058331374
25	0x3d2048cd	0.03913193
26	0x3cffbbb4	0.031217434
27	0x3b809e01	0.0039250855
28	0x3e1acfe6	0.1511837
29	0x3c053f95	0.008132835
30	0x3c75f6e7	0.015012479
31	0xbe3a9f03	-0.1822472
32	0xbccff121	-0.025383534
33	0x3da04d44	0.07827237
34	0xbd76fab9	-0.0602977
35	0xbe0c8616	-0.13723025
36	0xbc9defcd	-0.019279385
37	0xbcf5e5fb	-0.03001689
38	0x3de68042	0.11254932
39	0x3df0ab9c	0.11751482
40	0xbcf3cdfb	-0.029761305
41	0xbd892bc3	-0.066978
42	0x3d0579bf	0.03258681
43	0x3d7c966d	0.061666895
44	0xbd10e1c8	-0.03537157
45	0xbdbcfa52	-0.09227432
46	0x3df5cb62	0.12001683
47	0x3d10dd85	0.035367507
48	0x3d473eb0	0.048643768
49	0x3c37c4a7	0.011216319
50	0x3e2686e2	0.16262391
51	0xbe058b73	-0.13041477
52	0x3d2e064a	0.042486466
53	0x3dfd386d	0.12364278
54	0x3c84c49d	0.016207034
55	0x3c7c7532	0.015408801
56	0x3d8851ed	0.06656251
57	0xbd504285	-0.050844688
58	0xbd734c83	-0.05939914
59	0xbe0d0c9b	-0.1377434
60	0x3e11f699	0.14254226
61	0xbcf8aa45	-0.030354628
62	0x3d2556f7	0.04036614
63	0xbd463a81	-0.048395637
64	0xbdc829b3	-0.097735785
65	0xbc315fa1	-0.010826022
66	0x3db7b107	0.08969312
67	0xbd5e779c	-0.054313287
68	0xbe01f4de	-0.12691066
69	0xbd78fedb	-0.060789924
70	0x3d6e9d09	0.05825523
71	0x3e0d11ed	0.1377637
72	0x3d35591c	0.044274434
73	0xbc9d8019	-0.01922612
74	0x3cd1895c	0.025578193
75	0x3e0d95b0	0.13826632
76	0xbcc142a7	-0.023591353
77	0x3c9fef01	0.019523146
78	0x3b649a68	0.0034882072
79	0xbd64350d	-0.055714656
80	0x3e007947	0.12546264
81	0x3d260b4b	0.040538114
82	0x3d853553	0.065043114
83	0x3d829117	0.0637533
84	0x3c494be7	0.012286163
85	0x3c3902b3	0.011292147
86	0xbe101569	-0.14070667
87	0x3e216fd8	0.15765321
88	0xbd957db5	-0.07299367
89	0x3d622269	0.055208597
90	0xbcf7f977	-0.030270321
91	0xbb49ed80	-0.0030811727
92	0xbd9e7ddf	-0.07738852
93	0x3c0574bf	0.00814551
94	0xbde2fa40	-0.11082888
95	0xbb7f9037	-0.003899587
96	0xbdcf4d1a	-0.10122128
97	0xbd837b01	-0.064199455
98	0xbd84c5be	-0.06483029
99	0xbd123948	-0.03569916
100	0x3cd88619	0.02643113
101	0xbe4f7e30	-0.2026298
102	0x3e028f03	0.12749867
103	0x3d5ce966	0.053933524
104	0xbdb15a53	-0.08659806
105	0x3ca5ed3c	0.020254724
106	0xbc71b471	-0.014752493
107	0xbd6ad8ba	-0.057335593
108	0xbdf9b215	-0.121921696
109	0x3d5afbfb	0.053462964
110	0xbdbb57af	-0.09147584
111	0x3bf72caf	0.0075431685
112	0x3d233e94	0.0398546
113	0x3d8737f7	0.06602471
114	0xbdba3587	-0.09092241
115	0x3cd51d95	0.026015082
116	0xbd3bd730	-0.045859516
117	0xbd40ced3	-0.047072243
118	0x3e82049c	0.25394142
119	0x3d3b84a1	0.04578078
120	0xbe24a6c6	-0.16079244
121	0xbdf7052a	-0.12061532
122	0xbdd7733e	-0.105200276
123	0x3d9c5520	0.07633424
124	0x3ce64de2	0.02811331
125	0xbcefa38c	-0.02925279
126	0x3dbb1a38	0.0913586
127	0x3d80774a	0.062727526
128	0xbbd85184	-0.0066015143
129	0x3db78776	0.08961384
130	0x3e1e9e96	0.15490183
131	0x3e011774	0.12606603
132	0x3c78a4ed	0.01517604
133	0xbd9ba163	-0.075991414
134	0xbdaa0ecf	-0.08303606
135	0x3bf0449a	0.0073323967
136	0x3dc7d92a	0.09758218
137	0x3c659e7d	0.014014837
138	0x3d2f8b55	0.042857487
139	0x3d057895	0.0325857
140	0x3db54edd	0.088529326
141	0x3dc279da	0.094958976
142	0x3c8bd092	0.017067228
143	0x3cd8bdc5	0.026457677
144	0xbe0914a8	-0.13386786
145	0xbded39d7	-0.11583298
146	0x3c33617a	0.010948533
147	0x3d5d5942	0.0540402
148	0xbc1c9c9d	-0.009558824
149	0xbdaceb86	-0.0844336
150	0xbb16e6ee	-0.0023025828
151	0x3c962cfc	0.018331997
152	0xbd7f078f	-0.062263068
153	0xbc9f2f78	-0.019431815
154	0x3e39938b	0.1812269
155	0x3b978637	0.004624154
156	0xbe0b61bd	-0.13611503
157	0x3d811eef	0.06304728
158	0xbe16769c	-0.14693683
159	0xbd914c56	-0.07094638
160	0xbd46f501	-0.048573498
161	0x3b5959dd	0.0033165135
162	0xbdcf9d97	-0.1013748
163	0xbc9b92b5	-0.018990854
164	0xbd82c2a4	-0.06384781
165	0xbd866ed9	-0.06564111
166	0xbd0ec468	-0.034855276
167	0xbd1ddab5	-0.038538653
168	0xbb502f9f	-0.0031766666
169	0xbdd2b94f	-0.10289251
170	0xbd363b68	-0.044490248
171	0xba927bec	-0.0011175848
172	0xbcedeaa6	-0.029042553
173	0x3d43ca8f	0.047800597
174	0x3dbdb46b	0.092629276
175	0x3cb48dcd	0.022040272
176	0x3d17fc6d	0.037105966
177	0xbdaa12c4	-0.083043605
178	0x3d859439	0.06522412
179	0xbc42193a	-0.011846835
180	0xbe07ee5a	-0.13274518
181	0x3dd202c2	0.10254432
182	0x3db2fabf	0.08739232
183	0xbdca43d2	-0.09876217
184	0xbde929cd	-0.11384926
185	0x3cf12c05	0.029439935
186	0xbd126fad	-0.035751034
187	0x3df68b86	0.12038331
188	0x3c723780	0.01478374
189	0xbd8df85c	-0.069321364
190	0xbdd71552	-0.105021134
191	0xbd0f55fa	-0.034994103
192	0x3cd802c5	0.026368508
193	0xbda9a429	-0.08283264
194	0xbda2f99d	-0.07957766
195	0xbd7c6010	-0.06161505
196	0x3b68ab16	0.0035502366
197	0xbd1985a1	-0.037480954
198	0x3e0702e3	0.13184695
199	0xbdae7b13	-0.08519568
200	0xbe2a2175	-0.16614325
201	0x3ddf49b2	0.10902728
202	0xbe0a397d	-0.13498493
203	0xbd6b40c8	-0.057434827
204	0x3d9b9647	0.075970225
205	0x3d988f74	0.074492365
206	0xbd32383c	-0.04351066
207	0xbd66ac3d	-0.056316603
208	0x3e6450f9	0.22296514
209	0xbca80215	-0.020508805
210	0x3e2e6682	0.17031291
211	0x3d7065cd	0.058690835
212	0x3ca063a0	0.019578755
213	0x3c725ec8	0.014793105
214	0xbda1f768	-0.07908517
215	0x3da4bc70	0.08043754
216	0xbd128cc4	-0.035778776
217	0xbd884351	-0.066534646
218	0xbe011ef3	-0.12609462
219	0xbe22584f	-0.15854
220	0xbd15da55	-0.03658517
221	0x3c75f01b	0.015010859
222	0xbdd59595	-0.10428921
223	0x3d0d472b	0.0344917
224	0xbdcf166b	-0.10111698
225	0x3db78060	0.089600325
226	0x3e0682f0	0.13135886
227	0x3dc52b9a	0.09627457
228	0xbc06e84f	-0.008234098
229	0xba8aa245	-0.0010576925
230	0xbc89c9e9	-0.016819911
231	0xbc447d89	-0.011992821
232	0xbdedcd7e	-0.1161146
233	0x3cdf0c91	0.027227672
234	0xbc98a364	-0.018632598
235	0x3e4c3af7	0.19944368
236	0x3c0aab2d	0.008463663
237	0xbd96d14d	-0.0736414
238	0xbe0fb44a	-0.14033619
239	0xbd245f9c	-0.040130243
240	0x3d5a198b	0.053247016
241	0xbe2da9c8	-0.16959298
242	0x3e271b58	0.16319025
243	0xbdd9f888	-0.10643107
244	0xbdc675df	-0.09690451
245	0x3da23d04	0.07921794
246	0xbe0cfddb	-0.13768713
247	0x3b1a50cb	0.0023546692
248	0xbdb891dc	-0.090121955
249	0xbc61ea04	-0.013788704
250	0x3d4a6e25	0.04942145
251	0x3dcaf49d	0.099099375
252	0x3e0ae649	0.1356441
253	0x3bdf557f	0.006815612
254	0x3d4afa2b	0.049554985
255	0xbd678521	-0.056523446

network_body._body_endoder.seq_layers.2.bias f4 [128]
0	0xbbe60e45	-0.007020744
1	0x3c0e45dd	0.008683649
2	0x3bca48d4	0.0061732326
3	0x3d158b2e	0.036509685
4	0xbb1bb2f0	-0.0023757778
5	0x3d1c4aeb	0.038157385
6	0x3d64719e	0.055772416
7	0xbc2409b7	-0.010012082
8	0x3cb605f6	0.02221964
9	0xbcb4cfe2	-0.022071782
10	0x3d0e5962	0.03475321
11	0x3ce51500	0.027964115
12	0xbc886b58	-0.016652748
13	0x3d02befd	0.031920422
14	0x3bdedeb6	0.0068014516
15	0x3d1cd45b	0.038288455
16	0x3b823c6a	0.003974487
17	0x3ce49cda	0.027906824
18	0x3d112e9a	0.035444833
19	0x3d2cc51a	0.04218016
20	0x3c97d542	0.018534306
21	0x3ce7bd3e	0.02828848
22	0x3c87bfbc	0.016570918
23	0xbbc5bd6b	-0.0060345433
24	0x3d194795	0.03742178
25	0x3d3c068d	0.045904685
26	0x3d1e86ea	0.038702883
27	0x3cab256b	0.020891866
28	0x3c96130c	0.01831963
29	0x3b2debeb	0.0026538323
30	0x3cd05020	0.025428832
31	0x3c4ec3b5	0.012619902
32	0x3cab8f12	0.020942245
33	0x3c8302bc	0.015992515
34	0xbc40f9f3	-0.011778343
35	0x3c3e7c7b	0.011626358
36	0xbc803490	-0.015650064
37	0x3ada790f	0.0016668158
38	0xbb8b9006	-0.0042591123
39	0xbc8f58f9	-0.01749848
40	0x3bff5555	0.007792155
41	0xbc878479	-0.01654266
42	0x3b5786c4	0.0032886723
43	0xbb9906af	-0.004669986
44	0xbb33c418	-0.0027430113
45	0xbb63c69d	-0.0034755834
46	0x3cc90f48	0.02454342
47	0xbc9fdfa7	-0.019515825
48	0x3cb1df1f	0.021712838
49	0x3cccc5f3	0.024996733
50	0xbc2c22ce	-0.010506345
51	0x3cdbb09d	0.026817614
52	0x3d33a940	0.04386258
53	0xbc4e4703	-0.012590173
54	0x3c41c5ca	0.011826942
55	0xbc7a6985	-0.015283947
56	0xbc042067	-0.008064366
57	0x3aa9b552	0.0012947714
58	0x3b000092	0.001953159
59	0xbb1257d4	-0.0022330182
60	0x387a5f7e	5.969358e-05
61	0x3c15a55c	0.009133663
62	0x3d10e5bf	0.035375353
63	0x3b88a097	0.0041695344
64	0x3c6d1d1d	0.014472273
65	0x3cf71ddb	0.030165603
66	0xbbc9dbbf	-0.006160229
67	0xbc562552	-0.013070421
68	0x3cc7c212	0.024384532
69	0x3cd0690f	0.02544072
70	0xbbb45194	-0.005502889
71	0xbc8a7107	-0.016899599
72	0x3c695126	0.014240539
73	0xbc30bfb9	-0.010787898
74	0xb94f1bf0	-0.00019751466
75	0xbc909c60	-0.01765269
76	0xbc90eab4	-0.01769004
77	0x3cea164f	0.02857509
78	0x3c699949	0.014257737
79	0x3c475808	0.012166984
80	0xbc4137d4	-0.011793096
81	0x3cb0d85a	0.02158754
82	0xbcb1225b	-0.021622827
83	0x3bb31cb5	0.0054660686
84	0xbc185c41	-0.009299339
85	0x3b7e1df1	0.003877517
86	0x3b707f33	0.003669691
87	0x3a7614f4	0.00093872775
88	0x3caba1f9	0.020951258
89	0xbc07f99b	-0.008299257
90	0x3bde1013	0.0067768185
91	0xbbc7cb47	-0.0060972306
92	0xbc82065e	-0.015872177
93	0xbc4c1690	-0.012456551
94	0x3c0c9c57	0.008582196
95	0xbc26085c	-0.010133829
96	0xbc3ea0f3	-0.011635053
97	0xbb8ab913	-0.0042334883
98	0x3ca2f41c	0.019891791
99	0x3cc115e5	0.02357001
100	0x3b187279	0.002326159
101	0x3d04000f	0.03222662
102	0x3bfbc357	0.0076831984
103	0x3ca5fd4e	0.020262387
104	0x3d2bc168	0.041932493
105	0x3c171922	0.009222301
106	0x3cbfbde8	0.023405984
107	0x3ce596e3	0.02802605
108	0x3cdd87f9	0.027042376
109	0x3c5f99a1	0.013647468
110	0xbc9338a8	-0.017971352
111	0x3cec93e9	0.028879123
112	0x3d7e0f8a	0.062026538
113	0x3d22a3d9	0.03970704
114	0xbaa8afec	-0.0012869812
115	0x3cce186e	0.025158133
116	0x3d021065	0.031753916
117	0xbc6a3202	-0.014294149
118	0xbbd0a0f9	-0.0063668457
119	0xbc5118e6	-0.012762284
120	0xbc844761	-0.016147317
121	0x3d21e3cb	0.03952388
122	0x3cfea4c4	0.031084426
123	0xbbc394eb	-0.00596868
124	0x3d16bb4e	0.03679972
125	0x3d14f827	0.03636947
126	0xbc90bdf9	-0.017668711
127	0xbbeabbd6	-0.007163505

action_model._continuous_distribution.log_sigma f4 [1, 2]
0	0x3b8cdffb	0.0042991615
1	0xbad86c58	-0.0016511781

action_model._continuous_distribution.mu.weight f4 [2, 128]
0	0x3d1ffd37	0.039059844
1	0x3d410652	0.04712517
2	0xbc97a79c	-0.01851254
3	0xbc552686	-0.013009673
4	0x3d03328a	0.03203062
5	0xbc45a75f	-0.01206383
6	0x3a36222a	0.000694784
7	0x3c895240	0.016762853
8	0xbcf3a54f	-0.029741911
9	0x3c5de5f7	0.013543597
10	0xbd9d5646	-0.07682471
11	0xbcc40f05	-0.023932943
12	0x3cb4b7c3	0.02206028
13	0x3b6eafd5	0.0036420722
14	0xbbb122a9	-0.005405743
15	0xbc8d633a	-0.017259229
16	0x3d39577f	0.04524946
17	0x3c0c62aa	0.008568445
18	0xbb9c28d6	-0.00476561
19	0xbd153949	-0.036431585
20	0xbc1f969d	-0.009740499
21	0xba5ec1b8	-0.0008497494
22	0x3b33d776	0.0027441657
23	0x3d0d3a53	0.03447945
24	0xbc9d8cb9	-0.01923214
25	0xbbf04743	-0.007332714
26	0x3bc78918	0.006089341
27	0x3c1edc1e	0.009696035
28	0xbc5bdf31	-0.013419912
29	0x3ccbbde8	0.024870828
30	0xbc517c7d	-0.012786028
31	0x3bee0840	0.007264167
32	0x3ce06cfb	0.027395716
33	0x3c1c6f38	0.009548001
34	0x3ce2c395	0.027681151
35	0x3d5a9f5f	0.053374644
36	0xbc215114	-0.009845991
37	0x3d325c5a	0.043545105
38	0x3cf6d111	0.030128988
39	0x3ceb04b0	0.028688759
40	0xbc73b93b	-0.014875705
41	0xbb5cccc6	-0.003369139
42	0xbcb258b6	-0.021770816
43	0x3d3fa043	0.046783697
44	0x3d3283be	0.04358267
45	0x3d4d7ee7	0.05016985
46	0xbc6afa42	-0.014341893
47	0x3ba18acf	0.0049298774
48	0x3b803b88	0.0039133467
49	0xbd325b6f	-0.04354423
50	0x3d24c6c8	0.040228635
51	0xbcb17653	-0.021662867
52	0xba19fac2	-0.00058738526
53	0x3cb54769	0.022128778
54	0xbc70b78b	-0.014692198
55	0x3c88ae77	0.016684754
56	0x3d49ddaf	0.04928368
57	0x3c9f258d	0.019427085
58	0x3c22b421	0.009930641
59	0x3d085651	0.033285443
60	0x37a01660	1.9083905e-05
61	0xba6a45e9	-0.0008936809
62	0x39007b33	0.00012252927
63	0xbc9ca5ed	-0.019122088
64	0xbc5dd1ed	-0.01353882
65	0x3c4bb46e	0.0124331545
66	0x3ce97417	0.028497739
67	0x3cef933d	0.029245013
68	0xbbd486ee	-0.0064858114
69	0x3b596bb9	0.003317578
70	0x3cba46cb	0.022738835
71	0x3ca760aa	0.020431835
72	0xbc9f4ec4	-0.019446738
73	0x3a7a5c88	0.00095505314
74	0x3d22d1d0	0.039750874
75	0x3c5934fd	0.013257262
76	0x3d3563ae	0.044284515
77	0xbaf3115f	-0.0018544606
78	0x3d4c3b3a	0.04986117
79	0xbc8d19cb	-0.017224213
80	0x3b957383	0.004560889
81	0x3c064866	0.008195972
82	0x3d044e8d	0.032301474
83	0x3d1838e5	0.037163634
84	0x3c9db46e	0.019251075
85	0x3cb28ff6	0.021797162
86	0x3d1ad320	0.037799
87	0x3d9a96b0	0.075482726
88	0x3a95ec7c	0.0011438276
89	0xbb6f482f	-0.003651153
90	0x3bdad88c	0.0066786464
91	0x3aefb817	0.0018289116
92	0x3cc6e789	0.024280326
93	0x3cd4bea9	0.02596982
94	0x3c6b8771	0.0143755535
95	0x3d26ab97	0.040690985
96	0x3c9159fd	0.017743105
97	0x3caebf19	0.021331357
98	0xbca1ff1a	-0.019774962
99	0xbd2cd141	-0.042191748
100	0xbbb282cc	-0.005447721
101	0xbc87e0ca	-0.01658668
102	0x3c30cafb	0.010790582
103	0x3a9e9f65	0.0012101947
104	0xbba743f8	-0.005104538
105	0x3c3e8b0c	0.011629831
106	0xbca73080	-0.020408869
107	0xbd0978db	-0.033562522
108	0x39c4e7f8	0.00037556863
109	0x3c160026	0.009155309
110	0x3cb72b4a	0.022359509
111	0xbd0fafcd	-0.035079766
112	0xbba669a5	-0.005078512
113	0x3c637940	0.013883889
114	0x39b2cb1d	0.00034102137
115	0xbd29735e	-0.04136979
116	0xbc1241a8	-0.0089267865
117	0x3abceac5	0.0014413228
118	0x3bbdfa03	0.005797626
119	0x3c7fc957	0.015611968
120	0x3b070c86	0.002060683
121	0xbd2daf83	-0.04240371
122	0xbc97c865	-0.018528173
123	0x3c8a03dc	0.016847543
124	0xbc51ac5d	-0.012797442
125	0xbd4705ff	-0.048589703
126	0x3d411f5d	0.04714905
127	0x3cbb419e	0.022858437
128	0xbb353ada	-0.0027653486
129	0x3bd375b2	0.0064532394
130	0x3cf92ff4	0.030418374
131	0xbc2abaca	-0.010420511
132	0x3c3e6ab9	0.011622124
133	0x3a280a74	0.0006410249
134	0x3c7809f4	0.015139092
135	0x3caf659d	0.021410758
136	0x3c9cb5d4	0.019129671
137	0xba94908c	-0.0011334582
138	0xbc2e0868	-0.010622121
139	0xbcc633c9	-0.024194615
140	0x3c99ab3d	0.01875841
141	0xbc5147e1	-0.012773485
142	0x3aed1aee	0.0018089691
143	0x3b832136	0.004001762
144	0x3cbd59f2	0.023114178
145	0x3c55057c	0.013001796
146	0x3bc28010	0.0059356764
147	0x3cd681ce	0.026184943
148	0xbd3375e1	-0.04381359
149	0xbbfaf693	-0.0076587885
150	0xbcdfbdd3	-0.027312195
151	0xbcc05006	-0.023475658
152	0xbc36948d	-0.011143816
153	0xba03a17e	-0.00050213176
154	0x3bb5d3ee	0.0055489456
155	0xbc5339d2	-0.012892203
156	0xbc7e6684	-0.015527371
157	0xbb32df23	-0.0027293644
158	0x3c768b55	0.015047868
159	0xbcb65b59	-0.022260355
160	0x3bab441c	0.005226625
161	0x3abb7e1c	0.0014304551
162	0x3c95baa5	0.018277476
163	0xbc17ffbe	-0.009277282
164	0x3ba3c48a	0.0049977945
165	0xbcb79415	-0.022409478
166	0x3c986703	0.018603807
167	0x3aac8b20	0.0013164021
168	0xbc65a0f9	-0.01401543
169	0xbbb328a9	-0.0054674936
170	0x3bf313dc	0.007418139
171	0x3bb00683	0.00537187
172	0xbc6d2f53	-0.014476615
173	0x3cbdb254	0.023156323
174	0x3cd4fbcd	0.025998974
175	0x3c082ec9	0.008311936
176	0x3c2cdc88	0.010550626
177	0x3bb2216c	0.005436113
178	0xbca3b5fc	-0.019984238
179	0xba8565c6	-0.0010177426
180	0x3ac89233	0.001530236
181	0xbc5c29e2	-0.01343772
182	0xbccf160d	-0.02527907
183	0x3c045d6d	0.008078915
184	0x3cdfefba	0.02733599
185	0x3d19eef8	0.037581414
186	0xbcd828eb	-0.026386699
187	0x3b0bb358	0.0021316614
188	0x3d1bb645	0.038015623
189	0x3cc317ac	0.023814999
190	0xb8e0ebd6	-0.0001072508
191	0xbb35a2d2	-0.0027715457
192	0x3c205d20	0.009787828
193	0xbbba7719	-0.005690467
194	0xbbff4c67	-0.0077910903
195	0x3c073c2d	0.008254093
196	0xbd3374e3	-0.043812644
197	0x3c0504fa	0.008118862
198	0xbc715ae0	-0.014731139
199	0x3b18cbdf	0.0023314876
200	0x3d585633	0.05281658
201	0x3b847122	0.004041807
202	0x3c050d89	0.008120903
203	0xbd3a66ed	-0.045508314
204	0x3b45f393	0.0030204996
205	0xbcb44629	-0.022006111
206	0xbc67636e	-0.014122827
207	0xbc6a97a2	-0.014318379
208	0xbb133215	-0.002246027
209	0x3be3bb87	0.0069498452
210	0xbac92b7e	-0.0015348045
211	0x3d16bf67	0.03680363
212	0xbd083f38	-0.033263415
213	0xbb9e7cbe	-0.004836648
214	0xbcfd6669	-0.030932622
215	0x3b480cb4	0.003052515
216	0xbb63b332	-0.003474426
217	0xbcae5e44	-0.021285184
218	0xbc82f45e	-0.015985664
219	0x3c731b04	0.014837984
220	0x3c30a60a	0.010781774
221	0xbc163110	-0.009166971
222	0xbce18d4e	-0.0275332
223	0xbbaac392	-0.005211302
224	0x3c18e6ce	0.009332372
225	0x3c3459d7	0.011007748
226	0x3d08e0e2	0.03341759
227	0xbc633504	-0.01386762
228	0x3cf854c0	0.03031385
229	0x3b5dbf8b	0.0033836092
230	0xbcac547c	-0.021036379
231	0xbcf253ce	-0.029580977
232	0xbbea14c5	-0.007143589
233	0xbceae5d4	-0.028674044
234	0xbbcdff16	-0.006286512
235	0xbaa33329	-0.001245116
236	0xbcda40b4	-0.026642181
237	0x3c8e4feb	0.017372092
238	0x3c77ec73	0.0151320575
239	0x3b3c12de	0.002869777
240	0x3c6b2454	0.014351923
241	0x3ca89c1a	0.020582248
242	0x3d20a08f	0.03921562
243	0xbce8e740	-0.028430581
244	0x3c7ead7d	0.0155442925
245	0x3c054616	0.008134386
246	0x3c50ebcc	0.012751531
247	0x3d259692	0.0404268
248	0x3c16aae4	0.009196017
249	0xbbdb95ef	-0.006701223
250	0xbc0b12a7	-0.008488334
251	0x3d10ccb9	0.03535149
252	0xba794918	-0.0009509488
253	0xbc96d0b7	-0.01841007
254	0xbc1e0878	-0.009645574
255	0x3b55460a	0.0032542967

action_model._continuous_distribution.mu.bias f4 [2]
0	0xbc9ae5f7	-0.018908484
1	0xbbe300fb	-0.006927607

action_model._discrete_distribution.branches.0.weight f4 [2, 128]
0	0x3c0e4af1	0.00868486
1	0x3c86de6f	0.016463486
2	0x3c0a088b	0.008424888
3	0x3cda88d3	0.026676571
4	0xbce62463	-0.028093522
5	0x3cf6cfb1	0.030128332
6	0x3d6d6492	0.05795724
7	0x3c930c15	0.017950097
8	0x3c7ffce8	0.015624262
9	0x3bc357a2	0.0059613744
10	0x3cd851cf	0.026406197
11	0x3cdfc2bc	0.027314536
12	0x3cb65a09	0.022259729
13	0x3d25728e	0.04039245
14	0x3b9729d0	0.0046131387
15	0x3d10cc50	0.035351098
16	0xbd021ab5	-0.03176375
17	0x3d0bf6b3	0.034170818
18	0x3cbdad16	0.023153823
19	0x3d737182	0.05943442
20	0x3c52845b	0.012848939
21	0x3caaacad	0.020834291
22	0x3c3b8bcc	0.011446904
23	0xbd023112	-0.03178508
24	0x3d01a0bc	0.03164743
25	0x3d01d258	0.03169474
26	0x3d729cd6	0.0592316
27	0x3d2b6739	0.041846488
28	0x3ca4f6a2	0.020137135
29	0x3ca11fc6	0.019668471
30	0x3c9a6864	0.018848605
31	0x3d0e0ad3	0.03467829
32	0x3d5fb280	0.05461359
33	0x3d12de2e	0.03585642
34	0xba85a436	-0.0010196033
35	0x3d1ab2e0	0.037768245
36	0x3c603ea5	0.013686811
37	0x3ca9e03b	0.020736804
38	0x3ce3f275	0.027825573
39	0xbbbac3fd	-0.005699633
40	0x3c14fe55	0.009093841
41	0xbc1e906d	-0.0096779885
42	0xbb1f0b10	-0.0024268068
43	0x3ca40d46	0.02002586
44	0xbccb334f	-0.02480474
45	0xbcf8d302	-0.030374054
46	0x3ce7dd5c	0.028303795
47	0xbd373a9a	-0.04473362
48	0x3d189ba3	0.0372578
49	0x3ca874cc	0.020563506
50	0xbca4779b	-0.020076564
51	0x3c96079a	0.018314172
52	0x3d3dbf57	0.046325054
53	0x3c10af28	0.008830823
54	0x3bd36fe6	0.0064525483
55	0x3bc29bea	0.0059389966
56	0xbd2bca89	-0.0419412
57	0x3c3ed97a	0.01164853
58	0x3c6fa10d	0.0146258
59	0x3cfaa6ff	0.030597208
60	0x3cc9db7c	0.024640791
61	0x3bcc7a54	0.0062401686
62	0x3d2a1cdb	0.041531425
63	0xbc4984e1	-0.012299747
64	0x3bf16a62	0.007367418
65	0x3d2de065	0.042450327
66	0x3b9e6367	0.004833627
67	0xbcaef6ee	-0.02135798
68	0x3cac55f3	0.021037078
69	0x3d06d375	0.032916505
70	0xbce58ccf	-0.028021244
71	0x3c60cfa3	0.013721379
72	0x3b4c2a3a	0.0031153099
73	0xbc1786fd	-0.009248492
74	0x3c7c2b4a	0.01539118
75	0x3bb8a943	0.005635412
76	0xbd0b53b6	-0.03401538
77	0x3d1f7ed7	0.038939323
78	0x3a6191e5	0.0008604809
79	0x3caf2f72	0.021384928
80	0x3b281bfa	0.002565144
81	0x3c9f5d37	0.019453628
82	0xbd37df36	-0.044890605
83	0xbd167c54	-0.036739662
84	0x3c772c44	0.015086237
85	0x3cd55e35	0.026045898
86	0x3cbb2f67	0.022849752
87	0xbd134c36	-0.035961352
88	0x3c995fce	0.018722441
89	0xbcec9618	-0.028880164
90	0xbc306b09	-0.010767707
91	0xbd03460b	-0.03204922
92	0x3bfafc5b	0.0076594776
93	0xbd059d8f	-0.032620963
94	0x3bb458dc	0.005503757
95	0xbd2a18ab	-0.04152743
96	0x3c7ecb83	0.015551451
97	0x3cc63d5b	0.024199178
98	0x3c08f85d	0.008359996
99	0x3cca3554	0.024683632
100	0x3c8c91cc	0.017159365
101	0x3cbb897f	0.022892712
102	0x3cb3ff42	0.021972302
103	0x3c686888	0.014185078
104	0x3cd6b354	0.026208557
105	0xbcb69daf	-0.022291986
106	0x3d190bae	0.037364654
107	0x3ce20fc6	0.027595412
108	0x3c90a72b	0.017657837
109	0x3c731d3d	0.014838514
110	0xbcc3f4e2	-0.02392048
111	0x3c944d07	0.018103136
112	0x3d8c7d97	0.06859892
113	0x3d950e06	0.072780654
114	0xbc094ad7	-0.00837966
115	0x3ca51934	0.02015362
116	0x3ccc4376	0.024934512
117	0xbb41ebed	-0.0029590086
118	0x3c82ba91	0.015958102
119	0x3bdae09f	0.006679609
120	0xbd0194dd	-0.031636108
121	0x3d37bd31	0.04485816
122	0x3ccf3ea7	0.02529843
123	0x3c827896	0.01592664
124	0x3ce1c765	0.027560899
125	0x3cc9ec62	0.024648849
126	0xbbec1c0d	-0.0072054924
127	0x3cc1ea4d	0.023671294
128	0xbc12efb9	-0.008968287
129	0xbc0b806b	-0.008514504
130	0xbc8c55b8	-0.017130718
131	0xbcba728d	-0.0227597
132	0x3ce95b46	0.028485905
133	0xbd0b5a0c	-0.034021422
134	0xbd3cca17	-0.046091165
135	0xbd07b90a	-0.03313545
136	0xbc94b86b	-0.018154344
137	0xbbf1f618	-0.007384073
138	0xbd12fe54	-0.035887077
139	0xbcdfea6f	-0.027333466
140	0xbc01a2e7	-0.007912374
141	0xbd23ce3c	-0.039991602
142	0xba784a68	-0.00094715366
143	0xbd2a2767	-0.041541483
144	0x3d02003a	0.031738497
145	0xbd0a7129	-0.033799324
146	0xbcd283f0	-0.025697678
147	0xbd521d38	-0.051297396
148	0xbca78bc5	-0.02045239
149	0xbcba744d	-0.022760535
150	0xbc6f2877	-0.01459705
151	0x3ccc9985	0.024975548
152	0xbd0b1cb0	-0.033962905
153	0xbca8d2ed	-0.02060839
154	0xbd2da91f	-0.042397615
155	0xbcdef2eb	-0.027215442
156	0xbbcb936f	-0.006212644
157	0xbc4ebcfe	-0.012618301
158	0xbcf01e2a	-0.029311258
159	0xbd0324eb	-0.03201763
160	0xbd3a6760	-0.045508742
161	0xbc859a00	-0.016308784
162	0xbc3e6d5d	-0.011622754
163	0xbc7b07a4	-0.015321646
164	0xb816f69c	-3.599246e-05
165	0xbcfc0aa3	-0.03076679
166	0xbc32ed48	-0.01092083
167	0x3c38c01f	0.011276274
168	0x3b30e381	0.0026991072
169	0x3b2522c3	0.0025197722
170	0xbc5bf706	-0.013425594
171	0xbcb49b28	-0.02204664
172	0x3c04bec2	0.008102121
173	0x3cf42173	0.029801106
174	0xbcad5d2e	-0.021162596
175	0x3d434d12	0.04768092
176	0xbd0ee08a	-0.034882106
177	0xbc2bc21e	-0.010483293
178	0x3c904a0d	0.017613435
179	0xbcbfdca3	-0.023420637
180	0xbd470129	-0.04858509
181	0xbc5fc05c	-0.013656702
182	0x3b4397dd	0.0029845156
183	0xbc939312	-0.018014465
184	0x3d1bea8b	0.038065474
185	0xbba1dc2e	-0.0049395775
186	0xbb9e0470	-0.0048223063
187	0xbd11984f	-0.035545643
188	0xbc670ab5	-0.014101674
189	0xbc5b7f18	-0.013397001
190	0xbcc23a01	-0.023709299
191	0xbcb66395	-0.022264281
192	0xbb707768	-0.0036692265
193	0xbd2fe29b	-0.042940717
194	0xbc8fef1e	-0.017570075
195	0x3c930d7d	0.017950768
196	0xbccaf16d	-0.024773324
197	0xbcb3d84a	-0.02195372
198	0x3c7f7601	0.015592099
199	0xbc6282ad	-0.013825101
200	0xbc9be520	-0.019030154
201	0xbaac0ce7	-0.0013126404
202	0xbac50cb9	-0.0015033699
203	0x3c2f3594	0.010693926
204	0x3d24cdae	0.040235214
205	0xbcf37730	-0.029719919
206	0xbc3b4e0b	-0.011432181
207	0xbabb3cf0	-0.0014285129
208	0xbb5a0573	-0.0033267408
209	0xbc890d6e	-0.016730037
210	0x3c939cef	0.018019168
211	0x3d054b41	0.03254247
212	0xbb31f613	-0.0027154728
213	0xbb38cda8	-0.0028198753
214	0xbca9bced	-0.02071997
215	0x3d3d81ed	0.046266485
216	0xbd0cff97	-0.034423437
217	0x3cc7fbeb	0.024412116
218	0xbb10407d	-0.0022011094
219	0x3ca79fa8	0.020461872
220	0x3c277624	0.010221038
221	0x3d0246eb	0.031805914
222	0x3af5c7c9	0.0018751557
223	0x3d1c95b0	0.03822869
224	0xbc863d56	-0.01638667
225	0xbc8bd650	-0.017069966
226	0xbcb89222	-0.022530619
227	0xbce91804	-0.028453834
228	0xbc89f008	-0.016838089
229	0xbd14c6ea	-0.03632251
230	0xbcb67d88	-0.022276655
231	0xbd1344db	-0.035954338
232	0xbc9cff99	-0.019164847
233	0x3d068121	0.03283799
234	0xbce52a43	-0.027974254
235	0xbcbcd448	-0.023050442
236	0xbd105920	-0.035241246
237	0xbd347780	-0.044059277
238	0x3ce2672b	0.027637085
239	0xbcb2a4bb	-0.021807065
240	0xbd2def80	-0.042464733
241	0xbd89f7c3	-0.0673671
242	0xbb8e060c	-0.004334217
243	0xbd08b33b	-0.033374052
244	0xbc6ff33d	-0.014645395
245	0xbb252d57	-0.0025204027
246	0xbcb3870f	-0.021914987
247	0x3b48aff0	0.0030622445
248	0x3ca7fe91	0.020507129
249	0xbd3f1c03	-0.046657573
250	0xbd04afc0	-0.03239417
251	0xbca1337d	-0.019677872
252	0xbd1471da	-0.03624139
253	0xbd4068fb	-0.046975117
254	0xbb3aee15	-0.0028523256
255	0xbc8e509f	-0.017372428

action_model._discrete_distribution.branches.0.bias f4 [2]
0	0x3cca8bc3	0.024724847
1	0xbcca8bbd	-0.024724836
