Assets/Models/CameraSensor/ButtonPress.onnx (onnx, 107116 bytes, 9 tensors)

network_body._body_endoder.seq_layers.0.weight f4 [128, 69]
0	0xbb4d6c80	-0.0031345189
1	0x3e890704	0.26763165
2	0x3e61d911	0.2205546
3	0x3c96c1d6	0.018402975
4	0xbd77132f	-0.06032103
5	0xbdaa15c0	-0.0830493
6	0xbda58b55	-0.08083216
7	0x3da72d29	0.081629105
8	0xbd2d2817	-0.04227456
9	0x3e0bb4d4	0.13643199
10	0xbe0d2300	-0.13782883
11	0x3cadfaef	0.021237819
12	0x3c744740	0.014909565
13	0xbdacda9d	-0.08440135
14	0xbd9cc6e7	-0.07655125
15	0x3b1ee777	0.002424685
16	0xbdba6ae5	-0.0910242
17	0xbd077f02	-0.03308011
18	0x3dafb093	0.08578601
19	0x3c88de7d	0.016707653
20	0x3d5c746a	0.05382196
21	0xbdc3bfaf	-0.09558045
22	0x3d6c0140	0.05761838
23	0x3cf0c2af	0.029389707
24	0xbd208496	-0.039188944
25	0xbd2b3145	-0.041795034
26	0x3de7f526	0.11326055
27	0xbd7fc9be	-0.062448256
28	0xbdf20991	-0.11818231
29	0xbd33a91b	-0.043862443
30	0x3d2990eb	0.04139797
31	0xbcc7d69d	-0.024394328
32	0xbc0d4835	-0.0086231725
33	0x3cf77e21	0.03021151
34	0x3d9ea645	0.07746557
35	0xbd97d934	-0.07414475
36	0xbe81552d	-0.25260296
37	0xbd505f5f	-0.050872203
38	0x3d128fd4	0.035781696
39	0x3da5c3a8	0.08093959
40	0x3dc85da8	0.097834885
41	0xbe4f3799	-0.20236053
42	0xbe602160	-0.21887732
43	0x3d6cb43e	0.05778908
44	0xbc40e4d4	-0.011773307
45	0xbcdec49f	-0.027193366
46	0x3e91adc2	0.2845288
47	0xbd0cacef	-0.03434461
48	0x3d13afb6	0.036056243
49	0x3d81ddde	0.06341146
50	0xbd93ac0a	-0.07210548
51	0xbccfa189	-0.02534558
52	0x3c96504e	0.01834884
53	0x3dd58c7f	0.10427188
54	0x3bf2aee1	0.007406101
55	0x3dcc4c7b	0.09975525
56	0xbdb64032	-0.08898963
57	0xbc490f36	-0.012271693
58	0xbde0016b	-0.109377705
59	0x3c417640	0.011807978
60	0x3d3ef757	0.0466226
61	0x3c924980	0.017857313
62	0x3d9a6122	0.07538058
63	0xbe982187	-0.2971308
64	0xbc57a87a	-0.013162727
65	0x3bbdae68	0.005788613
66	0xbdbe5cc2	-0.09295036
67	0x3da225ba	0.07917352
68	0xbe028756	-0.12746939
69	0xbd249956	-0.040185295
70	0x3df21c73	0.118218325
71	0x3a688214	0.0008869481
72	0x3e1930bb	0.14959995
73	0xbdc136f0	-0.094343066
74	0xbd2ef9d2	-0.042718716
75	0x3d732293	0.059359144
76	0xbe4b39fe	-0.19846341
77	0x3d1b5cfb	0.03793047
78	0x3e310329	0.17286362
79	0xbea8e8c4	-0.32990086
80	0x3d81401b	0.06311055
81	0x3d2d80ab	0.042359035
82	0xbe2a2c4f	-0.16618465
83	0x3cf1dd4b	0.029524466
84	0x3d164a33	0.036691856
85	0x3d92cbbd	0.07167766
86	0x3d73e3d4	0.059543446
87	0x3db3b1d7	0.08774155
88	0x3e56333c	0.20917982
89	0xbe5dc187	-0.21655856
90	0x3daea4de	0.0852754
91	0xbd677113	-0.05650432
92	0xbd18efdf	-0.037338134
93	0xbcb33ab4	-0.021878578
94	0xbd409a88	-0.047022372
95	0x3ea595f1	0.3234096
96	0xbe062560	-0.13100195
97	0xbcf8e25d	-0.030381376
98	0x3da34122	0.079714075
99	0xbd7cb729	-0.061698113
100	0xbddf8f63	-0.10916021
101	0xbe28bc09	-0.1647798
102	0xbd7cedac	-0.0617501
103	0xbe8dd73c	-0.27703273
104	0xbe5a4061	-0.21313621
105	0xbc8838ab	-0.016628584
106	0xbe06e39d	-0.13172765
107	0x3cfebd46	0.031096112
108	0x3d23e92e	0.0400173
109	0xbd07bc42	-0.03313852
110	0xbca3ab7f	-0.019979237
111	0xbe170961	-0.14749672
112	0xbd4bf505	-0.049794216
113	0xbe1e3bd4	-0.1545251
114	0xbe0e9de2	-0.13927415
115	0xbcf0838a	-0.029359598
116	0xbd708579	-0.05872104
117	0x3e14f703	0.14547352
118	0xbe67abd1	-0.22624137
119	0xbda114c4	-0.07865289
120	0xbe339423	-0.17536978
121	0xbb1a3e5e	-0.002353571
122	0xbe9c2327	-0.3049557
123	0x3e0c709a	0.13714829
124	0x3d708964	0.058724776
125	0x3a682963	0.0008856265
126	0xbd02947e	-0.031879894
127	0x3d0c28bb	0.03421853
128	0x3dcdb26a	0.100437954
129	0xbd561e7a	-0.05227516
130	0xbd1ed4fd	-0.03877734
131	0xbda244f1	-0.07923306
132	0xbcf68572	-0.030092929
133	0xbeb4f41d	-0.35342494
134	0x3dfd0b67	0.123556904
135	0x3d4a0ca0	0.049328446
136	0xbe7d71fd	-0.24750514
137	0xbe81264d	-0.25224534
138	0x3d962e9c	0.07333109
139	0x3d765e5d	0.060148586
140	0xbda7c9fa	-0.08192821
141	0xbe145171	-0.14484192
142	0xbdb1677f	-0.086623184
143	0xbb23b6c7	-0.002498077
144	0xbe1b46bd	-0.15163703
145	0xbe1819c4	-0.14853579
146	0xbd6e386a	-0.05815927
147	0xbdfa6976	-0.12227146
148	0xbd699605	-0.057027835
149	0xbe155d40	-0.14586353
150	0xbecd5ca4	-0.40109742
151	0x3bb71a04	0.005587818
152	0x3df19c23	0.11797359
153	0xbdad1caf	-0.084527366
154	0x3cb6d4a4	0.022318192
155	0x3c6cbcc2	0.0144493
156	0x3d3de7b0	0.046363533
157	0xbde8954b	-0.113566004
158	0x3cd663ff	0.026170729
159	0xbe4026c7	-0.18764792
160	0xbde03332	-0.10947265
161	0xbd4bc09a	-0.049744226
162	0x3df4b96c	0.11949429
163	0xbde46772	-0.11152543
164	0xbe7acf3f	-0.2449312
165	0xbdfc1da0	-0.12310338
166	0x3c97b8d1	0.018520745
167	0xbc2952fd	-0.010334727
168	0xbe1d6f4a	-0.15374485
169	0xbe89df04	-0.2692796
170	0x3e028125	0.12744577
171	0x3e86db92	0.26339394
172	0xbd0f7183	-0.035020363
173	0xbe90e2b4	-0.2829796
174	0x3e54a5fa	0.2076644
175	0x3c2c1251	0.010502414
176	0x3e7135c2	0.23555663
177	0xbda17535	-0.078836836
178	0xbd160cf4	-0.036633447
179	0x3d2eabb5	0.04264422
180	0xbe11e8c8	-0.14248955
181	0xbd03e368	-0.032199293
182	0x3d0b21e6	0.033967875
183	0x3e41259b	0.18862002
184	0x3ddada79	0.106862016
185	0xbe67576d	-0.22591944
186	0x3e23c516	0.15993151
187	0x3d391567	0.045186426
188	0xbe0af422	-0.13569692
189	0x3c8d1ec1	0.017226579
190	0xbe333b0c	-0.17502993
191	0x3e649d66	0.22325668
192	0x3e77ec5b	0.24211256
193	0x3da1afa7	0.07894831
194	0x3dd0d950	0.10197699
195	0x3cf60f31	0.03003654
196	0x3d84601e	0.064636454
197	0xbe5c739a	-0.21528473
198	0xbdab0572	-0.08350648
199	0xbe24a8f5	-0.16080077
200	0xbcef90f3	-0.029243922
201	0x3daceda7	0.08443766
202	0xbe456b4d	-0.19279213
203	0xbcbd253b	-0.023089042
204	0xbd8152e1	-0.06314636
205	0x3e365707	0.17806636
206	0x3df03dec	0.11730561
207	0x3d834e66	0.06411438
208	0xbe25a895	-0.1617759
209	0xbdd0e109	-0.10199172
210	0xbe1dee1d	-0.15422864
211	0xbe825c8c	-0.25461233
212	0xbd9bbc3d	-0.07604263
213	0xbdfa0c57	-0.12209385
214	0x3e22567a	0.158533
215	0xbd0ddd74	-0.034635022
216	0xbd9c8210	-0.07641995
217	0x3a33675b	0.0006843709
218	0x3e03f4f4	0.12886411
219	0xbe342a22	-0.17594197
220	0xbcea9f14	-0.028640307
221	0x3c73b71d	0.014875201
222	0x3dee6bdc	0.11641666
223	0xbdeac652	-0.11463608
224	0xbe68a145	-0.2271777
225	0x3e9d732f	0.3075194
226	0x3e7d4550	0.24733472
227	0x3c5eafac	0.013591688
228	0x3e0997df	0.1343684
229	0xbe5b68c2	-0.2142668
230	0x3d3e236a	0.046420492
231	0x3e0119c4	0.12607485
232	0x3de8ccc1	0.11367179
233	0x3d8dde53	0.069271706
234	0x3daa8d9f	0.08327793
235	0x3e362272	0.17786577
236	0xbc9ce04e	-0.019149926
237	0xbdd3aa15	-0.10335175
238	0x3e25d888	0.16195881
239	0xbdf4833e	-0.11939095
240	0xbaaef935	-0.0013349416
241	0x3e6ef594	0.23335868
242	0xbe17fad9	-0.14841785
243	0x3cc1b807	0.023647321
244	0x3d98db4b	0.07463702
245	0x3e6f4f30	0.23370051
246	0x3e4645b7	0.19362532
247	0x3e0b7432	0.13618544
248	0xbdec9c9e	-0.1155331
249	0x3e182298	0.14856946
250	0x3e368efd	0.17827983
251	0x3df9a5cb	0.121898256
252	0x3d4ac73b	0.049506407
253	0x3baafd7f	0.0052182074
254	0x3de84020	0.11340356
255	0x3e0b357d	0.13594623

network_body._body_endoder.seq_layers.0.bias f4 [128]
0	0xbd25e2b3	-0.0404994
1	0xbd358d82	-0.044324405
2	0xbcd2df47	-0.025741233
3	0x3cc41864	0.023937412
4	0xbc901684	-0.017588861
5	0xb9946609	-0.00028304782
6	0x3cc50860	0.024051845
7	0x3cdaa501	0.026690008
8	0x3cc77ef0	0.02435252
9	0xbcac7de3	-0.021056121
10	0x3b81f136	0.003965522
11	0xbcda96b4	-0.026683189
12	0x3d76b8a9	0.0602347
13	0x3c1c7309	0.009548911
14	0x3d3710fe	0.04469394
15	0x3c4dd549	0.012563058
16	0x3cc24dd0	0.023718745
17	0x3baeb13d	0.005331187
18	0xbc9c9a77	-0.019116623
19	0x3b94fdc4	0.004546853
20	0xbcad539f	-0.021158038
21	0x3ce555db	0.02799504
22	0x3b4aa6c5	0.0030922156
23	0x3ce215f2	0.027598355
24	0x3c51b855	0.012800296
25	0xbbdb1030	-0.0066852793
26	0xbcd0792f	-0.02544841
27	0xbc4eab37	-0.012614063
28	0xbba654bb	-0.0050760186
29	0x3d1b1f4c	0.037871644
30	0x3c89da3c	0.016827695
31	0x3c571483	0.013127449
32	0x3ca75d8b	0.020430347
33	0x3b90845d	0.00441031
34	0x3d487108	0.04893592
35	0xbd883267	-0.066502385
36	0xbcdd3265	-0.027001569
37	0xbb512443	-0.0031912483
38	0xbd2da92e	-0.04239767
39	0x3dc5d0bb	0.09658953
40	0x3c854a06	0.016270649
41	0xbc328e5a	-0.010898197
42	0xbcaed19f	-0.02134019
43	0xbc568f24	-0.013095651
44	0x3c2734dc	0.010205474
45	0xbcbda19e	-0.023148354
46	0x3c4cf85e	0.012510387
47	0xbbb13110	-0.00540746
48	0x3d1d2a74	0.038370565
49	0x3c9aa51b	0.018877557
50	0x3c18bef3	0.00932287
51	0xbd3b05af	-0.045659717
52	0x3d1c0fa9	0.038100872
53	0x3ccfa614	0.025347747
54	0x3c8fd302	0.017556671
55	0xb993507f	-0.00028098
56	0x3c16506c	0.0091744475
57	0x3c1985aa	0.009370247
58	0x3cd4f66e	0.025996413
59	0xbc5fc2b3	-0.01365726
60	0xbd097fd3	-0.03356917
61	0x3cdd9819	0.027050065
62	0xbc1efef5	-0.009704341
63	0x3cbc8526	0.023012709
64	0x3cd39286	0.025826704
65	0x3c907d60	0.017637908
66	0xbcece552	-0.028917942
67	0x3cac5ff4	0.021041848
68	0x3b9cb7d3	0.0047826557
69	0x3d49f9aa	0.049310364
70	0x3cdf0f47	0.027228964
71	0x3d9fcc1c	0.07802603
72	0x3cc4b40a	0.02401163
73	0x3bfc8a0b	0.0077068857
74	0x3d17c5de	0.037053935
75	0x3b216ff2	0.0024633375
76	0xbb7874b1	-0.003791135
77	0xbaa683bb	-0.0012704054
78	0xbd1b3f82	-0.037902363
79	0x3d100693	0.03516252
80	0x3d688d5e	0.056775443
81	0x3bc8ab76	0.0061239554
82	0xba2dc5c9	-0.00066288986
83	0xbc58ce94	-0.013232846
84	0x3d4dabbd	0.05021261
85	0x3cf8ee5d	0.030387098
86	0x3c61f555	0.013791402
87	0xbc9eda65	-0.019391248
88	0xbc1fd14b	-0.009754489
89	0x3cc61cc4	0.024183638
90	0x3d654543	0.055974256
91	0xbb0aa9d7	-0.0021158361
92	0x3d5adacf	0.05343133
93	0x3cd080b4	0.025451995
94	0x3cd5bd76	0.026091319
95	0xbd11f5e3	-0.035634886
96	0x3c1b79e6	0.009489512
97	0x3ca0f119	0.019646214
98	0x3cfb5d26	0.030684065
99	0x3d50ae6c	0.05094759
100	0x3d56faf6	0.05248543
101	0x3d626168	0.055268675
102	0xbcb215c4	-0.021738894
103	0x3c2f6dfc	0.010707375
104	0x3c56fc63	0.013121697
105	0xbc924ca3	-0.017858809
106	0x3cf2d394	0.029641904
107	0xbc137da2	-0.009002121
108	0x3cffb62a	0.031214792
109	0x3d90c401	0.07068635
110	0xbcc8db75	-0.024518708
111	0xbd13d10c	-0.036088035
112	0xbce7c928	-0.028294161
113	0xbbc9a859	-0.006154102
114	0x3cb0a0fb	0.021561136
115	0x3c0c9bd6	0.008582076
116	0x3b742cfc	0.0037258258
117	0xbc757337	-0.014981083
118	0x3ce94da6	0.028479408
119	0x3aa4fbc3	0.0012587238
120	0x3c165ee2	0.009177895
121	0xbd09d60a	-0.03365139
122	0x3ccefea5	0.025267908
123	0x3cf6e7ff	0.030139921
124	0x3bc5429a	0.0060199024
125	0xbc733bf7	-0.01484584
126	0xbb996c6d	-0.004682115
127	0xbc0d8b96	-0.008639237

network_body._body_endoder.seq_layers.2.weight f4 [128, 128]
0	0xbb00d5b3	-0.0019658625
1	0x3e1136c4	0.14181048
2	0xbd3e3a7d	-0.046442498
3	0x3e24942a	0.16072145
4	0xbca0e4a7	-0.01964028
5	0x3e6d6a37	0.23185049
6	0x3e00be21	0.12572528
7	0xbd70bb60	-0.058772445
8	0xbd589f87	-0.052886512
9	0xbd8adbc5	-0.06780199
10	0x3d43da46	0.047815584
11	0xbd105019	-0.035232637
12	0x3d051302	0.03248883
13	0xbdd05ba7	-0.10173731
14	0x3e577684	0.21041304
15	0x3d428708	0.047492057
16	0x3e247b39	0.1606263
17	0x3dd7a6dd	0.105298735
18	0x3d92f955	0.071764626
19	0x3d6a7cf0	0.057248056
20	0x3d351852	0.044212647
21	0x3e158a30	0.14603496
22	0x3e0e87aa	0.13918939
23	0x3d2b7e76	0.04186865
24	0xbe3dfe91	-0.1855414
25	0x3d928733	0.071546935
26	0xbe34869c	-0.17629474
27	0x3c46bf7e	0.012130616
28	0xbde2df7c	-0.110777825
29	0xbd267fc5	-0.040649194
30	0x3db91e3f	0.09038972
31	0xbc95a22d	-0.018265808
32	0xbe4266f7	-0.1898459
33	0xbc172f3c	-0.00922757
34	0x3e2abac3	0.16672806
35	0x3d079657	0.03310236
36	0xbd9cda35	-0.07658807
37	0xbdcea2b8	-0.1008963
38	0x3ce124b3	0.02748332
39	0x3d91043e	0.07080887
40	0x3d7e3da2	0.062070496
41	0xbda91196	-0.082553074
42	0xbe0b857c	-0.13625139
43	0x3dd4cf78	0.10391134
44	0x3ddc6270	0.10760963
45	0x3daa3956	0.08311717
46	0x3bbe1ccc	0.0058017727
47	0x3da40875	0.080094256
48	0xbd7b7260	-0.061388373
49	0x3bb56ccd	0.0055366517
50	0x3e5c26dd	0.214992
51	0xbd6446f0	-0.055731714
52	0x3c775c09	0.0150976265
53	0xbd936148	-0.07196289
54	0x3d2354b5	0.039875705
55	0x3da43cee	0.08019434
56	0x3c91690c	0.017750286
57	0x3d0a2feb	0.033737104
58	0xbd51362f	-0.051077064
59	0x3c4bd3d0	0.012440637
60	0x3de114eb	0.10990318
61	0x3e8ec0b2	0.2788139
62	0xbd6f61ee	-0.058443002
63	0xbd61bc74	-0.055111364
64	0xbe8cba2b	-0.27485785
65	0xbd2ef235	-0.042711455
66	0x3def6bda	0.11690493
67	0x3e8112f0	0.2520976
68	0xbca38d3e	-0.01996481
69	0xbce51783	-0.027965313
70	0xbb2b6608	-0.0026153345
71	0xbd065a34	-0.03280087
72	0xbe23f264	-0.16010433
73	0x3cd6cb26	0.026219916
74	0x3e17c34c	0.14820594
75	0x3d2d7c8f	0.042355116
76	0xbd8c9d14	-0.06865898
77	0x3d22e5df	0.039770003
78	0x3df863b8	0.12128395
79	0xbdf42b98	-0.11922377
80	0xbd9a5b92	-0.07536997
81	0xbba5fe4a	-0.005065714
82	0x3e130061	0.14355613
83	0x3dab10c6	0.08352809
84	0xbe005166	-0.12531051
85	0xbe2b6e50	-0.167413
86	0x3c9942f4	0.018708684
87	0x3e096bd4	0.1342004
88	0xbcded1ff	-0.027199743
89	0x3e70298e	0.23453352
90	0xbda1ce32	-0.07900657
91	0x3e32e776	0.17471108
92	0xbdadfa0b	-0.084949575
93	0xbdc9edee	-0.098598346
94	0x3b4be562	0.0031112065
95	0x3c8ccae8	0.017186597
96	0x3d4812db	0.048846107
97	0x3e3ad72d	0.18246146
98	0x3cbf15fd	0.023325915
99	0x3c921430	0.017831892
100	0xbdbb8d9f	-0.091578715
101	0xbd38256f	-0.044957574
102	0x3d0691b9	0.032853816
103	0x3cd97beb	0.026548347
104	0xbbcb4370	-0.0062031075
105	0x3d55e607	0.052221324
106	0x3d849db6	0.064753935
107	0xbdca1d5d	-0.09868882
108	0xbe0cfcd2	-0.13768318
109	0x3d915e39	0.0709805
110	0xbe40e572	-0.18837526
111	0x3e10af73	0.14129429
112	0x3ddba424	0.10724667
113	0xbcbf1b26	-0.023328375
114	0xbce299a6	-0.027661156
115	0x3e38fd3a	0.18065348
116	0xbd87b5f3	-0.06626501
117	0xbd9fa49e	-0.0779507
118	0x3bf86bdf	0.0075812186
119	0xbbca3ecd	-0.006172037
120	0x3e5d48cd	0.21609803
121	0xbca5889e	-0.020206746
122	0x3da23ee3	0.07922151
123	0x3d1b888e	0.037972026
124	0xbd94999b	-0.072558604
125	0x3e2b5a7c	0.16733736
126	0x3d53421c	0.05157672
127	0x3e50eada	0.20402089
128	0x3c69f651	0.014279918
129	0xbddfe973	-0.10933199
130	0xbe62a542	-0.22133353
131	0x3ca1b44c	0.019739293
132	0xbdec1f71	-0.115294345
133	0x3dea9644	0.11454442
134	0xbd84cd0d	-0.06484423
135	0xbd7ae6df	-0.061255332
136	0x3d530e99	0.051527593
137	0x3dd2af9e	0.102874026
138	0x3cc1fbef	0.023679702
139	0xbe3598ec	-0.17734116
140	0x3bb84a18	0.005624067
141	0xbe09a925	-0.1344343
142	0x3d5047ef	0.05084985
143	0x3cc385bb	0.023867479
144	0x3cb4b702	0.022059921
145	0xbdd28102	-0.102785125
146	0xbd5f2d65	-0.05448665
147	0xbe20756f	-0.15669797
148	0x3d68e841	0.05686212
149	0xbcc053d4	-0.023477472
150	0x3d9f2f30	0.07772672
151	0x3db9669f	0.090527765
152	0x3d09c03d	0.0336306
153	0xbd10ff20	-0.035399556
154	0xbda35c4c	-0.079765886
155	0xbc84d33b	-0.016214004
156	0xbbedb5b4	-0.0072543267
157	0xbd16a118	-0.036774725
158	0x3cc461d8	0.023972437
159	0x3d1fc8f2	0.039009996
160	0xbcc9e91a	-0.024647284
161	0xbe26d981	-0.16293909
162	0x3e2e1d82	0.17003444
163	0xba22e054	-0.0006213237
164	0xbc03248b	-0.008004318
165	0x3dee0d52	0.116236344
166	0x3db6e810	0.08930981
167	0x3d35c164	0.044373885
168	0xbda9b5a1	-0.08286596
169	0xbe1ccbac	-0.1531207
170	0x3d8834ed	0.0665072
171	0x3dcec3d2	0.100959435
172	0xbd4221e0	-0.047395587
173	0x3d2d0836	0.04224416
174	0x3d0217e6	0.031761073
175	0xbd4b59c4	-0.049646154
176	0x3bda72a4	0.0066664983
177	0x3cc73685	0.02431799
178	0x3d477cdf	0.04870307
179	0x3e089803	0.13339238
180	0x3dffb0c9	0.12484891
181	0x3e08b4a2	0.13350156
182	0x3dcc3c83	0.09972479
183	0xbe539c24	-0.20665032
184	0xbd865675	-0.06559459
185	0x3e85e0e6	0.26148146
186	0x3de9d65a	0.114178374
187	0xbb1de06e	-0.002409007
188	0xbdce9b95	-0.10088269
189	0xbd368e6c	-0.044569418
190	0x3dd0ca4b	0.10194834
191	0x3d9536bd	0.07285831
192	0xbcef3b44	-0.029203065
193	0x3de6df3b	0.112730466
194	0xbde020ef	-0.109437816
195	0x3e38785e	0.18014666
196	0xbdc5858e	-0.09644614
197	0xbc016691	-0.007897989
198	0x3c7ea274	0.0155416615
199	0x3e811472	0.2521091
200	0xbda68188	-0.08130175
201	0x3d2826e4	0.041052714
202	0x3d57410e	0.052552275
203	0x3db8e480	0.09027958
204	0xbe1404c4	-0.14454943
205	0x3bc4f07f	0.0060101147
206	0x3dbf6deb	0.09347137
207	0xbd883069	-0.066498585
208	0xbdbf8b3f	-0.09352731
209	0xbcb3e6a7	-0.02196057
210	0xbd981748	-0.074263155
211	0xbc560852	-0.013063507
212	0x3e53a50b	0.20668428
213	0x3d882e00	0.06649399
214	0xbd5d23e9	-0.053989325
215	0x3de90752	0.11378349
216	0x3d8aab50	0.067709565
217	0xb89f517f	-7.596891e-05
218	0x3d8d2cb9	0.06893296
219	0xbe0eb6a8	-0.13936865
220	0x3d8efd95	0.06981961
221	0xbde19a37	-0.11015742
222	0x3e87b2d2	0.26503617
223	0x3de13ec2	0.10998298
224	0xbcae0d87	-0.021246685
225	0x3d435a8c	0.047693774
226	0xbdf23198	-0.118258655
227	0x3d8f18b4	0.069871336
228	0x3cd9cd73	0.026587224
229	0x3d2a5460	0.041584373
230	0xbd6f6899	-0.05844936
231	0x3d7a925a	0.061174728
232	0xbda34da7	-0.079737954
233	0xbc817ba2	-0.015806023
234	0xbdeccce0	-0.11562514
235	0x3e16e6a6	0.14736423
236	0xbc0dece4	-0.008662436
237	0x3b51d697	0.0032018775
238	0x3c545d7a	0.01296174
239	0xbe0360bb	-0.12829868
240	0xbca7eef9	-0.020499693
241	0x3d6c422e	0.0576803
242	0x3def7e58	0.1169402
243	0x3dd6235f	0.10455965
244	0x3e05b25a	0.13056317
245	0xbcff3e91	-0.031157764
246	0xbdae2115	-0.08502404
247	0x3cf425ce	0.029803183
248	0x3cdf7f9c	0.027282529
249	0xbd559e85	-0.05215313
250	0x3bf48094	0.007461617
251	0xbc858e95	-0.01630334
252	0x3d4277bc	0.04747747
253	0xbcb95435	-0.02262316
254	0x3dac40c3	0.0841079
255	0x3d7c3498	0.061573595

network_body._body_endoder.seq_layers.2.bias f4 [128]
0	0x3c8e7af7	0.017392619
1	0x3cb53a53	0.022122538
2	0xbc7ec299	-0.015549325
3	0x3c92b34a	0.017907757
4	0x3c3426c1	0.010995568
5	0x3d4cc378	0.0499911
6	0xbd434df5	-0.047681767
7	0xbc0247bb	-0.007951672
8	0x3c0ede1d	0.008719948
9	0xbcccedf1	-0.025015803
10	0x3bd0e193	0.006374547
11	0x3cccd06d	0.025001729
12	0xbcc4c640	-0.024020314
13	0xbbd5963a	-0.0065181525
14	0x3d1eaaec	0.038737223
15	0x3c3b79c9	0.01144261
16	0x3b9d38de	0.004798039
17	0xbc475e27	-0.012168444
18	0xbc3c0be4	-0.011477444
19	0xbae4cd71	-0.0017456246
20	0x3bb9964c	0.0056636687
21	0xbc4bade7	-0.012431598
22	0xbcc225d5	-0.02369968
23	0x3be2af19	0.006917846
24	0x3d9f8b81	0.0779028
25	0x3c28d608	0.010304935
26	0x3b88089d	0.0041514174
27	0x3ccd104f	0.02503219
28	0x3d643d7d	0.055722702
29	0xbc65338e	-0.013989342
30	0x3cf3084a	0.029667038
31	0x3b699b14	0.0035645412
32	0xbb79dc59	-0.0038125722
33	0xbc618e0b	-0.013766776
34	0xbb2da0c3	-0.0026493527
35	0x3cab7c74	0.020933367
36	0x3bce230a	0.006290798
37	0x3cd735b4	0.026270725
38	0x398db062	0.0002702503
39	0x3be1cf08	0.006891135
40	0xbcaa69b9	-0.020802366
41	0x3ca90b37	0.02063523
42	0x3d04d05c	0.03242527
43	0x3cda8f35	0.026679615
44	0x3cc2f84b	0.023800036
45	0xbc07d6d5	-0.008290966
46	0x3c7ceb42	0.015436949
47	0x3c15ac32	0.009135293
48	0x3d3a0a3a	0.04541991
49	0x3c7a9b97	0.015295885
50	0x3cdfe14f	0.027329115
51	0x3c0ef378	0.00872504
52	0xbd0e7849	-0.03478268
53	0xbb06b607	-0.0020555274
54	0xbcd8fb16	-0.026486915
55	0x3d1d1a58	0.0383552
56	0xbd0d55fb	-0.034505825
57	0x3b0ce3f7	0.0021498182
58	0x3cd2bd2f	0.025724975
59	0x3d275b09	0.040858302
60	0x3c8f425a	0.017487694
61	0xbb95d55a	-0.0045725526
62	0x3c4d5b84	0.012534026
63	0xbcbdf120	-0.023186266
64	0xbc5283d8	-0.012848817
65	0x3d29b6da	0.041434146
66	0xbc1f6300	-0.009728193
67	0x3c24135c	0.010014381
68	0x3cb3089b	0.02185469
69	0x3d17a6b3	0.03702421
70	0x38da8ef5	0.00010421678
71	0xbc9dbc3f	-0.019254802
72	0xbb0d808b	-0.002159151
73	0xbd1c05f0	-0.0380916
74	0x3cd0da57	0.025494738
75	0x3d0db86c	0.034599707
76	0xbc2ba06f	-0.010475262
77	0x3c834efc	0.016028874
78	0xbc0318b6	-0.008001497
79	0xbc1f33ac	-0.009716909
80	0xbc00d37e	-0.007862924
81	0xbb0efd03	-0.0021818287
82	0x3c152def	0.00910519
83	0xbbadec7d	-0.0053077326
84	0x3c206b0f	0.00979115
85	0x3b425467	0.0029652358
86	0xbbd637fa	-0.0065374346
87	0xbad25767	-0.0016047776
88	0x3ccfaa71	0.025349827
89	0xbb880073	-0.004150444
90	0x3cb810b0	0.022468895
91	0xbd3655c3	-0.044515382
92	0xbc8c7797	-0.017146869
93	0x3bd8439c	0.0065998565
94	0xbbf7752a	-0.007551809
95	0x3aed9c07	0.0018128165
96	0xbca62bbb	-0.020284524
97	0x3d322f4c	0.043502137
98	0x3c870826	0.016483378
99	0x3ca6cf03	0.020362383
100	0xbcb9a7f0	-0.022663087
101	0x3c4dfe4f	0.012572839
102	0x3d0ac1f8	0.03387639
103	0x3b6784c2	0.0035326933
104	0x3ba66cdf	0.0050788964
105	0x3c123ca3	0.00892559
106	0x3a548225	0.0008106551
107	0xbb9e13e0	-0.0048241466
108	0xb95a06e0	-0.00020792661
109	0xbc5ec2f6	-0.013596287
110	0xbd01baea	-0.031672396
111	0x3ce43901	0.027859213
112	0x3c788101	0.015167476
113	0xbc404572	-0.011735307
114	0xbbbdd307	-0.0057929787
115	0x3d29ba1f	0.041437265
116	0x3cf6d64e	0.030131485
117	0x3ba1fdb7	0.0049435752
118	0x3d02972f	0.03188246
119	0x3a771d5b	0.00094266766
120	0x3d51858e	0.05115276
121	0x3aa638b5	0.0012681695
122	0xbc6b6126	-0.014366424
123	0xbc801890	-0.015636712
124	0x3d2446c4	0.04010655
125	0xbc711601	-0.014714719
126	0x3cf3a2a7	0.029740645
127	0x3c25914b	0.010105441

action_model._continuous_distribution.log_sigma f4 [1, 2]
0	0xbea0983b	-0.31366143
1	0xbeae578e	-0.34051174

action_model._continuous_distribution.mu.weight f4 [2, 128]
0	0x3d5d0ca2	0.053967126
1	0x3d8c0154	0.06836191
2	0xbbd2db6d	-0.006434849
3	0xbd0d6189	-0.034516845
4	0xbc5236e0	-0.012830466
5	0xbd9ee213	-0.07757964
6	0x3b74d59c	0.0037358766
7	0xbdc73f5f	-0.09728884
8	0x3dd558fc	0.10417363
9	0x3c52501d	0.012836483
10	0xbc3cffa7	-0.011535562
11	0x3d92d498	0.07169455
12	0x3ba67bed	0.005080691
13	0xbd308fd7	-0.043105926
14	0xbdc5727d	-0.096409775
15	0x3d7a9281	0.061174873
16	0xbc99023a	-0.01867782
17	0xbd7a9d3a	-0.0611851
18	0xbcd32e96	-0.02577905
19	0x3d66afbe	0.056319945
20	0x3d699ac0	0.057032347
21	0x3cdf4985	0.027256737
22	0xbbecae2f	-0.0072229127
23	0xbdafdfd5	-0.085876144
24	0x3a9a7427	0.0011783884
25	0x3d0bcac8	0.034128934
26	0x3c61b86e	0.013776882
27	0xbdcf0ac7	-0.101094775
28	0xbc34ef3e	-0.011043368
29	0x3d441eeb	0.04788105
30	0x3d89cb9f	0.06728291
31	0x3b16d16f	0.0023013016
32	0x3c32cdb7	0.010913304
33	0xbcbeb86c	-0.023281299
34	0xbdc23b04	-0.094839126
35	0xbdb1b8e9	-0.08677847
36	0x3d81954e	0.06327306
37	0x3d995c7d	0.07488344
38	0xbd58b92a	-0.05291096
39	0xbde53403	-0.11191561
40	0xbd374dcd	-0.04475193
41	0x3cff996a	0.031201083
42	0x3d882a24	0.06648663
43	0xbd7ba76b	-0.06143896
44	0x3b77c756	0.0037808022
45	0x3cbcf43c	0.023065679
46	0x3d7e83b2	0.062137313
47	0xbde47398	-0.1115486
48	0xbb3c91b4	-0.002877337
49	0x3be61022	0.007020966
50	0x3c711327	0.014714039
51	0xbd095d27	-0.033536103
52	0xbd53082e	-0.051521473
53	0x3d4890bb	0.04896615
54	0x3c033475	0.008008112
55	0x3cbff827	0.023433758
56	0xbcff7b0a	-0.0311866
57	0x3d0b949d	0.034077276
58	0x3d7e4b07	0.06208327
59	0xbcb3d80d	-0.021953607
60	0xbd4437a8	-0.04790464
61	0x3cd4b7fb	0.025966635
62	0xbc7a5dd2	-0.015281158
63	0x3ce54642	0.027987603
64	0x3c4dd9ce	0.012564136
65	0x3d118164	0.035523787
66	0x3c0a3af3	0.008436906
67	0x3d81e164	0.06341818
68	0xbd25409a	-0.040344812
69	0x3d0985a9	0.033574734
70	0x3ce6fbac	0.028196178
71	0x3c8273e0	0.015924394
72	0xbdf1db0b	-0.11809357
73	0xbc04fa77	-0.008116356
74	0x3da94ee4	0.08267
75	0xbd3105dd	-0.043218482
76	0x3b28d63a	0.0025762455
77	0x3db643c8	0.08899647
78	0x3d3d6adf	0.0462445
79	0x3d14a9c0	0.0362947
80	0xbc9afa4e	-0.018918183
81	0x3c3c29e5	0.011484598
82	0xbb7d3102	-0.0038633947
83	0x3d085f17	0.03329381
84	0x3cb161eb	0.021653136
85	0xbd346280	-0.04403925
86	0xbda1b3b0	-0.07895601
87	0xbd9fa811	-0.07795728
88	0xbcf7d16f	-0.030251233
89	0x3ce27941	0.027645709
90	0x3d4e0411	0.050296847
91	0xbc6abc1b	-0.014327074
92	0x3c340976	0.010988584
93	0xbdd6a405	-0.10480503
94	0x3d05e039	0.03268454
95	0x3d89728d	0.06711302
96	0xbc000828	-0.007814445
97	0x3d2dd482	0.04243899
98	0x3d975b4a	0.07390459
99	0x3a4341d9	0.0007448472
100	0x3cc0c5f9	0.0235319
101	0xbdd3443a	-0.103157476
102	0xbcd559c7	-0.026043786
103	0x3d4f826b	0.050661486
104	0xbda48177	-0.08032506
105	0x3ce437e0	0.027858675
106	0xbd534f89	-0.051589523
107	0xbd89feff	-0.0673809
108	0xbd505f44	-0.050872102
109	0x3c9ae691	0.01890877
110	0xbbdfe304	-0.0068324823
111	0x3ab88446	0.0014077506
112	0x3d3e446c	0.04645197
113	0x3d12eaa6	0.03586831
114	0x3d7cdef1	0.06173605
115	0x3c9dbbe2	0.019254629
116	0x3c3780d8	0.011200152
117	0xbda598dc	-0.08085796
118	0xbaf665c1	-0.0018798636
119	0xbd62eca1	-0.05540145
120	0x3d6ff682	0.058584698
121	0xbc301cdf	-0.010749071
122	0xbd8d005c	-0.06884834
123	0xbccbd9a6	-0.024884056
124	0xbd351b7e	-0.04421567
125	0x3cbff07a	0.023430098
126	0xbc71de24	-0.014762435
127	0xbd6e3448	-0.058155328
128	0x3d553e21	0.052061204
129	0xbd40f12d	-0.047105003
130	0x3d0d3f6f	0.034484323
131	0xbd044fc2	-0.032302625
132	0x3d6929f7	0.056924786
133	0xbcc53a55	-0.024075666
134	0x3d4eae6a	0.050459303
135	0x3d0b6f2d	0.034041572
136	0xbd06c2b5	-0.03290053
137	0x3bbb859f	0.005722716
138	0x3d9653b5	0.073401846
139	0x3d804a9b	0.0626423
140	0x3de18450	0.11011565
141	0x3c163d92	0.009169953
142	0xbccc32e1	-0.024926605
143	0x3cb14c2e	0.02164277
144	0x3d8811bc	0.066440076
145	0x3cb65b47	0.022260321
146	0x3d666853	0.056251835
147	0x3d0656eb	0.032797735
148	0xbc3575b2	-0.011075424
149	0x3d493e16	0.049131475
150	0x3d8c405e	0.068482146
151	0x3b7875f5	0.0037912105
152	0xbdc49b5e	-0.095999464
153	0x3d8c9d11	0.068658955
154	0x3bf0f812	0.007353791
155	0xbb2ae268	-0.002607489
156	0xbd661eae	-0.056181602
157	0x3ce1328f	0.027489929
158	0xbcba8ebe	-0.022773143
159	0x3d68bddd	0.056821693
160	0x3cc31f28	0.023818567
161	0x3d87a64a	0.06623514
162	0xbb7a2ee1	-0.0038174915
163	0xbcdf3aab	-0.027249655
164	0x3d467005	0.048446674
165	0xbba6b6f9	-0.00508773
166	0x3d09d411	0.033649508
167	0x3d2f03b1	0.04272813
168	0x3c0ce3d6	0.008599242
169	0x3d2e193c	0.042504534
170	0x3bafc7ce	0.0053643947
171	0xbd6afa07	-0.05736735
172	0xbc5c24c0	-0.013436496
173	0x3d9840c6	0.074342296
174	0xb80f7c5e	-3.4209683e-05
175	0x3c63d7f5	0.013906469
176	0xbdc5d9aa	-0.09660657
177	0xbd431a30	-0.047632396
178	0x3d817036	0.06320231
179	0xbcb5988a	-0.022167463
180	0x3d267b38	0.040644854
181	0x3cd4e911	0.025990041
182	0x3da830de	0.08212446
183	0xbdb74668	-0.08948976
184	0x3d03aa09	0.03214458
185	0x3d272b42	0.04081274
186	0xbcb89522	-0.02253205
187	0xbd616d83	-0.05503608
188	0xbd005546	-0.031331323
189	0x3e05a4fd	0.1305122
190	0xbd6a7974	-0.057244733
191	0x3d0963fa	0.03354261
192	0x3d5e31ad	0.054246593
193	0xbd9511af	-0.072787635
194	0x3c93ea94	0.018056192
195	0x3cbd80f9	0.023132788
196	0xbd5930b2	-0.053024955
197	0xbdce8598	-0.10084075
198	0x3c2efce1	0.010680408
199	0x3d216127	0.039399292
200	0x3d1928e3	0.03739251
201	0x3d746f31	0.059676353
202	0xbcf9edf4	-0.030508973
203	0xbd696b8c	-0.05698733
204	0x3bdbe294	0.00671036
205	0x3abdebad	0.0014489793
206	0x3d4986aa	0.04920069
207	0x3d3db5f5	0.046316106
208	0x3d3a4014	0.045471266
209	0x3d4b1770	0.0495829
210	0x3d8dd188	0.069247305
211	0x3cb0ccca	0.021582026
212	0xbc77f34d	-0.015133691
213	0x3d8d6196	0.06903379
214	0x3c5f191b	0.013616825
215	0x3d93331e	0.07187484
216	0xbd637702	-0.055533417
217	0xbc36e485	-0.011162882
218	0xbc670152	-0.014099436
219	0x3cfa2dd3	0.030539429
220	0x3d96482a	0.07337983
221	0x3c961b01	0.018323423
222	0x3d31240f	0.04324728
223	0x3cc3e225	0.023911545
224	0x3d467fc1	0.04846168
225	0xbd487656	-0.04894098
226	0xbcc4b5d2	-0.02401248
227	0xbd5d410c	-0.05401711
228	0x3d4eb6b6	0.050467215
229	0x3a3bf67c	0.0007170213
230	0xbd95a43b	-0.07306715
231	0x3dcbafdf	0.09945654
232	0x3cb5234d	0.02211156
233	0x3d2ea648	0.042639047
234	0x3c507788	0.012723811
235	0x3d7073f1	0.05870432
236	0xbb27c661	-0.002560042
237	0x3d8a2785	0.06745819
238	0x3c30afff	0.010784148
239	0xbd3ce5bf	-0.04611754
240	0x3d381673	0.044943284
241	0x3da3757a	0.07981391
242	0x3cae3b61	0.021268548
243	0xbda4f763	-0.08054998
244	0xbd83f68e	-0.06443511
245	0xbca9ccb6	-0.020727497
246	0xbcb28020	-0.02178961
247	0x3c633bc0	0.013869226
248	0xbccc11af	-0.024910776
249	0xbbdf6406	-0.0068173436
250	0x3d61090d	0.054940272
251	0x3d991179	0.07474036
252	0xbe07d9d3	-0.13266687
253	0x3d581982	0.0527587
254	0xbdac052e	-0.083994254
255	0x3c91d391	0.017801078

action_model._continuous_distribution.mu.bias f4 [2]
0	0x3b48c603	0.0030635602
1	0xbc8b1d4b	-0.016981741

action_model._discrete_distribution.branches.0.weight f4 [2, 128]
0	0x3dbc5c39	0.091972776
1	0x3d24760b	0.040151637
2	0xbda27360	-0.07932162
3	0xbd5e0c51	-0.054210965
4	0x3c00482e	0.007829709
5	0xbd2caea2	-0.04215873
6	0x3cee5075	0.0290911
7	0x3cac5c05	0.021039972
8	0x3d13bdcf	0.036069687
9	0xbd28489b	-0.041084867
10	0x3de3f86b	0.11131366
11	0x3d74762d	0.059683014
12	0x3cd39d29	0.025831776
13	0x3cf3dc6b	0.02976819
14	0xbd57bfe8	-0.05267325
15	0xbc0da000	-0.008644104
16	0x3d2f0815	0.042732317
17	0x3b89d685	0.004206481
18	0x3d74555c	0.059651718
19	0x3d92d023	0.07168605
20	0xbd1d8d22	-0.038464673
21	0x3cd7526d	0.02628442
22	0x3d0f8acf	0.035044488
23	0xbc1e6a45	-0.009668891
24	0xbda714b5	-0.081582464
25	0xba912c4c	-0.0011075824
26	0x3d87a981	0.06624127
27	0xbd58b421	-0.05290616
28	0xbdf05cdc	-0.117364615
29	0xbbd96aa2	-0.006635026
30	0xbc76d86d	-0.015066248
31	0x3d18ad14	0.037274435
32	0x3d4f78c1	0.05065227
33	0x3d885ea8	0.06658679
34	0xbcd9642d	-0.026537025
35	0xbd2cd0e3	-0.042191397
36	0x3c103c7f	0.008803486
37	0xbd8d0a31	-0.068867095
38	0x3d60ef37	0.054915633
39	0x3cd266ee	0.025683846
40	0xbd460c4c	-0.04835157
41	0x3d93dec0	0.072202206
42	0x3d415806	0.047203086
43	0xbd8bfd4c	-0.06835422
44	0xbe1419cf	-0.1446297
45	0x3d7ed71d	0.062216867
46	0xbd198721	-0.037482385
47	0x3d0d3b2b	0.034480255
48	0xbdc57219	-0.09640903
49	0xbcfc1cb0	-0.030775398
50	0x3d263b28	0.04058376
51	0xbd0dfe01	-0.034666065
52	0x3c070350	0.008240536
53	0x3d507ae3	0.050898444
54	0x3d40098f	0.046884116
55	0xbdb42619	-0.08796329
56	0x3c12bc6c	0.008956056
57	0x3d513d5e	0.051083915
58	0xbd1c453f	-0.038151976
59	0xbdf7db6a	-0.12102397
60	0xbbaf7783	-0.005354823
61	0x3cc237c0	0.023708224
62	0xbd963d40	-0.07335901
63	0xbcd323c3	-0.025773888
64	0x3d89ee19	0.06734867
65	0xbe05ea43	-0.13077645
66	0x3d955640	0.072918415
67	0x3c3ba63f	0.01145321
68	0xbdfb113a	-0.12259145
69	0xbdadd3f5	-0.08487693
70	0xbdd40743	-0.103529476
71	0xbb9480d0	-0.004531957
72	0x3ca24d17	0.01981215
73	0x3caee967	0.02135153
74	0xbd2c671f	-0.04209053
75	0xbd907c37	-0.07054942
76	0xbd9b5480	-0.075844765
77	0x3ca15603	0.019694334
78	0x3da61591	0.08109582
79	0xbc29c8c3	-0.010362807
80	0x3da169b9	0.07881493
81	0x3d3edf34	0.04659958
82	0x3d477b11	0.04870135
83	0x3bb1a7be	0.0054216078
84	0x3942b372	0.0001856813
85	0x3d9e7a07	0.077381186
86	0x3cbbbd6d	0.022917474
87	0x3b39da3b	0.0028358835
88	0xbdc1fb38	-0.09471744
89	0x3cd0f4dd	0.025507385
90	0xbd9ff843	-0.07811024
91	0x3d38eba1	0.04514659
92	0x3c328611	0.010896222
93	0x3a8f9da5	0.0010957016
94	0xbd439c38	-0.047756404
95	0xbb5bc61f	-0.0033534837
96	0x3c5f2ebf	0.013621985
97	0xbe016660	-0.12636709
98	0xbd0d1e94	-0.03445299
99	0xbda926b4	-0.08259335
100	0x3d478efb	0.04872034
101	0xbd0b1fe1	-0.03396595
102	0xbdaef629	-0.08543045
103	0x3d220ed1	0.03956491
104	0xbd8502fb	-0.06494709
105	0x3cdf31f0	0.027245492
106	0x3ce5cfb7	0.028053148
107	0x3d11b655	0.035574276
108	0xbd2e1d16	-0.042508207
109	0x3d707e91	0.058714453
110	0x3d467637	0.048452582
111	0xbd9d8bd4	-0.07692686
112	0x3d9d0b62	0.07668187
113	0xbcf8ff03	-0.030395037
114	0xbc17da3b	-0.009268339
115	0xbdde0a35	-0.108417906
116	0xbdaa551b	-0.08317014
117	0xbc60567f	-0.013692497
118	0xbdceb978	-0.10093969
119	0xbc5d1b36	-0.013495257
120	0x3d203a2a	0.03911797
121	0xbda2ed9c	-0.07955477
122	0x3cd77d14	0.02630476
123	0x3d073ef9	0.03301904
124	0xbd4c95a8	-0.04994741
125	0x3ceda394	0.029008664
126	0xbd8f5bff	-0.06999969
127	0x3cec11f3	0.028817153
128	0xbda59821	-0.08085657
129	0xbd2f560d	-0.042806674
130	0x3d83a0f6	0.06427185
131	0x3d3b0578	0.045659512
132	0xbcd1e202	-0.025620464
133	0x3d1cc147	0.03827026
134	0xbca66711	-0.020312818
135	0xbc8367f3	-0.016040778
136	0xbcaee414	-0.02134899
137	0x3d5be19b	0.05368195
138	0xbdc8a25e	-0.09796594
139	0xbd831702	-0.06400873
140	0xbc94ef5a	-0.018180538
141	0xbb800bc0	-0.0039076507
142	0x3d60b5ca	0.054860868
143	0x3d051505	0.03249075
144	0xbd70fd36	-0.05883523
145	0xbc31e762	-0.010858389
146	0xbd531de9	-0.051542196
147	0xbdaa8989	-0.08327014
148	0x3d11d715	0.03560551
149	0xbd812c0f	-0.06307232
150	0xbc8cf511	-0.0172067
151	0x3ca0e277	0.019639237
152	0x3db746c4	0.08949044
153	0x396afd66	0.00022410377
154	0xbd6ed307	-0.05830672
155	0x3d32f97b	0.043694954
156	0x3dea73e9	0.11447889
157	0x3adafdc1	0.0016707705
158	0x3c2dcb2d	0.010607523
159	0xbd5aee16	-0.053449713
160	0xbd76f614	-0.060293272
161	0xbd8a6c13	-0.06758895
162	0x3c4b8882	0.012422683
163	0x3cd77529	0.026300984
164	0xbc19c421	-0.00938514
165	0x3d83c70d	0.0643445
166	0xbd22818a	-0.03967432
167	0xbce23da4	-0.027617283
168	0x3cd1a666	0.02559204
169	0xbd807a52	-0.06273331
170	0xbd2422af	-0.04007214
171	0x3d78e662	0.060766585
172	0x3e28e8da	0.16495076
173	0xbd697dee	-0.05700486
174	0x3cee6ee8	0.029105619
175	0xbcd57d96	-0.02606086
176	0x3dc62137	0.09674304
177	0x3d30ba89	0.043146644
178	0xbd3b0a0e	-0.045663886
179	0x3d371e31	0.044706527
180	0xbc961e00	-0.018324852
181	0xbd23ff69	-0.0400385
182	0xbd3e7a65	-0.046503443
183	0x3dca222f	0.09869801
184	0xbd0cbdea	-0.034360804
185	0xbd6e707b	-0.05821274
186	0x3d49f3e7	0.04930487
187	0x3deca836	0.11555521
188	0x3c5b75a7	0.01339475
189	0xbbd17ef6	-0.0063933088
190	0x3d8d8e17	0.06911867
191	0x3cb7bc58	0.022428676
192	0xbd8a2bcc	-0.06746635
193	0x3e01dffb	0.12683098
194	0xbd95471c	-0.07288954
195	0xbbc63faa	-0.00605007
196	0x3e017903	0.12643819
197	0x3d8c7b55	0.06859461
198	0x3dd29bf3	0.10283651
199	0x3c142341	0.009041608
200	0xbd258516	-0.040410124
201	0xbcd7cb82	-0.026342157
202	0x3d0f4593	0.03497846
203	0x3d9a06ca	0.07520826
204	0x3da7f33c	0.0820069
205	0x3b0d9923	0.002160617
206	0xbd9b1631	-0.07572592
207	0x3c1e4ff1	0.009662614
208	0xbd825747	-0.06364303
209	0xbd7706f4	-0.060309365
210	0xbd78ca41	-0.06073976
211	0xbc434da1	-0.011920364
212	0x3ba92efb	0.005163071
213	0xbdbff5e7	-0.09373074
214	0xbb839cd7	-0.0040164995
215	0xbba5d979	-0.005061325
216	0x3d9d5cea	0.076837376
217	0xbcb88275	-0.022523144
218	0x3d9c88d6	0.07643287
219	0xbd210da6	-0.039319657
220	0xbd0546c2	-0.032538183
221	0x3bd610a7	0.006532747
222	0x3d62010a	0.055176772
223	0x3c1075d2	0.008817153
224	0xbccfa77f	-0.025348423
225	0x3e249283	0.16071515
226	0x3c94f0c1	0.018181207
227	0x3db2d749	0.08732469
228	0xbd1e5986	-0.038659595
229	0x3ae3fc72	0.001739396
230	0x3dc4cd01	0.09609414
231	0xbd4e1c5b	-0.05032001
232	0x3d9c7890	0.07640183
233	0xbd005b04	-0.0313368
234	0xbd151206	-0.03639414
235	0xbd10cfc2	-0.035354383
236	0x3d4ca855	0.04996522
237	0xbd84001d	-0.06445334
238	0xbce00d9b	-0.027350238
239	0x3da1580e	0.07878123
240	0xbd870daa	-0.06594403
241	0x3d414167	0.047181513
242	0x3bdd20f2	0.006748312
243	0x3df405e4	0.11915186
244	0x3d9ce9c3	0.07661774
245	0x3b43809b	0.0029831294
246	0x3dd572ba	0.10422273
247	0x3d0961bc	0.033540472
248	0xbd0be7e4	-0.034156695
249	0x3d8a5de1	0.06756187
250	0xbcbf93f2	-0.023385976
251	0xbd2d2ee9	-0.042281065
252	0x3d823100	0.06357002
253	0xbd845e6f	-0.06463324
254	0x3d88a3dd	0.066718794
255	0xbcfb67e5	-0.03068919

action_model._discrete_distribution.branches.0.bias f4 [2]
0	0xbc490f4b	-0.0122717125
1	0x3c490f3c	0.012271699
