Assets/Models/My Behavior.onnx (onnx, 74821 bytes, 9 tensors)

network_body._body_endoder.seq_layers.0.weight f4 [128, 6]
000000 12 f4 5e 3f 13 f9 73 be b2 8a c5 3c 89 8c bd 3e
       0.8709117 -0.23825483 0.024113987 0.37021282
000010 b1 5d 16 be fe b1 0e 3f a3 20 4a be 0c fd fd 3e
       -0.14684178 0.55740345 -0.19739012 0.49607122
000020 70 a6 f1 3e 67 b3 4e bf cb cf fa bd dc fb 2d 3f
       0.47197294 -0.80742496 -0.122466646 0.6796243
000030 79 81 8b bf 53 63 06 3b b8 94 04 3f f1 ed 34 3f
       -1.0898887 0.002050598 0.51789427 0.7067557
000040 68 d8 b5 3e 9d e3 d8 3e 6d a4 2b 3e eb 6e 0f bf
       0.35516667 0.42361155 0.16761942 -0.5602862
000050 c6 85 23 3f 03 c8 82 3f 47 6e a6 be 76 44 f0 bd
       0.63876 1.0217289 -0.3250601 -0.11731808
000060 6a 80 b2 3d b8 45 8b be ad bd a5 3e c4 df 0a 3f
       0.08715899 -0.2720163 0.32371274 0.5424769
000070 d2 1a d9 be 53 f3 d0 be 05 75 24 3f fd 21 c0 3d
       -0.42403275 -0.40810642 0.6424106 0.09381483
000080 aa d1 da 3e 1c c2 da 3e ed 64 93 bd 29 0a b4 be
       0.42738086 0.4272622 -0.071969844 -0.35164002
000090 3b ef 08 3f 77 48 3f bf bc 9f 66 3d f0 e7 a4 3d
       0.53490037 -0.7471995 0.05630468 0.08052051
0000a0 f8 df 73 3d 09 db 26 3f ea 34 0b bf 97 77 0e be
       0.059539765 0.6517797 -0.54377615 -0.13912807
0000b0 5c 2e 82 be 9d 63 9d be 7b 99 17 bd 9d 20 85 3e
       -0.25425994 -0.3074006 -0.037011605 0.26001444
0000c0 6a 0c e3 bd d5 8e 7f 3e 0f 38 58 bd 15 27 81 bd
       -0.11086352 0.2495683 -0.052787837 -0.063062824
0000d0 af 29 64 3e 13 fd 1b 3e 8d 4f 2a bf 3c 4b ff 3e
       0.22281526 0.15233259 -0.66527635 0.49862087
0000e0 91 87 1e bf 33 91 89 bd c0 f2 d3 bd 47 cd 44 be
       -0.6192561 -0.06717148 -0.10349035 -0.19218932
0000f0 4b 1a 49 3f 8a fc 22 3f d4 54 22 be e0 ce b3 3d
       0.78555745 0.63666594 -0.15852672 0.08779693
000100 9e b8 e1 3e 6e 4e f5 be d1 f3 6b 3e df 69 65 bf
       0.44086164 -0.479114 0.23042227 -0.8961467
000110 4e 60 a5 bd 27 f5 17 3e 1b 6f 20 bf 29 45 29 3f
       -0.08075009 0.14839612 -0.62669533 0.66121155
000120 8d 4c a0 3e ad 2b 38 be 33 4c a1 bd fa 88 e3 3e
       0.31308404 -0.17985411 -0.07875862 0.44440442
000130 bd 9c b3 bc 0f ec c4 be f6 8e 14 3e 27 5f 84 be
       -0.021925325 -0.38461348 0.1450766 -0.25853845
000140 5c 8a ef 3e a9 00 9a 3b 50 37 5a 3e aa 89 26 3f
       0.46785247 0.0046997857 0.21310163 0.6505381
000150 b4 a9 fe be ae d1 2d bf 5d c6 76 3e 96 7b a5 3e
       -0.49738848 -0.6789807 0.24099107 0.3232085
000160 67 13 eb 3c 91 9a 04 3f 83 5a 39 bf 63 9b af bb
       0.028695775 0.5179835 -0.72403735 -0.0053590997
000170 56 9e 51 3e b3 40 99 be 0f 48 ea be 9a e1 98 bd
       0.20470557 -0.29932174 -0.457581 -0.07464905
000180 51 9f 1f 3f 49 7e 27 bf 9d f9 9e 3f 22 9f 23 bf
       0.6235247 -0.6542707 1.2419926 -0.6391469
000190 2c bd 8b bf 80 f5 c9 be e0 d5 ea bd 11 95 aa be
       -1.0917106 -0.39445114 -0.11466575 -0.33316854
0001a0 03 ba 3e bf d0 f7 bd be b6 77 a5 3e a4 ca 1f bf
       -0.7450258 -0.37103128 0.32317895 -0.6241858
0001b0 2d f3 a6 3e f6 31 3b be 0e 26 9d 3e 9b 81 6c bf
       0.32607403 -0.18280777 0.30693096 -0.9238526
0001c0 9e cd 73 3d e1 aa 77 3f 55 8d cb 3d db 42 89 bf
       0.059522264 0.96745116 0.09939066 -1.0723528
0001d0 d8 ef b4 3e ad 47 1c bf 4e f9 3c 3e 02 42 01 be
       0.35339236 -0.6104687 0.18454477 -0.12622836
0001e0 e6 72 82 be 2b 01 5a bf 5b 06 51 be 01 82 b7 3e
       -0.25478286 -0.8515803 -0.2041258 0.35841373
0001f0 cb 2c 10 be ca 69 fa bd c8 ca 71 bf fc 2a 72 3d
       -0.14079587 -0.12227209 -0.94450045 0.059123024
000200 67 aa 90 be 47 5d 04 3e 17 2c 1e 3d 32 49 75 3e
       -0.28255007 0.12926207 0.038616266 0.23953703
000210 40 5f 87 3c 7d 7e ce bd 23 2b 2b be 34 09 1d bf
       0.01652491 -0.100827195 -0.16715674 -0.6134217
000220 4c c9 81 bf 3e bd 36 be 98 38 d2 bc 28 d8 1d 3f
       -1.0139556 -0.17845628 -0.025661752 0.61657953
000230 5a 71 f7 3d c1 67 19 3f a5 0b 98 3e cd c7 98 be
       0.12082167 0.5992394 0.29696384 -0.29839936
000240 30 cc cf 3e a1 87 19 bf 7b da d0 be 65 8a 06 3e
       0.4058547 -0.5997258 -0.40791687 0.13138731
000250 e9 73 1b 3f 8f 2f 23 be aa 05 10 3e dc 98 b6 3e
       0.6072374 -0.15936111 0.1406466 0.35663497
000260 55 4c c5 3e 80 0a fb 3e 8a 01 bd bd a0 33 0f bf
       0.385348 0.49031448 -0.09228809 -0.5593815
000270 5e 8a c5 3e e9 ee 01 3f 2b 38 0c 3e 47 68 e6 3b
       0.38582128 0.5075517 0.13693301 0.007031474
000280 a4 2a a8 3c 93 a4 eb bd 0a 4a bc 3e 61 e3 4b be
       0.020528145 -0.115059994 0.36775237 -0.19910957
000290 25 fb 3c 3f 21 81 8e be 1b f1 8f 3e dd 3a b7 3c
       0.73820716 -0.27832893 0.28113636 0.022366935
0002a0 5b 37 fd be 9b 4a 20 3f 9f c8 bb be 61 87 d7 be
       -0.49456295 0.6261384 -0.366765 -0.42095473
0002b0 ad d0 1e 3f 39 bb 3a bf 74 44 a1 be c4 b6 02 3f
       0.62037164 -0.7294193 -0.31497538 0.5106013
0002c0 95 9a a6 bd 03 73 d8 3b 68 7d b0 bd 59 37 d0 3e
       -0.08134953 0.0066055073 -0.08617669 0.40667227
0002d0 7b 8a 84 bf f9 25 93 bd bb d6 3c bc 5e aa 8f 3e
       -1.0354761 -0.07184977 -0.011525805 0.28059667
0002e0 fe 83 99 3e 68 a7 6a be d0 30 4c bd 14 57 c1 3e
       0.29983515 -0.22915423 -0.04985124 0.37761748
0002f0 4e 93 9e 3e f7 98 e3 be 82 76 08 3e 51 4f bb 3e
       0.3097176 -0.4445264 0.13326457 0.3658395
000300 17 ff 1d be c4 c0 28 bf 68 01 02 be 69 d2 21 3f
       -0.1542934 -0.65919137 -0.12695849 0.63211685
000310 66 c1 de 3e 58 09 82 be bd 17 31 bc 1b f7 70 3e
       0.43506926 -0.25397754 -0.010808882 0.23531763
000320 32 50 9c be f9 dd b1 be 36 88 d1 be dc 74 23 bf
       -0.30529934 -0.34739664 -0.40924233 -0.6385019
000330 1c da a9 be 7e cf 5e bf de c9 0d bf 4a 10 51 3f
       -0.33174217 -0.8703536 -0.5538615 0.8166548
000340 0f 24 90 3e 0c 19 d6 be 1e d0 ea bd 84 cf 88 bf
       0.2815251 -0.41815984 -0.114654765 -1.0688329
000350 6a 2f 3a be d3 60 93 3e d0 7d 85 be 4e aa 14 bd
       -0.1818215 0.2878481 -0.2607255 -0.036295228
000360 3a 3f 87 3e 8c 4a 51 be 94 1d 26 3e 41 23 9c be
       0.26415426 -0.20438594 0.1622222 -0.30495647
000370 92 29 7c 3e c2 e8 5e bd ff 9e 72 3d 99 c2 d8 3e
       0.24625233 -0.054421194 0.05923366 0.42335966
000380 9e e5 5f 3e 95 60 84 be 21 b8 06 3f 23 42 df 3d
       0.21864936 -0.25854936 0.5262471 0.109012865
000390 2e 51 88 3e e9 92 03 bf e5 3b 4f 3f 74 16 19 bf
       0.26624435 -0.5139604 0.80950767 -0.59799886
0003a0 c1 ec f0 be 00 90 46 bf 1e 28 d2 bd 01 5d 71 3c
       -0.4705563 -0.77563477 -0.10261558 0.0147316465
0003b0 52 fd 3d 3e 0a d1 51 3e b2 46 44 3e a5 49 36 3e
       0.18553665 0.20489898 0.19167593 0.1780153
0003c0 05 dc d2 3d 39 47 32 bf 9f ad 22 3f 26 16 8c be
       0.10295872 -0.6963993 0.63546175 -0.27360648
0003d0 a4 f5 0f be 0d c3 00 3f d4 03 a7 bd a8 53 4d bd
       -0.14058548 0.50297624 -0.08155027 -0.05012861
0003e0 88 90 b9 3e 41 71 81 3d e4 c3 fe 3e e5 32 80 3c
       0.3624308 0.063204296 0.49758828 0.015649268
0003f0 51 58 b7 3e 98 15 3e bf 34 8b d2 be f6 9a 9f 3e
       0.35809568 -0.742517 -0.4112183 0.31172913

network_body._body_endoder.seq_layers.0.bias f4 [128]
000000 bb 27 37 be 0f a7 0b bd 08 03 1e 3d f9 bf 9c bd
       -0.1788625 -0.034094866 0.03857711 -0.076538034
000010 86 f7 63 bc 93 a7 44 bc c8 38 dc bd db ac d7 3c
       -0.013913995 -0.012002843 -0.10753018 0.026327541
000020 a5 d9 34 3c c5 e1 0a 3c 2c d3 b1 bc f5 2c 89 bc
       0.011038219 0.008476679 -0.02170714 -0.01674507
000030 22 35 00 bb 19 2f 66 bd d9 72 be 3c 13 f7 0a bd
       -0.001956292 -0.05619726 0.023248123 -0.033927035
000040 fa d5 35 bc 2f dc 19 3d 7e 59 c4 bd 49 52 26 bc
       -0.011098379 0.0375635 -0.09587382 -0.010151454
000050 17 4d ce 3c b4 7d 72 bc 02 e8 5c bd cd cf 3c 3d
       0.025183244 -0.014800478 -0.053932197 0.04609661
000060 9c 91 ff 3b 62 d6 7e bc 82 2b 99 3d f4 1d d0 bc
       0.0077993404 -0.0155540425 0.074790016 -0.025404908
000070 1a 64 37 bd fa fe f9 3c 95 22 51 bd 25 d7 1a bd
       -0.0447732 0.03051709 -0.05105837 -0.037802834
000080 ef 01 b3 bd d1 d5 d1 3d 2e 58 5b bd f0 db a4 3d
       -0.08740603 0.1024586 -0.05355089 0.08049762
000090 58 5e 09 bd 93 56 56 3d ef c0 a9 3d 44 b5 62 3a
       -0.03353724 0.052328657 0.08288752 0.00086482265
0000a0 12 61 5d 3d 68 29 d8 3d 86 ee b3 bc 9b 62 5f 3d
       0.05404765 0.105547726 -0.021964323 0.054537397
0000b0 81 34 1d be 7d 67 d4 3c ae e8 d1 bb da fc 0e bc
       -0.1535206 0.025928253 -0.0064059114 -0.008727277
0000c0 52 23 4d 3c 0a 81 fd 3c e9 aa d3 bd b0 b0 4a bd
       0.012520628 0.03094532 -0.10335333 -0.04948491
0000d0 a0 34 0a 3d 8e 62 bb 3c 6e d5 75 bd 2d da 63 bd
       0.033741593 0.022874143 -0.060017996 -0.05562799
0000e0 c3 22 24 3d 9c e8 17 bc b4 c8 04 bd 11 f1 08 3c
       0.040072214 -0.009271767 -0.032417968 0.008358256
0000f0 6b b1 86 3d 6a ed cd bc e2 4b ff bd d3 8c 65 3d
       0.065768085 -0.025137622 -0.124656454 0.056042504
000100 59 9b 9a bd 34 1e 9b 3c fd 30 b9 3d 4e 70 a3 3d
       -0.075491615 0.0189353 0.09042547 0.07980405
000110 c4 29 0f bd d6 f1 42 3c a4 eb 0a bd 87 0c 42 3d
       -0.03495194 0.0118984785 -0.03391613 0.04737523
000120 89 f7 e9 bb 11 45 0f 3c 8e f7 37 3c 55 47 9f 3d
       -0.007140104 0.008744494 0.011228455 0.077772774
000130 d6 1e 1d be 15 5a a4 bd 7d e0 dd bc 31 cd 39 3d
       -0.15343794 -0.08024994 -0.027084583 0.0453617
000140 91 a6 dd bd 35 24 62 3d 5b d8 2b bd b7 eb e3 bd
       -0.10822786 0.05521031 -0.04195438 -0.111289434
000150 31 6d 5d bd 8f 0f 33 3d ee 1a 41 bd 26 4f b7 bd
       -0.05405921 0.04371601 -0.047144823 -0.08950643
000160 5a fc 40 3d 33 82 0a bd 42 9e a3 bb 91 bf 59 bc
       0.04711566 -0.033815574 -0.004993231 -0.013290302
000170 40 73 9d bd 1d c2 53 bc a3 cc 20 bc 0a d6 30 3c
       -0.07687998 -0.012924698 -0.009814414 0.010793218
000180 c4 7e 69 3d 50 9b 2a 3d 19 07 8d 3d 23 c7 df 3d
       0.05700566 0.041652024 0.068861194 0.10926654
000190 f4 49 47 3d 7a ab e2 3c ce ed 9c 3c c6 47 06 3d
       0.04865451 0.027669657 0.019156363 0.032783292
0001a0 e0 04 ee 3c d4 7b 17 3c 18 4c a8 bd fd 42 93 bc
       0.029055059 0.0092458315 -0.08217639 -0.017976278
0001b0 89 d1 56 bd 52 28 b9 3d c1 30 90 bd c5 cb 0e bd
       -0.052445922 0.090408936 -0.07040549 -0.0348623
0001c0 74 7b 4a 3d 24 be 31 bd ea 61 b4 3d 4b f6 a0 bd
       0.04943414 -0.043394223 0.08807738 -0.07859477
0001d0 dc 0f 01 be fa 33 0a 3d 86 32 22 bd 2b 43 60 3d
       -0.12603706 0.033740975 -0.039598964 0.054751556
0001e0 3c 59 ed 3d 41 73 c8 bc 83 b6 80 bd 62 d7 06 be
       0.11589286 -0.02446902 -0.06284811 -0.131681
0001f0 af 1a 9d 3d 9f 38 01 3d f2 0d 0c bd 8e 4b 6a 3c
       0.07671105 0.03154814 -0.034192987 0.01430024

network_body._body_endoder.seq_layers.2.weight f4 [128, 128]
000000 49 f1 b9 3b 51 80 48 3e 6c 38 5f bd fa 0c ec bd
       0.0056745154 0.19580199 -0.054497167 -0.115259126
000010 d6 5f 28 be 6c f0 0e 3e ed b4 d2 3d f6 e6 06 3d
       -0.16442809 0.13958901 0.10288415 0.032935105
000020 36 a8 84 3c d9 ff 51 3a 29 63 82 3d b7 8a 0f be
       0.01619349 0.00080108416 0.063665695 -0.1401776
000030 3b 44 42 bc 1c dc 10 be 38 47 a7 bd f3 eb 15 3e
       -0.011857088 -0.14146465 -0.08167881 0.14640789
000040 ed a5 b0 3d aa 17 4d 3e 75 87 ab bd 8f 24 0e bd
       0.08625398 0.20028558 -0.08375446 -0.034702834
000050 c8 f3 cc be fb ef d0 3d 6f 8f 8b bc b6 19 73 3c
       -0.4002974 0.10202023 -0.017036168 0.014837673
000060 b6 24 1f be e7 2e de bd 4b 11 e1 3c 80 bb 79 be
       -0.15541348 -0.1084879 0.027474066 -0.24387932
000070 9d c8 d4 bd 5a 55 34 bd cb 4c d3 3d e4 54 87 3d
       -0.103898264 -0.04402671 0.103173815 0.066079885
000080 60 1e 2f be 12 97 10 3e 45 4e 1b be d5 20 6a be
       -0.17101431 0.14120129 -0.15166576 -0.22864087
000090 76 52 61 be d1 38 de bc 29 4e 67 bd ce 26 87 3d
       -0.22004113 -0.027126702 -0.056471024 0.06599198
0000a0 60 b9 8a 3d b7 34 0d 3c b0 40 c6 3c 3c ff 30 3d
       0.06773639 0.008618525 0.024200767 0.04321216
0000b0 14 1d 1b 3e 5f d6 0c 3e c5 cf 0c b9 9b 50 6a 3b
       0.15147811 0.13753651 -0.0001342884 0.003575361
0000c0 b7 22 a8 3c 15 b0 24 3e 8c ff 0a 3e 68 8e 02 be
       0.020524366 0.16082795 0.13574046 -0.12749636
0000d0 e7 99 06 be 44 4d a3 bd 08 00 36 bd bb 41 37 bd
       -0.13144647 -0.079737216 -0.044433624 -0.04474042
0000e0 56 d6 84 bc d2 d2 06 be 9f c8 a3 bc 4f ae ab bc
       -0.016215485 -0.13166359 -0.019993125 -0.02095714
0000f0 a4 4d 7a bd ee 19 b4 bd 90 0e a8 3d d9 54 83 bc
       -0.0611092 -0.08794008 0.082059026 -0.01603167
000100 49 29 17 be 40 4c d7 bd b1 1b 51 bc ca 13 a7 3d
       -0.14761843 -0.105125904 -0.01276295 0.08158071
000110 26 ba a4 3b ca 23 c0 3b 8a fc 12 3a 86 d9 07 3d
       0.0050270734 0.0058636414 0.0005607089 0.03316643
000120 b0 e8 f2 bd 72 c5 2c be 50 bd 86 bd 95 71 4b be
       -0.11860788 -0.16872194 -0.06579077 -0.19867547
000130 78 91 47 be 08 c8 28 be f9 fb 14 3e 74 78 64 3e
       -0.19489086 -0.16482556 0.14549245 0.22311574
000140 df de 1a bc 82 6e e7 3d 4c 06 31 bd 22 89 ae bd
       -0.009452551 0.113003746 -0.043218896 -0.0852225
000150 a4 b0 02 3e 34 83 dd bd 3c 1b ec 3d a5 2e 94 3d
       0.12762696 -0.10816041 0.11528632 0.07235459
000160 d8 da 2d 3e 96 b9 4c bc df df bc 3d 28 c6 f2 bd
       0.16978014 -0.012495419 0.092223875 -0.118542016
000170 ae 01 ab bd ca 4f ca 3d d5 ce c4 be e0 77 0c bc
       -0.0834993 0.098785 -0.3843905 -0.008573502
000180 e9 62 7d be 56 97 b0 3c 72 cf 04 3e c6 6c b1 3d
       -0.24744762 0.021556538 0.12969759 0.08663325
000190 40 25 23 3c fc c9 62 3e 0a 44 80 be 6c 3a 1c 3d
       0.009957612 0.22147363 -0.2505191 0.038141653
0001a0 ff 8c 7e bc 10 e1 cf bd 13 48 e8 3b 45 dc fb bd
       -0.015536546 -0.10150349 0.00708867 -0.122978725
0001b0 55 30 92 3c 64 3b ce 3d de a9 1a be a8 22 3f be
       0.017845312 0.100699216 -0.15103862 -0.18665564
0001c0 bb 1a ce bd f0 2b bd 3c 24 6f c9 3d fc e2 31 3d
       -0.10063692 0.02309224 0.098356515 0.04342936
0001d0 e5 13 83 3d af 5f 2e 3d a5 c9 8c bc 75 5c 53 3d
       0.06400279 0.04257172 -0.017185995 0.051601846
0001e0 38 b7 1d bd 06 bf 15 be ab 46 9f be 10 08 47 be
       -0.03850481 -0.14623651 -0.31108603 -0.1943667
0001f0 20 18 3a be b9 d9 30 3c e2 f5 1d bd 77 93 0d bd
       -0.18173265 0.010794097 -0.03856457 -0.03456446
000200 9f b0 fc 3c 51 71 c8 3d 1f 77 14 bc e7 25 da 3c
       0.030845938 0.097872384 -0.009061604 0.026629401
000210 4f 10 2b bd f8 a8 63 3d 6e 39 fb bd 85 61 93 bd
       -0.0417636 0.055581063 -0.12266813 -0.07196335
000220 30 c7 5e bd 1a 20 4d 3c 17 e5 36 3e cc 88 a2 be
       -0.05438918 0.012519861 0.17860828 -0.31744993
000230 4b 01 10 3d 6b f3 cf bc 5a 3f 00 3d 3f b1 15 3e
       0.035157483 -0.025384625 0.031310417 0.14618395
000240 6f 53 fd bd 82 1e 9b be e5 a9 22 bd f1 ed 21 be
       -0.12369429 -0.30296713 -0.039712805 -0.15813424
000250 41 55 53 3d 49 c7 d3 3d 80 d3 4c 3d f9 bf 11 be
       0.051594976 0.10340745 0.05000639 -0.14233388
000260 05 cc 48 be ca 3c 01 3e ac 60 70 3d 27 01 b8 3d
       -0.19609077 0.12620845 0.058685943 0.08984595
000270 ba 64 94 bd 7a b7 7c 3d ab 30 36 3d 26 67 f5 3d
       -0.072457746 0.061698414 0.044480007 0.11982565
000280 2f 95 a4 3d 90 ca e9 bd d3 7f 65 bd e4 ed 22 3e
       0.08036267 -0.11415589 -0.056030106 0.1591106
000290 43 3e c8 3c f4 8c 0e be 8b b6 30 3e 5c e5 ea bd
       0.024443751 -0.13920957 0.17257135 -0.11469528
0002a0 0c db 44 be 39 83 bc bd cf 97 85 be 75 a1 2d be
       -0.19224185 -0.09204716 -0.26092383 -0.16956122
0002b0 a2 53 b9 bc 8b b3 c5 be c5 3a 50 3d 91 86 38 bc
       -0.022622887 -0.38613543 0.050837297 -0.011262552
0002c0 9c 76 31 bd b6 f9 ac 3c 17 01 cb bc 40 4b 8e bd
       -0.043326005 0.021115165 -0.024780793 -0.069479465
0002d0 67 f2 7f 3d 80 f6 0a 3e 6d 09 28 3e 2c 9c 04 3d
       0.062487032 0.13570595 0.16409846 0.0323755
0002e0 23 e7 c9 3d ae 8e 2d 3e 80 77 d6 3d bb ac 6e bd
       0.09858539 0.16948959 0.104720116 -0.058270197
0002f0 aa 1c b4 3d 04 85 53 3e 03 ff 81 be a1 70 74 3e
       0.0879453 0.2065621 -0.2538987 0.2387109
000300 ea cb a4 bd 68 d5 bd bc 89 4c aa bd fe 0f ce 3d
       -0.08046706 -0.02317305 -0.08315379 0.10061644
000310 e3 56 f5 3b 18 b2 14 bc 19 80 37 3e bd f8 4a be
       0.0074871643 -0.009075664 0.17919959 -0.19821449
000320 eb 80 70 be 23 52 b7 3d a3 dc d8 3d 27 9d 2b 3e
       -0.23486678 0.08951213 0.10588958 0.16759168
000330 f4 5b a2 bd 58 f7 b7 3d 4d 91 9d bd 8a cc 9f 3c
       -0.07927695 0.08982724 -0.076937295 0.019506712
000340 15 53 3d bd cc 50 6f 3d bd f7 2a bc f5 47 2d be
       -0.04622181 0.058426663 -0.010435042 -0.1692198
000350 14 14 50 be 31 ce b1 bd 6f 7f 2d be 8b f1 81 bc
       -0.20320159 -0.08681906 -0.16943143 -0.015862247
000360 bb 07 a3 3d a5 2f 2e be e5 ff 5c bd 90 64 c7 bc
       0.07960459 -0.17010362 -0.053954978 -0.024339944
000370 3c 01 99 bd 95 f5 ae bc b9 1a ca 3d 37 a5 be 3d
       -0.074709386 -0.021357337 0.09868378 0.09308856
000380 81 46 c5 3d a4 fb 9f bd b3 e1 57 3b b5 2b 6b be
       0.09632588 -0.078116685 0.0032940924 -0.22965892
000390 e1 4e c8 3d 36 00 7e 3d e7 d4 84 be 9a ea 05 3d
       0.0978067 0.06201192 -0.25943682 0.032694437
0003a0 d8 ef c8 be 73 fb 9d be 20 3e 76 bb 8f b4 36 3d
       -0.39245486 -0.30855903 -0.003757365 0.044605788
0003b0 0f c9 70 3c 94 5a a5 bd 93 1a f0 bd 70 5a d5 bc
       0.014696374 -0.08073917 -0.11723819 -0.0260441
0003c0 3f 94 a2 3d a8 46 36 3c 19 30 f7 bc ff 92 b0 bd
       0.07938432 0.011125244 -0.030174302 -0.08621787
0003d0 1f e5 b8 3d a7 28 fd bd 69 c3 92 3d 91 c1 c1 bc
       0.090280764 -0.123612694 0.07166178 -0.02365187
0003e0 ea f0 1e 3e 64 55 3e bd 0f 56 88 bd 4c 49 1d be
       0.15521589 -0.046468154 -0.066570394 -0.15359992
0003f0 fa 17 3e be 68 15 07 be ea a0 81 3e 8e 28 31 3d
       -0.18563834 -0.1319176 0.2531808 0.043251567

network_body._body_endoder.seq_layers.2.bias f4 [128]
000000 54 02 fa 3c ac ca e2 bb 0b c2 dc 3c 58 2a 2a 3d
       0.030518688 -0.006921133 0.026947996 0.04154429
000010 99 b5 e7 bc c3 63 9f bc e3 b7 36 bd ae 95 b1 3b
       -0.028284835 -0.01945675 -0.04460896 0.0054194545
000020 85 be 5d bd 01 f0 fd bc d4 de 08 bd 60 b3 73 bc
       -0.05413677 -0.030998232 -0.03341563 -0.014874309
000030 38 4c 42 3c 53 ea 17 3c 68 78 19 3d 07 b1 86 bb
       0.011858992 0.009272176 0.037468344 -0.004110459
000040 e6 c8 96 3d c7 aa ae bd f7 85 21 bc 2e f8 64 3c
       0.07362537 -0.08528667 -0.0098586 0.013975186
000050 d4 e7 38 3d 21 9c 31 bc 32 51 00 bd 63 85 3c bc
       0.045142964 -0.010840447 -0.031327434 -0.011506411
000060 d0 eb 85 bd 97 4a 93 bc 18 ad 81 bc dd f0 80 3c
       -0.06539118 -0.017979903 -0.015829608 0.015739853
000070 46 81 88 bb d3 7c 05 3c 24 52 bc 3b 38 1a 8b 3d
       -0.004165801 0.008147436 0.0057470966 0.0679211
000080 eb d7 a9 3d 84 aa 9f 3d 9f ed dd bd d2 66 df 3c
       0.08293136 0.07796195 -0.10836338 0.027270708
000090 81 30 24 bb 26 8d 81 ba ec cd 5d 3c cd c6 c5 bc
       -0.0025053325 -0.0009883984 0.013537865 -0.024142647
0000a0 7b 40 19 3c 55 26 38 bc f9 cd f1 bc 65 bc 16 bd
       0.009353752 -0.011239608 -0.02951716 -0.03680076
0000b0 d1 50 40 3c 21 a0 64 bc a7 a2 c2 ba 42 f3 fc 3b
       0.011738018 -0.013954193 -0.00148495 0.0077194283
0000c0 a5 23 80 bd fc ff 84 bd c3 f4 79 bc 1b 12 b6 bc
       -0.06256799 -0.06494138 -0.01525611 -0.02222543
0000d0 03 61 18 bd a7 4d 23 bd c7 2d 73 3d a8 bf 78 3c
       -0.037201893 -0.039868977 0.05936983 0.015182413
0000e0 a1 f1 70 bd 34 dd 5d 3c 81 76 52 3c 76 45 e2 3c
       -0.058824185 0.0135415085 0.012845636 0.027621012
0000f0 3d 3b 2b bd e9 4f 19 bc 20 74 0b 3d 0d 80 20 bc
       -0.04180454 -0.009357431 0.034046292 -0.009796155
000100 04 1c 05 3d cf bc 3b bd 0e 76 7a 3d 83 a6 15 3c
       0.03249742 -0.04583436 0.061147742 0.009133938
000110 4e 72 39 bd 44 25 b0 3c 37 9b db 3c ef 71 27 bd
       -0.045275025 0.021502145 0.02680741 -0.04088014
000120 3f d2 5c bb 9d 37 ab 3c d1 02 b9 3c 2d 79 38 bc
       -0.0033694652 0.020900542 0.02258435 -0.011259359
000130 94 cf 61 bb d2 78 42 3d 8a 7a eb 3c b2 35 b0 bd
       -0.0034456002 0.047478504 0.028744955 -0.086039916
000140 a6 df 8b bc 5a c6 8e 3d 58 7b 31 bc 07 ac 15 bd
       -0.017074417 0.06971426 -0.01083263 -0.03654101
000150 52 9a 09 bd 7d b5 b6 3d 05 21 84 bc 0c 96 51 bd
       -0.033594437 0.08921335 -0.016129026 -0.051168486
000160 a4 e7 83 bd e3 f8 e2 bd f5 49 d6 bc 32 c0 0d 3c
       -0.06440666 -0.110826276 -0.026158312 0.00865178
000170 da 4e 5d bd f5 88 23 bd de c9 64 bc fb ca 3c 3d
       -0.054030277 -0.039925534 -0.0139641445 0.046092015
000180 16 2b 1b 3d 38 78 15 bd 9d aa 83 bd 09 37 8a 3d
       0.037882887 -0.036491603 -0.06429026 0.067487784
000190 45 50 ce 3c f0 b3 8d bc 0b 7e 90 3d 9b 8f f4 bc
       0.02518476 -0.017297715 0.07055291 -0.029853633
0001a0 6b 59 70 3c 7b db 54 3d 39 b5 3f 3d e3 fb 6a bb
       0.014669756 0.051967125 0.046803687 -0.0035855703
0001b0 a1 05 9f 3b e3 f6 31 bd 87 20 32 3d a9 b4 5d bc
       0.004852966 -0.04344834 0.04348805 -0.013531842
0001c0 94 e5 15 3d 57 45 07 bc e0 e6 66 3d 12 75 00 3c
       0.036595896 -0.008256278 0.056372523 0.007840412
0001d0 d9 3c bd bb 61 29 95 3d 0d bd 5f bc 7d a1 a1 bc
       -0.005775076 0.07283283 -0.013655913 -0.019730324
0001e0 a0 3e 88 3a e5 59 cd bc b0 cb 68 3d 37 7e 17 3d
       0.001039464 -0.02506728 0.056834877 0.036985602
0001f0 bb 8d d0 bc 3b 5e d2 3c bd ee 27 bc c5 d6 88 38
       -0.025458207 0.025679698 -0.010249791 6.524989e-05

action_model._continuous_distribution.log_sigma f4 [1, 2]
000000 30 ac 79 bf 88 13 6e bf
       -0.9752836 -0.9299855

action_model._continuous_distribution.mu.weight f4 [2, 128]
000000 3d 68 31 3d 28 ac 78 3d 5d fd dc bc 6b 99 63 bd
       0.0433123 0.060711056 -0.026976282 -0.055566233
000010 78 9d bb 3c 54 90 1f bd 53 27 6e 3d f1 39 c3 bc
       0.022902235 -0.038956 0.05814297 -0.02383134
000020 88 5d a7 bc 1c 40 96 3c 3e 66 c2 3c 5d ff 94 bd
       -0.020430341 0.018341117 0.023730393 -0.07275269
000030 5a 58 19 3d 97 75 04 bb 85 92 b9 bd 31 b9 d3 bc
       0.037437774 -0.002021169 -0.090611495 -0.025845142
000040 5f 80 8e 3c 61 4f 8d bc 82 26 1c 3c 35 5f 01 bb
       0.017395196 -0.017249765 0.009530665 -0.0019740586
000050 87 a0 c6 3d 1b 95 65 bd 0e 8c ed bc 86 20 95 3b
       0.09698587 -0.0560504 -0.028997447 0.0045509962
000060 13 7b c1 3c ba e6 b6 3d 69 4e 25 bd 87 b3 83 bd
       0.023618257 0.08930726 -0.04035798 -0.064307265
000070 59 85 85 3c dd 2e 86 3a c8 f9 ab 3c 17 09 d6 3b
       0.016298937 0.0010237355 0.020993128 0.0065318453
000080 86 5f 16 be 75 38 ab 3b 67 d4 7a 3c 48 6f 2a 3d
       -0.14684877 0.005225236 0.01530943 0.041610032
000090 fa 3e 99 3b 2b 14 45 3d de fc d7 3d 8d 0a 39 3e
       0.004676697 0.048114937 0.105462775 0.18070431
0000a0 9e f6 8f bd 08 80 3b bd 2e 88 39 bc 1f ae 9b bc
       -0.0702946 -0.045776397 -0.011323972 -0.019003926
0000b0 16 9c 39 3b b9 43 87 bc 01 89 59 3c b2 6c 08 3d
       0.0028321794 -0.016511785 0.013277293 0.033306785
0000c0 4f fc 3f bb 37 ef 4f 3b f8 6c e8 bc f6 83 20 3e
       -0.0029294675 0.0031728277 -0.028372273 0.15675339
0000d0 4e 13 21 bd 3a c0 bc ba f4 7b 67 bd 69 78 cf bc
       -0.03932505 -0.001440055 -0.056514695 -0.02532597
0000e0 51 20 4b bc 59 29 89 3b d6 36 47 ba a5 a4 eb 3c
       -0.012397842 0.004185837 -0.0007599419 0.028765032
0000f0 29 76 f3 3a 06 f6 5b 3c 85 61 87 bd b3 9e 45 bc
       0.0018574643 0.013425356 -0.06610397 -0.012061763
000100 69 6c 93 bb 2a b7 8b bd 95 4d 0a 3e 56 90 dd b9
       -0.0044990075 -0.06822045 0.13506158 -0.00042259943
000110 e3 73 69 3b 51 1e 93 3c 9c 2a 63 3c 56 8c d4 bb
       0.0035622052 0.017958792 0.013865139 -0.006486456
000120 78 31 1b bc cd 35 90 3c ca 1d f1 bc b7 e0 1b bd
       -0.0094722435 0.01760378 -0.02943315 -0.0380561
000130 fe f0 26 3c f9 c4 a7 bc 1d 79 34 be 43 ff 97 3d
       0.010189293 -0.020479666 -0.17624326 0.07421734
000140 64 9d de bd b3 23 52 be c5 c2 0b 3c 28 5f 3d bc
       -0.10869864 -0.2052143 0.008530323 -0.011558332
000150 bc 16 56 bb 68 55 c7 3d e0 3e aa bc cc 62 03 bc
       -0.003266736 0.09733087 -0.020781934 -0.0080191605
000160 21 e7 92 3b 37 b3 10 3d 3b e6 17 3d f3 8f ec bc
       0.004483119 0.035327163 0.0370848 -0.028877234
000170 32 e7 b1 3c 0b 42 9e 3c 59 25 92 bc 46 ed 09 be
       0.021716688 0.019318601 -0.017840074 -0.13469419
000180 3a 1f a3 3c 57 96 bb 3c 89 5d ce 3c 05 b8 c0 bb
       0.01991235 0.022898836 0.025191085 -0.005881312
000190 e8 ec 18 3d dd 82 2b bc 37 fe c7 3b fa d1 5d bc
       0.037335306 -0.010468212 0.006103303 -0.013538832
0001a0 65 fc e3 bd 8f 3d 8b 3d 69 04 17 bc fb a5 1a bd
       -0.11132125 0.06798851 -0.00921736 -0.037755948
0001b0 9a a2 1b bd de 91 63 bc 2b dd d5 3d 3c 7b 41 3b
       -0.037996866 -0.013889758 0.10442575 0.0029522916
0001c0 28 00 42 3c 63 79 b0 3c 35 56 28 bb 7d 0a 2f 3d
       0.011840858 0.021542257 -0.002568615 0.04273461
0001d0 cd 4b c6 bc 5b 8f 1c 3c c9 a3 27 bc 0a c2 e8 bd
       -0.024206067 0.009555663 -0.0102319205 -0.11365135
0001e0 b6 92 70 3d ee e0 be bb 67 c3 31 bd 7f 6a 88 bd
       0.058733664 -0.0058251536 -0.04339924 -0.066609375
0001f0 dc 94 12 3c 4e dc 17 be 88 37 61 3c ce 99 eb 3c
       0.008946624 -0.14830133 0.01374615 0.028759863
000200 2c 42 90 ba 68 6a d7 bc 03 d7 00 bd c6 2b 7e bc
       -0.0011006049 -0.026295856 -0.03145505 -0.015513366
000210 35 91 d3 bc e1 2b ec 3b 0b ca ef 3c f1 82 f8 3c
       -0.025826076 0.007207379 0.029271146 0.030335875
000220 23 e3 22 3d 76 0f 00 bc e8 a8 2f bd 18 19 72 3d
       0.039767396 -0.007816186 -0.04288569 0.059105963
000230 48 8e 87 bd 53 85 32 3c de 7c 0f be 15 e4 2b 3c
       -0.06618935 0.010896045 -0.14012477 0.010491391
000240 54 a6 e4 3c a3 33 03 3c a9 d3 85 bd 52 e8 07 3c
       0.027911343 0.008007917 -0.065345116 0.008295136
000250 c1 e7 76 bd ee 56 0d 3c d3 8c 59 3d 05 80 35 3c
       -0.06027961 0.008626683 0.053112816 0.0110778855
000260 5f 25 70 bd 85 e8 e2 bc 5e 3c 21 3d 75 f1 67 3b
       -0.05862939 -0.027698765 0.03936421 0.0035391722
000270 15 68 e9 3b 78 9f 31 ba 3c d4 95 bd a8 b6 ad bc
       0.0071230032 -0.0006775777 -0.07315871 -0.021205261
000280 8e 7a 38 bc 38 d5 74 3b 4a 61 95 bc e0 29 ee 3c
       -0.011259688 0.0037358534 -0.018234868 0.029072702
000290 eb 18 ce bc 68 36 f2 3d d2 57 07 3d bf 1c c5 3d
       -0.025158366 0.118267834 0.033042736 0.096246235
0002a0 41 1f ad bd df bf 55 bc 8d 79 08 bc a6 46 ce 3d
       -0.08453227 -0.013046234 -0.008329761 0.10072069
0002b0 e6 6a 28 3d 00 b8 0b 3c 38 5f fb bc ba 33 fd bc
       0.04111757 0.008527756 -0.030685052 -0.030908454
0002c0 d4 60 0a bd 83 cf c8 bc 65 a2 8c 3d e3 9f 04 bd
       -0.03378375 -0.024513012 0.06866912 -0.032379042
0002d0 f2 e3 95 bb 4b 43 b3 3b 6b 97 8b 3d c1 16 5a 3d
       -0.0045742923 0.0054706684 0.0681599 0.053244356
0002e0 16 ba ae bc 6a 08 38 bb 87 77 4e 3d 1c e8 31 bc
       -0.021328967 -0.0028081187 0.05040696 -0.010858562
0002f0 3c 24 0b bd 36 cf 6b 3c 61 02 a1 bd e2 13 86 3c
       -0.033970103 0.014392665 -0.07861782 0.016366903
000300 44 70 0d bd 09 5b 46 3c 63 89 b2 bd 2b 55 2c 3c
       -0.034530893 0.012106665 -0.08717611 0.0105183525
000310 69 14 c1 bb ba c0 ae 3d fe 95 fa bb 75 a3 b3 bc
       -0.0058923257 0.085328534 -0.007647275 -0.021928528
000320 dc aa 16 bd e3 d8 d8 3b 03 ca c4 bd df fb 00 3d
       -0.036784038 0.006617652 -0.09608843 0.031490203
000330 50 74 ec 3c 71 75 8a 3a 63 d1 62 3d a2 6e 09 bd
       0.028864056 0.0010563565 0.055375468 -0.033552773
000340 33 4c 30 3d f8 9d 16 be c6 74 bf 3c 6c d7 b0 bc
       0.04304142 -0.14708698 0.023371112 -0.021587096
000350 6e a8 66 3c f3 11 b7 3d 92 f4 79 b9 5c a6 7b bd
       0.014078243 0.089389704 -0.000238376 -0.06143795
000360 b2 07 6f 3c 64 1a 6d bd 6f 36 cc bb 2d ae 82 3d
       0.014589237 -0.057886496 -0.006232075 0.06380878
000370 96 a2 2c bd 8f c7 52 bd fd dc 04 3d 24 25 9d 3c
       -0.04214724 -0.051459845 0.032437313 0.01918275
000380 77 23 29 bb 0a c7 9c 3c 7d fc c7 3b 94 3e 04 3e
       -0.0025808492 0.019137878 0.006103097 0.12914497
000390 b1 eb 9d bc d5 fa e2 3c 13 69 11 3c 3e 8d f7 3c
       -0.019277425 0.027707497 0.008875149 0.030218717
0003a0 b4 72 13 bd fb 7c 10 3b 41 97 08 3e 92 47 81 bd
       -0.03599806 0.002204715 0.13338949 -0.06312479
0003b0 0e 1c a2 bb 15 71 0d 3b 54 11 ff 3b 05 c4 9d bc
       -0.004947192 0.0021582295 0.007784048 -0.019258508
0003c0 6b 50 42 3d f7 63 0f 3d 04 7d f7 3d 5e 3e 92 3d
       0.047439974 0.035007443 0.12084392 0.07140802
0003d0 17 20 4e bb e2 62 8b 3d 4f da 44 3d 31 8c 99 bd
       -0.0031452233 0.0680597 0.048059758 -0.074974425
0003e0 2b b2 de bc 95 e7 b1 3b f7 9c a3 3c fe 86 10 bc
       -0.027184566 0.005429218 0.019972308 -0.008821247
0003f0 c3 42 83 bc bf a8 ba 3d 61 6c 98 3c 90 1c 1b bc
       -0.016023045 0.09114217 0.018606367 -0.009467259

action_model._continuous_distribution.mu.bias f4 [2]
000000 ea 4f b2 b9 56 c9 8b 3c
       -0.00034010346 0.017063778

action_model._discrete_distribution.branches.0.weight f4 [2, 128]
000000 30 25 8a 3e 15 01 a3 3e bf 51 1f be a0 f6 cb 38
       0.26981497 0.31836763 -0.15558527 9.725732e-05
000010 99 c4 7c 3a 80 c4 bc 3e 69 40 29 3d 3a b5 b0 3e
       0.00096423324 0.36868668 0.041321192 0.34513265
000020 66 5b dd bd d4 5a 65 3e 0f bc 7f 3e 2d 22 8b bc
       -0.108084485 0.2239793 0.24974082 -0.01698407
000030 4a 32 c9 3e dd f8 6a bd 38 92 21 be 6e d6 54 3e
       0.3929618 -0.05736624 -0.15778434 0.20784923
000040 44 33 9c 3d 87 f8 8c 3e 5d 74 41 3e 23 1b c7 3d
       0.07626966 0.2753336 0.18892045 0.09721973
000050 0f 81 dc bd 99 02 a8 3b 0c 67 74 3e 15 d7 55 bd
       -0.107668035 0.005127263 0.23867434 -0.05220707
000060 67 66 05 3e e3 fc 3a 3e 61 8e a4 3d ca ea df bc
       0.13027345 0.18260531 0.08034969 -0.027333636
000070 e4 7c 75 bd e8 4d 8a 3e 61 34 34 be 84 68 93 3e
       -0.059933558 0.27012563 -0.17598106 0.28790677
000080 a2 d7 39 be ad 56 b1 3e 25 0b cb 3e 68 bc 19 be
       -0.18148664 0.3463644 0.3965694 -0.15013278
000090 0a c5 9d bd 02 d4 17 3d b5 d6 1a be ea 6b 3c 3d
       -0.07703598 0.03706742 -0.15120967 0.046001352
0000a0 7d cb 3b bc a6 9a 07 be cc ff 6b 3e f3 56 dd bd
       -0.01146209 -0.13242587 0.23046798 -0.108076
0000b0 bb 3e 22 3e 8e 1a 02 bd 6d c5 da 3b 88 80 03 be
       0.15844242 -0.031763606 0.006676367 -0.12842
0000c0 20 5d 9e 3e ed 53 86 3e 7e b1 5b 3b 83 bf 0d 3e
       0.30930424 0.26235905 0.0033522542 0.13842587
0000d0 58 dc ae bd 06 a7 7a 3d 19 38 02 be 83 0a d9 bc
       -0.08538121 0.061194442 -0.12716712 -0.02649427
0000e0 9c ea 99 bd c9 0a a4 3e d7 a6 02 bd 45 17 1f be
       -0.07515451 0.32039478 -0.031897392 -0.1553622
0000f0 3e 40 e7 ba 49 07 bd 3e 6b b2 09 be ea bf f9 3d
       -0.0017643047 0.3691962 -0.13446967 0.12194808
000100 8c 9c 42 3d e6 e0 98 bd af 08 13 bc 3a 26 b3 3e
       0.047512576 -0.07464771 -0.008974238 0.34990102
000110 8b 9d 86 3d ca 15 39 be 01 e9 80 3d 1c ab 7d 3d
       0.06573018 -0.18074718 0.06294442 0.06193076
000120 92 f9 02 3e 6b f2 b2 3d fe cd 35 3c b0 f9 8b bd
       0.12790516 0.08737644 0.011096476 -0.068347335
000130 50 82 9a bd 70 e0 43 3d 69 78 2a be d4 ba ce 3e
       -0.075443864 0.047821462 -0.16647495 0.40376914
000140 6f 27 17 be 33 8e 5e 3c ed 21 61 be c6 cb 11 3e
       -0.14761136 0.013583708 -0.21985598 0.1423789
000150 de d3 95 ba fa fe 93 bd 58 74 6d 3d e8 f5 c1 3d
       -0.0011430939 -0.07226367 0.057972282 0.09470731
000160 33 fc 8a 3e 36 7b b7 3e 46 d1 99 bd 86 15 a3 bc
       0.27145538 0.3583619 -0.07510619 -0.019907724
000170 f9 8e a6 3e 8a 0e 17 bd d4 2f 44 be a7 29 31 3c
       0.32530954 -0.0368791 -0.1915887 0.010813153
000180 07 c3 34 3d 55 7f 4a 3d 25 e6 8b 3e 7a fe 5f be
       0.044131305 0.04943784 0.27324024 -0.21874419
000190 7e d8 b1 3e 47 6e 7a 3e e2 7c c7 3e 28 4e 98 3a
       0.34735483 0.2445613 0.38962466 0.0011619972
0001a0 81 eb 2f be 5a d3 8f 3d 11 1f 38 3e 41 14 fb bc
       -0.17179681 0.07022734 0.17980601 -0.030649306
0001b0 94 91 2c 3b bc d7 8d 3d 26 ab 6e be 47 d2 d6 bd
       0.0026331889 0.06925914 -0.23307475 -0.10489326
0001c0 9d 5c 5d be 5d dc 9e 3b 56 18 26 be f9 f8 5c bc
       -0.2161736 0.0048480467 -0.16220221 -0.013487094
0001d0 98 f9 b0 3d 81 c5 44 be 20 36 17 be bf f3 6c 3d
       0.08641356 -0.19215967 -0.14766741 0.057849642
0001e0 c8 70 b7 bd d6 ea 10 bd 7e bd 89 3c ca 51 4d be
       -0.08957058 -0.035380207 0.01681399 -0.20050731
0001f0 bc 67 eb 3d 70 bb 8a be b2 35 6d 3c cc 64 2c 3e
       0.11494395 -0.27096128 0.014478134 0.16835326
000200 12 5e 94 be 84 8d 9d be a9 21 21 3e 95 b5 8f 3b
       -0.2897802 -0.3077203 0.15735497 0.00438566
000210 65 93 1e bb 32 7c bc be 40 de 1d bd 04 b1 a8 be
       -0.002419674 -0.36813504 -0.038542032 -0.32947552
000220 53 a7 ea 3d 9d 70 6f be 53 b2 77 be ee a7 b6 3c
       0.11457696 -0.23382802 -0.24189119 0.022296872
000230 fc f4 c9 be a8 5b 6f 3d 1e 87 24 3e fb 83 62 be
       -0.3944472 0.05843702 0.16067168 -0.22120659
000240 25 ba aa bd 67 46 89 be a4 60 2b be 5e 02 e1 bd
       -0.083362855 -0.26811525 -0.16736084 -0.1098678
000250 fb bb d2 3d 7e e1 2f 3a 85 d6 80 be aa 0d 1f 3d
       0.10289761 0.0006709321 -0.25163665 0.03883139
000260 82 c0 04 be 92 d6 39 be ff ed 8b bd 4b c2 db 3c
       -0.12964061 -0.18148258 -0.068325035 0.026826045
000270 fa 75 23 3d 71 eb 8a be 82 d6 37 3e 61 77 91 be
       0.039907433 -0.27132753 0.17952922 -0.2841139
000280 d9 85 42 3e f7 39 bf be 6f dd ba be 38 90 1d 3e
       0.18996371 -0.3734891 -0.36497065 0.15387046
000290 1e 23 cf 3d 3d f0 3e bc c6 d0 0a 3e 8c 03 74 bd
       0.1011412 -0.011653957 0.13556203 -0.059573695
0002a0 a1 69 3b 3c db 0a 06 3e 4a 23 74 be 76 a6 d7 3d
       0.011438758 0.13090079 -0.23841587 0.10529797
0002b0 ff ad 19 be d6 52 78 3c 65 d2 00 bd e2 0e 16 3e
       -0.1500778 0.015156468 -0.031450648 0.14654115
0002c0 cd 4b 9d be 44 c0 89 be 2a 1c 9c bc 6f 92 04 be
       -0.30721894 -0.269045 -0.019056398 -0.12946485
0002d0 55 f4 bb 3d bc 03 63 bd 0c 20 0c 3e 5f af b6 3c
       0.09177462 -0.055423483 0.136841 0.02230042
0002e0 ea 02 93 3d 6f 90 ab be 39 3e 17 3d 30 2c 1f 3e
       0.0717829 -0.33508632 0.036924575 0.155442
0002f0 6f c1 3d 3c bb cf ba be 19 cc d3 3d 34 71 f2 bd
       0.011581763 -0.3648661 0.10341663 -0.11837998
000300 a1 d7 15 bd a3 19 99 3d 2b 6c b6 3c 0c cf ac be
       -0.036582593 0.07475593 0.022268375 -0.33751714
000310 47 c6 6b bd bf e2 3b 3e 69 d0 38 bd 0e b7 74 bd
       -0.05756214 0.18348216 -0.04512063 -0.059744887
000320 ea 55 0a be 4b 3c dc bd df 98 93 bc be 82 97 3d
       -0.13509336 -0.107536875 -0.01801723 0.07397984
000330 ed 16 93 3d 4e c0 72 bd 45 cd 33 3e 90 1a d2 be
       0.07182107 -0.059265427 0.17558773 -0.4103589
000340 f1 37 19 3e 30 40 1f bb a6 37 5b 3e 10 d2 12 be
       0.14962746 -0.0024299733 0.21407947 -0.14337945
000350 99 6f 67 3b 12 c7 9b 3d 27 a2 56 bd 0e 53 b7 bd
       0.003531432 0.07606329 -0.052400734 -0.08951388
000360 a8 34 8d be e0 ad b9 be 3e c2 a2 3d ef e1 1f 3d
       -0.27579236 -0.3626547 0.07947205 0.039033826
000370 e5 68 9d be 07 f7 83 3d 63 24 38 3e 18 67 c9 bc
       -0.3074409 0.06443601 0.1798263 -0.024585292
000380 8b b0 d5 bc 93 53 75 bd 63 ed 93 be be 64 49 3e
       -0.026085159 -0.059894156 -0.2889205 0.19667336
000390 5e 10 ac be 2b d6 81 be 3f 22 c3 be fe 1c 00 3c
       -0.33606237 -0.2535871 -0.38112065 0.007819412
0003a0 2f ef 30 3e 00 12 a5 bd 0a b5 3d be f7 17 12 3d
       0.17278741 -0.08060074 -0.18526092 0.035667386
0003b0 44 d2 5f bc 1c 6f 83 bd fc 0a 6d 3e fb a1 dd 3d
       -0.013660971 -0.06417677 0.23148721 0.10821911
0003c0 b3 fb 59 3e e8 66 33 3c b5 7e 21 3e b5 75 3b 3c
       0.21287422 0.010949828 0.15770991 0.011441638
0003d0 df f8 7e bd ce 78 50 3e a4 91 22 3e d5 1a 8c bd
       -0.06224906 0.20358583 0.1587587 -0.06841055
0003e0 f5 3d ac 3d 2d a9 04 3d 48 92 5f bc 22 53 50 3e
       0.08410255 0.0323879 -0.013645716 0.20344213
0003f0 9d 99 e7 bd b0 ea 82 3e 1a fb 0e bb 95 5c 39 be
       -0.11308596 0.25569677 -0.0021817149 -0.18101723

action_model._discrete_distribution.branches.0.bias f4 [2]
000000 ba 22 82 bd d0 22 82 3d
       -0.0635428 0.06354296
