Assets/Models/JumpScene/Jump.onnx (onnx, 98733 bytes, 12 tensors)

discrete_act_size_vector f4 [1, 2]
00000000: 0000 0040 0000 0040
2.0 2.0

network_body._body_endoder.seq_layers.0.weight f4 [128, 49]
00000000: 3a43 813e 4de8 d03d 8eff 09bd 386d 3abd
00000010: 1445 323e 769f 56bd 18c4 2b3d a1ff 3f3d
00000020: a3ce 11be c8d8 113c 2141 a4be fa8c 38bd
00000030: 7921 22be 70b1 92bd 3b0f 2b3d 80cf 80bd
00000040: 18f5 e6bb bbf8 253e 4e3b 4cbe fa57 4b3e
00000050: ceb8 5f3e f78a 573e 679f ff3c edba eebd
00000060: 94cf 293e 366e 94bd 77c7 413a 16da a63c
00000070: 8bf9 2e3e c283 58bd 2d0e 84bd 2c28 f63d
00000080: 2c14 8bbe 15e1 cc3d c92b 88bd c101 14bd
00000090: ce36 18bd 9323 373e dee3 b13d ad1f 493e
000000a0: e511 eabc 8214 fa3d abca cabd 038f c43c
000000b0: 0261 513c 30e7 873e b4e8 953b 96f4 4f3c
000000c0: f2a1 a33e 606b b5be 9554 fcbd 00c6 813c
000000d0: 5705 01be 5697 a3bd 5581 ae3d 5a27 d33c
000000e0: a919 8e3d b66f ce3d 0f4f f53d d33a 01be
000000f0: b008 bb3a c526 8f3e d873 81bd f67b 453e
00000100: 7bfd cc3d fd87 89be 629c f83c ec86 673d
00000110: 6a9f 49be 1cfe 4fbc 9fab bfbb 537c b73c
00000120: feea d93d 243d febd f694 72bd 98b2 eabb
00000130: 2f7d 9b3d 9fb3 2abd 9fc9 53be a4f5 9e3d
00000140: ecf7 eb3d 0d31 3d3c df18 383e 00b7 bdbd
00000150: da5b d7bd df61 2abe 7a38 28be a161 eabd
00000160: 3924 0e3d 5790 4f3e e06b 3abe aee1 b83d
00000170: f94c 15bd 3d1b 143d 2773 413e 7dc8 29bb
00000180: f9bf 08bd e114 28be aadb b53d f597 fd3c
00000190: 3591 b6bd cde2 da3d 0f5f 333e b827 403e
000001a0: ba9c 903d 6a27 4ebe eb88 c53d 916f 093e
000001b0: 1c17 253e be8b e13d c506 cd3e 3867 723e
000001c0: ddd1 333e 8329 023c 1936 b93d 5e7f 663d
000001d0: 3409 043d a299 cfbd 8f43 efbd 0be2 9ebd
000001e0: 738e 463e 0c1b d53b 7141 d1bb b045 a0be
000001f0: ef73 9fbd c82f c53b 881b 013e 2371 b6bc
00000200: 75e5 0b3e 939d 003e dcb1 89bd f1a7 47bd
00000210: 64c2 a5bd dbdf 29bd 3a7b a03d bc9e c9bd
00000220: f943 8cbd d8eb 3bbe b0ef a0bd 75e7 b43d
00000230: 84fe a13a d4f4 2a3e f1fa 22be ef0d 273e
00000240: 0821 c6bd c0d1 193e 2da0 d9bd 2f12 a63d
00000250: 3a16 e7bd 08a9 4bbe 0e92 87be 2362 1d3d
00000260: fc1e 253d 77db 2e3e 84f7 7a3c b5c3 2cbd
00000270: 30f5 c5bd 58c2 23bd 0e7b 94bc 6feb 01be
00000280: 6e09 273a 8e92 33be 3fb6 633e 1d8e b3be
00000290: def3 8cbd 226d 9abd cb5e 733d 11ea 0a3e
000002a0: f9b4 783d 8eba 833e ca1a 523e 854f 0abe
000002b0: bfac c6bb b9f2 913d 9165 22be 92e1 a9bd
000002c0: fcdd 8bbc cd77 fc3d 8d85 55be 7b8e 8abe
000002d0: 2ef5 9e3d 765d 6b3e 931c 5f3d 518e 653d
000002e0: ee9f e5bc a22a 0bbe 3cbf 31be 9e69 593d
000002f0: baf4 7dbd 12ae 03bd b35b ea3d a2b7 8a3c
00000300: 995c 2ebe 1a87 683d 6094 353c bd60 b73c
00000310: ef1a 173e 8c9c 0dbe c43f 85bd 16d0 8ebe
00000320: c5e5 b53d 8395 063e c62b 473d 2cac 99bd
00000330: 4817 fd3b 72e6 5a3d 5fb4 14be ea23 3bbe
00000340: c826 03bd a44e 51bd ff7b 203e e984 b5bd
00000350: 743e 673d cd75 5e3e cffd 823e ed1a 7cbe
00000360: a1be 133e 2662 3cbe 7a9f 1e3e f6e3 17bd
00000370: fc70 e53c 5b9a 883e 615e bbbe 42a8 07be
00000380: 0c1d d8bc fac5 6dbd f1ed b8bb 5413 a53e
00000390: 33d8 5e3c 7c95 aabd 1ec4 75be a009 353e
000003a0: b7ce 85bd eea1 e53d 701c 2dbd c6a8 bcbd
000003b0: e82a 073e cc1a 06be 8955 cabd bdf5 233e
000003c0: 621f 203d ed82 0ebd e1a1 1c3d 2a6c dcbd
000003d0: c6bf a0bd 4bab 473e 0f44 87bc d2ab 3cbe
000003e0: 0f01 f6bd 329e 8cbd 2642 963d 6a75 4b3d
000003f0: e80b cc3d 337f 2ebe 9dbf a13d 7a51 263e
0.25246602 0.10200558 -0.03369098 -0.045514315 0.17409164 -0.052398168 0.041935056 0.046874646
-0.14238982 0.008901782 -0.3208094 -0.04505632 -0.15833081 -0.0716275 0.04176257 -0.062895775
-0.0070482604 0.16208164 -0.19944498 0.19857779 0.21847841 0.21049105 0.031203939 -0.11656747
0.16583091 -0.072475836 0.00073920883 0.020367663 0.1708738 -0.05286003 -0.06448016 0.12019381
-0.27163827 0.100038685 -0.06648976 -0.036134485 -0.03716164 0.17884664 0.0868604 0.1964099
-0.028572986 0.12210943 -0.09901937 0.023993975 0.012779476 0.2654357 0.0045748595 0.012692591
0.31959492 -0.35433483 -0.1232082 0.015841484 -0.12599693 -0.079878494 0.08520762 0.0257756
0.06938488 0.10079901 0.1197797 -0.12620096 0.0014269557 0.27959266 -0.063209236 0.19285569
0.10009285 -0.26861563 0.030348007 0.056525156 -0.19689718 -0.012694862 -0.0058493163 0.02239815
0.10640524 -0.124140054 -0.05922409 -0.0071624033 0.07592236 -0.041675206 -0.20682381 0.07761696
0.11521897 0.011547339 0.17978238 -0.0926342 -0.10515566 -0.16638897 -0.16427794 -0.114444025
0.034702513 0.20269905 -0.18205214 0.0902742 -0.03645036 0.03615879 0.18891583 -0.0025906854
-0.033386204 -0.16414215 0.08879788 0.030956248 -0.08914415 0.1068779 0.1751673 0.18765152
0.07061143 -0.20132223 0.09645256 0.13421465 0.16122097 0.11012982 0.40044227 0.23672187
0.17560525 0.0079444675 0.090435214 0.05627381 0.03223534 -0.10136725 -0.11682808 -0.07757958
0.19390278 0.0065034684 -0.006385975 -0.31303167 -0.077857845 0.006017659 0.12608159 -0.022270745
0.1366175 0.1256011 -0.06723377 -0.048744146 -0.08093718 -0.04147325 0.078360036 -0.09844729
-0.06848902 -0.18351686 -0.07858217 0.088332094 0.0012359177 0.16694957 -0.15916039 0.16313909
-0.09674269 0.1502142 -0.10626254 0.08108937 -0.11283536 -0.19888699 -0.26478618 0.03842367
0.040312752 0.17075907 0.015317801 -0.04217883 -0.096659064 -0.039980263 -0.018125083 -0.12687467
0.00063719496 -0.17536375 0.2223749 -0.3506936 -0.068824515 -0.07540347 0.059416573 0.13565852
0.060719464 0.25728267 0.20518032 -0.13506897 -0.0060630734 0.07126374 -0.15859057 -0.08294977
-0.017073624 0.12327538 -0.20851727 -0.2706183 0.07761608 0.22984871 0.05447061 0.056043927
-0.028030362 -0.13590482 -0.17358106 0.05307924 -0.062000968 -0.03214843 0.114432715 0.016933266
-0.1702751 0.056769468 0.011082739 0.022384996 0.14756368 -0.13829249 -0.06506303 -0.27893132
0.08881716 0.13142972 0.04862573 -0.07503542 0.0077237226 0.053442426 -0.14521931 -0.18275419
-0.032019407 -0.05110039 0.15672301 -0.08863241 0.056456044 0.21724625 0.25584266 -0.24619646
0.14428188 -0.18396816 0.15490523 -0.037082635 0.028007977 0.26680264 -0.36595443 -0.13247779
-0.026381038 -0.058050133 -0.005643599 0.3224131 0.013601351 -0.08329293 -0.24000594 0.17679453
-0.06533568 0.11212526 -0.04226345 -0.092118785 0.13199961 -0.1309616 -0.09879596 0.1601171
0.03909243 -0.03479283 0.038240317 -0.10762818 -0.07849078 0.19498937 -0.016511945 -0.18424919
-0.12011921 -0.06866111 0.073368356 0.04967252 0.099632084 -0.1704071 0.078978755 0.16242018

network_body._body_endoder.seq_layers.0.bias f4 [128]
00000000: a718 fbbb 8402 97bc 97e5 163c e995 42bb
00000010: 89a4 5fbc 13c3 1b3c 9690 a5bc 22aa 603c
00000020: 148c 9f3c 2971 7a3c 8823 6a3c 4036 983c
00000030: e185 023d 1be0 f33c 9a8e bd3c a16e 9a3c
00000040: a3e6 f13b af37 143d b57c 023d 8923 063d
00000050: 7eef 2d3d 173d a4bc 3a63 143d f940 893c
00000060: 0e18 4a3c cfb9 2a3c 242e 6b3d 9101 283c
00000070: 25ce cf3c 2768 643c 303b 0fbb e240 1f3c
00000080: f563 20bc 020d 2c3b 41df 81bc a14c 9e3b
00000090: 6650 973c f3f1 723d 532f 0e3d ab22 25bb
000000a0: 92ed 843b 09d3 b33c 7396 a13c 8652 9bbb
000000b0: 2c94 12bc c22b 3d3d 2e00 9abb 5451 d43b
000000c0: deca 463d 352a e43c c581 fa3a eeb4 06bd
000000d0: f47a 333c a597 023c e2b8 aabc cde6 0ebd
000000e0: 2da7 12bc b850 993c 4c69 75bc 5f12 ce3c
000000f0: 0d09 a8bb ef4a abbc 7f51 22bd db1f 2a3d
00000100: 0688 023d ad06 0dbd d35f 9f3c c440 e0bc
00000110: bc0f e13c 044e 4e3c c24b c9bc 649a a63c
00000120: 1d70 043c 4d09 b0ba 363d 883b 3c27 22bd
00000130: 7061 893c 06d1 4abc 9cca 16bc 8462 7a3c
00000140: 8242 8e3b d8cc 5c3b 1365 53bc 6181 a63b
00000150: c44d d138 4dd9 ad3c b437 a33c 060a 10bb
00000160: e789 253d 2422 d0bc 7069 a83c ce8d 333c
00000170: 0df1 843c 9040 123d 5fa1 6dbc d05b 133b
00000180: 5455 203d 8671 a13c c11e 263d 3aa7 d83b
00000190: 34d3 783c 917c 043d 864b 333d ae17 cfbc
000001a0: 5785 b5ba 6362 a53c 7e6b 5cbb 1cd4 54bc
000001b0: 01d3 9bbb 3029 1e3c 911c a5bb bb71 19bc
000001c0: 6812 1fbb ed26 6c3c 894b a6bb 467c 1abc
000001d0: 5dd1 f73b 2799 a8bb 21db 9a3c 5e06 6a3c
000001e0: 1e55 0c3c 32e4 b33b fa43 3bbc 5644 f33c
000001f0: af6b 89bc d79d 033d 083e c93b 0eeb fc3b
-0.007662851 -0.018433817 0.009210012 -0.0029691404 -0.013650068 0.009506959 -0.020210546 0.013712438
0.019475974 0.015285769 0.014290698 0.018580556 0.031865958 0.029769948 0.023139287 0.01885158
0.0073822304 0.036185917 0.03185721 0.032748733 0.042464726 -0.020048661 0.036227442 0.016754614
0.012334837 0.010420277 0.05741705 0.01025428 0.025366852 0.0139408475 -0.0021855347 0.009720059
-0.009789457 0.002625287 -0.015853526 0.004830912 0.018470954 0.059312772 0.0347131 -0.0025197666
0.004056641 0.021951215 0.01972506 -0.004740062 -0.00894646 0.04618431 -0.0046997285 0.0064794216
0.048533313 0.027852157 0.0019112161 -0.03288739 0.010954607 0.007970725 -0.020840112 -0.034888078
-0.008950991 0.018715248 -0.014978718 0.025155244 -0.005128032 -0.020909755 -0.039628502 0.041534286
0.031868003 -0.034430195 0.019454872 -0.027374633 0.027473323 0.012591843 -0.024572257 0.020337291
0.0080833705 -0.0013430506 0.0041576875 -0.039588198 0.016770095 -0.012378937 -0.009203579 0.015282277
0.0043414244 0.0033691432 -0.012902516 0.005081341 9.9803816e-05 0.021221781 0.019924022 -0.002197863
0.040414717 -0.025406905 0.020558089 0.010959102 0.016228223 0.035706103 -0.014503806 0.0022485144
0.039143875 0.019707453 0.040556673 0.006611732 0.0151870735 0.03234536 0.043773197 -0.025279846
-0.0013848942 0.020188516 -0.0033633406 -0.012990024 -0.0047553782 0.009653375 -0.005038806 -0.009365494
-0.0024272446 0.0144135775 -0.0050749225 -0.009429043 0.0075628 -0.0051452103 0.018903317 0.014283745
0.008565215 0.0054898495 -0.011429781 0.029695671 -0.01677498 0.03213295 0.006141428 0.0077184504

network_body._body_endoder.seq_layers.2.weight f4 [128, 128]
00000000: 3bec 0dbe 1001 c4ba 3fdd b13c e50b 3d3c
00000010: fceb c7bd 0f91 0c3d c862 eebd c66a 63bd
00000020: 4115 7c3d 531c c83c c314 8abc 2d54 2c3d
00000030: edb9 cb3c f933 89bd 71e2 163b 7f0b af3d
00000040: 251a 3abe 2594 aabd 2bd7 e53d 003a b13d
00000050: ba7c 333d 7d2f 583d c5cf 093e 6447 5fbd
00000060: 68a1 133d 912d d5bd 4e58 4ebd 9bfe 17bd
00000070: cca9 64bd 64af d13d a8d1 193e 8e30 1dbe
00000080: 3746 ffbd 7966 5a3d 3990 bc3d 3775 f03b
00000090: 1a9d 19bd d08f adbc 028d d9bd 78fc 8e3b
000000a0: ff0e 963d 4f70 473d 2be4 d03c 50bd b6bd
000000b0: 7c04 a9bd 76d3 36bd 67b4 723d 5270 87be
000000c0: 38cf 2c3d 4c62 803c 2aa3 5dbd b065 f73d
000000d0: 3207 8c3d 828b afb9 4b4e ca3c bf07 ddbc
000000e0: 38df e6bd 3093 923c 3237 893d 0227 2e3d
000000f0: 8b2a 46bd 5a54 d73d 389e 41bd 44c0 193b
00000100: 2e75 bd3d 42fa 67bd e22b 133d 4269 dfbd
00000110: c5db 9e3c 9dcc 38bc d6e0 97bd 8009 ffbd
00000120: 0026 41bd 246c cc3d 969c 4cbd 1c23 e23d
00000130: 6a8c e9bd 15fb fabd 92f9 113e e5f3 e93d
00000140: b038 b8bd 24b5 673d 4379 92bd aed3 f2bb
00000150: bd0b dfbd 89d3 9fbd 09db c0bd 68a4 83bd
00000160: 25bc aa3b 945d 353e 0c6b 003e d4d4 bcbd
00000170: 713b 9ebd ec6e a0bd e65b cd3d 52ce 9fbd
00000180: 1a09 04bc 1bb8 b2bd 471e 2bbc d912 9f3c
00000190: eb58 0f3c 105c db3d 066d a9bd bee6 20bd
000001a0: 0114 ae3d b3f6 ad3c 7e4a 35be 31aa 13be
000001b0: 2581 d33d c9cb 563d ca5b 783e fa55 413d
000001c0: bb23 24bd 2910 923d b9ef 3f3d a61c 7dbd
000001d0: 2149 1d3e b660 853d 40b5 ce3c 578e dbbd
000001e0: 0e33 3e3d 902c e0bd 01a2 993d 7a93 173d
000001f0: ca4c 8e3d 2750 f7bd 7f7e a73d 530d febd
00000200: 3efb cdbc ee0d ea3c 3a37 b13d d5b7 82bc
00000210: b0ae 30be f4a2 25bd 863a 2e3d fd10 803d
00000220: 3064 0a3d ae43 8a3d f2e0 b53d 380b b43d
00000230: 750d 9e3d bd6a 4dbd be56 7ebd 76fe 1fbe
00000240: 6017 a93c 1ea7 8f3d 9c5b 0f3c 7d45 853d
00000250: b4f8 7a3d 4c1b 053e b145 033b 594e 9fbd
00000260: e817 06be 12e3 033e 3aaa f9bd adbe f93d
00000270: 2be0 acbb 3588 89bd 8e34 d13d 5643 5c3b
00000280: 9147 3bbd 899e 0ebe 4ac0 10be 3801 0e3e
00000290: cb1b 073e 37f9 34bd 5714 5fbd 9888 d43d
000002a0: 44fd 3ebb 3e0c 02be 5c8d 9b3b 97e5 4a3c
000002b0: 9f83 873d c121 373e 8162 46bc 7657 503d
000002c0: 03b8 0dbc 461b d03d 2ab3 d43c 191f 713d
000002d0: 6c13 44bc 3814 97bd 5eaf 6b3d 1811 4bbb
000002e0: f6f2 183e aa14 1d3e ca8f 4a3d 658c 373c
000002f0: a3d4 f13a 99b3 dbbc 5553 2a3d 1e68 b43d
00000300: 5998 983c 5ebd 82bc ee66 4abe fdd8 08bc
00000310: 6a27 953a 2d47 293e d2fc 453d b917 0c3e
00000320: f3d9 123e ae72 713d 162d 2abc 7809 183e
00000330: f61b 853d 116f 4a3d 6218 d83b b079 053d
00000340: 1a39 0bbc 7919 e7bd f575 2a3e 2300 e93d
00000350: 0b30 70bd dcb9 f2bd 59cd 8dbc 842c 083b
00000360: 05c8 e23c 69b4 0d3e e634 12bd 0415 e1bd
00000370: 1ab5 4bbd 353f c5bd edc4 d0bc 9da9 72bd
00000380: 1b53 e13d 716b 723c 043c 843c 8414 e6bd
00000390: 41fd dbbd f897 883e 8c7f 9c3c a9b3 f93c
000003a0: 0870 4fbc 9c93 9d3d 44a6 e0bc 6cf2 2bbd
000003b0: 3a4f b9bd 8cd2 6cbc faf2 db3c a120 bb3d
000003c0: 82ab 963d 0caa 9ebc 2bba 113d 8fb3 76bb
000003d0: 1785 b8bd 1da2 9a3d a78c 153d a61a e23d
000003e0: bf07 18bd 897a 15be cf7e fbbc f1d8 00be
000003f0: ca86 09bd 91b5 13be 1dfb fabc c350 9a3a
-0.13859646 -0.001495393 0.021711944 0.01153848 -0.09761807 0.034318026 -0.11639935 -0.05552175
0.061543707 0.024427569 -0.016855603 0.042072464 0.02486893 -0.06699366 0.0023023153 0.085471146
-0.18174036 -0.083290376 0.11222681 0.08653641 0.04382012 0.052779663 0.13458164 -0.054511443
0.0360426 -0.10409082 -0.050377183 -0.037108045 -0.055825993 0.10238531 0.15021384 -0.15350553
-0.12464564 0.05332038 0.09207196 0.007338192 -0.03750334 -0.02118674 -0.10622598 0.0043635927
0.07327079 0.04869109 0.025499424 -0.08922827 -0.082528085 -0.04463526 0.059254076 -0.2645288
0.042189807 0.015671872 -0.054110684 0.12079942 0.0683731 -0.00033482542 0.024695536 -0.026981233
-0.11273044 0.01789245 0.06699981 0.04251767 -0.048380416 0.10514136 -0.04727003 0.0023460547
0.09250866 -0.05663515 0.03593052 -0.10908748 0.019391904 -0.011279252 -0.07415931 -0.12452984
-0.04715538 0.09981564 -0.04995402 0.11041853 -0.11403735 -0.12254921 0.1425536 0.11423472
-0.08995187 0.056569234 -0.07152035 -0.007410488 -0.10890911 -0.07804019 -0.09416778 -0.064278424
0.005210417 0.17711478 0.12540835 -0.09220281 -0.07726181 -0.07833657 0.10027294 -0.07803024
-0.008058811 -0.087265216 -0.01044423 0.019418167 0.008749227 0.10710919 -0.08272748 -0.039282553
0.08499909 0.0212358 -0.17704198 -0.14420392 0.10327367 0.05244044 0.24253765 0.047201134
-0.040073138 0.071319886 0.046859477 -0.0617949 0.15359928 0.06512587 0.025232911 -0.107205085
0.04643541 -0.109459996 0.07501603 0.03700588 0.0694824 -0.12075835 0.08178424 -0.12404885
-0.025144216 0.028571095 0.08653112 -0.015956799 -0.17254138 -0.040438607 0.04253628 0.0625324
0.033786952 0.0675119 0.088807955 0.08791202 0.077174105 -0.05015062 -0.062094443 -0.15624413
0.020641029 0.07014297 0.008749869 0.065073945 0.061272338 0.12998694 0.0020030553 -0.077786155
-0.13095057 0.12879589 -0.12190671 0.12194572 -0.0052757463 -0.067154326 0.10215102 0.0033609471
-0.045722548 -0.13927664 -0.14135852 0.13867652 0.13194196 -0.044182982 -0.054462757 0.10377616
-0.0029142657 -0.12699983 0.004747076 0.01238384 0.066169016 0.1788397 -0.012108446 0.05086466
-0.008649829 0.10161452 0.025964338 0.058867548 -0.011967521 -0.07376903 0.05754029 -0.003098553
0.14936432 0.15339914 0.049453534 0.011202906 0.0018450212 -0.026819037 0.041583378 0.08808921
0.018627333 -0.015959438 -0.19765827 -0.008352515 0.0011379544 0.16531058 0.04833681 0.13680924
0.14340954 0.058947258 -0.010386726 0.14847362 0.06499474 0.049422327 0.0065947035 0.032586753
-0.008497501 -0.112841554 0.1664656 0.11376979 -0.058639567 -0.11851856 -0.017309831 0.0020778487
0.027683267 0.13838352 -0.03569498 -0.109903365 -0.04973326 -0.096311964 -0.025484527 -0.059243787
0.11002179 0.014796124 0.016141899 -0.11234382 -0.10741664 0.26678443 0.019103788 0.030481176
-0.012660988 0.0769417 -0.027423032 -0.04197924 -0.090483144 -0.014454495 0.026849259 0.09137083
0.07356931 -0.019368194 0.035577934 -0.0037643646 -0.0900976 0.07550452 0.03651109 0.11040239
-0.037116762 -0.14597525 -0.030700115 -0.12582757 -0.03357581 -0.14424731 -0.030637318 0.0011773336

network_body._body_endoder.seq_layers.2.bias f4 [128]
00000000: 70d1 843c b0a8 05bc 3e85 12bb e35d ee3c
00000010: f757 c2ba 28d2 b13b 1fc4 e1bb 796c 51bc
00000020: f1ea e33c d6b6 963c 8d84 4a3d c477 ac3b
00000030: 5559 1b3b ca28 c0bc ecea e2bb 3456 e13c
00000040: 4acb a93c 02e5 97bc b79a b43c 6663 f8bb
00000050: 5566 13ba 6097 d13c 7182 593c 855e ad3c
00000060: af0b 8d3c ee99 9ebc 3cd2 033d 22a7 d938
00000070: 1f7a fe3b c253 67bc 89b9 64bc f07d 243c
00000080: ca41 de3c 7e8f 9e3c bcbc 823d 668d ce3c
00000090: 1dec c3b9 d68e 8bbc 1a65 b63c 4a87 c53c
000000a0: 9cdc 583c ac37 3a3d 6ba6 8fbc a272 133d
000000b0: 26f9 1dbc 0b35 813c 17cc 06ba 6a9f cabb
000000c0: b4b1 543b b750 01bc 86c5 693c 2030 8fbb
000000d0: 8ed8 083c 6457 9ebc 1c87 a9bb 9e56 1c3b
000000e0: 9837 a53c 429e 24bc 67d4 81bb a050 f83c
000000f0: ad0e e2bb d6fe e63c fbaa f33c d7e1 723c
00000100: 9a15 b5bc 53e0 253c b483 02bc 302e 0b3c
00000110: c65b 4238 38aa 893c ebcb 423c c87c 783c
00000120: a395 953c fb4a 623c f3e6 b73c b70d 813c
00000130: 3520 0c3d 34a2 cdba fa97 233c 4e1e 853c
00000140: e603 883c 3905 f53b 43d9 d03c 55e9 0f3d
00000150: 5ff8 fc3b a66d cfbc c95a 89bc aced 963c
00000160: 4240 543a facd ce3c 5439 4b3c 353a 963b
00000170: bad1 9c3c 06e2 103b f8f8 8d3b 7e9b 373c
00000180: c0f1 863c 64f3 423c d3d8 86bc 8632 dbbb
00000190: 727d d23b 140e 7dbc 3453 023d fa6e c73c
000001a0: d354 153c 74e5 fc3c 3759 a73b b8a2 2f3a
000001b0: 0b33 213d 58f7 843b 45b1 02bc ed3d 2dbc
000001c0: 2295 adbc 2efd fc3c acf0 b83c 54c8 963c
000001d0: 9bdf 013d baee 473c d8a5 32bc 61ec 7cbc
000001e0: 9497 133c 7e62 debc 1407 093d bcc1 e93c
000001f0: 0eaa 993c 3ab1 5f3b 335b 43bc b4d3 71bc
0.016213149 -0.008157894 -0.002235725 0.029097503 -0.0014827241 0.005426664 -0.0068898345 -0.01278221
0.02782199 0.01839773 0.049442817 0.0052633006 0.002370437 -0.02345695 -0.0069249775 0.027506925
0.020726819 -0.018541817 0.02204643 -0.0075802086 -0.00056228536 0.025584877 0.013275729 0.021163234
0.017217485 -0.019360509 0.032182917 0.00010378497 0.007766023 -0.0141190905 -0.013960251 0.010039791
0.02713098 0.019355532 0.063836545 0.025213908 -0.00037369216 -0.017035883 0.022265006 0.024112362
0.013236191 0.04546325 -0.017535409 0.035997994 -0.009641921 0.015772363 -0.0005142106 -0.0061835544
0.0032454552 -0.007892779 0.014268285 -0.0043697506 0.008352412 -0.01932878 -0.005173577 0.0023855339
0.02016811 -0.010047497 -0.003962088 0.030311882 -0.006898722 0.028197687 0.029744616 0.014824352
-0.022105027 0.010124284 -0.007965971 0.008494899 4.6338675e-05 0.0168048 0.011889438 0.015166469
0.018259829 0.013811822 0.022448992 0.01575361 0.034210403 -0.0015688599 0.0099849645 0.016249802
0.016603421 0.007477429 0.025494223 0.035134632 0.007720038 -0.02532084 -0.016766923 0.018423878
0.00080967334 0.025244702 0.012403805 0.0045845755 0.019142974 0.0022107377 0.004332658 0.011206506
0.016472697 0.011898849 -0.016460812 -0.0066893725 0.0064236457 -0.015445251 0.03181763 0.02434491
0.009114462 0.03087113 0.005107071 0.0006699967 0.03935532 0.004057806 -0.007976835 -0.010573846
-0.021189276 0.030882444 0.022575699 0.01840607 0.031707387 0.012202913 -0.010903798 -0.0154372165
0.009008307 -0.027146574 0.033454016 0.028534763 0.018757846 0.0034132735 -0.011923599 -0.014759947

action_model._continuous_distribution.log_sigma f4 [1, 2]
00000000: 1e1d 1bbd 368f e1bc
-0.037869565 -0.027534109

action_model._continuous_distribution.mu.weight f4 [2, 128]
00000000: eeff 7abc 8261 a8bc b679 f3bc a2cc 76bc
00000010: 344f f2bb 41f4 913c 2949 823c 69b6 6dbc
00000020: e2da 603d 9e6a ebbc b4dd 3dbd 9024 2c3c
00000030: 6ed6 313d 8bb8 9b39 59c4 b33c 8724 75bd
00000040: 72a8 bdbc 4d6f 6a3b e698 393c b737 d83c
00000050: e01f 32bc 5616 213d e881 35bd 623e 52bc
00000060: 7451 84bd 55b8 72bb 29f3 7a3d 4d53 9c3d
00000070: bc15 12bd dd8e b43c 31a6 e73c 93e1 8a3d
00000080: e1b7 63bd 8337 bbbc 518d 4f3b 9919 70bc
00000090: bcca 24b9 81b0 03bc f99f 993c 897f 1a3c
000000a0: 25a9 63bc e4ec 463b 13cb 3e3c ef0b bcbc
000000b0: 2633 833c 334d fb3c 75d2 c53c 2623 0bbd
000000c0: 6061 5d3b a315 da3c 150f 4fbd 2763 093d
000000d0: fa6f 843c 7e4e acbb cc9f 4dbc 6b8e dbbb
000000e0: 5160 22bd 07a8 ef3c a6cd 813b 6f45 293c
000000f0: a293 1c3b 9cb3 743d 643d 5abd b09d 0ebd
00000100: 1ab0 71bc 80b1 83ba 8f2d 1c3d f56d 4e3d
00000110: 7f38 813c 0860 5e3b 2edf 88bc 4f9d 193d
00000120: 16de 13bd e02c 343d c13c 29bd 6636 283d
00000130: 61fd 91bc 9a93 57bc 2c63 26bc c255 1b3d
00000140: b846 253b 8c47 a93c ba9c e3ba 0c00 1ebd
00000150: 6d06 59bd 13f5 f53b ad62 7cbc 3d3a aabc
00000160: 1af5 083d 2b0b df3c fd6d c3bc 3ef5 da3c
00000170: b3aa 18bd 2da3 4bbb 2fbc 283d b12c 30bd
00000180: 7295 d43c ef43 a3bc 1f22 0dbc 1d0b 5b3b
00000190: dfa8 8c3b 20d3 063b e3a2 fa3c c2b9 163d
000001a0: bbb9 833b cfbc 1fbd 3050 923d d4ad a33c
000001b0: 62c8 5dbc cb01 28bd e78e 023d 6bfd 393b
000001c0: 2d2c d83b 474e 07bd d952 48bd 26ba 28bb
000001d0: aa5b c9bd ac11 803d 66cf 123d 2dbc a73c
000001e0: f600 9abc bde4 003d d434 e5bc 3f51 103a
000001f0: cf52 8cbc b992 7c3c e124 543c 8ce3 c13b
00000200: aae1 82bc aaaa 95bb 287a 9fbc fbc8 283d
00000210: bf69 5fbb 5b21 a73c 933f 0fbd 5332 eabc
00000220: 99ac 993c 2527 be3c 0582 0e3d 04c0 5d3c
00000230: 34e3 a1bc c6d7 42bc 11fa 1dbd abab 5fbc
00000240: a4ce 1d3d 9b49 f6bc 9306 0e3d 8cd1 cc3b
00000250: 7078 3cbb 741d 463d c490 fdbc f40b 123c
00000260: b840 423b 998d abbc 4cdb fd3c a797 60bc
00000270: 1aae 8ebc 10b2 21bd 217f e2bc a4be 8b3b
00000280: 0a0a 9ebc 46be 143d b2dd c93d b5ab 9b3b
00000290: a028 1d3c c93e 36bd 12cf f63c 4b46 553d
000002a0: 0bda 823c 1eb0 a33d e7d0 60bb c065 8dbd
000002b0: 45b8 f0bc 6570 a43c 3955 cebc 48e9 b3bc
000002c0: d818 a8bd 9e51 77bd d69a 1fbd 3867 babc
000002d0: 631a 0a3c cd5c 76bd e7b2 61bb 9a76 39bc
000002e0: fd32 143b a502 6abc c373 58bc 8c76 a63d
000002f0: 34e2 36bd 777f 623d c294 813c cd20 54bc
00000300: fb5b 5bbc 61cb 2c3c 867f d939 9ff6 43bd
00000310: d7a0 77bc c04d 903c a97f 343c 24f0 823c
00000320: c9c7 0f3b a83b 1fbc abb2 893c f317 38bc
00000330: 1faa a53c 616e 84bd f741 26bd 11b2 d03c
00000340: a5ff 383c 0ead 2a3a e944 643d afa6 db3c
00000350: 6665 6bbd 3733 a2bc 15bb d0bc 591c 9f3a
00000360: b687 6fbd 91dc 4e3d 301e 7b3b f66e 6dbc
00000370: 0167 0a3c 9362 83bd a998 9cbc acba e8bc
00000380: a9e0 73bd 37b3 cbbb 1640 e1bc 53ee cbbc
00000390: 3aa5 923c 00bc a1bc f3e0 2e3d a2f5 6d3d
000003a0: a596 063c 1d60 5a3c 6b44 76bb bfb0 3c3c
000003b0: 9b97 8a3d 1b2b 88bc fa0e e7bc 1616 e3bc
000003c0: 4e52 8fbc 2d68 143d f610 b33c 3f2e 963c
000003d0: aca5 32bd afae 04bd d0fe 16bc 2f5d 41bc
000003e0: 5040 8bbc 30f3 0dbd 8f34 de3b 66ac 5f3d
000003f0: 1cd7 083d 4f18 523c 2b28 10bd 2d8a 41bc
-0.015319807 -0.020554308 -0.029721122 -0.015063437 -0.0073946957 0.017816665 0.015904026 -0.014508822
0.054896243 -0.028737362 -0.04635401 0.010506764 0.043417387 0.000297014 0.021944212 -0.05984929
-0.02315161 0.0035771907 0.011327958 0.026393754 -0.010871857 0.03932794 -0.04431334 -0.012832256
-0.064608485 -0.003703614 0.06126705 0.07633076 -0.03566526 0.022040779 0.028277488 0.06781306
-0.055595282 -0.022853618 0.0031669925 -0.01465454 -0.00015715783 -0.008037687 0.018753039 0.009429821
-0.013895308 0.00303536 0.011645096 -0.02295491 0.0160156 0.03067646 0.024148205 -0.033969067
0.0033779964 0.026621645 -0.050551493 0.033541825 0.016166676 -0.0052583804 -0.012550306 -0.006700327
-0.039642636 0.029254926 0.003961283 0.010331496 0.0023891707 0.0597416 -0.053281203 -0.03481835
-0.014751459 -0.0010047406 0.038129386 0.050397832 0.01577401 0.003393175 -0.016707983 0.037503537
-0.03610047 0.04398811 -0.041317705 0.041067503 -0.017821016 -0.01315775 -0.01015548 0.037923582
0.0025219154 0.020663999 -0.0017365434 -0.038574263 -0.052984644 0.0075060218 -0.0154043855 -0.020779723
0.033436872 0.027227005 -0.023856157 0.026728269 -0.037272166 -0.0031072602 0.04119509 -0.04301137
0.025950167 -0.019929854 -0.008614092 0.0033423372 0.004292592 0.0020572618 0.030595249 0.036798246
0.0040199435 -0.03899842 0.07144201 0.019980349 -0.0135365445 -0.041017335 0.031874564 0.0028379809
0.006597063 -0.033033635 -0.048907135 -0.0025745719 -0.09831937 0.06253371 0.03584232 0.020475471
-0.018799286 0.03146814 -0.027979292 0.00055052707 -0.01712933 0.015415841 0.012948246 0.0059170183
-0.015976746 -0.004567464 -0.019467428 0.041207295 -0.003409013 0.020401647 -0.03497274 -0.02858845
0.018759059 0.023212025 0.034791965 0.01353455 -0.01976166 -0.011892265 -0.03856856 -0.013651769
0.038527146 -0.030064395 0.03467424 0.006250566 -0.002875831 0.048367932 -0.030952819 0.008913983
0.0029640626 -0.020941542 0.030988358 -0.013708032 -0.017417002 -0.039476454 -0.02764851 0.0042646695
-0.019291896 0.03631427 0.09856738 0.0047506937 0.009592205 -0.04449347 0.030128036 0.05206899
0.015973112 0.07992576 -0.0034304203 -0.06904173 -0.029384742 0.020073125 -0.025187122 -0.021961823
-0.082078636 -0.06038057 -0.038966022 -0.022754297 0.008429143 -0.060147095 -0.003443891 -0.011319781
0.00226134 -0.014282857 -0.0132111935 0.0812808 -0.044649318 0.05529734 0.015818004 -0.012947273
-0.013388629 0.010546536 0.00041484478 -0.047842618 -0.015114031 0.0176152 0.011016765 0.015983649
0.002193915 -0.009718813 0.016808828 -0.011236179 0.020222722 -0.064663656 -0.040590253 0.025475534
0.011291419 0.00065107725 0.05572978 0.02681288 -0.057469748 -0.019799812 -0.025479833 0.0012139186
-0.058479033 0.050503317 0.0038317554 -0.014491787 0.00844741 -0.06415286 -0.019115763 -0.028409325
-0.059540424 -0.0062164324 -0.027496379 -0.024893915 0.017901052 -0.019742966 0.042694997 0.05809558
0.008214627 0.013328579 -0.0037577401 0.011516749 0.06767198 -0.016622117 -0.028205384 -0.027720492
-0.0174953 0.036232162 0.021858674 0.018332599 -0.04361503 -0.032393154 -0.0092160255 -0.011802002
-0.01699844 -0.03465575 0.006781168 0.05460777 0.03340827 0.012823178 -0.035194557 -0.011812729

action_model._continuous_distribution.mu.bias f4 [2]
00000000: ed4a 02bc f847 c43c
-0.007952434 0.023960099

action_model._discrete_distribution.branches.0.weight f4 [2, 128]
00000000: b058 9fbb a6b7 753c df18 08bb b5d1 923b
00000010: 2f94 19bc 014c a93b 4ff5 0139 1c8e 343b
00000020: c73b 273c 3a43 033c b8ce bfbc 7123 5eba
00000030: de6b 793c 16f2 4139 062c 783c b4a7 4a3c
00000040: 8efc e73c b98f 17b9 5f36 87ba ba06 febb
00000050: 3bdc 413c cf6e 87bc 58e1 123c cade 86bc
00000060: a356 b93c fbc2 daba da15 0e3c cd6c 19bb
00000070: 79d4 babb e372 d33a b4b4 6d3b 2e1c 08bc
00000080: 21f2 803b 05a0 833c f29d 28bc 8152 b1b9
00000090: 5bdf a63b 39f7 1c3a 3497 6cbc 91c5 a0bc
000000a0: d586 343c 7977 19bc 29d1 ad3c c82e 483c
000000b0: 60e1 34bc f6bd 79bc 6a24 8a3c 7db4 60b9
000000c0: 42a6 913c 052b d73b 878e 953c e848 77bb
000000d0: be5c 7abb c1e7 393c aa6b 653c ef34 0f3d
000000e0: 46e9 40bc a7ac 283c 3962 c33b 172d 9d3b
000000f0: 99b8 903c 956b 16bb ffc0 a6bc 39ca 2abc
00000100: 396c d43b 4d8d a4bc ae33 e53a 8458 6d3c
00000110: 6edf d03c 545f 9b3b 2385 f93c 2f88 eb3c
00000120: c3e8 713c 30b0 393b fd12 db3c b567 9bba
00000130: 4eba 55bc b0cd dfbb 3962 3fbc 9722 bdbc
00000140: 6756 d23a 6d75 0ebb 1f25 193b 464b c5bb
00000150: 59a5 093c f9fb 583c 7568 0e3c a573 27bc
00000160: b06e eebc 4436 0e3b cd08 8c3b b76a df3b
00000170: c131 8d3c 87e6 333c 8e0f dc3c 1b5d a23c
00000180: 3f0a 0dbc 36c6 a8bb a030 bc3b 8509 ce3c
00000190: 5624 5e3b 8a52 b1bc d781 65bc b1eb 353c
000001a0: 87ba 0f3d 94ec c6bb 2e8e 573b 3d79 b1b8
000001b0: 89a3 15bb 98a3 023c dcbf c83c ea92 9c3b
000001c0: 5c74 ab3b 24bc 5139 f71d 333b 3127 aebc
000001d0: d6fb dcbb 6a18 ebbb 96ee 0b3c f648 40bc
000001e0: fcb8 543c 4d88 983b 21dd c0bb 0a7b 53bb
000001f0: 2e47 373c a68a cf3c e0d6 a63c ad20 293c
00000200: 9a9b ef39 f704 61bc bd20 c9bc 4b77 6f3b
00000210: e231 88bb 1132 303c 63bd 3fba d766 3f3a
00000220: 6c03 a0bb 4f36 613c e873 cb3c ea82 a43b
00000230: 9842 84bb 3bb2 f13c ce96 debb fc81 113b
00000240: 052a 49bd 4a9c 8abb 3594 07ba a6c7 e5ba
00000250: aeda 94bb a163 f4bb 2ae6 f9bc 25a0 9c3c
00000260: dafd 77bc 6853 f3bb ddc4 28bb 9fe3 12bc
00000270: 45d0 203c 32ee 3abc 783b 233a 247f 01bc
00000280: 7970 493b cf99 00bd 21c9 473c 2f88 c2bb
00000290: 95b1 943c e503 313b 6ab3 053c 994d d53b
000002a0: d92f 84bb 9102 69bc 1c85 72bc fd71 0dbc
000002b0: dcbd 67bb 1d44 c93b 95ed 933b 1a10 bfbc
000002c0: a3f8 c9ba 2d5e 0bba 0a0b b4bb cbaf 21bc
000002d0: dcb4 2e3c d6bb 543c 1158 a9bc 765f 38bc
000002e0: 947c fc3b 6092 e9bb 40f0 df3b 6431 d7bb
000002f0: 29b7 fcbb 9454 17bb d3d3 d83b 4d82 ac3b
00000300: 4bbe 8dbb 9e1d 853c 1813 8bbc 52c2 2fbc
00000310: d6d4 b2bb 075f b1bc 4cfb 35bc 6023 33bc
00000320: 1e7c a0bc 0c5b ff3b 73b0 e4bc 5196 85bc
00000330: b67f 163c 0427 2cbc c3bf 4aba 1d1f b63c
00000340: de25 1d3b 0bd3 40bb 7183 54bb 002f ea3b
00000350: 343c bfbc 34e3 54bc ecd9 4a3c 6b0a 793c
00000360: 7ef0 c63c 2b6d baba 1bf9 20bc b6cb 32bc
00000370: 82a5 22bd 62bd a93a ae90 bcbc 0ac2 afbc
00000380: d287 83bb d27c 953b 8be6 42bc ba33 afbc
00000390: ff39 bbbb d1ba 06bb c23d e03b 20c8 aabc
000003a0: 6a63 01bd 9344 b13b 4430 313b d384 813c
000003b0: e3c8 49bc a268 16bb e4c3 77bc 688e ae3b
000003c0: b8cc 92bc 8f96 49bc 7ff6 49bc 9077 793c
000003d0: ebd1 f6bb b8b4 913c 6c94 373c afc5 6c3c
000003e0: dc55 38bc 6da9 c1ba bbde 873b cfdf df3b
000003f0: 1104 39ba 9c7f 06bc 77f7 52bc 5c8b a9bc
-0.0048628673 0.0149973985 -0.0020766777 0.0044805654 -0.009373709 0.005166531 0.00012393783 0.0027550524
0.010207123 0.0080116335 -0.023414 -0.0008473909 0.015223471 0.00018496098 0.015147215 0.012369085
0.02831867 -0.00014454023 -0.0010315886 -0.0077522667 0.011832292 -0.01653233 0.008964859 -0.016463656
0.02262432 -0.0016690189 0.008672202 -0.0023410798 -0.0057015982 0.0016132261 0.0036271038 -0.0083075
0.003935114 0.016067514 -0.010291563 -0.0003382154 0.005092544 0.0005987767 -0.0144403465 -0.019625457
0.011018475 -0.009366863 0.0212179 0.012218185 -0.011040062 -0.015243044 0.016863067 -0.00021429542
0.017779473 0.0065664076 0.018256439 -0.0037732664 -0.0038202251 0.011346758 0.01400272 0.03496259
-0.011774367 0.01029507 0.005962637 0.004796635 0.017666148 -0.0022952307 -0.0203557 -0.01042419
0.0064826277 -0.020086909 0.0017486715 0.014486436 0.025497165 0.0047415886 0.030458992 0.02875146
0.014764967 0.0028333776 0.026742453 -0.0011856469 -0.013044907 -0.00682994 -0.011681133 -0.023087783
0.0016047478 -0.0021737472 0.0023368073 -0.006020936 0.008401238 0.013243669 0.008691897 -0.010220443
-0.029105514 0.0021699825 0.00427351 0.0068181413 0.017235639 0.010980255 0.026862886 0.019819787
-0.0086084 -0.0051505817 0.0057431012 0.025151024 0.003389617 -0.021645803 -0.014008007 0.0111035565
0.035089996 -0.006070683 0.0032891142 -8.4626e-05 -0.002283307 0.007973574 0.024505548 0.0047782557
0.005232377 0.00020001881 0.0027331093 -0.021258922 -0.0067438884 -0.0071745412 0.00854077 -0.011736145
0.012983557 0.00465492 -0.0058857356 -0.0032269382 0.011186404 0.025334667 0.020366132 0.010322732
0.00045701565 -0.013734094 -0.024551744 0.003653961 -0.004156337 0.010754124 -0.00073142926 0.0007301396
-0.0048832204 0.013745858 0.024835542 0.005020489 -0.004036259 0.029503932 -0.0067928797 0.002220272
-0.04911234 -0.004230057 -0.0005171926 -0.0017530813 -0.00454267 -0.0074581658 -0.030505259 0.019119332
-0.0151362065 -0.0074257143 -0.0025752105 -0.008965402 0.00981528 -0.011409329 0.0006226818 -0.007903848
0.0030737205 -0.031396683 0.012193949 -0.0059366445 0.018151084 0.0027010378 0.008160451 0.0065094945
-0.004034024 -0.014221803 -0.014802244 -0.008633134 -0.0035360968 0.006142153 0.004514406 -0.023323108
-0.0015409183 -0.00053164625 -0.00549448 -0.0098685725 0.010663237 0.012984237 -0.020671876 -0.011253228
0.0077052806 -0.007128045 0.00683406 -0.006567167 -0.007712264 -0.0023091184 0.0066170483 0.0052645565
-0.004325663 0.016249474 -0.016976878 -0.010727482 -0.005457501 -0.021651758 -0.011107277 -0.010933727
-0.019590434 0.007792836 -0.027916169 -0.016307028 0.009185722 -0.010507349 -0.0007734263 0.022231633
0.002397887 -0.0029422666 -0.0032426978 0.007146716 -0.023344137 -0.012993623 0.012381058 0.015200238
0.024284597 -0.0014223208 -0.009825016 -0.010912826 -0.03970862 0.0012950117 -0.023018207 -0.02145483
-0.004013994 0.004561999 -0.011895786 -0.02138697 -0.005713701 -0.0020558129 0.0068432996 -0.02084738
-0.03158895 0.005409786 0.0027036825 0.015810406 -0.0123159615 -0.002295055 -0.015122388 0.0053270347
-0.017919883 -0.012303962 -0.012326836 0.01522626 -0.0075323484 0.017786369 0.01120482 0.014451428
-0.011250939 -0.0014775224 0.0041464246 0.0068321 -0.0007057796 -0.008209135 -0.012876383 -0.020696335

action_model._discrete_distribution.branches.0.bias f4 [2]
00000000: b0e6 47ba ade6 473a
-0.00076256227 0.0007625621

action_model._discrete_distribution.branches.1.weight f4 [2, 128]
00000000: 4f93 793c d42f 063c 9153 21bb db3c 393b
00000010: e0be a63b 234b 873b 18c3 d0b9 0205 293c
00000020: 7cdd 57bb 2cb5 bcba 186c 353c 97c3 1aba
00000030: 163c 283b 93e8 c43a 50ac 1ebc f5fa 4d3b
00000040: c7c3 2dbc 515c b9bb d4d9 ddb8 4320 833b
00000050: 04e4 84bb 2c28 86bb 17d9 9dbb 9613 1b3b
00000060: a719 efbb 3d77 5e3c 92bb a3bc 313e 93bc
00000070: 3822 e03b 62a9 873b f8eb c33a 3d7e aa3b
00000080: 723f 4e3b ef17 74ba c83d a63c 64ca 4cbc
00000090: 5ad4 4cbc a5d4 e538 f07f 0d3b 7e98 9fbc
000000a0: ac17 2fbc cb1f 37bc 16d8 503c 57d6 d33b
000000b0: a36b 91bc 39b2 85b9 6d56 88bc 7dd1 93ba
000000c0: 3676 4fbc 2975 a5bb 9701 573c 691c 01bc
000000d0: a8db 043b 0f86 613b b423 f1ba 52ba 8fbb
000000e0: f491 8b3a 071d 3dbc 693e 053b dc6f 50bc
000000f0: a870 9fbb 7b67 673c c258 57bc 0ce6 89bc
00000100: 5386 593c 54d7 9a3b 17bd 0d3c 0ff7 13bc
00000110: 3ce2 9d3a 369a 543b 1607 2d3b f081 5d3c
00000120: 8a5c f03b 3c16 debb 6833 373c 1065 f93b
00000130: e25a c4bb c9b6 00bc 319a b539 309b d83b
00000140: 0e35 c2bc 8f9f 96bc 4bb6 05bc 7592 0fbb
00000150: 5faa fc3b cdb6 953c 8d1e f53b 6a3b 29bb
00000160: aae0 2bbc 1cb2 29bc 7f9d d2bb 5f27 813c
00000170: 79da fc3b 3c2c 22bd 4dad 673c d978 763b
00000180: e7ca 75bc 9fe7 283c 15c8 d53b 8a6d 4a3c
00000190: df34 123c 679b 6cbb 3bd1 02bc 81ab 653c
000001a0: 8c9e 823c c98a a0bc c359 993a b042 55bc
000001b0: 9f86 b0bc af84 4ebb d786 163c a08d 753c
000001c0: eefe 1cbb f0cc c23b 29e3 9cbb ea0c aa3b
000001d0: e1b4 adbb 4969 71bb 9599 303b 31ce 25bc
000001e0: 5cfb 01bc f556 37bc d6be 023c d950 c63a
000001f0: 0ddf 753b 30f4 86bb ee11 1b3c 31de 73bc
00000200: 61c0 21bc eb1f a13b e707 763b 8017 02bb
00000210: 0ddd 8f3b 2586 073c 9bf9 5f3c 8e68 ee3b
00000220: 2c18 1e3b 32e4 ed39 790e c1bb 4d8c 913b
00000230: ea27 5ebb 7e12 eebb 67b5 b93c 9aa2 10bc
00000240: ef5b b7bb 5601 9eb9 4a59 833c 1346 1dbc
00000250: 3bd4 12bc 246b 503c 7bb0 0abc 9d35 01bc
00000260: 509a d6ba 039f b3bc 869a 313c bbb1 4f3c
00000270: 48cc 2f3c 86c9 08bc fa9d 3cbc fea7 0abc
00000280: 7c75 acba 7a66 6ebb 00e0 b3bc 08db 633c
00000290: 6caf 07bc 1d9e cabb a7b5 073c 410f f53b
000002a0: 5e3f a33c 354a 433c ebf0 b3bb 2f2c bfba
000002b0: 4133 ba3c 5c7c 0c3c c884 f43c b926 8e3b
000002c0: 8013 2a3c 5c59 243c 2cd6 133b 78c4 aabc
000002d0: b256 54bc 0600 b43b 696e 7a3c c731 743b
000002e0: 82f8 013b fc77 14bc a904 81bc 536d daba
000002f0: 0df3 9d3a 0831 3339 85a2 abbb e52f 6d3b
00000300: 0418 253c 6dae 413c 1658 9bbb d4cf 813c
00000310: 8ff3 bcbb 532c 1bbb cd9a 56bb 793d 9abc
00000320: 09fb bbbc c4a8 913b 3e15 23bc 5686 ab3c
00000330: 4166 04bc cc11 563b 6786 c6bc 48d7 a7bb
00000340: 64db 65ba 6d72 30bb ecb0 803c 212b 863b
00000350: b05d 083a 5af0 2ebb 7308 5d3c afd9 ab3c
00000360: 1f63 a63c ff8a 1e3c 8199 0dbc b825 e3ba
00000370: 452c c8bb acad 23bb 3d48 b9bc 167d c6bb
00000380: cd94 d63b 4232 88bc 9a1c 063c 498e 39bb
00000390: f756 cdbc d19c 833c 2f2c 2ebc 530c 00bc
000003a0: 4125 d5bb c795 2b3c bf2a b43c 0974 be3c
000003b0: 200f 10bc c91c 8aba 60c9 ccbb 03ce 89bc
000003c0: d7e2 ecbb eb69 323b e5f2 2a3c 2f47 acbc
000003d0: fded e23b 858c 4c3c e207 c2ba d2e3 a6bc
000003e0: 1a9e be3b 9dc3 22bb 7b58 0e3b 6296 fe3a
000003f0: aa4e 91bb 8554 803b ff6e 4cbc cf74 ab3a
0.015232875 0.008190114 -0.002461646 0.0028265032 0.005088672 0.00412883 -0.00039818208 0.010316135
-0.0032938411 -0.0014397255 0.011073135 -0.0005903779 0.002567058 0.0015022926 -0.009684637 0.00314301
-0.010605759 -0.005656757 -0.00010578675 0.0040016486 -0.004055502 -0.0040941443 -0.004817139 0.0023662797
-0.007296759 0.013578233 -0.019986901 -0.017973991 0.0068400167 0.004140065 0.0014947644 0.005203037
0.0031470922 -0.0009311428 0.020293131 -0.012499426 -0.0125018 0.00010959179 0.002159115 -0.019481894
-0.010686796 -0.011177014 0.012746831 0.0064647603 -0.01775152 -0.00025500523 -0.016642774 -0.0011277642
-0.012662461 -0.005049367 0.013122938 -0.007880309 0.0020272527 0.003441218 -0.0018397481 -0.004386225
0.0010648356 -0.011542565 0.0020331389 -0.012721982 -0.0048657246 0.014123793 -0.01314372 -0.016833328
0.013276654 0.004725376 0.00865104 -0.009031071 0.0012045573 0.003244055 0.0026401929 0.013519749
0.0073352503 -0.006777553 0.01118169 0.0076109245 -0.0059922794 -0.007856079 0.00034637892 0.0066102967
-0.02370694 -0.01838663 -0.008161138 -0.0021907364 0.0077107395 0.018275643 0.0074804486 -0.0025822767
-0.010490576 -0.010357406 -0.0064274664 0.015765844 0.0077164737 -0.039592966 0.014140439 0.0037608652
-0.015001989 0.010309129 0.006524096 0.012355218 0.008923738 -0.003610337 -0.007984455 0.0140179405
0.015944742 -0.019597428 0.0011699725 -0.013016388 -0.021548567 -0.003151219 0.009187422 0.014987379
-0.002395566 0.0059448406 -0.004787822 0.0051895278 -0.0053011035 -0.0036836436 0.002694701 -0.010119961
-0.007933464 -0.011190166 0.007980069 0.0015130296 0.0037516982 -0.004118465 0.009464724 -0.0148845175
-0.009872527 0.004917135 0.0037541331 -0.0019850433 0.004390365 0.008271729 0.01367035 0.0072756475
0.0024123294 0.0004537418 -0.005891618 0.004441774 -0.0033898302 -0.007265388 0.022669507 -0.00882783
-0.005595676 -0.00030137104 0.016033787 -0.0095992265 -0.0089617325 0.012720857 -0.008464928 -0.007886318
-0.0016372893 -0.021926409 0.010840064 0.012676652 0.010729857 -0.008348828 -0.011512274 -0.008462904
-0.0013157572 -0.0036376999 -0.021957397 0.013907202 -0.00828157 -0.0061833994 0.008283055 0.007478625
0.019927677 0.011919548 -0.005491366 -0.0014585311 0.022729518 0.008574571 0.029848471 0.004338112
0.010380626 0.010031071 0.0022558076 -0.020845637 -0.012960123 0.005493167 0.015285113 0.0037261115
0.001983196 -0.00906181 -0.015749292 -0.0016664661 0.0012050584 0.00017089036 -0.0052378797 0.0036191877
0.010076527 0.0118213715 -0.0047407253 0.01584617 -0.005766339 -0.0023677542 -0.0032746077 -0.01882814
-0.022946851 0.0044451673 -0.009953795 0.02093808 -0.00808102 0.0032664416 -0.02423401 -0.005122099
-0.00087683485 -0.0026923672 0.015709363 0.004094497 0.0005201949 -0.0026693554 0.013490784 0.020977823
0.020310936 0.009676694 -0.008642555 -0.0017329967 -0.006108793 -0.0024975343 -0.022617454 -0.006057392
0.0065485 -0.016625527 0.00818553 -0.0028313568 -0.025065882 0.016065987 -0.010630651 -0.007815438
-0.006504685 0.010472721 0.02199304 0.02324869 -0.008792669 -0.0010537143 -0.0062495917 -0.016821867
-0.00722919 0.0027223777 0.010433887 -0.021030037 0.006925343 0.012484674 -0.0014803375 -0.020372305
0.005817187 -0.0024835833 0.002172022 0.001942348 -0.0044344263 0.0039163255 -0.012477635 0.0013081076

action_model._discrete_distribution.branches.1.bias f4 [2]
00000000: 914a 8dbb 8e4a 8d3b
-0.0043118675 0.004311866
