Assets/Models/CameraBigLevel2/CameraBigLevel2Model.onnx (onnx, 723468 bytes, 18 tensors)

discrete_act_size_vector f4 [1, 2]
00000000: 0000 0040 0000 0040
2.0 2.0

network_body.observation_encoder.processors.0.conv_layers.0.weight f4 [16, 3, 8, 8]
00000000: 8b60 92bd 4a56 fbbc 754a 21bc 524b e8bc
00000010: e1f5 09bd 79d9 88bc a157 243d 91d5 ac3d
00000020: 623c 0d3c 2a86 54bd 430e eebd 24af acbd
00000030: ad6d cbbd 0c10 abbd afc7 01bd 71d2 84bc
00000040: 0c20 b7bd 96e3 12bd 69ff 6ebd 40a7 26be
00000050: aa71 d8bd 1942 17bd d608 1cbd 4bc0 553d
00000060: 4b25 e3bd 9448 b1bd c6a5 0dbe 98ec f9bd
00000070: 38f9 c2bd bfcc ccbd 05b0 c73c 505c 4d3c
00000080: 0382 36bd b156 0dbd 2b16 9abd ea56 bcbd
00000090: 72ba c1bd 89e2 97bd 0ab6 d3bc 767a 923d
000000a0: 2e7a 893d f2a0 e0bc e692 203c 3dd1 12bd
000000b0: 4e02 49bc f1da 843d d366 fdbb 9f57 083d
000000c0: c230 e6bc 4b62 4e3c 79ec 70bd e27f 2b3d
000000d0: 7da6 00bc e446 653c 395a a7bc 24d9 d93c
000000e0: 1f4e 623c bbae 7e3d bf4b 443c f7e7 423d
000000f0: d12a dcbc cdca b23d c035 aaba e190 ba3d
00000100: c9ff d23d be1d 3b3e 0fdc 823d fbef 833d
00000110: e0aa 853d 8561 023e 035e 333d 1d9c a13d
00000120: 6451 043e 46bc 043d 50fe 043e e90a 25bc
00000130: 2272 873d d1a9 673c 8783 9e3d 4d82 e53d
00000140: 2a02 3f3d ab06 a93c 79e5 163e 52cf 033e
00000150: 2729 11bd f9ac e73c c95b fd3b 5b3b 313d
00000160: 074f 943c 97bc d83d f8b2 8c3c 6143 973d
00000170: e1eb 1e3b 0af9 33bb e476 883d 500e a0bc
00000180: 1ed3 8b3d a8b2 0f3d 4835 553d 9c3a a13d
00000190: 0aec ec3c 4e56 173d 0426 db3c dfea 873c
000001a0: 6d94 9c3d 5296 983d 8803 0e3e 73f4 fa3d
000001b0: e588 c43d f386 a53d a600 f13d 5729 7a3c
000001c0: 80cd a63d ec89 f23d 802c c23d 5b2e da3d
000001d0: 619a dd3c d2bc 763d a4be 7d3d ed54 023e
000001e0: 175a dd3c 93ab e33c 19a4 aa3d 0bd3 c73d
000001f0: 3318 d03d 9545 523c 1366 383c a58f b73d
00000200: 4c34 bfbc 2010 31bd b214 36bd 8b9c c53b
00000210: e225 873d 695f 8c3b 9c5c afbc eaed 48bc
00000220: d88e 8fbd 1410 8abc 7048 77bb 9227 36be
00000230: 1086 9b3c dffd 1cbd 02cc 6abd 81db bcbc
00000240: 26b5 6dbd ec80 23be 5e5b 06be b300 f8bd
00000250: 5bde efbc e4fe 2fbd 8b4a 08bd 1878 813d
00000260: 338b 2dbe 5fef 33be afe8 06be e565 04be
00000270: f119 efbd 6007 c3bd cbc4 933c 2aca 2f3d
00000280: c18c 8dbd 18e9 a1bd 5c74 cebd aaad 09be
00000290: 681f 38bc 12d0 ce3c 1ebc 11bd 15a2 463d
000002a0: db72 a8bd 94ba 2dbd 3d3b b3bb f0ae 89bc
000002b0: 4d22 293d 5b53 103d 69e1 babc 77fd 903c
000002c0: 23eb 82bb d4fb ba3c 6226 a8bd 8a80 06bc
000002d0: a086 71bc 4afe 75bd c2af 9e3d 9fb0 a83d
000002e0: 7bc3 653c c38b 7e3d c875 5c3c ac80 053d
000002f0: cb6b 0e3c ec1e 80bd a887 87bc 7e48 d43c
00000300: 7276 87bd ecc6 64bc 6d00 96bc 8f5a af3d
00000310: 389f 7f3c 4c42 f0bc 9650 c1bd 5c4d f3bd
00000320: 9fd6 c2bc 33e8 9c3d ed19 3a3d 1d9e b43d
00000330: 9d95 fbbc 79d1 01be 1c0e c5bd a07a a2bd
00000340: 2bb3 18bd 44d7 b03d b794 de3c eda3 2b3d
00000350: adb5 8cbd c8cf f039 0a40 03be aa61 02be
00000360: 80be 14bd bbf0 10bd ec93 b1bc 1aaf dd3c
00000370: b7d7 4dbd 612a aeb8 9bea 87bd c540 b6bc
00000380: 11f5 523d e394 fc3c c4b7 ca3c 1223 c63d
00000390: e6f6 173d 2f5b 8d3c 243a a0bc 01b6 b5bd
000003a0: f8c8 ccbc 4794 9a3d dc87 113d 0bb5 b03d
000003b0: 9611 38bd f304 833d 49fa 14bd 218d c1bd
000003c0: bfa1 11bd 6ac8 db3c 443d babc 01ac ac3d
000003d0: a89c 86bd 63a3 15bd 7cc6 c7bd 5780 9c3c
000003e0: ada7 283d 5735 d13d 0d00 5f3c 5540 20bc
000003f0: 2bdb 623d 2a35 e83c 8de4 52bd ccde 3dbd
-0.0714732 -0.030680794 -0.009844412 -0.028356228 -0.033681754 -0.016705262 0.040122632 0.08439172
0.008620353 -0.05188576 -0.11623814 -0.08431843 -0.09933028 -0.0835267 -0.031684574 -0.016213628
-0.08941659 -0.035861574 -0.058349047 -0.16274738 -0.10568555 -0.03692827 -0.038094364 0.052185338
-0.110910974 -0.08656421 -0.13832769 -0.1220333 -0.09520191 -0.0999999 0.024375925 0.012534216
-0.044557583 -0.034506503 -0.075237595 -0.09196265 -0.0945939 -0.07416255 -0.025843639 0.07152264
0.06712757 -0.027420495 0.009800648 -0.035844076 -0.012268616 0.06487072 -0.007733205 0.033286687
-0.028099421 0.012596677 -0.058819268 0.041870005 -0.007852194 0.013993952 -0.020428764 0.026592799
0.013812571 0.062178355 0.01198095 0.0475845 -0.026875885 0.087300874 -0.001298599 0.09109665
0.103026934 0.18273064 0.06389629 0.06442257 0.065267324 0.12732513 0.04379083 0.07891104
0.12921673 0.032406114 0.12987638 -0.010073402 0.06613566 0.0141396085 0.077399306 0.112064935
0.046632923 0.020633062 0.14735974 0.12872055 -0.035439637 0.028280722 0.007731889 0.043269496
0.01810409 0.10582846 0.017175183 0.073858984 0.0024249482 -0.0027461671 0.066633016 -0.019538075
0.06827377 0.03508249 0.052052766 0.07872507 0.028921146 0.03694754 0.026751526 0.016591487
0.076454975 0.07450546 0.13868535 0.12253656 0.09596423 0.0808238 0.11767702 0.015268645
0.08144665 0.11842713 0.09481144 0.10653373 0.027051153 0.060238667 0.061949387 0.12727709
0.027020497 0.027791774 0.083320804 0.0975705 0.10160866 0.012833972 0.011254805 0.08962945
-0.023340367 -0.04322827 -0.04445333 0.0060306243 0.065990224 0.0042838347 -0.021406464 -0.012263754
-0.07009667 -0.01685337 -0.0037732385 -0.17788532 0.018984824 -0.038328048 -0.057323463 -0.023053886
-0.058034085 -0.15967149 -0.13120791 -0.12109508 -0.029280832 -0.042967692 -0.033274215 0.06321734
-0.16947632 -0.17571782 -0.13174699 -0.12929495 -0.1167487 -0.09522891 0.018038174 0.042917408
-0.06911612 -0.07905787 -0.100807875 -0.13445154 -0.011237957 0.0252457 -0.035579793 0.048494417
-0.08225032 -0.042414263 -0.0054697082 -0.01680705 0.041292477 0.035235744 -0.022812562 0.017698986
-0.0039953156 0.02282516 -0.08210446 -0.008209357 -0.01474157 -0.060056962 0.07748367 0.08236813
0.014023657 0.062145006 0.013455816 0.032593414 0.008692692 -0.06255898 -0.016544178 0.025913473
-0.066143885 -0.013963442 -0.01831075 0.085621946 0.015601926 -0.029328488 -0.09439199 -0.118799895
-0.02378398 0.07661476 0.04543488 0.0881922 -0.03071099 -0.12677564 -0.09621832 -0.07933545
-0.037280243 0.08634809 0.027170522 0.04190438 -0.068705894 0.00045931176 -0.12817398 -0.12732568
-0.036314487 -0.03538583 -0.02167698 0.027061034 -0.05025455 -8.30486e-05 -0.06636544 -0.022247681
0.051503245 0.030832713 0.02474583 0.09674658 0.037100695 0.017255394 -0.019558974 -0.08872605
-0.024998173 0.07547813 0.035529956 0.08628281 -0.044938646 0.06397428 -0.036371503 -0.09450746
-0.035554644 0.026828963 -0.022734292 0.08431245 -0.065728486 -0.03653277 -0.09754655 0.019104166
0.041175533 0.10215252 0.013610852 -0.009780963 0.055384796 0.028345663 -0.051487494 -0.046355054

network_body.observation_encoder.processors.0.conv_layers.0.bias f4 [16]
00000000: 20f7 46bd a200 433d ef7a 83bd 9814 4b3d
00000010: e583 2a3c 3838 b63c f5ae 4fbd f867 cf3d
00000020: a6a8 71bc 06cf 85bd 0f7e 04bd 5c67 f7bb
00000030: 6004 3a3d 59c0 86bd fb83 40bc 527b 7abc
-0.04857552 0.047608025 -0.06419932 0.049580187 0.010407423 0.022243604 -0.05070396 0.10127252
-0.014749682 -0.06533627 -0.03234678 -0.007550163 0.04541433 -0.06579656 -0.011750217 -0.015288191

network_body.observation_encoder.processors.0.conv_layers.2.weight f4 [32, 16, 4, 4]
00000000: fbde 3cbd 0886 17bd 66c2 cd3c 0f64 5d3e
00000010: f23e 2dbd 9497 2d3c 4d0e a13d ff89 e23d
00000020: 41da 053d 9433 a3bd c8da 2a3c ad75 50bd
00000030: 0f56 f7bd 8267 abbd 2974 853c 03ee f5bd
00000040: 9dff 80bc e395 b3bd 76e4 d7bc 1230 9b3d
00000050: b0b4 773c 26f9 a3bc 882a 0cbe 0560 7abd
00000060: 3399 12bd a658 53bc 72df 95bd 0c7e fcbd
00000070: c79d 033e 1b39 353d a58a b93d 5d7e cebd
00000080: 8731 91bb f7b6 4f3d 4573 bcbd d79c 723b
00000090: 355a 34bc ffd8 0ebc 3a78 d03c 847e 313d
000000a0: e05b 8cbc 4680 8d3d a8ad eabc 2b78 3abc
000000b0: 3869 403d c0bb ca3c bdf3 a33d 5f21 1ebd
000000c0: 7d77 aabc c833 113d f9e0 07bd 947a bb3d
000000d0: f1c0 a63c 5ac9 ee3c 991a c73c 12b9 753c
000000e0: 2799 6ebd f192 9fbb 4aa3 093d 8474 883c
000000f0: dd39 0ebd 73bd d9bc c1e8 28bd 9713 123d
00000100: 7d41 a8bd ebf9 39be 0b17 4bbe c4c6 89be
00000110: 170a 36bd 933b 96bd d88d 273d 087e e0bd
00000120: 848c 953d fe1f 083b 9b4a edbd 029c 06bc
00000130: da7e 43bc be96 4ebd 7cd4 ffbd 632e 4abd
00000140: c104 883c ed06 77bc b4db 603b 807a 723d
00000150: c779 c13b 3202 c5bd 31c1 243a b64e 08bd
00000160: 852e 88bd 3fac 2c3c 5e12 de3c b6b5 243e
00000170: 00ba 4fbd a0a0 003e 7d3b ac3d 89e2 2e3e
00000180: 7208 e5bd 3797 b3be e1bc 30be b99e 20be
00000190: 09a6 d0bd a19d 38bd e154 66bd 1050 0d3d
000001a0: 51f5 49bd ff05 3dbd 58b0 383d d201 673d
000001b0: d2de c5bd 8ebc 94bd a4d1 39be d940 5bbc
000001c0: 751b b9bc 1c57 813d 4d80 a53d 286a 033e
000001d0: a41f 4cbb 50eb b7bc 9bf0 993b 2612 853d
000001e0: c48d 263b dd7c 6cbc d6ff c93d 9d85 423d
000001f0: 9224 083d 414b 7b3d e15a a53d 6be8 b43d
00000200: d40e 51bd 1b8d 0cbe 2e39 40bd 6b4c 6f3c
00000210: faa8 96bc f9f5 74bc 5676 00bd 1929 bfbd
00000220: e60a b9bc f69b cabb fe26 a63d b9d1 d5bd
00000230: 0c3c 263c 2fa3 5bbc b4e9 7e3d 948f 5ebc
00000240: a576 9cbd 3878 d73c 5edf 613e 4f62 983d
00000250: 85bb 3dbd e9b9 cdbd 1dcb 0bbc b0fe c1bc
00000260: 0ca6 32bd a324 bfbd f137 97bd 9c95 62bd
00000270: f24e d1bc ddd7 2d3d ef5f 9d3d d259 c0bc
00000280: a7f7 65bd 14d7 183a b32f 013e c50b 193e
00000290: 55d6 3f3d 2577 8a3c 2cde 833d 5468 873b
000002a0: 0fe5 c03d eefb 3fbd d538 893d eb11 f23a
000002b0: 4815 063c 4075 26bc ab84 2d3d 8c73 96bc
000002c0: cc14 963d f22a ac3c 1455 843d c31c 0a3b
000002d0: 8f41 fa3a cdf8 16bd 7ff5 2bbc e8f2 c93d
000002e0: 3e2c 2dbd 884b 523d 1098 013e 3109 0bbd
000002f0: 065e 953b 5b8e bebc c357 bbbd 27f6 97bd
00000300: 2c77 ea3d be2f 723d 11b6 3ebc 3b69 d23d
00000310: b4f4 a83d b87b 873b d2dc 75bc 2313 ea3c
00000320: 5ff5 073c e4d5 913c 35df fabd 9a0e 31bd
00000330: 2e65 d6bc 65c5 c43d 697f 333d 1ed7 133d
00000340: 63f1 12bd 0a11 333d 5f7b d4ba f243 a2bc
00000350: 308c aebd 9f6b c03d 814c 8fbb 3802 eaba
00000360: 35e3 2ebd b47b ce3a c22f c53b 9ee5 85bc
00000370: 56dc 0dbb 080a 27bd ea3f 9f3d 227c c4bc
00000380: 9306 ee3c 41ba bf3b 2fb2 5fbd 86a7 063c
00000390: 53f5 0dbd 2f1f 733c 3b8f 5abd a000 953d
000003a0: 52c3 80bd a1b9 2d3e 2e57 4e3e 1975 f23d
000003b0: 316f 97bd 695d 81bc 8215 573b 2d97 bd3d
000003c0: d657 623b 5334 ed3c 68c6 02bd 549a 263c
000003d0: 5f82 c63c 597d bc3d 8168 303b 6987 38bc
000003e0: bd68 0e3d 5ba0 2abd 1bbb 9bbc 4fec dfbb
000003f0: 9c31 58bd 4ad6 03bd 4505 f1bb 69ae 1e3c
-0.04611109 -0.036993057 0.02511711 0.216202 -0.042296357 0.010595221 0.07864056 0.11061477
0.032678846 -0.07968822 0.010428138 -0.050893474 -0.12076961 -0.08369352 0.016290741 -0.12008288
-0.015746886 -0.08768823 -0.026354056 0.07577528 0.015118763 -0.020016264 -0.136881 -0.061126728
-0.035790633 -0.012899553 -0.073180094 -0.12328729 0.12853156 0.044243913 0.090596475 -0.10082696
-0.004430953 0.0507116 -0.092016734 0.0037019753 -0.011007835 -0.008718728 0.025447953 0.043333545
-0.017133653 0.06909232 -0.028647259 -0.011381189 0.046975344 0.02474773 0.08005474 -0.038606044
-0.02080893 0.035449773 -0.033173535 0.09154239 0.020355674 0.029148746 0.024304675 0.0149977375
-0.058251526 -0.0048698117 0.03360299 0.016657121 -0.03472315 -0.026579594 -0.041237596 0.035663214
-0.08215616 -0.18161742 -0.19833009 -0.2690946 -0.044443216 -0.07335582 0.040906757 -0.109615386
0.07302192 0.0020771022 -0.115864955 -0.008215906 -0.011932099 -0.050436728 -0.124917 -0.049360644
0.01660383 -0.015077335 0.003431064 0.059198856 0.0059044096 -0.09619559 0.0006284891 -0.03327819
-0.06649498 0.010539114 0.027108368 0.16084942 -0.050714493 0.12561274 0.08409784 0.17078604
-0.111832514 -0.35076305 -0.17259552 -0.15685548 -0.10187919 -0.0450722 -0.05623329 0.03450018
-0.049306218 -0.046148296 0.04509005 0.05639822 -0.0966164 -0.072625265 -0.18146378 -0.01338216
-0.0225961 0.06315443 0.08081112 0.12833464 -0.003114679 -0.022451073 0.004697872 0.06497602
0.0025414089 -0.014434067 0.0986325 0.047490705 0.033238 0.061351065 0.080739744 0.08833393
-0.05103953 -0.13725702 -0.04692953 0.014605622 -0.018391121 -0.014951223 -0.031362854 -0.09334011
-0.022588205 -0.006183143 0.08112906 -0.10440392 0.010146152 -0.013405605 0.062234595 -0.013584036
-0.07639817 0.026302442 0.22057864 0.07440626 -0.04632141 -0.10045225 -0.008532313 -0.023681015
-0.043615386 -0.0933316 -0.07383717 -0.05531846 -0.02555034 0.04244219 0.076843135 -0.02348033
-0.056144383 0.0005830389 0.12615852 0.14945896 0.046835262 0.016902516 0.0643886 0.00413231
0.094186895 -0.04687112 0.06700293 0.0018468475 0.008183785 -0.0101597905 0.04236285 -0.018365644
0.073281854 0.021016572 0.0646154 0.0021074272 0.0019093024 -0.03685837 -0.010495543 0.09860784
-0.04227852 0.051341563 0.12655663 -0.033944312 0.0045583276 -0.02326124 -0.091475986 -0.07419997
0.114485115 0.05912756 -0.011640088 0.10273977 0.082497984 0.0041346215 -0.015006261 0.028573578
0.008298247 0.017802186 -0.122496046 -0.043226816 -0.026171293 0.096079625 0.04382268 0.036093824
-0.035874736 0.04371742 -0.0016211084 -0.01980779 -0.085228324 0.09395527 -0.0043731336 -0.0017853444
-0.04269715 0.0015753419 0.006017656 -0.016344842 -0.0021646223 -0.04078105 0.077758625 -0.023984972
0.02905587 0.0058510606 -0.05461329 0.008218652 -0.034657788 0.014838978 -0.05335925 0.0727551
-0.062872544 0.16965343 0.20150444 0.11838741 -0.07394255 -0.015791612 0.0032819216 0.0925735
0.0034537218 0.028955614 -0.031927496 0.010168631 0.024232088 0.09203596 0.0026917758 -0.011262753
0.034767855 -0.041656833 -0.019010117 -0.00683359 -0.052781686 -0.032186784 -0.0073553645 0.009685137

network_body.observation_encoder.processors.0.conv_layers.2.bias f4 [32]
00000000: 06ed 653c d586 aebd cb37 7cbd 2236 06bd
00000010: 3ba3 abbb 7bca ba3d a80f 16bc 5c9c 593d
00000020: 44d5 78b7 d364 343c 43cb c7bd d7db b73d
00000030: 1d94 11bd bc96 c43c 5a41 383d cafa 6a3d
00000040: 8ad6 85bd 2475 81bd a065 2dbd c900 10bd
00000050: d4ee 383d 10a8 eabc 0988 d4bd 472b edbb
00000060: bf21 6f3c 2bd0 d1bc 89f8 6abd f850 083e
00000070: 1366 9d3c 30bd 8cbc 0e27 6f3d c3c8 aabc
0.014033562 -0.08521811 -0.061576646 -0.03276647 -0.0052379644 0.09120651 -0.009159006 0.05312763
-1.4831607e-05 0.0110103665 -0.09755566 0.08977478 -0.035541642 0.023997657 0.0449842 0.057368077
-0.06535061 -0.06321171 -0.042333245 -0.035157 0.04514964 -0.028644592 -0.10377509 -0.007237825
0.014595448 -0.025611958 -0.057365928 0.13312137 0.019213712 -0.017180055 0.058386855 -0.020847684

network_body.observation_encoder.processors.0.dense.0.weight f4 [256, 128]
00000000: e1be 81be a3b6 aabd 4397 1c3d f583 f13b
00000010: 73fb 143e 5242 cbbc 05b0 183e 6d14 d03e
00000020: cfe8 08bd 132a 81be d0f8 48be 90c0 d8bb
00000030: e1ae 123e 15bb 0fbe 37f0 86bd d02a 7abc
00000040: 5a72 4bbe 854c e7bd 460d 103e 7b3d c53b
00000050: ebe4 e63d f030 c33d feaf 84be 3c0d 863e
00000060: 5f90 d93d 2c37 513e 934a 56be beca b23e
00000070: ebdb 1bbd 9072 09be 21aa cd3d 8884 08be
00000080: 5f85 2abe 9957 10bd dfd8 ccbb 7fac ac3d
00000090: f379 0d3e 21ba 663d 93c7 773d df32 1d3d
000000a0: 9844 433e 2f25 8a3e 42f1 f03c 839a 68bd
000000b0: 366c ae3b 5bf8 a03d 3ec7 873d f91d d83d
000000c0: 7e41 823e 379e 903e f839 b13d 4b07 283d
000000d0: a585 703d eb6f 8dbd 3046 56be 5cd5 193c
000000e0: 4aa8 81bd f3a7 4a3e 26f8 6cba a07d 9c3d
000000f0: f8cd 32be cf14 863d c3fd b43a ede3 4c3d
00000100: 2235 e13d 337e 863e cf56 2cbe e0ba 163d
00000110: caa1 5ebd f1b9 bb3e 203b 903e ba15 d2bc
00000120: c341 9ebd 575d 3a3d e131 5d3d 7e4e 6dbd
00000130: f5b9 2c3d 5199 84be 3d74 e7bc 27e6 ca3c
00000140: 5472 23be 85ad 24be fb07 eb3c 0ed1 f0bd
00000150: 3ef9 123d 39ab ba3d 4d00 4ebe e29f b4bd
00000160: 2367 3d3d c8d1 973e d1fe b23e ca5d 493d
00000170: 36db abbd 7b21 c3bc 3ffe e6bd 3d31 abbd
00000180: 5282 cbbd 3b77 b0bd 53d7 9bbd 2504 ed3d
00000190: 5d4c 9bbd 5710 1dbb 42d2 eb3d 4098 0e3d
000001a0: 5cc6 8b3d 1feb 8abd 9563 4cbc 32e8 dfbd
000001b0: 21f5 8bbd 1e3a 7cbd b06a 2e3e 19b4 1dbe
000001c0: 3e68 0abe b958 313d 7d06 78bb db5f b7be
000001d0: c586 0fbd 610d 1d3e 3202 333e 0503 a4bd
000001e0: 1f72 b23d 5323 e9b9 37c8 d73b c225 843c
000001f0: f015 223d f7a9 8b3e 7dbe 02be 5acf c4be
00000200: 49de 603e 44e3 e43d 01ba 343d 8af5 3d3e
00000210: 0f53 133c 3c7a 243e d437 d2bb baeb e4bd
00000220: 8298 143e a67b 82be d218 acbe e158 11bd
00000230: c612 a43d 4fc5 813d e173 2e3d 660e 0bbe
00000240: 5dc6 7ebd 93ee 2cbc 5406 47bb 74af ee3d
00000250: d97a 3ebd 3340 723d f843 353e 1ec3 95be
00000260: e125 163d 5698 133d 9254 69bc 1280 563b
00000270: d9bf 64be b42f febd 79f0 74be 812d 973e
00000280: fd9b 08be 4331 21be c1df 91be c6f7 1fbe
00000290: 1350 8d3e 2af9 2c3e 3342 fcbd 5a59 ac3c
000002a0: 504a cabc 3b33 033e e117 a8bd ded6 a53e
000002b0: f79d f23b c63c b6bd d91f bfbd 6494 af39
000002c0: 413b 803d bb1a 36bd ba26 74be 23fa e73d
000002d0: 673a 88bd d515 e9bc d9b7 ac3e 11a6 42be
000002e0: 4ea6 51bd 6c8d d5be 96cb c13e 015f c03d
000002f0: cc4b 6cbd 4f27 12bf 2464 7dbe 703f 293e
00000300: b825 9c3d 04b1 2a3e 5e54 c5bd 76cb 99be
00000310: 831f e1be 5b4d 3e3e d428 c0bd eed2 f3bd
00000320: a485 08be 53de 91ba a332 59bd 21c2 953e
00000330: 46fd 36bd 1200 0a3e 0a73 66bd 4beb 303e
00000340: 6154 56bd 1137 893d 7542 1ebe 2941 4fbe
00000350: 102f 693e 11a7 273e 91c1 89be 4ea5 4bbe
00000360: 6075 2cbd f848 513c 5ef3 abbd 51c9 90bd
00000370: 7328 303d 1524 25be 21b5 1c3d 3a17 32bd
00000380: 6c4e 4b3e 05c7 17be ac4d 303e 9b39 93be
00000390: 32c6 bc3b 4bdf 17bd 0577 023e fb63 9cbd
000003a0: 7654 14be 750c 38be dc4f 4e3e af76 4fbe
000003b0: d34d 9dbd 39d7 5fbe 5fe4 09bd e9c9 423e
000003c0: 3af9 90bd 1278 503d 25e2 8ebd 4c78 1a3d
000003d0: b286 7c3e 4f69 62be 3352 2ebe 3ef6 21bd
000003e0: 67eb 463e 0dcd e53d 840c cabd 9ece 773d
000003f0: 4b3d e0bd 4357 5cbe 76a2 9dbd 354e 56be
-0.25340942 -0.083356164 0.038230192 0.007370467 0.14549045 -0.024811897 0.14910896 0.40640584
-0.03342515 -0.25227413 -0.19626164 -0.006614752 0.14324524 -0.1403621 -0.06588786 -0.015268996
-0.1986784 -0.11293892 0.14067563 0.006019292 0.112741314 0.095308185 -0.2591552 0.26181972
0.1062324 0.20431203 -0.20926885 0.34920305 -0.038051527 -0.13422608 0.10042215 -0.13331807
-0.1665244 -0.03523979 -0.006251439 0.084313385 0.13816051 0.05632985 0.060493063 0.038378593
0.19069135 0.26981494 0.029411916 -0.05678798 0.0053229583 0.0785987 0.06629799 0.10552592
0.25440592 0.28245708 0.08653635 0.04102258 0.058721203 -0.06906112 -0.20925212 0.009389248
-0.06330927 0.1979063 -0.00090396625 0.076411486 -0.17461383 0.06546938 0.0013808537 0.050022054
0.109964624 0.26268157 -0.1682999 0.03679931 -0.054353513 0.366653 0.2817011 -0.025645126
-0.07727387 0.045499172 0.054002646 -0.057936184 0.04216953 -0.2589822 -0.028253669 0.024767948
-0.15961581 -0.16081817 0.028690329 -0.11758624 0.035882227 0.091146894 -0.20117302 -0.08819558
0.046240937 0.29652238 0.34960034 0.04916171 -0.083914205 -0.023819676 -0.11278962 -0.08359001
-0.09936966 -0.086164914 -0.07609429 0.11573056 -0.075829245 -0.0023966038 0.11514713 0.034813166
0.068249434 -0.06783127 -0.012474914 -0.109329596 -0.06833864 -0.061578862 0.17032886 -0.15400733
-0.13516328 0.043297503 -0.0037845664 -0.3581532 -0.035040636 0.15337135 0.17481306 -0.080083884
0.08713173 -0.00044467542 0.0065851468 0.016131286 0.039571702 0.2727811 -0.12767978 -0.38439447
0.21959795 0.1117616 0.0441227 0.18550697 0.008991971 0.16062254 -0.0064153466 -0.11177774
0.14511302 -0.2548496 -0.33612686 -0.035485152 0.08011393 0.06336462 0.04259098 -0.13579711
-0.062200893 -0.010554927 -0.0030368762 0.11654559 -0.046503875 0.059143256 0.1770171 -0.29250425
0.036657218 0.03603395 -0.014241355 0.0032730144 -0.22338809 -0.124114424 -0.23919858 0.29526904
-0.13340755 -0.15741448 -0.28491023 -0.15621862 0.27600154 0.16891924 -0.12317314 0.0210387
-0.024693638 0.12812512 -0.082076795 0.32390493 0.007404085 -0.0889831 -0.09332246 0.0003348916
0.06261302 -0.044459086 -0.23842898 0.11327007 -0.06651764 -0.028452793 0.33734015 -0.19008662
-0.05118399 -0.4170946 0.37850636 0.093931206 -0.057689473 -0.5709123 -0.24745232 0.16528106
0.07624382 0.16669089 -0.096352324 -0.3003804 -0.43969354 0.18584196 -0.09382787 -0.11905466
-0.1333223 -0.001112888 -0.053026807 0.2924967 -0.044675134 0.1347659 -0.056262054 0.17277257
-0.052326564 0.06699956 -0.15455039 -0.202397 0.22771859 0.16372325 -0.26905492 -0.19887277
-0.042104125 0.012773745 -0.08396028 -0.07069648 0.043007325 -0.16127045 0.038258675 -0.04347918
0.19854134 -0.14822014 0.1721713 -0.28754887 0.0057609314 -0.037078183 0.12740715 -0.07636257
-0.14485344 -0.17973502 0.20147651 -0.20260118 -0.076808594 -0.21859445 -0.033665057 0.19022335
-0.07078786 0.050895758 -0.069767274 0.03771238 0.24660757 -0.22110485 -0.17023544 -0.039541475
0.19425736 0.11220751 -0.098656684 0.06049978 -0.10949191 -0.21517663 -0.076970026 -0.20928271

network_body.observation_encoder.processors.0.dense.0.bias f4 [256]
00000000: 2cb2 91bb fa88 853c 9471 c7bc 29b2 24bd
00000010: 6f2f 503d 159f 21be 99ed 29bd 4589 813d
00000020: 9acc 2e3c b5a7 83bb de0d 5fbd 93a8 80bd
00000030: a526 99bc 6a6f 3fbd b264 a6bc 1017 943c
00000040: e88e 52bd 580c 17bd 5c13 313d 17ea d53c
00000050: a342 1dbe a3b2 9d3c d371 24bd fe57 7bbd
00000060: 2b13 cfbc 2b01 45bb 9d4d b5bc 8108 3bbd
00000070: 3b92 b2bc f192 34be c9a0 d6bc e642 073d
00000080: b994 2f3d f1d5 5dbd e3ff 01be b43c 28bb
00000090: 7f44 8a3d 783f 39bb dc00 903c 4fdc 133d
000000a0: b1c8 dc3c fae4 3fbe 68c5 bebd 2116 1fbd
000000b0: 2dea 8fbd 1b1f a2bc 1a44 cebd acba 8cbd
000000c0: 9800 dfbc e47b 103d a155 de3c c223 1f3d
000000d0: 9081 1cbe 2ed3 913c c912 52bd 87b6 dabd
000000e0: 0d91 56bd 308a 263d 2182 f439 78ff 94bd
000000f0: 0046 353d ceff 0bbd c2ee 92bc 38dd c9bc
00000100: 9448 69bd fc44 c83b 47cc adbc ea22 a9bc
00000110: 8e9e a03d 6b64 a4bd 81f7 1abd 4c01 543d
00000120: 1332 833d 7664 a33c e479 063d 2a66 9abd
00000130: 09f7 053d 8cb6 a1bc bd85 0cbc 7737 303d
00000140: c950 62bd 4aae 863d ca39 6f3c 8039 b9bc
00000150: e179 313d e02c 9abc 5edc e3bc 5451 92bd
00000160: 83f1 7e3c 9de2 2cbd 2314 01bd f637 98bd
00000170: 8687 8cbc 44a3 4e3d 4da5 a4bd fb23 5e3d
00000180: 555b 593b eadd 3abc 5064 323d c413 44bd
00000190: 2ad6 9abd 60e3 c9bd 7504 59bd 3617 58bd
000001a0: 920a 903c 392e 8b3d a2a5 1f3d 37b8 febc
000001b0: edcd 9f3c 105e 683d c4d6 ef3c 43ab 04bd
000001c0: 4509 8a3b 978c 783d 310d ac3d 9a47 7d3d
000001d0: 852e 34bc 7953 073d 6bb6 c6bc c92b 94bb
000001e0: ae21 d43c 7906 22bd 06b8 5cbd bd49 763d
000001f0: 4303 753c 6885 ec3a 4c54 bb3c 54a6 c23d
00000200: 9086 283d d5fe 23bc 1c03 27bd f98a 60bd
00000210: aba3 803c d8c0 dd3c 6b89 f33c 9dcb 59bd
00000220: c4ae debc 4154 0c3d 8cd3 693d edef 923b
00000230: 478a bf3c 00bc 8fbd 835a 8cbd 62e1 d9bd
00000240: 2f2e 8bbc e750 1dbd 0a8c acbd 2f90 33bd
00000250: 4e46 cfbc 2173 8f3c 9473 43bc 2093 1dbe
00000260: 1a00 44bd a355 d43d 03ff 7d3d 7654 82bd
00000270: a15d 613c 9b67 23bd 2bc3 ad3d 09ec 253c
00000280: 67d1 5f3d c464 4fbd 0a19 11bd ae52 a9bc
00000290: 8b8c 99bc a431 20bc 5639 793d 1c56 2f3d
000002a0: 0fc1 8b3d 3eb4 ea3c c8bc 82bd 70d1 88bd
000002b0: c887 81bd 06ac 523d 38c0 5bbd f782 1c3d
000002c0: 721e 64bd 2687 28bd 1713 c93c 8ff7 75bd
000002d0: fef6 cdbc 21b9 653d 320a 5fbc 49cf 933d
000002e0: ce9b 1cbe 9c94 873d 631a f43c cf11 673d
000002f0: ac98 e6bc ebfe 99bc 35af 8cbb bc7a 7b3c
00000300: 8448 36bd 2b4d 273d 8790 5abd 7c3f 3a3d
00000310: 3ae2 3f3d f954 c3bd 38f8 85bd 6831 e13c
00000320: 3708 a63c 6cd8 8fbd dc77 10bc 31ee 95bd
00000330: 3314 0dbd c0a8 3cbd a4cc e0bd 417d 263b
00000340: 7425 f1bd ba26 a4bd 4061 313c 1e5c f8bc
00000350: 9555 3abc 26a0 29bd ac2f dcbb c326 09bd
00000360: 0c04 99bc fe41 0ebc b63e a33d 0124 66bd
00000370: 2007 1a3d 5b07 fdbc eab3 e6bc ef4a dcbc
00000380: ba6d abbd 5e34 21be c940 6b3d 2672 553c
00000390: bb30 c3bc 3c8d c3bd 6709 05bd d0d8 333c
000003a0: cedf 9dbb 925d bd3c 854a 56bd 44a8 b7bb
000003b0: 4766 0bbe 4031 463d 2861 9bbc a27d a6bc
000003c0: ef1d 0cbd 30fc 39be 08a5 c73b 9203 8abd
000003d0: 67c1 0a3d 0478 65bb c3ab aa3c f4be dbbc
000003e0: 31ee c0bd 435a 27bb 278d 9cbc 7f37 60bd
000003f0: 3590 dbbb cc30 55bc f25d 643c af04 6c3c
-0.0044462886 0.016300667 -0.02434615 -0.04020897 0.050826486 -0.15783341 -0.041486356 0.0632501
0.010668898 -0.004017795 -0.054456584 -0.06282153 -0.018695185 -0.046737112 -0.020311687 0.018077403
-0.051405817 -0.036877006 0.043231353 0.0261126 -0.15357451 0.01925022 -0.040147614 -0.061363213
-0.025277695 -0.003006051 -0.022131735 -0.045662407 -0.021798244 -0.17634179 -0.026199715 0.033022784
0.042866442 -0.05415911 -0.1269527 -0.0025670948 0.06751346 -0.002826659 0.017578535 0.036098775
0.026951166 -0.18739691 -0.09314996 -0.038839463 -0.07027087 -0.019790223 -0.10071583 -0.06871542
-0.027221963 0.0352744 0.02714044 0.03885246 -0.15283799 0.017800894 -0.051287446 -0.106793456
-0.052384425 0.04065913 0.0004663626 -0.07275289 0.04425621 -0.0341795 -0.017936114 -0.024641618
-0.05695398 0.006111739 -0.021215571 -0.020646531 0.07842742 -0.08026966 -0.037833694 0.05175905
0.06406035 0.019945364 0.032831088 -0.075390175 0.032706294 -0.019740365 -0.008576808 0.043021645
-0.055252824 0.06576212 0.01460118 -0.022610426 0.043329123 -0.018820226 -0.02781504 -0.07144418
0.015560511 -0.042208303 -0.031513344 -0.07432549 -0.017154466 0.05044867 -0.08039341 0.054233532
0.003316601 -0.0114054475 0.043552697 -0.047870412 -0.0756038 -0.098578215 -0.052982766 -0.05275651
0.017583165 0.06795926 0.03897632 -0.0310937 0.019507373 0.05673033 0.029277213 -0.03238989
0.004212531 0.060680952 0.084009536 0.061835863 -0.010997419 0.03303859 -0.024256906 -0.004521821
0.025894966 -0.039556954 -0.053886436 0.060128916 0.014954391 0.0018045129 0.022867344 0.09504381
0.041143954 -0.010009487 -0.04077445 -0.054820035 0.015703043 0.027069494 0.029728612 -0.053172696
-0.027182944 0.03426004 0.057086512 0.004484168 0.023381365 -0.0701828 -0.06853201 -0.106386915
-0.016989795 -0.038407233 -0.08425148 -0.043838676 -0.025302079 0.017510952 -0.011929411 -0.15388155
-0.04785166 0.103678964 0.062010776 -0.06363766 0.013755233 -0.039893728 0.08484491 0.010127076
0.05464306 -0.050633207 -0.03542427 -0.020669308 -0.018743774 -0.00977746 0.060845695 0.04280673
0.068239324 0.0286504 -0.063836634 -0.06680572 -0.06324726 0.051433586 -0.05365011 0.038210835
-0.055693097 -0.041144513 0.024545236 -0.060050543 -0.02514219 0.056084756 -0.013613271 0.07217271
-0.1529381 0.06620142 0.029797738 0.056413468 -0.028148971 -0.018798312 -0.0042933472 0.015349086
-0.04450275 0.040845077 -0.05336049 0.0454707 0.046846606 -0.095376916 -0.065414846 0.027489379
0.020267589 -0.07023701 -0.008817639 -0.07320822 -0.03444309 -0.04605937 -0.10976532 0.0025404247
-0.11774722 -0.08015199 0.010826409 -0.030317362 -0.011372943 -0.041412495 -0.00671955 -0.03348423
-0.018678688 -0.008682726 0.079709455 -0.05618668 0.03760445 -0.030887296 -0.028161962 -0.0268912
-0.08370538 -0.15742633 0.05743483 0.013027703 -0.023826947 -0.09548423 -0.03247967 0.010976985
-0.0048179394 0.023115907 -0.05231716 -0.0056047756 -0.13613234 0.048386812 -0.018967226 -0.020323578
-0.034208234 -0.18162608 0.0060926713 -0.06738962 0.03387585 -0.0035014162 0.020833855 -0.026824452
-0.094204314 -0.0025535978 -0.019110275 -0.054740425 -0.0067005404 -0.013012122 0.013938414 0.0144054135

network_body._body_endoder.seq_layers.0.weight f4 [256, 264]
00000000: 374f b63d 632a 12be f7ba 793d 8d7e 2cbe
00000010: e2e6 46be dd30 00bd c143 eabc 37c4 a03d
00000020: fca5 f13c 6bdb 49be ab01 22bd 3f02 2c3c
00000030: c083 bfbc fc19 e2bd 3b46 2f3e 6797 81bd
00000040: 1c02 60bd 7e86 323d 5ed2 0b3e 9ecd 173d
00000050: 13df 59bc 1e0f b4bc 3e53 cabd 9953 1dbe
00000060: a0bd 9e3d f10d 3d3d 6f52 9cbd 7fde 97bd
00000070: 006f 05be 3f84 2a3e cd35 e4ba 33d6 0b3e
00000080: 3b40 f33c 048d df3d 6595 203d b396 d53c
00000090: f0cd 263d aa3b 23be a205 22be c969 27bc
000000a0: d921 cd3d be48 453e a3e3 07be 735c af3d
000000b0: 9c89 5abe 363e 883d 2d69 08bd 8327 1e3e
000000c0: 2636 103c d667 e4bb 8eb2 1a3c 641a 2dbd
000000d0: 43f2 b43d 6493 16bd 3e90 5dbd 0f7e c0bd
000000e0: 0ba0 2b3d 9319 44be c415 2dbe 7359 9f3c
000000f0: c7c5 9cbd deea c33d 3275 893d 6012 803d
00000100: 0cc0 90bd 8093 073d 0014 02be 59c1 cfb7
00000110: 0cff f6bd e435 623d 5475 cdbb ffbd 40bd
00000120: d765 07be 3fea a43b 1940 0b3e bc41 a83d
00000130: a16e 783b d5aa 2ebe de36 4d3c 4aba 343e
00000140: 778a 633d 4df9 503d 595a cbbd 5b90 95bd
00000150: 7a14 2fbc 9946 ef3d f5eb 19be 4f65 dabd
00000160: da72 593d eb5e 1cbd 2e91 ac3d 5ccf 5c3d
00000170: eccb 703d af24 f3bd 0b37 51bc 8a03 4dbe
00000180: 2207 94bb 0279 0dbd 0666 483e 4493 cf3c
00000190: 49c3 b23a 2267 8ab9 f100 ecbc 872b c3bd
000001a0: 7f1b d43d 8c2b dbbc 7b36 b63a 9255 7abc
000001b0: 32ba 513d b27c 31bd db27 1ebe 9d0a 83bd
000001c0: a98b dc3d 4b43 d1bd 6df5 e839 edea 05bd
000001d0: 2f7c b23d 4c90 84be f346 153d 6a31 9f3d
000001e0: be2e af3c b0cc 4fbe 8c63 1e3b 5d8e 0abe
000001f0: 54ab b1bc 7846 f8bd 1d5d 083c cb6e 113e
00000200: e2b7 1bbe 7e0e 0a3e 8a30 9ebd 727a 5d3d
00000210: 0e23 74bd c736 e1bd 108f a4bd 05f4 06be
00000220: 008e 413d 0afe 25bd 3198 38be 6af0 003e
00000230: 1d02 0e3e da92 b73c f9a6 813d 3c67 0abe
00000240: 9083 5dbc 304a d3bd e343 b43d dcbd 65bd
00000250: 7a87 16bd 4aa5 ba3d 0dff 313d 25c2 43be
00000260: aaff a23b 3b8f a3bc a92a 49bd a9a1 1b3d
00000270: 5884 33bc 51eb 943d 7485 b5bd fffa b83d
00000280: e010 45be cd7a 993d c8fe b03b 2009 30bd
00000290: 9fe0 153c 5f37 e83d ade4 b9bd 392b 71bd
000002a0: 3e30 66bc e992 c93c e869 31bc f24b c9bd
000002b0: 36ee 033d c2fe aebd 664a cbbd 4578 c53c
000002c0: 68cd 4abc eaa3 1dbe c57f 443e 6e43 2f3d
000002d0: 962b fdbd ecd3 0c3c 870c b13d 0913 783e
000002e0: 6123 20bd 0ab3 b9bd 877b 54bd 2a56 39be
000002f0: 5da5 773d 18b2 86bd 4c4a c3bd eb18 32bc
00000300: 6972 d6bd f9f6 793d ff6d c63b 7bfc c63d
00000310: b958 6bbe a40c 533e 5668 5abd 0e44 18be
00000320: 6c57 b5bd b28c 9e3d bd2e 98bd 31a9 1f3c
00000330: 2c33 0bbe f866 633a 2ed0 34be 5b6f 0dbd
00000340: 234d 483d 845b 953d 6c3e ff3c 7a9e 32be
00000350: 7adb 0ebe 3b6c de3d aa04 66bd 0d5c c13d
00000360: c2d9 8abd 38ab e1bc 052f b83c 361a 703d
00000370: bdcf d6bd c0ad 30bb 4dff a93d 030d cabc
00000380: 9ad3 c33c 1777 9dbb 29a0 f9bb 1561 0c3e
00000390: 2803 0a3d 9ad8 b7bc 2e03 5ebd c19a 6239
000003a0: 3cda 883d 5c27 2e3e d3ee e7bc 16c3 c43d
000003b0: 5418 0ebd 1562 d3bd 0a10 753d f073 8e3b
000003c0: 67f9 c3bc 6d21 583d 1fe1 6fbd 1821 4fbd
000003d0: f08c 39bd b211 51bd e3fc 3a3d 4ccf ee3d
000003e0: 3352 d9ba c2da 843c f12a 933d 208b 56bd
000003f0: 12dc e43d 8c76 b7bd ce40 2d3e daae 00bd
0.08901828 -0.14273982 0.06096932 -0.1684515 -0.19424012 -0.0312966 -0.02859676 0.07849925
0.029498093 -0.19712608 -0.039552372 0.010498582 -0.023378253 -0.110401124 0.17116635 -0.06327706
-0.05468951 0.043585293 0.13654467 0.037061326 -0.013297814 -0.021979865 -0.098791584 -0.15363921
0.07751012 0.046155874 -0.076329105 -0.07415485 -0.13030624 0.1665201 -0.0017411053 0.1365593
0.029693713 0.109155685 0.039204974 0.026072836 0.04072374 -0.15940729 -0.15822461 -0.010218092
0.100162216 0.1926603 -0.1327043 0.08562555 -0.21341556 0.06652491 -0.03330343 0.1544476
0.0088019725 -0.006970386 0.009441985 -0.042261496 0.0883527 -0.036761656 -0.05409264 -0.09399044
0.041900676 -0.19150381 -0.16902834 0.019451832 -0.076549105 0.09566282 0.06711806 0.06253505
-0.0706788 0.03309965 -0.12702942 -2.4766357e-05 -0.12060365 0.055227175 -0.00627009 -0.047056194
-0.13222443 0.005032807 0.1359867 0.08215663 0.0037907737 -0.17057355 0.012525288 0.17649189
0.055551972 0.051019 -0.09929342 -0.07302924 -0.010686034 0.11683387 -0.15031417 -0.10663854
0.053088047 -0.03817646 0.08426128 0.05390869 0.058788225 -0.11872231 -0.012769471 -0.20020881
-0.004517452 -0.03453923 0.19570169 0.025338776 0.0013638522 -0.0002639825 -0.028809043 -0.095297866
0.10356807 -0.026754163 0.0013901734 -0.015279191 0.05120296 -0.04333181 -0.15444891 -0.06398509
0.107688256 -0.10217913 0.00044433345 -0.032694746 0.087150924 -0.2589134 0.036444616 0.07773097
0.021384593 -0.20292926 0.0024168221 -0.1353087 -0.02168814 -0.12122816 0.008322981 0.1420242
-0.15206864 0.13482091 -0.07724102 0.05407185 -0.059603743 -0.10996776 -0.080350995 -0.13179024
0.047254562 -0.040525474 -0.18026806 0.1259171 0.13867994 0.022408891 0.06330676 -0.13515943
-0.0135201365 -0.103168845 0.08802011 -0.056089267 -0.036750294 0.09113558 0.043456126 -0.19117029
0.004974325 -0.019965759 -0.04911295 0.037995968 -0.010956846 0.072714455 -0.08863345 0.09032249
-0.19244719 0.074941255 0.005401466 -0.042977452 0.009147792 0.11338686 -0.090768196 -0.05887911
-0.014049588 0.024606185 -0.010828473 -0.098289385 0.032209598 -0.08544685 -0.099263 0.0241052
-0.012378074 -0.1539456 0.19189365 0.042788915 -0.12361829 0.008595448 0.086449675 0.24226011
-0.03909624 -0.09067352 -0.051875617 -0.18099275 0.060460437 -0.065769374 -0.095356554 -0.010870199
-0.10471041 0.061026547 0.006055593 0.097161256 -0.22983064 0.20610291 -0.05332216 -0.14869711
-0.08854565 0.07741679 -0.074307896 0.009744928 -0.1359374 0.00086747063 -0.17657539 -0.034530025
0.04890169 0.07292846 0.031157695 -0.17443267 -0.13950911 0.10860487 -0.05615679 0.094413854
-0.06779815 -0.027547464 0.022483358 0.058618747 -0.10488842 -0.0026959032 0.08300648 -0.024664408
0.02390461 -0.0048054564 -0.0076179695 0.13708909 0.033694416 -0.02244215 -0.05420225 0.0002161069
0.0668225 0.17007202 -0.028312122 0.09607522 -0.03469117 -0.10321442 0.05982975 0.004347317
-0.023922635 0.052766252 -0.0585643 -0.05056867 -0.045300424 -0.051042266 0.045651328 0.116606325
-0.0016580283 0.016217593 0.07185925 -0.052378774 0.111747876 -0.08958158 0.16919252 -0.03141675

network_body._body_endoder.seq_layers.0.bias f4 [256]
00000000: cedb 9c3c 93f7 b6bc 8a93 c43c 9745 41bd
00000010: 4b4d 753d 886b 8fbd 668e d13b 6393 5e3c
00000020: 0f5d ae3c c6e3 f1bc 9821 e23d 778b 3ebd
00000030: 4b15 953d 5b14 a8bc e4d0 d93c ee9c 00bd
00000040: 538f af3d cf85 363c 90de 94bb b77e 62bc
00000050: e325 91bd 3922 3b3d 2df2 19bc 74ea 5fbc
00000060: 1ba0 983c 8a64 96bd 03f7 943d f340 253d
00000070: fd8a 093d 70af 4fbd 7e53 ee3c 9c68 babb
00000080: e9c5 2b3a e9ca 2cbd 5ca7 abbd 2a91 acbc
00000090: 9091 9f3d cf4a f83c 3fdf a03b f1b3 ec3a
000000a0: f743 de3b 08f0 fcbb d524 0339 0af8 9bbd
000000b0: a527 33bb 581a 91bd 92ad 30bd 4564 66bd
000000c0: c30d 28bd 2fbd f9ba 5504 25bd 0339 863d
000000d0: 8aa4 c0bc 80f8 b93d a06e 79bd 549e 243d
000000e0: 8a12 c6bc fbb9 143e 2ccc 57bb 8fb5 c9bc
000000f0: 0e82 ab3c 33c7 70bb 57a8 1ebb 2a34 8cbb
00000100: 34c2 7b3b a223 b53c 1910 883d 9eed 8c3d
00000110: bd20 3d3d 7136 85bb a88f 88bd 005e 153e
00000120: 6dd3 6c3d 708f b43b c627 c23d 4ec8 d93b
00000130: 3938 a83d 3125 2d3d 0d67 983b 3262 9fbc
00000140: b881 34bc 49d2 71bd 23e6 c13d 7125 3bbc
00000150: 80bb 5abc 0ab0 fd3d 04a9 dcbd e8a5 2b3c
00000160: 3967 363d 404a 793d 838b 6cbd 7d6f ee3c
00000170: efb6 8bbc 4138 b03c 1796 0b3b 7df4 a3bb
00000180: 224e 8abc 9d2c 96bd d166 823d 29de 13bb
00000190: ed84 85bd 2408 d9bb 3d19 193d 53d4 b83d
000001a0: 816f 7e3d 33fc 96bc d827 0f3d 76aa 19bd
000001b0: 8066 4cbb 8171 43bd 559f 00bd 2d12 9d3d
000001c0: 948b 003e 617c 8f3b 8afa 9cbd 9c22 c53c
000001d0: 205c 903d 3919 86bc d0f8 5e3c 99c7 4f3b
000001e0: d49a cb3d e998 b73d 7012 9dbd 0cec 553c
000001f0: 3cb9 41bd cd03 e03c 55db 93bd f7ea cd3c
00000200: 8f29 34bc 9fae 1f3e baf0 0e3d 8d46 a4bc
00000210: d276 41bc 783e a63c a419 603d 12f4 c23c
00000220: 98e4 ac3c 48d8 c5bb babb 513d 39a3 7abb
00000230: 99b9 c1bc 9f0d 3c3e be40 193d c552 84bc
00000240: 3c82 9bbb 4680 a83c 0c4d a43c cadb 85bb
00000250: 37fb 38bc a4b8 3bbd 1858 a43d b8a5 d2bc
00000260: 35f7 3fbd 785f 01bc 174e 5e3e eb33 e7bb
00000270: fe43 18bd e3d3 bebc d304 fdbc 1b54 e63c
00000280: 3e97 01bc f93d dcbc 3932 0e3c efa2 b63d
00000290: dd10 48bd 1086 4b3d bfa7 0b3c 1aec 3abd
000002a0: a267 213d e533 a9bc 0c28 4cbd 5784 a23d
000002b0: e059 133d bb92 9fbd 1fbc 053d d1a4 d7bc
000002c0: 0576 f83d fdda c33a da68 bfbd 384d 69bd
000002d0: ab32 2cbd 6b93 543c 1c91 c43d 604b 3fbc
000002e0: c8a9 113e 0cd3 dd3c 1bcb 8fbd f7fc 8a3c
000002f0: ba7a 22bc 1bc6 613d 7d0e 4dbd 0ea3 7ebd
00000300: 5a75 81ba 03f9 4d3d 23cd 823c 467f 223d
00000310: 9556 5cbc 3a0a 863c 66cb 5ebd fa15 b4bc
00000320: 489c 0fbd afee 2abb 03cc 1c3c e22a a6bd
00000330: 34bf 6bbd 7dc1 2d3d c57c 18bc 0228 a0bd
00000340: ce85 9a3c c466 013d 0094 4ebd b524 ae3d
00000350: 5503 693b afe6 2d3e b108 b4bd a5a2 87bd
00000360: b417 b6bc c6d6 b0bc 3ab6 e3bc e503 e83c
00000370: ff61 013d c381 493c 4ffb 4dbb c71e a13c
00000380: 145e b3bc c7f2 e43d f56d 98bd 6384 583d
00000390: b9be 9b3d db7f 3b3d db0e d43c 25af c93d
000003a0: 3ec3 d5bc dc85 9e3c 7420 7dbd ecbe 923d
000003b0: 3673 983d 9b13 97bd 315d 5ebc 218f e73c
000003c0: 41d9 1c3d 8b73 a73d 63a7 9cbb 73ac 08bd
000003d0: c926 c63d 8902 503b d908 323b 0941 173d
000003e0: 6ec4 e03a 1c8e c03d c72a 343e c9fc 783d
000003f0: 169d 693d f46e db3d 2a3b 9fbb 7a82 063e
0.01914778 -0.02233485 0.023996133 -0.047185507 0.059888165 -0.07002932 0.006395149 0.013584944
0.021284608 -0.029527556 0.11041564 -0.046519723 0.07279452 -0.020517519 0.026588865 -0.03139966
0.08572259 0.011140301 -0.004543133 -0.0138241565 -0.070873044 0.045686934 -0.009396118 -0.013666738
0.018631032 -0.07343395 0.07273676 0.040345144 0.033579815 -0.05070442 0.029092547 -0.00568874
0.0006552623 -0.042185698 -0.08381531 -0.021065313 0.07791436 0.030309109 0.0049094255 0.0018058998
0.0067830044 -0.0077190436 0.00012506855 -0.07615669 -0.0027336862 -0.07085103 -0.04313428 -0.05624797
-0.04102875 -0.0019053573 -0.040287334 0.06553843 -0.023515958 0.09080601 -0.060896516 0.040190056
-0.024178762 0.14524071 -0.0032928092 -0.024622707 0.020936038 -0.0036739826 -0.0024209225 -0.0042786794
0.0038415315 0.022111718 0.066436954 0.068812594 0.0461738 -0.004065328 -0.06668025 0.1458664
0.05781882 0.005510263 0.094802424 0.0066461926 0.082138486 0.042271797 0.0046509565 -0.019456003
-0.0110172555 -0.059038434 0.09467723 -0.011422501 -0.013350368 0.123870924 -0.10774425 0.010476567
0.044532035 0.060861826 -0.057750236 0.029105896 -0.017055003 0.021511199 0.0021299177 -0.0050035105
-0.01688296 -0.07332728 0.06367267 -0.0022562838 -0.06519494 -0.006623285 0.037377585 0.09024873
0.062118057 -0.018430805 0.034950107 -0.03751608 -0.0031189024 -0.047715668 -0.03140195 0.076694824
0.12553245 0.004378841 -0.07664974 0.024064355 0.070488214 -0.016369449 0.013609126 0.0031704663
0.099416405 0.08964712 -0.07669532 0.013056766 -0.047295794 0.027345562 -0.07219569 0.025136454
-0.0109962365 0.15593956 0.034897543 -0.020053172 -0.011808114 0.02029346 0.054711953 0.023798022
0.021105096 -0.0060377456 0.05120442 -0.003824426 -0.02364807 0.18364571 0.03741526 -0.016152749
-0.0047457498 0.020568978 0.02005627 -0.004085039 -0.011290363 -0.045830384 0.08024615 -0.025713786
-0.046866614 -0.007896297 0.21709476 -0.0070557497 -0.037174217 -0.023294395 -0.03088609 0.028116276
-0.007909594 -0.02688502 0.008678966 0.08917796 -0.048844207 0.0496884 0.0085238805 -0.04563532
0.039405473 -0.020654628 -0.04984288 0.07935398 0.035974383 -0.077916585 0.03265011 -0.026323708
0.121318854 0.0014942583 -0.09346171 -0.056958407 -0.04204051 0.0129746 0.0959799 -0.011675686
0.14224923 0.027078174 -0.07021161 0.016966326 -0.009916956 0.05512057 -0.050062645 -0.06216722
-0.0009876892 0.050286304 0.015966957 0.03967216 -0.013448377 0.016362298 -0.054393195 -0.021983135
-0.03506115 -0.0026082208 0.009570125 -0.08113648 -0.057555392 0.042420853 -0.009307091 -0.07820131
0.018862631 0.031592146 -0.050434113 0.08503095 0.0035554965 0.1698253 -0.0879072 -0.06622819
-0.0222281 -0.021586787 -0.027796853 0.02832217 0.031587597 0.012299004 -0.003143031 0.019667996
-0.021895446 0.111791186 -0.07442848 0.05286063 0.07604737 0.04577623 0.02588599 0.09847859
-0.026094075 0.019350938 -0.061798528 0.07165322 0.0744385 -0.07376786 -0.013572023 0.028266491
0.038293127 0.08176335 -0.0047806962 -0.033367585 0.096753664 0.0031739792 0.0027165918 0.036927257
0.0017148384 0.09402105 0.17594443 0.06078795 0.057034574 0.10714522 -0.004859348 0.1313571

network_body._body_endoder.seq_layers.2.weight f4 [256, 256]
00000000: 2b23 7e3e e816 863d 2d88 7abd 8452 6a3c
00000010: 91b9 153e c820 fd3d cc41 31bd db1d 2e3e
00000020: 87b4 8cbe 33a3 db3a c8d5 8f3d 7f31 29be
00000030: b77a f53d 1bf2 823d 8ff0 efbc 0e93 7e3d
00000040: ffbb c7bd 5b1b 553d e349 943d 4ef5 efbd
00000050: ec69 9dbd 8de5 cf3c 97aa 80bd 5da5 6bbc
00000060: 1608 37bd 4414 84bd 3695 ddbd e723 44bd
00000070: 8d21 f83d 27a2 16bd b4ca 303d 9a49 04be
00000080: e1a2 803d 5edc 0dbd dd81 cb3d 3177 95bd
00000090: 79cd cd3d 28e1 a53d 6d3f 7aba cdb8 ec3d
000000a0: 2189 973d 2028 a9bc ec72 113d 9133 b6bd
000000b0: 88b4 cf3c c63b b33c 7b74 b83c 72b9 36bc
000000c0: c586 a0bc e8ba 44bc 1963 89bd da9b 60bb
000000d0: fafb 83bd aed2 7c3c 54d1 e7bd 06b8 df3d
000000e0: 4232 b2bd 2d4d 823d cd87 ddbb b659 be3d
000000f0: f225 eebd 08e6 273d ab18 41be d139 22bc
00000100: 7241 7b3e a383 10bd 1ed4 833d ea13 23bd
00000110: 4162 40bd 5fe0 97bc 4633 943d e340 703c
00000120: b63b e1bd 0b07 29be b15e a4bd 8687 95bd
00000130: 416e d0bd d28c 9abd 3a0c cabc af0d 40be
00000140: 3a51 113d 1060 4cbd f6a2 64bd 1634 523c
00000150: 2c94 a53c 7562 6f3d 31b9 77bb df97 32bc
00000160: b75f 9c3c 52fc d9bd 3f7d 28bd b1d2 d0bc
00000170: 1a4d 3bbe 6457 dd3d d922 eebc 2ca4 8b3d
00000180: 3758 08be ec84 76bc fbfb 82bd 6580 973d
00000190: 2b91 d63d 6c16 3a3d ade6 073c 0549 283e
000001a0: a12f d73d 69fb b63c 90f4 88bd 930c 0ebe
000001b0: f79a aabd d96f 88bd b775 913d 9170 43be
000001c0: 272d c43d abf2 223e 0c4a 1c3c 7615 2dbe
000001d0: 9385 e33b 07ab 2e3d f09b 94bd bc15 693e
000001e0: ab95 babc 9c9f c2bd c9da 14be 89ff 263e
000001f0: a67c 81bc 9cc7 99bd 1e97 0f3d b33b 9dbe
00000200: 87bc e8bd 6a8c 9f3d 19b5 613c 131b 743b
00000210: 3410 3bbe 246f 0fbd 882c 31bd c16e 0c3e
00000220: db87 293e 101b 5f3c 87be d3bd ba1e 82bd
00000230: ecfd 0c3d dca5 7b3d 009b c43b 4a20 42be
00000240: 7bdd d03c a14a e8bd 2759 60bd 8616 483d
00000250: 3a79 48be de8f 6bbe e285 533d e44c 783d
00000260: 085a e2bd ab22 233e 140e fd3b 4c2b 0f3d
00000270: 028c 81bd 2130 a9bd b55e 453d 17f9 a0be
00000280: e7b1 083d d5ab 39bd 8b0a 183e 6750 9abc
00000290: bce4 ce3c 0d23 363d 9522 423e ad74 483d
000002a0: 2deb 49be 3c59 8f3d 1ca6 f8bd 30ed b13b
000002b0: 40aa 033e 686a 053d 753d a0bd 19c2 63be
000002c0: a099 f33d 9bda 1f3e cadc 053d bded 473e
000002d0: da6e 13be f95b 343e 1cfb e33d ff80 66bd
000002e0: cd9a d33d 9d9b aabc 0693 edbb 86cf bbbd
000002f0: 6cd7 093d d483 0fbe 7eb2 12bd 7ef4 0c3d
00000300: bab0 9abd 3857 c33d 88b6 1dbd 2c7c 66bd
00000310: b946 17be 5be0 12bd 2a66 33be a296 19bc
00000320: 02d6 47bd 5e0b c43d f686 c3bd e5fd 34bc
00000330: b9da e5bd da81 51bd 77a6 c23d 24ec a9bb
00000340: 4025 2c3d 41d7 dcbd e2d3 9f3b d574 583e
00000350: dfe4 b2bd 8b5d ea3c a424 88bd 9b87 e4bd
00000360: 42f7 b9bd ed86 aabd 51b2 bc3d 1b2d d53c
00000370: 90b1 613d dc55 363d e4fe fe3d 3b43 3ebd
00000380: dde4 a43d bebf bc3d e302 0c3d 5cad d73d
00000390: 4be6 cf3c ccfd ce3d 5939 1a3e 11bc 52bd
000003a0: 8246 13be c7ec a83d 9aa4 983b beeb c9bd
000003b0: e789 f2bd 93c0 8abd d1c0 edbd 15bf 073e
000003c0: 91a0 d73d 8e91 5b3d b506 8bbd 9b49 60bd
000003d0: 831f b13d 1899 fcbd d991 03bd 8d01 97bd
000003e0: 50a3 723c 2307 a63d a4c9 d8bd de83 403e
000003f0: 90fe f23d fdb4 61bd 5c17 23be ee2c 683d
0.24818103 0.06547338 -0.061165024 0.0143019 0.14621569 0.12359768 -0.04327564 0.17003576
-0.2748148 0.0016757011 0.070231974 -0.16522788 0.119862966 0.06393834 -0.029289512 0.06215196
-0.09752654 0.05202804 0.07240655 -0.1171671 -0.076862186 0.025378013 -0.062825374 -0.014382687
-0.044685446 -0.06449178 -0.10819475 -0.0478858 0.12115774 -0.036775734 0.043162063 -0.12918702
0.06281067 -0.034633987 0.09936879 -0.072981246 0.100489564 0.08099586 -0.00095461943 0.115586855
0.07399202 -0.020649016 0.03550999 -0.08896554 0.025354639 0.021879088 0.02251648 -0.011152612
-0.019595513 -0.012007453 -0.067083545 -0.0034272582 -0.06444545 0.015431089 -0.11319223 0.109237716
-0.08700992 0.06362376 -0.0067605735 0.09294455 -0.11628331 0.04099086 -0.18857066 -0.00990148
0.24536684 -0.03528179 0.064369425 -0.039813913 -0.046968702 -0.018539606 0.07236342 0.014663908
-0.10997717 -0.16506593 -0.080258735 -0.0730124 -0.10177279 -0.075463906 -0.024664033 -0.1875522
0.035477854 -0.0498963 -0.055819474 0.012829801 0.020212255 0.058443505 -0.0037799592 -0.010900467
0.01908861 -0.106438294 -0.04113507 -0.02549109 -0.1829113 0.10807684 -0.029069351 0.06818423
-0.13314901 -0.0150463395 -0.06395718 0.07397536 0.10476907 0.04543154 0.0082947435 0.16434105
0.10507131 0.022336679 -0.066872716 -0.13871984 -0.083303384 -0.06661958 0.071025304 -0.1908591
0.095789246 0.15912883 0.0095391385 -0.16902718 0.0069434135 0.042643573 -0.07256305 0.22762197
-0.022776445 -0.09503099 -0.14536585 0.16308416 -0.015806507 -0.075087756 0.035056226 -0.3070961
-0.11364084 0.07790454 0.013776087 0.0037247583 -0.182679 -0.0350181 -0.04325536 0.13714124
0.16555731 0.013617292 -0.103390746 -0.06353517 0.034421846 0.061437473 0.0059999228 -0.1895763
0.025496235 -0.11342359 -0.054772522 0.048849605 -0.19577494 -0.230041 0.051641352 0.060620204
-0.11052328 0.15931194 0.0077226255 0.0349534 -0.063255325 -0.08261133 0.048186023 -0.3144004
0.033372786 -0.045329887 0.14847772 -0.018837167 0.025255553 0.04446702 0.18958504 0.048939396
-0.19718619 0.06999442 -0.12141058 0.0054298863 0.12857914 0.03257218 -0.07824222 -0.22242011
0.11894536 0.15610735 0.032681264 0.19524284 -0.14397755 0.1761321 0.1113188 -0.056275364
0.1033226 -0.020826155 -0.0072501926 -0.09170441 0.033652708 -0.14015132 -0.035814755 0.034412853
-0.07553239 0.0953812 -0.038504153 -0.056270763 -0.14773072 -0.035858493 -0.17519441 -0.009374293
-0.048788078 0.095724806 -0.09547226 -0.011046861 -0.11223359 -0.051149227 0.09504407 -0.005185621
0.042027712 -0.10783244 0.0048775533 0.21138318 -0.0873506 0.028609058 -0.06647614 -0.11158677
-0.09080364 -0.08326516 0.09213699 0.026022485 0.055100977 0.044515476 0.1245096 -0.046450835
0.08051465 0.092162594 0.03418244 0.105311126 0.025378367 0.10107002 0.15060939 -0.051448885
-0.14382365 0.08248287 0.004658294 -0.098594174 -0.11842709 -0.06775012 -0.116090424 0.13256486
0.105286725 0.05360561 -0.06788389 -0.054757696 0.086485885 -0.12333888 -0.032121513 -0.07373343
0.014809445 0.0810683 -0.10585335 0.18800303 0.1186496 -0.055104245 -0.1592688 0.056683473
