Assets/MoveToGoal.onnx (onnx, 70109 bytes, 7 tensors)

network_body._body_endoder.seq_layers.0.weight f4 [128, 1]
000000 18 37 b1 3e 05 d0 c3 3f bb e4 a5 3f b4 5f 80 3f
       0.34612346 1.5297858 1.2960428 1.0029206
000010 d6 8b df be da c0 90 bf 01 ce 96 3e 84 7d c2 3f
       -0.43661374 -1.1308854 0.29454044 1.5194554
000020 fa 8a 06 3f ea 7e c4 3f 38 c0 93 bd 77 73 33 bf
       0.5255581 1.5351231 -0.07214397 -0.7009806
000030 21 a8 e6 3d 66 86 da 3e 25 e1 38 3f b6 2d f8 be
       0.11262537 0.42680663 0.72218543 -0.48472375
000040 02 a5 0d 3f f6 5e 06 c0 de bf f1 3e ba fd 24 3e
       0.55329907 -2.099546 0.47216696 0.16112414
000050 9b df 8d bf 10 71 65 bf cc ff d3 be 2c 5c d6 3f
       -1.1083864 -0.89625645 -0.41406095 1.6746879
000060 80 92 f1 3f e3 0f f3 3e c3 b8 a9 bf 2e dd 81 bf
       1.8872833 0.47473058 -1.325951 -1.0145624
000070 22 34 1c bf ba 84 96 3f 82 8e 22 c0 f8 18 28 bf
       -0.6101705 1.1759255 -2.539948 -0.656631
000080 b5 4c ff be 17 df ef bf f8 44 d5 3e 00 56 2e 3e
       -0.4986321 -1.8739957 0.4165418 0.17024994
000090 74 b7 23 be b7 2a d7 3f 67 a1 b6 bf 05 02 ab 3f
       -0.1598795 1.680991 -1.4268006 1.3359991
0000a0 52 66 ea be ef d0 a3 be 5e 50 af 3e b2 2c 55 3e
       -0.4578119 -0.3199534 0.34241003 0.20817831
0000b0 b8 3f 90 3f 44 fd 81 bd c4 42 ac 3d 4f 68 8a be
       1.1269445 -0.06347135 0.08411172 -0.27032706
0000c0 54 b0 21 bf 83 ee a0 3e 9c ab a7 3f 7f 21 b5 be
       -0.6315968 0.3143197 1.3099246 -0.35377118
0000d0 89 57 c8 bf 53 c1 96 3f 03 bd 63 3f b3 af 63 3f
       -1.5651714 1.1777748 0.88960284 0.8893997
0000e0 23 f6 06 40 46 45 ad be cf bf de 3c 40 79 d0 3e
       2.108773 -0.33841914 0.02719107 0.40717506
0000f0 d2 96 55 bf 4e 9b 5e bf 75 27 00 bf 56 64 26 bf
       -0.8343326 -0.86955726 -0.50060207 -0.6499685
000100 c0 cd 9b bf 70 f8 de bf 49 be a0 3f 8e 67 14 be
       -1.2172165 -1.7419567 1.255807 -0.14492628
000110 df 21 35 bf 6c e7 01 c0 03 b7 42 3f 21 ad 92 bd
       -0.7075481 -2.0297499 0.76060504 -0.07161928
000120 39 69 b6 3e 45 ad fc 3e 8f a2 b9 3e 09 fd cc 3e
       0.35627154 0.49350944 0.36256835 0.400368
000130 63 3c b3 bf 67 3a 1c be 53 ef 72 bf a7 9d 1d bf
       -1.4002804 -0.15256654 -0.9489643 -0.61568683
000140 c1 3e 4d bf 36 fc 97 bf 3d 60 36 3d f5 a1 57 bd
       -0.8017388 -1.1873844 0.044525374 -0.05264469
000150 ab 43 fc 3c c1 61 33 bf 1e d2 28 be cd cf 5c bf
       0.030793985 -0.70071036 -0.16486403 -0.8625458
000160 85 50 11 3e 6a 6d 9b 3d ac fe 2e bf 76 2c 12 bd
       0.14190872 0.075892285 -0.6835735 -0.035686933
000170 8e f6 12 40 b1 1f aa 3e ab dd 97 3f 54 c0 93 3f
       2.2962985 0.33227304 1.1864523 1.1543069
000180 f6 dc 75 3e a9 3d 04 40 a2 04 ac 3e 40 9a f2 3f
       0.24010071 2.0662634 0.33597285 1.8953323
000190 fd d0 21 3f b6 7a 81 3f 10 dc 71 3f 26 b4 36 3f
       0.63209516 1.0115573 0.94476414 0.71368635
0001a0 3c 5a 76 3f cd 78 58 bd 12 8b 19 bf ef 52 35 3f
       0.96231437 -0.05284958 -0.5997783 0.7082967
0001b0 98 a6 ea bf 65 0f ed be 8d 1e 7f bd ee 9a d2 bc
       -1.833209 -0.46300808 -0.062284995 -0.025708642
0001c0 ca da 00 bf a4 d1 94 3f 11 21 00 40 c7 c0 22 be
       -0.50333846 1.1626477 2.0020182 -0.15893851
0001d0 f0 22 5f be cd 94 ce 3d 02 9f 33 bf 12 7a 0a c0
       -0.21790671 0.10086975 -0.701645 -2.1637006
0001e0 08 29 a1 be 10 19 8b 3f ee c0 02 40 66 be 20 3e
       -0.31476617 1.0867023 2.0430255 0.15697631
0001f0 2a 99 80 3f 4f 1b 46 bf 98 d2 cd 3f a3 64 46 be
       1.0046742 -0.7738542 1.6079893 -0.19374327

network_body._body_endoder.seq_layers.0.bias f4 [128]
000000 c0 1a a0 3d 4f de 15 3d 52 63 91 bd cc d9 c1 3d
       0.07817602 0.036588963 -0.07099022 0.094653696
000010 21 75 e7 bb 72 b2 74 3d 9e 78 7b bd 00 b0 a4 3d
       -0.0070635234 0.05974049 -0.061394326 0.08041382
000020 34 c5 f7 bd f4 47 cd 3d 42 70 2d 3e 08 38 bc 3d
       -0.120981604 0.100234896 0.16937354 0.091903746
000030 9a f2 f2 3d cb 2b 27 3c 70 97 d3 bd cd 17 03 be
       0.11862679 0.010203312 -0.10331619 -0.12802048
000040 51 9e 0e bc e7 39 8e 3d 0b 6c 10 3e 5c 4e 05 be
       -0.008704738 0.06944638 0.14103715 -0.13018173
000050 0a 81 ad 3c 3b af 51 3d 4f 53 c0 3d c7 f0 0b 3e
       0.021179695 0.051192503 0.0939089 0.13666068
000060 3e 6a 1b 3d 99 cb 06 be 0f b8 86 3d 9f 88 b8 3d
       0.037943117 -0.13163604 0.06578075 0.090104334
000070 dc 37 05 be df e9 c4 3c 45 c6 19 3e 2f 7d 32 3d
       -0.1300959 0.0240373 0.1501704 0.043576416
000080 ee 02 1f bd b6 39 00 3e db 8e f6 bd e0 12 a9 bc
       -0.038821153 0.12522015 -0.12038966 -0.020638883
000090 2a 61 12 3e 13 f5 f4 3c 69 f1 de 3d d4 6e d1 3d
       0.14294878 0.029902017 0.10885889 0.10226217
0000a0 fe 42 ed 3d c6 01 13 3e 83 39 ce 3d fe 78 1a 3e
       0.11585043 0.14356145 0.10069563 0.15085217
0000b0 ad ef 1b bd 41 48 28 be 9a 73 2f 3e 33 73 1c 3e
       -0.03807037 -0.16433813 0.17133942 0.1527832
0000c0 9e 03 df 3d 99 89 0f 3e f0 70 ba bc 2f be b2 bd
       0.10889362 0.14017333 -0.02275893 -0.08727681
0000d0 4a d9 b0 3d 54 e9 2d 3d 29 1e 80 3d c3 be d2 3d
       0.086351946 0.042458847 0.062557526 0.10290291
0000e0 b2 44 fc 3d f1 d1 0e 3e 5a 37 29 be 2c bc 08 3c
       0.1231779 0.13947274 -0.16525021 0.008345645
0000f0 16 0c c8 3c 1f df cd 3d a4 99 04 be 2a 82 72 bc
       0.024419826 0.100523226 -0.12949234 -0.014801541
000100 30 8b 6f 3d bb 8d d7 3d e8 68 16 3e 30 a4 13 3e
       0.05848235 0.1052508 0.14688456 0.14418101
000110 fe 51 0e 3e fc c3 19 3e 3b 52 cc 3d 48 b2 14 be
       0.13898465 0.15016168 0.09976622 -0.14521134
000120 7b ed 03 3e 6d 0a a3 3d 1d 55 19 3e 50 ef 18 3e
       0.1288356 0.07960973 0.14973874 0.1493504
000130 f3 7e 12 3e 80 93 0a 3e 0b 9e 69 3d b8 f5 ce bd
       0.1430624 0.1353283 0.057035487 -0.10105461
000140 85 ea 0d 3e a0 34 0d 3e 52 2a 2d 3e bf 3b 6e bd
       0.13858993 0.13789606 0.16910675 -0.058162447
000150 91 9e 2e 3e 20 35 f4 3d ed c4 11 3d cb bf cc 3c
       0.17052676 0.11924195 0.035588194 0.024993798
000160 d2 76 04 3e 76 e5 12 be df 30 a6 bd ba ef 2a be
       0.12935951 -0.14345345 -0.0811479 -0.16693011
000170 db 05 02 3e 71 73 98 bd 0f 15 29 3d 8b e7 bd 3d
       0.12697546 -0.07443894 0.04127985 0.09272679
000180 37 4e 18 3e 4c f7 11 3e 8f 66 1d 3e 80 a3 02 3e
       0.14873587 0.14254493 0.15371154 0.12757683
000190 e3 27 0d 3e 4c 5d 7a 3d 5c 2c 28 bd 1d 9a 80 bd
       0.13784747 0.06112413 -0.04105793 -0.06279395
0001a0 84 13 a7 bd c7 ba 30 be 5d b8 3e 3d b9 bb af 3d
       -0.08158019 -0.1725875 0.04656254 0.08580727
0001b0 ce eb 9a 3d 0b 36 d0 bd be 3a 09 be 17 d1 31 3e
       0.075645074 -0.10166558 -0.13401315 0.17364918
0001c0 21 e0 20 3d e5 ae cc 3d cb 56 8a 3d a0 cb 1c be
       0.039276246 0.09994296 0.06754836 -0.15312052
0001d0 bb 9f 10 3e e9 c0 1e be a5 e8 35 bd 93 1d a7 3d
       0.14123432 -0.15503277 -0.04441132 0.08159938
0001e0 18 45 56 bd 47 7b f8 3d e6 d5 a0 3d 0e 2c 1d 3e
       -0.052311987 0.12132888 0.07853298 0.15348837
0001f0 17 c2 ad bc 73 72 0e 3e 7c 02 f6 3d 80 9a 16 3e
       -0.021210713 0.13910846 0.120121926 0.14707375

network_body._body_endoder.seq_layers.2.weight f4 [128, 128]
000000 23 ed d5 bd ac a1 5c 3e 0d 9a 6f bd f3 41 53 3c
       -0.10445621 0.21546048 -0.058496524 0.0128941415
000010 73 01 a8 bd fd b4 c9 bc f2 f5 13 3e c3 dc 74 bd
       -0.082034014 -0.024622435 0.1444929 -0.059780847
000020 eb 07 41 3d a6 49 f0 bd 31 48 ac bd bc c4 98 bd
       0.04712669 -0.11732797 -0.08412207 -0.07459399
000030 94 94 0a be 5f b9 f6 3d 84 e3 23 be 93 7f 2c bd
       -0.1353324 0.120470755 -0.16004759 -0.04211385
000040 a8 5c 57 bd 33 4f 73 bc 56 89 e6 bc 67 b8 8c bd
       -0.0525786 -0.0148504255 -0.028141659 -0.068711095
000050 6d b9 d2 3c 1f a8 45 3d 63 6c 4d bd 05 a2 86 3d
       0.025723184 0.048256036 -0.050152194 0.065738715
000060 73 3a 6f 3d 39 3c 4f bd ab 7a 55 3e 4b ed 47 bd
       0.05840535 -0.050594542 0.20847575 -0.048810285
000070 83 68 6d bd 94 48 95 3b d5 dc b5 bd 90 4f 25 bd
       -0.057961 0.004555771 -0.08880011 -0.04035908
000080 2e 16 9a 3c 8f 29 b3 bd 4a 6f 4c 3d ff ef 80 39
       0.018809404 -0.08748161 0.04991082 0.00024592874
000090 3e 93 da bd b0 2d a8 bd 91 ca 37 bd 4a 47 5f bd
       -0.106726155 -0.08211839 -0.044870917 -0.054511346
0000a0 d8 25 c4 bc 00 f3 08 be 5c ab 0e bd 38 a5 0a 3e
       -0.023943827 -0.13373947 -0.03483139 0.13539588
0000b0 7f 57 45 bd 89 54 f2 bd 18 ce ab bd 6a 52 20 39
       -0.048179146 -0.1183253 -0.08388919 0.0001528949
0000c0 c5 0e 72 be 9d 9d 08 bd 3b 70 0f bc e0 6c 25 3e
       -0.23638447 -0.033353437 -0.008754785 0.16154814
0000d0 7f b8 3c 3d 61 2a bc 3d 64 85 5b bd 2a 2c 8a 3d
       0.046074387 0.09187771 -0.053594008 0.06746705
0000e0 92 69 3c bd d4 8f af 3b ce f7 62 3e ee b8 e3 3d
       -0.045999117 0.005357722 0.22164842 0.11119257
0000f0 79 32 b0 bc 76 04 1e be 9b fa d7 bd b8 6c a1 3d
       -0.021508442 -0.15431389 -0.10545846 0.078820646
000100 c7 f9 06 be d9 d0 1a 3c 05 74 11 3e ce cb 53 be
       -0.1318122 0.009449207 0.14204414 -0.20683214
000110 fa 5f 4f 3d 06 a3 6b be bb 15 bf ba a3 06 09 bd
       0.05062864 -0.23011407 -0.001457862 -0.033453595
000120 ff b6 21 bd 92 7e f8 bd 5e 56 e9 3c 16 8a 87 bd
       -0.03948116 -0.12133516 0.028483566 -0.06618135
000130 d2 c7 d9 bd 3f 04 01 be 19 21 82 3b 94 e4 ad bc
       -0.10633816 -0.12599276 0.0039712307 -0.021227159
000140 1e 35 ea bd 50 ed 86 bd b7 be 54 be b6 fc 4b 3e
       -0.114359125 -0.065882325 -0.20775877 0.1992062
000150 d9 1e 8f bd 1d b3 da 3a df 14 1a be 95 fb f4 3c
       -0.069883056 0.001668546 -0.15047024 0.02990512
000160 ba 51 f2 bd 31 6c 1e bd c7 2b 3a 3d e4 ba 01 3e
       -0.11831994 -0.038677398 0.045451906 0.1266895
000170 b7 9c 11 bd 4c 33 34 3e 9d 66 6a 3d 04 69 a8 3c
       -0.035549846 0.17597693 0.057226766 0.020557888
000180 3a c3 4c be f9 5c 36 3c c5 33 51 bd ec c7 26 3d
       -0.19996348 0.011130565 -0.051074762 0.040718004
000190 dc 3d 3f bd 94 0f f7 bd 38 bc 42 3d 88 97 11 3e
       -0.046689853 -0.12063518 0.04754278 0.14217961
0001a0 bb 22 40 3d db 60 b1 3e e4 60 d3 bd e7 35 e4 3d
       0.04690812 0.34644207 -0.10321215 0.111430936
0001b0 c8 4a 80 bd 95 14 96 3d a8 70 86 3d c5 a6 be bd
       -0.062642634 0.073281445 0.06564456 -0.093091525
0001c0 83 19 f0 3b a6 db 21 3e 20 0f f6 bc f6 ad 97 3d
       0.00732726 0.15806445 -0.030036509 0.07406227
0001d0 6c 20 e7 bc cc 13 23 3e e2 d3 c6 bd 66 12 ea bd
       -0.028213702 0.1592552 -0.09708382 -0.114292905
0001e0 56 1f b6 3c 41 1a ae 3d 1d 16 95 bd ef 6c 94 be
       0.022231739 0.08501101 -0.072796084 -0.2898936
0001f0 5c 4f a7 bc db 5b ec bd bb 9e dc bd 96 4a 57 be
       -0.020423584 -0.115409575 -0.10772463 -0.21024546
000200 74 a6 b7 bc c6 1a c4 bc cd 1f a5 3d 88 ec 82 3b
       -0.022418238 -0.023938548 0.08062706 0.003995482
000210 d8 a1 5a 3c 2a 8d 86 bd 75 bf a6 bd f7 4e ec bc
       0.013344251 -0.06569894 -0.08141986 -0.028846247
000220 cd 85 b3 bc 85 60 24 3c 64 0c 37 3e 1d e7 87 3d
       -0.021914387 0.010032778 0.1787582 0.06635878
000230 47 80 1e 3d d0 ef 59 3d be 80 8f 3d 98 9d fe bd
       0.038696554 0.05320722 0.070069775 -0.12432402
000240 55 30 45 3d 54 f1 d0 3c b4 41 fe 3c 33 dc 53 bd
       0.048141796 0.0255057 0.031037189 -0.05172367
000250 41 dc 1c be fd 38 b3 3d 12 7b 0b bc 6f 9f 3c 3c
       -0.15318395 0.08751104 -0.008513229 0.011512621
000260 e5 a3 26 3e 46 ca 76 3d 54 f1 88 bd d6 19 4b 3d
       0.16273458 0.060251497 -0.06686655 0.049585186
000270 95 d1 8d bd f2 ae 34 be 8e 16 58 3d 9d 6e e0 3c
       -0.0692474 -0.17644861 0.052755885 0.027396495
000280 6d eb 9b bd 15 73 fc 3c c2 1a c7 bd d9 7d 77 3d
       -0.07613263 0.030816594 -0.097219005 0.060422752
000290 bf dc 8f 3d 10 ad 27 be a5 17 8b 3d 3b 71 6a bd
       0.07024526 -0.16374612 0.06791619 -0.05723689
0002a0 a8 8c 89 bd 3c cd 90 bd 55 84 d3 3d 72 ee ec 3d
       -0.06716281 -0.07070395 0.10327975 0.11568917
0002b0 44 5c 21 3e 85 32 07 bd 3a 64 3e bd 10 86 a2 3e
       0.15757853 -0.033007164 -0.046482302 0.31742907
0002c0 e0 d5 b9 3b cb 46 e7 3d 45 65 c0 bb 23 5b 80 bd
       0.005671248 0.112927996 -0.0058714473 -0.06267383
0002d0 d7 3a 9a bd ff 4d 91 bc cd 06 17 3d 3f 2a c3 3d
       -0.07530754 -0.017737387 0.03687172 0.09529542
0002e0 3a 67 02 bd 3d 61 4f bd a9 bf 28 be 47 b8 a7 3c
       -0.031836726 -0.050629843 -0.16479363 0.020473612
0002f0 f5 4c 97 3d 4f 97 87 bd ab a7 e5 3b b2 53 93 bd
       0.07387725 -0.06620657 0.007008513 -0.07193698
000300 7b 7d 3a ba 3e b1 d5 3c f7 af 7a 3c 18 99 09 bc
       -0.0007114035 0.026085492 0.015300742 -0.008398317
000310 03 45 a3 3d 1c c7 51 3b 31 b7 96 3d 23 92 34 be
       0.07972147 0.0032009548 0.0735916 -0.17633872
000320 54 eb eb 3d 34 1c 0c 3e b3 0d 04 3e 19 29 8f 3d
       0.11519495 0.13682634 0.12895851 0.06990261
000330 62 0f 41 3d 24 7b 89 bd aa d1 d8 bd ee 78 8a 3c
       0.04713381 -0.0671294 -0.10586865 0.016903367
000340 87 db b0 3d 19 ce ae bd a5 39 85 bd 8b b4 d4 bc
       0.086356215 -0.08535404 -0.065051354 -0.025964996
000350 64 e0 f5 3d 30 7b 06 bd 26 fb 76 bd bf 3d 0d 3d
       0.1200569 -0.032832325 -0.060298108 0.034482714
000360 82 1c 3e 3e f1 61 ee bb 99 81 87 3d 88 d0 15 3d
       0.18565562 -0.007274859 0.06616516 0.036575824
000370 62 a3 9f ba 6e 04 51 bd 15 3a df 3c 2d 80 f9 bc
       -0.0012179429 -0.051029615 0.027249375 -0.030456627
000380 31 ab 2a bd ba f3 47 3d 41 79 aa bd 25 6c e2 3d
       -0.041667167 0.04881642 -0.083239086 0.11055783
000390 10 98 9d bc 68 55 9f bd 47 38 17 3d 8d 88 65 bc
       -0.019237548 -0.07779962 0.036918905 -0.014009607
0003a0 21 ec 92 3b 0a de 2a bd 57 25 0c 3d 51 f3 ee bd
       0.004483715 -0.04171566 0.034215298 -0.11667503
0003b0 93 04 c4 bc 99 e6 04 bd 5c 13 86 3c 10 cc 9f 3e
       -0.023927962 -0.032446478 0.016366653 0.31210375
0003c0 04 82 12 be 56 8b b6 3c 37 9c f8 3d c6 9e 2e 3c
       -0.1430741 0.022283237 0.121391706 0.010657972
0003d0 ab 5d 2b bd cf 99 1e be 26 56 22 3d c3 f2 0c bd
       -0.041837376 -0.15488361 0.03963294 -0.034411203
0003e0 6a fe 26 3c 26 83 53 bd e4 8a 5e bd 30 c2 07 3e
       0.010192493 -0.051638745 -0.054331675 0.1325767
0003f0 c5 d5 37 3e a3 84 17 3d a9 0f ee bb 02 0b b0 3c
       0.1795264 0.036991727 -0.0072650504 0.021489624

network_body._body_endoder.seq_layers.2.bias f4 [128]
000000 8c db d9 bd ac b4 ba 3d 5e 59 d1 3d 75 73 c2 3d
       -0.10637578 0.09116492 0.102221236 0.09494678
000010 72 12 93 3d 3f 80 13 bd 9e 24 c9 3d 5a 2d 0c 3e
       0.071812525 -0.036010977 0.09821437 0.13689175
000020 13 29 81 3c b6 c7 c9 3d 64 06 0e bd d3 76 0b 3e
       0.015766656 0.09852545 -0.034674063 0.13619547
000030 56 63 d9 3d 82 b9 1c 3d 43 ef 00 3b 0c e3 35 bd
       0.1061465 0.03826285 0.001967386 -0.044405982
000040 1c c8 15 3d 1d 13 a5 3d 3e 6f f8 bd 19 90 df 3d
       0.036567792 0.08060286 -0.12130593 0.10916156
000050 e9 ec ae bc 84 03 e4 bd f6 69 fc bd 8a 2c a1 bd
       -0.021353202 -0.11133483 -0.12324898 -0.07869823
000060 c9 64 03 3d 41 26 1c 3c 87 ef b2 3d a7 a2 ed bd
       0.032078538 0.009530605 0.087370925 -0.11603289
000070 7e b5 be bd 0d 76 0a 3e 7b 95 f6 bd 18 2f 52 3d
       -0.09311961 0.13521595 -0.1204023 0.051314443
000080 c1 4a 49 bd 2c ac 03 be d8 27 ae 3c 59 d6 e7 3d
       -0.049143557 -0.12858647 0.021259233 0.113201804
000090 42 2b 03 3e e5 28 ad 3d c5 5b 08 3d dd af 83 bd
       0.1280947 0.08455066 0.033290643 -0.06430028
0000a0 1a 9e eb 3d 2a 08 fb bd 9c f6 8d 3c 27 80 00 be
       0.11504765 -0.122574165 0.017329507 -0.12548886
0000b0 9e e0 d6 bd 66 89 d8 bd c4 4d 62 bd 17 b2 fe 3c
       -0.10492061 -0.10573082 -0.055249944 0.03109078
0000c0 67 01 62 3c 9f d5 05 3d ef 5c d4 3b d8 e1 b7 bb
       0.01379428 0.032674428 0.006480805 -0.0056116395
0000d0 b6 d9 17 bd 28 1f 0a be ed bf e0 bd 5d 63 ec bd
       -0.03707286 -0.13488448 -0.10974107 -0.115423895
0000e0 96 34 81 3d 1b a7 4a 3c 7e b9 c0 bd c7 b2 a0 bd
       0.06308858 0.012368943 -0.0941038 -0.07846599
0000f0 16 fe 6a 3d 1a 55 ec bc da cc e2 3d 7e b1 98 bd
       0.05737122 -0.028849173 0.110742286 -0.07455729
000100 89 a1 e5 3d 18 9f 7b bd dd 0e a7 3b bb 7c f0 bd
       0.11212451 -0.06143102 0.0050982074 -0.117425404
000110 71 33 cc 3d 6e b6 cf 3d dd 34 ec 3c 82 8a b8 3d
       0.09970749 0.101422176 0.0288338 0.09010793
000120 b7 8a e6 3d a1 4d de 3d 27 34 21 bd 6c 33 ca bd
       0.112569265 0.1085465 -0.039356377 -0.09873089
000130 3e 52 f6 3d e1 27 55 bd 46 20 5f bd e2 4d 22 bd
       0.12027405 -0.052039985 -0.054474138 -0.039625056
000140 7f e8 81 bd 48 d1 e4 bd ed ec a3 bc c7 65 d8 3d
       -0.06343173 -0.1117273 -0.020010436 0.105662875
000150 56 51 18 3d 23 e7 41 bd 9d 9b 9c 3d 8f 97 de bd
       0.037186943 -0.04733957 0.076468684 -0.10868751
000160 fc 6f 87 bd 3b ee 92 3d bb 19 e6 bd 7f 36 91 bd
       -0.06613156 0.07174345 -0.112353764 -0.070904724
000170 bd d7 d2 bd 8e 5a 87 bd 17 97 07 be 42 7b 06 be
       -0.10295055 -0.06609069 -0.1324123 -0.13132957
000180 f8 47 24 3d 0c 0b ac 3d 96 91 cb bd 55 f2 af 3d
       0.040107697 0.084005445 -0.09939878 0.08591143
000190 0e b3 df 3d d7 a7 b1 bd 22 ff fe bd 05 80 01 be
       0.10922824 -0.08674591 -0.124510065 -0.12646492
0001a0 3c 7f ba 3d 75 bf ee 3d d5 e3 ce bc ca b4 02 3e
       0.09106299 0.11657611 -0.025255123 0.12764278
0001b0 d6 a9 32 bd 5e 68 e8 bd 17 f0 d9 bd 02 8a f0 3c
       -0.043619 -0.113480315 -0.10641497 0.029362682
0001c0 c0 c6 e0 bd 28 74 40 bd c1 ce 4d 3d c4 f0 06 3e
       -0.109754086 -0.046985775 0.050246004 0.13177782
0001d0 04 96 9e bd 34 c6 f6 bd 08 6a fc 3d ee e4 f9 3d
       -0.07743457 -0.12049523 0.12324911 0.12201868
0001e0 2a 80 d7 3d fc 14 de 3d 98 ff 86 bd 15 ba a2 3d
       0.10522492 0.10843846 -0.065917194 0.079456486
0001f0 37 0b ef 3d b9 d1 52 bd 49 1b 9c bd 07 6a 82 bd
       0.11672061 -0.05146954 -0.07622392 -0.06367879

action_model._continuous_distribution.log_sigma f4 [1, 2]
000000 47 57 4c 3d 13 dd 93 bd
       0.04988792 -0.07219901

action_model._continuous_distribution.mu.weight f4 [2, 128]
000000 56 c9 0c bd 8e d9 1e bc f7 f5 e1 bc ee 3a b4 3c
       -0.034371696 -0.009695424 -0.027583105 0.022000756
000010 b1 e7 dc 3c ab b0 61 3d 00 fa 6f bc 05 c6 cb 3c
       0.026965948 0.055100124 -0.014647007 0.024874697
000020 f6 94 bb 3b 26 1d 9a 3c 5e fa 80 bd b4 1e a0 3c
       0.0057245446 0.018812727 -0.06297754 0.01954589
000030 3d b8 fb 3c 1d 43 b0 3c 98 1b e1 bc 6e be 7f 3c
       0.0307275 0.021516377 -0.027478978 0.015609367
000040 2c 60 f7 3c aa 8e a8 3c 25 66 da 3b be 7b c8 3c
       0.030197226 0.02057584 0.0066650086 0.024473067
000050 5d ce 92 bc bb 1f 80 bd 4a 3f 47 3c 5d 82 3a ba
       -0.017920667 -0.06256052 0.012161085 -0.00071147626
000060 78 48 c7 3c 90 da 31 bd 98 47 64 bc cf 75 8f bc
       0.024326548 -0.043421328 -0.013933085 -0.01751223
000070 4b 5c 45 bd 85 59 f2 bc cd 65 97 bc 6d d8 32 3d
       -0.04818372 -0.029583702 -0.01848116 0.04366343
000080 59 aa b2 bc 53 4a d5 3c ca 46 2b 3c 30 12 60 bd
       -0.021809744 0.026036417 0.010453889 -0.054704845
000090 70 f2 6c bd d2 78 50 3d 98 b6 d2 bc a5 69 e4 3b
       -0.057848394 0.050896473 -0.025721833 0.0069706016
0000a0 64 c2 5a 3c ae 7f 0f 3d d8 3b 1a bd 36 c7 d1 bc
       0.01335201 0.035033874 -0.037654728 -0.025607686
0000b0 c5 ef b8 3c 32 eb 8b bb af ff b7 3c 3b e0 6d 3d
       0.022575269 -0.004269981 0.022460787 0.05807517
0000c0 10 b9 59 bd a7 7a 23 bd 4c 13 10 bc 5a b8 25 bd
       -0.053155005 -0.039911892 -0.008793663 -0.040459014
0000d0 28 68 44 3d b3 b8 84 bb ed 71 b2 bc 9f 81 02 3c
       0.047950894 -0.004050338 -0.02178284 0.007965474
0000e0 93 33 23 bd 3a fe 72 3d 26 a4 c7 3c 8e e0 09 bd
       -0.039844107 0.05932448 0.024370264 -0.033661418
0000f0 4a de 30 bd 89 6d cb 3c 83 76 6e 3d 5b cc d1 ba
       -0.04318074 0.024832504 0.05821849 -0.0016006337
000100 e0 37 2b 3d 71 37 45 bc 90 0b 5b 3c 2e eb 98 3c
       0.041801333 -0.012037144 0.013369456 0.01866683
000110 6c e3 d8 bc a2 a2 ea bc b9 d6 03 3d cc 75 da bb
       -0.02647563 -0.028642002 0.032187197 -0.0066668745
000120 5f 61 01 3c bc 4f 63 bd ff d4 b7 bc dc aa f0 bc
       0.00789675 -0.055495963 -0.022440432 -0.029378347
000130 79 d7 48 3d e8 c7 1e bd 33 db 15 bc 4f 43 84 bc
       0.049033616 -0.038764864 -0.009146499 -0.016145376
000140 88 96 8e bc 9a f9 af 3b 50 fb 63 3a c0 ab 4c bb
       -0.017405763 0.005370331 0.0008696811 -0.00312303
000150 46 0e 36 bc 6e cf 05 3d 65 ec 47 bd 68 4e 02 bd
       -0.0111118015 0.032668523 -0.048809428 -0.031813055
000160 9a 67 e5 bc d5 ef 35 bd 40 f4 21 bd 70 73 c9 bc
       -0.028003503 -0.044418175 -0.039539576 -0.024591178
000170 cc 2e 47 3c d5 a6 45 bd a2 ee 34 3c 2b dd 79 38
       0.012157153 -0.048254807 0.011043223 5.9572205e-05
000180 5f 83 80 bb e9 98 15 bc da 1f 15 bb 25 33 02 bd
       -0.0039219107 -0.009130695 -0.002275458 -0.031787056
000190 5d ea 9e 3c 2b bb 06 bd 4c 34 b0 bb 30 9a aa 3c
       0.019398862 -0.03289334 -0.005377328 0.020825475
0001a0 04 fb 07 3d e6 21 04 3d 78 75 2f bd 11 d0 0f bd
       0.03319837 0.03225889 -0.042836636 -0.035110537
0001b0 de 6a c4 bb fa e0 01 bc 96 9a ab bc 78 52 b9 bc
       -0.005994185 -0.007927174 -0.020947736 -0.022622332
0001c0 cb bc 51 3d bc bb 62 3d 40 c1 17 3d 25 d6 ed bc
       0.051205438 0.05535482 0.037049532 -0.029032776
0001d0 f6 8e 3a bc 34 0f e7 3b 3d 43 19 bd af f3 90 3c
       -0.011386624 0.007051373 -0.03741764 0.017694322
0001e0 11 ab 01 bd 77 a9 28 3d 36 e8 51 bc 28 3d 7c bd
       -0.031657282 0.04117724 -0.012811711 -0.06158176
0001f0 cc 40 32 3d 3f c7 c6 3c 5b 1e 1d bd d6 40 94 3d
       0.043518826 0.02426493 -0.038359027 0.07238929
000200 58 d7 f3 bc 49 b0 cc 3c 8b be 02 3d 7d 9e 48 3d
       -0.02976577 0.024986403 0.031919997 0.04897927
000210 d2 8d 32 3d 22 22 0c 3c 1f fb e0 3c 73 fb ca 3c
       0.04359228 0.00855306 0.027463494 0.024778103
000220 d8 8f e7 3c 86 3f 96 3c f7 46 57 bc 53 be ae 3d
       0.028266832 0.018340837 -0.013139478 0.08532395
000230 1a 86 7c 3d 00 c9 51 bc 03 93 e8 bc 8f b3 2c bd
       0.061651327 -0.01280427 -0.028390413 -0.042163428
000240 3d 05 e3 bc 66 57 87 3c e4 c8 71 bd e1 9c e3 3c
       -0.027712459 0.016521167 -0.059029475 0.027784767
000250 9f 00 26 3c 6b 9b 35 bd da cc 53 bd 85 2c 03 bc
       0.010131984 -0.04433767 -0.051709034 -0.00800622
000260 7b 27 3e bb 0e d6 23 3b 99 27 d4 3c 74 ca 80 bd
       -0.0029015231 0.0024999413 0.025897788 -0.06288615
000270 22 49 05 bd 98 12 85 3d 51 66 58 bd f0 d9 2e 3b
       -0.032540448 0.06497687 -0.05283195 0.0026680194
000280 20 8b de bb e5 77 93 bd b9 63 b3 bb 70 e7 29 3d
       -0.0067914873 -0.072006024 -0.0054745344 0.04148048
000290 ad e1 2c 3d b0 b0 2f 3c ae 53 4c bc ab e9 22 bd
       0.04220741 0.010723278 -0.012471123 -0.039773624
0002a0 2b 1a 28 3d c2 fb 30 bd a8 f4 a1 3a 12 e1 74 bd
       0.04104058 -0.043208845 0.0012356238 -0.059784956
0002b0 6c b9 0b bd 05 aa 85 bd d9 65 0e bc 44 49 98 bc
       -0.03411238 -0.06526569 -0.008691275 -0.018589623
0002c0 1a 5c 2a bc 0a a2 de 3b 27 7f d2 3c f7 e8 83 3c
       -0.010397935 0.006794219 0.025695397 0.016102297
0002d0 f9 8a de bc 3b af 2c bd 65 25 99 bd 86 bc 4f bd
       -0.027165877 -0.0421593 -0.074778356 -0.0507169
0002e0 28 ae 8b 3c 1d f3 95 bb 07 f9 8e bc 95 88 79 bc
       0.017050818 -0.0045761005 -0.01745273 -0.015230318
0002f0 9e bd d0 3b 1d 0e bc 3a 8d 53 1c 3d e5 9e 1d bc
       0.0063702604 0.0014347468 0.038165618 -0.009620403
000300 5a c4 0f 3d 7c 01 ea bc b4 33 ad 3b 03 4b 28 bd
       0.035099365 -0.02856516 0.0052857045 -0.04108716
000310 29 56 52 3c 4b 30 46 3d 41 7d a1 bc 18 5f f0 3c
       0.012837925 0.0483859 -0.019713046 0.02934222
000320 b3 5f fb 3c ee 7f 9d 3c 09 b7 4b 3b 38 57 f2 bc
       0.030685281 0.01922604 0.003108444 -0.029582605
000330 a6 16 13 3d 5e f1 5e bc 53 32 73 bc f1 47 18 3b
       0.03591027 -0.013607351 -0.014843541 0.002323624
000340 03 d4 75 bc 8a c0 74 bd 9f 5f b3 ba e2 b5 04 3d
       -0.015004161 -0.059753932 -0.0013685114 0.03240002
000350 9c e4 7e bc 61 b2 21 bc 02 f2 02 3b 20 89 17 bd
       -0.015557434 -0.009869189 0.0019980674 -0.036996007
000360 2e ff a2 bc db 60 1c 3d 6c 59 20 bd 65 c6 4e bd
       -0.01989707 0.038178306 -0.03914778 -0.050482173
000370 bf 4f 36 bd 90 72 b4 bc df c3 51 bd 2d a0 26 bd
       -0.044509646 -0.022027284 -0.051212188 -0.0406801
000380 bb 44 22 bb c0 d2 0b 3d e5 fb f5 bc b6 7b a8 3c
       -0.0024760205 0.034136534 -0.03002734 0.020566802
000390 57 f8 eb 3c e9 be 33 bd b3 c5 68 bd 82 55 38 bd
       0.028804941 -0.043883238 -0.056829166 -0.04500342
0003a0 0e b1 85 3c bf ed b8 3c 21 f4 28 bc 8d a0 88 3d
       0.016319778 0.022574304 -0.010312111 0.06671248
0003b0 ac af 5d bd 61 7d 09 bd ac c1 3e bd 9c d4 9d 3c
       -0.054122612 -0.033566836 -0.04657142 0.01926642
0003c0 82 83 2a bd bb e7 55 bc 58 25 24 3c a0 e2 4f 3d
       -0.041629322 -0.013055737 0.010018669 0.050753236
0003d0 46 91 a0 bc 9e 55 0e bd 27 ba d8 3c a5 8d 84 3d
       -0.019600522 -0.03474962 0.026455952 0.06472329
0003e0 cf 8a 20 3d b1 c5 c1 3c 14 89 2e bd 41 51 15 bb
       0.03919488 0.023653837 -0.042611197 -0.0022784027
0003f0 72 e8 1e 3d ed 03 83 bc 5e 75 0b bd 46 18 17 bd
       0.038795896 -0.015993083 -0.034047477 -0.036888383

action_model._continuous_distribution.mu.bias f4 [2]
000000 92 de bf 3b cd 60 2a 3d
       0.00585539 0.041596223
