Assets/Models/GridSensor/NormalGridSensor.onnx (onnx, 633357 bytes, 18 tensors)

discrete_act_size_vector f4 [1, 2]
000000 00 00 00 40 00 00 00 40
       2.0 2.0

network_body.observation_encoder.processors.0.conv_layers.0.weight f4 [16, 5, 8, 8]
000000 22 f8 ab 3d db 39 96 bd be ed d3 bd 97 76 ae bd
       0.08396937 -0.07335254 -0.1034808 -0.08518713
000010 a0 34 42 3d d6 cb d5 3c 1f 84 2b 3d e1 96 7f 3c
       0.04741347 0.026098173 0.041874047 0.015599937
000020 4b f6 00 3a e8 4b 06 bd ca d3 6f 3c 09 b7 c1 3b
       0.0004919513 -0.032787234 0.014637897 0.005911712
000030 28 d2 b2 bb c5 4b 61 bd e4 21 3c 3b 4e 57 9d 3c
       -0.0054571815 -0.0550039 0.0028706724 0.01920667
000040 5b 45 6c 3d a7 62 fd bc 01 63 7d bd 6b 73 0b be
       0.05768333 -0.03093083 -0.061861996 -0.13618247
000050 55 76 5f 3d ff e3 b0 bc 39 f2 a9 bc 47 c1 6c bd
       0.05455621 -0.021593092 -0.020745384 -0.05780151
000060 1c cb 25 bc 91 d0 37 bc c9 59 30 be 6f 3d e3 bd
       -0.010119226 -0.01121916 -0.1722175 -0.11095702
000070 7e 28 88 bd d8 a9 be bc 9b 5a 97 3d 44 ca 89 bd
       -0.06648348 -0.023274347 0.073903285 -0.06728032
000080 69 2c 17 bd f5 86 e7 bd 23 6a ce 3b 01 fd 24 3d
       -0.036907587 -0.11305038 0.0062992736 0.040280346
000090 c0 55 ec bd e2 f2 bb bd 0b 56 3a 3d 8a 4b f1 3b
       -0.11539793 -0.091771856 0.045492213 0.0073637413
0000a0 2e 2d bc bd 81 64 58 3b ff 22 89 3d 5a ab 44 bd
       -0.09188305 0.003301889 0.06696128 -0.048014976
0000b0 6d a5 d0 bc ce 51 dd bd 9a 25 58 bd 05 d3 60 bd
       -0.025469506 -0.10806619 -0.052770235 -0.054888744
0000c0 36 46 d5 3d 81 83 e2 bd 63 cd 30 be fb d0 09 be
       0.10413782 -0.11060239 -0.17265849 -0.13458626
0000d0 f5 35 c4 39 4c 1a 9b bd bd 46 fe bd 00 39 c6 bc
       0.00037424234 -0.07573375 -0.12415836 -0.024197102
0000e0 dc 74 0f be d0 95 c0 bd d5 b9 e8 bd 9a 8c 4a bd
       -0.14009422 -0.094035745 -0.1136357 -0.049450494
0000f0 79 b8 c8 bd db 94 a9 bd 2b 39 fb 3c a7 58 a7 3d
       -0.0980081 -0.08280345 0.030666908 0.08171206
000100 4c 28 37 bc 71 7d 37 3b 7d e5 bd bb 58 26 2e 3d
       -0.011179041 0.0027998353 -0.0057951794 0.042517036
000110 66 e8 1e 3c 0e 91 14 3d 85 4c d3 3b 92 d3 88 3b
       0.009698963 0.036271147 0.006448331 0.004175612
000120 65 25 94 bd 0c 15 ff bd d1 34 ab 3c fa 74 36 3d
       -0.07233695 -0.12455186 0.020899208 0.04454515
000130 39 20 a9 bc fd 91 24 3c 41 a1 92 bb e5 16 f3 bc
       -0.020645248 0.010044572 -0.0044747894 -0.029674003
000140 bc 61 05 be 77 8a b1 bd 69 90 13 3d 90 dc 84 3c
       -0.13025564 -0.08668988 0.036026392 0.016218454
000150 76 30 9b 3d cf 85 68 3d 5d db 52 bd df d2 34 bb
       0.075776026 0.056768235 -0.051478732 -0.002759151
000160 6d 33 e6 3c 55 24 58 bc 81 46 ed 3b 88 d9 80 3c
       0.028100694 -0.013192256 0.0072410707 0.015728727
000170 34 38 40 3d 6f 37 24 3c ea 69 0f bd dc ff 60 bd
       0.0469286 0.010022982 -0.035013117 -0.054931507
000180 3f 75 c8 3c 9e 9d 9f bd 79 ad a6 bc 33 89 83 bb
       0.02446997 -0.07793735 -0.02034639 -0.004014158
000190 33 e9 ab 3c 8a a3 08 be b7 82 0b be 28 83 ec bd
       0.020985221 -0.13343635 -0.13624083 -0.115484536
0001a0 6a 7c 7a 3b 2d 95 55 bc f8 bb 48 bd f7 a4 d4 3d
       0.003822113 -0.013036055 -0.049007386 0.10383027
0001b0 41 1e d4 3d c2 6a a2 3d f3 fd 46 3d ab 63 bc 3c
       0.10357333 0.07930519 0.04858203 0.022996744
0001c0 5c 9c ee 3d 0d 49 13 bd 13 14 97 bd 61 87 83 bd
       0.11650917 -0.03595834 -0.07376876 -0.06422306
0001d0 7e b4 c7 3a 32 86 e9 3d 32 b3 27 3e 6c 23 e7 bc
       0.0015236286 0.11402549 0.16376951 -0.028215133
0001e0 34 4b ab 3d 71 1d 9b 3d 62 bd 84 bc ae 75 a9 bc
       0.08363953 0.07573975 -0.016203586 -0.020685997
0001f0 8a cd ba bd 08 98 97 bd 41 32 a9 bc 1e 54 2a 3d
       -0.09121235 -0.074020445 -0.020653846 0.041584127
000200 b1 5f d9 3d 13 ce 7c bd f0 69 c0 3d 48 1b 53 3e
       0.10613955 -0.061719965 0.09395206 0.20615876
000210 2b 05 50 3e 6c 5c 17 3e 54 3d 98 bc fe 7d da 3d
       0.20314471 0.1478135 -0.018583931 0.10668562
000220 d0 b8 5c bd 93 2b be 3d 3b 7e 07 3e 5a db a1 3d
       -0.05388719 0.09285655 0.13231747 0.07903166
000230 63 c7 4e 3d 66 d2 91 3d 92 c7 89 3d 69 e8 be 3d
       0.05048312 0.071202084 0.06727518 0.093216725
000240 ce 01 8d bd 6d 04 ce 3d cb c2 62 3e 61 e9 98 3d
       -0.0688511 0.10059438 0.2214462 0.074663885
000250 1f d5 b1 bd 85 22 89 bb a3 0a 18 3e 61 11 77 3e
       -0.08683228 -0.0041850233 0.14847808 0.24127723
000260 02 b3 07 3e b7 06 4d bc 9e 31 fc 3c 84 22 f5 3d
       0.1325188 -0.012513808 0.030785378 0.11969474
000270 06 a8 f5 bc 9d 8c 93 bc 9d 8b ad 3d 58 2e 33 3e
       -0.029987346 -0.018011386 0.08473895 0.17498147
000280 51 2b b3 3d 1c ed 99 3d 0d 64 a2 3d 78 c1 85 3d
       0.08748496 0.07515928 0.079292394 0.06531042
000290 2c 58 f7 3d 40 aa 2c 3c f1 8f 80 3d ec f0 b6 3d
       0.12077364 0.010538638 0.06277455 0.08932671
0002a0 05 ae 0b 3e e5 4d 5e 3d 46 d3 98 3d c5 2d c4 bc
       0.13640602 0.054273505 0.07462172 -0.023947606
0002b0 14 2e 5c 3d 8d 99 7b 3d cd 8f ff 3d 38 c5 00 bd
       0.05375488 0.061425734 0.124786 -0.031438082
0002c0 29 05 17 3c 73 44 19 bc c6 d1 eb bb 8a b3 1a bd
       0.009217539 -0.0093546985 -0.007196638 -0.037768878
0002d0 ee dc 89 3d 21 1f 3c 3d 0d cc 6b 3d a0 7d 6c 39
       0.06731592 0.045928124 0.057567645 0.00022553513
0002e0 39 07 08 3d 4f e8 39 bd 71 a5 34 ba db b8 e6 3d
       0.033210013 -0.045387562 -0.0006891108 0.11265727
0002f0 d9 47 b6 3d d8 e0 e0 3d 53 85 26 3c a7 66 c0 3c
       0.089004226 0.109803855 0.010163623 0.023486448
000300 4b 62 70 bb 22 b1 66 bd ee 46 00 3c b6 9b 5a bd
       -0.003667968 -0.05632127 0.007829411 -0.053371154
000310 e1 ca f3 3c 97 03 ae 3d 01 6b 69 bb 65 df 77 3d
       0.029759826 0.084967785 -0.0035616758 0.06051578
000320 b9 c8 60 bd 25 f7 0a 3b 7c 2c 06 bd 89 af 61 bd
       -0.054878924 0.0021204439 -0.032757267 -0.055099044
000330 ec aa 2f 3c e1 ed 2a 3e 05 c7 c2 39 53 6a e6 3d
       0.010721903 0.16692306 0.00037150845 0.112507485
000340 7b 68 25 bd 01 2c 0b bd a5 8f 26 3d 5e 2b fc bd
       -0.040382843 -0.033977512 0.040664334 -0.12312959
000350 1d d1 2f bd e1 9a 00 3d 3f 85 ab 3d 6a e2 54 3b
       -0.042924035 0.031397704 0.08375024 0.0032483586
000360 e2 84 5f 3c e2 14 16 3d e3 a2 e0 bc b8 cc 4e be
       0.013642522 0.03664101 -0.02742142 -0.20195282
000370 ba 74 01 be eb 48 97 bc 76 b4 cc 3c ed d3 a9 3d
       -0.12642184 -0.018467387 0.024988394 0.08292375
000380 15 a3 9d 3d 0d 23 a1 3c d3 78 b7 bb a9 e3 0a be
       0.07697121 0.019670034 -0.00559912 -0.13563408
000390 31 32 33 be 56 5a 8c bd 3a 1b df ba e3 2a f7 3a
       -0.17499615 -0.06853168 -0.0017021664 0.0018857386
0003a0 3d d3 87 3a 84 1c f3 bd 99 26 6f bd d6 b2 5c bd
       0.0010362637 -0.11870673 -0.05838642 -0.05388149
0003b0 35 40 ee bd 24 5c bd 3a 46 2a b7 3c 90 b4 0e 3e
       -0.1163334 0.0014447016 0.022359025 0.13936067
0003c0 de 5e 49 3d 09 f1 7e bd 41 fd 91 bd 6c 53 70 bd
       0.049162738 -0.062241588 -0.071283825 -0.058673307
0003d0 05 c0 8e bd 5a 23 34 3d 5f 61 1b 3e 88 23 10 3e
       -0.069702186 0.043979026 0.15173863 0.14076054
0003e0 5c 8e 5e 3d 21 90 33 bd 70 62 ee 3c 00 cc 68 3d
       0.054334983 -0.043838624 0.029099673 0.056835175
0003f0 55 a1 ab bd a5 78 c9 bc c3 29 81 3c 91 88 a1 3d
       -0.08380381 -0.02459366 0.015766984 0.07887376

network_body.observation_encoder.processors.0.conv_layers.0.bias f4 [16]
000000 a2 eb 5e 3c 20 c9 0d 3c 62 c9 06 ba f1 a2 6b bc
       0.013605984 0.008653909 -0.0005141703 -0.01438211
000010 13 74 78 bb 6c d8 63 bd b8 34 60 bc a6 79 44 bc
       -0.0037910983 -0.055626318 -0.013684444 -0.011991894
000020 51 46 86 ba 42 fe 92 bd c8 a0 16 bd 4d 73 38 bd
       -0.0010244345 -0.07177402 -0.036774427 -0.045031834
000030 c3 21 21 bd 75 f0 99 bc 38 e3 cf ba 88 14 32 bd
       -0.03933884 -0.018791417 -0.0015860563 -0.04347661

network_body.observation_encoder.processors.0.conv_layers.2.weight f4 [32, 16, 4, 4]
000000 9d 9c 3e 3b 7b a9 e8 bd 69 56 97 3d c8 ff bd 3b
       0.0029085048 -0.11360451 0.07389528 0.0057983138
000010 bc e0 f6 bc 13 a4 32 be 51 8a d7 bd d2 79 1d 3c
       -0.030136459 -0.17445402 -0.10524429 0.009611564
000020 1a 0e fa bd 61 94 a5 bd b6 ed 73 3d 83 53 73 3d
       -0.12209721 -0.08084942 0.05955287 0.059405815
000030 2f cf 09 3c a3 b6 ce bc 32 9d 7c bc d9 cb 9a 3d
       0.008411213 -0.025233572 -0.015418338 0.07558412
000040 79 71 8b bc 60 c0 77 bd 78 82 ea bc 44 29 3e 3e
       -0.017021881 -0.060486197 -0.028626665 0.18570429
000050 b0 e3 6d bd 0c 75 01 bd ad c5 45 bc 52 27 f9 3d
       -0.058078468 -0.031605765 -0.012071055 0.12165703
000060 9c c6 64 bc 1c 2e 12 bd 89 31 14 bd 69 b1 fb 3d
       -0.013963368 -0.035688505 -0.036180053 0.12289698
000070 2c 27 27 be c5 ac b0 bc 05 43 b1 bd e8 74 e0 3d
       -0.16323537 -0.021566758 -0.08655361 0.10959798
000080 b6 fe 26 be 84 f2 8d 3c 8c 34 db 3c 55 5c 23 3d
       -0.16308102 0.017327555 0.026758455 0.039882977
000090 37 ca b7 bd 21 df 76 3d b9 cf 58 bb e1 a2 fe 3d
       -0.08974116 0.060271386 -0.0033082797 0.124334104
0000a0 44 0c 03 be fc f2 28 3d 95 32 73 3d fe 9e 83 3d
       -0.12797648 0.041247353 0.05937441 0.0642681
0000b0 1a 33 16 3c 08 f6 7e 3c a1 d1 63 3d 8a 1c ab bd
       0.009167457 0.015561588 0.05561984 -0.08355053
0000c0 b8 23 aa 3d d4 cc 61 3d 54 26 67 bc 6f f3 aa bd
       0.08307594 0.05512698 -0.014108259 -0.083472125
0000d0 fb d5 05 be 61 ac dd bc fb d4 ae 3c e3 ae bb 3b
       -0.13069908 -0.027059736 0.021341791 0.005727635
0000e0 83 89 ec 3d 5d 1d da bd c2 6c 15 bd 35 60 3c bc
       0.11549666 -0.10650132 -0.036480673 -0.011497547
0000f0 a5 82 f6 bc 35 b9 13 3d 81 64 de bd f3 11 4a 3d
       -0.030091593 0.0360653 -0.10859013 0.049333524
000100 b2 9c 1b 3b 63 42 0a 3d 8f 7b ed bc 24 53 82 3d
       0.002374452 0.033754718 -0.028989581 0.06363514
000110 2d c4 de bd e4 d8 2a bd 0f 62 30 bd 70 8d d7 3d
       -0.10877261 -0.04171075 -0.043062266 0.10525024
000120 60 4e 13 3d aa 23 5d bd 2d 35 7f bd 70 9c 68 bd
       0.035963416 -0.05398909 -0.06230657 -0.056789815
000130 0c 90 2e 3d 82 d5 9f 3c 47 af 95 bd ce 47 62 3d
       0.042617843 0.019510988 -0.07308822 0.05524426
000140 59 08 39 3d 53 57 56 bc 4a b2 a9 bd fb b5 fa 3b
       0.045173977 -0.013082343 -0.08285959 0.0076510883
000150 11 8e cb 3d 93 37 83 3d 85 19 a9 bd 41 27 4a 3d
       0.099392064 0.06407084 -0.082568206 0.04935384
000160 ef 3f 5f bd f5 90 24 3d 5f 9d b0 3d 32 9e f0 38
       -0.05450433 0.040177304 0.08623766 0.00011473558
000170 34 7d 69 3d 1c 96 5a 3d ac 62 b6 bc 0b 82 20 3e
       0.05700417 0.05336581 -0.022263847 0.15674607
000180 11 af c0 bd c3 b6 19 bd 1f 3b 2e 3d 90 9d 76 3d
       -0.09408391 -0.03752781 0.04253685 0.060208857
000190 40 1d 6d 3d d6 f7 dd bd 42 3d 4e bd 00 3c cf 3c
       0.057889223 -0.108382866 -0.05035139 0.025297165
0001a0 3f 9e 56 bc 52 47 1f bd 39 10 bc bd 88 d3 fd 3d
       -0.013099252 -0.038886376 -0.09182782 0.12393862
0001b0 66 f0 1e be ed 05 7e 3d d3 a8 3c bd 3c 72 d9 3d
       -0.15521392 0.06201737 -0.04605944 0.106174916
0001c0 b5 f6 21 bd 34 d5 8f bd a5 29 6f 3c ff ca ee 3b
       -0.03954192 -0.07023087 0.014597331 0.0072873826
0001d0 3a 22 dd 3d 38 7d 0f be 91 0a 90 bd 48 86 a8 3b
       0.10797544 -0.14012611 -0.070332654 0.0051429607
0001e0 3c f3 01 bd 6e cd 26 bd aa 99 11 bc d1 b0 df 3b
       -0.031726107 -0.040723257 -0.008886734 0.006826498
0001f0 4a c8 bf 3b 43 56 9a bd 7e 54 d5 bb 81 73 a9 3d
       0.0058527337 -0.07535984 -0.0065103164 0.08273984
000200 1c 09 9f 3c cb aa dc 3d 19 88 41 bd 93 bc 05 be
       0.019413523 0.10774764 -0.047248933 -0.13060217
000210 e6 4d ec 3d 89 d9 85 3c c9 20 0b 3c ad e1 2d 3d
       0.115382954 0.01633908 0.008491703 0.04245155
000220 dd af 31 3e b7 5e ca 3d 4e a7 b8 bd 77 73 5b bd
       0.17352243 0.09881347 -0.09016286 -0.053576913
000230 19 ab e2 bc 28 32 51 bc c6 c3 fb bc 2c fd f0 bc
       -0.027669476 -0.012768306 -0.030733 -0.029417597
000240 57 62 36 3d d4 6c 2b bc db 50 ab 3c 59 23 a5 3c
       0.044527378 -0.010462958 0.020912578 0.020158457
000250 7e 1e 8b 3d 51 82 08 3e af ab 60 bb 5b 75 26 3d
       0.06792925 0.13330962 -0.003428202 0.040639263
000260 b5 71 82 3b 94 9d 07 3d b4 c1 5a 3c 5f 95 a4 bd
       0.00398084 0.033109263 0.0133518465 -0.08036303
000270 13 95 ac bc e4 7a cb 3d 39 05 22 3c df 57 dc 3c
       -0.021067178 0.09935549 0.0098889405 0.026897369
000280 4f f0 9c 3d d1 24 ac bd 65 86 94 3b a7 5e c9 bd
       0.07663023 -0.0840546 0.0045326226 -0.098325066
000290 3b 8c 9c 3d 65 4d f2 bc 3a 21 cb bd c5 c1 e0 3d
       0.07643934 -0.02957792 -0.09918447 0.109744586
0002a0 0b 25 6e 3c bf 20 85 3c 18 d7 ce bc 50 ea 97 3d
       0.014535199 0.016250966 -0.025249049 0.074177384
0002b0 d4 4a 05 bd b6 90 51 3d d0 e4 a0 3d cb 2c 47 3d
       -0.032542065 0.051163398 0.078561425 0.048626702
0002c0 53 88 2c bd ab 4f a6 3d 58 38 e1 3a 9e 17 35 3d
       -0.042122196 0.08120664 0.001718293 0.044211976
0002d0 7f d8 5c bc 39 12 bc 3c e0 23 38 3d f1 54 7b 3d
       -0.013479351 0.022957908 0.044956088 0.061360303
0002e0 ba ed 5a 3d 67 52 0a 3e ab 44 73 3d 95 94 0b 3d
       0.05344937 0.13507996 0.05939166 0.034077246
0002f0 54 06 04 3d b4 96 f7 bd 9c dd 18 3c 8f a0 0c bd
       0.032232597 -0.12089291 0.00933018 -0.034332808
000300 07 3a d8 3b 5f 40 87 3c 41 ee c8 bb 4d 11 2b bd
       0.0065987143 0.016510187 -0.0061319177 -0.041764546
000310 ed 14 e6 bd 2d db 71 bd 36 cc a3 3d c8 28 45 3e
       -0.1123446 -0.059046913 0.079979345 0.19253838
000320 a0 b8 8f bd 8f f3 6c 3d c0 11 99 3d 9f 0c 89 3d
       -0.07017636 0.057849463 0.07474089 0.066918604
000330 13 35 0a 3d 2a c0 8a 3d 37 7b fc 3c 80 43 8d 3c
       0.03374202 0.06774934 0.030820472 0.0172441
000340 7d 1a 50 bd 0f 88 88 3c 48 03 7c 3d 91 64 74 bc
       -0.05080651 0.01666644 0.061526567 -0.014916555
000350 f4 09 f7 bd 5e 91 85 bd a5 66 ed bc 1c 2c e4 bc
       -0.12062445 -0.06521867 -0.028979609 -0.027853064
000360 d0 38 2c be 70 f8 2b 3e 86 51 f7 bb 07 da 56 3d
       -0.16818547 0.1679399 -0.00754756 0.05245402
000370 3d 21 9f bd 13 48 8b 3c 8e c6 9b bd c6 c1 2b bd
       -0.077700116 0.017002141 -0.07606231 -0.041932844
000380 d7 de 95 bd f8 61 de 39 49 ed 8a ba 5a 5c 31 3d
       -0.07317894 0.00042416132 -0.0010599281 0.043300964
000390 c6 48 20 bd 45 7a e1 3d 4f 79 32 bd 64 3a c8 bd
       -0.039131902 0.11009649 -0.04357272 -0.09776762
0003a0 c5 9e 9b bd ae be b3 bd cd cf d2 3d 13 3e df 3c
       -0.07598642 -0.08776604 0.10293541 0.027251279
0003b0 61 07 1c be c5 e8 a1 bd a5 9a 7f 3d 21 e1 ce 3d
       -0.1523719 -0.079057254 0.06240334 0.10101534
0003c0 2d b3 35 bd ab 0e 18 bd 7d a0 c4 bd 34 2d e2 3c
       -0.04436033 -0.037123363 -0.09600923 0.027609445
0003d0 2a 28 9b 3b 68 f1 30 bc 4f 55 6c 3d 57 10 74 bc
       0.0047350125 -0.010799743 0.057698544 -0.014896474
0003e0 e7 47 f3 3d 3f 42 c8 bc ae d1 58 bb 87 ef bf bd
       0.11878949 -0.024445651 -0.0033083963 -0.09371858
0003f0 52 25 8a bd 8c 8c 29 bd f5 49 35 3d 2b 9a 13 3e
       -0.067453995 -0.0413938 0.044259984 0.14414279

network_body.observation_encoder.processors.0.conv_layers.2.bias f4 [32]
000000 27 0c e3 3c 0e 89 d1 3c 7d 7b db 3c 30 57 83 3d
       0.027715756 0.025578048 0.026792282 0.06413114
000010 1d 6d 0c 3d 77 79 90 bc 6b 8f 05 bd 50 9c cf bb
       0.034283746 -0.017636044 -0.032607477 -0.0063357726
000020 fd de c5 bc 33 bf a4 bd 2e 3d 14 bd 3c 09 5f 3d
       -0.02415418 -0.08044281 -0.036191158 0.054452166
000030 ce df a7 3d 64 fe eb bb 84 d6 8f 3c 8a c3 c1 3b
       0.08196984 -0.0072019566 0.017558344 0.0059132027
000040 48 be 25 bc a1 aa 39 3d 3d 36 13 3d 24 57 5a 3d
       -0.010116167 0.04532874 0.035940398 0.05330576
000050 70 06 1b 3c 02 36 9b 3c 58 d1 de 3c 7a 20 81 bc
       0.009461984 0.018946651 0.027199432 -0.015762556
000060 f8 10 50 3c 9b 80 14 3c 81 26 86 bd c7 58 45 3d
       0.012699358 0.009063865 -0.06550313 0.048180368
000070 11 76 5e 3d f8 85 34 bb 07 ae 41 3c a0 da 27 3d
       0.054311816 -0.0027545672 0.0118212765 0.04097998

network_body.observation_encoder.processors.0.dense.0.weight f4 [256, 32]
000000 ae 2b 9a bd 7e 2b d0 ba 4a 9e ff 3d 3b 65 f9 3d
       -0.075278625 -0.0015882102 0.12481363 0.12177511
000010 ea 12 02 3f 12 0c f8 3d 36 2a 62 3d bc 46 a1 3e
       0.5081011 0.12111677 0.055216037 0.3149928
000020 74 3c 8d 3b ea a6 be be 35 40 9d 3e 8c a3 de 3c
       0.004310185 -0.3723672 0.3071305 0.027177595
000030 9c 57 d0 3e 1e e4 79 3e cd 6d 03 3e 8a a9 08 be
       0.4069184 0.24403426 0.12834854 -0.13345924
000040 f3 91 b5 3d ac 49 66 3d 88 65 52 3e c0 e3 17 be
       0.08865728 0.056222603 0.20546544 -0.14832973
000050 d3 51 85 3e e5 67 19 bf ea d8 74 3e f8 dd 66 bd
       0.2603899 -0.59924155 0.23910871 -0.05636403
000060 f9 98 15 be a5 3a 10 bf 38 91 48 be 3d 27 4c 3e
       -0.14609136 -0.56339484 -0.19586647 0.19936843
000070 18 1f ec bd 60 f1 b8 3e b4 b4 95 bd c7 3f 42 bd
       -0.11529368 0.36121655 -0.07309857 -0.047424104
000080 73 84 a9 3c f2 6d ba be 4b bb 3d 3e fe 76 15 bf
       0.02069304 -0.36412007 0.18528478 -0.5838469
000090 b1 1a 23 3d 35 6a a3 be b5 0b 6f 3e 0a 70 3b 3e
       0.039820377 -0.31916967 0.2334431 0.18304458
0000a0 04 c0 75 3d 51 e0 9a 3d e9 b6 8b 3d bc cc c8 3e
       0.059997573 0.07562316 0.06821997 0.392187
0000b0 29 8f a9 3c 76 04 f4 3e 81 49 e6 3e d4 89 a9 bd
       0.020698147 0.47659653 0.44977954 -0.08278242
0000c0 6f f8 9e be 04 d1 c0 3d c6 d4 a4 3c ea a0 2a 3e
       -0.31048915 0.094148666 0.02012099 0.16662946
0000d0 38 99 45 bd ae 23 e6 bd 6e 7d 81 3d 46 82 8c bd
       -0.048241824 -0.11237274 0.06322752 -0.06860785
0000e0 e5 38 e0 bb d8 68 df 3b 59 fa be 3d 05 31 2d bf
       -0.00684272 0.0068179183 0.09325094 -0.6765292
0000f0 7b 0a 1c 3e 2c 61 e7 3d 66 3c 4c 3e 80 74 88 bc
       0.15238373 0.11297831 0.19944915 -0.016657114
000100 c9 2b 97 3b 43 16 f8 bd 87 1e fe 3b e8 eb 85 3d
       0.004613374 -0.12113621 0.007755104 0.06539136
000110 38 fa 41 3d 52 4e 9b 3d 4c e3 d7 3e bd d7 cf be
       0.047357768 0.07583298 0.421656 -0.40594283
000120 df 03 b9 bd eb 14 3f bc 43 fd 6b be 0d 8e a5 3e
       -0.090339415 -0.011662702 -0.2304583 0.3233494
000130 b8 b0 81 3e d9 7f 0c 3f 00 a3 cf bd 95 bb 59 3d
       0.25330138 0.5488258 -0.10138512 0.053157408
000140 e5 ea 8c 3e 07 f3 43 3e 63 35 9a 3c 96 e0 32 bd
       0.2752296 0.19135676 0.018824285 -0.043671213
000150 4f 2c da bd a0 10 92 bd 6b 48 f3 3e 05 17 fa 3d
       -0.106529824 -0.07132077 0.47516188 0.12211422
000160 62 bd a6 bd ac e1 ad be 42 b8 91 be 63 c6 6f 3d
       -0.08141591 -0.33961236 -0.2846089 0.058538806
000170 66 f4 04 3d ef 38 07 3e 07 53 1a 3e ac 9c c3 be
       0.03245964 0.13205312 0.15070735 -0.3820547
000180 84 6b 2a 3f 05 7b 2f 3f 5c eb 94 bd 4e 40 94 3e
       0.66570306 0.6854709 -0.07271454 0.2895531
000190 66 28 76 3e 63 3d aa 3c 71 2d c4 3e a5 0a 6c bd
       0.24038848 0.020781225 0.3831592 -0.05762734
0001a0 e2 1a 64 3e 03 de ff 3d fb 21 59 be a7 9d 8b 3e
       0.2227588 0.12493517 -0.21204369 0.27268717
0001b0 10 bb 65 3e 10 d2 07 bf 4e 25 7e be b9 6a 61 3e
       0.2243464 -0.53054905 -0.24818918 0.22013368
0001c0 ec 1b 06 3d 63 75 7f be 65 45 f6 3e 01 7f 57 be
       0.032741472 -0.24947123 0.4809982 -0.21044542
0001d0 6d 51 90 be 5c ad 04 be 85 51 63 bd 14 4c 35 3b
       -0.28187123 -0.12956756 -0.055497665 0.0027663754
0001e0 af b8 c9 3d fc 1d b8 3e f3 70 49 be f1 03 f7 bd
       0.09849679 0.35960376 -0.19671993 -0.12061299
0001f0 26 07 be 3d fb cc 38 bd b0 46 75 3e 63 b1 5a 3d
       0.09278707 -0.04511736 0.23952746 0.053391825
000200 b5 94 23 bd 0c 73 93 3e 40 c0 1e 3e 7e c5 a7 bd
       -0.03993674 0.2879871 0.15503025 -0.081919655
000210 14 bf 8f 3e 50 86 97 bd ab 5d b8 bc 12 2a b1 be
       0.2807547 -0.07398665 -0.022505602 -0.3460241
000220 d4 de fb be cb 4a 97 3d d2 45 a0 3e e7 1e 18 3e
       -0.49193442 0.073873125 0.3130327 0.14855538
000230 ad aa ab be cd af 45 be ee 78 a4 3e 9a 7f 73 b9
       -0.33528653 -0.19305344 0.32123512 -0.00023221821
000240 5d 3f a3 3e fa 9f 82 3e a4 90 b3 3d e6 a6 c4 be
       0.3188428 0.25512677 0.087678224 -0.38408583
000250 9a db ef 3d cf 37 1f bf ec 12 d0 bd e6 37 1a bf
       0.117118075 -0.6219453 -0.10159859 -0.60241544
000260 c8 a1 48 3d 65 9e cf 3d e9 41 d1 bd 9e e6 63 be
       0.04898241 0.10137633 -0.102176495 -0.22255942
000270 57 fb 93 be 66 45 26 3e f2 a5 e0 3e cc c1 80 bd
       -0.28902695 0.16237411 0.43876606 -0.06286964
000280 00 75 b1 bd 2d 10 e7 3d 3a 4b 5b be c1 82 75 3d
       -0.08664894 0.11282382 -0.21415415 0.05993915
000290 88 42 58 be 21 6a c5 3c 43 46 03 3f 65 ea 56 3d
       -0.2111913 0.024098458 0.51279086 0.05246963
0002a0 a3 86 24 be 9d dd b5 be cf 11 50 3e 87 e8 5d 3e
       -0.16066985 -0.3552064 0.20319293 0.21670733
0002b0 0e f1 ca be 78 ab a8 3e 76 de 7f be 8b 66 e8 3c
       -0.39637035 0.3294332 -0.24987206 0.028369209
0002c0 18 d8 81 3b 56 00 bd 3d cd 85 d6 3c e2 0e 28 bd
       0.003962528 0.0922858 0.026186848 -0.04102982
0002d0 8a 10 ae be cb 5a b3 3e e9 13 cc 3d 50 b1 23 be
       -0.33996993 0.35030207 0.09964735 -0.15985608
0002e0 c8 ef e6 3d 4e fe d2 3e 9d 39 d9 be b4 34 93 3e
       0.112762034 0.41209644 -0.42426768 0.28751147
0002f0 49 2e d0 3c c0 be bc bd 16 81 2b 3e ce ef da bc
       0.025412695 -0.0921607 0.16748461 -0.026725676
000300 2a ea ee bd e3 48 a2 3e f6 2c 46 bd 8a 97 b5 be
       -0.11665757 0.31696233 -0.04838272 -0.35467178
000310 19 f0 d9 3e 5b 9a d6 bd 0a e2 21 be 1d 96 b1 3e
       0.42565992 -0.1047866 -0.15808883 0.3468484
000320 1f 6c 70 bc fb 84 8f be a5 83 6c 3e 99 54 d6 3c
       -0.014674216 -0.28031144 0.23097093 0.026163386
000330 0a cd 03 be 38 81 b1 3d 09 24 ce 3e 82 dc ad bd
       -0.12871185 0.08667225 0.40261868 -0.08489324
000340 45 2e ba bd ed 61 04 be 02 99 30 3f f5 5b a6 be
       -0.090908565 -0.1292798 0.6898347 -0.32492033
000350 7b 3f 48 3e 5e da 7e bd 9b fb 51 3e de 3f 02 3e
       0.19555466 -0.06221997 0.20506136 0.12719676
000360 a3 c1 8e be 9c 4f d5 bd 50 c6 ea be fa 99 e6 3e
       -0.27882108 -0.10415575 -0.45854425 0.4503935
000370 c6 0e 20 be 78 6d 0e 3e c9 15 b3 3d 52 67 7d 3d
       -0.15630636 0.13908947 0.087443896 0.061866112
000380 ee be 9b be 5e 46 6c bd af fa 47 3d da bc 8e 3e
       -0.30419105 -0.057684295 0.048823055 0.27878457
000390 2e 58 72 bd 44 85 95 bd f1 ce b3 3e 58 e8 9a be
       -0.059166126 -0.07300809 0.3511882 -0.3025539
0003a0 46 91 a0 3e 00 3f a9 be d6 5f 57 3d ea 31 c3 bc
       0.31360835 -0.33055878 0.05258163 -0.023827512
0003b0 81 af 31 3e 65 9d ff 3e d2 a7 2d 3d a9 8a e8 3e
       0.17352106 0.4992477 0.042396374 0.4541829
0003c0 a9 14 c8 be 7e ef 26 3e 00 8c 6c be 9a 74 7a be
       -0.39078262 0.16302297 -0.23100281 -0.24458542
0003d0 20 0a 3e be 96 74 87 3d e5 36 8c 3e 1c 25 aa 3e
       -0.1855855 0.06614034 0.2738563 0.33231437
0003e0 92 37 f5 3e 5a 5c ad 3d e4 59 9d 3e d3 26 0b bd
       0.4789396 0.0846488 0.30732644 -0.033972573
0003f0 79 e1 81 3d c8 67 37 be c9 1a e2 3d 84 9d 05 3e
       0.063418336 -0.17910683 0.11040265 0.13048369

network_body.observation_encoder.processors.0.dense.0.bias f4 [256]
000000 ff a5 e7 bc 69 78 23 bd bb 57 58 bc 9c a1 2e bd
       -0.028277395 -0.039909754 -0.01320451 -0.04263459
000010 44 04 6d 3c ec c5 2c 3d bb 9a cd bb 70 79 79 3d
       0.014466349 0.04218094 -0.006274549 0.060906827
000020 d9 8c 7a 3c 3a 97 1b bc b1 71 dc 3c 9f bf 43 39
       0.01529237 -0.009496504 0.026909681 0.00018668034
000030 26 e8 24 bd 05 42 00 bd 00 6b 42 3b 40 16 35 bd
       -0.040260457 -0.03131296 0.0029665828 -0.044210672
000040 1b 6c 9b bd 87 7e ad bc f0 08 48 3d ea 94 9b bb
       -0.07588979 -0.021178497 0.04883665 -0.0047479765
000050 33 d4 77 3b 6a c3 d7 3c 51 33 16 3d bd a1 97 3c
       0.003781569 0.026338298 0.036670033 0.01850974
000060 27 ba aa 3b 9d 9e 45 3d 6e 45 93 3b f6 e9 10 3d
       0.0052101794 0.04824697 0.0044943606 0.035379373
000070 ce 9b 9f 39 3a 14 cf 3c 14 07 1c 3d dd 6c 0e 3d
       0.00030442927 0.0252782 0.038092688 0.03477179
000080 cb ed 38 3d 25 f9 90 bc e7 cc 89 3b cc 87 71 bd
       0.045148652 -0.017696926 0.0042053345 -0.058967397
000090 94 59 3e 3d cb a8 8d 3c c6 3a 85 3c b4 26 2e 3b
       0.046472147 0.0172924 0.016263377 0.0026573362
0000a0 40 d4 06 3d 65 3f db 3c f1 99 a8 bc 6c 76 2a 3d
       0.03291726 0.026763627 -0.020581217 0.041616842
0000b0 3c 9c 2f 3c d4 c3 36 ba 0c cb a5 bc da b4 52 3c
       0.0107184015 -0.00069719297 -0.020238422 0.012860501
0000c0 16 d7 2f 3c 76 93 6c bb 39 12 2c 3d 0d 97 17 3d
       0.010732433 -0.0036098636 0.042009566 0.037009288
0000d0 7f 8d 50 bc ae 19 a0 3c cb 6f 04 3d c2 0f 35 bb
       -0.012729048 0.019543495 0.032333177 -0.00276278
0000e0 77 c7 c7 bc 1e d4 c8 bc 35 2f 73 3c c4 75 30 bc
       -0.024387104 -0.024515208 0.014842798 -0.010770265
0000f0 c8 11 56 3c 30 aa 47 bc cf 50 86 39 c0 69 9c 3d
       0.013065763 -0.012186572 0.0002561868 0.07637358
000100 6e fd 8d bd ef d2 9a 3c f9 a9 a4 bc 88 df 44 3d
       -0.069331035 0.01889941 -0.02010058 0.04806474
000110 f1 fc e9 3a 7e 0b 0e ba e4 18 14 3c 59 bf 53 bd
       0.0017851872 -0.00054185826 0.0090391375 -0.051696155
000120 ab 81 3c 3d 06 bf 16 bd 9e 91 36 bd fe cf 25 bd
       0.0460221 -0.036803268 -0.044572465 -0.04048156
000130 5e b8 6b 3c 77 76 42 bb 0d a0 09 bc e6 14 26 3d
       0.014387218 -0.0029672661 -0.0083999755 0.040547274
000140 16 ef 1a bd ea b2 51 bc 5c ec a8 bc ae db c0 3b
       -0.037825666 -0.012799004 -0.020620517 0.005885563
000150 a9 bc 2e 3d 50 7b 48 bc 23 3c f0 3c b8 17 10 3d
       0.04266039 -0.012236431 0.02932555 0.03517887
000160 3c b4 3a 3c a8 a0 05 3d d4 1b fa 39 c7 81 b6 3c
       0.01139551 0.032623917 0.0004770445 0.02227868
000170 d6 32 2b 3b 7a 08 09 bd ac 75 8e bc 73 8c e6 3c
       0.002612283 -0.03345535 -0.017390095 0.028143143
000180 90 8f 4d 3c 00 62 30 bd 1c cb 24 bd e1 6e 9f 3c
       0.012546435 -0.04306221 -0.040232763 0.01946205
000190 ba 16 9d 3c df 9b 71 3d 3b 92 08 3d 90 38 84 3d
       0.019175876 0.05898654 0.03334258 0.06456101
0001a0 a7 ae 66 ba 9a c5 f5 bc 7f 93 25 3d f7 0f dc bc
       -0.0008799829 -0.03000145 0.040423866 -0.026863081
0001b0 87 24 63 3d 91 b0 91 bd f8 0f 04 bc 38 5e 01 bb
       0.055454757 -0.071137555 -0.008060448 -0.0019739997
0001c0 80 39 1a bd 34 70 96 3d 54 6e 64 bd 7b 0b c3 3c
       -0.037652493 0.0734562 -0.05576928 0.023809185
0001d0 3f e1 ee 3c a6 3e e4 3c e8 d7 00 bd 5f cd a2 3b
       0.02916014 0.027861904 -0.031455904 0.00496833
0001e0 88 3b 48 bc e1 34 90 ba 26 ee 1b bc 35 1c 79 3d
       -0.012221225 -0.0011002087 -0.009517228 0.060817916
0001f0 43 43 53 bc 45 81 56 bd 32 9f 27 3d 85 5e 88 bc
       -0.012894454 -0.052369375 0.040923305 -0.016646633
000200 80 e5 02 bd 52 ba 34 3d 06 96 d5 bb ea ef a8 3d
       -0.03195715 0.044123 -0.0065181283 0.08248885
000210 52 e4 41 3d fe 3d 25 3d bf ca 21 bd a0 d5 75 3d
       0.047336884 0.040342323 -0.039499994 0.06001818
000220 c7 2c a9 bb 3e ff 98 bc d5 51 ec bc 54 e9 26 bd
       -0.0051628086 -0.018676396 -0.028847614 -0.040749863
000230 3a ca c1 3c fa 1d d6 bc d5 0e d5 3b 7e 0b 0b 3d
       0.023656 -0.02613734 0.0065020123 0.033946507
000240 d4 5b ed 3c e5 6d 54 3c 8c 70 5c bd d3 fb 04 3d
       0.028974451 0.012965654 -0.05381827 0.03246672
000250 d3 ca 13 3d 97 29 29 bd 83 db a0 3c 24 e3 4a ba
       0.0360821 -0.04129943 0.019635921 -0.0007739535
000260 c4 76 ba 3b 18 c1 ce 3c d1 b1 d2 bc 0c de 60 bc
       0.0056904275 0.025238559 -0.025719555 -0.013724815
000270 e0 09 78 bc cc cc d0 38 e4 ce 9c 3d ae 08 93 3b
       -0.015139073 9.956359e-05 0.07656649 0.0044871187
000280 2c f0 22 bd 43 aa 80 3c 10 b2 19 bc c1 85 14 bd
       -0.039779827 0.015706187 -0.009380832 -0.03626037
000290 25 4a f4 3c 3b f8 f1 3b 3a df 4d bc 59 33 1a 3d
       0.029820511 0.0073843277 -0.012565428 0.037646625
0002a0 bf 54 9e 3d 65 ed 56 3d 61 e5 ca 3c c9 34 c0 bb
       0.07731008 0.05247249 0.02476758 -0.0058656675
0002b0 e8 10 34 3c f9 df 2a 3d b0 39 1b 3d a8 7a 28 bc
       0.010990359 0.041717503 0.037896812 -0.01028315
0002c0 72 73 2f 3d 66 20 57 3d 33 da 69 3d 9f 88 66 3c
       0.042834707 0.052521132 0.057092857 0.014070659
0002d0 dc 5b 01 bd ee 2a 35 3d ba d5 24 3d 85 f0 95 3d
       -0.031581745 0.044230394 0.040242888 0.07321266
0002e0 c5 da 49 3d cb c4 58 3d 61 6f 44 3d 12 b1 ca bb
       0.0492809 0.05292205 0.04795778 -0.006185659
0002f0 9d bf 77 bc d1 fc 5a bc 3c 37 80 bd e9 30 8b bd
       -0.015121368 -0.01336594 -0.06260535 -0.06796438
000300 77 35 36 3d 24 f9 6e 3c 8a 45 8b 3c af 74 39 bd
       0.04448458 0.014585767 0.017000932 -0.045277294
000310 b5 dd 9d 3c b2 f5 4d 3d 95 0f 29 bc 6f 22 3a ba
       0.019270757 0.05028314 -0.010318656 -0.0007100468
000320 22 48 d4 bc 43 ef 32 bc 04 24 1b bc 09 dc c5 3c
       -0.025913302 -0.010921302 -0.009469036 0.024152773
000330 eb 09 a4 3c c2 02 76 3b 54 3b 98 3c 67 d8 a6 bc
       0.02002426 0.0037538265 0.018582977 -0.02036686
000340 93 54 c7 3c 52 70 8d bc 9f 06 bf 3c c3 3c cd bd
       0.02433232 -0.017265473 0.023318587 -0.10021355
000350 e1 82 f9 3c 61 da 82 3c d1 18 cd 3c be 1b 7d bd
       0.030457916 0.015973272 0.025036247 -0.061794035
000360 bc 24 e5 3c 83 da df bc 96 3c 78 bc f1 d7 25 3c
       0.027971618 -0.027325874 -0.015151164 0.010122285
000370 61 bf d0 bb 44 ee d2 bc 6b 4f 57 3c 8a 0c 62 3c
       -0.0063704704 -0.02574838 0.013141493 0.013796935
000380 69 02 71 3d d1 dd 51 3d c9 d2 9a bb 8f 3a d9 3c
       0.05884019 0.05123693 -0.0047248346 0.02651718
000390 05 7e c1 3c ec dd e8 3c a8 8d 83 bc 43 5e 4d 3d
       0.023619661 0.028426133 -0.016058758 0.050138723
0003a0 7a 4d c4 bc c9 1c 95 bc 95 2e 10 bc a3 91 14 3d
       -0.023962725 -0.018202202 -0.0088001685 0.036271702
0003b0 4e 59 0b 3d 10 d3 a1 3d 13 52 61 3c 43 c0 dd bc
       0.034020714 0.07901585 0.013752478 -0.027069217
0003c0 48 34 af 3d 2d 8d a3 bc b6 40 7a bd ea 5d 9f 3c
       0.08554894 -0.019964779 -0.06109687 0.019453961
0003d0 cf 03 0c 3d 89 5a ad 3c ca 6e e7 3b ac 8b 45 3d
       0.03418332 0.021161335 0.0070627676 0.048228905
0003e0 00 fd b1 b5 17 56 6b bc 0b 08 09 3d 81 21 e8 bc
       -1.326116e-06 -0.014363787 0.033454936 -0.028336288
0003f0 75 f6 3f 3d b2 6c d5 3c f9 3c 14 bc 46 a1 34 3c
       0.0468659 0.026052807 -0.00904774 0.011024779

network_body._body_endoder.seq_layers.0.weight f4 [256, 264]
000000 8e 25 23 3c 29 c8 40 bd 02 2d ca 3d 94 ca 83 bd
       0.009957684 -0.047065888 0.09871866 -0.06435123
000010 37 1a c2 3d d4 21 df bc de 50 23 bb ec 54 0c bb
       0.09477656 -0.02723781 -0.0024920027 -0.0021412922
000020 9d c4 11 3d 33 aa 15 be 7e a2 f3 bd ae a5 24 3b
       0.035587896 -0.14615707 -0.11896227 0.0025123167
000030 c3 d1 4a bd f8 c4 03 3e b5 93 9d bd 98 f5 e3 3c
       -0.04951645 0.12868106 -0.076941885 0.02782707
000040 ba f4 6b bd cb 19 9b bd 9a 03 f9 bd 60 81 a2 bd
       -0.057606436 -0.07573279 -0.1215889 -0.079348326
000050 87 a9 72 3c 45 d3 09 be 65 3b 03 bd 5c 56 e1 3c
       0.014810926 -0.13459499 -0.032039065 0.027507
000060 32 b2 26 3d 29 13 cc bc d8 1d a6 bd c3 c1 fd 3b
       0.040697284 -0.02491148 -0.08111161 0.0077440455
000070 1c f3 a4 bd 8a ad cc 3b e1 de f7 bd 1a 1f 94 3d
       -0.08054182 0.0062462734 -0.12103058 0.07232495
000080 9a 13 e5 3b 92 f3 30 3d 0a 60 bd 3d 94 30 78 3d
       0.006990862 0.043201037 0.092468336 0.060593203
000090 c8 f2 83 bc 07 dd 8d bd 8f a3 ad bc 96 11 4d 3d
       -0.016106978 -0.06926923 -0.021196155 0.0500656
0000a0 83 65 20 3e 0b 3f ca 3d c0 3f 06 3e 49 56 a5 bd
       0.15663724 0.09875306 0.13110256 -0.08073098
0000b0 17 31 88 bc 1a d9 a6 3c 93 f0 f3 bd e1 a6 df 3c
       -0.01662497 0.020367194 -0.1191112 0.027301254
0000c0 59 51 89 bd 8c 72 73 3e 14 7d 1a be 93 a5 5d bb
       -0.06704969 0.23774165 -0.15086776 -0.0033820614
0000d0 82 b2 b5 3d 9b e5 a2 bd 42 3a 22 3e f8 ef a3 bd
       0.08871938 -0.0795395 0.15842536 -0.08004755
0000e0 39 58 33 3d 20 76 12 be ca 6b 8a 3d 29 5c ee 3d
       0.043785308 -0.14302874 0.067588404 0.11638672
0000f0 3c 55 c5 bd cb 7f 8b bd 6c 2f 8b 3d 73 5e d5 3d
       -0.09635398 -0.06811484 0.067961544 0.104184054
000100 ec b8 34 3c 1c e9 ce 3d c6 59 bb bd a6 a6 76 3c
       0.011030417 0.10103056 -0.09147982 0.0150543805
000110 c9 3b 10 bd 3a 83 d6 bc f6 4b a1 3d 99 ee 5c bd
       -0.035213266 -0.02618562 0.078758165 -0.053938482
000120 d2 95 c3 bd 59 e0 72 3d af 96 f6 3a 00 22 a9 3d
       -0.0955006 0.059295986 0.0018813218 0.08258438
000130 ea e2 b9 bd 1b 49 d3 bc 13 86 a9 bc 98 00 b9 bd
       -0.090764835 -0.025791695 -0.020693814 -0.090333164
000140 e3 44 bb bd 89 67 84 bd bf a1 10 bd af 5d ed bc
       -0.091439985 -0.0646506 -0.035310503 -0.028975336
000150 e1 63 54 3e 07 f3 33 ba 75 72 18 be 9c 69 fb 3c
       0.20741226 -0.0006864522 -0.14887412 0.030690007
000160 25 08 83 3d b4 9a be 3c 67 fc ea 3c 48 95 02 3e
       0.06398038 0.023267128 0.028684808 0.12752259
000170 bb 8c be bd 5b 5f 49 3c 62 9e 0c bd 87 3b 93 3d
       -0.09304186 0.012290801 -0.034330733 0.07189088
000180 df cc 64 bb fc 3a 11 3e bc 33 f2 3c 39 bf bf 3c
       -0.0034912152 0.14182657 0.029565684 0.023406612
000190 20 b0 b3 bd b0 0b 91 bc f1 4b 7d bd c9 7d 22 3d
       -0.087738276 -0.017705768 -0.06184 0.03967074
0001a0 87 d1 1f bd 63 88 46 3d 2e 02 01 3e 4c a7 08 3d
       -0.03901818 0.048469912 0.12598488 0.03336267
0001b0 2b a4 00 be 7f 44 29 bd 8a a0 29 bd fd aa 7a bd
       -0.12562625 -0.04132509 -0.041412868 -0.061198223
0001c0 58 0d 1a bd c0 4f 7e bd 79 a5 90 bd ea 27 3a bd
       -0.03761038 -0.062087774 -0.070628114 -0.04544822
0001d0 9e 4a 0c 3e de 2d dc bc 43 66 cd 3d af 6a a5 3b
       0.13700339 -0.02687734 0.100292705 0.005048118
0001e0 02 09 68 bd 0e 35 d3 3d 17 50 51 3d d9 71 1a 3e
       -0.056649216 0.10312854 0.05110177 0.15082492
0001f0 6f d6 fe bd 1d 09 19 be 88 6a 14 be f0 7c c5 bb
       -0.12443244 -0.14944883 -0.14493763 -0.0060268566
000200 f6 cc 2f 3d 4c ce 7c bc 25 ba a8 bd d5 c0 cd 3d
       0.042920075 -0.015430044 -0.08238629 0.100465454
000210 07 ea 13 be 76 e6 ed bc 76 f1 ba bc 7c 4b 5a bd
       -0.14444743 -0.029040556 -0.022820216 -0.053294644
000220 79 86 02 3d 8b 94 3e bd a3 36 6f bd c9 c9 a3 3b
       0.031866524 -0.04652838 -0.058401715 0.00499842
000230 71 8d c3 3d f6 83 5e bd 0d 76 78 3c 7e 9e 75 3d
       0.09548462 -0.054325067 0.015164864 0.059965603
000240 39 74 b8 3d 97 93 89 bd fc b4 d0 3c 8a c2 69 3c
       0.09006543 -0.06717604 0.025476925 0.014267573
000250 07 ee a4 bd b8 ad 0f 3b 12 6b fd 3d 29 4b d2 3d
       -0.080532126 0.0021923613 0.12373938 0.10268242
000260 7f fe c7 3c 07 57 f4 bd 87 bd 17 bc 23 0b c1 3d
       0.024413345 -0.11930662 -0.009261495 0.09425952
000270 63 56 1e be 1c 6c 7f 3c ba 51 b6 bd 97 09 86 3c
       -0.15462641 0.01558974 -0.08902307 0.016361995
000280 83 74 b1 3b 1e 7c 5e 3b 8c c3 31 bc ae a8 62 3d
       0.0054155006 0.0033948491 -0.010849845 0.055336647
000290 35 81 8f bd 9a bc 08 3c 5a d7 09 bc c7 3b 1b 3d
       -0.07007066 0.008345747 -0.00841316 0.037898805
0002a0 71 02 cb 3d 64 40 7b 3d 84 4d ec bd 50 5f 5c 3d
       0.09912575 0.061340705 -0.115382224 0.053801835
0002b0 63 6b dd 3c 3a a1 d6 bd 7b 7a b1 bb 5d ca d5 bd
       0.027028745 -0.1047997 -0.005416212 -0.10438988
0002c0 66 13 6b 3c 0a 47 f4 bd 40 62 dd bc ff 7a 81 bd
       0.014347887 -0.11927612 -0.027024388 -0.06322288
0002d0 a4 54 53 bb 30 39 e3 bc 5f 6c 95 bc 06 f1 98 3d
       -0.0032246495 -0.02773723 -0.018240152 0.074678466
0002e0 91 a2 37 ba e3 71 57 be 16 8f af 3c 4a 82 56 bd
       -0.000700512 -0.21039538 0.021430533 -0.052370347
0002f0 e3 83 f6 bb f9 c9 99 bc de e2 65 bd 2c fd 09 be
       -0.0075230463 -0.018773066 -0.05612456 -0.13475484
000300 b8 b5 69 bc 5e f6 5d bd d0 57 a8 3c 38 94 b0 bd
       -0.0142645165 -0.054190032 0.020549685 -0.086220205
000310 f2 47 3b 3c d7 78 a1 3d 35 18 a6 3c 39 f6 c4 bb
       0.011430727 0.078843765 0.020275215 -0.0060107973
000320 66 a6 1c be 9a 16 91 bd cf 75 14 3d 99 3f b5 bc
       -0.15297851 -0.07084389 0.036245164 -0.022125052
000330 e0 71 3b 3d c0 60 4b ba d7 17 ab 3d bc 36 0d 3d
       0.045762897 -0.00077582523 0.083541565 0.034476027
000340 dd 54 cd bd 0f 07 10 bd a9 73 5e be 27 50 9e bd
       -0.10025952 -0.03516298 -0.21723808 -0.077301316
000350 45 08 db bd d7 ee 0c be 43 ad e6 bc b3 29 a8 bc
       -0.10694937 -0.13762985 -0.02815879 -0.020527696
000360 14 da 8e bd 16 d2 69 3c ba cf f5 3d cd ba fd bd
       -0.06975189 0.01427128 0.12002511 -0.12389145
000370 71 01 13 3d d6 93 a2 bb ca ed 4d bd 4a 2d e5 3d
       0.035890047 -0.004961471 -0.0502756 0.11190279
000380 1a cf 18 3c 00 4b f8 3c eb 68 15 3d 19 ef 40 bd
       0.009326721 0.0303092 0.03647701 -0.04710302
000390 1c aa 96 bc b3 5d 0b 3e ce 85 18 bc 6f 9f fb bc
       -0.018391661 0.13609962 -0.009309245 -0.030715672
0003a0 05 76 48 bd a1 b7 3e 3d 0f 83 6f be 52 e1 07 bd
       -0.048940677 0.04656184 -0.23389839 -0.033173867
0003b0 26 cd 96 3d ae fb 35 bd b6 7a d0 3d f8 77 00 be
       0.07363348 -0.044429474 0.10179655 -0.12545764
0003c0 e5 6b 0d bd 2f af 94 3d 93 42 5e bc 16 53 99 bc
       -0.034526724 0.07259976 -0.013565677 -0.018716376
0003d0 e1 cb a1 bc a0 c5 cb 3d f7 02 84 3d 2a ba 57 ba
       -0.019750537 0.09949803 0.06445878 -0.000822934
0003e0 eb 72 5f 3d 76 87 80 3d 5c be fd 3c d2 d4 2a bd
       0.054552954 0.06275837 0.03097456 -0.041706868
0003f0 95 ba 13 3e 8f 2c 48 bd c0 33 8d 3d e6 62 c8 3c
       0.14426644 -0.04887062 0.06894636 0.024461221

network_body._body_endoder.seq_layers.0.bias f4 [256]
000000 06 b8 90 3a 92 d1 71 bb fe 54 e2 bb df 9a 3c bc
       0.0011041171 -0.0036898595 -0.0069071045 -0.0115115335
000010 55 ef 86 3c c9 eb 7f 3c 11 0f 89 3a 7e 2e f4 bb
       0.016471544 0.01562018 0.0010456761 -0.0074518314
000020 2d 86 ae bc f1 89 b4 3a 39 88 42 3d a4 07 db 3d
       -0.021304214 0.001377402 0.047493193 0.10694817
000030 6c 52 68 ba ac a9 f9 3c 2c ce 83 bc 5d 30 8e 3c
       -0.00088623795 0.030476414 -0.016089521 0.017357046
000040 ff 32 dc 3b b3 a7 83 bd 5b 1e d2 3b 25 2d 3f 3d
       0.0067199464 -0.064284705 0.00641231 0.046673913
000050 89 8c e2 bc e5 a5 1b 3c d7 c2 d5 3b 50 32 3e 3d
       -0.027654903 0.009500002 0.006523471 0.0464347
000060 62 62 86 bc 5e 52 de bc 84 4b e0 bc cd 5d 53 bc
       -0.016404334 -0.027138885 -0.027379759 -0.012900782
000070 75 25 27 3c ca a8 28 3d 3f 19 8f bc 73 1d ab ba
       0.010201802 0.041176595 -0.017468093 -0.0013055041
000080 1b c0 92 3c 13 74 1b 3d 07 32 9f bc b4 a2 96 bb
       0.017913869 0.037952494 -0.019433035 -0.0045970324
000090 27 45 b2 3c 02 73 3a 3d fb e1 f5 3c 85 2c d7 bc
       0.02176149 0.045519836 0.030014982 -0.026266346
0000a0 b3 03 10 bd 70 80 04 3d fd bb b3 bc 11 14 ef b9
       -0.035159778 0.03234905 -0.021940226 -0.00045600583
0000b0 9b b0 0a bc 10 5a 44 3c 20 a0 f5 3c 8c 5b b3 3a
       -0.008464958 0.011984363 0.02998358 0.0013683899
0000c0 70 a1 21 3d 69 fd a6 3c af 65 f4 3c 75 8a 78 3c
       0.0394606 0.020384507 0.029833643 0.0151697295
0000d0 04 5d dd 3c b4 9a a5 3c a9 1c fd 3c 4f 15 94 3c
       0.027021892 0.02021537 0.030897455 0.018076567
0000e0 ce 35 79 bc 85 c2 a9 bc 98 c6 cf bb 56 5a ef bc
       -0.015210582 -0.020722637 -0.006340813 -0.02921788
0000f0 be c3 97 3d 76 89 35 bd 29 b8 7d 3c 32 87 80 3c
       0.07410382 -0.044320546 0.015485802 0.015689466
000100 8c 74 ee 3c a5 83 28 bd 03 79 a7 3c 65 61 d4 bc
       0.029108308 -0.04114117 0.020443445 -0.025925348
000110 85 36 75 3d 89 be c6 3b 2e e7 e5 3c a3 34 00 3d
       0.059866447 0.006065194 0.028064337 0.0313002
000120 97 47 0c bd 7d 88 ea 3c 34 98 2e 3b 82 67 b6 bc
       -0.03424796 0.028629536 0.0026641013 -0.022266153
000130 1e b7 06 3d 43 e0 8e bc ba fc d7 3c 0f b2 80 bc
       0.032889478 -0.01744092 0.026365627 -0.015709905
000140 13 55 2a 3d 95 c7 f8 3b 2f 46 71 3d d8 5f d0 bc
       0.04158504 0.0075921514 0.058904823 -0.025436327
000150 f2 e0 1d 3d 3f db b0 3c 05 f5 3e bd f6 f3 ea bc
       0.038544603 0.02158892 -0.046620388 -0.028680783
000160 bd d6 f2 3c 0d cb be 3c 9a 4c 45 3d 4e 88 f6 3c
       0.02964341 0.023290182 0.048168756 0.030094292
000170 70 1a 93 bc cf db 25 3d a5 25 0b bd df 58 59 3d
       -0.017956942 0.04049283 -0.033971447 0.05306327
000180 5b a9 9d 3c 29 87 02 bc 0c 0b ed 3c 8e 36 da bc
       0.019245794 -0.007966795 0.028935932 -0.026637342
000190 ef cd 66 bc b9 3a e7 3c 50 64 90 bc 51 34 a5 3d
       -0.014087184 0.028226243 -0.017625958 0.08066619
0001a0 7f 59 aa 3c db f1 66 3c 3a bb dc bc f8 4a 8d 3d
       0.020794628 0.014095749 -0.026944745 0.06899065
0001b0 7e c8 12 bd 5e 72 01 3d 8a 3b 8e 3d ee b2 f7 3c
       -0.035835735 0.03160321 0.0694495 0.030236688
0001c0 fb 2e fe 3b eb aa 0f 3d 5d 4f 50 3b 54 f6 08 bb
       0.0077570654 0.03507511 0.0031785585 -0.0020898776
0001d0 22 b4 04 3c ae 02 ab 3c 74 b6 4f bd 1f d1 be 3c
       0.008099588 0.020875301 -0.05071111 0.023293076
0001e0 bd b3 f7 bc da d5 71 3d 2c c6 73 3d 57 1d 6b 3d
       -0.030237073 0.059041835 0.059515163 0.057401028
0001f0 2c 1f 97 3d 6e 2f b6 3b 14 90 d4 3b 32 04 35 bc
       0.073789924 0.0055598533 0.006486902 -0.0110483635
000200 89 49 97 bc 47 e7 58 3b 58 f2 a2 bb 2d 9f bf 3c
       -0.018467681 0.0033096836 -0.0049727373 0.02339133
000210 fd 7b c6 bc af e7 ca bc c5 f7 e5 3b a0 2b 0d 3d
       -0.024229044 -0.024768678 0.007018062 0.034465432
000220 da 9e c5 3c 06 41 de 3b e5 e1 3d 3b a0 0b 82 3d
       0.024123598 0.0067826537 0.0028973755 0.063498735
000230 0c 7c 0c 3c 1d db 3d 3d 48 7f a3 3c ed a3 7b bc
       0.008574497 0.04635154 0.019958153 -0.015358907
000240 23 20 01 bb eb 84 09 3d 1d c9 10 3d 21 0c 44 3c
       -0.0019702993 0.033574026 0.035348047 0.011965782
000250 49 2c 23 bd a9 fd c8 bc 29 1b 07 3d c2 de c7 3c
       -0.039837155 -0.024535017 0.032984886 0.024398211
000260 54 00 47 3c 5c 51 7c 3d 72 c9 ad bc d1 a3 a1 3c
       0.012146074 0.061601028 -0.02121422 0.019731434
000270 d5 8e 93 3c 0f 3b 2b 3d 54 28 9b 3c da 2e 53 bd
       0.018012444 0.04180437 0.018940128 -0.051558353
000280 c2 98 38 3c 0e 6e a1 3b 29 4b 1f bc 05 00 5a 3c
       0.011266889 0.0049264496 -0.009722509 0.013305669
000290 55 46 ba 3c f5 de 82 bc 3d f8 d5 bb 94 ea 2e 3d
       0.022738615 -0.015975455 -0.0065298364 0.04270418
0002a0 b5 cf 7f bc d3 28 88 bc bc 4f 37 3c 73 8b 8e 3d
       -0.015613486 -0.016621029 0.011188444 0.069601916
0002b0 10 d2 03 3d 30 10 8e bd 7b b6 31 3d 80 2e a2 bb
       0.032182753 -0.06936681 0.043386918 -0.004949391
0002c0 97 59 5d bc 17 bb 9f 3a 47 ce d4 3b 91 62 a8 bb
       -0.013510129 0.0012186494 0.0064943167 -0.005138703
0002d0 ac 35 4c 3d 32 9c 7d bc 6c c4 41 bb 28 27 70 bd
       0.049855873 -0.015479134 -0.002956654 -0.058631092
0002e0 13 01 b9 3b 43 9d 9e 3c 82 a6 b7 3c 58 46 b7 3c
       0.00564588 0.019362098 0.022418264 0.02237241
0002f0 8f 4c fd 3c c4 a9 55 bd 72 1f 50 3c 14 9d 96 3d
       0.030920295 -0.052163854 0.01270281 0.07354179
000300 b5 81 a9 bb 16 f4 0a bd c1 e5 fd bc 57 10 42 3d
       -0.005172933 -0.033924185 -0.030993344 0.047378864
000310 fa b4 8b bb be 5b e6 3c 4e b0 53 3d 4d a3 57 3d
       -0.0042635174 0.028119918 0.05168181 0.05264597
000320 82 86 fb bc 21 01 81 bc 94 14 e7 3c 7f b6 34 3d
       -0.030703787 -0.015747609 0.028208055 0.044119354
000330 b6 95 b6 3c c6 1f f2 b9 a0 99 1d 3d 56 6c ae bb
       0.022288185 -0.0004618151 0.038476586 -0.0053229732
000340 37 11 21 bd c7 3d 17 bd 34 0a 5d bc 74 9f 94 bd
       -0.039323058 -0.03692415 -0.013491202 -0.07256976
000350 ad 39 b1 3c 26 b7 df bc 2b 98 ad ba b3 d0 c8 3c
       0.021633947 -0.027309012 -0.0013244202 0.024513578
000360 af d5 8c 3c 42 08 03 3c bd 83 65 3d 52 09 4f bb
       0.017191736 0.007997574 0.05603384 -0.0031591249
000370 5f 96 0c bb ae e0 96 3c bb 44 c2 3c 2d 6d 7e bb
       -0.0021451933 0.018417682 0.023714414 -0.0038822398
000380 e8 ff 7a bd ef f7 90 3b 55 c8 82 3b e3 4c df 3b
       -0.061279207 0.0044240872 0.0039911666 0.0068145855
000390 a1 4b ba bb c6 49 03 3d f8 71 99 bd 82 7f 63 3c
       -0.005685285 0.032052778 -0.07492441 0.013885381
0003a0 cf f8 d4 3c d7 0f 78 3c 42 80 a9 bc 89 9a d5 3c
       0.025997547 0.015140495 -0.02069104 0.026074665
0003b0 d9 83 04 bd 98 49 0b bd 40 86 40 bd a2 7f 8f 3c
       -0.032352302 -0.03400573 -0.04700303 0.017516915
0003c0 4e 4f 93 3d cd 99 0a 3d ad fc 36 3c b2 74 89 bd
       0.071928605 0.033838082 0.011168641 -0.06711711
0003d0 3d de b6 3c 87 6e 24 3c d7 71 72 3c 6a d8 ad 3c
       0.022322768 0.010036117 0.014797649 0.021221358
0003e0 19 f4 51 bd 3b 37 cd bc 31 c2 a7 bc cc 38 23 3d
       -0.05125818 -0.02505075 -0.02047834 0.039849088
0003f0 93 53 85 bb fd 2c 17 3c 17 2e 0f 3c 7f 8b 7a 3d
       -0.0040688007 0.009227035 0.008739016 0.06116819
