Assets/Models/ButtonPress/ButtonPressAndJump.onnx (onnx, 98733 bytes, 12 tensors)

discrete_act_size_vector f4 [1, 2]
0	0x40000000	2.0
1	0x40000000	2.0

network_body._body_endoder.seq_layers.0.weight f4 [128, 49]
0	0xbddbc57a	-0.10731025
1	0xbd1b0e4d	-0.037855435
2	0xbe65bde0	-0.22435713
3	0xbd31b753	-0.043387722
4	0xba37de58	-0.0007014028
5	0x3d2166b0	0.03940457
6	0x3bd83611	0.006598242
7	0xbd92a751	-0.07160819
8	0x3e6c86c6	0.23098287
9	0xbe4e6be0	-0.20158339
10	0x3ddd85e7	0.108165555
11	0x3e4291c1	0.19000913
12	0xbdec98e2	-0.115525976
13	0x3dae613a	0.08514638
14	0xbca89d47	-0.020582808
15	0xbdb2b9c7	-0.087268405
16	0x3e4a506a	0.19757238
17	0xbdb2ff9d	-0.087401606
18	0x3dd408a9	0.10353214
19	0x3deded2f	0.11617505
20	0x3ef33730	0.47503042
21	0xbe91cc93	-0.2847639
22	0xbdac284a	-0.08406122
23	0x3d579b79	0.052638505
24	0x3e8652ee	0.26235145
25	0xbd80b690	-0.06284821
26	0xbde8ce10	-0.11367428
27	0xbdda737f	-0.106665604
28	0x3e85c7f6	0.2612912
29	0x3e0f1d10	0.1397593
30	0x3d7f0fcb	0.06227092
31	0x3e399e14	0.18126708
32	0xbd8e695a	-0.06953688
33	0x3e3228a7	0.1739832
34	0xbe1c4fb0	-0.15264773
35	0x3e4f3953	0.20236711
36	0x3d1ed984	0.038781658
37	0xbe1e7643	-0.15474801
38	0x3df90854	0.121597916
39	0x3d8772a1	0.066136606
40	0x3dce1c54	0.10063997
41	0x3e8dd8b3	0.2770439
42	0x3e71d375	0.2361582
43	0xbe1307ed	-0.14358492
44	0x3ddbb979	0.107287355
45	0xbe325b03	-0.1741753
46	0xbe46c66b	-0.19411628
47	0x3dee8d8a	0.1164809
48	0x3e2a9627	0.16658841
49	0xbe0593bc	-0.13044637
50	0xbe96cc3d	-0.29452696
51	0x3d8bc977	0.06825536
52	0x3c356478	0.011071317
53	0xbd8a46c6	-0.0675178
54	0x3e6d70e4	0.23187596
55	0x3e81488c	0.2525066
56	0xbdef1499	-0.116738506
57	0x3e192094	0.14953834
58	0xbcd5f78a	-0.026119012
59	0x3e6c0e82	0.2305241
60	0x3db7316e	0.08944975
61	0x3c4c532c	0.012471002
62	0xbb7f04cc	-0.0038912771
63	0x3a562efe	0.00081704545
64	0x3e6f224d	0.23352928
65	0xbd5fbbd8	-0.0546225
66	0x3c2533b3	0.010083127
67	0xbcdaee5c	-0.026724987
68	0x3d235277	0.039873566
69	0xbe79d1cd	-0.24396439
70	0x3c3dfed3	0.011596399
71	0x3e5e1a18	0.21689641
72	0x3db075e3	0.08616235
73	0xbdac84ed	-0.08423791
74	0x3e02803c	0.1274423
75	0x3e307c99	0.1723503
76	0x3e2fe253	0.1717618
77	0xbe1e057c	-0.1543178
78	0x3e01767b	0.12642853
79	0xbd6094d0	-0.05482942
80	0x3d82b198	0.063815296
81	0x3e1c7ed1	0.15282752
82	0xbd528caa	-0.05140368
83	0xbddc2558	-0.1074931
84	0x3e1a383a	0.15060511
85	0x3cd07610	0.025446922
86	0x3e932ab5	0.2874352
87	0xbd08724a	-0.03331212
88	0x3e8ddf51	0.2770944
89	0x3ea94b57	0.33065292
90	0xbd824123	-0.0636008
91	0xbcc93e27	-0.02456577
92	0xbc9de54d	-0.019274378
93	0xbdc5639b	-0.09638139
94	0x3e836088	0.25659585
95	0x3be7a95b	0.0070697493
96	0xbdcd7475	-0.10031978
97	0x3be573e0	0.0070023388
98	0x3e9dc339	0.30813006
99	0x3e1f4ed3	0.15557413
100	0xbec41190	-0.3829465
101	0xbe988bc1	-0.29794124
102	0x3dde8130	0.10864484
103	0x3e5d65aa	0.21620813
104	0xbda3cb6c	-0.07997784
105	0xbe03c1c0	-0.12866879
106	0xbd63e6db	-0.055640083
107	0xbce7f227	-0.02831371
108	0x3e1cfc52	0.15330628
109	0x3e64a8ad	0.2232997
110	0xbe30eba1	-0.17277385
111	0x3e217590	0.15767503
112	0x3b740026	0.0037231534
113	0x3ea4a316	0.32155675
114	0x3d53bb97	0.05169257
115	0x3d9cc16c	0.0765408
116	0xbd0cd39a	-0.034381486
117	0x3bd6e247	0.006557736
118	0xbdb3cb6a	-0.087790325
119	0x3e5149d1	0.20438315
120	0x3e1960a8	0.14978278
121	0x3e77fe95	0.24218209
122	0xbde8d25e	-0.11368249
123	0x3e2584d4	0.16163951
124	0x3d145754	0.036216095
125	0xbcfaae26	-0.030600619
126	0x3d060ed1	0.032728974
127	0x3dfe8ee3	0.12429597
128	0x3d923d16	0.071405575
129	0x3d4bfd97	0.04980239
130	0xbe8ee3b3	-0.27908096
131	0xbdb54493	-0.0885097
132	0x3d0b10b1	0.033951465
133	0xbe0cec9e	-0.13762137
134	0x3dc775c8	0.09739262
135	0x3dbe5705	0.092939414
136	0x3ddfbf97	0.10925215
137	0x3e315048	0.17315781
138	0x3e2161a4	0.15759903
139	0xbdb21cca	-0.08696897
140	0x3d02e30b	0.031954806
141	0xbdac92fe	-0.08426474
142	0x3ce52e54	0.027976193
143	0x3d8c1ef7	0.068418436
144	0x3d29a840	0.04142022
145	0xbd7c664d	-0.061621
146	0x3dafa0f6	0.08575623
147	0x3e8b4766	0.2720291
148	0xbd2a27f1	-0.041541997
149	0x3d089d04	0.033352867
150	0xbcac027a	-0.020997275
151	0x3dc9ec7c	0.09859559
152	0xbe79367d	-0.24337192
153	0xbe2b4d46	-0.16728696
154	0x3e0009c6	0.12503728
155	0x3cac5cb2	0.021040294
156	0xbc8cb8f7	-0.017178042
157	0x3df6ab69	0.12044413
158	0xbd5be688	-0.05368665
159	0xbe21ce3a	-0.15801325
160	0xbbc36392	-0.0059627974
161	0xbde4e215	-0.11175934
162	0x3d9f8c6b	0.077904545
163	0x3d6aedf8	0.05735585
164	0x3db52ca8	0.08846408
165	0xbe2005cc	-0.15627211
166	0x3dd04fe5	0.10171489
167	0xbdeee463	-0.11664655
168	0xbe2b9279	-0.16755094
169	0xbd7dfc26	-0.062008046
170	0x3d73a72b	0.059485596
171	0x3d98977d	0.07450769
172	0x3e2d5b4c	0.16929358
173	0xbdb8b753	-0.09019341
174	0xbb847d0e	-0.004043228
175	0x3ca54d87	0.02017857
176	0x3d735fc5	0.059417505
177	0x3e152027	0.14563046
178	0xbe353227	-0.17694913
179	0x3d7ebd67	0.062192347
180	0x3d106a90	0.035257876
181	0x3d7a1917	0.061059084
182	0x3e99b9ce	0.3002457
183	0xbd6216cd	-0.055197526
184	0xbe0e76c6	-0.13912496
185	0x3d94638f	0.07245552
186	0x3ddbb5cd	0.10728035
187	0x3d3ad71a	0.045615293
188	0x3cd23e7e	0.025664564
189	0x3d565aaa	0.052332558
190	0x3d5a8e92	0.053358622
191	0x3c3a6e65	0.011378859
192	0xbd1cb299	-0.03825626
193	0xbbe4e494	-0.0069852564
194	0xbe13a066	-0.14416656
195	0x3eafc555	0.3433024
196	0xbd6f604e	-0.058441453
197	0x3e2371c5	0.15961368
198	0xbe1bd6a4	-0.15218598
199	0x3eb3fdb2	0.35154492
200	0xbcdde9ab	-0.02708896
201	0xbdbb1c3f	-0.09136247
202	0x3e2523ba	0.1612691
203	0x3e087d6d	0.13329096
204	0xbde22b6b	-0.110434376
205	0x3e60f3e6	0.2196804
206	0x3d8945e4	0.06702784
207	0x3dd01d72	0.10161866
208	0x3d86ce2f	0.06582295
209	0xbdb81158	-0.08987683
210	0x3e83b70d	0.25725594
211	0xbe298ac2	-0.16556838
212	0x3d8b6a69	0.068074055
213	0x3ec61b0e	0.38692516
214	0x3e309b3b	0.17246716
215	0x3d7f541f	0.062336084
216	0xbd73d9ee	-0.059534006
217	0x3c4acf0e	0.012378467
218	0x3e153a40	0.14573002
219	0x3dd5cfab	0.1044
220	0xbdb0a572	-0.08625306
221	0xbd421241	-0.04738069
222	0xbe5c92f6	-0.21540436
223	0x3d5ae2e3	0.053439032
224	0xbd25e764	-0.040503874
225	0x3ce7dd18	0.028303668
226	0xbe42e63a	-0.19033137
227	0x3e8fa8a5	0.28058353
228	0xbd924746	-0.071425006
229	0xbe321def	-0.17394231
230	0x3d9b2db0	0.075770736
231	0xbdfdc2c5	-0.12390665
232	0xb95dcdea	-0.00021152911
233	0xbe2d8e8e	-0.16948912
234	0x3d0f9b07	0.035059955
235	0xbeb1f3ae	-0.34756225
236	0xbc8ebf53	-0.017425215
237	0x3e352b8d	0.17692395
238	0x3e55503f	0.20831393
239	0xbcc9bc44	-0.024625905
240	0x3e486688	0.19570363
241	0xbd73238e	-0.05936008
242	0xbe4f8e35	-0.20269091
243	0x3d3a92b0	0.04555005
244	0x3dbb18e8	0.0913561
245	0x3bd06706	0.0063599376
246	0x3dbf8b4f	0.09352743
247	0xbc63d2b2	-0.013905214
248	0xbdca6e68	-0.098843396
249	0xbda11ab8	-0.07866424
250	0x3da33de1	0.07970787
251	0x3c90de3d	0.017684096
252	0xbc6fb12d	-0.014629644
253	0x3e3249ac	0.17410916
254	0xbe26489a	-0.16238633
255	0x3d475dee	0.048673563

network_body._body_endoder.seq_layers.0.bias f4 [128]
0	0x3c309878	0.010778539
1	0x3cc3803a	0.023864854
2	0x3d369946	0.044579767
3	0xbb27e90a	-0.002562108
4	0x3ade5f9d	0.0016965751
5	0x3c3e4bea	0.011614779
6	0xbaa336e0	-0.0012452267
7	0x3cc63575	0.024195412
8	0xba68265e	-0.0008855815
9	0x3ca3fbda	0.020017553
10	0x3c275313	0.0102126775
11	0x3ccb06bd	0.024783487
12	0xbae0a44a	-0.0017138806
13	0x3ba3c8bc	0.0049982946
14	0x3c6748ae	0.014116449
15	0x3c8599c6	0.016308676
16	0x3d07795f	0.033074733
17	0xbb7ef9bc	-0.0038906178
18	0x3d002044	0.03128077
19	0x3b991c3d	0.0046725557
20	0xbaea96d5	-0.0017897735
21	0x3c884052	0.016632233
22	0x3ca66560	0.020312011
23	0x3c88d260	0.016701877
24	0x3bc76746	0.006085309
25	0x3bac64c1	0.0052610342
26	0xbb87ce9a	-0.004144502
27	0x3c8519b4	0.016247608
28	0x3ca31f80	0.019912481
29	0x3d251abc	0.0403087
30	0x3ce28e99	0.027655886
31	0x3cd9bbcf	0.026578812
32	0x3cd617ec	0.026134454
33	0x3d0b11f8	0.033952683
34	0x3aa73cac	0.001275917
35	0x3cd9335d	0.02651375
36	0x3bcb53a3	0.0062050386
37	0xbc6d523a	-0.014484936
38	0xbbdd3c1b	-0.00675155
39	0x3b90f514	0.004423747
40	0xbb37ebbd	-0.0028064095
41	0x3a9417e7	0.0011298627
42	0x3ce3bfce	0.02780142
43	0x3cc00c02	0.023443226
44	0xbc52de6f	-0.012870415
45	0xbcdae95b	-0.0267226
46	0xbbca1c98	-0.0061679594
47	0x3ca163cc	0.019700907
48	0xbc0d67ca	-0.008630702
49	0xbc709ded	-0.01468609
50	0xbc11b309	-0.008892783
51	0x3bfc79eb	0.0077049634
52	0x3cf90e77	0.030402405
53	0x3d09a241	0.033602003
54	0x3c072612	0.008248823
55	0x3b963178	0.004583534
56	0xbb988ae5	-0.0046552294
57	0x3c921ede	0.017836984
58	0xbb3c7ea6	-0.0028762012
59	0xbc123798	-0.008924387
60	0xbbd1762d	-0.0063922615
61	0x3c71c3dd	0.01475617
62	0xbc5d15db	-0.01349398
63	0xba23e337	-0.0006251814
64	0x3c5c8db8	0.013461523
65	0x3d105231	0.035234634
66	0x3cdc7a66	0.026913833
67	0x3c09710b	0.008388768
68	0x3d02a561	0.031896
69	0x3ce6aca4	0.028158493
70	0xbd43eca4	-0.0478331
71	0xbcd30d99	-0.02576332
72	0x3d08d372	0.033404775
73	0x3bbe7057	0.005811732
74	0xbc557cd6	-0.0130302515
75	0x39e216bb	0.00043123015
76	0x3d269e28	0.040678173
77	0x3cfeb46c	0.031091891
78	0x3c588aa2	0.013216646
79	0x3d11f1e8	0.03563109
80	0x3b5b00c9	0.0033417216
81	0x3c94b6f5	0.018153647
82	0xbc67e587	-0.014153845
83	0x3ce89f1e	0.028396185
84	0x3d3bab8d	0.0458179
85	0x3d14a720	0.036292195
86	0xbc06190e	-0.008184684
87	0x3cbb5940	0.022869706
88	0x3d28f96b	0.04125349
89	0xbb81c7af	-0.0039605717
90	0xb9e77f88	-0.00044154772
91	0x3cd8c029	0.026458817
92	0xbbc0517c	-0.0058690887
93	0x3ce21338	0.027597055
94	0x3cb1f981	0.021725418
95	0x3bbcde7c	0.005763827
96	0x3d8bf825	0.06834439
97	0x3ce7c8b7	0.02829395
98	0x3cf25d6a	0.029585559
99	0x3cb43079	0.02199577
100	0xbc3d2963	-0.011545512
101	0x3b144db8	0.0022629332
102	0x3c545c01	0.012961389
103	0xbba66ff2	-0.005079263
104	0x3d4b647f	0.049656387
105	0xbc286f20	-0.0102804005
106	0x3d1bf853	0.038078617
107	0x3c466b9e	0.012110619
108	0x3aef0054	0.0018234351
109	0xbc96dbca	-0.01841535
110	0xbb812a9d	-0.0039418475
111	0x3d1bb3d7	0.038013306
112	0xbc5708d8	-0.013124667
113	0xbc0695c9	-0.0082144225
114	0x3c0fbf9b	0.00877371
115	0x3c976f13	0.018485582
116	0xbab9e7a5	-0.0014183415
117	0xbc062104	-0.0081865825
118	0x3c9cb8b9	0.019131051
119	0x3c13e989	0.009027847
120	0x3bd3b444	0.0064606983
121	0x3c0d474e	0.008622957
122	0x3ce1e3e0	0.02757448
123	0x3cf9e3aa	0.030504066
124	0x3bbc7f6b	0.005752494
125	0x3cfd92bb	0.030953756
126	0x3d0ea4ad	0.034825016
127	0x3cca5094	0.024696626

network_body._body_endoder.seq_layers.2.weight f4 [128, 128]
0	0x3dd767bf	0.10517835
1	0x3d4a4fff	0.049392696
2	0x3b5988aa	0.003319303
3	0x3dd0aec7	0.10189586
4	0xbd4458eb	-0.04793636
5	0xbccad192	-0.024758134
6	0x3dc634ec	0.09678063
7	0x3db279b7	0.087146215
8	0x3c9ca941	0.019123675
9	0x3dd01143	0.101595424
10	0x3d14a1ab	0.03628699
11	0xbe21e791	-0.15810992
12	0x3d83df42	0.064390674
13	0x3dce51a3	0.10074165
14	0xbdad40c4	-0.08459619
15	0x3cf50712	0.029910598
16	0xbd953160	-0.07284808
17	0xbcf14e14	-0.029456176
18	0xbb0da578	-0.002161352
19	0x3ccfc844	0.025364049
20	0x3dc4ebec	0.09615311
21	0xbd82fb3b	-0.06395575
22	0x3d8813ba	0.066443875
23	0x3c8a048a	0.016847868
24	0x3bcf87bb	0.006333319
25	0xbcef2994	-0.02919463
26	0x3bea5abe	0.0071519306
27	0x3d099537	0.033589568
28	0x3c51b10f	0.012798562
29	0x3d6c8426	0.057743214
30	0x3dae8371	0.08521164
31	0x3becae99	0.007222962
32	0x3d8a6f52	0.06759514
33	0xbd4be9a7	-0.049783375
34	0x3da04985	0.07826523
35	0xbdbad697	-0.09122961
36	0x3d5d5542	0.054036386
37	0xbe3a1d2b	-0.18175189
38	0x3ce609a5	0.02808077
39	0x3d6d39c1	0.057916407
40	0xbd5f875d	-0.05457245
41	0x3c296698	0.010339402
42	0xbd84359b	-0.06455537
43	0x3befe814	0.007321367
44	0x3a2f211c	0.0006680654
45	0x3cfef9a8	0.031124905
46	0x3d5b6756	0.053565346
47	0xbdcaf42e	-0.09909855
48	0x3dbfe99d	0.0937073
49	0xbba76a93	-0.00510914
50	0xbd451def	-0.04812425
51	0x3dea4a0b	0.11439904
52	0xbdc57889	-0.09642131
53	0x3d825fdc	0.0636594
54	0xbe3ec1f1	-0.1862867
55	0x3cec8346	0.02887119
56	0xbd4c0543	-0.049809705
57	0x3e54676e	0.2074258
58	0x3cb32568	0.021868423
59	0xbde81c8a	-0.113335684
60	0x3df68ec6	0.120389506
61	0x3d87c3a6	0.06629114
62	0xbdb8807f	-0.09008884
63	0x3d5f6904	0.05454351
64	0x3c666d07	0.01406408
65	0xbcdc46bc	-0.026889198
66	0x3e0d7016	0.13812289
67	0x3c4a32e1	0.012341232
68	0xbd48d28a	-0.04902891
69	0x3d1e6c6f	0.03867763
70	0x3b5b2c8a	0.0033443295
71	0x3e194eca	0.14971462
72	0x3cc47a8a	0.023984212
73	0xbde94724	-0.11390522
74	0x3d1ee466	0.038792036
75	0x3d5895f8	0.052877396
76	0xbe2a89ce	-0.16654131
77	0xbe3221e5	-0.17395742
78	0x3c62f1bf	0.013851582
79	0xbda587a3	-0.08082511
80	0xbd1d5f70	-0.038421094
81	0x3c9288e9	0.01788755
82	0x3d20ac3c	0.039226755
83	0x3c5da2c4	0.013527576
84	0xbe379634	-0.17928392
85	0x3dbe4be9	0.092918225
86	0x3e85a50a	0.26102477
87	0x3d5fbf0f	0.054625567
88	0x3d1593e4	0.036517993
89	0xbc9c603f	-0.019088862
90	0x3e54bf96	0.20776209
91	0xbde0c1b8	-0.10974449
92	0x3dd879be	0.105700955
93	0x3dc75902	0.09733774
94	0x3d1f7a05	0.038934726
95	0x3d705af5	0.058680493
96	0xbce9d7f6	-0.028545361
97	0xbdfd8ca3	-0.1238034
98	0x3dc19cd4	0.09453741
99	0x3d1e5d22	0.038663037
100	0xbd8fa7eb	-0.0701445
101	0xbc0e97a2	-0.008703144
102	0xbd2a27da	-0.04154191
103	0x3d874208	0.06604391
104	0xbd3138f1	-0.043267194
105	0x3e09be54	0.1345151
106	0xbcb1e925	-0.021717617
107	0x3d2230a2	0.03959716
108	0x3c3f0c98	0.011660717
109	0x3d45eb36	0.048320018
110	0x3c5f2c93	0.013621467
111	0x3dd366c5	0.10322336
112	0xbe759c4e	-0.23985407
113	0xbddc20f4	-0.10748473
114	0x3d653f96	0.055968843
115	0x3da5a81c	0.08088705
116	0x3e16f865	0.14743192
117	0xbd9096ec	-0.07060036
118	0xbd6a7609	-0.057241473
119	0x3cd7490c	0.026279949
120	0xbb856d58	-0.0040718727
121	0xbd7ace2b	-0.061231773
122	0x3dd1f34e	0.10251485
123	0xbba0ada6	-0.004903513
124	0xbe0d315a	-0.13788357
125	0x3c2619e0	0.010138005
126	0xbd675194	-0.056474283
127	0xbd6e69b1	-0.058206264
128	0x3e47f48b	0.1952688
129	0xbe227a0e	-0.15866873
130	0xbd8f9163	-0.07010152
131	0xbc7f6cdd	-0.01558992
132	0x3d90e89a	0.07075615
133	0x3cd97c27	0.026548458
134	0xbc323f90	-0.010879412
135	0x3e03b53d	0.12862106
136	0xbd47fd01	-0.048825268
137	0xbdf87af9	-0.1213283
138	0x3e077b67	0.13230668
139	0x3d8ee9cb	0.06978186
140	0xbc8322b4	-0.016007759
141	0x3cf68d75	0.030096749
142	0x3d12e06e	0.035858564
143	0x3d854a8c	0.06508359
144	0x3baa308b	0.005193775
145	0xbd3b4ce1	-0.045727614
146	0x3d8b2378	0.067938745
147	0x3d6b7c3f	0.057491537
148	0x3d35f33c	0.04442142
149	0xbd3a5248	-0.045488626
150	0xbca51c1f	-0.02015501
151	0xbe2b5959	-0.16733302
152	0xbda8cb38	-0.08241886
153	0x3d93adaa	0.07210858
154	0x3dda9aed	0.10674081
155	0x3e808434	0.25100863
156	0xbd85f156	-0.06540172
157	0xbd04d85c	-0.0324329
158	0xbb37cfbc	-0.0028047403
159	0xbd7dd10c	-0.06196694
160	0x3d3a27be	0.045448057
161	0xbc90e687	-0.017688049
162	0xbdac6b29	-0.08418877
163	0xbe44da67	-0.19223939
164	0xbcd22f91	-0.025657447
165	0xbc86defd	-0.016463751
166	0xbc50c2a2	-0.012741717
167	0x3d8f87e4	0.07008341
168	0xbd5a7d98	-0.05334243
169	0xbe1145ee	-0.14186832
170	0x3df449ab	0.119281135
171	0x3dafc8d1	0.085832246
172	0x3c66da15	0.014090081
173	0xbc6da738	-0.0145052
174	0xbcb11f83	-0.021621471
175	0xbe4a726a	-0.19770208
176	0xbcde13a3	-0.027108973
177	0xbc5426ca	-0.012948701
178	0xbe6a6167	-0.22888719
179	0x3e5aa1ca	0.2135078
180	0xbe109008	-0.14117444
181	0x3de1735b	0.110083304
182	0xbd791fbe	-0.060821287
183	0x3d0c5ef4	0.03427024
184	0x3dcb9f41	0.09942485
185	0xbcd40860	-0.0258829
186	0xbdf3d63a	-0.11906095
187	0xbe20bf96	-0.15698084
188	0x3b05adde	0.0020397822
189	0xbdf8b46d	-0.121437885
190	0xbdb5c50d	-0.08875475
191	0x3c73d305	0.014881854
192	0xbcfae25f	-0.03062552
193	0x3e10f66a	0.141565
194	0x3c983233	0.018578624
195	0xbc40e5f1	-0.011773572
196	0x3dc2fd83	0.0952101
197	0x3d2ca443	0.04214884
198	0x3cf0aa60	0.029378116
199	0xbe3bd721	-0.18343784
200	0xbda87c8e	-0.08226882
201	0x3d49dceb	0.04928295
202	0x3e13eb8b	0.14445321
203	0xbd8bc062	-0.068238035
204	0xbb9fd3ec	-0.004877558
205	0xbde36abf	-0.111043446
206	0x3df18de9	0.11794645
207	0xbd29d395	-0.041461546
208	0x3d37a7fb	0.044837933
209	0x3e08a22a	0.1334311
210	0x3d3825ce	0.04495793
211	0xbcb6395f	-0.022244154
212	0x3df08a45	0.11745123
213	0xbddf2e59	-0.10897512
214	0xbde39b45	-0.111136
215	0x3d9351d3	0.07193341
216	0x3c97a919	0.01851325
217	0xbe2d60d7	-0.16931473
218	0x3cf0ce87	0.029395355
219	0xbe54db61	-0.20786811
220	0xbd8fb033	-0.07016029
221	0xbd1f7df5	-0.03893848
222	0xbc21d700	-0.00987792
223	0x3e20c663	0.15700679
224	0xbdde0867	-0.10841446
225	0xbe069a37	-0.13144766
226	0xbdcf2bd9	-0.10115785
227	0xbe1334d0	-0.14375615
228	0xbdee5e95	-0.11639134
229	0xbcf791b8	-0.030220851
230	0x3d6ff39d	0.058581937
231	0x3c914080	0.017730951
232	0xbd9c0735	-0.07618562
233	0x3dc79cc0	0.097466946
234	0xbc89dd48	-0.016829148
235	0x3d0866ab	0.033301037
236	0xbb6c329c	-0.0036040908
237	0x3d23c33c	0.039981112
238	0xbdfe9b70	-0.12431991
239	0x3d23ddd7	0.040006485
240	0x3e2aa752	0.1666539
241	0xbd1603f6	-0.03662487
242	0xbc30f29d	-0.010800031
243	0xbd2a9550	-0.0416463
244	0x3ce236cf	0.027614025
245	0x3d441678	0.04787299
246	0x3d80722f	0.06271779
247	0xbd11386d	-0.035454202
248	0x3d929b8f	0.07158577
249	0x3c540212	0.012939947
250	0x3c713da3	0.014724168
251	0xbd384aa5	-0.04499306
252	0x3cb1bccc	0.02169647
253	0x3de00d2c	0.10940012
254	0xbc373fec	-0.011184674
255	0xbd3b9bcf	-0.045802888

network_body._body_endoder.seq_layers.2.bias f4 [128]
0	0xbc04a4b1	-0.008095906
1	0x3c8b7998	0.017025754
2	0x3c8c981e	0.017162379
3	0x3c87fc2a	0.016599733
4	0x3bfe1d66	0.0077549694
5	0x3d17ff84	0.037108913
6	0x3c0681a4	0.00820962
7	0xbc204334	-0.0097816475
8	0x3c9a00d1	0.018799217
9	0x3ca3b86e	0.019985404
10	0x3ce6c5c6	0.028170478
11	0xbb04eb7f	-0.0020281968
12	0x3c2be0b4	0.010490585
13	0x3c24e115	0.010063429
14	0x3c0bf508	0.008542307
15	0x3c89e40d	0.016832376
16	0x3cfcaacd	0.030843163
17	0xbb76d0bf	-0.0037661043
18	0x3ce3160b	0.027720472
19	0x3d274fa4	0.040847436
20	0x3cfdcc2d	0.030981148
21	0x3c32a12d	0.010902685
22	0xbbc4883b	-0.0059976852
23	0x3b902310	0.004398711
24	0xbc2fa452	-0.010720329
25	0xbbed1ca1	-0.007236079
26	0x3ce7dc9c	0.028303437
27	0xbafb21ce	-0.0019159855
28	0x3c6f356b	0.014600138
29	0x3c9ae380	0.018907309
30	0xbc4e3140	-0.012584984
31	0x3c9f590a	0.019451637
32	0x3aafbd3c	0.0013407837
33	0xbc0ce093	-0.008598465
34	0xbcb7acd4	-0.022421278
35	0xbb982082	-0.004642547
36	0x3d225260	0.03962934
37	0x3baae739	0.005215552
38	0xbbbf5639	-0.005839136
39	0xbc0a9a4b	-0.008459638
40	0x3c8d0ee3	0.017219013
41	0xbc3fe3ce	-0.011712028
42	0xbc1bd61d	-0.009511498
43	0xbb82174d	-0.003970063
44	0x3cd781c6	0.026306998
45	0x3abfd9bd	0.0014637035
46	0xbbb34464	-0.0054707993
47	0xbc21d142	-0.009876551
48	0xbc636f3f	-0.013881504
49	0x3c5ff7ae	0.013669891
50	0x3c3a5e3d	0.011375007
51	0x3c950d20	0.018194735
52	0x3cd6c5cf	0.02621737
53	0xbbc2f589	-0.00594968
54	0xbc5633bf	-0.013073861
55	0x3c6ffcb4	0.014647651
56	0xbb285051	-0.0025682638
57	0x3cc7fb8c	0.02441194
58	0xbc4f92fb	-0.01266932
59	0xbc152996	-0.009104153
60	0x3d02d388	0.031940013
61	0x3b53e5a8	0.003233293
62	0xbc3b9644	-0.0114494
63	0xbbd8249a	-0.00659616
64	0x3ca99803	0.020702368
65	0x3c2eac65	0.010661219
66	0x3c6f914a	0.014622042
67	0x3cb1b08d	0.021690631
68	0xbba2b2dc	-0.0049651694
69	0x3c430d38	0.011905007
70	0xbb2b0902	-0.0026097898
71	0xbcaae1a9	-0.020859556
72	0xbb756477	-0.0037443915
73	0x3cd59e53	0.026076471
74	0xbc35b13c	-0.011089619
75	0xbb130fd6	-0.002243986
76	0x3bcbbede	0.0062178215
77	0x3c22b34d	0.009930444
78	0x3ba4fcf4	0.005035037
79	0xbc6a339c	-0.014294531
80	0x3d06ce67	0.032911684
81	0xbb6e42b6	-0.003635568
82	0xbcbf82ab	-0.023377737
83	0xbb6ad523	-0.0035832606
84	0xbc6cfc45	-0.014464443
85	0x3c285690	0.010274544
86	0xbbd2a470	-0.006428294
87	0xbb84b24e	-0.004049576
88	0x3ce0e873	0.02745459
89	0xbc536862	-0.012903305
90	0xbada7e09	-0.0016669641
91	0xbc85ac55	-0.016317526
92	0xbac3eaf6	-0.0014947343
93	0xbcb3a964	-0.021931358
94	0x3c4d9756	0.012548288
95	0x3cef712c	0.02922877
96	0x3d70cbfc	0.058788285
97	0xbb3530d5	-0.0027647514
98	0xbc358b1b	-0.011080529
99	0x3d00d43d	0.031452406
100	0x3cb8728d	0.02251556
101	0xbcb16b47	-0.0216576
102	0xbbb5ca5a	-0.005547804
103	0xbcb3e05a	-0.021957565
104	0xbc943669	-0.018092351
105	0x3c1074d3	0.008816916
106	0x3b417d04	0.0029523978
107	0xbc3f7859	-0.011686408
108	0x3c8ead2c	0.01741656
109	0x3c00d089	0.007862219
110	0x3c187a86	0.009306556
111	0x3a9b97e4	0.0011870828
112	0x3cdd78b3	0.027035093
113	0xbba5cf0f	-0.0050600837
114	0x3c6bc8a3	0.014391097
115	0xbc350780	-0.011049151
116	0x3c59e1e8	0.013298489
117	0x3c93d65d	0.018046552
118	0xbbf3b37d	-0.007437168
119	0x3cafac0c	0.021444343
120	0xba7b462d	-0.0009585347
121	0xbce705d9	-0.02820103
122	0x3c686427	0.014184034
123	0x3cc65f7c	0.024215452
124	0x3bc4b325	0.006002801
125	0xbcd8ba95	-0.026456157
126	0xba97c256	-0.0011578302
127	0x3ce413a0	0.02784139

action_model._continuous_distribution.log_sigma f4 [1, 2]
0	0xbdd6c4bd	-0.104867436
1	0xbda3130f	-0.079626195

action_model._continuous_distribution.mu.weight f4 [2, 128]
0	0xbd23259d	-0.039830793
1	0xbd4e66ee	-0.05039113
2	0xbd317c3a	-0.043331362
3	0xbd5569e4	-0.05210294
4	0xbd200e34	-0.039076045
5	0x3c4fd352	0.01268466
6	0xbcd5d6d8	-0.026103422
7	0xbd6adda5	-0.057340283
8	0x3dac6b15	0.08418862
9	0x3d819c25	0.0632861
10	0xbcd49412	-0.025949512
11	0xbd8410e7	-0.06448536
12	0xbcf9d457	-0.03049676
13	0x3c2bbb22	0.010481628
14	0xbce1eb40	-0.027577996
15	0x3d787d93	0.060666632
16	0xbc93140c	-0.017953895
17	0xbc9544be	-0.018221255
18	0xbd06630e	-0.03280931
19	0x3d586a0c	0.05283551
20	0x3d32ee29	0.04368416
21	0x3c7f745a	0.015591705
22	0x3945a521	0.000188489
23	0x3d001912	0.03127391
24	0xbc69bbf0	-0.014265999
25	0xbd15a73f	-0.03653645
26	0x3d3c2a39	0.045938704
27	0x3cdd355f	0.027002988
28	0x3d16e524	0.03683962
29	0xbae80b1b	-0.0017703505
30	0xbccd5f92	-0.025069986
31	0xbd00362d	-0.031301666
32	0xbd5dc5ba	-0.054143645
33	0x3c3fc698	0.011705063
34	0xbb9a6b88	-0.0047125258
35	0xbcd003a1	-0.025392355
36	0x3d1063ea	0.035251535
37	0xbc82d5f8	-0.015971169
38	0xbd568dbf	-0.052381273
39	0xbb21ed8e	-0.0024708244
40	0x3c20afea	0.009807566
41	0x3c8f752c	0.017511927
42	0xbbf52e99	-0.0074823615
43	0x3c2ec5d1	0.01066728
44	0x3d8e29c9	0.06941564
45	0x3bc65874	0.006053025
46	0xbb0a0625	-0.0021060791
47	0x3bd70b8d	0.0065626563
48	0xba7ddeb0	-0.0009684367
49	0xbb0fb512	-0.0021927995
50	0xbd2aa47b	-0.041660767
51	0x3d6de0bd	0.058075655
52	0x3d850f92	0.064971104
53	0x3ca70e35	0.020392517
54	0x3c36cf41	0.011157812
55	0xbceb40bd	-0.028717393
56	0xbd0433e5	-0.032276053
57	0x3d4c7996	0.04992064
58	0x3bb18d60	0.0054184645
59	0x3ca41680	0.02003026
60	0x3c2b3e2e	0.0104518365
61	0xbd4e80ce	-0.050415806
62	0x3c5fcfeb	0.013660411
63	0x3b244783	0.0025067038
64	0x3a1a6670	0.0005889898
65	0xbd3dfb04	-0.046381965
66	0x3d91948f	0.071084134
67	0x3c138fb9	0.009006434
68	0x3ca9052f	0.020632355
69	0xbc37c373	-0.011216032
70	0xbcc6d5e9	-0.024271922
71	0xb9c911d9	-0.00038351005
72	0x3a3f378d	0.00072943495
73	0x3d55e14d	0.052216817
74	0xbc8e03ad	-0.017335737
75	0xbc808ccb	-0.015692135
76	0xbbddb52c	-0.006765982
77	0xbb33e05f	-0.0027446968
78	0x3ba27772	0.0049580866
79	0xbc8ca3f7	-0.017168028
80	0xbc847fa2	-0.016174141
81	0x3d0254d5	0.031819183
82	0x3b45ffa1	0.003021218
83	0xbcf52bb0	-0.029928058
84	0x3bb32831	0.0054674377
85	0x3cafbb3d	0.021451587
86	0xbd2a448f	-0.04156929
87	0xbc761869	-0.015020468
88	0x3d451fdc	0.048126087
89	0xbc0090de	-0.007847039
90	0x3ced0f72	0.028938029
91	0xbb14aae6	-0.0022684871
92	0x3cae9c12	0.021314654
93	0xbccdc4f6	-0.025118332
94	0x3d24b6ce	0.0402134
95	0xbc90d01a	-0.017677356
96	0x3cc359ac	0.02384647
97	0xbca9b174	-0.020714499
98	0xbc076f2e	-0.008266253
99	0x3d701b72	0.058619924
100	0x3d1197ba	0.03554509
101	0xbd08cdb5	-0.033399303
102	0x3c5223b2	0.012825893
103	0xbd1f38cb	-0.03887252
104	0xbb8b81c9	-0.004257415
105	0xbd085ad6	-0.033289753
106	0xbc98058c	-0.018557332
107	0x3c6ad6ba	0.014333421
108	0xbc614b45	-0.013750856
109	0xbd09a9d4	-0.033609226
110	0xbd90fe9c	-0.07079813
111	0x3b4c49b0	0.003117185
112	0xbc4ec9dc	-0.012621369
113	0xbc0ff0dd	-0.008785454
114	0xbd9df1cf	-0.07712137
115	0x3cae9298	0.021310136
116	0x3d49f8ba	0.04930947
117	0x3cc5390c	0.024075054
118	0xbd1137cd	-0.035453606
119	0xbd810885	-0.06300453
120	0xbd2be880	-0.041969776
121	0x3c914705	0.01773406
122	0xbb1dc66a	-0.0024074563
123	0x3d1d60f9	0.03842256
124	0x3cb1a237	0.021683795
125	0xbcc197b2	-0.023631904
126	0xba88870a	-0.0010416221
127	0x3d301c2f	0.042995628
128	0x3c6f4e72	0.014606105
129	0xbb618054	-0.0034408765
130	0xbd62dae1	-0.05538452
131	0xbbda6f1d	-0.0066660778
132	0xbcd7b462	-0.02633113
133	0xbdb9bc20	-0.09069085
134	0x3c3ea134	0.0116351135
135	0x3ccc1e80	0.024916887
136	0x3d5c5683	0.05379344
137	0x3c2cc8cf	0.010545923
138	0xbd298bc9	-0.041393075
139	0x3ccc9f21	0.024978222
140	0xbc031011	-0.007999436
141	0x3d8802e1	0.06641174
142	0xbc16e227	-0.009209192
143	0x3c7eb668	0.015546419
144	0xbda95bdb	-0.08269473
145	0x3ce8ead0	0.02843228
146	0xbd51a8ff	-0.051186558
147	0xbd4b44e3	-0.049626242
148	0xbd640c2d	-0.055675674
149	0xbbaa5510	-0.0051981285
150	0x3ce5c7a3	0.028049296
151	0x3d997979	0.07493872
152	0x3d6c97f8	0.057762116
153	0x3d180c86	0.03712132
154	0xbca28f6d	-0.019843781
155	0x3c12d671	0.00896226
156	0x3be880f6	0.0070954515
157	0xbcf65c79	-0.030073391
158	0x3d34e6fc	0.044165596
159	0xbbd2bb73	-0.006431037
160	0x3d84b2a2	0.06479384
161	0x3b620dc6	0.0034493073
162	0x3c83ce56	0.0160896
163	0x3cb1dfc9	0.021713154
164	0xbd9d52f6	-0.07681839
165	0x3ca7303e	0.020408746
166	0xb8dafc64	-0.000104420615
167	0x3d17462f	0.036932167
168	0x3da1d565	0.0790203
169	0x3cda6fe5	0.026664684
170	0x3cd03c55	0.025419394
171	0x3db20cd0	0.0869385
172	0x3d441c10	0.047878325
173	0x3c2058d3	0.009786802
174	0x3d4d9899	0.050194357
175	0x3db2540e	0.087074384
176	0x3c5c96c1	0.013463677
177	0xbca043e5	-0.019563625
178	0x3d02a51c	0.03189574
179	0x3c089c11	0.00833799
180	0xbca286ad	-0.019839609
181	0x3d68db5d	0.056849826
182	0x3ca19ce7	0.019728137
183	0xbd19ffbf	-0.037597414
184	0x3b7ae0e7	0.0038281025
185	0xbbe991ca	-0.007127975
186	0x3b727bb2	0.0036999998
187	0x3d4aa67e	0.049475186
188	0xbd43b636	-0.04778119
189	0x3d15455b	0.036443096
190	0x3cf3952f	0.029734222
191	0x3c8c8750	0.017154366
192	0xbd50dd82	-0.050992496
193	0xbc8932b6	-0.016747814
194	0x3d603444	0.054737344
195	0xbd0572f3	-0.032580327
196	0x3ca4b0aa	0.020103771
197	0x3dada422	0.084785715
198	0x3b8b545c	0.004252
199	0x3b13b213	0.002253656
200	0x3d4f819b	0.05066071
201	0xbadd9ec6	-0.001690828
202	0x3bb3600d	0.0054740966
203	0x3da87fcd	0.08227501
204	0xbb8db318	-0.004324328
205	0x3b647a4b	0.0034862931
206	0x3b6d3f7f	0.0036201177
207	0x3ce041f8	0.027375206
208	0xbd13a43d	-0.0360453
209	0x3d18abb2	0.037273116
210	0x3ca1b1c7	0.019738091
211	0x3c77ba6b	0.015120129
212	0x3ca7bf65	0.020477006
213	0x3dba01de	0.090823874
214	0x3c659887	0.014013416
215	0xbb81ed7c	-0.003965078
216	0xbd071ad6	-0.032984577
217	0x3c31097d	0.010805485
218	0x3c570ca4	0.013125572
219	0x3d4aacac	0.04948108
220	0x3da3712e	0.07980572
221	0x3cba5a12	0.022748027
222	0xbc78acaf	-0.01517789
223	0xbdb1fb0a	-0.0869046
224	0xbd979929	-0.0740226
225	0x3c5631d3	0.013073402
226	0x3d2aa0b0	0.04165715
227	0xbd2acdd2	-0.04170019
228	0xbced2d72	-0.028952334
229	0xb9f90fa6	-0.0004750464
230	0x3b138c7d	0.0022514157
231	0x3bcfa80b	0.006337171
232	0x3cbf15fe	0.023325916
233	0xbc76250c	-0.015023481
234	0xbb45a901	-0.0030160549
235	0x3c8c6950	0.01714006
236	0xbc905d29	-0.017622547
237	0x3d9d7743	0.07688763
238	0x3d0fd91d	0.035119165
239	0xba21733b	-0.0006158833
240	0xbd97633f	-0.073919766
241	0x3d131f93	0.035918783
242	0xbc8dc1b6	-0.017304283
243	0x3c697063	0.0142479865
244	0xbc5051c2	-0.012714805
245	0xbd5f70ec	-0.05455105
246	0x3cbbaaef	0.022908656
247	0x3d1a0c69	0.03760949
248	0xbc7a10ad	-0.015262765
249	0x3d04178f	0.03224903
250	0xbc48e42e	-0.0122614335
251	0x3a9cd59c	0.0011965516
252	0x3ca510d2	0.020149622
253	0xbc2d6f32	-0.010585593
254	0x3d7055ac	0.058675453
255	0xba9fd8e5	-0.0012195377

action_model._continuous_distribution.mu.bias f4 [2]
0	0x3ba18a55	0.0049298205
1	0xbc9d4396	-0.019197267

action_model._discrete_distribution.branches.0.weight f4 [2, 128]
0	0x3bc7b597	0.0060946452
1	0x3c6a2661	0.014291377
2	0x38b19a2b	8.468734e-05
3	0x3ac3dec3	0.0014943708
4	0x3bfa06fb	0.0076302267
5	0xbc81246b	-0.015764436
6	0xbc5be010	-0.01342012
7	0x3beab305	0.007162454
8	0xbcadb276	-0.02120326
9	0xbbfd6086	-0.0077324538
10	0x3bcb3a5d	0.006202026
11	0xbc1013e5	-0.008793806
12	0xbbc74fe1	-0.0060825204
13	0xbb120157	-0.002227863
14	0x3c91d50c	0.017801784
15	0xbc3cdb3c	-0.011526879
16	0x3bdfc4d2	0.0068288827
17	0xbb5fa742	-0.0034126793
18	0x3c37d1e6	0.011219477
19	0xbbd1cd59	-0.006402653
20	0xbb7aa53f	-0.0038245467
21	0xbc898fa0	-0.016792119
22	0xbbd41bec	-0.006473055
23	0x396e704b	0.00022739281
24	0xbba46a40	-0.005017549
25	0x3c3967e4	0.011316273
26	0xbc92db01	-0.017926695
27	0xbc492c1d	-0.012278584
28	0xbb9e4d5c	-0.0048309993
29	0xbc4dd7d5	-0.012563665
30	0x3bae5a12	0.005320796
31	0xba017a4e	-0.00049391843
32	0x3b42f35d	0.0029747107
33	0xb9be064c	-0.00036244316
34	0xbc3b66e9	-0.01143811
35	0x3cd4bc08	0.025968567
36	0xb85bf482	-5.2441384e-05
37	0xbc3245a8	-0.010880865
38	0x3c821790	0.015880376
39	0xbbb91326	-0.0056480346
40	0x3c03872e	0.008027835
41	0xbc992777	-0.018695576
42	0x3ab5b9bd	0.0013864558
43	0xbc54c02e	-0.012985272
44	0xbc8ff386	-0.017572176
45	0xbb8723e3	-0.004124151
46	0x3bce3796	0.0062932475
47	0xbc7ace16	-0.015307924
48	0xbc546361	-0.012963147
49	0xbc47838b	-0.012177358
50	0x3c7d5ab5	0.015463521
51	0x3c1e4584	0.0096601285
52	0xbc72a55a	-0.014809931
53	0x3b457a0e	0.0030132565
54	0x3c2757e2	0.010213824
55	0xbb463927	-0.0030246468
56	0xbbafc229	-0.005363722
57	0x3c74f44f	0.014950826
58	0x3bc21e30	0.005924009
59	0x3c3b576a	0.011434415
60	0x3c00689a	0.007837439
61	0x3c3bf35a	0.011471594
62	0x3c6e13e5	0.01453111
63	0x3c562f36	0.013072779
64	0x3ba5727d	0.0050490485
65	0x3ca7609e	0.020431813
66	0xbc706a57	-0.014673791
67	0xbc972b0d	-0.018453145
68	0x375a392c	1.3007124e-05
69	0xba8b6d31	-0.00106374
70	0xbb5cf9f3	-0.0033718317
71	0xbbb48996	-0.0055095656
72	0xbca09b0c	-0.019605182
73	0xbc384459	-0.011246764
74	0x3c4a9154	0.0123637505
75	0xbc9d4583	-0.019198185
76	0x3be71ad6	0.0070527596
77	0xbc89f49c	-0.016840272
78	0xbc0b9d23	-0.008521351
79	0x3bc80eca	0.0061052786
80	0x3a9af7f5	0.0011823165
81	0xbc217072	-0.009853469
82	0x3bb56698	0.005535912
83	0x3baae3ab	0.0052151284
84	0xbac65932	-0.0015132783
85	0x3c09081b	0.008363749
86	0xbac10978	-0.0014727553
87	0xbc3efe65	-0.011657332
88	0xbb43fa63	-0.002990388
89	0xbbaf4522	-0.0053488174
90	0xbc3f339d	-0.01167002
91	0x3b88b724	0.0041722227
92	0xbc9f5d30	-0.019453615
93	0xbc3969bb	-0.011316712
94	0x3c103bc6	0.008803314
95	0xbc0af38e	-0.0084809195
96	0xbbf0cc65	-0.0073485845
97	0xbca312f6	-0.019906502
98	0xbbac946a	-0.005266716
99	0xbcc79737	-0.024364097
100	0xbc2ab3e5	-0.010418867
101	0x3c7c9e05	0.015418534
102	0x3bb4a87a	0.005513248
103	0x3bdc246c	0.006718209
104	0x38d107ee	9.9673736e-05
105	0x3c40f515	0.011777182
106	0x3c808d08	0.015692249
107	0x3b4beb40	0.0031115562
108	0xbba58513	-0.005051264
109	0xbbd3eb3f	-0.0064672525
110	0x3c0f4192	0.0087436605
111	0xbc69d834	-0.014272738
112	0xbb09a54d	-0.0021003068
113	0xbc8d6113	-0.017258203
114	0x3c1b0b13	0.0094630895
115	0xbc1d82fc	-0.009613749
116	0xbc47c0eb	-0.012191991
117	0x3c281a93	0.010260242
118	0x3c65d481	0.014027716
119	0x3c43af64	0.011943672
120	0x3bb256b7	0.005442466
121	0xba2ac73c	-0.00065146736
122	0xbbc57cbb	-0.006026832
123	0xbbdae42d	-0.0066800327
124	0xbb8f512b	-0.0043736896
125	0xba8654d2	-0.0010248667
126	0x3bfa5500	0.0076395273
127	0x3c3a5064	0.011371706
128	0xbbde3e31	-0.006782316
129	0xbb8ce797	-0.0043000686
130	0x3ca0a137	0.019608123
131	0xbbc0ac0e	-0.0058798855
132	0xbc4accbb	-0.012377913
133	0xbb969fd4	-0.0045966897
134	0x3c0df8a5	0.0086652385
135	0x3beb333a	0.0071777375
136	0x3d1e74c3	0.03868557
137	0xbc2b1d3a	-0.01044398
138	0x39e38784	0.0004339778
139	0x3bf0bbff	0.0073466296
140	0x3c3a5435	0.011372616
141	0x3c2d6f12	0.010585563
142	0xbc0150ec	-0.007892828
143	0x3c5d9316	0.013523838
144	0xbc3965c1	-0.011315764
145	0xbb7b1c33	-0.0038316369
146	0xbbec7366	-0.007215905
147	0xbb2a2cfe	-0.002596676
148	0xbc8a8aae	-0.01691183
149	0x3c7d5886	0.015463
150	0x3bb9eed8	0.0056742243
151	0xbbfb03be	-0.007660358
152	0x3b6b1d3e	0.0035875584
153	0xbb23aa9f	-0.0024973524
154	0xbbc1eb6d	-0.0059179575
155	0x3b64fb8a	0.0034939968
156	0xbbd23e20	-0.0064160973
157	0x3cc99e3f	0.02461159
158	0xbc4506f2	-0.012025582
159	0x3bf76561	0.007549927
160	0x3a95e254	0.0011435249
161	0x3c1e397f	0.009657263
162	0xbc8f4c66	-0.017492484
163	0xbbc9430b	-0.0061420253
164	0x3ad6b192	0.0016379824
165	0xbc411878	-0.011785619
166	0xbc19348b	-0.009350906
167	0x3c2f660d	0.010705483
168	0xbb4dc392	-0.0031397087
169	0xbbb8b115	-0.005636344
170	0x3a3c535e	0.00071840535
171	0x3c32f5ee	0.010922892
172	0x3c3aa1d5	0.011391123
173	0x3c888c78	0.016668543
174	0x3b0c204d	0.0021381557
175	0x3c5bb3e9	0.013409593
176	0x3c3a201a	0.011360193
177	0x3b2f1198	0.0026713368
178	0x3c81c752	0.015842114
179	0x3af96f23	0.0019030314
180	0xbb1c883e	-0.0023884918
181	0xbc42cc4c	-0.0118895285
182	0x3a70d575	0.0009187081
183	0xbb697fd6	-0.0035629175
184	0x3bfb6b1c	0.0076726805
185	0xbc44c015	-0.012008687
186	0xbaf5ee45	-0.0018763026
187	0xbaaced22	-0.001319323
188	0x3c4b1bff	0.0123968115
189	0xbb76cbbf	-0.0037658063
190	0x3b6ccf89	0.0036134443
191	0x3c244baf	0.01002781
192	0xbb2bcd20	-0.0026214793
193	0xbc941301	-0.018075468
194	0x3ca4e920	0.020130694
195	0x3cce98af	0.02521929
196	0x3b7d398a	0.0038639032
197	0x3a89848d	0.0010491774
198	0xbc642da4	-0.013926897
199	0xbb883d91	-0.00415773
200	0x3c3575a9	0.011075416
201	0x3c9cc5ec	0.019137345
202	0xbc80705b	-0.015678575
203	0x389dc0c0	7.522246e-05
204	0xba8de3e3	-0.0010825362
205	0x3c800442	0.01562703
206	0x3cd4aaec	0.025960408
207	0xbbb90dfb	-0.0056474186
208	0x3baed1dc	0.005335076
209	0xbb48b204	-0.0030623684
210	0x3b6e9e8c	0.003641042
211	0x3cb50ad2	0.022099886
212	0xbb67de14	-0.0035380172
213	0x3ab6f9c4	0.0013959934
214	0xbae05018	-0.0017113714
215	0x3c1b6795	0.009485145
216	0xbba77173	-0.0051099597
217	0x38167b8e	3.5877856e-05
218	0x3c7c7988	0.015409835
219	0xbbc3af36	-0.0059718145
220	0xb97abc58	-0.00023912021
221	0x3c259f58	0.010108791
222	0x3b5fc070	0.0034141801
223	0x3acb4da2	0.0015510807
224	0x3a02c6eb	0.00049887475
225	0x3b84d64b	0.004053866
226	0xb9f99f86	-0.00047611835
227	0x3c3e5e26	0.011619126
228	0x3b8ff7a8	0.0043935366
229	0x3bb3f075	0.005491311
230	0xbc1ab3ee	-0.009442313
231	0xbbe5e264	-0.0070155133
232	0xba895707	-0.0010478207
233	0x3c2e06ce	0.01062174
234	0xbac2c4bf	-0.001485966
235	0x3c52aaf3	0.01285814
236	0xba3ca748	-0.00071965577
237	0x38ee3e3b	0.00011360316
238	0xbc9b7a6f	-0.01897928
239	0x3b3538a0	0.002765216
240	0x3c791d23	0.015204701
241	0x3cb95d27	0.022627426
242	0xbcb9f2c4	-0.022698767
243	0xbc74956c	-0.014928203
244	0xbbbbec49	-0.0057349545
245	0xbba20524	-0.0049444605
246	0xbc881168	-0.016609862
247	0xbbebd128	-0.007196564
248	0x3aae14fa	0.0013281398
249	0xbc4559ba	-0.012045318
250	0xbc6f1aec	-0.014593821
251	0x3c00d5e5	0.007863496
252	0x39244e20	0.00015669363
253	0xbc4af046	-0.012386387
254	0x3bba85c1	0.0056922142
255	0x3a2e69db	0.0006653347

action_model._discrete_distribution.branches.0.bias f4 [2]
0	0xbb20c355	-0.002453049
1	0x3b20c354	0.0024530487

action_model._discrete_distribution.branches.1.weight f4 [2, 128]
0	0x3bd40ff9	0.0064716307
1	0xbc74e0c2	-0.014946165
2	0x3c9aa0be	0.018875476
3	0x3c47381f	0.012159376
4	0x3bc1a04f	0.005909003
5	0x3d02f589	0.03197244
6	0x3c19b84e	0.009382321
7	0xbbb460f7	-0.005504723
8	0x3c1331ab	0.00898401
9	0xbbc5aac5	-0.00603232
10	0x3cccd637	0.02500449
11	0x3b0e028b	0.0021668996
12	0xbc82c07e	-0.015960928
13	0xbb4ad487	-0.003094943
14	0x3c909f70	0.01765415
15	0x3c92e84d	0.017933035
16	0x3c47966d	0.01218186
17	0x3b874d89	0.004129116
18	0x3d03eb2d	0.032206703
19	0xbc2b30c6	-0.01044864
20	0xbbca6a4a	-0.0061772214
21	0x3c0d897e	0.008638738
22	0x3c0088d0	0.007845119
23	0x3c0f19b6	0.008734157
24	0x3b4517e9	0.0030074066
25	0x3b902bc4	0.0043997485
26	0x3a893491	0.0010467937
27	0xbae5705a	-0.0017504797
28	0x3cc1a933	0.02364025
29	0x3cce9b98	0.025220677
30	0xbbf8fa65	-0.0075982087
31	0x3c440feb	0.011966686
32	0x3b4c4c0f	0.0031173264
33	0xbb13be39	-0.0022543801
34	0xbb658daa	-0.0035027065
35	0x3c0b5571	0.008504258
36	0x3c00e94b	0.007868121
37	0x3c908d36	0.01764546
38	0x3ba018d5	0.0048857727
39	0x3c9834e6	0.018579911
40	0x3c8447d6	0.016147535
41	0xbc2c254f	-0.010506942
42	0x3afc99b7	0.0019271885
43	0x3b04ad17	0.002024477
44	0x3c83d2da	0.016091753
45	0x3bc60314	0.0060428474
46	0xba22ab8d	-0.00062053726
47	0x3bd7271c	0.0065659415
48	0x3c10759f	0.008817106
49	0x3c8b6b12	0.017018829
50	0x3c3d8fdf	0.011569946
51	0x3c8ffa2d	0.017575348
52	0x3c2987e4	0.01034734
53	0x3aacfafc	0.0013197358
54	0xbb7d904b	-0.0038690742
55	0x3c18b4d0	0.009320453
56	0x3b4d976d	0.0031370774
57	0xbbb696b6	-0.0055721654
58	0x3c2bf377	0.010495058
59	0xb97d9076	-0.00024181776
60	0x3bc0d7ab	0.0058850846
61	0xbc901771	-0.017589303
62	0xbc75392d	-0.014967245
63	0x3c468398	0.012116335
64	0x3c9a05f9	0.018801676
65	0xbce5c868	-0.028049663
66	0xbc5bebd3	-0.013422924
67	0x3a934ae1	0.0011237526
68	0xbc3f1aaa	-0.011664072
69	0xbbf9d408	-0.007624153
70	0x3c80e262	0.015732948
71	0x3ae732c0	0.0017639026
72	0xbc70cb02	-0.014696838
73	0x3c1256ac	0.008931797
74	0xbc3d79c7	-0.0115646785
75	0x3bcf42dd	0.0063251094
76	0xbc519233	-0.012791204
77	0x3b906c15	0.0044074156
78	0x3cb8a4fd	0.02253961
79	0xbbcb81b3	-0.0062105297
80	0xbc185017	-0.009296439
81	0x3b551f40	0.0032519847
82	0xbc68cf93	-0.014209646
83	0x3b8aa566	0.004231143
84	0xbb3d6238	-0.0028897654
85	0x3b43affa	0.002985953
86	0x3c1ef61b	0.009702231
87	0xbc337289	-0.0109526
88	0xba826f14	-0.0009951317
89	0xbbf9b473	-0.007620388
90	0xb9d19947	-0.00039977787
91	0xbc30602d	-0.010765118
92	0x3ce91357	0.028451605
93	0xbc58234b	-0.013192008
94	0xbc6c573d	-0.014425096
95	0x3d13f7a5	0.036124844
96	0x3c5ad091	0.01335539
97	0xbc501deb	-0.0127024455
98	0xb98f1bd5	-0.00027295822
99	0x3d0f2dd8	0.03495583
100	0x3a64a047	0.0008721393
101	0xbca97dfa	-0.020689953
102	0xbc61e88e	-0.0137883555
103	0xbc27ee20	-0.0102496445
104	0xbbb77595	-0.0055987337
105	0xbc6b7cc9	-0.014373013
106	0x3c9cd1e6	0.019143056
107	0x3b882068	0.0041542538
108	0x3be29a5e	0.0069153747
109	0xbc44cfdf	-0.012012451
110	0xba96a4a3	-0.0011493157
111	0xbab297d0	-0.0013625566
112	0x3ca8c2cb	0.020600697
113	0x3c41f098	0.011837147
114	0x3c02d8a6	0.007986223
115	0xbcad17f0	-0.021129578
116	0x3c164c98	0.009173535
117	0xbbdae140	-0.006679684
118	0x3aac7982	0.0013158771
119	0x3d0bc60e	0.034124427
120	0x3a851c4f	0.0010155531
121	0x3b845b88	0.0040392317
122	0x3c2a66cc	0.010400485
123	0x3b8b3702	0.004248501
124	0x3b796b4c	0.0038058339
125	0x3b8dd668	0.0043285377
126	0x3a1c3abf	0.00059596816
127	0x3c8f3698	0.017482087
128	0xbaf3f09d	-0.0018611137
129	0xbc1a83c2	-0.009430828
130	0xbc354eb6	-0.011066129
131	0x3b8d29c2	0.0043079564
132	0xbc0211b3	-0.00793879
133	0xbc94cd9a	-0.018164445
134	0xbb11c4ba	-0.0022242502
135	0x3c0e55ef	0.00868748
136	0xbcd28fde	-0.025703367
137	0x3c2d40fe	0.010574577
138	0xbcaca070	-0.021072596
139	0xbbf330af	-0.007421575
140	0x3ad1b4d0	0.0015999321
141	0xbc8e8bd6	-0.017400663
142	0xbc9d6abd	-0.019215936
143	0xbcccfcd1	-0.025022896
144	0xbcbc42e5	-0.022981117
145	0xbb9af8d5	-0.00472937
146	0xbce7f4f5	-0.028315047
147	0x3c9b1201	0.018929483
148	0x3bc0708c	0.0058727916
149	0xbb8304db	-0.0039983816
150	0xbb9fd5ce	-0.0048777824
151	0xbbcfbe24	-0.006339805
152	0xbb6c185f	-0.0036025268
153	0xbc6361f3	-0.013878333
154	0xbc0386bd	-0.00802773
155	0x3c39eeba	0.011348421
156	0x3c125a07	0.008932597
157	0xbc880910	-0.016605884
158	0xbbed67d2	-0.0072450424
159	0x3a4d93fe	0.0007842182
160	0xbbfdb95b	-0.0077430434
161	0x3c840edf	0.016120372
162	0xbc3b125e	-0.011417953
163	0x3c6c6446	0.014428204
164	0xbc13838d	-0.009003532
165	0xbd158a53	-0.03650887
166	0xbc3932fd	-0.01130366
167	0xbb3b37fa	-0.00285673
168	0xba16371c	-0.0005730258
169	0xbc087570	-0.0083287805
170	0x3bfadc39	0.007655647
171	0xbb8a4940	-0.004220158
172	0xbc7a8d41	-0.015292467
173	0xbcb47ced	-0.022032226
174	0x3bd7b492	0.006582805
175	0xbb7ed801	-0.0038886073
176	0x3bf3d46c	0.007441094
177	0xbbf0bed3	-0.007346967
178	0x3c9cfcb7	0.019163473
179	0xbbfa1dc0	-0.007632941
180	0xbaf2199e	-0.0018470769
181	0xbafda1ed	-0.0019350626
182	0xbc18c9b6	-0.009325435
183	0x3bfb8ba7	0.00767656
184	0xbcb1bde3	-0.02169699
185	0x3bafd5ab	0.0053660474
186	0x3bfe82b0	0.007767044
187	0x3b13e0b1	0.0022564346
188	0xbbcb1ce4	-0.0061985124
189	0x3c0553c6	0.008137649
190	0x3c98ff5d	0.018676454
191	0xbc858b84	-0.016301878
192	0xbc388cd9	-0.011264049
193	0x3b95e73c	0.0045746844
194	0xbcbc930d	-0.023019338
195	0xbc8f8a0b	-0.017521879
196	0x3bafde07	0.005367044
197	0x3bcdb7b1	0.0062780012
198	0xbb3b72e6	-0.002860242
199	0x3bffe613	0.0078094094
200	0x3a9c7873	0.0011937752
201	0x3c36b1b4	0.011150766
202	0xbb8e109f	-0.0043354775
203	0x3bea0e84	0.0071428437
204	0xbb890422	-0.004181401
205	0x39a39d72	0.0003120709
206	0xbb518c2e	-0.0031974423
207	0xbbac8727	-0.005265135
208	0x3c8e3805	0.017360697
209	0xbc1355e9	-0.008992651
210	0x3c2cc8f6	0.01054596
211	0x3c288a10	0.010286823
212	0xbc2e2518	-0.010628961
213	0x3ca3fc5f	0.0200178
214	0xbb9daaeb	-0.004811635
215	0x3c3c475b	0.011491622
216	0xba12e36d	-0.0005603347
217	0x3c59be0c	0.01328994
218	0x3b4fb6eb	0.003169472
219	0x3bb473d4	0.005506972
220	0xbb13ca82	-0.0022551124
221	0x3c876e65	0.016532132
222	0xbc1cc2aa	-0.009567896
223	0xbc9d9ebc	-0.01924073
224	0xbc86c668	-0.01645203
225	0xbc826e1e	-0.015921649
226	0xbc0aa4f5	-0.00846218
227	0xbc51946f	-0.012791737
228	0xbb916bf6	-0.004437919
229	0x3c180743	0.009279075
230	0xbae10f2b	-0.0017170658
231	0x3c0d8a0d	0.008638871
232	0xbb7c6579	-0.003851263
233	0x3b6b2682	0.0035881107
234	0xbbe387a8	-0.0069436617
235	0x3ba18464	0.0049291123
236	0xbc663060	-0.014049619
237	0xbc39ce73	-0.011340725
238	0xbb8dfbb2	-0.004332983
239	0xbb4a44b0	-0.0030863695
240	0xbbda10cf	-0.006654836
241	0x3c966274	0.018357493
242	0x3c0e4b79	0.008684986
243	0x3cabf59a	0.020991135
244	0xbc604d1e	-0.013690261
245	0x3ab2f554	0.0013653436
246	0x3aa7ba29	0.0012796569
247	0xbc73bb2e	-0.01487617
248	0xbbb3fa2b	-0.005492469
249	0x3c10b6fc	0.008832689
250	0x3b84150c	0.0040308293
251	0xbb472e30	-0.003039252
252	0x3b2e665a	0.00266113
253	0x3cc06e7a	0.02349018
254	0xbbde9eb0	-0.0067938194
255	0x3b36be8e	0.0027884576

action_model._discrete_distribution.branches.1.bias f4 [2]
0	0x3c10d095	0.008838792
1	0xbc10d09a	-0.008838797
