Assets/Models/FinalLevelRayPerception/BoxWirdNichtFreezed.onnx (onnx, 462767 bytes, 12 tensors)

discrete_act_size_vector f4 [1, 2]
00000000: 0000 0040 0000 0040
2.0 2.0

network_body._body_endoder.seq_layers.0.weight f4 [256, 184]
00000000: 33b7 8cbe 2f86 0fbe 453c 6fbe a710 663e
00000010: f0ea 53be d0bd 06be 0350 963d 0f0f ca3c
00000020: 539c 2abe b917 52bb bea5 acbe 4ec1 733e
00000030: 9b4c 80be 1ed1 e2bc b198 83bd 9ef4 a63c
00000040: 6464 60be dd64 68bd 4ddb ac3c ace2 5abc
00000050: 2bf8 e3bd 3995 29bd d70b 343e 3710 1cbe
00000060: c32e d93d 8024 f3bd 5490 eabd 4151 973d
00000070: cfda 743c d158 20be c566 2b3d bd4e eebc
00000080: fdfc 4fbe 1998 48be ef3a c93c 19f3 83bc
00000090: 24db 743e 55cc 69bd 0065 113e 8dea b1bd
000000a0: 1aa7 c73d 10a8 3fbe f185 083e 2db4 ccbd
000000b0: add8 703b d793 f43c 5d0c 3fbd c384 8abb
000000c0: f683 97be 6d8b 23be db99 50be 7795 813d
000000d0: a6e9 9abc cb24 40bd 1aaf dc3d d40d 183d
000000e0: 604b df3d ba84 62ba f53a 80bd 480f 1a3d
000000f0: 9dc3 da3c a1e0 31be 5e24 d43b abe5 00bd
00000100: 146e a8be 89a9 eabe 6af1 a3bd e9f5 f13b
00000110: fcfa c9bd 274f a83c a63c 3e3e 5435 d23d
00000120: a6e4 423e 77d3 9c3d 213a 87bd e7e1 153d
00000130: 6818 febd 2212 17be 40a1 4abe 1667 efbd
00000140: 203c bcbe 6bd5 bebe ccee 293d 7694 273b
00000150: 5237 de3c 7582 d03d b63a 8c3e 1f9b 233e
00000160: 68f6 313e 5960 793e 1a3b 03bd 7d30 663d
00000170: 0aa2 02be 75d4 c2bd e33f 54bd 4c1b a2be
00000180: 16c4 0abe 8e98 efbe b583 14be 06a3 b9be
00000190: 13b8 52bd adc3 b73d 9c3c 893d f1ac bf3d
000001a0: 46d2 ab3d e3d9 163e 85e7 493e 1ac2 aa3d
000001b0: eca8 b23d 96b8 01be 54fd 57be 61be 0cbd
000001c0: 0e52 54be 0347 a1be 9db2 5c3e 6c27 35bd
000001d0: 5893 bd3d 2e7d bfbd 690e a83d 1a51 523d
000001e0: 9583 db3c 2572 633e 0e0b 12bc 2c04 ec3c
000001f0: 587a d73d 495d 0abe 84df d3bd 11bc 12bc
00000200: 4921 60be 7477 82be 6ab3 71be b6c8 93be
00000210: eafe 183e 8d44 32be 725a 2a3e 0bb2 dd3d
00000220: a817 823c 8f6c 813e 2441 283d 484a 113e
00000230: 470a cf3d f662 d7bd 7e4a 09bd a528 f83d
00000240: bace abbe 11f3 2ebe b1da a5bb ff60 18be
00000250: 03fe a63e dae8 77be c6a7 2f3b ab39 5fbc
00000260: 2193 693e 6915 163e 6bb1 8ebd ac15 fe3c
00000270: 0097 513e a1c7 2abe 947a 74be 32bc 01bd
00000280: d291 9ebe a24b f1bd 3380 0a3e 4893 c4be
00000290: 5414 c13d f745 ffbd 341b c9bb 27ba e23d
000002a0: d8b0 efbd 0934 463e d603 68bd 42b3 603e
000002b0: e511 a03e fbf7 5a3e a321 b2bd 9138 50be
000002c0: b219 f2bd d3f6 0ebd 0d63 933c b7d0 ab3d
000002d0: 1d19 02bd 7488 a0bd 2961 c2bd a2bb 9cbd
000002e0: 6cf7 08be 9ee8 59be 0c69 593e b2a5 bebb
000002f0: cadb cebc de76 a73d 877e 853d 4f02 023e
00000300: 4359 213d 5f22 28bd 61d9 ce3e 2664 123e
00000310: 37f1 a2bd 775d 563e 150b 56be 28d0 a139
00000320: fb9c 42be b50b 3fbe 6023 4a3e 50d5 803d
00000330: beee aa3c 9fd4 89bd f8c2 8c3c f328 54bd
00000340: 8698 59bc 52c5 c83b 8257 2c3e e298 c43c
00000350: 37de 26be 41d9 513e ef31 d03c b608 8a3d
00000360: 7ffd 4dbe fd8a c0be ef45 763c 02aa 913c
00000370: 0c68 613e d4aa 193d 52ce c23d c1b2 783d
00000380: 4b5b 29bd de18 763d 7b3c cf3d 47e0 4b3e
00000390: bb93 92bd 2986 e33d c796 73bd 89ce d1bd
000003a0: 3084 93bd f8ab c0be edd0 493b 381e a3bc
000003b0: 3055 8d3e 9ef9 9b3d 9602 863c a783 ed3d
000003c0: 119d ddbd 2bbf dabb 0599 893d 216c 353e
000003d0: 18a3 93bd c0ac f13d cab9 31bd 4ff9 e8bc
000003e0: e460 b43d b42f 99be f300 a0bd ee85 b63d
000003f0: ccd7 123e 817f c33c e78a 393e c3de 153d
-0.2748352 -0.1401603 -0.23362835 0.2246729 -0.2069509 -0.13158345 0.0733948 0.024665384
-0.16661195 -0.0032057597 -0.337202 0.23804209 -0.25058445 -0.027687605 -0.06425608 0.020380314
-0.21913296 -0.056736816 0.021100665 -0.013359707 -0.11131319 -0.041402075 0.17582642 -0.1524056
0.10604622 -0.11872196 -0.1145331 0.07388545 0.014944746 -0.15658881 0.041846056 -0.02909028
-0.20311351 -0.1958927 0.024564235 -0.016107129 0.2391172 -0.05707963 0.14198685 -0.08687315
0.09748669 -0.18716455 0.13332345 -0.09995303 0.0036750243 0.029855652 -0.04664265 -0.004227252
-0.29592866 -0.15971155 -0.20371191 0.06327336 -0.01891024 -0.04691009 0.107755855 0.037122563
0.109030485 -0.00086409936 -0.06261245 0.03761223 0.026704604 -0.17370845 0.006474062 -0.03146903
-0.32896483 -0.4583247 -0.080050305 0.007384051 -0.098623246 0.020545555 0.18577823 0.10264078
0.19032535 0.07657521 -0.06602884 0.03659239 -0.12406999 -0.14753011 -0.19788074 -0.11689584
-0.36764622 -0.372722 0.0414875 0.0025570667 0.027125988 0.10181133 0.27388543 0.15977143
0.17379153 0.2435316 -0.032038786 0.056198586 -0.12757125 -0.09513179 -0.05181874 -0.3166145
-0.13551363 -0.46796077 -0.14503367 -0.3625719 -0.051445078 0.08972869 0.067010134 0.09359158
0.08389716 0.14731555 0.19717224 0.08337803 0.087236255 -0.1266807 -0.21092731 -0.034361247
-0.20734426 -0.3149949 0.2155251 -0.04422705 0.09256619 -0.09350048 0.082058735 0.051346876
0.026796142 0.22211511 -0.008913768 0.028810583 0.10521382 -0.13512148 -0.103453666 -0.008955971
-0.21887697 -0.2548176 -0.23603597 -0.28864068 0.14940992 -0.17408963 0.16636065 0.108249746
0.01588042 0.25278136 0.041077748 0.14188492 0.10109382 -0.10516922 -0.033518307 0.12117127
-0.33556157 -0.1708491 -0.0050614704 -0.14880751 0.3261567 -0.2420992 0.0026802882 -0.013624589
0.22810031 0.14656605 -0.069674335 0.031016193 0.20467758 -0.16677715 -0.23874885 -0.031673618
-0.30970627 -0.11782004 0.13525467 -0.38393617 0.094277054 -0.124645166 -0.006137276 0.11070662
-0.11703652 0.19355787 -0.056644283 0.21943381 0.31263652 0.2138366 -0.08697822 -0.20334078
-0.11821307 -0.03490336 0.017991567 0.083894186 -0.03176223 -0.07838526 -0.09491188 -0.076529756
-0.13375634 -0.21280143 0.21231478 -0.0058180923 -0.025251288 0.08176969 0.06518274 0.12696193
0.039391767 -0.041048404 0.40400222 0.14296016 -0.07956164 0.20934092 -0.20902665 0.00030863401
-0.19005196 -0.1865681 0.19740057 0.06290686 0.020865794 -0.067300074 0.017182812 -0.051796865
-0.013280993 0.006127038 0.16830257 0.023998681 -0.16295706 0.20493032 0.025414435 0.06739943
-0.20116232 -0.3760604 0.015031322 0.017781261 0.22012347 0.03751643 0.09512009 0.060717348
-0.04134683 0.06008231 0.101189576 0.19909774 -0.071570836 0.111095734 -0.059469964 -0.102444716
-0.07202947 -0.37631202 0.0030794695 -0.01991187 0.27604055 0.0761597 0.016358655 0.11597376
-0.10820974 -0.006675621 0.06718639 0.17717029 -0.07208842 0.118005276 -0.043390073 -0.028439192
0.08807543 -0.29919207 -0.07812681 0.08912264 0.14340132 0.02386451 0.18119393 0.036589395

network_body._body_endoder.seq_layers.0.bias f4 [256]
00000000: 5500 e4bc 6fe7 29bc e084 55bd 700e fabc
00000010: 7231 84bd 1081 cebd cebf ed3b 4fcb 78bc
00000020: 8a61 d6bc 3e6d a5bd 5733 6bbd b4ea 81ba
00000030: c650 4ebd 19d1 903c 5f30 95bd 102b 7ebc
00000040: 7a60 4cbd 2128 213d 8719 15bd 4cfe c0bd
00000050: a512 083d d77f 86bd dc7e 70bc 0405 11be
00000060: c705 1e3c 9187 cebd 0964 8d3c f2c7 303d
00000070: 49c2 aa3c 230f e2bd 6e44 9abd 560a 81bc
00000080: 97e3 17bd 500b 97bb cef8 a7bd 1ee9 cd3c
00000090: 24ab 52bd a8d2 0cbc 7abb 04bd 60e3 6dbb
000000a0: c581 103c dde7 e3bb 21a8 82bd 4b2c 213d
000000b0: b6fd d8bc 7399 683d aef1 dcbc 827f 813b
000000c0: 7a24 5bbc d511 ad3c c2e2 b1bb 2292 8abd
000000d0: 6f63 5cbd 4645 c5ba 4a62 1c3c f5a1 193d
000000e0: 036c 6ebd a188 e6bd a8d8 2ebc 0d0c 263d
000000f0: 608e d0bd 3ae1 dbbb b328 433d b351 c3bd
00000100: c7f2 44bb fceb 063d b3b2 10bd 38a3 f53c
00000110: 8443 a33b 1c69 0c3d 0220 82bd 0f89 a2bd
00000120: 2c70 6ebd 2014 673d 5c9e 3c3c cab2 263a
00000130: d1bf 00bd 2690 25bd de30 5b3c c486 e4bc
00000140: 1ec6 2abd b5b8 913c 0f46 f1bc 883d ab3d
00000150: 5fac 0f3d 646e debd b1a3 8cbd 3dbe c9bb
00000160: aaea c43c 3128 1cbe cdc7 133c de45 2a3d
00000170: 3857 b6bc 2b14 8e3d d314 823d 3438 82bd
00000180: e611 053d a12b b4bc 6b64 2abe 3a95 ffbd
00000190: f719 f1bc 1f5a 5dbd ab47 0b3c 0bba abbc
000001a0: fe28 cebb 37de b33c 6054 01bd efe8 953c
000001b0: 408f e73c 2d95 82bd d90d 72bd 76d0 1ebc
000001c0: e1f0 1fbd b0bd 38bc 9193 4ebd 00c7 303c
000001d0: f5f9 153d 0217 ff3c 90a7 15bd 4322 dd3c
000001e0: a0d4 43bc 6f55 3dbe 1c3f a73c 2612 a2bd
000001f0: a190 a0bd 34c1 093d 9718 4ebc ef89 1dbd
00000200: f937 fdbd 30bc 01be a375 5e3b 802c a6bd
00000210: d7ae aa3c 339c 013c 8cea a2bd fbe0 f0bd
00000220: 8a90 ccbd fbc0 813c 5180 4fbd 71a7 4a3d
00000230: e745 f03c 47c3 703d 9830 03bd 77ad 23be
00000240: 6865 aabc f40f c83b 30c7 3cbc 2b75 12be
00000250: d570 87bc 19c7 79bc 826c 22bd 2403 303d
00000260: c08b 5bbd 4b5b 39bd 8177 93bd 9455 0fbe
00000270: 2af1 e2bd 281d 06bd 88ef 823d ee41 293d
00000280: bf46 79bd 67ce 493d 4ed3 debc eec9 0f3b
00000290: acdb 13bd 25c8 0abc 34a2 32bd 6377 18bd
000002a0: 83a0 463d 1fa8 33bc 18b0 3b3c bd6d 063c
000002b0: 4653 e33b 297c 20bc 5bff 603c 5719 8a3c
000002c0: cc25 563c 7ec5 4d3d 016e 3d3d 576e f83b
000002d0: 6be2 93bd 04e1 7b3d 061d 9ebd 481c 42bd
000002e0: 25ea 563d 8da2 55bb 304e 9abb 84ab 1bbd
000002f0: 0814 f33c 52eb b1bd bf63 753d 5ecd 2f3b
00000300: 6736 2c3d bd96 24be dbd3 89bd a641 57bd
00000310: 9c1a 083c 72e6 51bb e8de 60bb 4cab 9dbb
00000320: 4afe 9c3d 9d1d 78bd 5464 febb 20eb 8ebc
00000330: 2ea9 8a3c 7165 873d fa1a 95bc 9404 5abc
00000340: fe80 533c da72 23be f198 d5bc 80bf 36bd
00000350: 668b 97bc 19bf 6cbd 1a39 753c 8368 4e3d
00000360: 359d 5b3d 3d0c 413b 265a 99bc 6cd8 df3c
00000370: 4df2 593d b92b 35bb 898e 343d baaa 8c3c
00000380: 9379 943c 8b3e b8bd d9e3 383d c861 e93d
00000390: d8b7 d0bb e092 503d 339e fc3c 037a 1fbd
000003a0: 6e38 77bb 15ab dcbc 7ad0 8dbc 5bc2 043d
000003b0: 2cb8 dcba 724c 0c3b 2b75 70bc f9a3 a03c
000003c0: c537 ec3c 6152 dbbc 2fe4 dcbd 5f6e 5bbd
000003d0: 465e 8ebd 4248 29bd 9d86 f3b9 0382 103d
000003e0: 21ab a33c 6869 8a3d 2c9a 0abd 3e14 28bd
000003f0: 3ae2 fabc 69b1 fdbc a0fa 693d daff bf3c
-0.02783219 -0.0103701195 -0.052128673 -0.030524462 -0.064547434 -0.100832105 0.007255531 -0.015185191
-0.026169557 -0.08077477 -0.05742201 -0.0009911866 -0.05037 0.01767783 -0.07284617 -0.015513197
-0.049896695 0.03934491 -0.036401298 -0.09423503 0.033220906 -0.06567352 -0.014678683 -0.1416207
0.009644932 -0.10084451 0.017259615 0.043159433 0.020844596 -0.11038043 -0.07532583 -0.015751999
-0.03708228 -0.004609503 -0.082017526 0.025135573 -0.051432744 -0.008595146 -0.032405354 -0.0036298856
0.008820002 -0.0069551305 -0.06379724 0.03934888 -0.026488166 0.056786966 -0.02697071 0.0039519677
-0.013375396 0.021126667 -0.005428643 -0.06766154 -0.053805765 -0.0015050552 0.009544918 0.03750797
-0.058208477 -0.11256529 -0.010671772 0.040538836 -0.10183406 -0.0067101987 0.047646236 -0.09537067
-0.0030051933 0.032939896 -0.03532667 0.029985055 0.0049824137 0.034279928 -0.06353761 -0.07936298
-0.058212444 0.056415677 0.011512365 0.0006359039 -0.03143293 -0.040420674 0.01337835 -0.027896293
-0.041692846 0.01778827 -0.029452352 0.083613455 0.035076495 -0.10860899 -0.06867159 -0.0061567114
0.024037678 -0.15249707 0.009019804 0.041570537 -0.022258386 0.069374405 0.06351628 -0.06358376
0.032487772 -0.02199346 -0.16639869 -0.124796346 -0.029431326 -0.054041024 0.008500974 -0.020962736
-0.0062915077 0.021956546 -0.031574607 0.018299548 0.02826655 -0.06376109 -0.059095237 -0.009693256
-0.03904808 -0.011275694 -0.0504337 0.010789633 0.03661533 0.0311389 -0.036536753 0.026993876
-0.011952549 -0.18489622 0.020415835 -0.07913618 -0.07840086 0.03363152 -0.012579105 -0.03846162
-0.123641916 -0.12669444 0.0033944629 -0.081139565 0.020835323 0.007910776 -0.079548925 -0.117616616
-0.09988506 0.01583909 -0.05065948 0.04947609 0.029330207 0.05877998 -0.032028764 -0.1598414
-0.020800307 0.0061054174 -0.011522099 -0.14302509 -0.016533295 -0.0152452225 -0.039654262 0.042971745
-0.053600073 -0.04525308 -0.07200528 -0.13997489 -0.11081155 -0.03274265 0.06393343 0.04132264
-0.060858484 0.049269106 -0.027200367 0.0021940428 -0.036098167 -0.00847057 -0.04361172 -0.03722323
0.04849292 -0.010965376 0.011455558 0.008204875 0.006937417 -0.009795227 0.0137327565 0.016857786
0.013070535 0.05023717 0.046247486 0.007581513 -0.0722092 0.06149389 -0.077203795 -0.047390252
0.05246939 -0.0032598109 -0.0047090277 -0.038005367 0.029672638 -0.08687462 0.05990958 0.002682529
0.04204407 -0.16073127 -0.06729861 -0.05255284 0.008307125 -0.0032028225 -0.003431255 -0.00481168
0.07665689 -0.060575116 -0.007763425 -0.0174461 0.016926374 0.06611145 -0.01820134 -0.013306756
0.012909172 -0.15961781 -0.026073905 -0.044616222 -0.018499088 -0.057799432 0.014967227 0.05039264
0.05361672 0.0029456757 -0.018719744 0.027324878 0.05320959 -0.002764447 0.044081245 0.017171253
0.018124377 -0.08996304 0.045139167 0.113956034 -0.006369572 0.05092132 0.030837154 -0.03893472
-0.0037722844 -0.026937047 -0.017311323 0.032411914 -0.0016839555 0.002140787 -0.0146763725 0.019609438
0.028835187 -0.02677268 -0.1078571 -0.053572055 -0.06951575 -0.041328676 -0.00046448866 0.03528024
0.019979062 0.06758386 -0.033838436 -0.04103493 -0.030625451 -0.030968385 0.05712378 0.02343743

network_body._body_endoder.seq_layers.2.weight f4 [256, 256]
00000000: 4b89 4b3d 07cb e5bd 78a8 07be 2614 3a3c
00000010: 3766 90bd 6759 7c3e b965 3a3e a818 223e
00000020: 1ee9 9cbe fdc9 b2be 8e39 4bbd f2a3 813d
00000030: 4176 35be 6409 91bd 6ada 7839 a88d 64bc
00000040: 75d7 37be cecf a13d 12ac a53e 47bf 62be
00000050: a004 f5bd b13b 53be 3689 f6bd e0cc 003d
00000060: 9e4a 1ebe 1536 5b3e 2f85 383d 94b4 09be
00000070: ad5b 3c3e c0dc 40be 2317 52be 21a8 8c3c
00000080: c4f0 053e def3 9a3d df59 73be 6f04 633e
00000090: 1afd afbe 4e7f 013e 17ff dabd 58d5 cbbc
000000a0: ac7a d3be 9545 10bd a5a8 32be 082f b63c
000000b0: 505b d1bc be3f be3d 121d 863e 1acd 9e3d
000000c0: be84 f5bd f13d 9f3d f8a5 df3c 774a d3bc
000000d0: 88b2 6b3e ec90 533e 578e 193c 3f3d b0be
000000e0: 6c33 93be 7c89 e03d 7a95 12be 2374 41be
000000f0: c109 42be 8453 ce3d 2d7d 93bd 0c36 08be
00000100: 4706 25be 830a 2b3d 916f 07be a6df 46be
00000110: ddf3 ad3c b8c5 fe3d ef26 b13d e2a1 dd3c
00000120: 2b02 9ebc 0c3e 0d3e f6d7 afbd d0ee 6d3d
00000130: 8261 0f3d 46a7 8bbe 808e 513d 4b51 45bc
00000140: 9f79 73bd b81f c3bc 7298 99bd 974f d3be
00000150: ea57 263e 719f 173c c809 00be f1bc 55bd
00000160: d151 cbbc 5cbf 64bd b5b2 1a3e a939 7a3e
00000170: 598d efbd 2de9 aebe 9b97 89bd ef16 50be
00000180: bd69 e43d d120 363e 9973 843d f061 273e
00000190: f098 e1bb 40ff 2f3e 1390 b23d 5bbe 85be
000001a0: 3814 82be fb89 0b3e 47c8 203d 7b44 1a3e
000001b0: b9b3 21be bab5 89be c192 11bd fa6b 7cbd
000001c0: 89c0 45be cf1c 74be 295e 93bc 7533 57bd
000001d0: 1c0d a33d 906d 20be 4bef 233e 09a5 02be
000001e0: 5c27 5b3e f8dc 623e 9967 68be bdaa 833e
000001f0: 4698 5cbe 6b78 873e 32ad 07be eea6 0fbe
00000200: ce34 953d 4660 95be 8b0a cdbd 523f 92bd
00000210: ddc4 a9be 56b9 70bd 3385 eabe 34a0 fa3d
00000220: 5e4c 4d3e b1ee 603b 040b a93d 57f1 153d
00000230: 0114 903e 7f6d c1bd 1767 103e b0f8 2a3e
00000240: c6f8 21be 238e 3bbe 401b 4fbe c5ee b4bd
00000250: 9e7e 12bd aada b8bc c81f 24be 6ce8 90be
00000260: df76 a7be 49b7 8a3d 194a 1d3d 9251 1f3e
00000270: 98dc 7d3e d831 a0bd 0bd8 91be b402 85bd
00000280: dfe3 8ebe c2d9 873e 8a02 efbd cc5f fcbd
00000290: 23e5 6bbe 6b44 083d 3491 78be 5084 3fbe
000002a0: ccb7 0bbe 545c 4ebd 5e1a 163d ca4a eabc
000002b0: 06eb a1bc 68e3 77bd be83 37be 3a7a 77bc
000002c0: f718 f3bd 3744 55bc 088a a7bd 611f 1c3e
000002d0: 2163 91bc a723 b43d ffab f1bd 1c5c a0bc
000002e0: b970 84bd 9532 073d 36f1 81bd 91d1 ee3d
000002f0: 2aa5 27be fbb6 98bd 1f71 3c3c f9ce 1bbe
00000300: f67f b3bd e14e 343e bcc9 203d ec58 aa3e
00000310: 45a8 83be c6af abbb 27cf 84bd 99cb a23d
00000320: fd5d 8f3e 3960 59bd 6be4 6b3e 2dbf 05bd
00000330: 72d3 4cbc 238b 9abe 40b1 df3b 6669 163e
00000340: 7ce7 3abe a526 953e cac7 c4bd b649 2cbd
00000350: 4db5 043c 37e1 0f3e 44e4 4a3d 8ee5 15bd
00000360: 0842 9e3d 5fbe 07be 28fe c7bd 0a54 79bd
00000370: 8286 e63b 7bde 31be df97 12bd 30ee a0bc
00000380: d89b 58bd 5bc0 c63d 12f3 f9bc efbe 71be
00000390: 4c1e 4c3e 0f9f 963d a00a b83c 2417 17be
000003a0: 5d54 a3be b641 e23c 0c20 f2bd 9ab1 e5bd
000003b0: 80f0 adbc 2a73 573e 88fa 7ebd aec0 dbbe
000003c0: 0fac 563d c79e e53d 5d71 8c3e 1968 70be
000003d0: 4610 66be 0109 b3bd 2dbc 97be ef90 2e3e
000003e0: 3462 eebd f9a0 80be 578d 73be ada0 fbbc
000003f0: e936 84bc 1ca3 9fbe e1b5 413e 6970 823d
0.04969148 -0.11220365 -0.1324786 0.011357343 -0.07050746 0.2464348 0.18202867 0.15829718
-0.30646604 -0.3491973 -0.049615435 0.06330098 -0.17720892 -0.07081869 0.00023732489 -0.013949789
-0.17953284 0.07900964 0.32357842 -0.22143279 -0.11963773 -0.20628239 -0.1203789 0.031445384
-0.15458152 0.2140735 0.04504889 -0.13447791 0.18394347 -0.1883421 -0.20516638 0.017170014
0.13080126 0.07566045 -0.23764752 0.2216966 -0.3437279 0.12646219 -0.10693186 -0.024882004
-0.4130453 -0.03522261 -0.17447145 0.022239223 -0.025556237 0.092895016 0.26194054 0.07753964
-0.11988209 0.07775486 0.02730082 -0.025792344 0.23017323 0.20660752 0.009372315 -0.34421727
-0.2875017 0.10963723 -0.14314833 -0.18891959 -0.18949033 0.10074523 -0.0720161 -0.13301867
-0.16115676 0.04175807 -0.13226153 -0.19421253 0.021234447 0.124400556 0.08650004 0.02705473
-0.019288143 0.137932 -0.08586113 0.058089077 0.0350051 -0.27276057 0.05116129 -0.012043308
-0.05944216 -0.023818836 -0.0749978 -0.4127166 0.16244474 0.009254322 -0.12503731 -0.05218214
-0.024819287 -0.055846557 0.15107234 0.24436058 -0.11696882 -0.34162274 -0.067183696 -0.20321248
0.111529805 0.17785956 0.06467361 0.16345954 -0.0068846866 0.17187214 0.08718886 -0.26121792
-0.2540605 0.13626854 0.0392535 0.15065186 -0.15791215 -0.2689646 -0.035540346 -0.061626412
-0.19311728 -0.23839115 -0.017989235 -0.052539308 0.07961485 -0.15666795 0.16009252 -0.12758268
0.21401733 0.22154605 -0.2269577 0.257162 -0.21542463 0.2645906 -0.13249663 -0.14028522
0.07285462 -0.29175013 -0.100117765 -0.07140984 -0.33158007 -0.0587705 -0.45804748 0.122375876
0.20048663 0.0034321959 0.08254054 0.036607113 0.28140262 -0.09444713 0.14101826 0.16696429
-0.15817556 -0.1831594 -0.20225239 -0.08834604 -0.035765283 -0.022565205 -0.16027749 -0.28302324
-0.3270788 0.0677324 0.038400743 0.1555846 0.24791181 -0.07822007 -0.2848514 -0.06494656
-0.27908227 0.26533324 -0.11670406 -0.12322959 -0.23036627 0.033268373 -0.2427414 -0.18702817
-0.13644332 -0.05038102 0.03664624 -0.028600115 -0.019765388 -0.060519606 -0.1792135 -0.015104825
-0.11869996 -0.013016752 -0.08180624 0.15246345 -0.017747464 0.08795863 -0.11800384 -0.019575171
-0.06466813 0.033007223 -0.063448355 0.11661065 -0.16371599 -0.07456776 0.01150158 -0.15215673
-0.08764641 0.17608215 0.03925489 0.33270967 -0.25714317 -0.0052394597 -0.06484824 0.079489894
0.28001395 -0.05307028 0.23036353 -0.032653023 -0.012501584 -0.30184278 0.00682655 0.14688644
-0.18252367 0.29131046 -0.09608419 -0.042062484 0.008099866 0.14050756 0.049534097 -0.036595874
0.07727438 -0.13256215 -0.09765273 -0.06087116 0.0070350775 -0.17370026 -0.035789367 -0.019644827
-0.052883 0.09704658 -0.030511413 -0.23607992 0.19933432 0.07354557 0.022466004 -0.14754921
-0.31900302 0.027619224 -0.11822519 -0.112155154 -0.021232843 0.21040025 -0.062250644 -0.4292044
0.05241018 0.11211925 0.2743024 -0.2347721 -0.22467145 -0.08741952 -0.29635754 0.17047475
-0.116398245 -0.25122812 -0.23784386 -0.030716265 -0.016139464 -0.3117913 0.18917038 0.06369097

network_body._body_endoder.seq_layers.2.bias f4 [256]
00000000: 2d94 e83b ac2c ddbd cb2d a4bd 21b7 1f3d
00000010: 5592 b5bd 8109 173e ae43 45bd 0079 69bd
00000020: e02f 1cbe 9d62 05be a04c 02be 5b8d da3d
00000030: 33fe 11bd 115f 173c 06ce 3fbe e145 e2bb
00000040: 3999 15bd 7d25 2fbd b9bd eabd bacc cb3c
00000050: 7637 1dbe 7495 0cbd e574 e6bc c4d2 7fbd
00000060: 4009 05bd 0636 babc fe23 1a3d 72b0 34bd
00000070: 0d17 89be 58fb a4bd 6a63 c7bd 1680 91bd
00000080: 57a9 1b3d 67c5 59bd 3a39 483e 8799 c93b
00000090: f2f6 afbc 9a80 10be 98a1 273a d20c 83bd
000000a0: 5005 d3bc c573 593b 3676 e5bd 5a06 d639
000000b0: 274e 42bd 9cf4 22bd 90aa ae3d e9ba 023c
000000c0: 4ea4 eebd d382 b83d 8b19 8cbd d419 a5bd
000000d0: 34bc 88bd 5d48 83bd 68f6 adbd 4319 fa3c
000000e0: ad2c 6a3c e73e 8b3e 566a dcbc 4b21 38be
000000f0: fb7b eabc 643b c23b 5bef 99b9 39d9 bdbd
00000100: a0cc e5bd a583 02be 3d61 aabd 03f4 d1bd
00000110: 8c4f 3abe 8694 cdbd 0868 623c ebc8 4fbe
00000120: 287a 1bbd 40f4 e2bd 79bd acbd 1523 cebd
00000130: 15c8 97bd d7a6 05bc c311 a6bc 43dc 08be
00000140: d75d 89bc 33a7 3d3e 91fa c9bd 9a45 3ebe
00000150: d6bc fbbd bd60 aabd f586 19bd cf55 3dbe
00000160: 6a39 3fbd 2f3a 98bc 619c 713c d5b9 713b
00000170: 58ba e2bd fa8e 55bd 422e c9bd 5abb 963d
00000180: f316 51bd a282 aabd 6404 84bd 8e9e 38be
00000190: e4d1 983d 7d08 10bd 824b babd 23c9 c6bd
000001a0: bed3 80bb 2bd9 21bd e6df d33c 7607 b8bd
000001b0: 5fc6 01be 8ef9 51bd b687 0f3c 3e9a dfbc
000001c0: 4375 c0bc 9662 64be 257e 053e 97d7 b1bd
000001d0: bdfd c6bc dd0c 0abd 26fc 86bd 0d88 6c3d
000001e0: aff6 80bd 47bb b1bd 4603 433d d493 4abc
000001f0: 0288 10bd d446 ab3d 7f57 b43d 227e 033d
00000200: a134 debd b3d8 55be 54a9 cbbd 10ee 5abd
00000210: 5c34 a2bd 8df4 20bc 7c82 82bd 4267 ecbd
00000220: 553a a4bd ad2a 09be 8471 0d3c e31d e6bd
00000230: 3803 a1bc f581 633d e9d3 79bd c9be ea3d
00000240: e9d8 40bd 5400 2e3c c2e5 3dbd d55e 59bc
00000250: 32fe 6bbd 5108 833c a645 7cbb 2cd0 86bd
00000260: ae6d 6ebc 4b97 8cbd d562 d4bd 1e88 acbb
00000270: 7c1d 1fba 423c c93d 484e c23b 2e77 9fbd
00000280: 31b4 dabd efca b93d 7422 d8bc 599c 80bd
00000290: 4e17 cc3c 5efb 2ebd e924 82bd 2264 423c
000002a0: c796 1cbd 3af0 193c fff7 adbd 3f99 07be
000002b0: 9350 3dbe 6ee4 ab3d dcb0 e6bc 49ae 3bbe
000002c0: 60d9 c83c 81ac 5e3c 3f88 e8bb 6a8d 7dbd
000002d0: deb6 19be df1d 1ebc 0699 3fbc bc46 053d
000002e0: 6091 673c fccb f3bd f515 243e b481 2c3d
000002f0: 46ad cdbd 76fb 4bbd c799 65bd dc87 ebbd
00000300: b0ba bebb 5388 a9bd 0770 bebd c417 5a3d
00000310: 8422 473b adc3 aebd c523 093d 73aa a5bc
00000320: b07c afbd 9bde 0ebe 63d0 87bd 6b36 26bd
00000330: 0cda f8bd 89d7 b73d 5d81 393d 67ce 5dbd
00000340: 6906 443d ae2b 65bd 9888 06be 8503 693c
00000350: 066a 60bd 585e 25be 7204 2f3c c809 8cbd
00000360: eb5a 90bd e950 b3bd acf6 f83d 47df cabd
00000370: 2a71 743c 6d98 4ebd 97b5 aa3c 2b6f 03be
00000380: 0a9e bcbd 6efc eebd 7bef e6bd 46f3 12be
00000390: 36b6 b5bc 7e1b bcbd 92b2 0ebd 9d07 743d
000003a0: 2e66 dfbd e183 fd3a 5959 3abd 51ca bbbc
000003b0: afda 863c b6bf 243d 9427 71bc 6e84 2abd
000003c0: 6779 efbd 6761 d3bc d09f 57bd adc5 d6bd
000003d0: 66d0 f1bd 97b6 f6bc f10c c8bc e0e4 6abd
000003e0: c192 203d 4007 81bd 2691 06be edb8 1dbe
000003f0: 03d6 483d 6631 bebd 39cc 93bd ec09 1fbe
0.007097742 -0.10799536 -0.08016547 0.038993005 -0.08865801 0.14749719 -0.048160248 -0.05700016
-0.15252638 -0.13025899 -0.12724543 0.10671493 -0.035642814 0.009238974 -0.18730935 -0.006905303
-0.036523078 -0.04276036 -0.11461968 0.024877895 -0.15353188 -0.034322217 -0.028131912 -0.06245686
-0.032479525 -0.022730839 0.03763198 -0.044113584 -0.267754 -0.080557525 -0.097357586 -0.071045086
0.038003292 -0.053166773 0.1955308 0.006152335 -0.021480057 -0.14111558 0.0006394624 -0.0639893
-0.02575937 0.0033180576 -0.112041876 0.00040821993 -0.047437813 -0.03978406 0.08528626 0.007979133
-0.116524324 0.09009328 -0.068408094 -0.08061567 -0.06676522 -0.064102866 -0.08494264 0.030529624
0.014292878 0.27196428 -0.026906174 -0.1798145 -0.028623572 0.00592749 -0.00029360768 -0.092699476
-0.1122067 -0.12745531 -0.08319328 -0.1025162 -0.18194407 -0.10038094 0.013818748 -0.20291488
-0.037958294 -0.11081743 -0.084345765 -0.10065285 -0.074112095 -0.0081574535 -0.020272141 -0.13365273
-0.01676838 0.18520813 -0.09862245 -0.18581238 -0.12291877 -0.083192326 -0.03748222 -0.18489765
-0.046685614 -0.018582432 0.014746756 0.0036884446 -0.110706985 -0.052138306 -0.09823276 0.07359953
-0.051047277 -0.083256975 -0.0644615 -0.18029234 0.074619085 -0.035164345 -0.09096433 -0.097063325
-0.0039314916 -0.03951375 0.025863599 -0.08985798 -0.12673329 -0.051263385 0.008760383 -0.027295228
-0.023493415 -0.22303233 0.13036402 -0.086836986 -0.024290914 -0.033703674 -0.06591062 0.057746936
-0.06297051 -0.086782984 0.047610544 -0.0123643465 -0.035285957 0.08363119 0.08805751 0.03210271
-0.10849882 -0.20883445 -0.09944406 -0.05344969 -0.07920143 -0.00982393 -0.06372544 -0.11543132
-0.080189385 -0.13395186 0.008633021 -0.11236169 -0.019654855 0.05554386 -0.06099311 0.11462171
-0.04708186 0.010620195 -0.046361692 -0.013267239 -0.057615466 0.015995177 -0.0038493662 -0.065826744
-0.014552517 -0.06864794 -0.10370413 -0.00526525 -0.0006069762 0.098259464 0.005929742 -0.077864036
-0.106789 0.0907191 -0.026383616 -0.06279821 0.024913456 -0.04272019 -0.06354696 0.011864694
-0.03822973 0.009395653 -0.08494567 -0.13242052 -0.18487768 0.08393179 -0.028160505 -0.18328203
0.024517715 0.013590933 -0.00709632 -0.06190244 -0.15011165 -0.0096506765 -0.0116941985 0.03253816
0.014133781 -0.11904141 0.16024001 0.042115882 -0.10042815 -0.04980036 -0.056054857 -0.115005225
-0.0058205947 -0.08277955 -0.09298711 0.05324532 0.0030385563 -0.08533416 0.033481378 -0.020222878
-0.08568704 -0.13952105 -0.066315435 -0.04057924 -0.12150964 0.08976657 0.045289386 -0.05415192
0.047857676 -0.05594986 -0.13138044 0.0142220305 -0.05478861 -0.1614927 0.010682212 -0.06837803
-0.07048591 -0.08755667 0.12156424 -0.09905868 0.014919559 -0.050438333 0.020838542 -0.12835376
-0.09209831 -0.11669241 -0.11276146 -0.14350614 -0.022181612 -0.09184931 -0.034838267 0.059577573
-0.10908161 0.0019341671 -0.045495365 -0.02292362 0.016461698 0.040221892 -0.014718909 -0.0416302
-0.116930775 -0.025803281 -0.052642643 -0.104869224 -0.11807327 -0.030116362 -0.024420233 -0.05734718
0.039202455 -0.06300211 -0.13141307 -0.15402575 0.049032222 -0.09286766 -0.07216687 -0.15531129

action_model._continuous_distribution.log_sigma f4 [1, 2]
00000000: f634 993f fe04 423f
1.1969287 0.7578887

action_model._continuous_distribution.mu.weight f4 [2, 256]
00000000: 46cc d23d 0ccd 14be 1657 3fbe 6f66 3bbe
00000010: 9416 16be 673d 2a3e a809 efbd 2c5d 8fbc
00000020: 4a76 32be 39b7 9cbe d14e 59bd 8376 1a3e
00000030: b5fd 49be 3557 e8bd 7bd9 48be fef7 fcbd
00000040: 77f9 e3bd d440 57be ae82 86be 219b 46bd
00000050: 4519 b6be d407 b1be 6da9 ecbe b943 7c3e
00000060: 206d 8ebe 6b7e 73be 554f f13b e724 42be
00000070: 0670 2fbe 05bd 97be f8f0 03be 66ef c1bd
00000080: b00b 803d c599 afbe 3e56 823e 8c6d c1be
00000090: 7e3d d7bc 2312 9abd 364c 9fbe c492 a5be
000000a0: 60ee b0bd ad98 c43d 4ce9 90be f538 adbe
000000b0: 6304 b1be 4796 43be 15c9 ca3d d3d6 70bd
000000c0: 8ce5 cbbe 7594 373e c143 78be 76c0 adbc
000000d0: 7966 853d 494f 26be 27af cbbb 94d3 d33d
000000e0: 7b0a 7f3d e3fc 843e 2764 8fbe e957 6ebe
000000f0: c7a5 adbd 439e 8c3d 64aa 0b3d 80a1 a3be
00000100: 4ee5 8abe 4276 11be 82bf a4bc 855e 61be
00000110: 2e47 74be 8321 a0bd 1977 97be 3222 3bbd
00000120: 19d3 bebd ee67 84be 9dab fbbd 5a97 9abd
00000130: a1d3 20be 40cc 36be 9cfe 6ebe 798d e9bc
00000140: 67ad 20bd 7be5 463e d569 bcbe b70b 8ebe
00000150: ddb9 90be d085 51be d5e8 c13c 84f4 9fbe
00000160: c709 89bd 292d b7be 1718 4ebe bc9c 3bbe
00000170: 3372 bcbe 0f16 4bbd be61 a7be 9503 903e
00000180: 0c99 c9bd 788a e73d add3 9fbe 0694 73be
00000190: 3663 83bd 4523 a7be 9474 bbbe 0d9b 92be
000001a0: cf0a 53be fec9 88bd 0746 763d 8ffa 89be
000001b0: 9f33 29be 28d5 aebe 75be b03d d6dc 4abe
000001c0: 08db bb3d 51b5 87bc e98c 293e b08f 48be
000001d0: cd90 21bd eb88 3bbe e1b4 84be 9622 3b3c
000001e0: 5806 2ebe 3502 86be 1eb6 d4bd 5aa6 70bd
000001f0: cc15 95bd 06b8 123e a022 253e 65dd 87bc
00000200: 8f2e 7abe c3ac 9ebe 94a0 21be e663 9fbe
00000210: 08c8 27be bd89 a4bd 9c9c 4fbe 1005 41be
00000220: 8fde 69be 837b 0cbd acd8 48be 8178 8abe
00000230: 3141 873d 8880 0d3e c344 7cbe 1630 153e
00000240: 8dcf 18be b04b 6c3d 6951 dbbc 2231 8dbe
00000250: 814c d9bd 0302 0ebe 1530 2b3d 205d d4bd
00000260: 104e 17be 4081 d7be 3a32 21be c22e 9b3d
00000270: 1e81 c0bd c58c a43d c02b 8bbe 39b0 06be
00000280: 12ee d4be 31c0 6b3e 976d 60be 5e60 11be
00000290: 372d dbbd 24d7 83be 8042 443d 848c 193c
000002a0: baf7 80bd e55f 9c3d b306 05be add7 7bbe
000002b0: 1437 09be bff0 363e ad33 06be 2d87 3bbe
000002c0: 6e7f 6cbd 16c8 83be 72d3 59bd eb2f cdbd
000002d0: f412 63be ea8c 913d 6d49 2abe 237a a1be
000002e0: a5f0 e4be 659b 52be acc4 1a3e 55f1 59bd
000002f0: 444e 10be 63b6 1abe d991 9cbe 39c9 2fbe
00000300: f10b 7dbe fc1b a2be 6d85 7c3e 0bfa 443d
00000310: 4c43 1dbe 1848 6f3c 972c c53c 8252 bc3d
00000320: ba46 ef3c 58cb 95bd af14 b1be 1ce8 f9bd
00000330: 17b2 ef3a 9348 de3d d651 e4bd 3566 4bbe
00000340: ed78 1f3e b134 ea3c 2f11 d9be 3a8e 68bd
00000350: 6519 79be 48f0 17be e868 e63d e774 f9bd
00000360: 7435 e5bd 789b 493d 9689 443e a857 8dbe
00000370: 501e 44be 0765 22be 0b9b 78be 3f75 a4be
00000380: 0c16 3a3d b416 3abe babd 04be cced b4bd
00000390: fceb 33be ab22 d93c 491b 643c 1125 d9be
000003a0: 3d58 933c 18d4 10be 372f 2fbe e0f7 82be
000003b0: 4f20 e1bb e4e1 893d f699 32be 8749 91be
000003c0: d235 b6be 5f7c 67be 0ed5 0bbe 74a7 f2be
000003d0: 3aff 6bbd e84a 883c e569 b1bc c1f2 1ebe
000003e0: 6978 433e 4072 b0be d214 9dbc 9304 86be
000003f0: df04 6d3c e95f f2bd cca9 8abe 2b2a 85be
0.10292868 -0.14531344 -0.18685564 -0.18300794 -0.1465705 0.16624986 -0.11671764 -0.017500482
-0.17427936 -0.30608538 -0.05305368 0.15084271 -0.19725688 -0.113447584 -0.19614212 -0.12351988
-0.11131566 -0.21020824 -0.26271576 -0.048487786 -0.35566154 -0.34576285 -0.46223012 0.24635209
-0.2781763 -0.23778693 0.0073641934 -0.1895939 -0.17132577 -0.29636398 -0.12884891 -0.0946949
0.06252229 -0.34297004 0.25456423 -0.3777889 -0.026274439 -0.075229906 -0.31112832 -0.32338536
-0.086392164 0.09599433 -0.2830299 -0.33832517 -0.3457366 -0.19100295 0.099016346 -0.058798622
-0.39823568 0.17927726 -0.24244596 -0.021209937 0.06513686 -0.16241182 -0.006215948 0.1034309
0.062265854 0.25974187 -0.28006098 -0.23275723 -0.08478885 0.068661235 0.034098044 -0.31959152
-0.2712807 -0.14205268 -0.02011085 -0.22008713 -0.23855278 -0.07818892 -0.29583052 -0.045686908
-0.093176074 -0.25860542 -0.12288592 -0.07548399 -0.1570573 -0.17851353 -0.23339313 -0.028509842
-0.03922787 0.19423477 -0.36799493 -0.27743313 -0.28266802 -0.20461202 0.023670593 -0.31241238
-0.06691318 -0.35776642 -0.20126377 -0.18321508 -0.36805877 -0.049581584 -0.3269176 0.28127733
-0.098436445 0.11305708 -0.31216183 -0.23786935 -0.06415407 -0.32644096 -0.3661238 -0.2863392
-0.20609592 -0.06679152 0.060125377 -0.26948974 -0.16523598 -0.34147 0.08630077 -0.19810805
0.09172636 -0.01656595 0.16557659 -0.19586062 -0.039444733 -0.18313949 -0.2591925 0.01142182
-0.16994607 -0.2617356 -0.103862986 -0.058752395 -0.07279548 0.14328012 0.1612649 -0.016585061
-0.24431823 -0.30991182 -0.15783912 -0.31130904 -0.163849 -0.08034084 -0.20274585 -0.18849587
-0.22838806 -0.034297477 -0.19613904 -0.27045062 0.06604231 0.13818562 -0.24635606 0.14569125
-0.14922924 0.05768937 -0.026772218 -0.27576548 -0.10610295 -0.13867955 0.0417939 -0.10369325
-0.14775872 -0.42090797 -0.15741816 0.07577278 -0.09399627 0.08034662 -0.27181816 -0.13153161
-0.41587883 0.23022534 -0.21916805 -0.14196917 -0.107019834 -0.25750077 0.04791498 0.00937188
-0.0629725 0.07635478 -0.12990837 -0.24593993 -0.13399917 0.17865275 -0.1310565 -0.18313284
-0.057738714 -0.2573859 -0.053180166 -0.10018905 -0.22175199 0.07106955 -0.16629572 -0.31538495
-0.44714847 -0.20567091 0.15114087 -0.053208668 -0.14092356 -0.15108638 -0.30580023 -0.17166604
-0.24711587 -0.31661975 0.24660273 0.048090022 -0.15357703 0.014604591 0.024069114 0.091954246
0.02920853 -0.07314175 -0.34586093 -0.122024745 0.0018287328 0.10853686 -0.111484215 -0.19863208
0.15573473 0.028589578 -0.42395923 -0.056776263 -0.24326093 -0.14837754 0.11250478 -0.121805005
-0.11191836 0.049220532 0.1919311 -0.2760594 -0.19152188 -0.15858851 -0.24277894 -0.32120702
0.04543118 -0.18172723 -0.12963 -0.08834419 -0.1757049 0.026505789 0.013922521 -0.42411092
0.017986411 -0.14143407 -0.17107855 -0.2557974 -0.0068703066 0.06732538 -0.17441544 -0.2837641
-0.35587937 -0.22606038 -0.13655493 -0.47393382 -0.05761645 0.01663728 -0.02165694 -0.15522291
0.19088902 -0.34462166 -0.019174967 -0.26175365 0.014466493 -0.118347 -0.2708267 -0.26008734

action_model._continuous_distribution.mu.bias f4 [2]
00000000: bc27 cf3e f63c b73b
0.40460002 0.005591984

action_model._discrete_distribution.branches.0.weight f4 [2, 256]
00000000: 0d28 da3c d452 af3d 6fb8 77bd 69d7 503e
00000010: c7dc efbc 474e 90bb 7b84 813d c9b2 3e3e
00000020: f013 9e3d 6cfe 24bc a4ce 20be 57c9 c6bc
00000030: 1291 473d da85 983c c2b9 073d daea bd3d
00000040: d7dd 21bd 70f7 3dbb d255 bd3c c1af 23bc
00000050: 5bc3 66bd 6bc5 873d bc49 3bbb 19eb 64be
00000060: baa5 033e 24be 07be 2f0b 49bd 17e5 b4bd
00000070: 1173 193e d24b e0bc ea3d c03c 8b18 14bd
00000080: 393e 3bbc 3811 9ebd bf36 b03b c061 6a3b
00000090: e2fb 1ebe 922b 4f3d 1710 ec3d 31df b8bd
000000a0: 0faf 9f3a 0a36 1a3d 43fb d2bc 536a 08bd
000000b0: 7aa2 9a3b 5a04 39be df2d 3d3d 43f5 ebbc
000000c0: 76a5 49bc 6005 50bb 39ca 483d 9b58 ddbc
000000d0: 120e 1039 2966 483d af09 91bb 9053 2b3d
000000e0: 36cd 85bb c13d 453c 48c1 a83d 4ae3 c63d
000000f0: ccd2 60bd 7c33 40bc 13ea 26bd b865 a3bc
00000100: b54a 5c3d 47ec 0c3e 369c 833c 266b 133d
00000110: 0091 8e3d 0740 09bd ed03 2fbe cc7e 27bd
00000120: cc9f c6bc f145 7c3c 49c8 28be 4463 8a3d
00000130: 7760 283d 06b8 b3bb 7db2 313e 48a3 033d
00000140: 6d74 b43d fdce 013d 625c 23bd c74a 14bc
00000150: 4c9d aebc 0c9a e7bb f94d 34be c282 07be
00000160: decc 953d 41d1 163d f790 f1bd 1122 bebd
00000170: 065b cabc 027c a33c 888f 0cbd 4696 d33a
00000180: e58a d5bd 3fff ca3d c8d8 523d 4aaa 1e3d
00000190: e048 32be 1dc2 91bd acd7 683d 224e 74bd
000001a0: ab9c 033d a78c aeba c966 343d b8e5 8dbd
000001b0: bbf3 af3d 9a71 22bd acd8 c03d 30ea b83c
000001c0: 853d dfba 2163 45ba 9d60 943c 3af0 2b3e
000001d0: 8d44 24be c244 81bd 00b8 afbd c9ba 123e
000001e0: 6400 a5bc 2b52 d93c d76b 8e3d f1fa 013c
000001f0: 0164 1f3d 14e0 f13d 7542 5ebc 5221 bf3d
00000200: ab35 c0bd ba4d 26bd a34b 42bd 0f23 5b3d
00000210: a4a5 dbbc bf29 56be a658 33bb e9e6 69bd
00000220: 909c 32bc 766c 98be 78bf e1bb 0893 3d3d
00000230: c9ae 31bd 8c07 2d3e f6f4 92bd 23af ed3c
00000240: 9ed0 de3d c3d5 91bc c275 c9bb 7c5d 153d
00000250: 26bd 86bc f091 03bc 8c6a 67be 9d93 293e
00000260: f44b 80bb aa47 e2bc b078 8c3c 6eae 9fbc
00000270: 3083 143e 2d83 4e3c c6c4 443d c3b7 92bd
00000280: 7ab2 403d 72b9 52bd 52ec 283e 8a1c f73d
00000290: 2a16 7f3d 0d79 dc3b 503b 193b a20c 08be
000002a0: 300a 34be abcb 63bc 6cd5 c33d 06cc a33d
000002b0: 796b ec3d 42ba 2abc d32c b7bd e216 ad3c
000002c0: 5ebf aabd 1379 6dbd ec7e abbd f59a b3bd
000002d0: 04c7 f23d fb4e 563e be61 e3bd a757 373d
000002e0: 3c62 c4bc ad1f 54bd 3189 aabc 47ab 573d
000002f0: cdab 913d b500 63be 6010 9e3e 630c 313c
00000300: d26a 203d ef09 4dbc 1bcb 03be 9a20 783c
00000310: 2a0a 743d 68e8 a73d 994e 93bd c4db 933c
00000320: bda4 7c3e 206e d33d 8ff1 7cbb 67c8 5abe
00000330: afdd 163d a451 3ebc 18ed eabd 8c6e 2cbd
00000340: e407 c7bc 584f 603e 2c72 733d b82e 6d3c
00000350: 2625 7e3d 0130 20bd fc82 07bd d63d 2f3c
00000360: 23fd 69be 9d44 4fbd a962 9d3c 6a33 c13d
00000370: c656 933d a556 b83d dfea 1cbe 6476 083d
00000380: 6e45 bfbd 2043 863d 29bb 10be 8691 99bc
00000390: d812 1d3d 9a56 33be 0a60 133e a323 81bd
000003a0: b67d 9bbc 2354 ec3b e78e 8dbc ffb5 16bd
000003b0: bd6b 0dbe 6a4e 1ebe 9dcb 8cbb 6de7 02be
000003c0: 2048 f8bb a7e8 d53c 5740 223c 607b 293c
000003d0: dcb7 90bb 7d51 bf3d 7a21 96bc aa7c 8cbc
000003e0: 0eba 9f3d a2c2 42ba a203 9b3d deb4 973b
000003f0: 9f1d ff3b 4bb2 20bd 73f2 b2bd 201b 9fbc
0.026630426 0.0856072 -0.060478624 0.20394672 -0.02928008 -0.0044038626 0.06324097 0.18622889
0.077186465 -0.0100704245 -0.15703827 -0.024265928 0.048722334 0.018618513 0.033136137 0.0927331
-0.039518204 -0.0028986596 0.023112211 -0.009990633 -0.05633865 0.06629451 -0.0028577885 -0.22355308
0.12856188 -0.13256127 -0.04908293 -0.08832758 0.149853 -0.027379904 0.023467023 -0.03615622
-0.011428409 -0.07718128 0.00537762 0.003576383 -0.15525773 0.05057866 0.115265064 -0.090269454
0.0012182909 0.037649192 -0.025754577 -0.033304524 0.0047190757 -0.18068066 0.046186324 -0.028803473
-0.012307515 -0.0031741485 0.04902098 -0.02701979 0.00013738152 0.048925553 -0.004426203 0.04182774
-0.004083301 0.012038649 0.082399905 0.09711321 -0.05488853 -0.011731025 -0.040750574 -0.019945964
0.053782184 0.13762008 0.016065698 0.035990857 0.0696125 -0.033508327 -0.17091341 -0.040892407
-0.024246119 0.015397535 -0.16482653 0.06757215 0.04110762 -0.005484584 0.17353244 0.03213814
0.08811269 0.03169154 -0.039883025 -0.009051031 -0.02131524 -0.0070679244 -0.17607869 -0.13233474
0.07314466 0.036820654 -0.11795228 -0.092838414 -0.024701606 0.019956592 -0.03431657 0.0016142807
-0.10426883 0.099119656 0.05147627 0.03873662 -0.17410612 -0.07117102 0.056846306 -0.059644826
0.032131832 -0.0013317064 0.044043336 -0.06928581 0.0859141 -0.03965912 0.09416327 0.022572607
-0.0017031884 -0.0007529725 0.018112475 0.16790858 -0.16041775 -0.06311943 -0.08580017 0.14329065
-0.020141788 0.026528439 0.069541626 0.007933364 0.03891373 0.11810318 -0.013565649 0.09332527
-0.09385236 -0.04060147 -0.047435414 0.05350023 -0.026812382 -0.20914362 -0.002736607 -0.05710498
-0.010901585 -0.2977025 -0.00688928 0.046282798 -0.04337958 0.1689741 -0.07175629 0.029014176
0.10879634 -0.017802125 -0.006148071 0.036466107 -0.016447615 -0.0080304 -0.22599238 0.16560216
-0.0039153043 -0.027622063 0.017147392 -0.019492354 0.14503169 0.012604517 0.04803922 -0.07163956
0.04704521 -0.051446386 0.16496399 0.1206599 0.062276997 0.0067282976 0.00233813 -0.13286069
-0.17582011 -0.013903539 0.09562191 0.07997899 0.11543936 -0.010420384 -0.089440964 0.021129075
-0.08337282 -0.057976793 -0.08373818 -0.0876979 0.118543655 0.20928566 -0.11102627 0.044761326
-0.023972623 -0.05178802 -0.020817371 0.052653577 0.071128465 -0.22168238 0.30871868 0.010806176
0.03916437 -0.012514575 -0.12870447 0.015144492 0.059580006 0.08198625 -0.07192726 0.018049128
0.24672218 0.10323739 -0.0038596129 -0.2136551 0.036832508 -0.011616144 -0.11471003 -0.042097613
-0.024295755 0.21905267 0.059435055 0.014476471 0.062047146 -0.03910828 -0.0330839 0.010695895
-0.2285047 -0.050602544 0.019212084 0.094336346 0.07194285 0.09000901 -0.15323971 0.03331603
-0.093394145 0.06555772 -0.14133896 -0.018746149 0.03834805 -0.17513505 0.14392105 -0.06305625
-0.018980842 0.0072121783 -0.017280055 -0.03679466 -0.1381063 -0.154596 -0.0042967335 -0.12783594
-0.0075769573 0.026111914 0.009903035 0.010344356 -0.004416449 0.093417145 -0.01832651 -0.017149288
0.07799159 -0.0007429515 0.07569052 0.0046297153 0.0077855135 -0.039232533 -0.0873765 -0.019422114

action_model._discrete_distribution.branches.0.bias f4 [2]
00000000: 8c14 573c 6214 57bc
0.013127457 -0.013127418

action_model._discrete_distribution.branches.1.weight f4 [2, 256]
00000000: ba0a d6bb 5666 20bd add0 89be 4a72 1abc
00000010: 965c dc3d 6c3f 37bc c12e b63d fad5 a9bd
00000020: ad3d fe3c 5369 56bd e913 a03c 624d bdba
00000030: bb24 283d 0c30 453d 934e 323d bc62 613b
00000040: 7242 183e 3020 5a3b 1c95 993d 5e5d 50bc
00000050: bf89 1bbb 989f 9dbd 66b2 273b dce2 9abd
00000060: 5f84 f33c 0ebe 79bd 482c 263e e17f d23c
00000070: d06a 61bd c469 cfbb 30e7 a3bd 0884 40bd
00000080: e479 163d 38c3 9bbc f74a c63c d8b6 4abc
00000090: 002a debc a56e e2bd 1fdc 8bbd 8287 3e3d
000000a0: b0e5 903a 4c08 f13d d7e6 ad3b 6cb8 61bd
000000b0: f1b0 e0bc cdea 573d 3b82 933d 785b 923d
000000c0: 816b 4a3d 545f 803d f170 613d 4652 82bd
000000d0: 9d72 23bd acb3 033e 595a c1ba be17 993e
000000e0: 6b6a 9d3d 6f80 0a3b 9a26 09bd d988 373c
000000f0: 6a6d 643e 6b9a 1a3b 373c 333d cccc 8dbb
00000100: 51fd 7d3d cee3 d2bd 4f78 c33d e182 853e
00000110: a59f 0f3e 0d4d 983d cc6c 953c 98e9 e7bc
00000120: 1084 973d 7db9 123d acfd 0ebd 6ac4 023e
00000130: 6620 743e 9a52 013e 0e1d ae3b e90b 1a3e
00000140: 2c39 b0bb d261 5bbb dea9 e6bd 21cc 9bbc
00000150: 85f8 7b3d a7d4 4b3d dffb 323d d9e8 26bd
00000160: 580d 3b3d 9039 0bbe 4b14 5e3e 2342 e7bd
00000170: 168d 5a3d 2ccc 0bbc 9f45 72bd e7bf 68bb
00000180: fd34 cc3c 7660 98bd 6bf9 b3bc 4cbe cc3c
00000190: 4c24 c0bd c331 693c decf af3c 56bc 143c
000001a0: 75c5 343d e0d5 cdbc ad1f 173e 86d9 e13d
000001b0: 546c 9d3c 1531 273e 4eb9 89be b535 d13c
000001c0: bf02 adbd 747e e7bd c5d2 63bb a11e ebbd
000001d0: 77ef c2bd 5d6c a13d 3b7b 283d e64c 703d
000001e0: efb9 33be cdf8 083d 80e9 523e 7ae5 a73d
000001f0: eb75 843a 47bc c93d 4931 fcbc 8932 a93c
00000200: 615c babb 8d69 f43a 8160 c63d 0d34 ac3d
00000210: 8c3e 8fbb f304 2f3d 289f f13d f507 13bd
00000220: 0a4c 873c 6c86 b73d 726b 813d ab15 abbb
00000230: 5433 c6bd 2036 a8bd 7df1 9cbc 7224 e63b
00000240: 8801 813d 48ee 49bc 194c aebc e305 e7ba
00000250: 967f 8b3d 29d1 b3bd c418 1e3e 00f7 bcbd
00000260: aceb 053e 72da a13c cece 7c3d 915b d0bc
00000270: 5eb6 14be 8a62 993b ebd1 d63d ca69 f33d
00000280: 20ea a5bd ba2a f8bd 016b cf3d 480f 143e
00000290: 6eb5 c63d ac5c a43d d7fe 933e 6733 0d3e
000002a0: c277 003c 3b23 853c 8953 bd3d 7fc0 3e3d
000002b0: 0faa c63d 4775 d93d 1aa2 903d 8b3f 90bd
000002c0: 7e13 263d b69d f2bc e903 e43d f725 2fbd
000002d0: 0169 92bc 4c55 c1bd fa3d 103e a2fb 28bd
000002e0: e9b0 c7bd bd4c 2d3b 44b8 2a3c 4d77 d23d
000002f0: 0578 6a3d 705a 103d fb7d 103e d7b3 a13c
00000300: 246e 6c3c 8a54 b53a 62f5 8ebc 633c 1ebc
00000310: ebba a4bc f2f6 6bbe 28c8 863e 0643 823c
00000320: b05b 463d 380b 86bc 1b15 26bc af9f 6cbc
00000330: 149c d3bd 574e 82bd 38e2 f43d b48b a1b9
00000340: 7e78 843e ded8 d4bd 723c 3b3c e074 a23c
00000350: 50ff 98bc c549 dc3c 62bb 96bc 18a0 dc3d
00000360: 53f8 923d 0b48 173e c810 01bc b00d 1ebd
00000370: 7ad9 813c c68b 113d 7435 36bc 283c 14bb
00000380: 7d9b ac3d f164 203e 342b 3fbe 3a4f 3a3e
00000390: 372a ebb9 537a 1cbc 7790 55be b180 2cbd
000003a0: 2472 583c 1b32 193d 38b0 0d3c 0859 47bd
000003b0: 719e 423e 513b 223e ef37 0fbe 459b e33d
000003c0: 0582 ad3b e879 a03c 3959 0bbc c8ff 013d
000003d0: 38d9 e5bb 7eae 9ebd 9b35 ea3c 63de 4f3d
000003e0: c29c acbd eb86 a03b 2518 5abe 3220 f6bc
000003f0: b0a0 a33b 6e9c e1bd 6dba 13bc cfed 1b3d
-0.0065320404 -0.039160095 -0.2691702 -0.009426663 0.10759847 -0.011184555 0.08895636 -0.08292766
0.031035269 -0.05234654 0.019540744 -0.0014442618 0.041050654 0.048141524 0.043531965 0.0034391126
0.14869097 0.0033283345 0.074991435 -0.012717573 -0.0023733226 -0.07696456 0.0025588511 -0.07562801
0.029726205 -0.060972266 0.1622783 0.025695743 -0.055033505 -0.006329747 -0.0800308 -0.047000915
0.036737338 -0.019013986 0.024205668 -0.012372695 -0.027119637 -0.1105626 -0.06829094 0.04651595
0.001105478 0.11769161 0.0053070593 -0.05510752 -0.027428122 0.052714158 0.07202574 0.071463525
0.04941893 0.062681824 0.05503935 -0.06363349 -0.039904226 0.12861508 -0.0014751657 0.29900926
0.07686313 0.0021133681 -0.03348408 0.011202061 0.22307363 0.0023590575 0.043758597 -0.004327392
0.06200916 -0.102973565 0.095444314 0.26076415 0.14025743 0.07436571 0.018240355 -0.028309628
0.07398236 0.035821427 -0.03490989 0.12770239 0.23840484 0.12629166 0.005313522 0.15043606
-0.005377909 -0.0033475053 -0.11262868 -0.019018235 0.061516304 0.049763348 0.043697234 -0.040749405
0.045667022 -0.13596177 0.21687429 -0.112919115 0.053357206 -0.008532565 -0.059148427 -0.0035514773
0.02492761 -0.074402735 -0.021969518 0.024993084 -0.09381923 0.0142330555 0.021461423 0.009078106
0.044133622 -0.025126398 0.14758177 0.110278174 0.019216694 0.16327317 -0.2689919 0.025538305
-0.084477894 -0.11303416 -0.003476308 -0.114804514 -0.095183305 0.07881997 0.041133147 0.058667086
-0.17551397 0.0334404 0.20596886 0.08198066 0.0010105943 0.09850364 -0.03078522 0.02065398
-0.005687282 0.0018647179 0.096863754 0.084083654 -0.00437147 0.04272933 0.11797935 -0.03589626
0.01651575 0.08961186 0.06319322 -0.005221089 -0.09677759 -0.082134485 -0.01915812 0.0070233876
0.0629912 -0.012324877 -0.02127652 -0.0017625656 0.068114445 -0.087801285 0.15439135 -0.09226799
0.13078183 0.019757483 0.06172066 -0.025434287 -0.14522693 0.004680936 0.104892574 0.11885412
-0.081012964 -0.121175244 0.10127831 0.14458954 0.09702574 0.08025488 0.28905365 0.1378914
0.0078410525 0.01625215 0.09244449 0.046570297 0.09700405 0.10618072 0.070621684 -0.0704337
0.040545933 -0.029616218 0.11133558 -0.042760815 -0.017872335 -0.09440097 0.14086142 -0.0412556
-0.0975054 0.0026443445 0.010419909 0.10276661 0.057243366 0.035242498 0.14110558 0.019739075
0.014430556 0.0013834399 -0.017450992 -0.009657952 -0.02010866 -0.23043421 0.26324582 0.0159011
0.048427284 -0.016362771 -0.010136868 -0.014442368 -0.10332504 -0.063625984 0.1195721 -0.000308124
0.25873178 -0.10392927 0.0114279855 0.019831121 -0.01867643 0.026890645 -0.018399898 0.10772723
0.0717627 0.14773576 -0.007877536 -0.038587272 0.015850771 0.03553369 -0.011121143 -0.0022618864
0.084280945 0.15663506 -0.18668824 0.18194285 -0.00044854145 -0.009550649 -0.2085589 -0.042114917
0.013210807 0.0374013 0.008647971 -0.04866889 0.19005753 0.1584294 -0.1398618 0.111136
0.0052950406 0.01958938 -0.008505159 0.031738073 -0.00701442 -0.077481255 0.028590014 0.050749194
-0.08428337 0.004898896 -0.21298273 -0.030044649 0.0049935207 -0.11016165 -0.009016615 0.03806859

action_model._discrete_distribution.branches.1.bias f4 [2]
00000000: 3839 1d3a 1029 1dba
0.0005997601 -0.00059951935
