Assets/Models/FinalLevelRayPerception/Final130mioSteps.onnx (onnx, 464624 bytes, 14 tensors)

discrete_act_size_vector f4 [1, 3]
000000 00 00 00 40 00 00 00 40 00 00 00 40
       2.0 2.0 2.0

network_body._body_endoder.seq_layers.0.weight f4 [256, 183]
000000 2b 38 38 be d4 7e 1f 3e 6a 61 bc 3e 43 3a c0 bd
       -0.17990176 0.15575725 0.3679307 -0.093861125
000010 a4 10 93 be 19 81 dc bd bf e6 03 3e 59 e7 04 be
       -0.28723633 -0.10766811 0.12880991 -0.12978877
000020 ba 56 9b bd 7f 6d 27 3c 49 66 4c 3e 19 40 1b be
       -0.07584901 0.010218977 0.19960894 -0.1516117
000030 f7 09 a5 3d d3 f7 a8 3c 4b 75 49 3e f5 42 23 be
       0.08058541 0.020625984 0.1967365 -0.15943511
000040 73 ad 35 bd 25 b6 3b be 5f 6e a9 3e a7 30 9d bc
       -0.044354867 -0.18331201 0.3309202 -0.019188238
000050 da 13 a0 bb 7d 3b 9f 3d b6 f8 23 3e 5d 4a 99 be
       -0.004885179 0.07775018 0.16012844 -0.29939547
000060 4d 3a f1 bd 8f c9 70 be 1c b3 84 3e 98 9c 91 be
       -0.11778698 -0.23514389 0.259179 -0.28439784
000070 96 a7 7d 3e 67 f2 41 be ad 90 1d 3d 38 8f e6 bd
       0.2477096 -0.18940125 0.03846805 -0.112577856
000080 b2 59 b1 3d fc 75 73 be c4 12 30 3e 49 9a 8c 3c
       0.08659686 -0.23775476 0.17194659 0.017163413
000090 8b 99 56 3d 34 3c c5 3d 5c ce b8 3c 13 93 20 bd
       0.052392524 0.096306235 0.022559337 -0.03920276
0000a0 28 1c 86 be 44 26 b2 bd 08 e3 66 3e 9c 7a c8 be
       -0.26193357 -0.08698705 0.22547543 -0.39156044
0000b0 88 c8 e0 3d 12 46 a3 bd 25 a7 21 be 2b dd b9 bd
       0.10975748 -0.07972349 -0.15786417 -0.090753876
0000c0 a4 d4 42 be 78 ae b9 be 48 fc e4 3d a1 1e d6 3d
       -0.19026428 -0.36265922 0.11180931 0.10455061
0000d0 b0 b3 b1 3e c3 e9 9a 3d 17 af bc bd be 53 bf bd
       0.34707403 0.07564118 -0.09213083 -0.093421444
0000e0 d3 7b d6 be 9c 54 a8 be 97 03 a2 3e 18 fd 2a be
       -0.41891345 -0.32877052 0.31643364 -0.1669811
0000f0 a7 a7 19 3d c4 9f c4 3d 16 b8 1b be f7 ca 90 bd
       0.0375134 0.096007854 -0.15206942 -0.070699625
000100 a0 28 7d 3c 67 cd b4 be 7d 03 01 3e 93 04 ec bd
       0.01545158 -0.3531296 0.12598987 -0.1152431
000110 98 85 12 be 9b de ae 3d 84 35 f0 3b e8 4d 23 bd
       -0.14308774 0.085385524 0.0073305983 -0.03986922
000120 f9 a5 32 be 3b 98 1c bf 81 e0 c8 3e c1 25 0a be
       -0.17446126 -0.61169785 0.39233783 -0.13490964
000130 86 ec 75 3e 36 fd cf 3d 51 2c e2 bd eb 8b 9f bd
       0.24016008 0.10155718 -0.11043609 -0.07790359
000140 b9 7f 49 be 24 5f 33 be a3 87 46 be 5b 50 99 be
       -0.19677629 -0.17516762 -0.19387679 -0.2994412
000150 15 1f 18 bd 24 d1 16 3e 30 cc fa bc 2d 00 10 bc
       -0.037139017 0.14728218 -0.030614942 -0.008789104
000160 9e 3d 80 be 37 8d 9d be 0c 64 a1 3e 50 88 44 bd
       -0.2504701 -0.307718 0.31521642 -0.04798156
000170 ce 27 4d 3e f4 a9 99 bc 88 ac 68 bd b3 8d fc bd
       0.20034716 -0.018757798 -0.056805164 -0.123317145
000180 5c 2c 24 be 7e 21 82 be c0 d1 a7 3d e7 23 be bd
       -0.16032547 -0.25416178 0.081943035 -0.092841916
000190 cc 9a 96 bd 17 00 bc 3d 20 c1 51 3d 4f 91 17 be
       -0.07353744 0.09179705 0.05120957 -0.14801525
0001a0 a6 99 59 be bf cb 48 be 67 44 92 3e 94 5f b7 3d
       -0.21250018 -0.19608973 0.28567812 0.08953777
0001b0 db 16 7c 3e 5d e4 c4 3c b7 84 c8 bd 3e 8b 97 bc
       0.24618094 0.024034673 -0.09790938 -0.018499013
0001c0 99 64 8c be 3b 7b d6 be 7c e3 b6 38 bd a5 28 3e
       -0.274205 -0.41890892 8.7208085e-05 0.16469474
0001d0 c0 f6 c0 bd 27 5f 96 3d 78 97 bd 3c 0c c2 e7 bd
       -0.09422064 0.073423676 0.023143515 -0.113163084
0001e0 ba 71 c2 be 23 68 9b bd 62 96 e4 3e ab 06 24 bd
       -0.3797739 -0.07588222 0.44645983 -0.04004542
0001f0 47 ca 82 3d 2a 80 2b 3e 67 7b 12 3d f8 bc 4c bd
       0.063862376 0.1674811 0.035762217 -0.049984902
000200 db 76 24 be 74 dd ff be af e3 ec 3d dd 7e da 3d
       -0.16060965 -0.49973643 0.11566865 0.106687285
000210 1e 33 18 be 33 77 86 bd 00 47 b2 3d b2 cc 15 3d
       -0.1486325 -0.06565704 0.087049484 0.036572166
000220 ac 6a 11 bf b4 79 d5 3d 6b dd 9a 3e 81 14 8b 3d
       -0.56803393 0.10423604 0.30247054 0.0679102
000230 03 bd ec 3d 89 fb b3 3e 1f 54 c5 bd 7a ef bd 3c
       0.115594886 0.35152844 -0.096351855 0.02318548
000240 6c 1b 1c bf bd 3e 04 bf 01 4d 6b 3e 4b fe 94 bd
       -0.6097934 -0.5165823 0.22978593 -0.07275065
000250 4e 84 26 be 6b 7f 02 be c4 fc a8 3c 08 d7 d2 bd
       -0.16261408 -0.12743919 0.02062834 -0.1029492
000260 41 40 fa be 31 2f 34 3e 76 de cf 3e 5c 91 a3 3d
       -0.48877147 0.17596127 0.40599412 0.079867095
000270 e4 d6 6b 3d 26 10 50 3e 24 7c 48 bd 51 ac 8b 3a
       0.057577983 0.2031866 -0.048946515 0.0010656213
000280 bf 52 39 bf 54 ab 91 be 0a 49 ec 3d 48 00 83 3e
       -0.72391886 -0.28451025 0.115373686 0.25586152
000290 3f 6d 07 be ff e1 12 be 1d 6f b5 bc a3 17 cc bd
       -0.13225268 -0.14344023 -0.02214771 -0.09965446
0002a0 49 f8 25 bf 1f c4 34 bf 35 cc b1 bc 78 61 3f 3f
       -0.6483198 -0.7061176 -0.021703819 0.747581
0002b0 3f 10 8c 3f a6 7c 18 bf 3d 14 42 bf 4c ab 28 3d
       1.0942458 -0.595652 -0.7581213 0.041178986
0002c0 a5 67 19 bc 58 eb 53 be 42 d0 e0 bc dd 68 75 3e
       -0.00936309 -0.20695245 -0.027443055 0.23965783
0002d0 7d 80 9b be 0c 45 4c 3e f0 8e fd 3c 49 fb 8d 3d
       -0.30371466 0.19948214 0.030951947 0.069326945
0002e0 89 c5 80 be 0f 87 8b be 1b 12 81 bd 3a ec 84 bb
       -0.25150707 -0.2725148 -0.063022815 -0.0040564807
0002f0 42 e8 0d 3d 70 22 4f 3e 1d 11 b1 3d e4 cc f4 bd
       0.034645326 0.2022798 0.08645842 -0.11953142
000300 80 eb 8e be 5b 9f 9d be e2 59 18 3d 03 b8 35 3e
       -0.27914047 -0.3078564 0.037195094 0.17745976
000310 4c 30 4c bb 59 88 a9 3e de 6e 81 3d d9 e7 7c 3e
       -0.0031156717 0.33111838 0.06319974 0.24697818
000320 36 f1 58 bd 76 da 82 3d fd cf 53 bc 00 c9 17 bf
       -0.05296441 0.06389324 -0.012928006 -0.59291077
000330 c1 fb a9 3d 2c ea 5c 3e f8 00 7c 3d 30 9c 72 be
       0.08299971 0.21573704 0.06152436 -0.23692393
000340 36 35 13 be 88 e8 08 bf 7e 20 b0 3d f4 d2 cc bd
       -0.14375767 -0.53479815 0.085999474 -0.100011736
000350 d8 b6 0d be 76 f8 b0 3e 7d eb 2d 3e d2 ad 56 3e
       -0.1383928 0.3456456 0.16984363 0.20964745
000360 d6 63 6b 3e 07 8f d2 3d e2 62 1e bd 8f 66 22 be
       0.22987303 0.102811866 -0.03866852 -0.15859435
000370 fb 9d 75 3e 08 c3 a0 3d 56 e3 ef 3d ea 57 6a be
       0.23986046 0.07849699 0.11713283 -0.22885099
000380 5b 82 81 bd 54 97 bb be 2c bf c5 3c b4 05 1a bf
       -0.063236915 -0.36638892 0.02413901 -0.6016495
000390 3a 94 d5 3d b0 43 9a 3d 5f 40 8a 3e 0c a7 ba 3e
       0.104286626 0.075324416 0.27002236 0.36455572
0003a0 20 c2 21 3e f7 3c c2 3d 4c e7 82 bd 78 b5 8d be
       0.15796709 0.09484284 -0.06391773 -0.27677512
0003b0 5b cb 99 3d f8 28 e4 3d 62 fe fc 3c 3c 06 f0 bd
       0.0750949 0.11140627 0.030883018 -0.11719939
0003c0 70 91 0d 3c a7 d6 be be d5 15 0d 3e 5f ee 17 bf
       0.008640632 -0.37273142 0.1377786 -0.593481
0003d0 87 7f ce 3e 89 21 43 3e 97 d3 10 3e d1 c2 c2 3e
       0.4033167 0.19055761 0.14143215 0.38039258
0003e0 79 9b 94 3e 87 40 7b 3e cf cd 5f bd fe 09 e1 3d
       0.29024866 0.24536334 -0.054639634 0.10988234
0003f0 33 81 39 3e b4 e3 15 be c3 90 bb bd 5b e8 20 3d
       0.18115692 -0.14637643 -0.091584705 0.03928409

network_body._body_endoder.seq_layers.0.bias f4 [256]
000000 93 20 75 bd 78 10 9f 3c c8 40 07 bc 9b d4 d6 bd
       -0.05984552 0.019417033 -0.008255191 -0.1048977
000010 56 a8 cf 3d b5 bf dc 3d 10 6c bd bd 2d 1b 3a 3d
       0.101395294 0.10778753 -0.09249127 0.045436073
000020 26 96 46 bd 1d 16 1b bd 21 be fc bc e4 1e 7e bd
       -0.048483036 -0.037862886 -0.03085238 -0.06204118
000030 b8 b9 cb bc 0a 2d f4 3d 4e cc 48 3c 35 42 24 be
       -0.024868831 0.11922653 0.012255741 -0.16040881
000040 e5 f8 45 bc ed 62 b5 3c cc 4e cd bd 22 9d cc bd
       -0.012083267 0.022141898 -0.10024795 -0.09990908
000050 79 ea ef 3c 7a c9 62 bd b3 cc 1a be d4 6e 03 3e
       0.02928661 -0.055367924 -0.15117149 0.12835246
000060 d1 5c 05 be 29 1b e0 3c e9 98 4f be ad 0f 4a bb
       -0.13023688 0.027356701 -0.20273174 -0.0030832097
000070 e7 2e 54 bd ad b6 be bc 07 dc 5f bd 27 6c 18 3d
       -0.051802542 -0.023280466 -0.054653194 0.037212517
000080 7b 84 bf bd 71 e0 a9 bc 4b 2c 8f bd 5f e4 b6 bd
       -0.093514405 -0.020736905 -0.0699087 -0.08930277
000090 c4 0a 7a bd 09 50 9a 3b 7b 3b d3 3c 0a 9a 95 bc
       -0.061045423 0.004709248 0.025785198 -0.018261928
0000a0 ec 4e ca 3d 5e d0 2f bd 2c 10 86 3a 54 f5 29 3b
       0.098783344 -0.042923324 0.0010228208 0.002593358
0000b0 f5 48 98 bc a4 7e 6a 3d 9f d7 c3 bb 6a d7 1c be
       -0.018589476 0.05724968 -0.005976632 -0.15316549
0000c0 af db 6b 3d 11 aa 3d bd 75 15 45 bd 92 e7 f1 bc
       0.057582553 -0.046304766 -0.048116166 -0.029529367
0000d0 54 20 d6 3c 0f 00 88 be a1 93 cd bc a3 a5 54 bc
       0.026138462 -0.26562545 -0.025094809 -0.012978944
0000e0 56 17 10 be 41 76 92 bd 47 71 c7 bd 08 1b 2d bd
       -0.14071402 -0.071514614 -0.09738403 -0.042262107
0000f0 32 1d 60 bb 7e 5c 69 be d9 d1 a4 3d 8d da 8b 3c
       -0.003419709 -0.22789189 0.08047838 0.017071987
000100 12 5d 20 3d c9 c0 9e 3c 43 20 c9 3d ce 30 8d 3d
       0.03915126 0.019379037 0.098206066 0.068940744
000110 44 5a 44 bd 59 ae 9c 3d 03 41 2e bd db 5d 59 bc
       -0.047937647 0.07650442 -0.04254247 -0.013267006
000120 69 19 a7 3c dd 8e fb 3d 68 53 3f bd dd be 96 bd
       0.020397859 0.122831084 -0.0467104 -0.07360623
000130 c6 09 19 bd 37 99 2b be 0a 06 b8 bd 2f 26 72 bd
       -0.037362836 -0.16757666 -0.08985527 -0.059118446
000140 7c 37 14 3d c8 61 82 3d 30 f0 82 3c ec 44 51 3d
       0.036185727 0.063663065 0.015983671 0.05109112
000150 28 c8 3f 3d f8 55 83 3d 5d 57 3d bd 25 65 5c bd
       0.046821743 0.064128816 -0.046225894 -0.053807396
000160 a6 eb e2 3a bc 53 ba 3b 5d 1b 21 3e ad 16 01 3e
       0.001731266 0.0056862514 0.15733095 0.12606306
000170 e0 e3 3c 3d 8a d4 22 3d 65 a1 93 bd 6f 56 a1 3d
       0.046115756 0.039753474 -0.07208518 0.07877814
000180 6a cf 48 3d 62 e3 8d bd 32 da 05 bd fa 84 40 bc
       0.04902593 -0.069281355 -0.03267879 -0.011750454
000190 a1 7d a6 bd 01 0c 97 bd 4b 35 b9 3d 1d 26 80 3c
       -0.081294306 -0.073753364 0.09043368 0.015643174
0001a0 ff 8f 6d be 51 be d7 3d e3 e8 d7 3d fe 4d 4d 3c
       -0.23199461 0.10534347 0.105424665 0.012530802
0001b0 24 21 32 3d ad 96 63 bb c0 56 1e 3e 7a 23 48 be
       0.043488637 -0.003472726 0.1546278 -0.19544783
0001c0 7e 48 40 bd 04 7d 3e bc 07 94 d1 bd ed 63 f0 3d
       -0.046944134 -0.011626486 -0.10233312 0.11737809
0001d0 4e 11 bf bd 91 a4 52 3b db 62 89 bd ed bc 7e 3d
       -0.093294725 0.0032141546 -0.06708308 0.062191892
0001e0 d6 64 4f bd 4a 21 9d 3c ff 17 04 3c 8b 67 c2 3d
       -0.050633274 0.019180913 0.008062362 0.094924055
0001f0 21 10 7c bd 77 61 4c 3d d8 32 46 3c b6 0e ab 3d
       -0.06153882 0.049897637 0.012097083 0.08352415
000200 4b db 34 bc ee 1c a8 bd 95 99 38 3d 27 e0 a5 bd
       -0.011038612 -0.08208643 0.045068342 -0.08099394
000210 87 ce 73 bd f9 87 f8 3c fb 6c 9c bd a8 3e 80 bc
       -0.05952313 0.030338274 -0.07637974 -0.015654877
000220 d7 21 5c bb cc c3 35 3d f9 06 44 be 6e 13 56 3d
       -0.0033589506 0.04437618 -0.19143285 0.052264623
000230 50 24 38 3d a1 64 17 b9 5d dc 98 3d 4a d1 e3 bd
       0.044956505 -0.0001443797 0.07463906 -0.11123903
000240 53 20 b4 bc 80 83 0e 3d 0e 42 1d 3c dd 53 76 bc
       -0.02198807 0.034793377 0.009598268 -0.015034643
000250 e4 7e ec 3d f5 7c 26 be 05 60 ed 3b b0 2f d9 3d
       0.1154764 -0.16258605 0.0072441124 0.10604799
000260 cc 97 ab 3d b7 68 8b 3d bd 37 08 be 37 9f eb 3c
       0.08378562 0.06807082 -0.13302512 0.028762443
000270 83 96 b4 3d 42 8b d6 bc 60 ec ba bc da 62 a0 3c
       0.0881777 -0.02618945 -0.02281779 0.019578386
000280 b3 6e b9 bc d9 10 e6 bb e0 ae df bc fe 49 c2 3a
       -0.022635793 -0.0070210514 -0.027305067 0.0014823077
000290 cf 59 06 bd 53 3c c8 bd 68 76 11 be 8c 25 03 be
       -0.032800492 -0.09777131 -0.14205325 -0.12807292
0002a0 09 cf 08 3e 28 19 34 be d1 01 26 3d 44 f2 3a 3d
       0.13360228 -0.17587721 0.040529076 0.0456412
0002b0 81 99 0d 3c 4a 17 f7 bd fe f9 0a 3c ba 49 a5 3d
       0.008642555 -0.12064989 0.008482454 0.08070703
0002c0 2f 69 07 be b9 f0 07 3d cd a1 a4 bd 89 80 9f bc
       -0.13223718 0.033188555 -0.080386735 -0.01947047
0002d0 d6 1b d9 3d 98 40 89 bc c3 e2 32 3b 50 8b 7d bc
       0.106010124 -0.016754434 0.0027295805 -0.015475109
0002e0 e4 ae bd 3c 95 2a 60 bc 2d e2 eb bb 5d 00 85 3d
       0.023154683 -0.013682027 -0.007198593 0.0649421
0002f0 10 a4 6f 3d 2e ce 8e bb 67 34 7b 3d ba 26 53 3c
       0.05850607 -0.0043580746 0.06132927 0.012887651
000300 0e cc 9f 3d f3 01 fe 3c 55 2d 75 3d d8 d2 0b 3d
       0.07802592 0.031006789 0.059857685 0.034136623
000310 ea f7 0b 3d 5d c5 d7 3d 65 0e ca bc d4 93 7f be
       0.034171976 0.10535691 -0.024665067 -0.24958736
000320 6d ae c5 3d 92 48 bf bc 90 fb 04 3d 45 bb ff bd
       0.0965241 -0.023350034 0.03246647 -0.12486891
000330 89 78 7f 3d d8 77 7d 3b c1 69 47 bc 62 af 44 bc
       0.06237081 0.0038676169 -0.01217121 -0.012004705
000340 61 28 94 3d 5f 44 33 3c 2b 5b 6b bd e7 3c 0a 3d
       0.07234264 0.010941594 -0.05745999 0.033749487
000350 2e 8c 79 bd de d0 54 3c 3c e9 a0 3d 64 61 46 bc
       -0.0609247 0.012989251 0.07856986 -0.012108181
000360 bf 18 cb bd 48 25 9a 3d e8 2b 46 3d de 0a 66 bc
       -0.09916829 0.07526642 0.048381716 -0.014040677
000370 eb b5 b5 bc 9f 66 6b bc 06 b4 2c 3d b6 0a 4c bd
       -0.022181472 -0.0143677285 0.04216387 -0.049814902
000380 3c 18 5d bc 5e 16 23 3d 1e a4 b7 bd 88 af b5 bd
       -0.013494547 0.039816253 -0.0896685 -0.088713706
000390 cd e8 69 3d 53 de 00 3e fe d9 7e bd 13 d2 ca bc
       0.05710678 0.1258481 -0.062219612 -0.024758374
0003a0 70 96 8d 3d bb db c3 3c 90 3f e6 3c f3 00 36 3d
       0.06913459 0.023908487 0.02810648 0.0444345
0003b0 7a 23 c0 3c 6a 45 eb bb 11 ca 71 3d fd f2 8c 3d
       0.023454417 -0.0071799057 0.059030596 0.06882284
0003c0 a5 7f 4d bd dc 40 ab 3c 9e cb 5a bd c7 1f 2d be
       -0.05017056 0.02090495 -0.05341684 -0.16906653
0003d0 8d 6f 0d be 7c 6f 1f be 9a b4 04 be 6e c3 7c bd
       -0.13812084 -0.15569872 -0.12959519 -0.061709814
0003e0 ea 08 d9 3c 28 82 b0 bd 72 b7 f2 3d e0 c5 d5 3d
       0.026493508 -0.08618575 0.11851396 0.10438132
0003f0 31 19 41 bd 86 bc 67 3d 4b 02 8f 3c 8c 94 67 3d
       -0.047143165 0.056576274 0.017457148 0.05653815

network_body._body_endoder.seq_layers.2.weight f4 [256, 256]
000000 d6 24 70 be af 51 7b 3d d1 04 5f 3e b0 9d 55 be
       -0.23451552 0.061357196 0.21779181 -0.20860934
000010 f3 e7 bf bc f7 17 c6 3e a2 d4 ac 3d 4c c8 ff bd
       -0.023426032 0.3869016 0.08438994 -0.124893755
000020 d7 24 c5 be 1d 22 89 3d 46 ab e9 bb 78 4e 83 be
       -0.3850467 0.0669596 -0.007131013 -0.25645804
000030 4f d2 91 be 44 d1 9e bd 5c 9e 46 be 59 9c 94 bd
       -0.28480765 -0.07754758 -0.19396347 -0.072563834
000040 19 9d 46 3e 17 a9 ee 3e 16 f7 45 be 82 5d a5 bd
       0.19395865 0.4661338 -0.19332537 -0.08074476
000050 2b 72 c5 be 01 76 0b be 96 8e 0e be b8 f1 9d 3e
       -0.38563666 -0.13619234 -0.1392158 0.3084848
000060 bf f1 67 bd 27 f0 23 bd af f6 8e 3b 0a 93 80 be
       -0.05662703 -0.04002395 0.004362903 -0.25112182
000070 e9 6a a0 be b1 47 0e be 44 f4 d2 bc 0a 47 49 be
       -0.31331566 -0.13894536 -0.02575124 -0.19656006
000080 a2 b3 1c 3e a3 85 f7 3c ad 48 af 3e a0 95 af bb
       0.153029 0.03021509 0.34235135 -0.005358413
000090 f1 43 17 3d df c8 f7 3d 91 c8 b2 3e c9 3e 1f 3e
       0.03693003 0.1209886 0.34918645 0.15551294
0000a0 6f c4 41 be 4c 7a 66 be 16 e1 58 3e 0b 09 3a be
       -0.1892259 -0.2250759 0.21179613 -0.18167512
0000b0 3a f4 ce bd 89 8d b1 be 2c 1c dc bc 86 9d f0 bc
       -0.10105176 -0.34678295 -0.026868902 -0.029371988
0000c0 62 3d cf 3d 86 15 62 3e 85 0a e0 bc 4c 26 1d be
       0.1011913 0.22078523 -0.027348766 -0.1534664
0000d0 bc 2a 8e 3e 45 b4 72 3d 8e e8 72 3e 22 6f dc bd
       0.2776698 0.05925395 0.23721525 -0.107633844
0000e0 09 6d 25 3d ad 94 97 3c 45 93 7c be af e4 93 be
       0.040387187 0.018503511 -0.24665554 -0.2888541
0000f0 63 fb 72 3e 72 3e c1 be c2 b4 86 3d 9d 91 a1 3d
       0.23728709 -0.37742954 0.065774456 0.07889102
000100 b4 f9 a0 3d 12 99 51 3e b7 25 19 bc 2d d1 77 3e
       0.07860127 0.20468548 -0.009347371 0.24200888
000110 1f af 28 bd 42 92 5b 3d 43 64 65 be 3d 73 56 3c
       -0.041182633 0.05360628 -0.22401528 0.013088998
000120 e4 27 7d be df e1 ff be 2c b8 26 3e 6e de 64 be
       -0.24722248 -0.49977013 0.16281193 -0.22350475
000130 d7 8a 84 3c f4 1b a6 bd 66 18 85 3e d8 ea 0d 3f
       0.016179485 -0.081108004 0.25995177 0.5543647
000140 c4 64 4d 3d 3b 71 22 be 7d bc 80 3d 8b d4 19 3d
       0.050144926 -0.15863506 0.06285951 0.037556212
000150 9b f2 0e be 87 89 71 3e d9 17 90 3d cb 60 0b 3e
       -0.13959734 0.23587619 0.070357986 0.13611142
000160 1c 12 1e be 9c 49 04 be b0 73 a5 be 3a 9b b2 be
       -0.15436596 -0.12918705 -0.32314825 -0.34884053
000170 d4 92 22 be 0a e4 fc bd b7 d4 34 be 4c dc 14 3e
       -0.15876323 -0.123481825 -0.1765927 0.14537162
000180 40 e0 8d 3c a9 0c ae be 7e eb 07 bd bd 72 d6 3e
       0.017318845 -0.33994034 -0.033183567 0.41884413
000190 ee a4 38 3e de f2 17 bd 9e 5c 9f be c8 4f 42 be
       0.18031666 -0.03709685 -0.3112535 -0.18975747
0001a0 f4 00 8a 3e a9 c6 80 bd e5 d0 82 be 95 90 82 be
       0.26953852 -0.062878914 -0.2555 -0.25500932
0001b0 03 5f 4e 3c b4 f6 75 be e2 52 8e 3b 4c 13 18 be
       0.012595895 -0.24019891 0.0043433765 -0.14851111
0001c0 6b 31 98 3c a5 30 22 3e e7 34 be 3d 18 58 b6 be
       0.018578252 0.15838869 0.09287434 -0.35614085
0001d0 77 d6 12 3e 9a 44 a6 3b 6f c8 03 3e 42 55 3b be
       0.14339624 0.005074096 0.12869428 -0.18294242
0001e0 64 7b 14 be 47 96 f9 bd 1a 47 3c be be ec ec 3d
       -0.14500195 -0.12186866 -0.18386498 0.115685925
0001f0 4c c1 c0 3c 5d 59 6f be cc 30 6c be 45 7a b7 3c
       0.023529671 -0.23373933 -0.2306549 0.02239717
000200 60 08 91 3e 39 bd 7d be 4f 4c ff bd 00 9b 8a bc
       0.28326702 -0.24779214 -0.124657266 -0.016919613
000210 a9 54 99 3b a6 0b 37 be 23 db 12 3c d4 6c b5 be
       0.0046792817 -0.17875537 0.008963379 -0.35434592
000220 3e 19 f7 3d ff b8 7f 3e b5 63 e4 be a9 c9 88 bd
       0.120653614 0.24972914 -0.4460732 -0.066790886
000230 c2 91 01 3d 26 ca 64 bd b7 f2 15 be 02 a3 2a 3e
       0.031633146 -0.055856846 -0.1464337 0.16663745
000240 3f 1c 1c 3d 89 d8 95 3e 75 35 c9 bd 95 0e 98 3d
       0.038112875 0.29266766 -0.09824649 0.07424656
000250 24 df d9 bd ff 1e 15 3c 5e b6 90 3d 2c e3 e0 3c
       -0.10638264 0.009101628 0.07066034 0.027452074
000260 a9 fb 91 3d f1 6a 15 be 10 5a 62 bd f8 e7 90 bd
       0.071280785 -0.14591576 -0.05526167 -0.070754945
000270 d9 ea 99 3a e8 10 b3 3a 1d 6e 95 be dd 26 dc 3d
       0.0011742964 0.0013661655 -0.29185572 0.107496
000280 76 ff 5b bd c2 de e2 bd f1 a1 97 3d 25 5b 60 3e
       -0.053710423 -0.11077644 0.07403935 0.21909769
000290 df 01 39 bc 91 4c b3 be 34 e4 27 3e 58 43 f5 3d
       -0.01129195 -0.35019353 0.16395646 0.119757354
0002a0 95 9d 5e 3e c3 91 fa 3d 85 fb 5f be b4 b4 b3 3e
       0.217398 0.12234833 -0.21873291 0.35098803
0002b0 ce 7b 4f 3e 83 1e 88 3e a8 f5 e2 bd 6a d5 8d 3e
       0.20262071 0.2658578 -0.110820115 0.27701885
0002c0 24 d8 82 be 36 5e b2 bd d1 ed 37 be 31 f7 1e 3d
       -0.25555527 -0.087093756 -0.17961814 0.03880996
0002d0 b5 c5 44 3d 5a 55 81 3e 1e e4 1b 3e 50 10 1b bd
       0.04804011 0.2526043 0.15223739 -0.037857354
0002e0 29 36 fc be a0 4c 4e 3d 1d ff 24 bd 02 aa 0c 3e
       -0.4926007 0.050366044 -0.040282357 0.13736728
0002f0 8f dd af 3d 4e 31 97 be 08 45 cc bd ba 0a 37 bd
       0.08587181 -0.29529804 -0.09974104 -0.044687964
000300 dd 3c 70 be 6b 98 7c 3c 7c be 45 3d f0 a8 c3 b9
       -0.23460717 0.015417199 0.048277363 -0.00037319167
000310 ba 54 6f 3e c9 bd c5 3d 87 b2 57 be b5 48 9e be
       0.23372164 0.09655339 -0.21064197 -0.30914846
000320 c1 e0 98 bd eb ec 39 be 5f 3b 1c be 1c 7c ab be
       -0.074647434 -0.18156783 -0.15257023 -0.33493125
000330 25 8f c1 bd 1e 21 03 3d e5 52 0b bf 8f 81 2b 3e
       -0.09451131 0.032014005 -0.5442336 0.16748641
000340 d5 27 6c bb 63 59 0b 3e d1 43 d8 3d 7c b1 21 3d
       -0.0036034484 0.13608317 0.1055981 0.039475903
000350 63 b3 2a 3e a2 b1 b8 3d 96 f7 4b 3e cd c7 34 bd
       0.16669993 0.09018256 0.19918665 -0.044135857
000360 6b 7e d3 bd 57 7d 82 bd 95 72 93 bd 85 e0 c9 bc
       -0.10326847 -0.06371563 -0.07199589 -0.024643192
000370 0b 55 c4 bd 86 11 6b 3e 8a de ac be 0e 13 8b 3e
       -0.09586533 0.22955903 -0.33763534 0.27162975
000380 70 33 13 3e 76 8d ce 3d 9f cf 12 bd 27 ea 3b 3e
       0.1437509 0.10085575 -0.035842534 0.18351041
000390 99 7f 3e bd e1 b0 b1 bd 28 46 2e be e4 07 50 be
       -0.046508405 -0.08676315 -0.1701895 -0.2031551
0003a0 23 da ef 3d fc 5f 2f be c6 f0 c9 3d e8 6e b3 be
       0.11711528 -0.17126459 0.09860377 -0.35045552
0003b0 54 81 2c 3b fc 7b c8 3c fd 7b 2c be d6 40 09 be
       0.0026322203 0.024473183 -0.16844173 -0.13403639
0003c0 8c 8e 3c be 04 84 60 3d ee fc 36 3d 40 c5 b8 3d
       -0.18413752 0.0548134 0.044674806 0.090219975
0003d0 5b a3 8d be 40 4b 8e be 59 2b 40 3d ee eb 7b bd
       -0.27663693 -0.27791786 0.04691634 -0.061504297
0003e0 41 fe 7a bd 47 14 fc 3d c5 e3 2b 3d 93 74 a6 bd
       -0.06127763 0.12308555 0.041965265 -0.081277035
0003f0 28 cf 1d 3e 10 37 33 3e f3 4f 38 3e 51 00 8b 3d
       0.15411055 0.17501473 0.17999248 0.0678717

network_body._body_endoder.seq_layers.2.bias f4 [256]
000000 b1 09 c7 bd 41 e1 5c 3c b8 1b 82 bc 50 d9 ef 3b
       -0.09718645 0.013481439 -0.015882358 0.007319607
000010 04 3b dd 3d 01 28 19 bd 67 af 96 bb 88 c2 45 bd
       0.10802272 -0.037391666 -0.0045985463 -0.048281223
000020 dc c5 26 bd d2 e5 1a be 13 80 26 3d 0f 99 48 3c
       -0.040716037 -0.15126732 0.040649485 0.012243523
000030 76 2c 59 be 90 40 96 bc e1 5b 20 be ac 66 7f bd
       -0.21208367 -0.018341333 -0.15660049 -0.062353775
000040 4d 95 d5 bd 4c 3b 1a 3e 94 cd 1d be 7d 11 b0 bd
       -0.104288675 0.15061682 -0.15410453 -0.085970856
000050 5c 0c 4d 3d fd 8c 4d be 53 86 78 bd 47 46 9b bd
       0.050060615 -0.20073314 -0.060674977 -0.07581764
000060 28 21 81 bd 09 cc fb 3c ff a6 16 bc 0b ac 0f 3c
       -0.06305152 0.03073694 -0.009195088 0.008769046
000070 84 c9 62 bd de 42 f9 bd 50 16 9d bd 4f 23 14 be
       -0.05536796 -0.12170957 -0.076702714 -0.14466594
000080 06 14 07 bd 56 ec 25 bd 79 07 50 be 10 ed 46 bd
       -0.03297808 -0.04050859 -0.2031535 -0.048565924
000090 44 56 53 bd e7 7f 06 be 0e 1d 4d 3d 0c a8 1b bb
       -0.05159594 -0.13134728 0.050076537 -0.0023751287
0000a0 a6 cc da bd 0a 87 86 3d 4d f3 ac bd 4e bd 27 be
       -0.10683565 0.065687254 -0.084448434 -0.16380808
0000b0 5a d4 a2 bb 2d e2 35 bd db a6 a9 bb 44 83 5c 3d
       -0.004969162 -0.04440515 -0.0051773614 0.053836122
0000c0 87 b5 4c 3c 0d 4e 49 3c 28 3d 50 3d b4 4c ee bc
       0.012494451 0.012286675 0.050839573 -0.02908931
0000d0 f7 de 0b 3f f1 c3 f8 bd a0 40 01 be a5 37 0e 3d
       0.5463709 -0.12146748 -0.12622309 0.034721036
0000e0 4a 40 bc bc 4d c9 20 3d 41 25 d7 3c a5 ab 00 bd
       -0.022979874 0.039254475 0.026262881 -0.031413693
0000f0 0b dc e6 bc f1 aa e9 bd c5 44 a2 bd ef 4d 31 bd
       -0.028181097 -0.114095576 -0.07923273 -0.043287214
000100 2f 28 67 3d 52 c9 af bd 66 b6 c3 bc dd cc 4c bd
       0.056434806 -0.08583321 -0.023890685 -0.05000006
000110 1e 93 ae bd 6e fd fe bd c9 1b 27 be 54 93 ce 3d
       -0.08524154 -0.124506816 -0.16319193 0.10086694
000120 04 d9 5e bc e5 f0 ad bd 89 9d 34 bb 8d 6a e1 bd
       -0.013601545 -0.084932126 -0.0027559719 -0.11006651
000130 83 e8 5a bd 43 73 47 be 49 42 a8 bd 17 dc 91 3c
       -0.053444397 -0.19477563 -0.08215768 0.017805142
000140 cf bf 5d bd 66 18 ba 3e 21 dc d7 3c 1e 0d d4 bd
       -0.054138 0.3634674 0.026350083 -0.103540644
000150 65 ea 23 bd ae 29 a7 bd e1 30 b6 3d ff 02 cd 3d
       -0.040018458 -0.08162247 0.08896042 0.10010337
000160 df 81 81 3d 2c a1 fb bc c6 e0 fe 3b 64 f5 a6 bb
       0.06323599 -0.030716501 0.00777826 -0.005095171
000170 89 70 d8 bd c0 6b 34 bd 83 e3 1b 3e e8 c0 0d be
       -0.105683394 -0.04404807 0.15223508 -0.13843119
000180 70 bd da bd 93 8e 2e bd 7d 27 ad bd b1 20 bd bd
       -0.106806636 -0.042616438 -0.084547974 -0.09234751
000190 2f bd 64 be 82 15 05 bd 61 23 4a 3e 74 49 23 be
       -0.22337793 -0.032491215 0.19740058 -0.15945989
0001a0 29 f2 ee bd f4 4d 89 3e 9e f3 13 bc 7b ea 6b 3c
       -0.11667282 0.26817286 -0.009030251 0.014399166
0001b0 7a 09 97 bd 19 75 ed bd b8 ad a8 bd 7a 61 8c 3c
       -0.073748544 -0.115946 -0.08236259 0.017136324
0001c0 8f c8 95 3c 1a 11 7c bd e8 c3 c7 3b 54 ea e7 3c
       0.01828411 -0.061539747 0.006096352 0.028309979
0001d0 13 01 0b 3c 4a fa b8 bd 6d 1b 31 be 65 f2 ad bd
       0.008484143 -0.09032114 -0.17295618 -0.08493499
0001e0 13 aa 82 3d 0b 1d 10 3d ec b7 c5 3d 3d 83 d9 bd
       0.06380095 0.035183948 0.09654221 -0.10620735
0001f0 23 32 5d bd 1f bb a6 bc c4 df 72 bd a3 bb 67 bc
       -0.054002892 -0.020352898 -0.05929543 -0.014143857
000200 7d d1 9c be 72 73 44 3e 9e 5e 09 3d 96 10 60 bd
       -0.30628577 0.19184664 0.0335375 -0.054703318
000210 ac 86 4c bc 19 63 7d bb 64 c8 ba bd 9a 1d 18 bc
       -0.01248328 -0.0038663803 -0.09120253 -0.009284401
000220 65 a3 99 3b 6b 4e 02 bc c2 df 64 3d 6a 4c b7 bb
       0.0046886676 -0.007953267 0.055877455 -0.005593826
000230 fa ed e2 3c 66 9b 32 be 0a 60 45 bd 6b 29 0c 3d
       0.027701367 -0.17442092 -0.048187293 0.034219187
000240 a2 41 90 3c d1 77 98 bd 55 af 74 be 20 cc 0b 3c
       0.017609421 -0.07444728 -0.23895009 0.008532554
000250 74 40 90 3d 54 f9 f6 bc f8 62 b4 bd b3 b4 a0 bd
       0.070435435 -0.030148186 -0.08807939 -0.07846966
000260 8e f5 d2 3d f9 ab 7c 3d 93 d0 d0 3c df 9b b2 3c
       0.10300742 0.061687443 0.025490081 0.02180284
000270 b9 5a 11 be 3b eb 1a 3d fd 96 01 be 90 29 b8 3c
       -0.14194764 0.03782199 -0.12655254 0.022480756
000280 34 5e 1e 3d 12 0f 0b bd 85 46 4a be e7 5e 58 bd
       0.038664058 -0.03394992 -0.19753464 -0.05282488
000290 c6 61 fd 3d 67 ff 04 bd cc d7 0f 3c 60 e7 d7 bd
       0.123721644 -0.032470133 0.008779477 -0.10542178
0002a0 04 32 ab bd 87 d8 cf 3b 39 60 9b 3d ef 44 2f bd
       -0.08359149 0.0063429507 0.075867124 -0.04279035
0002b0 bb a1 72 bd 85 42 d3 bc 95 dc a5 bd 30 7c 88 bd
       -0.05923627 -0.025788555 -0.08098713 -0.06664312
0002c0 93 60 a8 3d a0 5f 87 3e 35 a8 63 bc 32 dc 99 bd
       0.08221545 0.26440144 -0.013895084 -0.07512702
0002d0 02 23 58 3e e7 7b 5f bd 6f d5 71 bd cd 96 bc bd
       0.21107104 -0.05456152 -0.059041437 -0.092084505
0002e0 e5 4f 7d bd 77 78 89 3d 14 5a 29 be a2 3e 2b be
       -0.06184377 0.0671243 -0.16538268 -0.16723111
0002f0 25 c9 35 3d c4 cb a4 bd 01 97 d5 bd 70 2e 3e bc
       0.04438128 -0.08046678 -0.10429192 -0.011607751
000300 89 48 09 be 12 05 7e bd 43 1c 1d be 8a 39 ae 3c
       -0.13406576 -0.062016554 -0.15342812 0.021267671
000310 c2 20 4e 3d cc 8f 6e bd e7 ef 4f be 0a ec 15 be
       0.05032421 -0.058242604 -0.20306359 -0.14640823
000320 2b 04 d5 bc e4 f6 a5 bc 15 1e 8f bd 18 fb ac 3d
       -0.026002964 -0.020259328 -0.069881596 0.0844633
000330 68 b3 67 3d ca 7f 5d be c4 00 1f 3e 4d 32 e8 bc
       0.05656758 -0.21630779 0.15527636 -0.028344298
000340 2b 1a 02 be 37 e1 2f be b2 e8 99 bd c5 e3 11 be
       -0.12705295 -0.17175756 -0.07515086 -0.14247043
000350 54 c3 89 3d ba fc 93 3c 68 75 02 3d ca ff b8 3d
       0.06726709 0.018064845 0.03185025 0.09033163
000360 ba e8 48 3c 8c 82 90 bd eb 66 bc 3e 7f 7b d9 bd
       0.012262518 -0.0705615 0.3679727 -0.10619258
000370 76 e9 35 bb e8 b4 97 bd e6 7b 51 3c 88 f2 a9 bd
       -0.0027757562 -0.07407552 0.012785887 -0.08298212
000380 35 04 06 bd 90 fc 10 be e7 c5 d9 bd 82 76 29 be
       -0.032718856 -0.14158845 -0.1063345 -0.16549113
000390 c9 95 89 bd 62 51 e6 3d 94 8c f0 3e 02 db 33 3d
       -0.067180224 0.11245991 0.46982253 0.043910034
0003a0 88 59 4c 39 0a 4b 2b be 80 03 d7 bd 21 f9 8a bb
       0.00019488309 -0.16727844 -0.104987144 -0.0042411243
0003b0 31 a4 00 bd 07 87 8c 3c e6 cd 38 3d 2b 51 98 bd
       -0.031406585 0.01715423 0.045118235 -0.074373566
0003c0 9a 28 11 bd 19 5e c3 3c bd 44 42 bd 74 f8 d8 bd
       -0.03543911 0.02384858 -0.047428835 -0.10594264
0003d0 8a 74 d3 3b c2 b1 37 bd 76 4c b1 bd 66 3f 83 bd
       0.0064531015 -0.044847257 -0.08657162 -0.06408577
0003e0 2f 7f c4 bd e5 6f 07 3f 10 19 14 3c f0 84 a1 bc
       -0.09594571 0.5290511 0.0090391785 -0.01971671
0003f0 3e 74 83 3c 71 46 35 bd ea e6 64 3e 9d a0 02 3c
       0.01604664 -0.04425663 0.22353712 0.0079728635

action_model._continuous_distribution.log_sigma f4 [1, 2]
000000 c7 7b d9 3f b1 06 8d 3f
       1.6990899 1.1017667

action_model._continuous_distribution.mu.weight f4 [2, 256]
000000 84 b4 87 be 18 86 7e 3d e8 57 0e bf 3a d7 35 bf
       -0.2650491 0.0621396 -0.55602884 -0.71031535
000010 fe 55 4b 3e b7 ec c2 bd 0c 1e aa be dc 61 80 be
       0.19857022 -0.09517806 -0.3322605 -0.2507466
000020 85 1a 1c bf f4 1a c6 bd 18 ad 61 bf 5b e3 ab be
       -0.60977966 -0.0967311 -0.88154745 -0.33571896
000030 9f e1 c0 be e5 50 5f bd 6d 8f 8d be 79 7f 93 be
       -0.37672135 -0.054520506 -0.27648488 -0.2880819
000040 89 3f ba be a3 ff 68 3e 48 68 19 be ea a5 57 be
       -0.36376598 0.22753768 -0.14981186 -0.21059385
000050 b1 eb c3 be b4 c5 1e bf 06 ce b8 be 66 a3 98 be
       -0.38265756 -0.6202042 -0.36094683 -0.29812163
000060 6c 26 5a be 0f fb a6 3e 54 bf 31 3e 86 dd 5c 3e
       -0.2130372 0.32613418 0.17358142 0.2156888
000070 08 21 67 be 58 89 32 bf 0a 80 6f 3e cf 59 49 be
       -0.22571194 -0.6974082 0.23388687 -0.19663166
000080 80 c3 d2 be 53 19 09 bf 44 a0 5c be af e1 01 be
       -0.4116478 -0.53554267 -0.21545511 -0.12683748
000090 8a 71 38 bf 31 be 8a be 5a d8 f4 3e 39 b7 d0 3d
       -0.72048247 -0.2709823 0.47821313 0.10191197
0000a0 3f d2 ec be ed ec 19 bf 80 a9 e2 be 41 3f d8 be
       -0.46254155 -0.60127145 -0.44269943 -0.4223576
0000b0 fc 1e 22 3e eb 42 3f bf 9d 4a 2e bf 57 3e 89 3e
       0.15832132 -0.74711484 -0.680826 0.26805374
0000c0 2f b0 0b be 50 7b c7 be e9 72 45 be d5 31 10 bf
       -0.13641427 -0.38961267 -0.19282116 -0.5632604
0000d0 2d df 14 3f cf 6a 82 3d ad 78 33 be 73 e9 03 be
       0.5815304 0.06368028 -0.17526503 -0.12882023
0000e0 9c 19 38 bf 3c 47 58 bf b6 ec ef be 9e 78 8d be
       -0.71914077 -0.84483695 -0.46860284 -0.27631086
0000f0 07 0e c5 bd a2 a3 2c bf ae a9 a5 be f3 fe 30 be
       -0.09621816 -0.67437184 -0.32356018 -0.17284755
000100 75 08 1b 3e bb 9c 3a 3d 86 7f 59 be dc 0f 06 bf
       0.15139945 0.045559626 -0.21240053 -0.5236795
000110 41 00 e0 be 4c 1e d4 be dc 24 f1 be a3 60 65 3e
       -0.43750194 -0.41429365 -0.47098434 0.22400145
000120 f6 da 8c bc e5 36 8c bd e5 f6 e6 bd af 1c 49 be
       -0.017194252 -0.06846408 -0.1127756 -0.19639848
000130 16 ed be be fd 36 9a be 9d 9c bd be 35 19 cb be
       -0.37290257 -0.30120078 -0.3703355 -0.3966767
000140 8d 92 25 bf cb 5c 04 3f 28 0b 10 bf 5a 7c 26 be
       -0.64676744 0.5170409 -0.56267023 -0.16258374
000150 0c 22 3e bf db 07 80 be 9c 56 80 3e ff b8 04 bf
       -0.742707 -0.25005993 0.25066078 -0.5184478
000160 87 29 98 3e 92 a3 83 be 3a e1 1b 3d 52 6d d0 be
       0.29719183 -0.25710732 0.03805659 -0.40708405
000170 3b c5 7f be b0 6f 43 bf db ba 8e 3e de 59 ae be
       -0.24977581 -0.76342297 0.27876934 -0.34052938
000180 4c 3e 74 bf 26 06 df be c5 cc 1c bf 03 5b e7 be
       -0.9540756 -0.43559378 -0.61249954 -0.45186624
000190 d8 9f 83 bf 4e 56 7d 3d bb 64 a0 3e e4 1a ea be
       -1.0283155 0.061849885 0.3132685 -0.4572364
0001a0 df ac c6 be 87 06 af 3e b5 e0 36 bf 2f 71 0d bf
       -0.38803765 0.34184667 -0.71436626 -0.5525083
0001b0 9a 24 44 be e0 02 93 be 45 5d 31 bf d0 57 17 bf
       -0.19154587 -0.2871313 -0.69282943 -0.59118366
0001c0 74 fe 97 3d f4 46 41 bf 1d 2e f4 be 74 c0 0a bd
       0.0742158 -0.7549889 -0.47691432 -0.033874944
0001d0 7b 15 20 bf 84 1e b7 be 31 92 89 be 79 fd 3a bf
       -0.62532777 -0.3576547 -0.26869348 -0.7304302
0001e0 f0 58 1b 3e ae 70 07 bf e3 39 ac 3e 90 f1 ed be
       0.15170646 -0.5290631 0.33637914 -0.4647336
0001f0 b1 06 98 be 5f 51 9e be 8f bf 98 be d4 de 72 be
       -0.29692605 -0.30921456 -0.29833648 -0.23717815
000200 21 57 62 bf 88 21 8e 3e b1 63 84 be 73 4f c9 be
       -0.884142 0.27759957 -0.25857309 -0.39318427
000210 f4 cd 9c bc 34 66 35 3d 1c 39 86 be c1 5a 71 be
       -0.019141175 0.04428692 -0.26215446 -0.23569776
000220 53 9f 5d bd bb 34 5e 3e ba ce 44 bf 4a 46 f1 be
       -0.05410702 0.21699803 -0.7687794 -0.4712394
000230 fb c1 b8 3d e5 e0 73 bf 05 eb 74 bf 7d 9f a3 3e
       0.09021374 -0.95265037 -0.9567111 0.31957617
000240 3c 89 46 bf 33 0d 2b bf af 67 02 bf b6 53 5d 3c
       -0.77553153 -0.66817015 -0.5093946 0.013508728
000250 f3 2e 59 3d 0e 94 08 bf 66 7a 26 bf db 07 f8 be
       0.05302329 -0.53350914 -0.65030515 -0.48443493
000260 90 9e 51 bf 09 c4 16 be b5 e1 83 be 7b a7 51 bb
       -0.8188257 -0.14723219 -0.25758138 -0.0031990695
000270 5b fc ca be ef fc 75 3e 87 8f 20 bf f8 23 e3 3e
       -0.39645657 0.24022268 -0.62719005 0.4436338
000280 ce ce 5a 3e 6c 9f f6 bd 00 6d a9 be ae 0c f0 be
       0.21367952 -0.12042126 -0.33090973 -0.46884674
000290 0c 56 b6 3d 41 cf 37 bf 35 42 04 bf 55 10 92 be
       0.08903131 -0.7180062 -0.51663524 -0.28528085
0002a0 38 1c f5 3d dd f2 80 bd 9a c1 ac bd 73 b9 da be
       0.11968273 -0.062963225 -0.08435364 -0.42719612
0002b0 a8 ba ca be 38 35 26 3d 90 24 1c bf af fb 26 bf
       -0.39595532 0.040578097 -0.6099329 -0.6522779
0002c0 48 c6 fc bb 18 0c d0 3e b0 9b 0d bf c6 25 d2 be
       -0.0077140667 0.40634227 -0.55315685 -0.41044444
0002d0 4c 3f ab 3d 50 27 08 bd 24 5a 55 bf 7e 34 8a be
       0.08361682 -0.033240616 -0.8334067 -0.26993173
0002e0 61 56 00 bc 57 ac de 3d 04 1d 3b 3e 41 0e e4 be
       -0.007833094 0.10872715 0.18272787 -0.44542125
0002f0 b9 08 86 be eb 4f ab bd 3e 59 b5 be 25 53 0d bf
       -0.2617853 -0.083648525 -0.3541965 -0.55204993
000300 8f 8b bf be 18 49 8d bc b8 a0 e4 bd 98 09 5d bf
       -0.37411162 -0.017246768 -0.11163467 -0.86342764
000310 5f 3e ab 3e 9a a5 eb be 41 dd 36 bf e0 12 25 bf
       0.33446023 -0.4602478 -0.71431357 -0.64481926
000320 c2 df 81 3d 72 1c e2 3c 62 3c 00 bf 8b e1 86 be
       0.063415065 0.027601454 -0.50092137 -0.2634395
000330 62 7d f0 be a0 c9 4c bf 4f 65 52 be c0 07 5e be
       -0.4697066 -0.79995155 -0.20546459 -0.21682644
000340 35 05 88 be 07 d7 2f bf 2c 2e 98 3e e1 23 dc be
       -0.26566473 -0.6868748 0.29722726 -0.42996123
000350 61 21 84 3d 41 ec d5 be 85 3a 09 bf 92 17 cb 3d
       0.06451679 -0.4178181 -0.5360492 0.09916605
000360 b4 6f 24 bf 5f 60 90 3e 73 9c bd 3e d4 2e c1 be
       -0.64232945 0.28198525 0.37033424 -0.3773104
000370 61 d8 0b bf dc 84 14 bf 61 47 b0 be e6 da e7 be
       -0.54627043 -0.5801523 -0.34429458 -0.45284194
000380 e0 56 18 bf 2a 2f e1 bd bb 22 20 be d6 ad 6f be
       -0.5950756 -0.10995324 -0.15638249 -0.23406157
000390 a8 0a c7 be a8 64 6d 3e 67 6f 09 3f 2a 1d 4a 3d
       -0.38875318 0.23182929 0.5368561 0.04934422
0003a0 51 94 2c be 44 88 7a bd 34 32 ea be 41 95 94 be
       -0.16853453 -0.06116511 -0.45741427 -0.29020122
0003b0 8c 00 1f bf f6 e0 36 be 8d 1b f2 be 0d df 95 bd
       -0.6211021 -0.17859253 -0.47286645 -0.07317934
0003c0 80 0b 2b be e6 12 ef be 15 bd 21 bc 80 38 b8 be
       -0.16703606 -0.46694106 -0.009871741 -0.35980606
0003d0 db d1 be be 75 cb 1b 3e 24 4f 19 bf a5 f9 a6 be
       -0.37269482 0.15214331 -0.59886384 -0.3261234
0003e0 75 30 8a 3c 81 59 14 3f 1b 65 0e bf 26 63 02 bf
       0.01686881 0.5794907 -0.55623025 -0.5093254
0003f0 a4 0f 7f be b9 33 64 bf 9a 74 ba 3e a4 87 5a bf
       -0.2490831 -0.8914142 0.36417085 -0.8536322

action_model._continuous_distribution.mu.bias f4 [2]
000000 b2 9a 5a 3f b7 4d 2d 3d
       0.85392296 0.042310443

action_model._discrete_distribution.branches.0.weight f4 [2, 256]
000000 5c c5 1f 3e f3 f5 4a 3e 40 94 f0 3d 1b 18 c7 bd
       0.1560263 0.19820385 0.117470264 -0.09721395
000010 6b 52 59 3e a5 85 fe bd c7 0e 5b bd 51 8f a7 bd
       0.21222846 -0.124278344 -0.05348089 -0.08181632
000020 65 73 d7 bd cb f0 aa 3d 9c aa 17 3e 4c 56 ef 3d
       -0.10520057 0.08346709 0.14811176 0.11686382
000030 28 41 82 3d a2 4e 0b 3e df 54 16 3e 92 73 6e 3e
       0.06360084 0.13604215 0.14680813 0.23286274
000040 35 59 f3 3d e5 0d 08 3d 7a 7b 10 bc f6 d0 e6 bd
       0.11882249 0.033216376 -0.008818502 -0.11270325
000050 af a9 50 be bd 0f f0 3c 25 51 19 3e ba 84 98 3d
       -0.20377229 0.02930438 0.1497236 0.074471906
000060 58 73 a8 3d a2 60 17 bd 32 2b eb 3d 1e be 43 3d
       0.08225125 -0.03695739 0.11482848 0.04778873
000070 90 c2 44 3e e9 05 2f 3b a2 3a 44 3d 46 f0 59 be
       0.19214845 0.0026706404 0.04790748 -0.21283063
000080 a5 01 6f be 3e 33 66 3c b6 2a b5 3d 29 4d ad 3d
       -0.23340471 0.014050303 0.08846037 0.08461983
000090 51 3e 78 be a5 c4 9c 3e 22 73 42 bc 7c 4f 12 ba
       -0.24242522 0.30618778 -0.01186827 -0.0005581302
0000a0 42 35 a0 3c e4 a1 b2 3d 1f 10 59 be 7c c9 10 3d
       0.019556645 0.087222844 -0.21197556 0.0353484
0000b0 ba 9b 8a 3e cb 5a cf bc 89 e4 b0 3d 15 b2 1a bd
       0.27071935 -0.025311848 0.086373396 -0.03776749
0000c0 24 34 97 3d 4a d9 46 3d f5 27 bf bd 9a a7 00 3d
       0.07382992 0.048547067 -0.09333793 0.031409837
0000d0 fc 08 e4 3a e2 6e ff 3d 44 55 2d 3e 70 fb c6 3d
       0.0017397697 0.12472321 0.16927058 0.09715927
0000e0 71 ba 3e be 14 05 26 3e 66 1c 22 bd 02 9f ea bd
       -0.18625809 0.16212875 -0.039577864 -0.114561096
0000f0 3e 43 0a bd a1 f6 ad bd e3 c3 36 3a ef 1c 44 3d
       -0.033755533 -0.08494306 0.00069719384 0.047879156
000100 f4 89 c0 bd af 77 9c bd 69 57 b5 bd ba 88 8c 3d
       -0.094013125 -0.07640015 -0.08854563 0.06862016
000110 2f d3 60 3e 9c 44 b6 bd fc 89 9c 3d 46 f6 1b bd
       0.2195556 -0.08899805 0.07643506 -0.03807666
000120 a9 b5 83 3d 8c b0 af bd 2d 5a 96 bc 40 55 04 bd
       0.06431133 -0.085785955 -0.018353546 -0.032307863
000130 46 f7 bd bd ea 97 c1 bd 5c 73 15 3e dc 78 26 3c
       -0.09275679 -0.094528034 0.14594787 0.010160651
000140 ee 01 51 bd 95 31 89 3c 8e 81 2a bd ba a8 91 be
       -0.05102723 0.016747275 -0.04162746 -0.2844904
000150 bf 4d 6a 3e b1 c6 7a be a5 53 55 3d 43 7c 01 3e
       0.2288122 -0.24489857 0.052081723 0.12645058
000160 f7 f1 a8 bc 71 9d 6a be a0 50 fd bb ee a2 d4 3d
       -0.02062319 -0.22911622 -0.0077305585 0.10382639
000170 ce ba 63 3e ca f5 9c 3d cf 70 84 bb 3c a1 30 3e
       0.22239229 0.07664068 -0.004041768 0.17249006
000180 ff a4 0f 3e 55 be fc bd e3 7e 4c 3d 46 2a a3 bc
       0.14027785 -0.123409905 0.049925696 -0.019917618
000190 49 f8 39 bc d8 0c 90 3e fb 9d 48 bd eb 23 13 3d
       -0.0113507 0.281348 -0.048978787 0.035922926
0001a0 4e cd c5 bd a1 ae a0 bc f8 33 13 be 81 82 7b be
       -0.096582994 -0.01961452 -0.14375293 -0.24561502
0001b0 e8 ba 3d 3e f0 71 23 be 3a 08 20 3c 34 3d 26 be
       0.1852833 -0.15961432 0.009767586 -0.16234285
0001c0 cc 75 18 3e ab 33 67 bd f6 80 32 bc 55 94 2d bc
       0.14888686 -0.05644576 -0.0108950045 -0.010594447
0001d0 b5 55 93 be 26 34 96 be 75 41 35 3e ae a4 13 bd
       -0.28776327 -0.2933666 0.17700751 -0.036045723
0001e0 02 27 10 3d e3 97 1a 3c 07 95 da bc 34 93 cd 3d
       0.03519345 0.009435627 -0.02668239 0.100378424
0001f0 ba 6a 49 be d4 30 ff bc 20 62 69 3e a0 2d c0 bd
       -0.19669619 -0.031151213 0.22791338 -0.09383702
000200 04 81 70 bb 89 09 61 3d 70 1c 71 be 64 6b fd bd
       -0.0036697993 0.054940734 -0.23546004 -0.12373999
000210 09 03 c0 bc fc 6d f1 bd 9b 59 a6 3d 9d 1e ba bc
       -0.023438947 -0.11788556 0.0812256 -0.022719676
000220 c3 66 9f bc 2d cb 27 3c 86 0e 62 3e fe 01 a4 3d
       -0.01945818 0.010241312 0.22075853 0.080081925
000230 b1 75 0d 3e d3 0b 8c bc b8 11 e0 3d 8b c1 a2 3c
       0.13814427 -0.017095482 0.109408796 0.01986768
000240 25 19 5a 3c 6f 68 32 3d 97 95 04 be 2f 3c d2 3d
       0.013311659 0.043556627 -0.12947689 0.10265385
000250 aa e2 7d bb b4 28 10 3e c2 a8 97 3c 78 54 06 bc
       -0.0038739839 0.14078027 0.018513087 -0.00819885
000260 6d 1b 88 be 64 e8 55 be 88 d9 52 3e 4e 7c 7b 3d
       -0.26583424 -0.20889431 0.20590794 0.061397843
000270 fe 88 30 bd 40 5c f0 bb a9 34 80 bc 01 8f 2f be
       -0.043099396 -0.007335216 -0.01565011 -0.17144395
000280 2a 7c b3 ba 45 71 8f 3d 3d 11 d9 3e 81 63 98 bd
       -0.001369362 0.07004026 0.42395964 -0.07440854
000290 21 d5 46 bc 5f e9 5f be 49 b6 56 bd 7f 5d c5 3d
       -0.012135775 -0.21866368 -0.052419934 0.096369736
0002a0 51 42 1d bc 2c 7d a8 3d 8a f0 d0 bc 18 c9 15 be
       -0.009598331 0.08227 -0.025505323 -0.14627492
0002b0 1e 74 62 bd e0 9b 24 3e 21 90 6e 3d 2a a9 63 3e
       -0.05528652 0.16075087 0.05824292 0.222325
0002c0 66 a8 a9 3d 29 84 41 bb 26 d8 1c 3e da 7d ef bc
       0.082840726 -0.0029528236 0.15316829 -0.029234815
0002d0 1d 6c f1 3b f5 0d 01 3e 4c c9 d8 ba 1d 12 a5 3d
       0.0073676244 0.1260298 -0.0016539483 0.080600955
0002e0 d0 c7 25 be 24 64 06 3e b9 36 17 3e 11 c8 8f 3e
       -0.16189504 0.13124138 0.14766969 0.28082326
0002f0 28 1b dd bc e5 52 98 be d8 2d 17 bc c5 01 bf 3d
       -0.026990488 -0.29750744 -0.009227239 0.093265094
000300 68 eb 22 be 34 1f e9 bd 4e 2a 2d be b0 70 15 be
       -0.15910113 -0.11382905 -0.16910669 -0.14593768
000310 0f 89 73 bd b0 fe 2f bd 55 17 33 3c 52 84 5d 3b
       -0.05945688 -0.0429675 0.010930856 0.0033800793
000320 c4 1f 48 be e1 7c d2 3e 40 6e 07 bd dc 0e e1 bc
       -0.19543368 0.411109 -0.033064127 -0.027472906
000330 0a 8b 18 be a8 15 8d 3c b9 cb 04 bd c9 ff 9f bd
       -0.14896789 0.01722224 -0.032420848 -0.07812459
000340 97 65 b2 3c 11 dc f4 3d b6 5d ad 3c b3 2d 07 3d
       0.021776957 0.11956037 0.021162849 0.033002567
000350 b6 d8 00 be e6 4e 63 bd 13 57 1c 3e 65 cf 41 bb
       -0.12582669 -0.055495165 0.15267591 -0.002957308
000360 d1 c1 03 be c4 13 ef bd c7 c1 e9 bb 97 a6 71 3e
       -0.12866904 -0.11673692 -0.0071336958 0.23598705
000370 8e 3a ac 3d 41 39 b4 3c 2f bc 14 3e b5 cf c4 be
       0.08409606 0.021999957 0.14524911 -0.38439718
000380 fd 89 be bb 4e 19 56 3b b0 07 6c 3d 55 7f a5 be
       -0.0058147893 0.0032668891 0.05762452 -0.3232371
000390 bc 78 1a be db 72 57 3d 36 77 99 bb 8d f9 6b bd
       -0.15085119 0.05259977 -0.0046834005 -0.057611037
0003a0 7f b2 3c be 99 f4 20 3e 57 c1 c3 bd 10 4b b1 be
       -0.18427466 0.15718307 -0.09558361 -0.3462758
0003b0 d5 78 dc 3d 93 68 33 be 27 80 4d be 73 fe 93 bc
       0.107652344 -0.1752036 -0.20068417 -0.018065667
0003c0 13 35 af bd d9 9f 89 be d5 77 ad 3a 8f 72 40 3d
       -0.08555045 -0.26879767 0.0013234565 0.04698425
0003d0 27 04 9c 3e 16 8a 60 3c 41 41 24 bd ce f2 74 3c
       0.30471918 0.013704797 -0.040101293 0.014950467
0003e0 f2 16 3a 3b 10 69 38 bb 01 ed d7 3b be b2 19 3d
       0.0028395024 -0.0028138794 0.0065895324 0.037523977
0003f0 bb 98 6e 3e 07 be 62 bd 80 62 2d 3b 47 45 55 bc
       0.2330045 -0.055357005 0.0026456416 -0.013017005

action_model._discrete_distribution.branches.0.bias f4 [2]
000000 67 85 1f bd ab 85 1f 3d
       -0.03894558 0.038945835

action_model._discrete_distribution.branches.1.weight f4 [2, 256]
000000 f6 7c 7f bc 4b 6d 31 be 1b 92 61 bd 73 48 29 3c
       -0.015593758 -0.17326848 -0.055070978 0.010332215
000010 60 c3 9a 3d 8c 97 b6 3d 99 f4 81 3e 58 94 89 bd
       0.07556796 0.08915624 0.25381926 -0.067177474
000020 9b 20 81 3e 75 18 15 3e b5 cf 13 3e 0c d7 ff 3c
       0.25220188 0.14560111 0.14434703 0.031230472
000030 fc b1 04 3e c1 3e 31 3d 92 85 8e 3d 1f 44 6b bb
       0.1295852 0.043272737 0.0695907 -0.0035898758
000040 69 f9 01 3c a7 75 e7 bb 1f a3 a1 3d 1b 72 88 3d
       0.007932999 -0.007063586 0.07892441 0.06662389
000050 bf 34 59 3e 97 7c e2 bd 9a 0e 9b 3d 66 84 52 3e
       0.21211527 -0.1105892 0.075711444 0.20558318
000060 eb a6 18 3e ed 1f f9 3d 26 a3 a4 3d e9 0c 54 3d
       0.14907424 0.121642925 0.080389306 0.051770125
000070 6e 8b 6b be d3 b4 a7 ba 3d 49 18 3e 3c ae fe 3c
       -0.23002407 -0.0012794979 0.14871688 0.03108894
000080 1c 38 1b 3e 21 6d be 3d 5a 6f 8f 3e 96 61 97 3d
       0.15158123 0.092981584 0.28014642 0.0739166
000090 92 1d 43 3e 87 3b d9 bb a5 00 d3 3d 86 a6 33 bd
       0.19054249 -0.0066294107 0.10302857 -0.04385998
0000a0 3f 3d be bc 03 2b a4 3c f1 46 41 3e 77 7f c8 3d
       -0.023222564 0.02004004 0.18874718 0.09789937
0000b0 ca ae 69 3e 94 1c 74 3c 7f 70 81 3d ec a9 80 bd
       0.22820583 0.014899392 0.06320285 -0.0628241
0000c0 e8 85 06 3e 7d 69 93 bd ba cc 65 bd 43 53 49 be
       0.13137019 -0.07197855 -0.056103446 -0.19660668
0000d0 7d 84 cd 3c 56 48 3a 3d c7 60 9d 3d a7 bb 8f be
       0.02508759 0.04547914 0.076844744 -0.28072855
0000e0 0c 29 a3 3c fb 37 29 be 7b 40 1d bb ba 8d 23 be
       0.019917034 -0.16525261 -0.0023994732 -0.15972033
0000f0 fe b3 f2 bc 62 72 09 3d 14 95 e6 3d 66 10 8b be
       -0.029626843 0.03355635 0.11258903 -0.2716095
000100 9c 74 51 3e 61 ee 89 3d e9 1a 19 3e 1d 6f a2 bd
       0.20454639 0.0673492 0.14951672 -0.079313494
000110 66 08 23 bc 48 98 3b 3e 3e 94 ea bc 67 84 60 be
       -0.009950733 0.1831981 -0.02863514 -0.21925507
000120 46 61 a4 3d 84 9e 3f 3e 1c ff 83 3d d7 39 f6 3c
       0.08026366 0.18712813 0.064451426 0.030056877
000130 b2 2a 02 3d 9e 88 7d be 2a 1e f9 bc 6d fb 11 3e
       0.031779 -0.24759147 -0.030409891 0.14256068
000140 16 d5 75 bd 93 13 bc bd b7 52 ac 3d ee cd fc 3d
       -0.060017668 -0.09183421 0.08414214 0.123439655
000150 03 5c fc 3e 2c f7 aa bc b3 cd 7d 3b 4c 0a 2c be
       0.4928895 -0.020869814 0.0038727343 -0.16800803
000160 25 96 f4 3c 7f 4f 5a 3c b0 ba 97 bc ba ca b7 3d
       0.02985675 0.013324617 -0.018521637 0.08974214
000170 30 cf 19 be b1 e3 c2 bc 56 6c a8 3d 9a e6 fa bd
       -0.15020442 -0.023790212 0.082237884 -0.12251015
000180 02 7b 7d bb 57 1e 59 3e bd 71 56 3d 0d 82 2e bc
       -0.0038678055 0.2120298 0.052354563 -0.010651124
000190 cb 6b a7 bb 21 0d 03 3e c4 1c 9f bd ae 90 40 be
       -0.0051092855 0.12797977 -0.077691585 -0.18805191
0001a0 a0 27 e5 bd 79 c8 5c bd 42 49 54 bd 71 4b 06 bc
       -0.111891985 -0.053902123 -0.051827677 -0.008196698
0001b0 2e 2c 52 be 6e 38 2d be 37 57 9a 3d 80 98 55 be
       -0.20524666 -0.16916057 0.07536166 -0.20858955
0001c0 f3 2e 5d 3d 19 14 6f 3e ea 2b bc 3d d1 e5 d9 3c
       0.053999852 0.2334751 0.091880634 0.026598843
0001d0 89 b9 99 3d c1 ed fc 3b fb 72 38 3e 77 a4 49 3d
       0.07506091 0.007718772 0.18012612 0.04922911
0001e0 cc be 66 be 46 09 a6 3e 59 7a 88 bc 63 93 25 3e
       -0.2253372 0.3242895 -0.016659902 0.16169505
0001f0 82 00 88 3e 31 f1 45 3e c7 8e 1b 3d 68 67 94 3e
       0.26562887 0.19330288 0.03797796 0.28985143
000200 db 20 2b bd 6e 9e 11 3d 12 d8 3b be 1e 15 3b 3e
       -0.04177938 0.03555148 -0.18344143 0.18269774
000210 ae 99 0b bd 93 4b 30 3e 04 fc 18 bd bd 89 27 3e
       -0.034082107 0.1721633 -0.037349716 0.16361137
000220 ed 14 aa bc b9 95 95 3c 99 82 8d 3c 07 99 69 bd
       -0.020761931 0.01825987 0.017274188 -0.057030704
000230 3d 4f 56 3c 8a 12 85 bb 5b d6 8f bd 09 83 a3 bb
       0.013080415 -0.004061048 -0.07023307 -0.004989986
000240 19 66 8c 3e 72 99 70 bd 85 ef 53 bd b3 ef 81 3e
       0.27421644 -0.058740087 -0.051742096 0.25378188
000250 07 cc 83 bd 8e de f1 3d aa 3b 67 3d 4a af 53 bd
       -0.064353995 0.11810027 0.056453384 -0.05168084
000260 90 4a bb 3d 83 d2 f2 bd 9d 12 eb 3e 01 1d e3 bd
       0.09145081 -0.11856558 0.45912638 -0.110895164
000270 93 fe 0b bd fa 8f 96 3c b0 81 86 3c 83 19 17 3d
       -0.034178328 0.0183792 0.016419262 0.036889564
000280 cc ca b3 bd 9a 37 3e be e5 96 04 3e 4a 21 03 3e
       -0.08778915 -0.18575898 0.12948187 0.12805668
000290 a7 4c d0 bb 97 1c 04 3e 80 cb 53 3e 16 40 4e 3d
       -0.006356794 0.12901531 0.20683098 0.050354086
0002a0 85 78 88 bc ac 06 92 3e d3 05 2f be eb b3 66 3e
       -0.01665903 0.28520715 -0.17092066 0.22529571
0002b0 92 ec 8b 3e fe 4e 81 be 24 4f 26 bd bc ae 60 3d
       0.27328926 -0.2525558 -0.040602818 0.05485414
0002c0 79 49 77 3e b3 cb 1c bb 8e b5 2d be 52 ee 7a bd
       0.24149121 -0.0023925125 -0.16963789 -0.061262436
0002d0 17 c5 4b bd dd f2 32 3c e3 c6 d6 bc f3 f5 18 bd
       -0.049748506 0.010922161 -0.026217883 -0.03734393
0002e0 b6 e8 8a 3e 3a c5 db bd 4b d7 6e 3d 5a 18 8a 3d
       0.2713067 -0.10730977 0.058310788 0.06742926
0002f0 3f b9 fb bd eb 21 2b be 20 92 cf 3d e3 93 b1 3d
       -0.12291192 -0.16712157 0.10135293 0.08670785
000300 f5 65 e4 bc b9 bf 07 be 68 e9 e2 3a 9f 6c 95 3d
       -0.027880648 -0.1325673 0.0017311992 0.072961085
000310 74 1a 04 3e 04 54 45 3d 98 9d e3 3b 08 80 1a 3d
       0.12900716 0.048175827 0.006946277 0.037719756
000320 80 d5 6e 3e fd 4a 4e bd 25 92 56 3e 24 c4 29 3d
       0.23323631 -0.050364483 0.20954187 0.04144682
000330 f2 7a 13 3d a3 e3 2e bb 93 4d 66 be eb c2 8e be
       0.03600592 -0.0026685975 -0.2249053 -0.27883086
000340 e9 1b 68 bd 42 5a da bc 8a 23 38 3e 49 8b 82 3c
       -0.056667242 -0.026654366 0.17982307 0.015935557
000350 4b c5 51 be 4e 0a f4 3c a0 37 59 3e ad 08 95 bb
       -0.20485418 0.02979007 0.21212626 -0.0045481534
000360 52 8d ca 3d 0b 23 60 3d db e3 f4 bc 88 ea 9d 3d
       0.09890236 0.05472092 -0.029893806 0.07710749
000370 9c e0 f2 3d 2d ae c5 bd e8 48 da 3d 59 f8 50 bd
       0.11859247 -0.09652362 0.10658437 -0.051018093
000380 2b c1 53 bd 86 e2 08 3d ee 96 da bd f2 4f 48 bc
       -0.05169789 0.033419155 -0.10673319 -0.012226092
000390 f3 70 8e 3d 2c d6 25 3e 99 d8 a8 3d b9 d2 a2 bd
       0.06955137 0.16194981 0.08244438 -0.079503484
0003a0 f6 2c 1c be e5 3f 2c 3e b0 ff 9d 3e 3a 72 cd 3d
       -0.15251526 0.16821249 0.30859137 0.100315526
0003b0 06 61 42 bc 77 52 19 3d fa a9 6c bc c8 3f d8 bb
       -0.0118639525 0.03743216 -0.014444822 -0.0065994
0003c0 e5 eb 91 3c 8e cb d7 3d e1 f8 8b 3e 1c 81 90 3e
       0.017812679 0.10536872 0.27338317 0.28223503
0003d0 48 7a 6e bc 68 37 d3 bc 6b 62 08 3e 00 02 e3 3d
       -0.014555521 -0.025783256 0.13318793 0.11084366
0003e0 53 38 e8 3d b1 01 ba 3c 5b 1c c5 bc 83 73 64 3d
       0.11338868 0.022705885 -0.024061373 0.055774223
0003f0 a3 aa 0e bd 0d 73 b1 bd 48 20 96 3d aa 9a 50 3e
       -0.0348307 -0.08664522 0.07330376 0.203715

action_model._discrete_distribution.branches.1.bias f4 [2]
000000 81 4e 05 be 85 4e 05 3e
       -0.13018228 0.13018234
