Assets/Models/YoutubeExample/BoxvonButtonSichtbar.onnx (onnx, 358976 bytes, 13 tensors)

discrete_act_size_vector f4 [1, 4]
0	0x40400000	3.0
1	0x40400000	3.0
2	0x40000000	2.0
3	0x40000000	2.0

network_body._body_endoder.seq_layers.0.weight f4 [256, 78]
0	0xbd8a39b3	-0.067492865
1	0xbe043c8d	-0.12913723
2	0xbe3198f3	-0.17343502
3	0x3d372b13	0.044718813
4	0x3ed95444	0.42447102
5	0xbd48488b	-0.048897307
6	0x3d59da21	0.05318654
7	0xbe7a01f7	-0.24414812
8	0xbe857004	-0.26062024
9	0x3d18df4d	0.03732233
10	0x3e4e749e	0.20161673
11	0xbdb7ab83	-0.0896826
12	0xbd82aca6	-0.06380586
13	0x3bd7ca07	0.006585363
14	0xbf086dc9	-0.5329252
15	0xbc5e7cb3	-0.013579535
16	0x3e17bf13	0.14818983
17	0xbf1a126d	-0.60184366
18	0xbd7cbb5d	-0.06170212
19	0xbe7caec7	-0.24676047
20	0xbcc19782	-0.023631815
21	0x3ddb15ae	0.106974944
22	0x3e1c1f5e	0.1524634
23	0x3e2f029a	0.17090836
24	0xbeb78372	-0.35842472
25	0xbe290c1c	-0.16508526
26	0xbefeb352	-0.49746186
27	0x3d580512	0.05273921
28	0x3e24d823	0.16098075
29	0xbebd7c74	-0.37009013
30	0x3daf2e14	0.085537106
31	0x3e8b3222	0.27186686
32	0x3ddab45f	0.10678934
33	0xbbe23367	-0.0069031003
34	0x3d3c7da1	0.046018247
35	0x3e2c7b91	0.16844012
36	0xbcb38f91	-0.021919044
37	0xbe670638	-0.22560966
38	0xbf327f30	-0.6972532
39	0xbd804af2	-0.06264295
40	0xbcf57502	-0.02996302
41	0x3cb1a24e	0.021683838
42	0x3e3e7611	0.18599726
43	0xbe051660	-0.12996817
44	0x3e19938b	0.1499769
45	0xbe91c72f	-0.28472278
46	0x3d774f15	0.060378153
47	0xbd13589f	-0.035973188
48	0xbde075dc	-0.1095998
49	0xbd6ee470	-0.058323324
50	0xbeef8fcb	-0.46789393
51	0x3defd1be	0.11709927
52	0x3e4ac938	0.19803321
53	0xbe710aa0	-0.2353921
54	0x3dbfefcb	0.09371909
55	0x3e19322d	0.14960547
56	0x3ec541ac	0.38526666
57	0xbddc544c	-0.10758266
58	0xbd0e22e8	-0.034701258
59	0x3e03c002	0.12866214
60	0x3ea5c67e	0.32378
61	0xbca65f8e	-0.020309236
62	0xbe97e731	-0.29668573
63	0x3d8f7c05	0.07006077
64	0x3df70a39	0.12062497
65	0x3dbd663d	0.09248016
66	0x3e2e500a	0.1702272
67	0x3e556359	0.2083868
68	0x3e2580c2	0.16162398
69	0xbdded33d	-0.10880134
70	0xbd26e554	-0.040746048
71	0x3d5f90d9	0.054581497
72	0x3d97a227	0.07403975
73	0x3ebd989e	0.370305
74	0x3e372b35	0.17887576
75	0x3c511a0e	0.01276256
76	0x3e6034e4	0.21895176
77	0xbe316ba0	-0.17326212
78	0xbde68931	-0.11256636
79	0xbe59c66b	-0.21267097
80	0xbf21986c	-0.631232
81	0x3e3bbf09	0.18334593
82	0xbd97c29b	-0.07410165
83	0x3ddd3022	0.10800196
84	0xbe069b20	-0.13145113
85	0xbe721ff9	-0.23645009
86	0xbe5ed4e9	-0.21760906
87	0x3d58dc1b	0.052944284
88	0x3c8cac47	0.017171992
89	0xbde9eac0	-0.11421728
90	0xbe2c5c73	-0.16832142
91	0x3dc2f41e	0.09519218
92	0xbf04b25f	-0.5183467
93	0xbd730706	-0.05933287
94	0x3d33fc19	0.04394159
95	0xbed556e3	-0.41667852
96	0xbd71461c	-0.058904752
97	0x3daee4a4	0.085397035
98	0xbdd1e3fc	-0.10248563
99	0xbcc6cfc9	-0.024269002
100	0xbe03fdc8	-0.12889779
101	0x3eccdc9c	0.40012062
102	0xbdccef4d	-0.100065805
103	0x3e0788e2	0.1323581
104	0xbeb78538	-0.35843825
105	0x3d3852b0	0.045000732
106	0x3bc7a81b	0.006093038
107	0x3e2ced79	0.16887464
108	0xbd8069ad	-0.06270156
109	0x3e5bb2ea	0.21454969
110	0xbc80d15a	-0.015724827
111	0xbd95dbbc	-0.07317302
112	0xbdb437b6	-0.087996885
113	0x3e4b2431	0.19838025
114	0xbe0f60c3	-0.14001755
115	0xbc833b17	-0.016019387
116	0xbec19f0e	-0.37816662
117	0xbc00382c	-0.007825892
118	0x3e2fec96	0.17180094
119	0x3e3a51c6	0.18195257
120	0xbe2c219a	-0.16809693
121	0x3e2abe98	0.16674268
122	0x3e9b4b71	0.30330995
123	0xbe1f61a1	-0.15564586
124	0xbe3b612d	-0.18298788
125	0x3e08b6c2	0.13350967
126	0xbda6e3d0	-0.081489205
127	0x3e0417ce	0.12899706
128	0xbf3c3d35	-0.73530895
129	0x3e015eae	0.12633774
130	0x3de582cf	0.112065904
131	0xbd5e52eb	-0.054278295
132	0xbdd1c918	-0.10243434
133	0x3e8583d0	0.26077127
134	0x3de91508	0.113809645
135	0xbebe9aa5	-0.3722736
136	0x3d061610	0.032735884
137	0xbd799075	-0.06092878
138	0x3bbccc9f	0.0057616974
139	0x3e1b8d82	0.151907
140	0xbf2047f7	-0.6260981
141	0xbe64fba6	-0.22361621
142	0x3e50f4e2	0.20405915
143	0x3db37808	0.087631285
144	0x3e3a44cc	0.18190306
145	0x3d7f60d4	0.062348202
146	0xbc2415f9	-0.010015004
147	0xbe860728	-0.26177335
148	0xbdfd4194	-0.12366024
149	0xbd9b8086	-0.07592873
150	0xbcf65c29	-0.030073242
151	0xbde2f275	-0.11081401
152	0xbef38d27	-0.47568628
153	0xbe20b51e	-0.1569409
154	0xbbda7f3d	-0.006668
155	0xbe1fb677	-0.15596949
156	0xbeb6f439	-0.35733202
157	0x3c7f4361	0.015580029
158	0x3d72289d	0.059120763
159	0xbda78de8	-0.08181363
160	0xbd2da2bb	-0.04239152
161	0xbd903319	-0.07040996
162	0xbd244d47	-0.04011276
163	0xbd1e8362	-0.038699515
164	0x3e0b4f01	0.13604356
165	0xbda36cc4	-0.0797973
166	0xbe0c96bc	-0.13729376
167	0x3dccc88b	0.09999188
168	0xbd7a08a3	-0.061043393
169	0x3e8d62b9	0.27614382
170	0x3e6eb512	0.2331126
171	0xbd91fca1	-0.07128263
172	0xbe346e87	-0.17620288
173	0x3d5a7e5c	0.053343162
174	0x3d6297bc	0.055320486
175	0xbe6f5fef	-0.2337644
176	0xbcc8aee5	-0.024497459
177	0x3d6cfa4f	0.0578559
178	0xbe431764	-0.19051892
179	0x3f1a4acc	0.6027038
180	0xbe80f43a	-0.2518633
181	0x3e436d90	0.19084764
182	0x3e8101c2	0.25196654
183	0x3de56eff	0.112028114
184	0xbd938cb2	-0.0720457
185	0x3e025ce9	0.12730755
186	0xbe348049	-0.17627062
187	0xbe9b5f7e	-0.30346292
188	0xbd1e6b63	-0.03867663
189	0x3e0be30c	0.1366083
190	0x3d3863e9	0.045017157
191	0x3ea80be6	0.32821578
192	0xbde8a5b3	-0.113597296
193	0xbe1cc923	-0.15311103
194	0xbe804e4f	-0.25059745
195	0x3daf8a94	0.085713536
196	0xbda3ecd6	-0.08004157
197	0x3e1be8a1	0.1522546
198	0xbaee47dc	-0.0018179375
199	0xbe201e74	-0.15636617
200	0xbe164e9c	-0.14678425
201	0x3e1ed876	0.15512261
202	0xbd95a1d9	-0.073062606
203	0x3dd7def6	0.10540573
204	0xbeb36b24	-0.3504268
205	0xbdb8beed	-0.09020791
206	0xbea0c281	-0.31398395
207	0x3d71aacc	0.059000775
208	0x3c73aa3e	0.014872132
209	0x3e235c8a	0.1595327
210	0x3d368c3d	0.044567335
211	0xbe193de9	-0.14965023
212	0xbe0bd9ea	-0.13657346
213	0x3d8f1a15	0.06987397
214	0xbd930d56	-0.07180278
215	0xbe631e90	-0.22179627
216	0x3e92abda	0.28646737
217	0xbe712bec	-0.23551911
218	0xbf20680c	-0.6265876
219	0x3ce5b387	0.028039707
220	0xbc644109	-0.013931521
221	0x3e8e81bc	0.27833354
222	0xbf206c52	-0.62665284
223	0xbe6baba2	-0.23014691
224	0xbd04c68b	-0.032415908
225	0x3d70bde4	0.058774844
226	0xbe94030a	-0.2890857
227	0xbe829618	-0.25505137
228	0x3ea957e9	0.33074883
229	0xbeba0695	-0.36333147
230	0xbe6c3419	-0.23066749
231	0xbdc6512e	-0.096834525
232	0xbd88447f	-0.066536896
233	0xbe4c2748	-0.1993686
234	0x3eca6b4e	0.39534992
235	0xbe953a01	-0.29145816
236	0xbda375bc	-0.079814404
237	0xbdea1f60	-0.114317656
238	0x3d4140f0	0.04718107
239	0xbd5e0a5d	-0.054209102
240	0x3dd86ff0	0.105682254
241	0xbd975e54	-0.073910385
242	0x3da41486	0.08011727
243	0xbd054832	-0.032539554
244	0x3d129208	0.035783798
245	0xbdf6f6c2	-0.12058784
246	0x3dfbf281	0.12302113
247	0xbea1d3f3	-0.31607017
248	0x3d4105e1	0.047124747
249	0xbc4d47d1	-0.012529329
250	0x3dd636d2	0.10459675
251	0xbdb2ad94	-0.08724514
252	0x3e2f52aa	0.17121378
253	0xbe55b06e	-0.20868084
254	0x3e0b49f6	0.13602433
255	0x3de70aa8	0.112813294

network_body._body_endoder.seq_layers.0.bias f4 [256]
0	0xbba3c8c5	-0.004998299
1	0xbd5cb2fd	-0.053881634
2	0xbd1d5b80	-0.03841734
3	0x3c8b95b5	0.01703916
4	0xbd0c2810	-0.034217894
5	0xbdcae156	-0.09906261
6	0xbcd04120	-0.025421679
7	0x3c48cbb7	0.012255601
8	0xbd674527	-0.056462433
9	0x3dab80c0	0.083741665
10	0xbce093e7	-0.027414275
11	0x3dbbb694	0.091656834
12	0x3ca1a1c9	0.019730465
13	0x3da42ea8	0.080167115
14	0xbd3f3373	-0.046679925
15	0x3c40cc1b	0.011767413
16	0x3c689b08	0.014197119
17	0xbd3dd5df	-0.04634654
18	0xbd25c4f8	-0.040471047
19	0x3c711b2e	0.014715953
20	0xbc9133c6	-0.017724883
21	0x3d456eea	0.04820148
22	0x3d18e874	0.03733106
23	0x3d159f53	0.036528897
24	0xbd337e99	-0.043821905
25	0x3bd5a876	0.0065203262
26	0xbd650d0f	-0.055920657
27	0xbc069d12	-0.008216159
28	0xbcb8907a	-0.02252983
29	0x3d18be31	0.037290756
30	0x3d5394e1	0.051655654
31	0x3c0a38a3	0.008436355
32	0xbc5a35ee	-0.013318522
33	0xbc4b811b	-0.012420918
34	0x3bae5a81	0.0053208475
35	0xbd53efbc	-0.0517423
36	0x3b00c435	0.0019648199
37	0x3c9155af	0.017741052
38	0x3d48eee9	0.049055967
39	0x3d59fe9d	0.053221334
40	0xbd9ac01a	-0.07556172
41	0xbd570cc1	-0.052502397
42	0x3c032057	0.008003316
43	0xbd048693	-0.032354902
44	0x3c3a82a6	0.011383688
45	0x3b66fb76	0.0035245097
46	0xbcf38135	-0.029724697
47	0x3d7857e2	0.060630687
48	0xbd215fff	-0.03939819
49	0xbd58ead9	-0.052958343
50	0xbd9f67f4	-0.07783499
51	0xbd2fd186	-0.042924426
52	0xbcf82f5a	-0.030296016
53	0xbd4bbd16	-0.049740873
54	0x3d82e351	0.063910134
55	0xb8a7cbec	-8.001164e-05
56	0xbc62470a	-0.013810882
57	0x3c96f0a8	0.0184253
58	0x3ddeec6e	0.10884939
59	0xbd93ffbe	-0.07226513
60	0xbd046063	-0.032318484
61	0xbc5e7f38	-0.013580136
62	0xbd337cd5	-0.04382022
63	0xbd1bc52b	-0.03802983
64	0x3ccd22c2	0.025040988
65	0xbca66981	-0.02031398
66	0x3a16fdfd	0.0005759893
67	0x3c85900b	0.016304037
68	0xbc067990	-0.008207694
69	0xbcf2ac11	-0.029623063
70	0x3e0189fa	0.1265029
71	0xbd245155	-0.040116627
72	0xbc6365e2	-0.013879271
73	0xbd323dbe	-0.043515913
74	0x3c2ce06e	0.010551555
75	0xbcc53fd6	-0.02407829
76	0xbc0e036b	-0.008667807
77	0x3be392e7	0.0069450024
78	0xbc6b8d28	-0.014376916
79	0xbd3ec9a3	-0.046579015
80	0x3d05795b	0.032586437
81	0xbb06491c	-0.0020490354
82	0xbd2c1687	-0.04201367
83	0xbbddc91a	-0.006768358
84	0x3ce7f143	0.028313285
85	0xbd174281	-0.036928657
86	0xbd3943e7	-0.045230772
87	0x3cccc457	0.024995966
88	0x3db463c2	0.0880809
89	0xbdbfb3a5	-0.09360436
90	0x3da0817a	0.07837196
91	0xba373f1c	-0.00069903
92	0xbcefde7e	-0.029280897
93	0xbd0b087d	-0.033943642
94	0x3ca834f7	0.020533068
95	0xbdaca7e8	-0.08430463
96	0x3ce8986d	0.028392995
97	0xbd8e0e9b	-0.069363795
98	0x3acb5bbb	0.0015515009
99	0xbdd04546	-0.10169463
100	0x3d5e30aa	0.05424563
101	0x3d0f7b4d	0.0350297
102	0xbd9b238f	-0.07575142
103	0xbd135116	-0.035966
104	0xbd536bf7	-0.051616635
105	0x3b57195c	0.0032821512
106	0xb9806bc8	-0.00024494366
107	0xbcf53139	-0.029930698
108	0xbdc6163b	-0.09672209
109	0xbc8adc3f	-0.016950725
110	0x3d8335c2	0.06406738
111	0xbb1c5a70	-0.0023857616
112	0xbd51c595	-0.05121382
113	0x3cd1ebdc	0.025625162
114	0x3c5404ed	0.0129406275
115	0xbd9782a1	-0.07397962
116	0xbb4c4eb9	-0.0031174852
117	0xbc0e03e4	-0.00866792
118	0xbdb92f77	-0.09042256
119	0xbc22e95d	-0.009943333
120	0x3b81240c	0.0039410647
121	0xbd9d5111	-0.07681478
122	0xbd26bce5	-0.040707488
123	0x3d08c465	0.03339042
124	0xbb528a18	-0.0032125767
125	0x3d1419a9	0.036157284
126	0x3d4f91c0	0.050676107
127	0x3ccca709	0.024981992
128	0x3dedf636	0.11619227
129	0xbcf38f5b	-0.029731443
130	0xbcf7363d	-0.03017723
131	0x3cb6301d	0.02223974
132	0xbdbb6a89	-0.09151179
133	0x3c283775	0.010267128
134	0xbd06b4c2	-0.032887228
135	0x3c808779	0.015689598
136	0x3a8ebb75	0.0010889607
137	0xbd29369c	-0.041311845
138	0x3caef815	0.02135853
139	0xbde9a651	-0.114086755
140	0x3d8196d0	0.06327593
141	0xb9a86bd5	-0.00032123798
142	0xba8c4689	-0.0010702173
143	0x3b3285cb	0.0027240391
144	0x3cde667e	0.027148481
145	0x3da4c540	0.08045435
146	0xba961fda	-0.0011453584
147	0xbce420b0	-0.027847618
148	0xbcfd2586	-0.030901682
149	0xbc14192b	-0.009039204
150	0xbc6afe7a	-0.0143428985
151	0xbd7d26b5	-0.061804492
152	0xbade3629	-0.0016953397
153	0xbc878df8	-0.016547188
154	0xbca2fa3d	-0.019894714
155	0xbc9d00eb	-0.019165477
156	0xbd44953a	-0.047993876
157	0xbd0e51ef	-0.034746107
158	0xbb93ec36	-0.0045142425
159	0x3d35a6bb	0.04434846
160	0xbb65007f	-0.0034942923
161	0x3d457272	0.048204847
162	0xbc833e71	-0.016020985
163	0x3c7b1fca	0.015327403
164	0xbd8d4974	-0.06898776
165	0xbd7e46f1	-0.062079374
166	0xbda4d984	-0.080493
167	0x3d87159f	0.06595921
168	0xbd81b3e3	-0.06333139
169	0x3cbbd0ac	0.022926651
170	0xbcb6639c	-0.022264294
171	0xbd33fd0b	-0.043942492
172	0xbcb8bd03	-0.022551065
173	0xbb52f81d	-0.0032191344
174	0xbd8b64b5	-0.06806318
175	0x3ceb176f	0.028697697
176	0xbd0c6884	-0.03427936
177	0xbb9c6e68	-0.0047739036
178	0x3d449734	0.04799576
179	0xbc877e01	-0.016539576
180	0x3daa5061	0.08316112
181	0xbb89bff0	-0.004203789
182	0xbca314a6	-0.019907307
183	0xbe078e2b	-0.13237827
184	0x3c3a989e	0.011388926
185	0xbc08254b	-0.008309673
186	0x3cc76c78	0.024343714
187	0xbd394b17	-0.045237627
188	0xbc1e3f5b	-0.00965866
189	0x3cb9f1ef	0.02269837
190	0x3cb677a8	0.022273853
191	0xbc886a9a	-0.016652394
192	0xbdaac1db	-0.08337756
193	0xbcf9c8c4	-0.03049124
194	0xbd932b42	-0.07185985
195	0x3bdc2c93	0.006719181
196	0x3d10d1fe	0.035356514
197	0x3c49e82e	0.012323422
198	0xbd895387	-0.06705385
199	0xbd030285	-0.031984825
200	0xbd39060f	-0.045171794
201	0xbd477e7e	-0.048704617
202	0xbd3d78f8	-0.046257943
203	0xbd179676	-0.037008725
204	0xbc958592	-0.018252168
205	0x3d91e369	0.07123453
206	0x3c3e605f	0.011619656
207	0x3db08c69	0.08620531
208	0xbd346ab9	-0.04404709
209	0xbba08561	-0.0048987125
210	0x3dc960be	0.09832905
211	0xbd228875	-0.039680917
212	0x3d197761	0.037467364
213	0xbd069dba	-0.032865264
214	0xbd001e0e	-0.031278662
215	0xbd0bb930	-0.034112155
216	0xbc7c217a	-0.015388841
217	0xba2b3f2d	-0.0006532546
218	0x3d6430f0	0.055710733
219	0x3d40bb31	0.04705352
220	0xbb12ffa7	-0.0022430213
221	0xbd93b651	-0.072125085
222	0x3d94be0a	0.072628096
223	0x3b9b008c	0.00473029
224	0xbc7a92ab	-0.015293757
225	0xbce577a5	-0.028011153
226	0xbd683798	-0.056693643
227	0x3c04d765	0.008107995
228	0xbcbe1f8b	-0.0232084
229	0xbd52c8a8	-0.051460892
230	0x3d252a02	0.040323265
231	0x3d7473e8	0.05968085
232	0xbd485fd0	-0.0489195
233	0xbda00a1c	-0.07814428
234	0x3cd2b0d8	0.025719091
235	0xbdb52df9	-0.08846659
236	0xbc41ce51	-0.011828975
237	0xbcaf9004	-0.021430977
238	0xbd246e2a	-0.040144123
239	0x3c7b0e73	0.015323269
240	0x3cd7df7c	0.026351683
241	0x3c7e15c5	0.01550812
242	0xbc24227d	-0.010017988
243	0xbb2e2fdf	-0.0026578826
244	0x3d8f9adc	0.07011959
245	0xbd08c6c4	-0.033392683
246	0x3d6d17c9	0.05788401
247	0xbda5ed9f	-0.08101963
248	0xbd648152	-0.055787392
249	0xbc07a10c	-0.008278143
250	0x3d12b086	0.035812877
251	0xbd8030bf	-0.062592976
252	0xbd44ba95	-0.0480295
253	0x3d5348d9	0.051583145
254	0x3d467490	0.048451006
255	0x3ce1fd76	0.02758668

network_body._body_endoder.seq_layers.2.weight f4 [256, 256]
0	0xbd044dc0	-0.03230071
1	0xbd6d7012	-0.057968207
2	0x3ccf5901	0.025310995
3	0xbaa2aacb	-0.0012410519
4	0xbe2f9d02	-0.17149737
5	0x3dccf87f	0.10008334
6	0x3d6f8a94	0.058481768
7	0xbd3302b4	-0.04370375
8	0xbdd93737	-0.106062345
9	0x3c965c3e	0.018354531
10	0x3d6ddc32	0.058071323
11	0xbe2287bd	-0.15872093
12	0x3d75234f	0.059848126
13	0xbe5a7dd2	-0.21337059
14	0x3d624547	0.05524185
15	0xbd42e586	-0.04758217
16	0xbd3a6568	-0.045506865
17	0xbd4eee64	-0.050520316
18	0xbd8309c3	-0.06398346
19	0x3df51ded	0.119685985
20	0xbdb8f2c0	-0.09030676
21	0xbe87f743	-0.26555833
22	0xbd42668e	-0.047461085
23	0xbd9b0c32	-0.075706854
24	0xbca9ed9e	-0.020743188
25	0x3e89c783	0.26910028
26	0xbd9df21e	-0.07712196
27	0xbd79c776	-0.060981236
28	0xbdb15f70	-0.086607814
29	0x3ce1e5cb	0.027575394
30	0xbb9ecfeb	-0.004846563
31	0xbe302151	-0.17200209
32	0x3d20bd27	0.03924289
33	0x3d1127b1	0.035438243
34	0x3c447de4	0.011992905
35	0xbde3e7e4	-0.11128214
36	0xbdd71ec5	-0.10503916
37	0xbb12af0c	-0.0022382168
38	0x3b40afa2	0.002940156
39	0xbdc7c18b	-0.09753712
40	0xbd487d05	-0.048947353
41	0x3e027609	0.1274034
42	0x3c9a8f55	0.018867174
43	0xbdfa756a	-0.12229426
44	0xbc975199	-0.018471526
45	0x3c8714a2	0.01648933
46	0x3d03165f	0.032003757
47	0xbea08964	-0.3135482
48	0x3ba82542	0.0051313946
49	0x3de4cfac	0.11172423
50	0xbcd0d8e4	-0.025494047
51	0xbe1d470a	-0.1535913
52	0xbdca9cb2	-0.098931685
53	0xbde2b648	-0.11069924
54	0x3c47533a	0.012165839
55	0x3e2987a8	0.16555655
56	0x3cbddffe	0.023178097
57	0x3dd83bc4	0.105582744
58	0xbce7e512	-0.028307471
59	0x3d9781dd	0.07397816
60	0x3de1b374	0.11020556
61	0xbdeb49d8	-0.11488694
62	0xbd213e11	-0.03936583
63	0x3b8dc3e5	0.004326331
64	0x3e0ea9ab	0.1393191
65	0xbbffeb6b	-0.0078100464
66	0xbe15ba30	-0.14621806
67	0xbe64327d	-0.22284885
68	0x3e9e9e03	0.30979928
69	0x3daaf8d3	0.08348241
70	0x3d80b4b0	0.062844634
71	0x3ce486d5	0.027896324
72	0xbc96aa0c	-0.018391632
73	0x3d39ba0d	0.045343447
74	0xbe060f23	-0.13091712
75	0x3d01a056	0.03164705
76	0xbdf76dff	-0.12081527
77	0x3ddcb97e	0.10777567
78	0x3d19d689	0.037558112
79	0xbd055513	-0.032551836
80	0xbd3b0920	-0.045663
81	0xbd4f4687	-0.05060437
82	0xbe24afbf	-0.16082667
83	0xbd45a39c	-0.048251733
84	0xbdf1c9f1	-0.118060954
85	0xbd99cb75	-0.075095095
86	0xbde0aa26	-0.10969953
87	0x3e223ef4	0.15844327
88	0xbe03000c	-0.12792987
89	0xbe829162	-0.25501543
90	0xbdd7a5ee	-0.105296955
91	0x3df1c612	0.11805357
92	0xbdc2883d	-0.09498642
93	0xbd6d4a91	-0.05793244
94	0x3dcb0eb4	0.09914914
95	0xbd32ba81	-0.043634895
96	0xbe0e8f80	-0.13921928
97	0x3dbe6026	0.092956826
98	0x3db3eff4	0.08786002
99	0x3e67875a	0.22610226
100	0xbe67e11b	-0.22644465
101	0xbe2fe09d	-0.17175527
102	0xbc3f12df	-0.011662214
103	0x3e255a81	0.16147806
104	0x3e370f7d	0.17877002
105	0xbd7f95e5	-0.06239881
106	0xbd9f4532	-0.0777687
107	0x3e1cede5	0.15325125
108	0x3da15e70	0.07879341
109	0x3e106151	0.14099623
110	0x3e404888	0.18777668
111	0xbcae67df	-0.021289764
112	0xbe87e64e	-0.26542896
113	0xbe280040	-0.16406345
114	0xbd13102d	-0.0359041
115	0xbe04c36b	-0.12965171
116	0xbdb04a55	-0.08607928
117	0xbded5096	-0.11587636
118	0x3c61b44c	0.013775896
119	0xbd0bbeca	-0.034117498
120	0xbdc61eca	-0.09673841
121	0xbd17549d	-0.036945928
122	0xbb00a5ee	-0.0019630152
123	0x3c79b3be	0.015240608
124	0x392699c4	0.00015888276
125	0xbceb0f3e	-0.028693791
126	0x3e022b76	0.12711892
127	0xbdfe0972	-0.12404145
128	0x3d0777d4	0.03307326
129	0xbe9bf358	-0.30459094
130	0xbda047ae	-0.07826172
131	0xbd7e5cc0	-0.062100172
132	0xbda6bd98	-0.08141631
133	0x3d7c0a96	0.061533533
134	0xbdd453bc	-0.103675336
135	0x3ca6624e	0.020310547
136	0x3b9f0ef4	0.0048540775
137	0x3e0e65ee	0.1390607
138	0x3e47cdc6	0.1951209
139	0x3c003dea	0.007827261
140	0xbddbf8fe	-0.10740851
141	0xbd614d6f	-0.055005487
142	0xbdaf459e	-0.085582
143	0x3dc1520e	0.09439479
144	0x3df168ca	0.11787565
145	0xbe9d43ac	-0.30715692
146	0xbcc70544	-0.024294503
147	0x3def7d21	0.11693788
148	0xbd9e85e9	-0.07740385
149	0xbd4786a7	-0.0487124
150	0xbe53b8cb	-0.20675962
151	0x3c580667	0.01318512
152	0x3df6aa00	0.12044144
153	0xbe98f4ee	-0.29874367
154	0x3dcdf2b8	0.100560606
155	0xbd7c595a	-0.06160865
156	0x3d1e2978	0.038613766
157	0x3dc63208	0.096775115
158	0xbd879375	-0.06619922
159	0xbc792fe8	-0.015209176
160	0x3e234dd0	0.15947652
161	0x3e47535c	0.19465393
162	0x3bd21363	0.0064110025
163	0xbe5d93e8	-0.21638453
164	0x3e03fae0	0.1288867
165	0xbdb62632	-0.08894004
166	0x3e61dcc8	0.22056878
167	0xbe009fa5	-0.125609
168	0xbd28ae2d	-0.041181732
169	0x3d803a96	0.062611744
170	0xbe2ff360	-0.17182684
171	0x3d3c75f0	0.04601091
172	0xbba809a6	-0.0051281033
173	0x3de41203	0.11136248
174	0xbe2dac17	-0.16960178
175	0x3d535bd0	0.05160123
176	0x3e13979f	0.14413308
177	0xbd81cd77	-0.063380174
178	0xbd3f993a	-0.046776988
179	0xbd6dc18c	-0.05804591
180	0xbd542f5e	-0.051802985
181	0x3e3e79e7	0.1860119
182	0x3e3fe0a2	0.18738034
183	0xbe65efcd	-0.22454758
184	0xbe881f60	-0.26586437
185	0xbdd4954b	-0.10380038
186	0xbb987d3c	-0.004653601
187	0x3a91c1fb	0.0011120433
188	0x3bed84dd	0.0072485046
189	0xbe03ba0f	-0.12863944
190	0x3e1a8f86	0.15093812
191	0xbc8ef240	-0.017449498
192	0xbc5927c5	-0.013254111
193	0xbd5165f3	-0.051122617
194	0x3ca69198	0.020333096
195	0xbd863bcc	-0.06554374
196	0x3d96f69d	0.073712565
197	0xbe89a9fc	-0.268875
198	0x3dbd4fd9	0.09243745
199	0x3e0af8a9	0.13571419
200	0xbc326a39	-0.010889583
201	0x3c63b405	0.0138979005
202	0x3d45d9b6	0.04830333
203	0x3e102f2a	0.14080492
204	0xbd9fa0da	-0.07794352
205	0xbbf1e175	-0.007381613
206	0x3e238ccc	0.15971678
207	0xbc8a9c24	-0.016920157
208	0xbdba8469	-0.091072865
209	0x3d005455	0.031330425
210	0x3e2a4ef4	0.1663168
211	0x3b28ac16	0.0025737337
212	0x3b6a5cc7	0.0035760866
213	0xbccf4359	-0.025300669
214	0xbce58a36	-0.028020006
215	0x3e2ccfb4	0.16876107
216	0xbdcabaf4	-0.0989894
217	0x3d86fde8	0.065913975
218	0xbd415f10	-0.0472098
219	0xbe290bf6	-0.16508469
220	0x3c8b0951	0.016972216
221	0x3c59e7af	0.013299867
222	0xbd90a360	-0.07062411
223	0xbda20490	-0.079110265
224	0x3d4167cf	0.04721814
225	0xbd9bf195	-0.076144375
226	0xbda2eb36	-0.07955019
227	0x3dd492e2	0.10379578
228	0xbe2b297b	-0.16715042
229	0x3d10a845	0.035316724
230	0x3ca8826f	0.020570008
231	0xbd0ff944	-0.035149828
232	0x3dc1652c	0.09443125
233	0x3e1f067b	0.15529816
234	0xbd069d0a	-0.032864608
235	0xbdee4951	-0.11635078
236	0xbdeb6643	-0.11494114
237	0x3e2d5c77	0.16929804
238	0x3d3ff487	0.04686406
239	0xbd946994	-0.072467
240	0xbdd9b97a	-0.1063108
241	0xbc589b4d	-0.01322062
242	0x3e1ac979	0.15115918
243	0x3de6ca86	0.11269097
244	0xbdbc1913	-0.0918447
245	0x3e0c4b91	0.13700701
246	0xbd907080	-0.07052708
247	0x3d09617c	0.033540234
248	0xbdf85289	-0.12125117
249	0xbe0ca77f	-0.1373577
250	0x3df67c11	0.120353825
251	0x3d3b7c53	0.04577286
252	0xbc8e5f78	-0.017379507
253	0xbdfef677	-0.12449353
254	0x3e9499cd	0.2902359
255	0xbe564ee6	-0.20928535

network_body._body_endoder.seq_layers.2.bias f4 [256]
0	0xbd50d001	-0.050979618
1	0xbcbe2853	-0.023212587
2	0xbde8eb8c	-0.11373052
3	0xbda98c30	-0.08278692
4	0xbdc41af3	-0.09575453
5	0x3cda4c79	0.026647793
6	0xbe54a77b	-0.20767014
7	0xbd0a7aa7	-0.033808377
8	0xbe1af23f	-0.15131472
9	0xbe1f4ef3	-0.1555746
10	0xbb505e2f	-0.003179442
11	0xbdb0cec2	-0.08633186
12	0xbd8aac61	-0.0677116
13	0x3ca40f45	0.020026812
14	0xbcc4b2c8	-0.02401103
15	0xbdf0cfef	-0.1175841
16	0xbcf2504b	-0.029579302
17	0xbdc8e583	-0.09809401
18	0xbc2d3dcd	-0.0105738165
19	0xbd7ba22d	-0.06143396
20	0xbdd4be44	-0.10387853
21	0xbd4324a6	-0.047642373
22	0xbd1a61c9	-0.03769091
23	0xbd90ff65	-0.07079963
24	0xbdc2aa45	-0.095051326
25	0x3dba3108	0.09091383
26	0xbd30f1d3	-0.04319937
27	0x3d9627f3	0.073318385
28	0xbda00b14	-0.07814613
29	0xbe27f9a8	-0.1640383
30	0xbdce271c	-0.10066053
31	0xbd306044	-0.043060556
32	0xbe339a94	-0.17539436
33	0xbd927bf2	-0.07152547
34	0xbc887619	-0.016657876
35	0xbe077de3	-0.13231616
36	0x3c3659c3	0.011129799
37	0xbc7dba41	-0.015486301
38	0xbdab872d	-0.08375392
39	0xbd83ed8c	-0.06441793
40	0x3c4ffc01	0.01269436
41	0xbdabfadd	-0.08397458
42	0xbe60c7c6	-0.21951208
43	0xbd797998	-0.060906976
44	0xbcaf309e	-0.021385487
45	0xbdf7a22d	-0.120914795
46	0xbe09011c	-0.1337933
47	0xbcefa09d	-0.029251391
48	0xbdeca42d	-0.115547515
49	0xbad7c8c0	-0.0016463026
50	0xbd78deaf	-0.060759243
51	0xbdee252c	-0.11628184
52	0xbbd3a082	-0.006458343
53	0xbdaa628b	-0.08319577
54	0xbdec3604	-0.1153374
55	0x3cc681d0	0.024231821
56	0x3cae3f9f	0.021270571
57	0x3c638b3c	0.0138881765
58	0xbe0046c6	-0.12526998
59	0xbdc5c70b	-0.09657105
60	0xbda43f5b	-0.080198966
61	0x3c63e2e8	0.013909079
62	0xbdf98352	-0.121832505
63	0xbd7f1d07	-0.062283542
64	0xbdbc4c6a	-0.09194262
65	0xbd725178	-0.059159726
66	0xbca5e532	-0.02025089
67	0xbe841405	-0.25796524
68	0xbdc8c3bc	-0.09802958
69	0xbd737403	-0.05943681
70	0x3cca0b48	0.024663582
71	0xbcf6b07c	-0.030113451
72	0xbd865e9c	-0.06561014
73	0xbcbbb013	-0.022911107
74	0xbd197ddc	-0.037473544
75	0x36c6f820	5.9297454e-06
76	0xbe08a580	-0.13344383
77	0xbccbf598	-0.024897382
78	0xbde12bcb	-0.10994681
79	0xbe0f93de	-0.1402125
80	0x3dee934d	0.11649189
81	0xbdd9d044	-0.10635427
82	0xbe207c83	-0.15672497
83	0xbdddb026	-0.10824613
84	0xbd8179d3	-0.06322064
85	0xbd8908ce	-0.066911325
86	0x3d6113c2	0.054950483
87	0xbdcdcb77	-0.100485735
88	0xb98e86e1	-0.00027184843
89	0xbdc83028	-0.0977481
90	0xbd9ce6bf	-0.07661199
91	0xbe10dd61	-0.1414695
92	0xbc9498ff	-0.01813936
93	0xbdda9545	-0.10673002
94	0xbd29b898	-0.041435808
95	0xbdfaa9e3	-0.122394346
96	0x3db9776e	0.090559825
97	0xbde7ee26	-0.1132472
98	0xbd02eabf	-0.031962153
99	0x3de7a725	0.11311177
100	0xbdd4f108	-0.103975356
101	0xbe4cfe36	-0.20018849
102	0x3da614d6	0.08109443
103	0x3c38bb7d	0.011275169
104	0xbd7d5ec1	-0.061857942
105	0xbd882cef	-0.066491954
106	0xbcfbf4ec	-0.030756436
107	0xbdf754e4	-0.120767385
108	0xbcfbe992	-0.030751023
109	0xbdd70958	-0.10499829
110	0xbb181d0d	-0.0023210675
111	0xbdda5d42	-0.10662319
112	0xbdd90cd3	-0.10598149
113	0xbd694fc2	-0.05696083
114	0x3d07d5ab	0.033162754
115	0xbd717eac	-0.058958694
116	0xbd2c09c9	-0.04200152
117	0xbd7b6662	-0.061376937
118	0xbdb32062	-0.08746411
119	0xbd83c732	-0.06434478
120	0xbdaff209	-0.085910864
121	0xbd66d644	-0.056356683
122	0xbc0da363	-0.008644911
123	0xbd9d2a19	-0.07674045
124	0xbe2d881e	-0.16946456
125	0xbdd734da	-0.105081275
126	0xbe19ca4b	-0.15018575
127	0xbd8e0bdc	-0.06935856
128	0xbdf85378	-0.121252954
129	0xbde63c59	-0.11241979
130	0xbd53f95a	-0.051751472
131	0xbd2ab785	-0.041678924
132	0x3bbed173	0.005823308
133	0xbd025ef1	-0.031828824
134	0xbe1b9f34	-0.1519745
135	0xbcaaa85e	-0.020832237
136	0xbd9d8017	-0.07690447
137	0xbd05ff2a	-0.032714047
138	0xbe3b2578	-0.18276012
139	0xbdca6770	-0.098830104
140	0xbd6b2c3f	-0.057415243
141	0xbb295e35	-0.0025843505
142	0xbde4a81b	-0.11164876
143	0xbd9f085f	-0.077652685
144	0xbd0fae1e	-0.03507816
145	0xbdbf0bdc	-0.09328434
146	0xbda417e3	-0.080123685
147	0xbcc8b64c	-0.024500988
148	0xbe7d8857	-0.24759041
149	0xbdb39b8e	-0.08769904
150	0xbddbf1c0	-0.107394695
151	0xbdf103a8	-0.117682755
152	0xbd582c25	-0.052776475
153	0xbdafbfe4	-0.08581522
154	0xbde4aec5	-0.11166147
155	0xbdac16ba	-0.08402772
156	0x3ad2a024	0.0016069454
157	0xbdc16089	-0.09442241
158	0xbdb7f054	-0.08981386
159	0xbe01dd2b	-0.12682025
160	0x3b693380	0.0035583675
161	0xbd33a534	-0.04385872
162	0xbdc27cff	-0.09496497
163	0xbdc28082	-0.09497167
164	0x3c7234c6	0.01478309
165	0xbd4f4fc7	-0.05061319
166	0xbc0e4e46	-0.008685654
167	0xbdb01597	-0.08597868
168	0xbcc30c1b	-0.023809483
169	0xbe10b42d	-0.14131232
170	0xbdac9685	-0.08427147
171	0xbe2e79a6	-0.17038593
172	0xbd694ac5	-0.05695607
173	0xbd7b0fc5	-0.061294336
174	0xbd97e10b	-0.074159704
175	0xbdb95cdc	-0.09050915
176	0xbdd17d59	-0.10228986
177	0x3da0a608	0.07844168
178	0xbe041581	-0.12898828
179	0xbd28f6d7	-0.04125103
180	0xbdba1184	-0.09085372
181	0xbdcd81d4	-0.100345284
182	0xbc5b4b6f	-0.013384684
183	0xbde144cf	-0.10999452
184	0xbd05fd2a	-0.03271214
185	0xbbb33d2a	-0.005469938
186	0xbdc06366	-0.09393959
187	0xbe10b67c	-0.14132112
188	0xbdc34436	-0.095344946
189	0xbe09824e	-0.13428614
190	0xbde2c22d	-0.11072192
191	0xbd388a05	-0.0450535
192	0xbcffed3d	-0.031241054
193	0xbd831f4d	-0.064024545
194	0xbe26cfaa	-0.16290155
195	0xbd745bcf	-0.059657868
196	0xbd0ea1c4	-0.03482224
197	0xbdf04ef0	-0.11733806
198	0xbd9e0950	-0.0771662
199	0xbd3c7a1a	-0.046014883
200	0xbdaa48de	-0.083146796
201	0x3d33f22d	0.04393213
202	0xbe0ec454	-0.1394208
203	0xbe0ac8ff	-0.13553236
204	0xbd1528bd	-0.036415804
205	0xbd9fb4a8	-0.07798129
206	0xbdc00ca0	-0.09377408
207	0xbc971fd2	-0.01844779
208	0xbcaa2c55	-0.020773092
209	0xbe1f9799	-0.15585174
210	0xbd99da61	-0.075123556
211	0xbe12487f	-0.14285468
212	0xbd97a8b6	-0.07405226
213	0xbe088a03	-0.13333897
214	0xbdfa8b97	-0.12233656
215	0xba76b45a	-0.000941103
216	0xbdacd18c	-0.084384054
217	0xbe1ed634	-0.155114
218	0xbccde235	-0.025132278
219	0xbda1c615	-0.07899109
220	0xbd9c32fb	-0.07626911
221	0xbd7af1df	-0.061265822
222	0xbd425c9d	-0.047451604
223	0xbd59c093	-0.05316217
224	0xbd894554	-0.067026764
225	0xbcb315a9	-0.021860914
226	0xbc161acb	-0.009161661
227	0x3b9aec4a	0.004727875
228	0xbb8361aa	-0.004009445
229	0xbd77aa78	-0.060465306
230	0xbd06bb3e	-0.03289341
231	0xbd8c79fa	-0.06859203
232	0xbe216194	-0.1575988
233	0xbdd16575	-0.102244295
234	0xbd81736c	-0.06320843
235	0xbd40adbb	-0.047040682
236	0xbe2c8595	-0.16847833
237	0xbc1fa61b	-0.0097441925
238	0xbc988ada	-0.018620897
239	0xbd66f6de	-0.056387775
240	0xbd066559	-0.032811496
241	0xbe06fd87	-0.1318265
242	0xbdc11eef	-0.09429728
243	0xbccc533d	-0.024942035
244	0xbcc6933b	-0.024240127
245	0xbb4a4205	-0.0030862105
246	0xbca308f5	-0.019901732
247	0xbd3aff5c	-0.045653686
248	0xbd30f533	-0.04320259
249	0xbdbc627a	-0.091984704
250	0xbde6b2b9	-0.112645574
251	0xbd577c04	-0.052608505
252	0xbd8bba10	-0.06822598
253	0xbd818543	-0.06324246
254	0xbdb3f6fc	-0.08787343
255	0xbe11363d	-0.14180847

action_model._discrete_distribution.branches.0.weight f4 [3, 256]
0	0xbdf07bd3	-0.117423676
1	0x3dbaf331	0.09128416
2	0x3d36cb29	0.044627342
3	0xbdc64d7f	-0.0968275
4	0x3d99c025	0.07507352
5	0xbd8b0f08	-0.06789976
6	0xbc979839	-0.018505203
7	0xbd8b9f99	-0.0681755
8	0x3e11a2e8	0.142223
9	0x3da7b5da	0.08188982
10	0xbda83f94	-0.082152516
11	0x3dbed6d0	0.09318316
12	0x3d729d1c	0.059231862
13	0xbe21acd2	-0.15788582
14	0xbdf5f124	-0.120088845
15	0xba8dee16	-0.0010828401
16	0xbd0d3879	-0.034477685
17	0x3dbc14c2	0.09183647
18	0x3e087172	0.13324526
19	0xb7d503e6	-2.5393394e-05
20	0x3c296e36	0.010341218
21	0xbd069d14	-0.032864645
22	0x3c9b6863	0.018970674
23	0x3d4d50ee	0.05012601
24	0x3dc76e0a	0.09737785
25	0xbc97728d	-0.01848724
26	0xbd2e49c9	-0.042550836
27	0x3c535ca3	0.012900504
28	0x3c5e97ed	0.013586027
29	0x3d619849	0.05507687
30	0x3d9a1f1f	0.07525467
31	0x3beccb55	0.0072263875
32	0x3db069b5	0.08613912
33	0xbc1a25e0	-0.009408444
34	0xbc20b648	-0.009809084
35	0x3d110526	0.0354053
36	0xbd1b80ad	-0.03796451
37	0xbcb7e625	-0.022448609
38	0xbd90c5da	-0.07068987
39	0x3cd9ace7	0.026571704
40	0xbcec9f2c	-0.028884493
41	0xbc5357d1	-0.012899355
42	0x3d09402f	0.033508476
43	0xbd8deff6	-0.069305345
44	0xbc86b0d3	-0.016441738
45	0x3c912fdc	0.017723016
46	0x3dd890be	0.105744824
47	0x3d76c3ed	0.060245443
48	0x3d3c48f0	0.045967996
49	0xbd3f0bda	-0.046642162
50	0xbd64b1a0	-0.05583346
51	0xbc46a546	-0.012124365
52	0xbd3b2fdf	-0.04569995
53	0x3d2e3b8c	0.042537257
54	0x3d79f8a9	0.061028156
55	0x3c621d99	0.013801002
56	0xbd992184	-0.07477096
57	0x3de0131f	0.10941147
58	0x3d0a4026	0.033752583
59	0x3d1e3a2d	0.0386297
60	0x3c0e2612	0.008676069
61	0xbc86b1fa	-0.016442288
62	0x3d3e7d92	0.046506472
63	0x3e020fd4	0.1270135
64	0xbc14052e	-0.009034438
65	0x3d8f2390	0.06989205
66	0x3d10b6d1	0.035330597
67	0x3d4676b0	0.048453033
68	0x3d79c212	0.060976095
69	0x3d04dcd6	0.032437168
70	0xbdbf6020	-0.09344506
71	0xbd44227c	-0.04788445
72	0xbb97099b	-0.0046092994
73	0x3c52abc8	0.012858339
74	0x3bfb70ce	0.0076733595
75	0xbc8d86dc	-0.01727622
76	0x3c0f6ecb	0.008754442
77	0x3dff784c	0.12474117
78	0x3c10094b	0.008791278
79	0x3da77e39	0.08178372
80	0x39a8e73d	0.00032215743
81	0x3c7352f4	0.014851321
82	0x3d73e198	0.059541315
83	0x3c233c24	0.009963069
84	0xbc56336b	-0.013073782
85	0x3dcf55fa	0.101238206
86	0xbc4c54a5	-0.012471353
87	0xbd160fb8	-0.036636084
88	0x3d65d30c	0.056109473
89	0x3d7c0795	0.06153067
90	0xbcff127e	-0.031136747
91	0x3ca3ee23	0.020011013
92	0xbd96d0be	-0.07364033
93	0xbc9f03bc	-0.01941096
94	0x3ba2d93a	0.004969743
95	0xbbc4061d	-0.005982174
96	0xbc81dd63	-0.015852636
97	0xbca5273c	-0.02016031
98	0xbdc3b1f7	-0.095554285
99	0x3d177239	0.036974166
100	0x3c26f9a7	0.010191358
101	0x3db27fa0	0.08715749
102	0x3c5350d3	0.012897688
103	0xbc920088	-0.017822519
104	0x3d7fe558	0.06247458
105	0x3bee7d20	0.0072780997
106	0x3d0f4801	0.034980778
107	0x3c8800d5	0.01660196
108	0x3dcc9787	0.09989839
109	0x3b8d5bc8	0.0043139197
110	0xbc24b438	-0.010052733
111	0xbb45dddc	-0.0030192053
112	0x3dd29cd7	0.10283821
113	0xbc0094f7	-0.007848016
114	0xbda2af90	-0.07943642
115	0x3d831594	0.064006
116	0x3d01d836	0.031700335
117	0xbcea4ce5	-0.02860112
118	0xbd694f1f	-0.05696022
119	0x3d6d5b3b	0.057948332
120	0xbd436310	-0.047701895
121	0x3c7ffb33	0.015623855
122	0xbcd109e0	-0.025517404
123	0x3d59186c	0.053001806
124	0xbccfc107	-0.025360597
125	0x3be04eff	0.0068453546
126	0x3d4e2530	0.050328434
127	0x3d3bfc50	0.04589492
128	0x3bde3326	0.0067809997
129	0xbd30bae3	-0.04314698
130	0xbcb81400	-0.022470474
131	0x3ccad9f2	0.024762128
132	0x3d1bd59d	0.038045514
133	0xbcb14f0b	-0.021644136
134	0x3e036d55	0.12834676
135	0xbcb564a5	-0.022142718
136	0xbcf04189	-0.029328125
137	0x3d2600cf	0.040528115
138	0x3cbda349	0.02314915
139	0xbceecf70	-0.029151648
140	0xbc1a2c02	-0.009409906
141	0xbd80b75c	-0.06284973
142	0x3d68db12	0.056849547
143	0x3d57d6d0	0.052695096
144	0xbd4d1c24	-0.050075665
145	0x3b322dc2	0.0027187918
146	0xbc766742	-0.015039267
147	0xbcd8b4a9	-0.026453333
148	0x3cd9c0ba	0.026581157
149	0xbcfeaa6d	-0.031087125
150	0x3cfc68aa	0.030811626
151	0x3d4f111e	0.050553434
152	0x3cea8253	0.028626597
153	0xbc2541ce	-0.01008649
154	0x3d98cc29	0.074608155
155	0x3abb20f9	0.0014276794
156	0xbd35446e	-0.044254713
157	0xbd98b2d4	-0.07455984
158	0xbb8d7d21	-0.004317895
159	0xbcd8c7ee	-0.026462521
160	0xbdf1f2a3	-0.118138574
161	0xbd288b78	-0.041148633
162	0xbb0db630	-0.0021623485
163	0x3d9dde38	0.077084005
164	0xbd86ea87	-0.06587701
165	0x3d3f814d	0.04675417
166	0xbda58a7b	-0.08083054
167	0x3d3f8388	0.046756297
168	0x3e085a50	0.13315701
169	0x3d2b16fa	0.04176996
170	0x3cac6fc5	0.02104939
171	0x3d3755a5	0.04475941
172	0xbd94a588	-0.07258135
173	0xbd0ff990	-0.03515011
174	0x3d07fb04	0.03319837
175	0xbd3929cb	-0.045205873
176	0xbd7f5c91	-0.062344138
177	0xbe191dcc	-0.14952773
178	0x3cdeee99	0.027213382
179	0xbc8ad6f4	-0.0169482
180	0xbc996a81	-0.018727543
181	0x3d9b10e4	0.07571581
182	0xbdbbfb2c	-0.091787666
183	0xbbb16c65	-0.005414533
184	0xbdc3897c	-0.095477074
185	0xbdab9594	-0.08378139
186	0x3dd49757	0.10380428
187	0xbc699566	-0.014256811
188	0xbd75385e	-0.05986821
189	0x3cc4a6ee	0.02400538
190	0x3d9400e9	0.07226736
191	0xbd828cae	-0.06374489
192	0x3d17d2bf	0.037066218
193	0xbd2938ff	-0.04131412
194	0x3ca6af2f	0.020347206
195	0x3e13d0ca	0.14435115
196	0xbdd962e7	-0.10614567
197	0x3deda777	0.11604207
198	0xbb986319	-0.0046504852
199	0xbd4697b4	-0.04848452
200	0x3c74dd08	0.014945276
201	0x3d7c2049	0.061554227
202	0x3dd1fabb	0.10252901
203	0xbc8c41f6	-0.017121296
204	0xbd78e503	-0.060765278
205	0x3d448aee	0.047984056
206	0x3cd24644	0.02566827
207	0xbd569a24	-0.052393094
208	0xbc396714	-0.01131608
209	0x3cad94a1	0.021189036
210	0x3d016641	0.031591658
211	0x3dfa66b2	0.12226619
212	0xbbb42ea5	-0.0054987245
213	0xbd5d41de	-0.054017894
214	0x3d0f8910	0.035042822
215	0x3cba5ddb	0.022749832
216	0x3ddf2e57	0.108975105
217	0x3d0875aa	0.03331534
218	0x3dc6ed01	0.09713174
219	0xbd1ee371	-0.038791124
220	0x3d02cc87	0.031933334
221	0xbd481d36	-0.048855983
222	0x3c2750ca	0.010212133
223	0x3d4011c7	0.046891954
224	0xbcfc25f9	-0.030779826
225	0x3de246d5	0.110486664
226	0x3c2b4dbf	0.010455548
227	0x3d853e36	0.065060064
228	0xbc0b9698	-0.008519791
229	0x3c4ec2e3	0.012619707
230	0xbc3a2ab8	-0.011362724
231	0x3cffcb0a	0.031224746
232	0x3d4f642e	0.05063265
233	0x3d430dea	0.04762069
234	0x3d488561	0.048955325
235	0xbbc7e247	-0.0060999724
236	0x3d404766	0.04694309
237	0x3d6f0afd	0.05836009
238	0xbd45feee	-0.048338823
239	0x3e0b5995	0.13608392
240	0xbd4a2940	-0.049355745
241	0x3da9f7ad	0.082991935
242	0x3ce97890	0.028499871
243	0x3bf8a4a0	0.007587984
244	0xbda20991	-0.07911981
245	0x3ca107b2	0.01965699
246	0xbc1195b5	-0.008885791
247	0x3cd4f9a9	0.025997953
248	0xbcaca820	-0.021076262
249	0x3d215179	0.03938434
250	0x3b76814a	0.0037613683
251	0x3e0359db	0.12827246
252	0xbd1894a8	-0.037251145
253	0xbdb0e754	-0.08637872
254	0x3d7540cc	0.05987625
255	0xbcbb5727	-0.022868706

action_model._discrete_distribution.branches.0.bias f4 [3]
0	0xbd9d2f31	-0.07675017
1	0x3e328296	0.17432627
2	0xbe151b57	-0.1456121

action_model._discrete_distribution.branches.1.weight f4 [3, 256]
0	0xbd3b4e92	-0.045729227
1	0xbe51c2c5	-0.20484455
2	0xbc5cd376	-0.013478151
3	0x3dd83e71	0.10558785
4	0x3dcf60bd	0.10125873
5	0x3db6a6e6	0.08918552
6	0xbd18db63	-0.0373186
7	0x3d58c3f5	0.052921254
8	0xbe11449f	-0.14186333
9	0xbd3eee41	-0.046613935
10	0x3dd0b733	0.101911925
11	0xbcd2e810	-0.025745422
12	0x3e0a4bbf	0.13505457
13	0x3e2ba6e3	0.16762881
14	0x3d7597c9	0.059959207
15	0x3c80cd84	0.015722997
16	0x3caec646	0.021334779
17	0xbccabcc9	-0.024748223
18	0xbe30bace	-0.1725876
19	0xbb150a25	-0.0022741642
20	0xbced0370	-0.028932303
21	0x3d95538a	0.072913244
22	0xbdb8d007	-0.09024053
23	0x3caed395	0.021341125
24	0xbdba0fb3	-0.09085026
25	0x3cf765f2	0.030199979
26	0x3d66f2d2	0.056383915
27	0xbd58e14b	-0.05294923
28	0xbe221b3e	-0.15830705
29	0xbc18e573	-0.009332049
30	0xbbab2283	-0.00522262
31	0xbd4ea429	-0.050449524
32	0x3cfb8e0f	0.030707387
33	0xbd2d5d0d	-0.04232507
34	0x3c71fb74	0.014769424
35	0xbbdf1e91	-0.0068090637
36	0xbe16c9e1	-0.14725448
37	0xbd3569d7	-0.04429039
38	0x3d11a5bb	0.035558444
39	0x3997f57a	0.0002898386
40	0xbcb9a4d4	-0.022661604
41	0xbdcb7a4e	-0.09935437
42	0xbd8a8b65	-0.06764869
43	0x3ddbbd75	0.107294954
44	0x3db253a4	0.087073594
45	0xbc978b0e	-0.018498924
46	0xbe168457	-0.14698921
47	0xbc952c9f	-0.018209754
48	0xbd0cb4cc	-0.03435211
49	0xbdaefc82	-0.08544256
50	0x3c34856e	0.01101814
51	0xbda9818e	-0.08276664
52	0x3d2be240	0.041963816
53	0xbc442fef	-0.011974319
54	0x3bf71817	0.0075407135
55	0x3dd3b61a	0.103374675
56	0x3bc27a31	0.0059349765
57	0xbe1f6390	-0.15565324
58	0x3c317b8a	0.010832677
59	0x3bb949f1	0.0056545665
60	0x3d74924c	0.059709832
61	0x3d0ca7f6	0.034339868
62	0x3d535158	0.051591247
63	0xbde2a4b3	-0.1106657
64	0x3d48e833	0.049049567
65	0xbbb83ed6	-0.005622725
66	0xbd075398	-0.033038706
67	0xbca9ddaf	-0.02073559
68	0xbdb26cec	-0.087121814
69	0xbe0ab159	-0.13544215
70	0x3dc1567e	0.09440325
71	0x3d3fd81b	0.046836954
72	0xbd83ba1f	-0.06431984
73	0x3d481c6f	0.04885524
74	0xbe27dc74	-0.1639269
75	0xbdffba4b	-0.124867044
76	0xbcbb7f03	-0.022887712
77	0x3e0773db	0.13227789
78	0xbddd0e95	-0.10793797
79	0x3c3f087b	0.011659737
80	0xba0afad5	-0.0005301659
81	0xbe330fc8	-0.17486489
82	0x3c990e98	0.018683717
83	0xbd69a672	-0.0570435
84	0x3d7c502d	0.0615999
85	0xbda26850	-0.07930052
86	0x3b4be9b2	0.0031114635
87	0x3d8e209d	0.06939814
88	0xbd21ddc8	-0.039518148
89	0xbdabaae6	-0.08382206
90	0x3d910e46	0.070828006
91	0x3d153470	0.03642696
92	0x3c34025c	0.010986891
93	0xbb4a701a	-0.0030889572
94	0xbdbbad08	-0.091638625
95	0xbb8be7e4	-0.004269587
96	0x3b726940	0.0036989003
97	0xbc62e53d	-0.0138486
98	0xbe191940	-0.14951038
99	0xbc881fc9	-0.016616719
100	0x3e47bcc3	0.195056
101	0x3d1bc8f1	0.03803343
102	0x3d917855	0.0710303
103	0x3caf7285	0.021416912
104	0x3c2caf3e	0.010539828
105	0xbe2fa3ee	-0.17152378
106	0x3c80a1eb	0.015702209
107	0xbdb328d3	-0.08748021
108	0xbd13c4f2	-0.036076494
109	0xbc570e4b	-0.013125966
110	0x3dd40806	0.10353093
111	0x3e2424d5	0.16029675
112	0xbd6dc80b	-0.058052104
113	0xbd5da784	-0.054114833
114	0x3dae966d	0.08524785
115	0xbd665dec	-0.056241915
116	0xbe167dee	-0.14696476
117	0xbca68eff	-0.020331858
118	0xbc933acf	-0.017972378
119	0xbd71c382	-0.05902434
120	0x3cc2d663	0.023783868
121	0x3d71cc16	0.059032522
122	0xbe2ff3c1	-0.17182828
123	0xbdc8f67e	-0.0981264
124	0x3cbf6702	0.023364548
125	0x3b9c53e9	0.004770745
126	0xbcfe7960	-0.031063735
127	0xbd04f3c2	-0.032459028
128	0x3bbad5fb	0.005701778
129	0x3d9d3a03	0.076770805
130	0xbd86ad55	-0.06576029
131	0xbd213b7a	-0.039363362
132	0xbd317989	-0.043328796
133	0x3d812513	0.063058995
134	0xbdae6aad	-0.085164405
135	0x3d925246	0.07144599
136	0x3daf4fd4	0.08560148
137	0x3cad9b6f	0.02119228
138	0x3d3e93e8	0.046527773
139	0x3dd566df	0.10420012
140	0xbd3d20fc	-0.046174034
141	0x3d0355cc	0.032064244
142	0xbbd806d8	-0.0065926127
143	0x3cbb573e	0.022868749
144	0x3d9ed2b3	0.077550314
145	0x3d409bc6	0.047023557
146	0xbdc0244a	-0.093819216
147	0x3cdb14be	0.02674329
148	0xbc1d2a8f	-0.009592666
149	0x3d0e40f9	0.03472993
150	0xbdbcfd9c	-0.0922806
151	0xbd564ee4	-0.05232133
152	0x3d95f023	0.07321193
153	0x3cf36836	0.029712778
154	0x3c9f7589	0.019465225
155	0x3dd153f6	0.102210924
156	0x3d96682a	0.073440865
157	0x3e3bb7e1	0.18331863
158	0xbd18202b	-0.037140053
159	0xbe07cc17	-0.13261448
160	0x3e0d3ed3	0.13793497
161	0x3d8ff7fe	0.07029723
162	0x3bd83de8	0.0065991767
163	0x3dd22d8e	0.10262595
164	0xbb48dadf	-0.0030648035
165	0xbd3306f9	-0.04370782
166	0x3b8ae8ad	0.004239163
167	0x3cc808af	0.024418203
168	0xbdc0771c	-0.09397718
169	0xbc36b9ca	-0.011152694
170	0x3cdd7e51	0.027037771
171	0xbd3be806	-0.04587557
172	0x3e12d75e	0.14339969
173	0x3e03835d	0.1284308
174	0x3d364acb	0.044504922
175	0x3d9bdb67	0.07610207
176	0x3c99fef5	0.01879833
177	0x3d702bc6	0.058635496
178	0x3d2ae48e	0.041721873
179	0x3dd4ca27	0.1039012
180	0xbd1830e7	-0.037156012
181	0x3c9a4923	0.018833702
182	0x3e0e1373	0.13874607
183	0x3befcc70	0.007318072
184	0xbce88bd9	-0.028386997
185	0xbd84cbd0	-0.06484187
186	0x3bf8a354	0.0075878296
187	0xbc66e490	-0.0140925795
188	0x3cfcf381	0.03087783
189	0x3d84ad00	0.0647831
190	0xbde2a8f9	-0.11067385
191	0x3c4eb546	0.012616461
192	0xbda64a75	-0.0811967
193	0x3d973b1b	0.0738432
194	0xbd590001	-0.05297852
195	0xbde60264	-0.11230925
196	0x3ba9579f	0.005167916
197	0xbe2d7cd7	-0.16942154
198	0x3b84c2b8	0.0040515326
199	0xbd82178f	-0.0635215
200	0xbca4ba58	-0.020108387
201	0xbdcc6653	-0.09980454
202	0xbe034fbf	-0.1282339
203	0x3d4768c9	0.048683915
204	0x3bae07e0	0.0053109974
205	0xbd15fd72	-0.036618657
206	0x3cabb8b2	0.020962093
207	0xbd714d9f	-0.058911916
208	0x3c816652	0.01579586
209	0x3dc33ea1	0.0953343
210	0xbd415730	-0.04720229
211	0x3c8d3bb2	0.017240379
212	0x3d7a73a6	0.061145447
213	0x3e01bbf8	0.1266936
214	0xbc2f2308	-0.010689504
215	0xbbcdea36	-0.0062840236
216	0x3dd5e7bf	0.10444593
217	0xbca7cc5b	-0.020483186
218	0xbcfe5a54	-0.031048931
219	0x3d88526b	0.06656345
220	0x3d8b17e2	0.06791665
221	0xbdbb6a54	-0.0915114
222	0xbbecb5df	-0.007223829
223	0x3d47acae	0.048748665
224	0x3e056dc0	0.13030148
225	0xbe82cddb	-0.2554768
226	0xbde68a73	-0.11256876
227	0x3c9c2773	0.01906178
228	0xbd9ae27b	-0.07562729
229	0x3c908a69	0.017644124
230	0x3b9cb1bc	0.00478193
231	0xbd60fa56	-0.05492624
232	0xbd163cc5	-0.036679048
233	0x3c25c15a	0.010116899
234	0x3db84446	0.08997397
235	0x3d0b0089	0.033936057
236	0x3935c2de	0.00017334099
237	0x3cb38ce4	0.021917768
238	0x3c9b27b5	0.018939832
239	0x3ae407a4	0.0017397297
240	0x3c0f2fa3	0.008739385
241	0xbe259bc7	-0.16172706
242	0xbbe2144b	-0.0068993918
243	0xbcb7fa84	-0.022458322
244	0x3d680a42	0.056650408
245	0xbbd23bbd	-0.0064158128
246	0x3d1c24f2	0.03812117
247	0xbc2d3d68	-0.010573722
248	0xbd539400	-0.051654816
249	0xbad762cf	-0.0016432645
250	0xbcbd77a5	-0.02312834
251	0x3d3c2d47	0.045941617
252	0x3dbd1f41	0.09234477
253	0x3d8968cd	0.06709442
254	0x3cc6211d	0.024185712
255	0x3def55bd	0.11686275

action_model._discrete_distribution.branches.1.bias f4 [3]
0	0x3d35fb54	0.04442914
1	0xbcf25346	-0.029580723
2	0xbc9bd219	-0.01902108

action_model._discrete_distribution.branches.2.weight f4 [2, 256]
0	0xbb86ac6f	-0.004109911
1	0x3ddfe52f	0.10932385
2	0xbd4d9482	-0.050190456
3	0xbca76d9f	-0.020438014
4	0x3c5f81c4	0.013641778
5	0x3e297d28	0.1655165
6	0x3b1d9801	0.00240469
7	0x3c75a35d	0.014992562
8	0xbd464d58	-0.048413604
9	0xbdfdade6	-0.12386684
10	0xbd74f9f0	-0.05980867
11	0xbd084afd	-0.03327464
12	0x3d14e2de	0.03634917
13	0xbd044940	-0.03229642
14	0xbc6ea127	-0.014564789
15	0xbd1c8f7d	-0.03822278
16	0xbd0cd75e	-0.034385078
17	0x3d4cdc60	0.050014853
18	0x3e2094ab	0.15681712
19	0x3c9a44cc	0.018831633
20	0x3c7dea88	0.015497811
21	0xbcc760af	-0.024338095
22	0x3e341ecb	0.17589872
23	0x3d4d065d	0.050054897
24	0xbd854389	-0.06507022
25	0x3ebc04aa	0.36722308
26	0xbd02349f	-0.031788465
27	0x3e15c121	0.14624454
28	0x3e16b308	0.14716733
29	0x3b0c1862	0.0021376838
30	0xbd9f74e1	-0.07785965
31	0x3d7b00b2	0.06127996
32	0xbe1a7dde	-0.15087077
33	0xbd19d666	-0.037557982
34	0xbcb1409f	-0.021637259
35	0x3dcbc6dd	0.099500395
36	0x3c8d2583	0.017229801
37	0x3c2e3b56	0.010634264
38	0xbd0bc9ed	-0.03412812
39	0x3d3e0995	0.046395857
40	0x3de1eb3a	0.11031194
41	0xbd89e002	-0.06732179
42	0xbce13505	-0.027491102
43	0x3bb12457	0.0054059434
44	0xbc7bfcb6	-0.015380075
45	0xbcd9132f	-0.026498405
46	0xbd1e0e1f	-0.038587686
47	0x3dae4fcd	0.085113145
48	0xbd03f6aa	-0.03221766
49	0x3c9d7696	0.019221585
50	0xbca246bb	-0.019809118
51	0x3cd88cf3	0.026434397
52	0x3c48e083	0.012260559
53	0x3d4aadbb	0.04948209
54	0x3c0dba0c	0.008650314
55	0x3cfe6f1a	0.031058837
56	0xbc8740fa	-0.016510475
57	0x3e094091	0.13403536
58	0xbc2f6567	-0.010705329
59	0xbcd32961	-0.025776567
60	0xbd66d230	-0.056352794
61	0x3d2819e8	0.04104033
62	0x3aac8a4c	0.0013163774
63	0xbcdbb6f3	-0.026820635
64	0xbd0344cc	-0.03204803
65	0xbbe8b634	-0.0071017984
66	0xbb88134b	-0.0041526905
67	0xbd0d495f	-0.0344938
68	0x3d6e12a9	0.058123264
69	0x3dd07681	0.10178853
70	0x3d0992da	0.033587314
71	0x3da97320	0.082739115
72	0xba727c92	-0.000925013
73	0xbd273f5b	-0.040831905
74	0x3e0b7b92	0.13621357
75	0x3d3df029	0.046371613
76	0xbd5ef260	-0.054430366
77	0x3d335abb	0.0437877
78	0x3d92045e	0.07129739
79	0xbd2112d8	-0.03932461
80	0x3ec48928	0.38385892
81	0x3c9c665e	0.019091781
82	0xbddda926	-0.10823278
83	0xbd9b019e	-0.07568668
84	0xbd8b7e6d	-0.06811223
85	0x3d80922f	0.06277882
86	0x3da7c502	0.08191873
87	0xbd43839a	-0.047732927
88	0x3d9d9464	0.07694319
89	0xbdbb426d	-0.09143529
90	0xbd285d18	-0.041104406
91	0xbc9151cf	-0.017739205
92	0xbd11861c	-0.035528287
93	0x3d2ec907	0.042672183
94	0x3d3c5776	0.045981847
95	0x3c6525b6	0.013986042
96	0x3ea48fb6	0.32140893
97	0xbd14ebfd	-0.03635787
98	0x3b0ed2a6	0.0021793037
99	0x3ee8a94a	0.45441657
100	0xbd39b498	-0.045338243
101	0xbd7d8c22	-0.06190122
102	0x3e84e316	0.25954503
103	0x3c13dab4	0.009024311
104	0xbd9339a9	-0.07188732
105	0x3d630ca8	0.05543199
106	0xbbef53f4	-0.007303709
107	0xbd32548f	-0.043537673
108	0x3c10482f	0.008806272
109	0x3d18ae20	0.037275434
110	0x3d34f75a	0.044181205
111	0xbd9570db	-0.07296916
112	0x3ca8d01c	0.020607047
113	0xbd69feb0	-0.057127655
114	0x3d0ed873	0.03487439
115	0x3dfa545a	0.1222312
116	0x3d5c521d	0.053789247
117	0x3d8bf7fa	0.06834407
118	0xbcf1c35b	-0.029512098
119	0xbc9babe8	-0.01900287
120	0xbad30111	-0.001609834
121	0x3b3d515b	0.0028887603
122	0x3dc00478	0.09375852
123	0x3d08ebe4	0.033428088
124	0xbd5b4a52	-0.053537674
125	0xbd8117ca	-0.063033655
126	0xbe09b960	-0.13449621
127	0x3c967635	0.018366912
128	0x3c9d107b	0.019172898
129	0xbc83f2c6	-0.016106974
130	0x3925d2f4	0.00015814212
131	0xbcdaaf8f	-0.026695041
132	0x3dcb6e2a	0.099331215
133	0x3c2fba1f	0.010725527
134	0xbcd24b17	-0.025670571
135	0xbcaaade5	-0.020834872
136	0xbcbe9851	-0.02326599
137	0xbd4f025c	-0.05053936
138	0xbda1918b	-0.07889088
139	0xbcfbd4bc	-0.030741088
140	0x3d00b632	0.031423755
141	0xbb8e7d48	-0.004348431
142	0xbda63353	-0.08115258
143	0xbcd3e9ae	-0.025868263
144	0xbd17932b	-0.037005585
145	0xbd283b63	-0.04107226
146	0x3c5239aa	0.012831131
147	0xbc064dc0	-0.008197248
148	0xbc01e9ff	-0.007929324
149	0x3d206130	0.039155185
150	0xbd46c9dd	-0.048532356
151	0x3d01f96f	0.03173202
152	0xbce22a88	-0.027608171
153	0xbcf61e10	-0.030043632
154	0xbcc25dea	-0.023726422
155	0xbd216ac8	-0.039408475
156	0xbd1196c5	-0.035544176
157	0xbd2d8f70	-0.04237312
158	0x3d110453	0.035404515
159	0x3cfdc5ac	0.030978046
160	0xbd1f0d64	-0.03883113
161	0x3b9d2d2a	0.0047966437
162	0x3cf5c121	0.029999318
163	0xbd9c1927	-0.07621985
164	0x3d614b87	0.05500367
165	0xbd1a4e5c	-0.037672386
166	0x3c07e6b6	0.008294752
167	0x3d080430	0.03320712
168	0x3e11b037	0.14227377
169	0xbca23aeb	-0.019803485
170	0xba0f9d2b	-0.0005478437
171	0xbbcd24fc	-0.0062605124
172	0xbc8c3dc1	-0.01711929
173	0xbc4956de	-0.012288777
174	0xbc09e52f	-0.008416458
175	0xbca31fe0	-0.01991266
176	0x3d452ed0	0.048140347
177	0x3c78ac62	0.015177818
178	0xbc612fc7	-0.013744301
179	0x3dfd2d0d	0.123621084
180	0xbd8d7487	-0.069069915
181	0xbd95f3e9	-0.07321913
182	0xbd2b6b6b	-0.04185049
183	0x3c0a75b9	0.008450919
184	0x3d37e7d6	0.04489883
185	0x3c3dbe0c	0.011580955
186	0xbca516c7	-0.020152463
187	0xbd0a965f	-0.03383481
188	0xbdcac97a	-0.0990171
189	0xbc887c38	-0.016660795
190	0x3d60d872	0.05489392
191	0xbd12d615	-0.035848696
192	0xbc5cef0a	-0.013484726
193	0x3c006ad0	0.007837966
194	0xbdaef816	-0.085434124
195	0x3e4bcb23	0.1990171
196	0x3d036fd8	0.032089084
197	0xbcba4217	-0.022736592
198	0xbc00d5ab	-0.007863442
199	0x3bfefbe4	0.0077814925
200	0xbc16b20f	-0.009197726
201	0x3e714b4b	0.23563878
202	0xbcd53f49	-0.026031153
203	0x3c80a6d4	0.01570455
204	0xbce47f32	-0.027892683
205	0x3d55c9fe	0.052194588
206	0xbd0f6887	-0.035011794
207	0x3cef1419	0.029184388
208	0x3d8c58e1	0.0685289
209	0xbdab4746	-0.08363204
210	0x3c1d537d	0.009602425
211	0xbdddfcfe	-0.1083927
212	0x3d19f14b	0.03758363
213	0xbd49da54	-0.04928048
214	0xbd229443	-0.039692175
215	0x3cf11889	0.029430645
216	0x3da36523	0.07978275
217	0xbd31c37e	-0.043399327
218	0x3d96a813	0.07356276
219	0xbc4652f8	-0.012104742
220	0xbc862d06	-0.01637889
221	0xbcf5e726	-0.030017447
222	0xbca21cca	-0.019789118
223	0x3d4e0288	0.050295383
224	0xbd27e50d	-0.040989924
225	0x3e09cb3e	0.13456437
226	0xbc35cdf6	-0.011096468
227	0x3d7ff759	0.06249175
228	0x3d317ec2	0.043333776
229	0xbc540a77	-0.012941948
230	0xbad32579	-0.001610919
231	0xbd594f7b	-0.053054314
232	0xbd1d4a24	-0.038400784
233	0xbc9e787b	-0.019344559
234	0xbcdfca6d	-0.027318204
235	0xbc36e996	-0.01116409
236	0xbc9b3f52	-0.018951092
237	0x3b907b1d	0.0044092075
238	0x3c994eb2	0.018714283
239	0x3e3445bc	0.17604727
240	0xbd16110d	-0.036637355
241	0xbd81ccb6	-0.06337874
242	0x3b23c2ed	0.002498801
243	0xbd1028b6	-0.035195075
244	0xbce95413	-0.028482473
245	0x3d1176a3	0.03551353
246	0x3c9969bf	0.018727181
247	0x3d82e61b	0.063915454
248	0xbc03e51a	-0.008050228
249	0xbd1ae253	-0.037813496
250	0xbbb83ae1	-0.0056222533
251	0xb93fb959	-0.00018284227
252	0x3d2d7714	0.04234989
253	0xbd77991c	-0.06044875
254	0x3cd05a99	0.025433825
255	0xbd74469b	-0.059637647

action_model._discrete_distribution.branches.2.bias f4 [2]
0	0x3e808a78	0.25105643
1	0xbe808a52	-0.2510553
