Assets/Prefabs/My Behavior.onnx (onnx, 88684 bytes, 9 tensors)

network_body._body_endoder.seq_layers.0.weight f4 [128, 33]
000000 d1 7e 2b 3c 98 17 1b be a8 12 c8 bc 77 f0 1e 3e
       0.010467247 -0.15145719 -0.024422958 0.15521418
000010 83 d2 78 3d d2 f5 93 3e ba 65 b4 3d 0b ff 3c bc
       0.060747635 0.28898484 0.08808465 -0.011535416
000020 19 9e b4 3a ec 21 17 bd 8f 7e 52 be 41 77 9a 3e
       0.0013780027 -0.036897585 -0.20556091 0.3016911
000030 eb 59 53 be 1d 51 f0 3d a4 7b fd 3d f9 b2 5a 3e
       -0.2063977 0.11734221 0.12377098 0.21357335
000040 eb 42 9e 3e c9 e2 13 be 32 d3 a9 3d 64 7f 9e be
       0.3091043 -0.1444198 0.082922354 -0.30956566
000050 d7 72 e7 bd 8a 67 1c 3e ac 99 1f 3e dd 61 86 be
       -0.11301201 0.15273872 0.15585965 -0.2624654
000060 ec 05 58 3e f1 21 2e 3e c9 e7 ef 3d 09 bd e2 3d
       0.21096009 0.17005135 0.117141314 0.11071212
000070 62 08 08 be 17 08 38 be 7d 1f 3b be db e9 8e 3b
       -0.13284448 -0.17971836 -0.1827373 0.004361374
000080 fb 3d 92 bd 1f 59 d5 3d 17 36 92 bb 42 98 98 3e
       -0.07140728 0.10417389 -0.0044620144 0.29803663
000090 b0 10 3b 3c 59 24 93 3d fc 09 75 3d 86 35 b9 bd
       0.011417553 0.07184667 0.059823975 -0.09043412
0000a0 9e 4c 2c bd 55 f8 91 3e c4 a5 7f 3e 1e 7a d8 bb
       -0.042065255 0.28509775 0.24965578 -0.0066063544
0000b0 30 44 82 3e 5d f1 92 bd 9d 37 fd 3d 3f ab 98 3e
       0.25442648 -0.07174943 0.12364123 0.2981815
0000c0 b9 43 42 3e 95 d4 76 3e 44 a0 7f 3e d4 3e df bd
       0.18971147 0.24104531 0.2496348 -0.109006554
0000d0 50 95 37 3e e2 d9 40 be 72 77 3c be e3 fa 0a 3e
       0.17928052 -0.18833116 -0.1840494 0.13572268
0000e0 7b 3c 12 3e a6 12 a0 be 86 e3 3c bc 84 23 23 3e
       0.14280884 -0.31264228 -0.011528855 0.15931517
0000f0 ea d5 aa bd 1f 00 00 3f ab b2 12 be 28 98 53 be
       -0.08341582 0.50000185 -0.14325969 -0.20663512
000100 84 60 90 bd 49 72 1e 3e 49 79 86 3e de 23 64 be
       -0.07049659 0.15473284 0.26264408 -0.22279307
000110 e1 5c 55 be d9 d5 92 bb e5 3a 1d be f4 5d 2c bd
       -0.20836212 -0.004481059 -0.15354498 -0.04208179
000120 7d ee 41 3e 54 25 e0 3d 79 a5 cb bd b1 c6 ec 3c
       0.18938632 0.1094462 -0.09943671 0.028903337
000130 c3 a5 9c 3c 6c ac f8 3d 32 68 a9 3d c8 ab c1 3e
       0.01912201 0.12142262 0.08271827 0.3782637
000140 21 5d db 3d 0e f2 4f be 25 f3 65 be 9b 87 79 3e
       0.10711122 -0.2030718 -0.22456034 0.24368136
000150 9c 95 e0 bd 7d fe 5f 3e 7b 85 9b 3d b6 76 02 be
       -0.10966036 0.21874423 0.07593819 -0.12740597
000160 a7 5e 2e be 31 49 fd 3d 59 0e 80 3e d8 0d 60 be
       -0.17028295 0.12367476 0.25010946 -0.21880281
000170 49 a9 dd 3d 44 55 2a 3e 70 9c aa 3d 58 38 b6 3e
       0.10823304 0.16634089 0.08330619 0.35589862
000180 3f 2b 0e bd 76 7f a7 be c2 98 27 be 15 9e ea bc
       -0.03470921 -0.32714432 -0.16366866 -0.028639833
000190 59 ae 14 be 87 b1 46 be e6 37 d4 bd 2d bb 14 3e
       -0.14519633 -0.19403659 -0.10362224 0.14524527
0001a0 67 00 ce bb 48 9d 6f bd 27 01 92 bd 83 f4 c3 3d
       -0.006286669 -0.058499604 -0.07129126 0.09568121
0001b0 5c 0b 49 bc 7e 18 a5 3d 48 85 9e be c8 ad 60 3d
       -0.012270775 0.08061312 -0.3096106 0.05485323
0001c0 4e a6 7f 3d 08 80 10 be a7 6e 9c 3d 7b b9 e1 3d
       0.06241446 -0.1411134 0.07638293 0.11021706
0001d0 7e cb b1 3d 1a dc 76 bd 61 3d 67 3d 20 03 d1 3d
       0.08681391 -0.0602685 0.05645502 0.10205674
0001e0 cb 0c 4d 3d e1 f7 9f be 44 85 01 be 88 54 60 be
       0.05006103 -0.31243804 -0.12648493 -0.21907246
0001f0 34 d6 d4 bd 1c 52 c6 3d 97 2f ce bd 47 83 d6 3d
       -0.103924185 0.0968363 -0.10067671 0.10474258
000200 cf 7c 27 be 30 22 05 be 44 53 29 3c 5a 7b 3b 3e
       -0.16356204 -0.13001323 0.0103347935 0.18308774
000210 4a 45 a5 3e df 2f 04 be 56 5d b9 bc 0f 14 df 3d
       0.32279426 -0.12908886 -0.022627514 0.10892498
000220 43 8d 2b 3d 31 ee 9c bd ac 59 71 3c 71 08 3a 3d
       0.041882765 -0.07662619 0.014730852 0.045418207
000230 18 78 01 3e 6d bf 28 be ff 95 18 3d c7 97 bb bd
       0.12643468 -0.16479273 0.037252422 -0.091598086
000240 93 8b 48 be 12 07 46 3e 57 e2 43 3e 59 4f 92 3d
       -0.19584493 0.19338635 0.1912931 0.071440406
000250 0e b4 1b be 67 c4 69 bd 09 79 c6 3d 38 a2 12 bd
       -0.15205404 -0.05707207 0.096910544 -0.035799235
000260 15 df 36 be a4 75 03 3e a9 92 b9 3e 70 b1 aa bc
       -0.17858537 0.12837845 0.36244705 -0.020836562
000270 00 36 ba bd 50 be 7f 3e 07 6a 79 3d 93 3b 46 3e
       -0.09092331 0.24974942 0.06089213 0.19358663
000280 c9 10 3f be ac df 60 3c 99 ed 32 bd 41 b1 06 3e
       -0.18658747 0.0137252025 -0.043683622 0.13153554
000290 48 a3 f1 3d 33 b2 84 bd c7 a0 e0 bd 98 1f dc 3e
       0.117987216 -0.06479301 -0.10968166 0.42992854
0002a0 2d d1 0e 3e 3a 90 b0 be 77 8b 2e be 8a 74 1f bc
       0.13946982 -0.34485036 -0.17045389 -0.009732375
0002b0 e9 81 33 3d 66 51 45 bc c2 92 e0 bd 47 dc a8 3e
       0.043825064 -0.012043333 -0.10965492 0.32980558
0002c0 5d df 37 bd 27 15 e3 be d6 66 34 3e fd 61 7f bd
       -0.04489075 -0.44352075 0.17617354 -0.06234931
0002d0 3f 8e b9 3d b2 4c 05 3e 0f ca f6 3d f9 12 de bd
       0.090603344 0.13017538 0.12050258 -0.108434625
0002e0 f0 a0 53 3e e0 6f df 3d fd 8f 75 bc 63 d1 5e bd
       0.20666862 0.1091001 -0.014987943 -0.054398905
0002f0 f2 7a 46 3e 22 f8 43 bb 02 f3 bd 3c bb 44 b1 3e
       0.19382837 -0.0029902537 0.023187164 0.3462275
000300 62 61 bc 3d 93 1b 55 bd c2 93 80 be c8 92 b8 bd
       0.09198262 -0.05202825 -0.2511273 -0.09012371
000310 e8 5e e8 3e 28 7c a0 bd 4b a2 94 3d 8a 90 f2 bd
       0.45384908 -0.07836181 0.072575174 -0.11843975
000320 7f 9d 3d be 1b e0 50 be fe 9a 63 be e7 65 2c bd
       -0.18517111 -0.2039799 -0.22227094 -0.04208937
000330 de 13 29 3e 8b 2d a4 3d b8 44 30 3e 04 7a 9a be
       0.16511485 0.08016499 0.17213714 -0.30171216
000340 e1 55 1e 3e b2 8f 0e bf 52 cf 52 3d 8a 72 7f be
       0.15462448 -0.5568801 0.051467247 -0.24946037
000350 db 04 3a be 69 26 f4 bc b2 f3 87 be d0 12 3a be
       -0.18165915 -0.029803472 -0.26553112 -0.18171239
000360 1b 44 1a 3e e5 ce 34 be 9a 5a 63 3d a9 66 03 3d
       0.15065043 -0.17657049 0.055506326 0.032080326
000370 77 b6 63 be db ce 18 be 9d 44 44 bd ce c0 d9 3d
       -0.22237574 -0.14922659 -0.047916997 0.10632478
000380 39 f9 d9 bd d2 e6 75 bd 73 f4 09 be 95 13 7f 3e
       -0.106432386 -0.06003458 -0.13472156 0.24909814
000390 d7 e6 06 be 18 17 0b 3e 03 cf e8 bd ce e4 92 be
       -0.13173996 0.13583028 -0.11367609 -0.2869019
0003a0 0f c2 62 3d b2 cb 3d be ba ea 8b be 70 c3 d2 be
       0.05536085 -0.18534735 -0.2732752 -0.41164732
0003b0 56 97 b3 3e ea 49 04 3f 3e 1f 65 3e b2 37 18 3d
       0.35076398 0.51675284 0.22375199 0.03716249
0003c0 20 fd d6 bd a8 bd 81 be 07 50 63 be 0a 5e 94 3e
       -0.104974985 -0.2534001 -0.22198497 0.28977996
0003d0 0c 04 60 3e c5 37 76 be b8 0d 03 bb 52 d3 9a 3e
       0.21876544 -0.24044712 -0.001999719 0.3023935
0003e0 76 6f 9d 3e b6 d6 2e 3d 29 b3 5b be 35 55 dd 3d
       0.307491 0.042685233 -0.21455063 0.108072676
0003f0 77 e1 7b 3e 18 b1 82 3e b7 90 51 bd f0 9d e3 3d
       0.24597727 0.25525737 -0.0511634 0.111141086

network_body._body_endoder.seq_layers.0.bias f4 [128]
000000 ba 2f 0b 3d c0 1e da 3b 28 25 9e 3c 7a ca 95 bb
       0.033981062 0.0066564977 0.019304827 -0.004571256
000010 6b 8b 1b 3d 91 7a 31 3c 74 66 53 3c 04 5c 14 3b
       0.037974756 0.010832445 0.012902845 0.0022637853
000020 66 f5 a6 bc d5 c2 54 bc d2 ee 62 3c 59 99 60 3d
       -0.020380687 -0.012985905 0.0138508845 0.054833744
000030 7c 33 ae bc d6 91 26 bc 2c 2a 8d bd 65 4b 2e bb
       -0.021264784 -0.010166606 -0.06892809 -0.0026595232
000040 fa 89 93 3d 68 8b 4e 38 33 00 c6 bc 57 86 09 3d
       0.07204051 4.924406e-05 -0.024170017 0.033575382
000050 18 39 37 b9 e6 a0 40 3d 46 ef 0e 3d 9d 66 ad 3b
       -0.00017473509 0.047028445 0.034896158 0.0052917735
000060 f2 6a f4 bb 21 25 b6 3a d3 ee c2 3c 02 c7 0c bd
       -0.007459038 0.0013896563 0.02379552 -0.034369476
000070 22 c4 5e bc a0 e2 c6 3c 9a a8 35 3d d3 e7 d9 3c
       -0.013596566 0.024277985 0.044350244 0.0265998
000080 83 9e 24 3d b1 d2 cb 3c b2 61 18 bc ed 7c 3f bb
       0.04019023 0.024880739 -0.009300636 -0.0029218749
000090 f7 57 22 3d 0c f8 57 bd 6b a9 63 3d 55 fc 3d 3b
       0.03963467 -0.05272679 0.05558149 0.0028989513
0000a0 fd d2 3c 3c a6 fd 11 bd 86 8f 23 3d 4c dc e9 bb
       0.011524913 -0.03564229 0.039931796 -0.007136857
0000b0 11 f9 e3 bc 5f a9 b2 3c 89 85 cd bc 05 5d 57 bc
       -0.027828725 0.021809278 -0.025088089 -0.013144736
0000c0 eb 8c 0a 3c 28 e8 98 3c ac 63 8b bc cc fd 10 3d
       0.008456449 0.018665388 -0.0170153 0.03539829
0000d0 3a 11 28 3d 57 92 14 b8 46 92 9d bc b3 e4 e6 3c
       0.041032054 -3.542224e-05 -0.019234788 0.028185224
0000e0 96 81 0a bd a2 9a c7 bc b3 2f 21 3d 66 c5 b4 3c
       -0.03381499 -0.024365727 0.03935213 0.022066783
0000f0 5e e5 1b 3d c5 ec 41 bb af d2 3f bd 87 f9 55 3c
       0.03806054 -0.0029590589 -0.046831783 0.01305998
000100 48 ec 4c bc 1b 40 1f bc 94 fb a3 3c a5 ad aa 3c
       -0.012507506 -0.009719874 0.020017423 0.020834753
000110 35 b3 a5 bc cc f8 2d bd d2 b3 f8 ba b7 47 54 3d
       -0.020227054 -0.0424736 -0.0018974489 0.051826205
000120 e4 b5 41 3c 41 f4 ae 3c 88 32 2e bc 73 8c 0f 3d
       0.011823151 0.021356704 -0.010632165 0.035046052
000130 87 ba 48 3b 2c ac 59 bc 9e 94 44 3c db 33 03 bc
       0.0030628757 -0.013285678 0.011998324 -0.008007969
000140 f5 0f 00 bc 19 c9 84 3c bf bb cd 3c 1e 35 59 bc
       -0.007816304 0.016209172 0.025113938 -0.013257293
000150 07 11 4b 3c a0 5f 73 3d c7 81 25 3d 08 35 cc 3d
       0.012394196 0.059417367 0.04040697 0.099710524
000160 67 db 47 3d 99 a7 37 3d a6 ee c3 3a e6 04 81 b9
       0.048793223 0.044837568 0.0014948442 -0.00024608447
000170 88 4c 9a 3b d9 c8 39 bc 3a 57 6c bc 14 9a 4e 3d
       0.0047088303 -0.01133939 -0.014425093 0.05043991
000180 d6 22 04 bc 58 3d 42 3c 95 32 03 3d 0b 7f 8d ba
       -0.008064946 0.011855446 0.03203066 -0.0010795308
000190 ef cf 8a ba 87 ac 3b 3d d8 05 94 bc 86 d5 9d 3c
       -0.0010590533 0.04581883 -0.018069193 0.019266855
0001a0 01 55 ff b9 ff bb 98 3d c1 fa bf 3c b2 4a 6b 3c
       -0.00048700723 0.074577324 0.023434998 0.0143610705
0001b0 7e 66 01 3d f1 51 3e 3d b9 e6 d9 ba 50 80 15 3c
       0.031591885 0.046464864 -0.0016624547 0.00912483
0001c0 a0 a4 60 3c 1f e4 b1 bb 1a 23 00 bb f0 6b 76 3b
       0.013711125 -0.0054288055 -0.0019552172 0.0037600957
0001d0 51 81 03 3d 15 45 d0 bc 30 2f 0e 3d 74 46 e0 bb
       0.032105748 -0.025423566 0.03471297 -0.006844336
0001e0 8b 98 92 bc f4 ad aa 3c 71 5a 2c bc ae ca 20 3c
       -0.017895004 0.0208349 -0.01051961 0.009813948
0001f0 0e 49 d5 3c 73 50 3c 3d 98 87 c4 3c 11 0b 9d 3c
       0.026035812 0.04597516 0.023990437 0.019170316

network_body._body_endoder.seq_layers.2.weight f4 [128, 128]
000000 b3 16 38 3d 4a 05 58 bc 8a 50 0f 3e 9f 57 9b 3d
       0.044943523 -0.013184855 0.13995567 0.07585072
000010 74 7b 0f bd bb 29 f3 bc 01 15 ba bd 14 b1 18 bd
       -0.035029843 -0.029682985 -0.090860374 -0.03727825
000020 df c0 bd bd 18 78 44 3d 7d c9 c8 bc 85 79 3f 3e
       -0.09265303 0.047966093 -0.02451014 0.186987
000030 06 37 d4 bd 52 35 50 bd a5 40 20 bd c1 5a 99 bd
       -0.103620574 -0.0508321 -0.03912415 -0.07488013
000040 96 99 00 3e 03 90 35 bd aa af 02 bc 4c e3 c8 3d
       0.12558588 -0.044326793 -0.007976452 0.098089784
000050 d9 d5 26 bd dc 1d 6c be a5 da 94 3d da ff 35 be
       -0.040731285 -0.23058265 0.07268266 -0.17773381
000060 a1 09 f8 bc 91 88 38 bd 16 e6 87 3d ae e0 13 be
       -0.030278029 -0.045052115 0.06635682 -0.14441177
000070 c8 bc a8 3d 79 ad be bd 00 3c 8b 3d 77 f4 18 3c
       0.08239132 -0.09310431 0.067985535 0.009335629
000080 85 7f b6 3d 4d 55 05 be 3c 2e 01 3d b0 9f 9c 3c
       0.08911041 -0.13020821 0.031538233 0.019119114
000090 a7 6c 2a 3d 42 37 f6 bd 35 2f 67 3d 6b a3 b7 bd
       0.041607525 -0.12022258 0.056441505 -0.089667164
0000a0 d2 84 24 3e 10 a4 b9 bd 06 e4 89 3d 43 1e 40 3c
       0.16066292 -0.090644956 0.06732945 0.011725965
0000b0 0d eb ae 3d fc 90 b5 bc 7e 61 3f 3d 6f 73 8b 3c
       0.08540926 -0.02216386 0.046723835 0.017022816
0000c0 39 34 78 3e 34 6e c5 bd 25 6d d7 3c f5 4a be 3c
       0.24238671 -0.0964016 0.026297161 0.023229102
0000d0 26 0e 0d 3d c7 e1 7e 3d 64 f2 9e bd 46 67 05 be
       0.03443732 0.062227037 -0.07761076 -0.13027677
0000e0 03 06 80 3d 17 4b a0 3d be 36 4b 3d 68 ec b0 bd
       0.06251147 0.07826822 0.049612753 -0.08638841
0000f0 ad a0 f6 3c 03 ea f0 bc 77 8c 3b 3e 25 c0 86 3c
       0.030105913 -0.02940846 0.18315302 0.016449044
000100 be 09 0d be 42 ee 19 3e ed b5 0e 3d 8c ab d9 3d
       -0.13773248 0.15032294 0.034841467 0.10628423
000110 77 aa ff bd eb 27 e2 3c d2 36 f2 bd 65 f9 2c 3e
       -0.124836855 0.027606925 -0.118268624 0.16892011
000120 45 74 9f bd 10 5a f6 3d 10 b0 48 bd 62 87 34 3e
       -0.077858485 0.12028897 -0.04899603 0.1762977
000130 91 36 94 bd b2 47 22 bd 45 c6 6f 3e 1e d1 04 3e
       -0.0723697 -0.039619155 0.23415478 0.12970397
000140 c3 46 dd 3d 72 f5 ab 3b 45 32 d0 bd 71 9d fb 3a
       0.10804512 0.005247765 -0.10165838 0.0019196701
000150 7e 40 aa 3c ac fe 5b 3d 84 0c d0 bd 6b 8d 9b 3d
       0.020782705 0.05370967 -0.10158637 0.07595333
000160 57 e4 7d 3e 8e 11 53 bd 39 88 76 3d 5d 3c 9b 3d
       0.24794136 -0.051530413 0.060188506 0.07579873
000170 33 12 4b 3b 76 83 18 3d cc fa 51 3d 01 21 af bd
       0.003098619 0.037234746 0.05126457 -0.08551217
000180 b3 dd 94 3c b1 77 08 3c a6 94 a3 bc 7d 80 ac bd
       0.01817212 0.008329318 -0.019968342 -0.08422945
000190 82 b0 19 3c 1c c3 38 bd b9 be 43 3e 49 ef 76 be
       0.009380462 -0.045107946 0.19115724 -0.24114718
0001a0 71 b8 54 3e 2f ba c6 3d f5 f0 a8 bd 18 9e 4f 3c
       0.20773484 0.097034805 -0.08249084 0.01267197
0001b0 87 51 fe 3d dc 5c 06 3d 1f eb 0e 3e c2 7d b8 3c
       0.12417894 0.0328034 0.13956879 0.022520903
0001c0 20 0e ee 3d e5 82 b1 3d 08 b8 23 3d e7 9e b2 3d
       0.11623788 0.08667544 0.039970428 0.087217145
0001d0 ca 4b 55 3d f7 5f ca bd 09 38 e5 3d e3 68 88 bd
       0.05207423 -0.09881585 0.111923285 -0.066606306
0001e0 15 a2 0a 3d 43 a8 5c 3c 99 b3 ca bd d8 df 38 bd
       0.03384598 0.013467851 -0.09897537 -0.04513535
0001f0 61 bf af 3c e9 3a 4b 3d 29 4f 23 3e 69 99 0e 3e
       0.021453561 0.049616728 0.15948166 0.13925709
000200 ac e6 38 bd fd c2 52 bc 1f 6c 53 bc 23 24 b1 bc
       -0.04514186 -0.012863872 -0.012904196 -0.021623677
000210 9b 9b 94 3d c4 18 89 b9 fa 25 c7 3d b8 77 54 bd
       0.07256242 -0.00026149128 0.0972404 -0.051871985
000220 04 00 ed 3d 91 8e 84 3d de 98 7d 3d e9 a9 8d 3d
       0.115722686 0.06472505 0.061913364 0.069171734
000230 66 ef d7 bc 4b e7 ee 3d 93 4f 71 3d 44 cd 8f bc
       -0.026359271 0.116652094 0.05891378 -0.017553933
000240 a4 4f 18 3e e4 42 2e 3e 4c c6 d4 bc be ff 4c 3d
       0.1487413 0.17017704 -0.025973462 0.050048582
000250 8a 85 45 3e 08 c6 d0 3d 45 3a 82 bc 69 3f 68 3d
       0.19289222 0.101940215 -0.015896926 0.056701098
000260 d2 c2 74 3d 0f ac ee 3d 29 43 26 3d 63 79 79 3d
       0.059756108 0.11653911 0.040591393 0.06090678
000270 3f 98 c7 3c 2e e7 8e bd 3c 51 b4 3c d6 86 96 bd
       0.024364589 -0.06977688 0.022011392 -0.07349937
000280 43 4b c9 bd 47 b2 e0 3d 74 f0 60 3d 36 f7 a4 3b
       -0.09828808 0.10971504 0.054916814 0.0050343527
000290 86 2a 8c 3d 18 d5 7d 3c 5d f2 a8 bd a3 56 15 be
       0.06844048 0.0154927 -0.08249352 -0.1458383
0002a0 ea 08 aa bd a0 e0 19 be 37 e1 82 bc f6 56 46 3e
       -0.083024815 -0.15027094 -0.015976531 0.1936911
0002b0 75 7a 42 bd 18 16 87 3b b7 33 b8 3d f2 03 6d bd
       -0.047480065 0.004122507 0.08994239 -0.05786509
0002c0 05 38 86 3c f0 5e 8e 3d a7 ad 99 3d 1d 3d ed bc
       0.016384134 0.06951702 0.07503825 -0.028959805
0002d0 cc 9a 8f be 9f 0f 28 3e b9 7a 5a bd 2f ba 47 3a
       -0.28047788 0.16412209 -0.053339694 0.0007618991
0002e0 e5 b4 7f 3d 3f 17 8d bd 73 fa 18 be c8 f6 8a 3d
       0.062428374 -0.068891995 -0.14939289 0.06785351
0002f0 55 a0 0c 3e 97 97 93 bd da 80 80 bc a9 11 85 3d
       0.13733037 -0.07206648 -0.015686441 0.06497509
000300 34 b9 37 3e ea 91 f4 3d 62 bb fd 3d b3 08 55 be
       0.17941743 0.119418934 0.12389256 -0.208041
000310 85 57 8c 3d 3c 18 d7 bd 25 39 95 bd 79 cd a8 bd
       0.068526305 -0.10502669 -0.0728629 -0.08242316
000320 f2 4c 7a bd 93 19 6b bd 38 a8 aa bd c8 26 8d 3a
       -0.061108537 -0.057397436 -0.083328664 0.0010769004
000330 ae 4a b1 bc 58 d9 7c 3c e8 a5 2b 3e e7 34 a5 3d
       -0.021642055 0.015432678 0.16762507 0.08066731
000340 db c0 2e 3b 74 06 5f bd 42 3f 1c bc 8a 0e 9e bb
       0.0026665244 -0.054449514 -0.009536566 -0.0048235105
000350 bc 2e dd 3c 1d 4b 76 be fe 2a 0c be ae 78 4c 3d
       0.026999824 -0.24052091 -0.13688275 0.049919777
000360 a0 d0 26 3e e4 c5 69 3d 30 8b 33 bd 84 86 aa bd
       0.16290522 0.05707349 -0.04383391 -0.08326438
000370 2e ac 20 be e9 bf 78 bc 88 e4 dc bc b2 eb 34 be
       -0.15690681 -0.015182474 -0.026964441 -0.17668036
000380 c0 35 21 be d4 f5 d4 bd 5d 4c d4 bc b1 74 d4 3c
       -0.1574316 -0.103984505 -0.02591532 0.025934549
000390 17 e2 33 3d c8 bb b9 3d cc 2e 5e bc 13 40 83 be
       0.043916788 0.090690196 -0.013560962 -0.25634822
0003a0 9a 18 57 bd db 25 8f bd 03 43 22 3b a8 85 91 bd
       -0.052513696 -0.06989642 0.002475918 -0.07105571
0003b0 20 71 b4 bd 32 72 31 be 60 4f ff bc 82 4a 82 3d
       -0.088106394 -0.17328718 -0.031165779 0.063618675
0003c0 6d cc 84 bd 24 12 2b 3d 4d 00 1e 3e 8c b0 7c be
       -0.064843036 0.041765347 0.15429802 -0.24676722
0003d0 8d 5c 89 3c 04 fd 7f bd b7 17 a4 3d e1 3d 53 3d
       0.016767764 -0.062497154 0.08012336 0.051572684
0003e0 63 c7 64 bd be 11 b7 bd d0 22 b4 bd bf 74 e1 3d
       -0.055854212 -0.08938931 -0.087957025 0.11008596
0003f0 a0 30 59 bd a6 da 2d bd 8e cd 08 3e cb 99 3c 3d
       -0.053024888 -0.042444848 0.13359663 0.046045106

network_body._body_endoder.seq_layers.2.bias f4 [128]
000000 df d9 89 3a 2c af d8 bb a8 68 0a 3d 87 78 06 3d
       0.0010517201 -0.006612679 0.033791214 0.032829788
000010 bf 5e 15 3d 64 28 b2 bc 9e da a3 3c a7 e2 3e 3d
       0.03646731 -0.021747775 0.020001706 0.04660287
000020 d9 2d 20 bb b1 7d 94 3b 2a d2 31 3d eb df 2d 3d
       -0.002444139 0.004531585 0.04341332 0.042449873
000030 35 c8 06 bb 4d 55 ce bb 7b a1 91 b9 4c 12 d6 3c
       -0.002056611 -0.0062967897 -0.00027776868 0.026131772
000040 71 09 95 3c bc 36 51 3d 26 f4 86 3b 4c 34 32 3c
       0.018192979 0.05107759 0.00411846 0.010876726
000050 10 87 39 3d 4d e7 12 3c f3 e1 51 bb c5 32 e4 3c
       0.04529482 0.008966279 -0.0032025545 0.02785624
000060 56 a2 3f 3d 63 4c c1 3c 60 69 c9 3c 03 62 bd bc
       0.046785675 0.023595994 0.02458638 -0.023118025
000070 d6 99 37 3d 69 db 8c 3c e1 f8 e7 ba 80 73 bc ba
       0.044824444 0.017194467 -0.0017698073 -0.0014377683
000080 38 68 6e bc 34 90 9d bb bf 73 69 3c 08 90 41 3d
       -0.014551215 -0.00480845 0.014248787 0.0472565
000090 01 56 ad 3c 69 d5 ab 3c 3f c6 b6 3a 3c c3 33 3c
       0.021159174 0.020975785 0.001394458 0.0109718405
0000a0 28 47 b4 3c 52 98 6f 3d 71 37 0c 3d 63 e8 ef bb
       0.022006586 0.058494873 0.03423256 -0.007321404
0000b0 72 53 ab 3c e4 dd 22 3b 9b a8 cb 3c cf 56 81 3c
       0.020913813 0.0024851495 0.02486067 0.015788464
0000c0 76 41 2b bd 67 ef f9 3c 5c 12 ca bc 48 bd 58 3d
       -0.041810475 0.030509664 -0.024666958 0.052914888
0000d0 5f a9 2d 3d bd a7 d7 3c 46 ca 08 3c 58 79 85 bb
       0.042397853 0.026325101 0.008349007 -0.004073303
0000e0 61 0e 9e 3c fa 50 15 bc 00 9e 30 3b 56 03 91 3c
       0.019293966 -0.009113545 0.0026949644 0.017701786
0000f0 85 cf 00 3d 95 29 70 bc 98 3d 70 bb 41 4c 0a bc
       0.031447906 -0.014658351 -0.0036657806 -0.008441032
000100 27 dc 58 3d 6b 31 09 3d 1f 8d c9 3c 3a 26 c7 bb
       0.05294433 0.033494394 0.024603425 -0.006077555
000110 9c 1c e2 3c ec fb 01 bd a9 a3 7e 3d 75 89 57 bb
       0.027601533 -0.031734392 0.062167797 -0.0032888327
000120 9d 8f 10 bc 31 05 3e 3d d0 f6 12 bd f5 c3 14 bb
       -0.008823303 0.04639167 -0.03587991 -0.0022699807
000130 bf f9 07 3c ad 0f 8d 3c 2f 66 99 3c 92 d6 22 bd
       0.00829929 0.017219389 0.018725483 -0.03975541
000140 b8 ac 42 3d f1 97 77 bc da f6 19 3d 95 10 d9 3c
       0.047528 -0.015111909 0.03758893 0.026497165
000150 a8 f5 93 bc 59 d8 43 3c 91 ee 08 3d 84 67 e4 3c
       -0.018061474 0.011953437 0.03343064 0.027881391
000160 ee 36 30 3d f3 f9 80 3a 17 be 65 3d 08 dc dc 3c
       0.043021135 0.0009840116 0.056089487 0.026960388
000170 a7 d1 a6 3c 63 16 9a 3c 4d de 1d bc 0f 70 e1 3b
       0.020363642 0.018809503 -0.00963552 0.0068798135
000180 e7 11 bf bc 14 a1 1e 3b 48 ed dd ba 13 c3 21 3d
       -0.023323966 0.0024204897 -0.0016931677 0.039492678
000190 d0 f9 05 3d ac 3d 49 3d a5 72 05 3c a1 93 13 3d
       0.032708943 0.04913108 0.008145009 0.03602946
0001a0 08 ce 00 bc 66 6f 00 bc 04 b7 d0 3c 99 c2 f2 3c
       -0.007861622 -0.007839059 0.025477894 0.029633807
0001b0 01 5b fd bc dd fa f8 3c 1c 81 b4 3c 05 62 94 bc
       -0.030927183 0.030393058 0.02203422 -0.018113146
0001c0 5d 7d 0f 3b db 2c 82 3c 8c 21 a1 3c 07 ea 1c 3d
       0.002189479 0.01589053 0.019669317 0.038309123
0001d0 7f da aa 3c e8 24 cc 3c 70 bf 2d 3d 9d fd 11 bc
       0.02085614 0.024919942 0.042418897 -0.008910564
0001e0 6c fd 97 bc 6f 55 60 3d 5d db 0a bd 69 75 4d 3c
       -0.018553458 0.054768976 -0.033900607 0.0125402
0001f0 1f 85 96 3c e8 cf fe 3c c2 5d 17 3d 91 50 13 bc
       0.018374024 0.031104997 0.03695465 -0.0089913765

action_model._continuous_distribution.log_sigma f4 [1, 2]
000000 bf 61 1b be 7a da 0d be
       -0.15174006 -0.13852873

action_model._continuous_distribution.mu.weight f4 [2, 128]
000000 ef 79 72 bd 58 df f3 bc f9 cc 8f bd 7f ea 2f bd
       -0.059198316 -0.029769585 -0.07021517 -0.042948242
000010 9b 6b 61 3d 59 2d 25 3b c7 6c 9f bc 23 d4 83 3b
       0.05503426 0.0025204031 -0.019461049 0.0040230914
000020 1b 6f 4f bd 61 00 f9 bc 69 e8 a8 bb 89 c5 79 3c
       -0.050643068 -0.030395688 -0.0051546586 0.01524485
000030 3e c9 3f 3d f6 08 9f bc 2a 27 ff bc e4 0f 80 3d
       0.04682278 -0.019413453 -0.031146605 0.06253031
000040 0c 1c c8 bc 94 cb 2a bc 2e e3 2b bd be a0 87 3b
       -0.024427436 -0.010424513 -0.041964702 0.004139035
000050 23 0d 37 3d 94 3e a2 3c 2b 77 85 3d 82 79 b9 bd
       0.044690263 0.01980523 0.0651687 -0.09056379
000060 06 c6 db 3c da 0a 97 3d eb 24 84 bd a2 27 0d 3c
       0.026827823 0.07375117 -0.06452354 0.008615406
000070 dc 7f 6d bc 3e 2c b5 bb 99 0f 5d bd 30 49 b8 3c
       -0.014495816 -0.0055289557 -0.053969953 0.022495836
000080 41 d8 b3 3c 26 7c 3b bb 18 a0 fe 3c ca 58 ac 3d
       0.021953704 -0.0028607934 0.031082198 0.08415373
000090 7e 0b db bd fd d3 c8 bc 6d 66 f7 3c 79 9e 01 bd
       -0.10695551 -0.024515146 0.030200208 -0.031645272
0000a0 e3 e6 89 3c 38 25 6e bb c3 d7 f9 3b 97 e3 7c 3c
       0.016833728 -0.0036338102 0.0076245978 0.015435121
0000b0 e9 31 5b bc 79 b4 5f 3d 94 e9 b6 3c 2e e1 eb bc
       -0.013378599 0.05461547 0.022328176 -0.028793897
0000c0 fd bb 8b 3a 26 c1 82 3d 06 8d cc ba 2f 52 cd 3c
       0.0010660883 0.063844964 -0.0015605993 0.025063602
0000d0 64 d0 ca 3d 6a e1 80 3d b2 61 53 bd 2f 0f 8d bd
       0.099030286 0.06292994 -0.05160684 -0.06887662
0000e0 0d 6b 07 bd b7 34 71 3c 99 88 ef bc 23 f3 ed 3c
       -0.033061076 0.014722041 -0.02923994 0.0290466
0000f0 44 f3 84 3c 7f 5b 8f bc ac 7c 73 bd 46 76 25 bc
       0.01622928 -0.017499683 -0.05944507 -0.010098999
000100 07 a7 69 3c f8 d9 89 3c 77 10 48 3d a6 85 3b bd
       0.014261014 0.016827568 0.048843827 -0.045781754
000110 fe 9a bf bb eb 55 a0 bb c7 ba ce 3c e2 20 4c 3c
       -0.005847334 -0.0048930547 0.025235547 0.012459012
000120 31 91 1f 3c b8 3f 8d 3d cf 6b de bb 9f fa 81 bc
       0.009739206 0.06896919 -0.006787754 -0.015866576
000130 da 86 39 bc 5d 0a 2f bd cf 8a 00 3c cf 96 89 3c
       -0.011323655 -0.042734493 0.007845595 0.016795544
000140 66 ec 2d bd f1 98 1c bc 32 ae b8 3d 17 ea 49 3d
       -0.042461775 -0.009557948 0.090176 0.04929551
000150 ce 8b a5 bb 46 61 4a bd 46 4f 8c bc 22 6e f0 bc
       -0.0050520664 -0.049409173 -0.017127644 -0.02934939
000160 99 84 36 3d 14 c1 88 3b 55 00 43 3c c2 91 91 3c
       0.04456005 0.0041734073 0.011901935 0.017769698
000170 25 25 3e 3d e5 22 bb 3d 97 db 04 bb bc ac 8d bd
       0.046422143 0.09137515 -0.0020272487 -0.06917712
000180 61 c8 43 bc 2a 64 ea 3c 46 74 b5 bb 42 fb c0 3d
       -0.0119496295 0.028612215 -0.0055375425 0.094229236
000190 16 69 84 3c 1d f2 72 bb bd 9a 3c bc b8 3e a0 bd
       0.01616339 -0.003707058 -0.011511502 -0.07824463
0001a0 c4 1f 01 3d 17 65 08 3c 15 81 ef bd 4a 31 60 3d
       0.031524435 0.008324883 -0.11694542 0.054734506
0001b0 a0 29 83 3b a4 b0 ee 3a bb a5 58 3b f7 99 ef 3b
       0.004002765 0.0018210602 0.0033057767 0.007312055
0001c0 59 88 37 3d c6 c9 44 3c fa d3 9f bd 11 7a dd bc
       0.044807766 0.012010997 -0.07804103 -0.027035745
0001d0 0e 97 37 bd 5f 71 65 3d 26 2f 84 bc b8 c5 46 bd
       -0.04482179 0.056016322 -0.016135763 -0.048528403
0001e0 4f 16 f7 b9 0f 0e 64 bb d0 52 db bc dc 53 b6 bb
       -0.00047128132 -0.0034798419 -0.026772887 -0.005564196
0001f0 d3 c9 9e 3c f2 ae fc bb 82 e4 88 3c 99 db 3f 3d
       0.019383347 -0.007711285 0.016710524 0.046840284
000200 99 e2 70 bd f6 06 21 bb b1 5a 09 3d 8d 16 74 3d
       -0.05880985 -0.00245708 0.033533756 0.05959182
000210 30 8f 60 3d 17 1d 8c bd 97 82 a3 bd e4 b2 a7 3c
       0.054824054 -0.06841486 -0.079838924 0.020471044
000220 a4 7c 4d bb 03 ee cf 3b 8d 72 11 3d 15 2e 24 3d
       -0.003135481 0.006345512 0.035509635 0.04008301
000230 c8 40 81 bd 19 30 e3 3b 43 1c 7f bd 34 76 17 bc
       -0.06311184 0.006933224 -0.06228281 -0.00924449
000240 ea 09 c8 3c 5a 81 7a 3d 39 18 2d 3c b0 8d b8 3c
       0.02441879 0.061158516 0.010564857 0.0225285
000250 e9 74 51 3d c0 e0 05 bc 70 d9 95 bd ec 46 86 bc
       0.051136885 -0.00817126 -0.073168635 -0.01639124
000260 12 0b 33 3d 05 c9 a7 bd ff 79 3e 3d 1e 62 6b bd
       0.04371173 -0.08192638 0.046503063 -0.05746662
000270 a8 01 37 3d d1 26 cb 3c 20 ba 72 bc 55 71 8b bd
       0.044679314 0.024798783 -0.0148148835 -0.06808726
000280 ed 83 81 3b 35 0f 8f bd 7d 7f 51 3c 2a 38 e0 3c
       0.0039524944 -0.069853224 0.012786743 0.027370531
000290 28 63 79 bd 88 e8 c9 3c ce cf c5 bc 6c 57 7a 3c
       -0.06088558 0.024647012 -0.02414694 0.015279632
0002a0 34 12 ff 3c eb 0b 93 3c 75 1c 78 3d c5 95 92 bd
       0.03113661 0.017950019 0.060574014 -0.071574725
0002b0 59 0f 32 3c 7f 51 dc 3b 51 92 16 bc 72 6d b3 bd
       0.010867917 0.0067235823 -0.009190158 -0.087611094
0002c0 22 20 c6 bb b4 43 9a 3c b4 81 16 bd aa 61 6f 3d
       -0.006046311 0.018831111 -0.03674479 0.05844275
0002d0 2a 12 0a 3d 65 13 0a be 97 46 0c 3c 3e 3e 99 bd
       0.03370873 -0.13483961 0.008561752 -0.07482575
0002e0 9a 52 36 3c 19 26 88 bd 86 0d e6 3b 19 68 bb 3a
       0.011128092 -0.066478916 0.007020655 0.0014297991
0002f0 21 5b 16 3d a3 7d a6 bd f0 f3 e7 bd 7f b7 5d bd
       0.036708 -0.08129432 -0.11325824 -0.054130074
000300 b4 43 90 3d 68 96 02 3d 1b d5 de 3c a0 87 dc bd
       0.07044163 0.03188172 0.027201226 -0.10768056
000310 9f a5 af 3b ec 66 02 bd f8 10 44 3d a3 ee a2 bd
       0.0053603197 -0.031836435 0.047867745 -0.079556726
000320 f1 3a 8d bd be 63 88 3d ea a0 8f bc f4 d0 68 bd
       -0.06896008 0.06659649 -0.017532784 -0.0568399
000330 74 f2 dc bd 5e e3 39 bd 8a a8 de 3c b2 c0 29 bd
       -0.10788432 -0.04538285 0.027179975 -0.041443534
000340 58 fe 9a 3d ac 49 a3 bd a7 2e 1f 3c 3e 80 16 3d
       0.075680435 -0.07973036 0.009715713 0.036743395
000350 f1 15 58 bd c1 25 7c bd a7 91 5e 3d cb 64 af 3c
       -0.0527553 -0.061559442 0.054338124 0.021410367
000360 3f 91 ff 3c 8c c1 4f bd 77 fd 9a 3d 80 f9 c7 3c
       0.031197188 -0.05072169 0.07567876 0.024410963
000370 ee 71 cd bd 66 81 7b bd 11 7e 74 bd 7d f1 98 bd
       -0.10031496 -0.0614027 -0.05969054 -0.07467935
000380 19 f7 8f bc 9c 78 17 3c a0 57 c2 3b ad b3 fe 3b
       -0.01757388 0.009245064 0.005930856 0.007772884
000390 01 97 51 3d e8 8e 48 3d e3 80 1b 3c ab ee b6 3b
       0.0511694 0.04896441 0.009491178 0.0055826507
0003a0 cb 17 7f bd 5d 84 bf 3b d4 ab 1b bc ba 77 95 3c
       -0.06227855 0.0058446364 -0.009501416 0.018245567
0003b0 85 35 6f bd ac a6 e3 3c 58 91 e5 3c ad c6 04 bd
       -0.05840065 0.027789436 0.028023407 -0.032416034
0003c0 ce d9 74 bc b8 8b 58 3c 77 f2 d6 3c fa 29 ad 3d
       -0.014944507 0.013216905 0.026238663 0.08455272
0003d0 d7 a4 c9 3c 85 89 03 bd d2 5c ce 3c d3 9d c9 bb
       0.024614735 -0.03211357 0.025190745 -0.0061528473
0003e0 bf bc 68 bd e3 0b fa 3c 1b a2 70 bd 20 7c cb 3c
       -0.056820627 0.030523246 -0.058748346 0.02483946
0003f0 9a 0d 60 3c a8 e0 27 3d 56 1c ed bd 7e f1 3e bd
       0.013675118 0.040985733 -0.1157767 -0.046617024

action_model._continuous_distribution.mu.bias f4 [2]
000000 cc d3 a8 3b 88 67 38 3d
       0.0051522013 0.04502061

action_model._discrete_distribution.branches.0.weight f4 [2, 128]
000000 b9 21 45 b9 72 28 bb bc 87 a4 14 3d 64 a8 7a 3b
       -0.00018799947 -0.022846434 0.036289718 0.0038247341
000010 26 b3 3e bc 22 ef 28 bc 1f 43 c3 3c d8 47 56 bd
       -0.011639392 -0.01031092 0.023835717 -0.05231461
000020 73 b4 09 3d d4 d0 21 3c 7d 47 fd bc 0b 5c 80 bc
       0.033619355 0.009876449 -0.030917877 -0.01566889
000030 45 fe 83 3c db 71 4e bc ba 30 94 bb a3 46 ba 3c
       0.016112456 -0.012600387 -0.00452241 0.02273876
000040 8b 15 cf bc d2 26 82 3c c4 0d f4 bc 0a 51 ff 3c
       -0.025278827 0.015887652 -0.02979172 0.031166572
000050 94 7a 92 bc 7d a7 0c bd 31 f3 31 3d c5 5e 06 3d
       -0.017880715 -0.034339417 0.043444816 0.032805223
000060 5a 28 f4 3a 62 4e f7 3c 05 83 96 3c db dd c8 bc
       0.0018627748 0.030188743 0.018373022 -0.024519851
000070 4f b4 05 3b 8b 72 f4 bb 01 f3 ee 3b 8c 74 a9 bb
       0.0020401662 -0.0074599436 0.007292152 -0.005171364
000080 bd fe 5f 3c e2 70 3e 3c e6 a0 71 3b a9 6c e9 3b
       0.013671574 0.011623593 0.0036869585 0.007123549
000090 80 8f 15 3d 5e a1 e7 bc 80 17 17 3b 13 db bc bc
       0.036513805 -0.028275188 0.0023054779 -0.023053681
0000a0 ba 03 e8 3b e2 34 72 bd c5 28 f9 3c ed 69 be 3c
       0.0070805224 -0.059132464 0.030414948 0.023243869
0000b0 72 d8 47 bd 89 dd b5 3c ac d7 1d 3c ff d2 80 bb
       -0.048790403 0.022200363 0.00963394 -0.0039314027
0000c0 46 50 a0 bc 2e c8 72 bc 89 8d 6c 3c f4 78 11 bc
       -0.019569527 -0.014818234 0.0144380415 -0.008878935
0000d0 01 00 9f 3b ac 84 e1 3c c3 da 6f bc c3 40 15 3d
       0.0048522954 0.027529083 -0.014639559 0.036438715
0000e0 fd ff 22 3d 5f e3 82 3c 40 42 b3 bc 9a 4c b3 bc
       0.03979491 0.01597756 -0.021882176 -0.021887112
0000f0 ea 72 24 bb ac 53 02 3d 19 b6 8d 3c 7b 70 c8 ba
       -0.0025092908 0.031818077 0.017298745 -0.0015292311
000100 70 d2 a7 bc b0 75 c2 bb 12 74 ad bc cf fc 79 3c
       -0.020486087 -0.0059344396 -0.02117351 0.015258028
000110 bc 58 2a bd 78 aa e8 3a c6 12 1c bd 69 01 c7 3c
       -0.04158853 0.0017750999 -0.03810384 0.024292665
000120 44 70 35 3b 09 5a 8a 3b 8e 76 b9 3a cd 14 9d 3c
       0.0027685324 0.004222159 0.0014149712 0.019174958
000130 d1 7c d1 3c 4e 7e bb 3c d6 6e af bc c0 16 11 bc
       0.025572212 0.022887375 -0.021415155 -0.008855522
000140 1b 2d 60 3d ed c1 c6 ba 34 35 19 3b c2 cb 6b bc
       0.054730516 -0.0015163996 0.0023377659 -0.014391841
000150 d6 3b 9c bc 00 12 49 3d d0 60 b3 ba 21 cf ed bc
       -0.0190715 0.04908943 -0.0013685469 -0.02902943
000160 97 8a 55 bc 86 95 cf bb 9e 81 ed bc 5e c2 38 bc
       -0.013033531 -0.0063349633 -0.02899247 -0.0112768095
000170 6a 9d 37 3d 93 e1 1f 3d af 98 d2 3b c2 82 2c 3d
       0.044827856 0.039033484 0.0064268927 0.042116888
000180 ba d8 24 3d c8 8e 2b bb 2f e3 cb bc c6 e7 d9 ba
       0.04024575 -0.0026177634 -0.024888603 -0.001662486
000190 5d 4d b9 3b 50 82 c7 39 f1 c1 09 3c 00 64 0a 3c
       0.0056549744 0.00038053328 0.008408056 0.008446693
0001a0 b6 1d 82 bb 75 6b 83 3c f7 e4 25 3c c8 14 90 3c
       -0.003970827 0.01604245 0.01012539 0.017588034
0001b0 bb f1 f2 bb 51 1c bb 3b dd 53 3f 3c 42 ca 42 bc
       -0.0074140704 0.0057101627 0.011677709 -0.011889042
0001c0 1f b4 03 3d d8 fc b1 bc 31 60 6e 3c 82 12 75 3b
       0.0321542 -0.02172701 0.014549301 0.0037395065
0001d0 81 d7 43 3b cd 2a 66 3b e5 1e 95 bc e4 ea c5 3c
       0.002988309 0.0035120726 -0.018203208 0.024159856
0001e0 4f 23 15 bb 24 ba 37 bd 4a 17 6f bc 60 7b ae 3c
       -0.0022756641 -0.044855252 -0.014592955 0.021299064
0001f0 48 8f 15 bc 21 1a 6b bb 31 75 02 3c a4 eb b0 bb
       -0.009128399 -0.0035873728 0.007962511 -0.0053991843
000200 85 b0 36 bc d0 f4 b7 3c 1b b7 21 bd 17 a2 bd 3b
       -0.011150484 0.022455603 -0.039481264 0.005787145
000210 11 76 70 3b 9a 18 08 3c f4 b1 e9 bc 95 3c 3f 3d
       0.0036691467 0.008306647 -0.028527237 0.046688635
000220 dd f0 dc bc 2d 47 dc ba 2b 5d 10 3d 5c 27 af 3c
       -0.026970321 -0.001680588 0.035245102 0.021381073
000230 53 b0 ee bc ee 64 56 3b 22 08 b7 3c 2e 7e a4 3b
       -0.029136812 0.0032713967 0.022342745 0.0050199246
000240 e2 53 1a 3d df 74 b4 bc 0e c7 de 3c e7 4d ad bc
       0.037677653 -0.022028385 0.027194526 -0.02115531
000250 57 f4 54 3c 40 8e 10 3d 64 ea 39 bd b3 4f 09 bd
       0.012997708 0.03529191 -0.045389548 -0.033523273
000260 5e f9 34 bc 73 0e d6 bc c7 60 c1 bc 60 2a 0c 3d
       -0.011045782 -0.026129937 -0.023605717 0.0342201
000270 7a 7f 80 3b 6b bc fb 3b ba 2a af bc e7 2f 62 3a
       0.0039214464 0.0076823733 -0.021382678 0.0008628354
000280 70 55 c4 bc 69 a7 a1 bc 1e be ff bb 08 c4 23 bc
       -0.023966521 -0.019733148 -0.007804646 -0.009995468
000290 76 4c 3c bd 70 25 df 3c 83 4d 1e 39 4e bd 0c 3d
       -0.045971356 0.027239531 0.0001509693 0.034360223
0002a0 4b 90 05 3c b3 3e 59 3d ef 36 9a bc ac 99 95 bc
       0.008152078 0.05303831 -0.018825023 -0.018261753
0002b0 b0 3a 4f 3d 5a b4 ce bc 94 25 ba 3c a0 7b c7 bb
       0.050593078 -0.025232483 0.022722997 -0.0060877353
0002c0 82 13 61 3b 70 66 d2 3b 6a 6c ce ba be 9b 2b 3b
       0.0034343903 0.006420903 -0.0015748863 0.002618536
0002d0 ff ac 32 3c d6 4c 81 bc 73 c3 b9 3c 7d 0b 29 bd
       0.010905503 -0.015783709 0.022676205 -0.04127072
0002e0 0e 50 1a bd 41 33 c7 bc 11 69 ef 3c 30 e6 48 3c
       -0.037674002 -0.024316432 0.029224904 0.012261912
0002f0 22 03 07 bc 78 93 27 bd 80 ee 5a bc ff 77 5b 3c
       -0.008240493 -0.04091212 -0.013362527 0.0133953085
000300 f0 40 9b 3c 1b cf 9f 3c ff 22 e6 bb 43 87 19 bd
       0.018951863 0.019507935 -0.007023215 -0.03748251
000310 e4 3e 1e 3d d7 8e bf 3b 4a 08 7b 3c 9e 6c ad bc
       0.038634196 0.0058458853 0.0153218005 -0.021169957
000320 c9 a4 fb bb ce 08 03 bc 04 b0 3f bc 17 67 19 bc
       -0.007679556 -0.007997705 -0.01169968 -0.009362957
000330 d9 c4 94 bc 92 71 65 bc 18 b5 d5 3b 60 1c aa bc
       -0.01816027 -0.014004128 0.006521832 -0.020765483
000340 a3 c3 c5 bc 83 6c bf bb 49 6b 3f 3b 85 19 60 3c
       -0.024141138 -0.005841793 0.0029208234 0.013677959
000350 02 1f 50 3c 5b 0b 5e bd 37 54 43 3b 8d 8d 4c 3d
       0.012702705 -0.05421005 0.0029804835 0.04993968
000360 74 62 d5 3b 06 e9 6d 3c 4b 03 c2 3c 71 ba 20 bc
       0.0065119807 0.014520889 0.02368321 -0.009810076
000370 90 a7 1f bd 92 37 11 bd 78 0a 9b bc d8 76 4c bd
       -0.03897816 -0.035453387 -0.01892589 -0.049918026
000380 4f c5 d6 bc 7f 02 dd b8 9a e2 cd 3c 9f cd 1e bb
       -0.026217131 -0.00010538566 0.025132466 -0.0024231446
000390 54 ee ec bc a0 76 c3 3b 64 d9 89 bc 5f 11 ed bb
       -0.028922237 0.005965069 -0.016827293 -0.007234737
0003a0 11 18 30 bc 06 01 ff bb df 86 39 bc b8 3d 92 bc
       -0.010747925 -0.0077821044 -0.01132366 -0.017851695
0003b0 b1 d0 44 3b 07 13 26 ba 40 f1 6e 3b 56 30 72 bc
       0.0030031616 -0.0006335233 0.0036459714 -0.014782032
0003c0 ef 06 12 bd b7 3b 15 3c 9a f0 81 bc 95 92 11 bc
       -0.035651144 0.009108475 -0.015861798 -0.008885046
0003d0 e7 21 5b b9 1e d2 18 bb 92 e1 0d 3c 87 54 da bc
       -0.00020898097 -0.00233186 0.008659737 -0.026651634
0003e0 08 93 e4 3b bf 1b 35 3d 56 c8 b7 3c 0f 99 5d bc
       0.0069755353 0.044215914 0.022434395 -0.013525262
0003f0 77 5f 00 3c 49 31 ca 3b 5e 37 9a bb 8a 57 82 3b
       0.007835261 0.006170426 -0.0047063073 0.0039777206

action_model._discrete_distribution.branches.0.bias f4 [2]
000000 41 c6 21 bc 3f c6 21 3c
       -0.009873928 0.009873926
