Assets/Models/PushBlock/AgentBehavior.onnx (onnx, 430190 bytes, 9 tensors)

network_body._body_endoder.seq_layers.0.weight f4 [256, 155]
0	0x3da52628	0.08063918
1	0xbc92766f	-0.01787874
2	0xbd9926e0	-0.07478118
3	0xbd27910e	-0.04090982
4	0xbe242a8e	-0.16031858
5	0x3dda598c	0.10661611
6	0xbd953689	-0.072857924
7	0xbd7c7ae3	-0.06164063
8	0x3dbdea8c	0.09273252
9	0xbcf2ccf7	-0.02963875
10	0xbdc1b141	-0.094576366
11	0x3d82c1ec	0.06384644
12	0xbcd1f6b9	-0.025630342
13	0x3de20dbe	0.11037777
14	0x3dc1be4f	0.094601266
15	0x3df7f20f	0.12106716
16	0x3cc352b2	0.023843143
17	0xbd78b83c	-0.060722575
18	0xbc9faba6	-0.019491028
19	0xbd2510a7	-0.040299084
20	0x3d1663f8	0.03671643
21	0xbb90dba2	-0.0044207135
22	0xbd7cb111	-0.0616923
23	0x3d1df4b0	0.03856343
24	0xbcee833f	-0.029115317
25	0x3e7a558a	0.24446693
26	0x3dfeba69	0.12437899
27	0xbda4a9ff	-0.08040237
28	0xbcd9dd8e	-0.026594903
29	0x3e1f8787	0.15579043
30	0x3d89d58c	0.06730184
31	0xbbdf1cfc	-0.006808875
32	0xbc5523ba	-0.013009006
33	0x3a124ba0	0.0005580727
34	0xbd966f40	-0.07345438
35	0x3d2bb1d0	0.041917622
36	0xbdd57348	-0.10422379
37	0xbe04d94d	-0.12973519
38	0x3c3dd2b5	0.011585881
39	0xbdbc65ef	-0.0919913
40	0x3e2a1ce4	0.16612583
41	0xbc029d32	-0.007972049
42	0x3cccf2f8	0.0250182
43	0xbd9e5ff3	-0.077331446
44	0x3db2398a	0.08702381
45	0x3db21fc5	0.08697466
46	0xb5f2bcc0	-1.8085339e-06
47	0xbdc6b394	-0.097022206
48	0xba01d69f	-0.00049529405
49	0x3c224a46	0.0099054035
50	0xbdfc1530	-0.12308729
51	0xbdbf36de	-0.09336637
52	0x3bbabf77	0.005699094
53	0x3dafb378	0.08579153
54	0xbd0a23c3	-0.03372551
55	0xbb4e12bf	-0.003144428
56	0x3d78933f	0.0606873
57	0x3d92f609	0.07175834
58	0x3cec38b7	0.028835637
59	0x3cf95958	0.03043811
60	0x3ddf2f3e	0.108976826
61	0xbdbea78d	-0.093093015
62	0x3d74714b	0.059678357
63	0xbe1aff38	-0.1513642
64	0xbcf910a2	-0.030403439
65	0x3df3ead7	0.119100265
66	0xbdfa99e5	-0.12236384
67	0x3dbc6c31	0.092003234
68	0xbddea1d6	-0.108707115
69	0x3e6b89bc	0.2300176
70	0x3da1155f	0.07865404
71	0xbb9f6208	-0.004863981
72	0xbd1cc735	-0.038275916
73	0xbdfd5ccf	-0.123712175
74	0xbe0ee0cb	-0.13952939
75	0x3e25b72b	0.16183154
76	0x3c3279fc	0.010893341
77	0xbce43d29	-0.027861195
78	0xbdbaa48e	-0.091134176
79	0xba8170b9	-0.0009875513
80	0xbd8d8783	-0.069106124
81	0xbcdc305b	-0.026878526
82	0x3df4c202	0.119510666
83	0xbdf3822d	-0.118900634
84	0xbdd13cff	-0.10216712
85	0x3e2c6e2f	0.16838907
86	0x3dd55356	0.10416286
87	0xbdb948f6	-0.09047119
88	0x3c24e777	0.010064951
89	0x3de83e32	0.11339988
90	0x3acaf83c	0.0015485357
91	0x3dbf6ee7	0.09347325
92	0x3c1fd4b1	0.009755299
93	0xbc71ccaf	-0.014758273
94	0xbddb1d8e	-0.106989965
95	0x3d3f1ea5	0.046660084
96	0xbd7d534c	-0.061847016
97	0xbe19017d	-0.14941974
98	0x3d29854d	0.04138689
99	0xbbb0afbd	-0.0053920434
100	0xbba5138b	-0.00503773
101	0xbe63ec7a	-0.22258177
102	0x3dd22963	0.102618
103	0xbd757be9	-0.059932623
104	0xbdfd2e04	-0.123622924
105	0x3d7e3b32	0.06206817
106	0x3bf7ba31	0.0075600375
107	0x3e90eb0e	0.28304332
108	0x3d68841f	0.056766625
109	0xbc7aa3c4	-0.015297834
110	0xbdc3a745	-0.095533885
111	0xbde2f718	-0.11082286
112	0x3c10e543	0.008843723
113	0xbc540998	-0.01294174
114	0xbe0b65a1	-0.13612987
115	0x3c378db8	0.011203222
116	0x3d6d9762	0.058005698
117	0x3e57b449	0.21064867
118	0x3e1e7673	0.15474872
119	0xbda44c80	-0.08022404
120	0x3db3f0b8	0.08786148
121	0xbdfc4213	-0.1231729
122	0x3e17da52	0.14829376
123	0x3d808717	0.06275766
124	0x3e4f332e	0.20234367
125	0x3e08c078	0.13354671
126	0xb9042541	-0.00012602379
127	0x3b9371dc	0.004499657
128	0x3dd25a10	0.10271084
129	0x3d6cb140	0.057786226
130	0x3dcc0d71	0.09963501
131	0x3cd0042c	0.025392614
132	0x3c9c4429	0.01907547
133	0xbd7f1648	-0.06227711
134	0x3e211537	0.15730749
135	0x3d09eef1	0.033675138
136	0x3c4a6571	0.012353287
137	0xbdf96436	-0.12177317
138	0xbd73b138	-0.05949518
139	0xbd6e153d	-0.058125723
140	0x3d062e08	0.032758743
141	0x3d076edd	0.03306471
142	0xbe042e00	-0.12908173
143	0xbb5e0a58	-0.0033880677
144	0xbd8f1b83	-0.06987669
145	0x3c225d61	0.009909959
146	0x3ca0d76d	0.019633973
147	0xbda9b9e7	-0.08287411
148	0x3d909a64	0.07060698
149	0xbdc24fe7	-0.094878964
150	0x3d70a2c5	0.05874898
151	0xbe5ad7a9	-0.2137133
152	0xbc744c39	-0.014910751
153	0x3d1184b4	0.035526946
154	0x3d8cffd9	0.068847366
155	0xbcf7f71f	-0.030269204
156	0x3d810744	0.06300214
157	0xbd59043e	-0.05298256
158	0x3e040462	0.12892297
159	0x3c27d9de	0.010244815
160	0x3d0d840a	0.03454975
161	0xbc3b0643	-0.011415067
162	0x3c34f552	0.011044817
163	0xbdaef0fd	-0.085420586
164	0x3d5639b9	0.052301142
165	0x3e181b0f	0.14854072
166	0x3d7d67e8	0.06186667
167	0xbd913478	-0.07090086
168	0x3cd1234d	0.025529528
169	0xbc5879dd	-0.013212648
170	0x3cd8113a	0.026375402
171	0x3d6cdd08	0.05782798
172	0xbd62a0ad	-0.055329014
173	0xbb386876	-0.0028138435
174	0xbd9fd4f0	-0.078042865
175	0x3e0c08b3	0.13675193
176	0x3e0fc24d	0.14038964
177	0xbda46e34	-0.08028832
178	0x3ccff890	0.025387079
179	0x3c213c79	0.009841078
180	0x3de0601b	0.10955831
181	0x3d2e59e0	0.04256618
182	0x3cfb00a0	0.030639946
183	0xbd071d89	-0.03298715
184	0x3d650068	0.05590859
185	0xbca08065	-0.019592473
186	0xbd05681d	-0.032569993
187	0xbbabf1c4	-0.0052473266
188	0xbdf1da02	-0.1180916
189	0xbd57f27b	-0.05272148
190	0x3ca04346	0.019563328
191	0xbd153bf4	-0.03643413
192	0xbddb6a07	-0.107135825
193	0xbd8ef93a	-0.0698113
194	0x3e0b29e7	0.13590203
195	0x3c483553	0.012219745
196	0x3d618495	0.05505808
197	0xbe10cd5b	-0.14140837
198	0xbdaa786a	-0.083237484
199	0xbe501887	-0.20321856
200	0xbdd37c59	-0.10326452
201	0xbce20d0c	-0.027594112
202	0xbdfb3147	-0.12265258
203	0x3d4e6a00	0.05039406
204	0x3e5fe8a4	0.21866089
205	0x3d2a2d1f	0.041546937
206	0xbbe73200	-0.007055521
207	0xbd7e4da7	-0.062085774
208	0x3d2ce175	0.0422072
209	0xbe291ae1	-0.1651416
210	0xbd157c59	-0.03649554
211	0xbe4a1ada	-0.19736806
212	0xbceb9bd7	-0.028760834
213	0x3c674657	0.014115891
214	0x3e2aaa3e	0.16666505
215	0xbc40f10f	-0.011776223
216	0x3d4fc47c	0.05072449
217	0x3c3c5e2c	0.011497062
218	0x3d58ced5	0.052931625
219	0xbc9d8308	-0.01922752
220	0x3d7a56c3	0.0611179
221	0xbe1c7069	-0.15277256
222	0x3d29c48b	0.041447204
223	0x3d6b2fa2	0.057418473
224	0x3deaac04	0.114585906
225	0x3e4f2df9	0.20232381
226	0xbd718844	-0.058967844
227	0x3c098251	0.008392886
228	0xbe291f7e	-0.1651592
229	0x3d30a5e7	0.043126967
230	0xbd95938b	-0.07303532
231	0xbc5eee07	-0.013606555
232	0xbcc25019	-0.023719834
233	0xbca006ff	-0.019534586
234	0xbd912a88	-0.0708819
235	0xbdab99fd	-0.0837898
236	0x38709879	5.736246e-05
237	0xbdc75c10	-0.097343564
238	0xbdea3d74	-0.114375025
239	0xbe031281	-0.12800027
240	0x3d839f9b	0.06426927
241	0x3c9917cf	0.01868811
242	0xbe40c379	-0.18824567
243	0x3d8e445c	0.06946632
244	0xbe42de53	-0.19030122
245	0xbdd87e60	-0.10570979
246	0x3d6a56a7	0.057211544
247	0xbe3c13b8	-0.18366897
248	0x3d613fb5	0.054992396
249	0x3c2f2ee8	0.010692336
250	0x3d781251	0.060564343
251	0x3c95e1aa	0.018296082
252	0xbd54438c	-0.05182223
253	0xbda1fc1a	-0.07909413
254	0x3da2006f	0.07910239
255	0x3e15d1c2	0.14630798

network_body._body_endoder.seq_layers.0.bias f4 [256]
0	0x3b393900	0.0028262734
1	0x3c46c443	0.012131753
2	0xbcb82e62	-0.022483055
3	0xbd214e9f	-0.03938162
4	0xbd55d1c4	-0.052202
5	0xbce22c10	-0.027608901
6	0xbb7b4025	-0.0038337794
7	0xbc2e5b9b	-0.010641958
8	0x3bd86dcb	0.006604885
9	0x3c6bc0a3	0.01438919
10	0x3c1dca97	0.009630821
11	0xbc0035da	-0.007825339
12	0xbc768189	-0.015045532
13	0x3ce36ad9	0.02776091
14	0xbc86902e	-0.016426172
15	0xbd532283	-0.051546585
16	0xbca71297	-0.020394607
17	0x3bb6cbc5	0.0055784904
18	0xbce81c59	-0.02833383
19	0xbb16941e	-0.0022976468
20	0x3dd0cd88	0.10195452
21	0xbd6ea244	-0.058260217
22	0xbc4dbdc4	-0.012557451
23	0xbca2816c	-0.019837104
24	0xbcf27db5	-0.029600957
25	0x3d8b932f	0.068151824
26	0x39badce0	0.0003564125
27	0xbafa2487	-0.0019084372
28	0xbca0ed48	-0.019644395
29	0xbcb1b751	-0.021693857
30	0x3b8d3b86	0.0043100743
31	0xbcc814bf	-0.024423955
32	0xbcacd0af	-0.021095602
33	0xbd5aeeb8	-0.053450316
34	0xbcdb090f	-0.026737718
35	0xbb02863b	-0.0019916433
36	0xbcceb2d0	-0.025231749
37	0xbcf1c69b	-0.029513648
38	0x3d99e33c	0.07514045
39	0xbcab0448	-0.020876065
40	0x3c6f74f0	0.014615282
41	0xbc5f075c	-0.013612594
42	0xbcd26c5a	-0.025686432
43	0xbd173595	-0.036916334
44	0xbcfb3a3f	-0.030667422
45	0xbd6881fe	-0.056764595
46	0x3d176390	0.036960185
47	0xbc005788	-0.007833369
48	0xbb4c42e2	-0.0031167795
49	0xbbe9d680	-0.007136166
50	0xbd44b664	-0.048025504
51	0xba2f16b4	-0.0006679103
52	0x3d396f65	0.04527225
53	0xbd73d9d2	-0.0595339
54	0x3cfa580e	0.030559566
55	0xbce01e40	-0.027358174
56	0xbcd3a26f	-0.02583429
57	0xbd868dca	-0.06570013
58	0x3d23d8c9	0.040001664
59	0x3cd3f789	0.02587487
60	0x3b199c4b	0.0023439105
61	0x3d24806d	0.04016154
62	0xbd661bf4	-0.056179002
63	0x3dea23ea	0.11432631
64	0xbc1b9b3b	-0.009497459
65	0x3b09c948	0.0021024514
66	0x3c5c2a21	0.013437779
67	0x3d3661b5	0.044526774
68	0xbd3b48c8	-0.045723706
69	0xbc99df53	-0.018783247
70	0x3c0328cb	0.008005331
71	0xbd8c00c8	-0.068360865
72	0x3c664877	0.014055363
73	0xbc6173de	-0.013760535
74	0x3bf0d1c6	0.0073492257
75	0xbc2a2c7a	-0.010386581
76	0x3d89bf56	0.067259476
77	0xbd37d31c	-0.044879064
78	0xbcd8612a	-0.026413519
79	0x3cd94ee7	0.026526881
80	0x3bfca915	0.007710586
81	0x3cbc6e51	0.023001822
82	0xbb2768c8	-0.0025544632
83	0x3d51e7b8	0.051246375
84	0xbca0f89d	-0.019649798
85	0x3ce8095c	0.028324775
86	0x3dedc8f8	0.11610597
87	0xbd1daaec	-0.038493082
88	0x3c71c77e	0.014757035
89	0xbd48af21	-0.04899514
90	0xbd0c463e	-0.034246676
91	0xbc2ac627	-0.01042322
92	0xbca59f4e	-0.020217564
93	0x3cbde740	0.023181558
94	0xbce4ffb6	-0.027953964
95	0x3c2bdfe1	0.010490389
96	0xbc5540db	-0.013015951
97	0x3d3b199a	0.045678712
98	0x3cb88c69	0.02252789
99	0xbd22865a	-0.03967891
100	0xbc6f583b	-0.014608438
101	0x3b3bfd5a	0.0028684945
102	0x3c837157	0.016045256
103	0x3c3d181f	0.011541395
104	0x3a90205b	0.0010995971
105	0x3c5d1aeb	0.013495187
106	0xbc4723e6	-0.012154555
107	0xbd42f8c8	-0.047600538
108	0xbd781513	-0.060566973
109	0xbca95167	-0.020668698
110	0xbd4ce558	-0.050023407
111	0xbbfce9ff	-0.007718324
112	0xb98a3520	-0.00026360992
113	0xbbb699d8	-0.005572539
114	0xbc8cd887	-0.017193092
115	0xbd631cbf	-0.055447336
116	0xbcb66429	-0.022264557
117	0xbca8cafa	-0.0206046
118	0xbc8a8ea9	-0.016913729
119	0xbc7772df	-0.015103071
120	0xbc7c9f7e	-0.015418885
121	0xbd15f6cc	-0.036612317
122	0x3cd62c8e	0.026144292
123	0xbcda5432	-0.026651476
124	0xbd065d1e	-0.032803647
125	0x3d7715f1	0.06032366
126	0x3b8cd5b8	0.004297938
127	0xbc2b8924	-0.010469709
128	0x39b46a7b	0.0003441161
129	0xbd1ee078	-0.03878829
130	0x3cb1a463	0.021684831
131	0xbc81627c	-0.015794031
132	0x3c83613f	0.016037581
133	0xbb7d8901	-0.0038686397
134	0x3c9eee15	0.019400636
135	0xbcb6271e	-0.02223545
136	0x3d848577	0.06470769
137	0xbd62f522	-0.055409558
138	0x3d52c8a1	0.051460866
139	0x3cbbd3d0	0.022928149
140	0xbcb3c352	-0.021943722
141	0xbcadc82b	-0.021213612
142	0x3c808839	0.015689956
143	0x3a5fa344	0.00085311034
144	0x3c6b994d	0.0143798115
145	0x3c8f6324	0.017503329
146	0xbb8753d3	-0.0041298657
147	0x3c23c1a7	0.009994901
148	0x3d0d1871	0.034447137
149	0x3c5ffa4c	0.013670515
150	0x3e0cf7d3	0.13766412
151	0x3d0498bd	0.032372225
152	0x3a8a4685	0.0010549581
153	0x3c827bde	0.015928205
154	0xbbde01b3	-0.006775105
155	0xbca4b539	-0.020105945
156	0xbc6f343c	-0.014599856
157	0xbd3df5f3	-0.046377134
158	0x3bfbd39d	0.0076851384
159	0xbcefbeb5	-0.02926574
160	0x3cb0bbad	0.021573866
161	0xbbfd2cf4	-0.007726306
162	0xbb7348c9	-0.003712224
163	0xbc5fc01e	-0.013656644
164	0xbc64a6f5	-0.013955821
165	0x3c4755c1	0.012166441
166	0x3da5d86d	0.080979206
167	0x3ae563ee	0.0017501095
168	0xbaf3dcbd	-0.0018605214
169	0xbc93cbf8	-0.018041596
170	0x3bdc555b	0.0067240424
171	0x3cc7e4db	0.024401119
172	0xbd28fb2a	-0.041255154
173	0x3c747412	0.014920251
174	0xbc3aa404	-0.011391643
175	0xbbf61d0a	-0.007510786
176	0xbcff32f9	-0.031152235
177	0xbd2bc79b	-0.041938405
178	0x3ca4f127	0.020134522
179	0x3bb0f879	0.005400714
180	0xbc0b7759	-0.008512341
181	0xbc7c63ef	-0.015404685
182	0x3d1ae561	0.03781641
183	0x3dd7a5c5	0.10529665
184	0xbd148e75	-0.03626867
185	0xbd1158a6	-0.035484932
186	0x3c3f70db	0.011684622
187	0xbca3b51a	-0.019983817
188	0xbc05b809	-0.008161553
189	0xbba34886	-0.0049830107
190	0xbd827729	-0.06370384
191	0xbad2948b	-0.0016065998
192	0x3d860f98	0.06545943
193	0x3d017cf3	0.0316133
194	0x3d09eac8	0.03367117
195	0xbc957271	-0.018243046
196	0x3ccbfd7a	0.02490114
197	0xbc891c94	-0.01673726
198	0xbd076226	-0.033052586
199	0x3c221c32	0.009894418
200	0x3d05a8de	0.032631747
201	0x3ce66c80	0.028127909
202	0x3c901517	0.017588181
203	0x3c26ad60	0.010173172
204	0x3b81608b	0.0039482764
205	0xbd35a9be	-0.044351332
206	0xbb64f034	-0.0034933211
207	0x3baee38b	0.005337184
208	0xbd054405	-0.03253557
209	0xbc211f7a	-0.009834165
210	0xbcf707e0	-0.030155122
211	0xbcea05e4	-0.028567262
212	0x3d021aa5	0.03176369
213	0x3cf2c0bc	0.029632919
214	0xbc9328c4	-0.017963775
215	0x3e19f22a	0.15033785
216	0xbc2802e3	-0.0102545945
217	0xbdd902c3	-0.1059623
218	0x3cce80d8	0.025207922
219	0x3cd8e99e	0.026478585
220	0x3bb312ff	0.005464911
221	0x3d0a7f58	0.03381285
222	0x3deaf4a9	0.114724465
223	0xbd928a31	-0.07155264
224	0x3d05d344	0.03267218
225	0x3cdf06cc	0.02722492
226	0xbccbc315	-0.024873296
227	0xbd13f186	-0.036119007
228	0xbc1a0d9a	-0.009402657
229	0x3aa92d2b	0.0012907138
230	0x3d72880e	0.059211783
231	0x3c87f42e	0.016595926
232	0xbcf978df	-0.030453144
233	0xbd02400d	-0.031799365
234	0x3b02b13e	0.001994207
235	0x3d1b6ab7	0.037943568
236	0xbca0edcb	-0.019644639
237	0xbb73eec5	-0.0037221175
238	0x3d25e801	0.04050446
239	0x3ce7a3e6	0.028276395
240	0xbd2aab17	-0.04166707
241	0x3d298fdc	0.04139696
242	0x3d8db4bc	0.06919238
243	0xbd4035ea	-0.046926416
244	0xbbe441cc	-0.0069658514
245	0xbdc8730f	-0.09787571
246	0xbce908ca	-0.028446574
247	0x3cef0fb9	0.029182302
248	0x3cd6375e	0.026149448
249	0xbd0ea054	-0.03482087
250	0x3c9d33fd	0.019189829
251	0x3b0ac1b2	0.002117258
252	0x3c94cc8b	0.01816394
253	0x3ca3eb3d	0.020009631
254	0xbb92f4ff	-0.004484772
255	0x3bc48479	0.0059972373

network_body._body_endoder.seq_layers.2.weight f4 [256, 256]
0	0xbc1b4614	-0.009477157
1	0x3dd75f74	0.10516253
2	0xbdab085a	-0.08351202
3	0xbddde7f8	-0.1083526
4	0xbcc3ee35	-0.023917297
5	0xbde40ef7	-0.11135667
6	0xbe06d66f	-0.13167737
7	0xbb69d284	-0.0035678456
8	0x3d41e560	0.04733789
9	0x3e56c4a8	0.20973456
10	0xbbd461db	-0.006481392
11	0xbd2586cd	-0.04041176
12	0xbca81099	-0.020515727
13	0x3e0e375f	0.1388831
14	0x3dbba4a1	0.0916226
15	0xbdc7c3b7	-0.097541265
16	0xbd4fc098	-0.05072078
17	0x3c80ab8b	0.015706798
18	0xbd849383	-0.06473448
19	0x3e2d85d4	0.16945583
20	0x3cd42391	0.025895866
21	0xbd121870	-0.035667837
22	0xbe004090	-0.12524629
23	0xbd85b054	-0.065277725
24	0xbc8adff2	-0.016952489
25	0xbc9a801d	-0.018859917
26	0x3d45158f	0.048116263
27	0xbd8403d5	-0.064460434
28	0xbcc5cf43	-0.024146682
29	0xbdd4416b	-0.1036404
30	0x3d37b691	0.044851843
31	0xbe095268	-0.13410342
32	0x3ce3eb68	0.027822211
33	0xbd5244e5	-0.051335234
34	0xbe24cfeb	-0.1609494
35	0xbd8b2eaa	-0.0679601
36	0xbe3f63af	-0.1869037
37	0xbdc67571	-0.09690369
38	0x3d147eb4	0.036253646
39	0x3c672bb9	0.014109545
40	0x3d974934	0.07387009
41	0xbb7b2a78	-0.0038324874
42	0xbd8d1985	-0.06889633
43	0xbd12a2e5	-0.03579988
44	0xbd1b2a7f	-0.037882324
45	0xbd2e7b94	-0.042598322
46	0x3d2b89c8	0.041879445
47	0xbcfd66a8	-0.03093274
48	0x3e1a14a9	0.15046944
49	0x3c98b13c	0.0186392
50	0xbdd0b8e8	-0.10191518
51	0xbd72a328	-0.05923763
52	0x3d85fadc	0.06541988
53	0xbd95030e	-0.07275973
54	0xbda45723	-0.080244325
55	0x3c7419b4	0.014898706
56	0xbdff35d3	-0.12461438
57	0xbdac0446	-0.083992526
58	0xbdb87d48	-0.090082705
59	0x3d124981	0.03571463
60	0xbd511c96	-0.051052652
61	0xbbd16890	-0.0063906386
62	0xbe16e667	-0.14736329
63	0xbd32613a	-0.043549754
64	0xbc8bfa55	-0.017087141
65	0x3d956bc8	0.07295948
66	0xbe602ecc	-0.21892852
67	0x3d01de10	0.031705916
68	0x3d747732	0.059683986
69	0x3c266750	0.010156468
70	0xbbfed4a5	-0.007776814
71	0xbcab685e	-0.02092379
72	0xbd86d4aa	-0.06583531
73	0x3df2015c	0.118166655
74	0xbc5ed7f4	-0.013601292
75	0x3d0d9f2f	0.034575637
76	0x3cd02874	0.025409915
77	0xbdd59d97	-0.104304485
78	0xbd4ed840	-0.0504992
79	0x3d86a50e	0.065744504
80	0x3be8c0e3	0.007103072
81	0xbdb34ad9	-0.087545104
82	0xbe5c6b24	-0.21525246
83	0xbcea1999	-0.028576659
84	0xbd0f2419	-0.034946535
85	0x3daf4d32	0.08559646
86	0x3dc8121c	0.09769079
87	0xbe0d37f9	-0.13790883
88	0x3c8fb141	0.017540576
89	0xbe0a6910	-0.1351664
90	0x3dbd3d5a	0.092402175
91	0xbdaa429d	-0.08313487
92	0xbc45490f	-0.012041344
93	0xbc74fb4d	-0.014952493
94	0xbbbbf5ea	-0.0057361024
95	0x3cd6d407	0.02622415
96	0xbc9b7eaf	-0.018981306
97	0x3da0c294	0.07849613
98	0xbdb15363	-0.08658483
99	0xbd6568d6	-0.056008182
100	0x3d66096c	0.05616133
101	0x3d36257e	0.04446935
102	0x3c0023c8	0.007821031
103	0x3d3a5e92	0.045500346
104	0x3c07539a	0.008259678
105	0x3d87adb4	0.06624928
106	0xbc7c3394	-0.015393157
107	0xbd9e610b	-0.07733353
108	0xbcd83132	-0.026390646
109	0xbda982f5	-0.08276931
110	0xbdbe8a20	-0.09303689
111	0x3d77f70e	0.060538344
112	0x3d4ce96b	0.050027292
113	0xbe1702ec	-0.14747208
114	0xba0f394d	-0.00054635556
115	0xbd81fe71	-0.06347359
116	0x3d828ede	0.06374906
117	0xbd8d7f78	-0.06909078
118	0x3e15a6be	0.14614388
119	0xbde11909	-0.10991103
120	0xbbeb9da5	-0.0071904236
121	0xbdd6eae5	-0.10494021
122	0x3de4cbcb	0.11171683
123	0xbc6f1c67	-0.014594174
124	0x3b212820	0.0024590567
125	0x3d6c169e	0.057638757
126	0x3c9c371a	0.019069243
127	0xbdb32790	-0.0874778
128	0x3d9273dc	0.07151005
129	0x3d91f4ad	0.07126746
130	0x3d10df69	0.03536931
131	0xbdfc1c07	-0.12310033
132	0x3ddda062	0.10821606
133	0xbd9963a2	-0.074897066
134	0x3d73071a	0.059332944
135	0x3cd0a604	0.025469787
136	0x3e0695bd	0.13143058
137	0xbdb9567c	-0.09049699
138	0xbb507d7c	-0.0031813076
139	0x3c36acf2	0.011149632
140	0xbc1d58fa	-0.009603733
141	0xbd70e2ce	-0.058810048
142	0x3d2cacd1	0.042156998
143	0xbe274157	-0.16333519
144	0xbd85d814	-0.06535354
145	0x3d8d525b	0.06900474
146	0xbe791a25	-0.2432638
147	0x3d442dff	0.047895428
148	0xbcad162d	-0.021128738
149	0x396e8854	0.00022748235
150	0x3dd8c887	0.105851226
151	0x3d97bfbf	0.074096195
152	0x3cdbf5a0	0.026850522
153	0x3bbdba0b	0.0057900003
154	0xbd24df84	-0.040252224
155	0xbde71e00	-0.11285019
156	0xbd9786a5	-0.07398728
157	0xbccee76c	-0.025256835
158	0x3d63eac2	0.055643804
159	0x3dd7ed99	0.10543365
160	0x3d1ce2e3	0.038302314
161	0xbded47f3	-0.11585989
162	0x3cad6360	0.02116555
163	0xbd4228c6	-0.047402166
164	0x3ccd88ef	0.02508971
165	0x3dea3f57	0.11437862
166	0x3df2b0a1	0.118500955
167	0x3db06e67	0.086148076
168	0xbd738740	-0.059455156
169	0xbdc60e49	-0.096706934
170	0xbe1debcd	-0.15421982
171	0xbda5ae5b	-0.08089896
172	0xbe1c901b	-0.15289347
173	0xbcfc2ddf	-0.030783592
174	0x3d721616	0.059103094
175	0xbe041d6f	-0.12901853
176	0x3dd5859d	0.10425875
177	0xbd4fa13e	-0.050690882
178	0x3d01d1b5	0.031694133
179	0xbc997dee	-0.018736806
180	0x3a8751e4	0.0010324088
181	0xbdd286e4	-0.102796346
182	0x3e016f64	0.12640148
183	0xbcc01052	-0.023445282
184	0x3bd81d9b	0.006595326
185	0xbd5b28c9	-0.053505693
186	0xbec80102	-0.3906327
187	0x3c6aba35	0.014326622
188	0xbda2686b	-0.079300724
189	0xbd12e2bb	-0.03586076
190	0xbdd240ab	-0.10266241
191	0xbd03ce7d	-0.032179344
192	0x3dd09e57	0.10186451
193	0xbd94ecd3	-0.07271733
194	0x3b6a2bba	0.003573163
195	0xbde4cc10	-0.11171734
196	0xbd2cd6c3	-0.042197
197	0x39c6345b	0.0003780451
198	0x3d36de32	0.044645496
199	0xbdd64047	-0.10461479
200	0xbcd07d53	-0.025450384
201	0x3d93734f	0.07199728
202	0x3dab5b80	0.083670616
203	0x3de6b3c9	0.1126476
204	0xbe0eb915	-0.1393779
205	0xbe23759d	-0.15962835
206	0x3c286f6e	0.010280473
207	0x3d26ced4	0.04072459
208	0xbcd0e28d	-0.025498653
209	0xbe16bda4	-0.1472078
210	0xbd718c71	-0.058971826
211	0xbcd6cf0d	-0.026221776
212	0x3dad2d9b	0.08455964
213	0xbd008b84	-0.031383052
214	0xbd0ec332	-0.03485412
215	0x3e178633	0.14797287
216	0xbdb3a1af	-0.08771073
217	0xbd09aea0	-0.0336138
218	0xbdab57d5	-0.08366362
219	0x3bb67203	0.0055677905
220	0xbcf4d13c	-0.029884927
221	0x3ddb26a1	0.10700727
222	0xbbd5dc99	-0.0065265414
223	0xbe29d71f	-0.16585968
224	0x3dcba1d3	0.09942975
225	0x3d215f4f	0.039397534
226	0x3c07b542	0.008282961
227	0x3d906be1	0.07051826
228	0xbdccedc0	-0.10006285
229	0x3ca9ceb7	0.020728452
230	0xbd527d75	-0.051389176
231	0xbcea0d96	-0.028570931
232	0xbd8dd414	-0.06925216
233	0x3d17e29a	0.03708134
234	0xbcd8dad6	-0.026471537
235	0x3db1723b	0.08664366
236	0xbb9e850b	-0.0048376373
237	0xbd170d24	-0.036877766
238	0x3dca353a	0.098734334
239	0x3d22b5e7	0.039724257
240	0xbcd6824a	-0.026185174
241	0x3e1915e6	0.1494976
242	0x3b30ba0f	0.0026966368
243	0xbd947dee	-0.07250582
244	0x3d810b9e	0.06301044
245	0xbe24303c	-0.16034025
246	0xbe1618d1	-0.14657904
247	0x3d389edb	0.04507337
248	0x3da0c01a	0.078491405
249	0x3b9d1a7e	0.004794418
250	0x3d42a7b5	0.04752322
251	0x3c8596aa	0.016307194
252	0xbcbffd6e	-0.023436274
253	0xbd80a138	-0.0628075
254	0x3d4241e0	0.047426105
255	0xbce8d868	-0.028423503

network_body._body_endoder.seq_layers.2.bias f4 [256]
0	0x3cf177d1	0.029476078
1	0xbc49277f	-0.012277483
2	0xbcb52cb0	-0.022116035
3	0x3b471fc0	0.0030383915
4	0x3bf195e9	0.007372607
5	0x3ce6d2a2	0.02817661
6	0xbcfaefda	-0.030631948
7	0x3cb466f6	0.022021752
8	0x3c7436d0	0.014905646
9	0xbd1db838	-0.038505763
10	0xbc06d88a	-0.008230338
11	0x3d136337	0.03598329
12	0x3d07e7ce	0.03318005
13	0x3cc05cb6	0.023481708
14	0x3d77de9e	0.06051504
15	0x39514e00	0.0001996085
16	0xbd163cb8	-0.036679
17	0xbc8626b3	-0.016375875
18	0xbba5e4f4	-0.0050626937
19	0x3d35c782	0.04437972
20	0x3cd6d51f	0.026224671
21	0x3d13cd26	0.036084317
22	0x3ceba624	0.028765745
23	0x3d03a44f	0.03213912
24	0x3a309d92	0.0006737347
25	0x3c426421	0.011864693
26	0xbc4a89b6	-0.012361934
27	0x3bf2405b	0.0073929257
28	0x3d491b1f	0.04909813
29	0x3c733387	0.014843828
30	0x3cfbf89a	0.03075819
31	0xbc20a1f7	-0.00980424
32	0xbca7f27b	-0.020501366
33	0xbbb2b102	-0.00545323
34	0xbc82aa28	-0.015950277
35	0x3b5664b3	0.003271383
36	0xbd5cbafe	-0.053889267
37	0x3cb1fade	0.021726068
38	0xbbc1bf43	-0.0059126928
39	0x3cb3ef82	0.021964792
40	0xbabd2896	-0.0014431651
41	0xbd21e5ad	-0.039525677
42	0xbd25b0da	-0.040451862
43	0x3d08fbdc	0.033443317
44	0x3d339cfe	0.04385089
45	0x3d1e3373	0.038623285
46	0x3c1beede	0.0095174
47	0xbd125330	-0.035723865
48	0x3d68f665	0.056875605
49	0x3d2bcf1f	0.041945573
50	0xbc9b176a	-0.018932063
51	0xbbca06fc	-0.0061653834
52	0x3d8131af	0.063083045
53	0x3d7d0792	0.061774798
54	0xbbb1221b	-0.005405677
55	0xbc411dd0	-0.011786893
56	0xbb26dd83	-0.002546162
57	0x3cc9fee3	0.024657672
58	0x3c355d58	0.011069618
59	0xbba31f79	-0.004978117
60	0x3c50dc55	0.012747844
61	0xbc22b76d	-0.009931427
62	0x39aecddc	0.00033341243
63	0x3c680068	0.014160253
64	0x3c5f7dff	0.01364088
65	0x3d110743	0.035407316
66	0xbc636104	-0.013878111
67	0x3d3a5d68	0.045499235
68	0xbcfa2f3f	-0.030540107
69	0xbbc065aa	-0.0058714943
70	0xbcac1a51	-0.021008642
71	0x3d35668c	0.04428725
72	0xbc9f2de2	-0.019431058
73	0x3a8f269e	0.0010921543
74	0x3b341fee	0.0027484852
75	0x3af66a1a	0.0018799931
76	0xbc601f33	-0.0136793135
77	0xbbf1c603	-0.007378341
78	0xbcf2e6aa	-0.029651005
79	0xbc8ccd4b	-0.017187735
80	0x3d33d3ea	0.04390327
81	0xbc01340e	-0.007885946
82	0x3d12448b	0.0357099
83	0xbbe67937	-0.007033493
84	0xbba07640	-0.004896909
85	0xbc5f9581	-0.013646484
86	0xbd2ab156	-0.041673027
87	0x3c848d5b	0.016180685
88	0xbbfc8b29	-0.007707019
89	0xbd008043	-0.03137232
90	0x3cd37d53	0.025816595
91	0x3d1ec547	0.038762357
92	0x3ae9f646	0.0017849884
93	0xbcf18f37	-0.029487235
94	0xbd0faf75	-0.03507944
95	0x3c71922e	0.014744325
96	0x3cc85632	0.024455164
97	0x3c8ff245	0.017571578
98	0x3ce5088a	0.027958173
99	0x3c97c004	0.018524177
100	0xbc57d5d5	-0.01317354
101	0xbcbf1c34	-0.023328878
102	0x3d02287d	0.031776894
103	0xbcd76b60	-0.026296318
104	0x3c415b2d	0.011801523
105	0x3d07ff96	0.03320273
106	0x3b94b77f	0.004538476
107	0x3c8f78d6	0.017513674
108	0x3cba370b	0.022731325
109	0xbd057858	-0.032585472
110	0x3cde70ff	0.02715349
111	0xbd572bf7	-0.052532163
112	0xbd1d3012	-0.03837592
113	0x3ccf5991	0.025311263
114	0x3d302a23	0.043008935
115	0x3c8362be	0.016038295
116	0xbb4bea5e	-0.0031115036
117	0xbbc94c75	-0.0061431476
118	0xbc69a8c3	-0.014261427
119	0x3c8c0f0a	0.017097015
120	0xbb9d56d1	-0.004801609
121	0xbb6cc351	-0.003612716
122	0xbc338c4c	-0.010958742
123	0xbc30ced3	-0.010791498
124	0x3ce8df42	0.02842677
125	0xbc3fdd1a	-0.01171043
126	0x3a6472ad	0.0008714598
127	0x3d85bfa7	0.065306954
128	0xbcb3131c	-0.021859698
129	0x3caa82b9	0.020814287
130	0x3cd51278	0.026009783
131	0xbd159345	-0.0365174
132	0x3c0e063a	0.008668477
133	0x3d310abe	0.043223135
134	0xbb35b750	-0.002772767
135	0x3d037ae7	0.03209963
136	0xbcccb066	-0.024986457
137	0x3d40eaeb	0.047099035
138	0x3d0e5787	0.03475144
139	0x3bf82bcf	0.0075735818
140	0x3cf4214b	0.029801032
141	0xbb0617e8	-0.0020461027
142	0x3ca4281f	0.020038662
143	0xbb6570f4	-0.0035009952
144	0x3d18adee	0.037275247
145	0x3c795e6d	0.015220267
146	0x3d05e8f9	0.032692883
147	0x3c717c97	0.014739177
148	0x3bbe1d39	0.0058018235
149	0xbd177ee7	-0.036986258
150	0x3ba8a741	0.0051468913
151	0x3c973652	0.01845852
152	0xbc9197ca	-0.017772574
153	0xbbc0a424	-0.005878942
154	0x3cfb3fdc	0.030670099
155	0x3d13ad87	0.03605416
156	0x38997aa8	7.318455e-05
157	0x3d0e8ba0	0.034801126
158	0x3cdc8c28	0.0269223
159	0xbd2c3f22	-0.042052396
160	0xbd0ad24f	-0.033891972
161	0x3b98f311	0.0046676476
162	0x3c94b405	0.018152246
163	0x3b9a8b1a	0.004716289
164	0x3d2778b2	0.04088659
165	0xbc47015d	-0.012146321
166	0x3d0f3a1a	0.03496752
167	0xbca6addd	-0.020346576
168	0x3cad01d3	0.021119034
169	0x3bd7288b	0.0065661124
170	0xbd7343cf	-0.05939084
171	0xbc477ecb	-0.012176226
172	0x3d0a2ea7	0.033735897
173	0xbd0065fd	-0.031347264
174	0x3a9f5669	0.001215649
175	0xbb1205ee	-0.0022281366
176	0xbc0a3259	-0.008434855
177	0xbd5d1783	-0.0539775
178	0x3ceae382	0.028672937
179	0xbd080240	-0.03320527
180	0x3c7357cc	0.014852475
181	0x3c0cecc9	0.008601376
182	0xbcf8d75e	-0.030376133
183	0x3d2fd309	0.04292587
184	0xbaad5962	-0.0013225491
185	0xbbd0f6b3	-0.006377065
186	0x3c0b9d60	0.008521408
187	0xbd143cb3	-0.0361907
188	0x3d4cae29	0.04997078
189	0x3c8846b8	0.016635284
190	0xbcaa8c83	-0.020818954
191	0xbd004a0e	-0.031320624
192	0x3c8dbcab	0.017301878
193	0xbd3d2b30	-0.046183765
194	0x3cdc8c63	0.02692241
195	0xbc10f67a	-0.008847827
196	0x3d1740fc	0.03692721
197	0x3d55ccf0	0.052197397
198	0xbb375da8	-0.0027979407
199	0xbcc18c2a	-0.023626406
200	0x3d205a77	0.039148774
201	0x3c1e544c	0.009663653
202	0x3d4a75f3	0.04942889
203	0x3d19f2de	0.03758513
204	0xbadf6e6a	-0.0017046456
205	0x3c7293a9	0.014805713
206	0xbbcb979a	-0.0062131407
207	0x3b840022	0.004028336
208	0xbcf33895	-0.029690066
209	0x3c92239d	0.017839247
210	0x3c820670	0.01587221
211	0xbd04a568	-0.032384306
212	0xbce15d56	-0.027510326
213	0x3d30af7f	0.043136116
214	0x3ce18368	0.02752848
215	0x3d37ad5f	0.044843074
216	0x3b95a29b	0.004566503
217	0x3bea8009	0.0071563763
218	0xbd2d902f	-0.042373832
219	0x3ccc4334	0.024934389
220	0xbcfbcafc	-0.030736439
221	0x3c51cc1e	0.012805013
222	0x3ba9f512	0.0051866854
223	0xbc9eeb14	-0.019399203
224	0x3d2b5498	0.04182872
225	0xbc45dcfa	-0.012076611
226	0xbc8bcf6a	-0.017066676
227	0x3bc9f193	0.006162831
228	0x3bd6e226	0.0065577207
229	0x3c532f96	0.012889763
230	0x3d38abb6	0.04508563
231	0xbcc88ac9	-0.02448024
232	0xba3c7d08	-0.0007190262
233	0x3cf3c8eb	0.029758891
234	0x3d181180	0.037126064
235	0xbcea3a9b	-0.028592398
236	0x3d63f7ea	0.05565635
237	0x3c95c6a0	0.018283188
238	0x3c8dbbdd	0.017301494
239	0x3ccf02ec	0.025269948
240	0x3c5bc4de	0.013413636
241	0x3c85052a	0.016237814
242	0x3d25fe0d	0.040525485
243	0x3ceb6af2	0.028737519
244	0xbc285f0a	-0.010276565
245	0x3d52e26d	0.051485468
246	0xbcb5992a	-0.02216776
247	0xbcde0e4f	-0.027106432
248	0xbc60f8c4	-0.013731185
249	0x3d0028d1	0.031288926
250	0xbcaa68d1	-0.020801933
251	0x3cb50356	0.022096317
252	0x3b44f094	0.0030050622
253	0x3d4d4f5d	0.050124515
254	0x3d5f5e80	0.05453348
255	0x3cc890c8	0.0244831

action_model._continuous_distribution.log_sigma f4 [1, 2]
0	0xbf31968a	-0.6937033
1	0xbf112a02	-0.56704724

action_model._continuous_distribution.mu.weight f4 [2, 256]
0	0x3d6e2d6b	0.058148783
1	0xbdb07a83	-0.08617117
2	0xbcb821bd	-0.022477025
3	0xbb2fee1f	-0.0026844812
4	0xbd843cdc	-0.064569205
5	0xbe195ee9	-0.14977612
6	0xbc508dfb	-0.012729163
7	0x3d5bd2fe	0.053668015
8	0x3caaa162	0.020828906
9	0xba52a252	-0.0008035052
10	0xbd36d2f2	-0.044634767
11	0x3dc44d8c	0.095851034
12	0xbd2fa1ae	-0.0428788
13	0x3d173b28	0.03692165
14	0x3cd1b190	0.025597364
15	0x3cec0902	0.028812889
16	0x3cf90e81	0.030402424
17	0x3d4d49bc	0.050119147
18	0xbd7e9c37	-0.062160697
19	0x3cb5824d	0.022156859
20	0x3cc1d65b	0.023661783
21	0x3cb5db1d	0.022199208
22	0x3c26987a	0.010168189
23	0x3c77ed45	0.015132253
24	0xbde63df1	-0.11242283
25	0x3ca2b4bb	0.01986157
26	0xbb299cf4	-0.0025880905
27	0x3d7bf54c	0.06151323
28	0x3d213e7a	0.039366223
29	0x3d165dd7	0.036710586
30	0x3cbde5a7	0.023180796
31	0xbcb140b2	-0.021637294
32	0x3d8c32e1	0.06845642
33	0xbc8f14b3	-0.017465925
34	0xbde2a2d7	-0.110662155
35	0x3d04de97	0.03243884
36	0xbc326e6d	-0.010890585
37	0x3d435c86	0.04769566
38	0xbd284964	-0.041085616
39	0xbe22bcac	-0.15892285
40	0xbca1c5e5	-0.019747684
41	0x3a94f65d	0.0011364926
42	0x3c60fd13	0.013732213
43	0x3c189ee0	0.0093152225
44	0x3d2ef90f	0.04271799
45	0x3dac47b7	0.08412116
46	0xbd5223b7	-0.05130359
47	0x3afb8d94	0.0019191974
48	0xb98328c1	-0.0002501663
49	0x3d929840	0.07157946
50	0xbb56bc53	-0.0032766059
51	0x3d1d6cc4	0.038433805
52	0x3cb0254b	0.021502158
53	0x3d41ad9a	0.0472847
54	0x3bbcff9e	0.0057677766
55	0xbd9dedda	-0.07711382
56	0x3cae1063	0.021248048
57	0x3d744046	0.05963161
58	0x3d97935e	0.07401155
59	0xbe058129	-0.13037552
60	0xbdd659fd	-0.10466383
61	0xbb972198	-0.004612159
62	0x3d9dfa14	0.07713714
63	0xbc52d66f	-0.012868508
64	0xbe01e140	-0.12683582
65	0x3d5feecd	0.054671098
66	0xbcf82751	-0.030292185
67	0x3da1cc24	0.07900265
68	0x3be89fbc	0.00709912
69	0xbcd2e578	-0.025744185
70	0xbd353f6f	-0.044249948
71	0x3ce0ec9c	0.027456574
72	0x3d20b05e	0.039230697
73	0x3d9898af	0.07450997
74	0xbdd319ee	-0.1030768
75	0xbdbad98a	-0.091235235
76	0xbd99f79d	-0.075179316
77	0xbd7a3bc0	-0.06109214
78	0xbd73e67f	-0.05954599
79	0xbd30f9b8	-0.0432069
80	0x3d263920	0.040581822
81	0x3cf8e91c	0.030384593
82	0x3d2ef655	0.04271539
83	0xbd0ee817	-0.034889307
84	0xbd3fe433	-0.046848487
85	0xbdca46eb	-0.09876808
86	0xbd4c9ca7	-0.049954083
87	0x3cdaff2a	0.026733
88	0xbce15e2c	-0.027510725
89	0xbcb1d79b	-0.021709254
90	0x3d10844c	0.035282418
91	0x3c80c740	0.01572001
92	0xbe1e3442	-0.15449622
93	0xbd21d912	-0.039513655
94	0xbd994b22	-0.074850336
95	0x3d480714	0.048834875
96	0xbe08039b	-0.13282625
97	0x3c1346a9	0.008989015
98	0x3cf8f352	0.030389462
99	0x3bda0a01	0.0066540246
100	0xbb13a4f2	-0.0022528735
101	0xbcba1adf	-0.022717891
102	0xbe0b91de	-0.13629863
103	0xbd5ce9d4	-0.053933933
104	0x3bb46da7	0.0055062356
105	0x3d23aadf	0.039957877
106	0xbe03e110	-0.12878823
107	0x3d39e8a3	0.045387875
108	0x3d5c38b2	0.053765006
109	0x3bf385fa	0.0074317427
110	0x3d91ccbf	0.0711913
111	0xbdc0fe55	-0.0942351
112	0xbdd3f555	-0.10349528
113	0x3d91771f	0.07102799
114	0x3d21b74a	0.03948144
115	0xbbf1426a	-0.0073626535
116	0x3cae1c17	0.021253629
117	0x3d7c1ca0	0.061550736
118	0x3c06a548	0.008218117
119	0x3c9e5673	0.019328332
120	0xbd20f7a2	-0.03929866
121	0xbd0f8135	-0.03503533
122	0x3bea2997	0.007146071
123	0x3b53b59b	0.003230429
124	0xbc8f5c76	-0.017500143
125	0xbe08827b	-0.13331024
126	0x3c74acfb	0.01493382
127	0x3d78db2f	0.060755905
128	0x3d1feb3f	0.039042708
129	0x3d10fa49	0.03539494
130	0xbac95e47	-0.001536318
131	0xbcf33af5	-0.029691199
132	0x3d3ff733	0.046866607
133	0x3d8cd89a	0.06877251
134	0xbd4b1a27	-0.049585488
135	0x3d71f454	0.0590709
136	0xbd06866d	-0.032843042
137	0x3d797ec1	0.060911898
138	0xbc9dd6fe	-0.019267555
139	0xbca65e43	-0.02030862
140	0x3de1c917	0.11024683
141	0x3ccfe2d0	0.025376707
142	0x3d54a35f	0.051913615
143	0x3cff8e8a	0.031195898
144	0x3d01d408	0.03169635
145	0x3badaace	0.0052999025
146	0x3d8123a9	0.0630563
147	0x3d7646e8	0.060126215
148	0xbe088b3c	-0.13334364
149	0xbb870a9d	-0.0041211382
150	0xbbfce98d	-0.007718271
151	0xbc225959	-0.009908997
152	0xbd9822ea	-0.07428534
153	0xbe03af45	-0.12859829
154	0x3bf10c81	0.007356227
155	0x3dbe1843	0.09281971
156	0xbe036f25	-0.12835367
157	0x3cb4abd1	0.022054585
158	0x3c8799e2	0.01655287
159	0xbd95241b	-0.07282277
160	0x3c2b09d6	0.010439357
161	0xbcebb07f	-0.028770683
162	0x3d0b0eb4	0.03394957
163	0x3ca4bbd4	0.020109095
164	0x3d840193	0.06445613
165	0x3d14e770	0.03635353
166	0x3db0d40f	0.08634197
167	0xbe02c97d	-0.12772174
168	0x3ce5dff0	0.028060883
169	0xbe0760ad	-0.13220473
170	0xbcd54db1	-0.026038023
171	0xbd5d5aab	-0.054041546
172	0x3d081db5	0.033231456
173	0xbd49a779	-0.04923198
174	0x3d463f38	0.048400134
175	0x3c4f865f	0.012666314
176	0x3d139bb7	0.036037173
177	0xbd9e26b7	-0.07722228
178	0x3d18f62a	0.037344135
179	0xbdd47389	-0.10373599
180	0x3c272e44	0.010203902
181	0xbd2b0914	-0.041756704
182	0xbd20227f	-0.039095398
183	0x3d7fb3b6	0.062427245
184	0xbd033960	-0.03203714
185	0x3c3fc2a5	0.011704122
186	0x391e8a27	0.0001511952
187	0xbc54167b	-0.012944813
188	0x3d8aa262	0.06769253
189	0x3d11b3c4	0.03557183
190	0x3b224f72	0.0024766591
191	0xba5345a8	-0.0008059391
192	0xbd6e64da	-0.05820165
193	0xbe05e1d0	-0.13074422
194	0xbe2780a5	-0.16357668
195	0xbd86506a	-0.065583065
196	0xbe10e4ed	-0.14149828
197	0x3d33a5df	0.04385936
198	0x3d50bb0c	0.05095963
199	0xbe189851	-0.14901854
200	0x3d92a6d6	0.07160728
201	0x3d3d64eb	0.04623882
202	0x3c9b7b3d	0.018979663
203	0xbc965ad0	-0.01835385
204	0xbda1c724	-0.07899311
205	0x3d035810	0.032066405
206	0xbe1ca4d3	-0.1529725
207	0xbe0293b4	-0.12751657
208	0xbceee692	-0.029162679
209	0xbca3e7f1	-0.02000806
210	0xbdad68ef	-0.0846728
211	0xbdbfded6	-0.093686745
212	0x3cbb6fee	0.02288052
213	0x3d54584f	0.05184203
214	0x3c97e9a5	0.018544028
215	0x3d09ac9a	0.03361187
216	0xbd0844b1	-0.033268634
217	0xbce11c81	-0.027479412
218	0xbc34d8c4	-0.011038009
219	0x3d260de6	0.0405406
220	0xbc0c9a40	-0.008581698
221	0x3d1a7da9	0.037717495
222	0x3c465ea1	0.012107522
223	0xbdcb019c	-0.09912416
224	0x3d9429ba	0.07234521
225	0x3d149f1a	0.036284544
226	0xbdd2684c	-0.10273799
227	0x3c9ca2f2	0.019120667
228	0xbcde8eb7	-0.027167661
229	0x3d580a88	0.05274442
230	0x3d31c9db	0.043405395
231	0x3cf9ddeb	0.030501327
232	0x3d196b2d	0.037455726
233	0x3d404281	0.046938423
234	0xbd25d564	-0.04048671
235	0xbd02246c	-0.031773016
236	0x3c987d51	0.018614443
237	0x3b9f4584	0.004860582
238	0x3d155800	0.036460876
239	0x3d12fbc9	0.035884652
240	0x3adeb2df	0.0016990564
241	0x3cef899b	0.02924042
242	0x3c827df2	0.015929196
243	0x3d33a4d9	0.043858383
244	0x3cda4955	0.026646296
245	0x3c8452a4	0.016152687
246	0xbc4ddd8b	-0.012565027
247	0xbc44a531	-0.012002275
248	0x3d9bb0d9	0.076020904
249	0xbe44a4d1	-0.19203497
250	0x3c053688	0.008130677
251	0xbe1ad0a1	-0.15118648
252	0xbd822c41	-0.06356097
253	0x3d3c76f9	0.0460119
254	0x3d196598	0.037450403
255	0x3d961df5	0.073299326

action_model._continuous_distribution.mu.bias f4 [2]
0	0x3ce2f4bb	0.027704587
1	0xbc390df1	-0.011294828

action_model._discrete_distribution.branches.0.weight f4 [2, 256]
0	0xbd8211c1	-0.063510425
1	0x3c08a2ea	0.008339623
2	0xbd083775	-0.033256013
3	0x3d66c368	0.056338698
4	0xbcc2abff	-0.023763655
5	0x3da31ab1	0.07964075
6	0x3d9a6639	0.07539029
7	0xbcb3fd33	-0.02197132
8	0xbc84ea44	-0.016224988
9	0xbaa1614e	-0.0012312324
10	0x3dc34561	0.09534717
11	0x3c08a978	0.008341186
12	0xbc9acd83	-0.018896824
13	0x3d97522d	0.07388721
14	0xbe453371	-0.19257905
15	0x3a7c0031	0.00096130656
16	0x3df5a77a	0.11994834
17	0x3e199545	0.14998348
18	0xbd27e8e3	-0.040993582
19	0xbe0fc535	-0.14040072
20	0xbded70ac	-0.11593756
21	0xbceedb7f	-0.029157398
22	0xbdacf34b	-0.08444842
23	0xbd6ad06a	-0.057327665
24	0x3dc185c6	0.094493434
25	0x3ba5dd04	0.0050617475
26	0x3ddaa59f	0.10676121
27	0x3da78441	0.08179522
28	0xbe5d66f4	-0.21621305
29	0x3c4388a2	0.011934431
30	0xbd1cedeb	-0.038312834
31	0xbd45f2ec	-0.04832737
32	0x3e0cb08f	0.13739227
33	0x3e556f41	0.20843221
34	0xbc495d85	-0.012290363
35	0x3d4075ca	0.046987332
36	0x3db61116	0.08889978
37	0xbc7b8644	-0.015351836
38	0x3caeb561	0.021326723
39	0x3dc8d4f9	0.09806246
40	0x39c4c0c5	0.00037527658
41	0x3d901e7d	0.07037065
42	0x3e0584ab	0.1303889
43	0xbd242054	-0.040069893
44	0xbda575a8	-0.08079082
45	0xbd83151c	-0.06400511
46	0xbd822b12	-0.06355871
47	0x3c1e8622	0.009675534
48	0xbe2e81fd	-0.17041774
49	0xbd29a871	-0.041420404
50	0xba531592	-0.00080522255
51	0x3d83da53	0.064381264
52	0xbdfe4a88	-0.124165595
53	0x3e54fbef	0.2079923
54	0x3d5a53a5	0.053302426
55	0x3d9fbba2	0.0779946
56	0x3d925965	0.07145957
57	0xbcb419bb	-0.021984925
58	0x3d49a746	0.04923179
59	0x3d48cd86	0.049024127
60	0x3d4aa243	0.04947115
61	0xbcbd4ba1	-0.023107352
62	0x3d88ad97	0.06673735
63	0xbc8b2f74	-0.0169904
64	0x3d03010b	0.031983417
65	0xbd459d32	-0.048245616
66	0xbd669294	-0.05629213
67	0xbd491dcc	-0.049100682
68	0x3dcfbed7	0.10143822
69	0xbd43a9f7	-0.047769513
70	0xbc8c65f0	-0.017138451
71	0xbe24dd35	-0.16100009
72	0x3d83210b	0.06402787
73	0x3d90aaca	0.070638254
74	0x3dca352f	0.09873425
75	0x3cce8aa8	0.0252126
76	0xbb0a8da8	-0.0021141563
77	0x3d0d688a	0.034523524
78	0x3dafd949	0.08586366
79	0x3cdd4995	0.027012626
80	0xbda78014	-0.08178726
81	0x3e3eac78	0.18620479
82	0xbcff87af	-0.031192629
83	0x3e0f5d1b	0.1400036
84	0x3d9309a4	0.07179573
85	0x3d217559	0.039418552
86	0x3c3f59d5	0.0116791325
87	0xbd13971a	-0.036032774
88	0x3c898a8e	0.0167897
89	0x3d25d795	0.0404888
90	0xbc84dd1f	-0.01621872
91	0xbd47afa1	-0.048751477
92	0x3b5ee9be	0.0034013833
93	0x3dd47098	0.10373038
94	0x3d042586	0.032262348
95	0x3d3c8e23	0.04603399
96	0x3e2673c2	0.16255096
97	0xbde4cd5a	-0.1117198
98	0xbc3df678	-0.011594407
99	0x3c9d9078	0.019233927
100	0x3dac42c5	0.08411173
101	0x3dfd53f3	0.12369528
102	0x3deea821	0.11653162
103	0x3d7afb1a	0.061274625
104	0x3bc71a73	0.006076151
105	0xbdc83b62	-0.097769514
106	0x3d1151a1	0.035478238
107	0xbdaf77a6	-0.08567743
108	0x3d3565ab	0.04428641
109	0x3e090deb	0.13384216
110	0xbd41f901	-0.04735661
111	0xbd0bfff1	-0.03417963
112	0x3c445f8f	0.011985674
113	0xba9da275	-0.0012026565
114	0xbe06beda	-0.13158742
115	0xbc9340d9	-0.017975258
116	0xbc3b7833	-0.011442232
117	0x3d4babbf	0.049724337
118	0x3dacb145	0.08432249
119	0xbd5992c4	-0.053118482
120	0x3d095b74	0.033534482
121	0x3e040dec	0.12895936
122	0x3e497341	0.19672872
123	0x3ce12be3	0.027486747
124	0xbdac01ce	-0.08398782
125	0x3cc3a3d3	0.023881828
126	0xbcbc565d	-0.0229904
127	0xbe129293	-0.14313726
128	0x3db40799	0.08790512
129	0xbd556df4	-0.052106813
130	0x3ca8fde4	0.020628877
131	0x3e1374da	0.14400044
132	0x3d10fccb	0.035397332
133	0xbe10a469	-0.14125217
134	0x3cf3c66a	0.029757697
135	0xbc630123	-0.0138552515
136	0x3c26f7b9	0.010190898
137	0xbe15e439	-0.14637841
138	0xbc1ae6ae	-0.009454412
139	0x3d175854	0.03694947
140	0xbb449170	-0.0029993914
141	0x3c884106	0.016632568
142	0xbce8a9cf	-0.028401284
143	0x3d513a54	0.051081017
144	0xbe07d0a8	-0.1326319
145	0xbc43012c	-0.011902135
146	0xbc4b2876	-0.012399783
147	0xbccd0930	-0.025028795
148	0x3d9ca0e2	0.076478735
149	0x3dfe5959	0.124193855
150	0xbb3858ef	-0.002812918
151	0xbd8e73fa	-0.069557145
152	0x3d5d8b7b	0.054088097
153	0x3c66cfaa	0.014087597
154	0x3e94d6c8	0.29070115
155	0x3e0f35f9	0.13985433
156	0x3c988975	0.018620232
157	0xbbe97726	-0.0071247993
158	0x3c2ce5f7	0.010552875
159	0xbbe22cdb	-0.00690232
160	0x3e0ee341	0.13953878
161	0x3cc7ae1b	0.024375012
162	0xbc5d7215	-0.013515969
163	0xbd5a7e0b	-0.05334286
164	0xbe213248	-0.15741837
165	0x3d6fdf57	0.058562603
166	0xbcc4923c	-0.023995511
167	0x3c9b16b6	0.018931728
168	0xbd845c54	-0.06462923
169	0x3d878f51	0.06619132
170	0x3d8c6420	0.06855035
171	0x3b4f13eb	0.0031597565
172	0xba4f630e	-0.00079111836
173	0x3cada3dd	0.0211963
174	0x3d83d169	0.06436426
175	0x3d39b41a	0.045337774
176	0x3d303b0b	0.043025058
177	0x3cd6a4ec	0.026201688
178	0xbd7e8aa0	-0.06214392
179	0x3cda7232	0.02666578
180	0xbd798bdb	-0.060924392
181	0x3d1add46	0.03780868
182	0x3b62f4ee	0.0034630853
183	0xbdfa1fe6	-0.122131154
184	0x3d85c776	0.06532185
185	0x3a889d82	0.0010422918
186	0xbd0640bf	-0.03277659
187	0x3d9180b4	0.07104626
188	0xbe27dbcd	-0.16392441
189	0x3ccf244e	0.025285866
190	0x3d0baddd	0.034101356
191	0x3cdbf323	0.026849335
192	0xbc9343a4	-0.01797659
193	0xbb944689	-0.00452501
194	0x3d9fa6eb	0.07795509
195	0x3ca0fff8	0.019653305
196	0x3d9b370e	0.0757886
197	0xbdc921a0	-0.098208666
198	0x3e1bdfb6	0.15222058
199	0x39ad7574	0.0003308464
200	0xbce0da05	-0.02744771
201	0xbcb7d579	-0.022440659
202	0xbce727dd	-0.02821725
203	0xbc05c558	-0.008164726
204	0x3d8458bd	0.06462238
205	0x3d510e1c	0.051038846
206	0x3d021dc0	0.031766653
207	0x3d5daf05	0.05412199
208	0x3dcfc048	0.101440966
209	0xbdb21648	-0.08695656
210	0xbcc8ff9f	-0.024535952
211	0xbda30a26	-0.0796092
212	0x3d8aa969	0.06770594
213	0xbcc68e06	-0.024237644
214	0xbdc65097	-0.0968334
215	0xbdf39e44	-0.11895421
216	0x3d07d52b	0.033162277
217	0xbb653982	-0.0034976904
218	0x3d3b8416	0.045780264
219	0xbdb7d00e	-0.0897523
220	0x3c97530f	0.018472223
221	0xbcb80029	-0.022461014
222	0xbc3b5fbf	-0.011436402
223	0x3c99cd50	0.018774658
224	0xbdc76d3c	-0.09737632
225	0x3e19b6ba	0.15011111
226	0xbbaeec71	-0.0053382446
227	0x3d89854e	0.06714879
228	0xbdaee6d5	-0.085401215
229	0x3c682da2	0.014171036
230	0xbe117458	-0.14204538
231	0x3e2dcf27	0.16973554
232	0x3cf99f45	0.030471453
233	0xbd531d9b	-0.051541906
234	0xbd27bc81	-0.040951256
235	0xbd544c71	-0.051830713
236	0xbe049223	-0.12946372
237	0xbd5befe8	-0.05369559
238	0xbd5ce6cb	-0.05393104
239	0xbdb0dc3f	-0.086357586
240	0xbd942287	-0.07233148
241	0x3e2d6910	0.1693461
242	0x3e75161c	0.23934215
243	0x3c4bc76c	0.012437683
244	0x3d4c0b69	0.04981557
245	0xbe2d2408	-0.16908276
246	0x3d4ada33	0.049524497
247	0x3d23bc23	0.039974343
248	0x3dd31c8f	0.103081815
249	0x3db15947	0.086596064
250	0x3dc6e8dc	0.09712383
251	0x3d03b782	0.03215743
252	0xbd0fd94e	-0.035119347
253	0xbd8d954d	-0.069132425
254	0xbe2a202e	-0.16613838
255	0x3c892a09	0.016743677

action_model._discrete_distribution.branches.0.bias f4 [2]
0	0xbd3e4de5	-0.046461005
1	0x3d3e4e07	0.04646113
