Assets/Models/PushBlock/PushBlockWithRandomize.onnx (onnx, 430190 bytes, 9 tensors)

network_body._body_endoder.seq_layers.0.weight f4 [256, 155]
0	0xbc8ef2d8	-0.017449781
1	0x3dbb0ca1	0.09133268
2	0x3c07fc0e	0.008299841
3	0x3cf9ee3b	0.030509105
4	0xbdb3d936	-0.08781664
5	0x3d09531f	0.033526536
6	0xbd5123bf	-0.05105948
7	0xbd267d2b	-0.040646713
8	0x3dacee9b	0.08443948
9	0xbd422bc0	-0.047405005
10	0xbe14271e	-0.14468047
11	0xbe0fe1c2	-0.14050964
12	0x3debbfb2	0.11511172
13	0x3cf3ef08	0.029777065
14	0x3cbd2d39	0.023092853
15	0xbde7e114	-0.11322227
16	0xbe35611f	-0.1771283
17	0xbd47d411	-0.048786227
18	0xbd3585c7	-0.044317033
19	0xbe0a84b4	-0.13527185
20	0xbe358e66	-0.17730102
21	0xbd16620a	-0.03671459
22	0x3e2758df	0.16342495
23	0xbd3f28d5	-0.0466698
24	0x3d135a9b	0.03597508
25	0xbb16fd30	-0.0023039095
26	0x3d0c64c6	0.034275793
27	0x3d0a4021	0.033752564
28	0x3d41a794	0.047278956
29	0xbe4a8183	-0.19775967
30	0xbd1545cb	-0.036443513
31	0xbe37e9d6	-0.17960295
32	0x3e471826	0.19442806
33	0xbd03f8ae	-0.03221958
34	0x3cced67f	0.025248764
35	0xbc38ae44	-0.011272017
36	0xbd8929d6	-0.06697433
37	0xbdbe60b4	-0.092957884
38	0xbc5bf82f	-0.013425871
39	0x3d2d7f10	0.042357504
40	0xbdf1b130	-0.11801374
41	0xbbc1cb9c	-0.0059141647
42	0xbce421cc	-0.027848147
43	0xbc4458f8	-0.011984102
44	0xbdb17f8d	-0.086669065
45	0xbe3a7b37	-0.18211065
46	0x3d4cda38	0.050012797
47	0x3d45882c	0.048225567
48	0x3cf450a6	0.029823612
49	0x3d83848d	0.064217664
50	0x3c1235c9	0.008923956
51	0xbd8ffa16	-0.07030122
52	0xbd982979	-0.07429785
53	0xbcab874b	-0.020938536
54	0xbd38408a	-0.044983424
55	0xbe6706cb	-0.22561185
56	0xbd17fbff	-0.037105557
57	0xbdd8d6ee	-0.105878696
58	0x3dd982d5	0.10620657
59	0xbcefef13	-0.029288804
60	0xbd27e057	-0.04098543
61	0x3c2805f3	0.010255325
62	0xbdca627f	-0.09882068
63	0xbe699ada	-0.22812977
64	0x3df43cb5	0.119256414
65	0xbdcfdebd	-0.10149906
66	0xbbe61705	-0.007021787
67	0xbd9a5852	-0.07536377
68	0xbdbf2e3a	-0.09334989
69	0xbd0e0c9d	-0.034679998
70	0x3d062dad	0.032758404
71	0x3c7e9657	0.0155387735
72	0xbd2e9056	-0.04261812
73	0xbdb21cde	-0.08696912
74	0x3cbbbb0b	0.022916337
75	0x3d5ba71f	0.053626176
76	0xbc7e4932	-0.015520381
77	0xbd98fe29	-0.07470352
78	0x3dda9760	0.10673404
79	0xbddb1d0c	-0.106988996
80	0x3c8ad438	0.016946897
81	0xbdab1f98	-0.083556354
82	0xbd21528a	-0.039385356
83	0xbca7be4f	-0.020476488
84	0xbd8142ed	-0.06311593
85	0x3ddc7a83	0.10765555
86	0xbd74a382	-0.059726246
87	0x3c488d51	0.012240724
88	0x3d13d6ef	0.03609365
89	0x3cedf7be	0.029048797
90	0xbd86333b	-0.0655274
91	0xbc4d4651	-0.012528972
92	0x3b3beb4c	0.0028674183
93	0x3d9eae04	0.077480346
94	0x3de802b1	0.11328638
95	0xbd15f0a9	-0.036606465
96	0xbd83f34d	-0.0644289
97	0xbd5119bd	-0.051049937
98	0xbd0f9089	-0.03504995
99	0x3d0f01cb	0.03491382
100	0xbe13ddbb	-0.14440052
101	0x3d1cef3e	0.038314097
102	0xbe1f0515	-0.15529282
103	0x3dc91589	0.09818561
104	0xbe02156f	-0.12703489
105	0x3d0ff809	0.035148654
106	0xbcd20082	-0.025635008
107	0xbe05ec6d	-0.1307847
108	0x3c022a31	0.0079446295
109	0x3b0f1134	0.0021830322
110	0xbcf869e2	-0.030323926
111	0x3d06f932	0.032952495
112	0xbe04e8e8	-0.12979472
113	0xbe04ea9b	-0.1298012
114	0xbdf1994d	-0.11796818
115	0x3e76f6f7	0.24117647
116	0xbe7ade10	-0.24498773
117	0xbd83d7aa	-0.06437619
118	0x3e4c55e7	0.19954644
119	0xbe4e7b53	-0.20164232
120	0xbcb798bc	-0.022411697
121	0x3cc14ea6	0.023597073
122	0x3e00de36	0.12584767
123	0x3deb0c80	0.114769936
124	0x3bdb98e7	0.006701577
125	0xbc1e9963	-0.009680125
126	0xbe8650b4	-0.26233447
127	0x3d3403a3	0.04394878
128	0xbd6afaf5	-0.057368238
129	0x3d1fa691	0.03897721
130	0x3ca07435	0.019586662
131	0xbd59d787	-0.05318406
132	0x3dff2f87	0.12460237
133	0x3df07ec5	0.11742929
134	0xbd1f7006	-0.038925193
135	0x3e04a15c	0.12952179
136	0xbe253eab	-0.16137187
137	0x3d73eca7	0.05955186
138	0xbd2864a5	-0.041111607
139	0xbe26d62b	-0.16292636
140	0x3d6d5a83	0.057947647
141	0x3dfa76d0	0.12229693
142	0x3d214e79	0.039381478
143	0xbc8aa1d4	-0.016922869
144	0xbe1c4f1e	-0.15264556
145	0x3e2693d4	0.1626733
146	0x3c9bd53f	0.019022582
147	0xbda940e8	-0.08264333
148	0xbe6e4f46	-0.23272428
149	0x3cf440e7	0.029816104
150	0x3c5c2813	0.013437289
151	0x3da4961c	0.080364436
152	0x3dd8985b	0.105759345
153	0x3dda1478	0.10648435
154	0x3d5e85c0	0.054326773
155	0x3d112494	0.035435274
156	0xbd9dc924	-0.0770438
157	0xbd96381b	-0.0733492
158	0xbc9b2088	-0.01893641
159	0xbdbe9178	-0.0930509
160	0xbc2627dd	-0.01014134
161	0xbd58c266	-0.052919768
162	0x3d14aa1b	0.036295038
163	0x3e3ab1b5	0.18231852
164	0xbc72e2fb	-0.014824624
165	0x3d921641	0.07133151
166	0xbe596da1	-0.21233226
167	0xbdbdb388	-0.092627585
168	0xbd2e218d	-0.042512465
169	0x3d65d665	0.056112666
170	0x3ded67aa	0.11592038
171	0xbe70654e	-0.23476145
172	0x3de7cc5f	0.113182776
173	0x3d8cd2d3	0.06876149
174	0x3e18090b	0.148472
175	0x3c7584c3	0.014985266
176	0xbe4c3363	-0.19941477
177	0x3d57dd94	0.052701548
178	0x3bc3fb57	0.00598089
179	0x3e3e2749	0.18569674
180	0x3cde7ace	0.027158167
181	0xbe8e2755	-0.27764383
182	0x3d995165	0.07486228
183	0x3b86ff08	0.0041197576
184	0x3da683ec	0.08130631
185	0xbd8557a0	-0.06510854
186	0xbe9db5f4	-0.30802882
187	0x3cce8bb4	0.0252131
188	0xbd250eea	-0.040297426
189	0xbc362a8a	-0.011118541
190	0xbc3db2af	-0.011578246
191	0xbe14f3ec	-0.14546174
192	0xbd3bc4f1	-0.045842115
193	0x3d1d5847	0.038414266
194	0x3dc37ade	0.095449194
195	0x3c946b02	0.018117432
196	0xbe22bad5	-0.15891583
197	0x3c9769dd	0.018483097
198	0x3d0dc5c7	0.034612443
199	0xbd145feb	-0.036224287
200	0xbd8252d0	-0.063634515
201	0xbe26e333	-0.16297607
202	0xbcf5be0e	-0.029997852
203	0x3d8deb60	0.0692966
204	0x3d8e81d2	0.06958355
205	0xbd02a634	-0.031896785
206	0xbe168824	-0.14700371
207	0xbdb70d9a	-0.08938141
208	0xbe29d38a	-0.16584602
209	0xbc3a3472	-0.011365043
210	0xbd46cad4	-0.048533276
211	0xbdfd13ca	-0.1235729
212	0x3d9a723a	0.07541318
213	0x3d962221	0.07330728
214	0xbd3249e8	-0.043527514
215	0xbe447ecb	-0.19188993
216	0xbe41ea34	-0.18936998
217	0x3d411bdc	0.04714571
218	0x3dcf9a5e	0.10136865
219	0x3d6c8680	0.057745457
220	0xbd744fe2	-0.059646495
221	0xbe87abff	-0.2649841
222	0xbde9637b	-0.113959275
223	0xbd30d73f	-0.043174025
224	0x3cdf073c	0.02722513
225	0x3c101e2f	0.008796259
226	0xbdae33bc	-0.08505961
227	0xbd541b25	-0.0517837
228	0xbd4ff0ef	-0.05076688
229	0x3dce3dd2	0.10070385
230	0x3d711503	0.05885793
231	0xbe9fb77f	-0.31194684
232	0x3dcd1bcf	0.1001507
233	0xbda1134f	-0.07865011
234	0xbc3ace65	-0.011401747
235	0xbd8c870b	-0.06861695
236	0x3da78bbc	0.08180949
237	0x3dbc9934	0.09208909
238	0x3dedc642	0.1161008
239	0xbc5423d7	-0.012947998
240	0xbe36801f	-0.17822312
241	0xbe368d89	-0.17827429
242	0x3d163e09	0.036680255
243	0xbcea216b	-0.028580388
244	0x3ced0f6d	0.02893802
245	0x3da51743	0.080610774
246	0x3d291721	0.041281823
247	0x3de3c2c1	0.11121131
248	0x3d3fbcf0	0.046811044
249	0xbd315497	-0.04329356
250	0xbb097d24	-0.002097913
251	0xbe759e39	-0.23986138
252	0xbdbbf855	-0.09178225
253	0xbe1448a3	-0.14480834
254	0xbdb9a356	-0.09064357
255	0xbe13e1bd	-0.14441581

network_body._body_endoder.seq_layers.0.bias f4 [256]
0	0xbcde025d	-0.027100736
1	0xbd167113	-0.03672893
2	0xbca7b67c	-0.020472758
3	0xbcfbd137	-0.03073941
4	0x3cfc208c	0.030777238
5	0x3b80789e	0.0039206287
6	0x3b8d0cae	0.00430449
7	0xbc824300	-0.015901089
8	0x3cf46924	0.029835291
9	0xbd0fb945	-0.035088796
10	0x3bb24b30	0.005441092
11	0x3c671031	0.014102981
12	0xbccb651e	-0.02482849
13	0xbc95c474	-0.018282153
14	0x3b59bdf7	0.00332248
15	0xbc5e7028	-0.013576545
16	0x3cb57b41	0.022153499
17	0xbcfa40dd	-0.030548507
18	0xbd81866b	-0.06324466
19	0xbc9d948d	-0.019235874
20	0xbb02b34e	-0.00199433
21	0xbd4f3638	-0.050588816
22	0x3d3aafce	0.045577817
23	0x3cef8221	0.029236855
24	0xbcd67056	-0.026176613
25	0xba89463d	-0.0010473203
26	0x3c43a3d6	0.011940917
27	0xbad437e5	-0.0016190974
28	0x3d1986c3	0.037482034
29	0x3d1fe42f	0.039035972
30	0x3c9331d2	0.017968092
31	0xbd1f61e3	-0.03891171
32	0x3cdc6329	0.026902752
33	0x3c42613e	0.011864005
34	0x3bf2b309	0.0074065966
35	0xbc0115a6	-0.007878697
36	0x3c325962	0.010885568
37	0xbd4fb017	-0.05070504
38	0xbc759f31	-0.0149915675
39	0x3c985894	0.018596925
40	0x3c9a262a	0.018817026
41	0xbc42b8e4	-0.011884902
42	0xbcf25a7a	-0.029584158
43	0xb79e8890	-1.889866e-05
44	0xbcfd94e0	-0.030954778
45	0x3b040d22	0.002014943
46	0x3afdf45e	0.0019375195
47	0xbbfe9d58	-0.0077702217
48	0xbb65b11f	-0.00350482
49	0x3d345bf9	0.044033024
50	0xbd814303	-0.063116096
51	0xbd0a46a5	-0.033758778
52	0x3e1c0f49	0.15240206
53	0xbd13513b	-0.03596614
54	0xbbfd02da	-0.007721287
55	0x3dd1ae18	0.10238284
56	0xbd8451de	-0.064609274
57	0x3ce4b4e8	0.027918294
58	0xbce94bc5	-0.028478513
59	0x3ca0c0fd	0.019623274
60	0xbd32f338	-0.043688983
61	0x3c6a9b0f	0.014319195
62	0xbd3a8948	-0.045541078
63	0xbcaf5df0	-0.021407098
64	0xbb43ab5a	-0.0029856772
65	0x3b983344	0.004644783
66	0xbcf36446	-0.0297109
67	0xbcd6cfd9	-0.026222156
68	0x3d3e3bf4	0.046443895
69	0xbba56558	-0.0050474815
70	0xbcb287a4	-0.021793194
71	0x3a690fb6	0.0008890586
72	0xbc5d887d	-0.013521311
73	0xbc789af1	-0.01517366
74	0xbbb8bb00	-0.0056375265
75	0x3c352e1a	0.011058355
76	0xbc684d7e	-0.014178632
77	0xbd03d130	-0.03218192
78	0x3e05db52	0.13071945
79	0xbd1bc8b9	-0.03803322
80	0x3c452126	0.012031829
81	0x3c24d74c	0.010061096
82	0xbb992fd8	-0.004674893
83	0x3c8b2221	0.016984047
84	0xbcee67cb	-0.029102227
85	0x3cf63b95	0.030057708
86	0x3cdaa554	0.026690163
87	0xbbf9b482	-0.007620395
88	0x3cd141f3	0.025544142
89	0x3c708788	0.014680751
90	0x3d643cf9	0.05572221
91	0xbc215fc3	-0.0098494915
92	0x3caf72ea	0.0214171
93	0x3c60720c	0.013699066
94	0x3b416f64	0.0029515857
95	0x3dbabd9c	0.09118196
96	0xbd46f855	-0.04857667
97	0xbd329995	-0.0436035
98	0xba29e271	-0.0006480581
99	0x3d396c2c	0.045269176
100	0x3c39fe5e	0.01135215
101	0xbc2a4cf8	-0.010394327
102	0x3c37c4f2	0.011216389
103	0xbd117070	-0.03550762
104	0xbc978872	-0.01849768
105	0x3c9042ad	0.017609918
106	0xbcae1ea4	-0.021254845
107	0xbc89f03e	-0.01683819
108	0x3c594d57	0.013263068
109	0x3ce80e1e	0.028327044
110	0x3b471a4a	0.003038066
111	0xbd5719ea	-0.052514948
112	0x3c3cde7a	0.011527652
113	0xbcd0fb70	-0.02551052
114	0xbca4ba0e	-0.020108249
115	0x3a8d0de3	0.0010761585
116	0xbcb7e03b	-0.022445789
117	0x3c08854d	0.008332563
118	0xbcd2a03f	-0.025711177
119	0x3b2dddb3	0.0026529848
120	0xba6fe379	-0.00091510225
121	0xbd299bcb	-0.04140834
122	0xbd01f05e	-0.031723373
123	0xbd0f70a2	-0.035019524
124	0xbcda5645	-0.026652465
125	0xbc8c9b7e	-0.017163988
126	0x3a911c58	0.0011071069
127	0xbd1158fa	-0.035485245
128	0x3d57de05	0.05270197
129	0xbb1599a0	-0.0022827163
130	0xbd44f046	-0.048080705
131	0x3d00b739	0.031424735
132	0x3cd831a5	0.02639086
133	0x3c37858d	0.011201275
134	0xbb89451e	-0.0041891476
135	0x3d8e77b2	0.06956424
136	0x3cc31a7e	0.023816343
137	0xbddd4ee9	-0.108060665
138	0xbd4413f3	-0.047870588
139	0xbc33bbb5	-0.010970046
140	0xbc9cbb04	-0.019132145
141	0x3d5170eb	0.051133078
142	0xbd0010fc	-0.031266198
143	0xbc7c72bf	-0.015408217
144	0xbd2aa5d8	-0.041662067
145	0x3d2993a3	0.041400563
146	0xbd60be96	-0.054869257
147	0xbb826c40	-0.0039801896
148	0x3b99a21d	0.004688515
149	0xbd7f6f19	-0.06236181
150	0xbbd504f4	-0.0065008346
151	0x3a83fa28	0.0010069059
152	0xbc0cb3ef	-0.008587821
153	0x3b33549d	0.0027363666
154	0x3d0ff63d	0.03514694
155	0xbcba5a6d	-0.022748196
156	0x3baa2894	0.0051928256
157	0xbd2845ab	-0.041082066
158	0xbc09e162	-0.008415552
159	0x3ca38b70	0.01996395
160	0xbd0a4bc8	-0.033763677
161	0x3b93ad70	0.0045067593
162	0xbcd9ecad	-0.026602114
163	0x3d18b70c	0.037283942
164	0xbc24cc85	-0.010058527
165	0xbcfea845	-0.031086097
166	0xbd4d1783	-0.05007125
167	0xbce2aa1e	-0.027669009
168	0x3a9be6d2	0.0011894351
169	0x3d2b2c90	0.041790545
170	0x3cb7daed	0.02244326
171	0xb8c08825	-9.180632e-05
172	0x3a52c96c	0.00080408785
173	0xbc205c46	-0.009787625
174	0x3cf767ad	0.030200804
175	0xbd050192	-0.0324722
176	0xbc6613b0	-0.01404278
177	0xbce8e733	-0.028430557
178	0xbb3ca108	-0.0028782506
179	0xba565fb7	-0.0008177715
180	0x3ca015b6	0.019541603
181	0xbd37de98	-0.044890016
182	0xbd1ff714	-0.03905399
183	0xbc3f6560	-0.0116818845
184	0x3cc9ba33	0.02462492
185	0xbca7fc97	-0.020506186
186	0x3c122069	0.00891886
187	0x3d5f2435	0.05447789
188	0xbd46fb85	-0.04857971
189	0x3beb08f9	0.0071727005
190	0x3c3b45c5	0.011430209
191	0xbcb3b1b5	-0.021935323
192	0xbd1f410a	-0.038880385
193	0xbcc1d821	-0.023662629
194	0x3bfe00ea	0.007751574
195	0x3cd095e2	0.025462095
196	0xbcdb83d1	-0.026796253
197	0x3c6a22a1	0.014290483
198	0xbce25cc4	-0.027632125
199	0xbbeba7e1	-0.0071916436
200	0x3c5b50c4	0.013385955
201	0xbae0c3d3	-0.0017148204
202	0xbca71058	-0.020393535
203	0xbd3ab875	-0.04558607
204	0xbc9c1e06	-0.019057285
205	0x3d62be8b	0.055357497
206	0x3d18dd24	0.03732027
207	0x3ca44fff	0.020057676
208	0x3ccc287b	0.024921646
209	0x3cd2a806	0.025714885
210	0xbd4fde3c	-0.05074905
211	0x3b8a613a	0.004223016
212	0x3cdbf5b9	0.026850568
213	0xbc3c2507	-0.011483437
214	0xbcc61e4c	-0.024184369
215	0x3c18243d	0.009285984
216	0xbd0a116f	-0.033708032
217	0x3dcde349	0.10053117
218	0xbca526b4	-0.020160057
219	0x3b12f635	0.0022424583
220	0xbc9ad721	-0.01890141
221	0xbc95f4c3	-0.018305188
222	0xbd0668db	-0.03281484
223	0xbc46eb16	-0.01214101
224	0x3b4e08f4	0.0031438442
225	0x3c6a7432	0.01430993
226	0x3c29953a	0.01035052
227	0x3acc695c	0.0015595364
228	0x3c2b81d3	0.010467964
229	0x3a42dff2	0.0007433883
230	0xbc864f6b	-0.016395291
231	0xbd07c7a5	-0.03314938
232	0x3cf18cc9	0.029486077
233	0xbcfaa338	-0.030595407
234	0xbcbb17c0	-0.022838473
235	0xb9c38f32	-0.00037299987
236	0x3d0a4b25	0.03376307
237	0xbc8769a9	-0.016529875
238	0xb947d096	-0.00019055823
239	0xbbe329b5	-0.006932462
240	0xbd54797c	-0.05187367
241	0x3d128c68	0.035778433
242	0x3c6f87b3	0.014619756
243	0xbcf4b4ea	-0.029871423
244	0x3bf99043	0.0076160743
245	0x3c5ea869	0.013589957
246	0x3cd935ec	0.02651497
247	0xbad5eefa	-0.0016321831
248	0xbc5da348	-0.013527699
249	0x3b77ae61	0.0037793147
250	0x3c3dd3a7	0.011586106
251	0x3c39f093	0.011348861
252	0xbcd4e1ef	-0.02598664
253	0x3cff73e7	0.031183196
254	0xb952f409	-0.00020118071
255	0x3c9c624a	0.019089837

network_body._body_endoder.seq_layers.2.weight f4 [256, 256]
0	0x3d550164	0.05200328
1	0xbddd07ac	-0.10792479
2	0x3da78d36	0.08181231
3	0xbda3df02	-0.0800152
4	0xbdc7cf91	-0.09756387
5	0x3d34d6bd	0.044150103
6	0x3e4c6785	0.19961365
7	0x3d48d83a	0.049034335
8	0x3d85afc7	0.065276675
9	0x3d2dc794	0.04242666
10	0xbdcaf536	-0.099100515
11	0x3e493c94	0.19652015
12	0x3e057ad5	0.13035138
13	0xbcb743e4	-0.02237124
14	0xbe099681	-0.13436319
15	0x3c65cf26	0.014026439
16	0x3daec771	0.08534134
17	0xbd6d1e06	-0.05788996
18	0x3da89e5f	0.08233332
19	0xbdec4b2a	-0.11537774
20	0x3de70548	0.11280304
21	0x3c62dee2	0.013847085
22	0xbe43eb95	-0.19132836
23	0x3d5f027a	0.05444572
24	0xbdf2cb97	-0.11855238
25	0xbd563604	-0.052297607
26	0x3ddbd9fd	0.10734937
27	0x3c9dcdb3	0.019263124
28	0xbded2a3b	-0.115803204
29	0x3de712d3	0.11282887
30	0xbdcd5960	-0.100268126
31	0xbc0dc5b2	-0.008653091
32	0x3d14c540	0.036320925
33	0xbd35ac5e	-0.044353835
34	0x3db1d1a9	0.086825676
35	0xbe4db75e	-0.2008948
36	0x3e0e5d18	0.139027
37	0x3e26d895	0.16293557
38	0x3e025e64	0.1273132
39	0xbd46de00	-0.04855156
40	0x3d3f760e	0.046743445
41	0x3deb66b7	0.11494201
42	0x3d48062d	0.048834015
43	0x3c117f3f	0.0088804355
44	0xbddab367	-0.106787495
45	0x3c0f55b1	0.008748458
46	0x3deb9509	0.115030356
47	0xbd1eeb52	-0.038798638
48	0xbd33cc8f	-0.043896254
49	0xbd7ab2a1	-0.06120551
50	0x3e0cc966	0.13748702
51	0xbe1570dd	-0.14593835
52	0xbe6eea50	-0.2333157
53	0xbce70827	-0.02820213
54	0xbc15b2a3	-0.009136829
55	0xbd969093	-0.07351794
56	0xbb0ed836	-0.0021796352
57	0x3d7f9de9	0.062406454
58	0xbd87422a	-0.06604417
59	0x3d5a7b4f	0.053340252
60	0xbe05c631	-0.13063885
61	0xbcd819c4	-0.026379474
62	0x3c7ceb20	0.015436918
63	0xbcdf097b	-0.0272262
64	0x3be46771	0.006970339
65	0xbce96444	-0.028490193
66	0xbc277e0b	-0.010222922
67	0xbd0c8c67	-0.034313586
68	0xbd657326	-0.056018017
69	0x3c2d7b3d	0.010588464
70	0x3d16f48c	0.03685431
71	0xbdfa1a7b	-0.12212082
72	0xbce4f575	-0.027949074
73	0xbc9331e8	-0.017968133
74	0xbdcba89f	-0.09944271
75	0xbe145eda	-0.14489308
76	0xbca76f61	-0.020438852
77	0xbd87716f	-0.066134326
78	0xbdbf61d0	-0.09344828
79	0xbd6b5337	-0.057452407
80	0x3cb7d5b3	0.022440767
81	0xbd8ca69e	-0.06867717
82	0xbd9b31c5	-0.07577852
83	0x3daebcf7	0.08532136
84	0xbd1221c0	-0.035676718
85	0xbc5c2f29	-0.013438978
86	0x3d713c85	0.058895607
87	0xbdc0d21a	-0.09415074
88	0xbd4adec4	-0.049528852
89	0x3a634406	0.0008669499
90	0xbdcf9ac4	-0.10136941
91	0xbd8ae72f	-0.06782376
92	0x3d7d2f62	0.061812766
93	0x3e182211	0.14856745
94	0x3d3e28cf	0.046425637
95	0x3d96d274	0.073643595
96	0x3c13d0bf	0.009021937
97	0xbdafecac	-0.085900635
98	0x3b51ec6f	0.0032031795
99	0xbd260890	-0.04053551
100	0xbab86457	-0.001406799
101	0xbc2c10b7	-0.010502032
102	0xbd598503	-0.053105365
103	0xbd8f880a	-0.07008369
104	0x3c8b87d1	0.017032536
105	0xbbb418c2	-0.0054961154
106	0xb8f54272	-0.00011694887
107	0xbcc72716	-0.02431063
108	0xbd1625ec	-0.03665726
109	0xb54f1210	-7.7139794e-07
110	0x3cd8fdfd	0.026488299
111	0x3d710cc9	0.058850084
112	0xbcb40e55	-0.02197949
113	0xbc99c1fc	-0.018769257
114	0x3d95d380	0.07315731
115	0x3c0cb02b	0.008586924
116	0x3d48f392	0.04906041
117	0xbc65ea7d	-0.014032957
118	0x3c8e2c79	0.01735519
119	0x3dad2099	0.08453483
120	0x3dff9959	0.124804206
121	0x3b33c449	0.0027430227
122	0x3daae9b1	0.08345354
123	0xbd82dce8	-0.06389791
124	0xbd378831	-0.044807617
125	0x3b0182cb	0.0019761797
126	0x3c1b3446	0.009472912
127	0x3d893a6d	0.06700597
128	0x3d8251b4	0.0636324
129	0x3c5ebae9	0.013594368
130	0x3c14aaff	0.009073972
131	0xbd5766e0	-0.052588344
132	0x3d40b876	0.047050916
133	0xbd1560fb	-0.03646944
134	0xbd6ff415	-0.058582384
135	0xbde69870	-0.11259544
136	0xbda7501d	-0.08169577
137	0x3c917399	0.017755317
138	0x3c4e1259	0.012577617
139	0x3ddd4081	0.10803319
140	0x3cf86aa8	0.030324295
141	0xbd9e2861	-0.077225454
142	0x3d7bbbde	0.06145846
143	0xbe2c7bdf	-0.16844128
144	0xbdde76b6	-0.10862486
145	0x3aa74e4d	0.0012764424
146	0xbd97027c	-0.07373521
147	0x3bcccfc6	0.0062503545
148	0x3a9fd850	0.0012195203
149	0x3c95f969	0.018307405
150	0xbd28fc4d	-0.041256238
151	0xbdb7e2bb	-0.08978792
152	0xbc6af4d4	-0.014340598
153	0x3d088187	0.033326652
154	0xbc895dbe	-0.016768333
155	0xbdb74ec1	-0.08950568
156	0xbdd22b47	-0.10262161
157	0x3c879d4b	0.016554495
158	0x3d6c283d	0.05765556
159	0xbdbbdb9d	-0.09172747
160	0xbd17af23	-0.037032258
161	0xbbfb5144	-0.0076695997
162	0xbdd07922	-0.10179354
163	0xbd113411	-0.035450045
164	0x3da3b340	0.079931736
165	0xbc81009d	-0.015747363
166	0xbd93abf5	-0.072105326
167	0x3b87e133	0.004146719
168	0x3d6ac500	0.05731678
169	0xbd1072ff	-0.03526592
170	0x3cd959e4	0.026532121
171	0xbbc891f7	-0.006120916
172	0x3d85a1e0	0.06525016
173	0x3cb447c5	0.022006879
174	0x3b803f98	0.003913831
175	0xbd2426cb	-0.04007606
176	0xbc85bf7e	-0.016326662
177	0xbd7a9d64	-0.061185256
178	0x3e5f5989	0.21811499
179	0x3ddeec0c	0.10884866
180	0xbcd012f9	-0.025399672
181	0xbe188af4	-0.14896756
182	0x3d8c3f7d	0.06848047
183	0xbe0414f9	-0.12898625
184	0x3da01269	0.078160115
185	0xbcaf7194	-0.021416463
186	0xbe1a0165	-0.15039594
187	0x3cd4476e	0.025912967
188	0x3d26f677	0.04076239
189	0x3b8e05aa	0.0043341713
190	0x3cceec1f	0.025259076
191	0xbac2c524	-0.0014859778
192	0xbe19197d	-0.1495113
193	0xbb9e4824	-0.004830377
194	0xbe22d3ae	-0.15901062
195	0x3ba17257	0.0049269604
196	0xbdc66755	-0.09687678
197	0xbdd9310a	-0.106050566
198	0x3bef666f	0.007305912
199	0xbcd45994	-0.02592162
200	0x3c2736be	0.010205923
201	0x3cc40621	0.023928704
202	0x3c025487	0.007954723
203	0xbc3a7755	-0.01138099
204	0x3d413056	0.047165237
205	0xbe6d2282	-0.23157695
206	0xbdb248b8	-0.08705276
207	0xbd9fc24a	-0.078007296
208	0x3df4ecff	0.11959266
209	0x3de9475b	0.11390563
210	0x3dcb73ec	0.0993422
211	0x3df0b91a	0.11754055
212	0xbc595110	-0.013263956
213	0x3d52d923	0.05147661
214	0xbddb38e2	-0.10704209
215	0xbdd769da	-0.105182365
216	0xbd8399da	-0.06425829
217	0xbca8f475	-0.020624379
218	0xbd2829cc	-0.041055486
219	0xbd19262b	-0.037389915
220	0xbd22a97b	-0.03971241
221	0xbd093261	-0.03349531
222	0x3d75b6e5	0.059988875
223	0xbd6284b8	-0.05530235
224	0x3e311b58	0.17295587
225	0xbdbb9485	-0.09159187
226	0x3c9c697f	0.019093273
227	0x3da6a702	0.08137323
228	0x3df813dc	0.12113163
229	0xbd774bd4	-0.06037505
230	0xbbbe1017	-0.005800258
231	0x3d08866c	0.03333132
232	0x3e16f04e	0.14740106
233	0x3dcac730	0.09901273
234	0x3d6f2f42	0.058394678
235	0x3d9b79d2	0.07591595
236	0xbdb5c8d6	-0.08876197
237	0x3d3e8407	0.04651263
238	0x3d97a250	0.074040055
239	0xbc1c396b	-0.009535174
240	0x3bbb19f5	0.0057098814
241	0x3db47e04	0.08813098
242	0x3d80486c	0.062638134
243	0xbd783bc1	-0.06060386
244	0xbd618d5e	-0.05506646
245	0x3d8af66e	0.06785284
246	0x3b7dc144	0.0038719932
247	0x3ca50a26	0.02014644
248	0xbd7bd374	-0.061480954
249	0xbdc23a94	-0.09483829
250	0x3c6a281d	0.01429179
251	0xbdee288e	-0.11628829
252	0x3d06b0ce	0.032883458
253	0x3e0d3660	0.13790274
254	0x3d58617e	0.05282735
255	0xbd70ea88	-0.058817416

network_body._body_endoder.seq_layers.2.bias f4 [256]
0	0xbc758c81	-0.014987112
1	0x3c0f9256	0.008762917
2	0x3d1bf16a	0.038072027
3	0x3d5a78fd	0.05333804
4	0x3b9b404a	0.0047378885
5	0x3c0012d4	0.007816989
6	0xbc83765f	-0.016047655
7	0x3d8778ae	0.06614815
8	0x3a26300a	0.0006339556
9	0x3c0977f6	0.008390417
10	0xbd434b03	-0.04767896
11	0xbb8a6ad2	-0.0042241598
12	0xbc988ddb	-0.01862233
13	0xbd871f95	-0.06597821
14	0xbbf4c1e7	-0.007469404
15	0xbc9b56ae	-0.01896223
16	0xbd664e60	-0.056227088
17	0x3d7aa35a	0.06119094
18	0x3d077283	0.03306819
19	0xbce4b9ce	-0.02792063
20	0x3c8c4297	0.017121596
21	0xbcae310b	-0.02126362
22	0x3b5edee2	0.003400736
23	0x3c992af1	0.018697234
24	0xbc140e70	-0.009036645
25	0xbc6e8d9f	-0.014560132
26	0xbd3b52a3	-0.045733105
27	0xbbc0cc23	-0.00588371
28	0xbafb5ae8	-0.0019176872
29	0x3da47a00	0.08031082
30	0x3d05ed89	0.032697234
31	0x3bfc433e	0.0076984456
32	0xbc2f7bd2	-0.010710673
33	0xbd77489b	-0.060371976
34	0xbcc09437	-0.023508174
35	0xbb22c233	-0.002483499
36	0x3c469d17	0.012122414
37	0xbd58b9ea	-0.052911676
38	0xbcd6c9f9	-0.026219355
39	0x3d040cfd	0.03223895
40	0x3bb6fdf7	0.005584474
41	0x3c960803	0.018314367
42	0xbaa0241f	-0.0012217796
43	0x3d0ec821	0.034858827
44	0xbd4494d6	-0.047993504
45	0xbd0d2ee2	-0.03446854
46	0x3cf9369f	0.030421553
47	0xbd8dd937	-0.06926196
48	0xbc8959aa	-0.016766388
49	0xbd7ddff9	-0.061981175
50	0x3c624252	0.013809757
51	0xba52d6c4	-0.0008042867
52	0xbda3f18c	-0.08005056
53	0xbc0ccc18	-0.008593582
54	0x3ce79870	0.02827093
55	0xbcdb0441	-0.026735427
56	0x3da08166	0.07837181
57	0x3c85f46c	0.016351901
58	0xbd69229d	-0.056917775
59	0x3b90f5b2	0.0044238204
60	0xbd0c8c92	-0.034313746
61	0xbc94277b	-0.018085232
62	0x3d018b3b	0.03162692
63	0xbd3654da	-0.044514515
64	0xbb6699fd	-0.0035187
65	0xbc702971	-0.014658318
66	0x3d1c8b7c	0.03821896
67	0x3b822c5e	0.003972574
68	0x3ceb3025	0.02870948
69	0x3cf8ab11	0.030355008
70	0x3cc36d4b	0.023855826
71	0xbcd4f6cc	-0.025996588
72	0x3ba1501d	0.0049228803
73	0x3d8819bf	0.06645536
74	0x3ca168f9	0.019703375
75	0xbd489c2a	-0.048977055
76	0xbc2c1404	-0.010502819
77	0xbc482379	-0.012215489
78	0x3d13462d	0.035955597
79	0xbcf4c574	-0.02987931
80	0x3d59650d	0.053074885
81	0xbd1f04d5	-0.038822968
82	0xbc8af68f	-0.016963271
83	0x3d80d7bd	0.06291149
84	0xbd101816	-0.03517922
85	0x3c9ac8dc	0.018894605
86	0xbd10e1bb	-0.035371523
87	0xbc68db88	-0.014212497
88	0x3c9661ff	0.018357275
89	0xbcb3a3c8	-0.021928683
90	0xbced0b04	-0.028935917
91	0x3cfa9197	0.030587
92	0x3cc9a668	0.024615481
93	0x3d49fc64	0.049312964
94	0xbd5a6591	-0.053319518
95	0x3cc36c98	0.023855492
96	0x3ca56d50	0.020193726
97	0xbd15c835	-0.036567885
98	0xbd2179ff	-0.039422985
99	0xbbf155b2	-0.007364952
100	0xbcbe6a19	-0.02324395
101	0x3cd7d19a	0.026345063
102	0xbb8461ac	-0.0040399637
103	0x3d8b32b7	0.067967825
104	0x3cb33b9f	0.021879015
105	0xbcaac7dc	-0.020847254
106	0x3ceb56b2	0.028727863
107	0xbd8b2b06	-0.067953154
108	0xbbb7f18c	-0.0056135114
109	0x3d295779	0.041343186
110	0xbcf76930	-0.030201524
111	0xbb778794	-0.003777002
112	0xbcdd9194	-0.027046956
113	0x3bcf3fe3	0.0063247546
114	0xbd2a9b44	-0.04165198
115	0xbbd8feb1	-0.0066221585
116	0xbb4aaecf	-0.0030926948
117	0xbcaa0118	-0.020752475
118	0xbd14f2dd	-0.036364425
119	0x3d3513c5	0.044208307
120	0x3c872481	0.016496899
121	0xbb991a85	-0.004672351
122	0x3d1aa0fe	0.03775119
123	0xbb467377	-0.0030281225
124	0xbcd2b106	-0.025719177
125	0xbd4682c5	-0.048464555
126	0xbd431d90	-0.047635615
127	0xbc4f7eb3	-0.012664485
128	0x3ce82d1e	0.028341826
129	0xbd1c5138	-0.038163394
130	0xbccf3470	-0.025293559
131	0xbc2afda7	-0.010436452
132	0xba833633	-0.001001066
133	0x3b923e39	0.004462984
134	0x3d03f5fd	0.032217015
135	0x3b9605ba	0.0045783194
136	0xbc49a680	-0.012307763
137	0x3b70f440	0.0036766678
138	0xbd5e775d	-0.054313052
139	0xbcff8798	-0.031192586
140	0xbca4fe8b	-0.020140907
141	0x3cd71632	0.0262557
142	0x3ca2f670	0.019892901
143	0xbcd832c5	-0.026391396
144	0xbc0aaa97	-0.008463523
145	0x3cb548ab	0.022129377
146	0x3c8b1ea9	0.016982393
147	0x3c960285	0.018311748
148	0xbc23f047	-0.010006017
149	0xbac5a8aa	-0.0015080173
150	0x3d23c7d0	0.039985478
151	0xbd039cac	-0.032131836
152	0xbd214f1e	-0.039382093
153	0x3d527a4f	0.051386174
154	0x3d2776b6	0.040884696
155	0x3d63d575	0.05562349
156	0x3d563876	0.05229994
157	0x3cbd527a	0.023110617
158	0xbb80e9e7	-0.0039341333
159	0x3d9a3dd0	0.07531321
160	0x3ac5d3e5	0.0015093057
161	0xbc00c84c	-0.0078602545
162	0xbb17f48f	-0.002318654
163	0x3c40c4f1	0.0117657045
164	0xbc08b0aa	-0.008342901
165	0x3ce38dc6	0.027777564
166	0xbd437fcb	-0.047729295
167	0xbd32aaed	-0.04362004
168	0xbc9628bc	-0.01832997
169	0xbd0e35a4	-0.034719124
170	0xbd068d65	-0.032849688
171	0x3d018aee	0.031626634
172	0x3d3a523c	0.04548858
173	0x3ce8bb53	0.028409636
174	0x3c40b6da	0.011762345
175	0x3c6fe220	0.014641315
176	0xbd22292d	-0.03959005
177	0xbd5b73aa	-0.053577103
178	0xbbf1d4dd	-0.0073801116
179	0xba3e88e8	-0.00072683254
180	0xbd4cb4bc	-0.04997705
181	0xbd109ec6	-0.03530767
182	0x3c7f12e6	0.015568471
183	0x3ca818d4	0.020519651
184	0xbc858ae0	-0.016301572
185	0xbd0bc894	-0.034126833
186	0xbccdbeca	-0.02511539
187	0x3cfa058a	0.03052022
188	0x3d1d76b0	0.038443267
189	0x3d0fa905	0.0350733
190	0x3d883b4f	0.06651937
191	0xbb4744ef	-0.0030406078
192	0xbc1cd6d7	-0.009572706
193	0x3c3b02f2	0.011414276
194	0xbd8677f8	-0.06565851
195	0x3c0c83c1	0.008576334
196	0xbc5ba822	-0.013406785
197	0x3c1b2547	0.009469337
198	0xbcb7264f	-0.022357134
199	0xbcebcb3b	-0.028783431
200	0xbbc713d3	-0.0060753613
201	0xbced76dd	-0.028987342
202	0x3cff564c	0.03116908
203	0xbd0e6cb6	-0.034771644
204	0xbd250eb6	-0.040297233
205	0xbc3af9d2	-0.011412101
206	0x3b5339e6	0.0032230555
207	0x3c8461ce	0.016159918
208	0x3d16829b	0.03674565
209	0xbd48b69b	-0.04900227
210	0xbcdbbbc7	-0.026822938
211	0xbcbc4e04	-0.02298642
212	0xbc6f91d9	-0.014622175
213	0xbccc766a	-0.024958808
214	0xbd669203	-0.05629159
215	0xbd03c2f9	-0.032168362
216	0xbc0c1a69	-0.008551219
217	0xbce020b4	-0.027359344
218	0xbc874b5f	-0.016515432
219	0x3d7e419d	0.062074292
220	0xbaff4917	-0.0019476739
221	0xbcb34b8c	-0.02188661
222	0x3cbe9756	0.023265522
223	0xbcf52cf9	-0.029928671
224	0x3ccb96b5	0.024852136
225	0xbd52a5ad	-0.051427532
226	0xbcf7a04f	-0.030227808
227	0xbd22ecb3	-0.039776515
228	0x3ca90476	0.02063201
229	0xbd1a3b24	-0.037654057
230	0x3caf1c9d	0.021375949
231	0xbc4125c4	-0.011788789
232	0x3cef3945	0.029202113
233	0x3d1c0394	0.03808935
234	0xbdbf6f60	-0.09347415
235	0x3d2a9985	0.041650314
236	0x3bcff4ee	0.0063463366
237	0xbd213bc0	-0.039363623
238	0xbb7bf885	-0.003844769
239	0x3d4c2649	0.0498412
240	0x3c708250	0.014679506
241	0xbc5ec205	-0.013596063
242	0xbd183b3b	-0.03716586
243	0x3ca49ff5	0.020095805
244	0x3ce043b3	0.027376032
245	0xbc4b4ee4	-0.012408946
246	0xbc89b8bf	-0.016811727
247	0x3be078cc	0.0068503376
248	0xbd45c1ce	-0.04828053
249	0x3b20be85	0.002452762
250	0xbbda6067	-0.006664324
251	0xbcb77b1e	-0.022397574
252	0x3c8f58c8	0.017498389
253	0xbcdba1b4	-0.026810504
254	0xbccdd9e7	-0.025128318
255	0x3d88c3c5	0.06677965

action_model._continuous_distribution.log_sigma f4 [1, 2]
0	0xbf3ba2e3	-0.7329542
1	0xbf33e4c6	-0.70270956

action_model._continuous_distribution.mu.weight f4 [2, 256]
0	0xbd112907	-0.035439517
1	0x3c22e3d0	0.00994201
2	0x3dff33b6	0.12461035
3	0x3dbda587	0.092600875
4	0x3c830062	0.015991393
5	0xbdb96cc2	-0.09053947
6	0xbe0a223f	-0.13489626
7	0x3da18f65	0.078886785
8	0xbdb0cf82	-0.08633329
9	0xbe22ae2d	-0.15886755
10	0xbd2e0b0d	-0.042491008
11	0x3c8d47c7	0.01724614
12	0xbc9b585b	-0.01896303
13	0xbbd9451c	-0.006630553
14	0xbd07edae	-0.033185653
15	0xbc83c6b9	-0.01608597
16	0xbd5641b3	-0.05230875
17	0x3d0da7a3	0.0345837
18	0x3d76afa7	0.06022611
19	0xbcdf8c73	-0.027288651
20	0x3d4cb555	0.04997762
21	0xbd3f3d11	-0.046689097
22	0xbc261204	-0.010136131
23	0xbd118ad6	-0.035532795
24	0x3c777980	0.015104651
25	0xbcbcbc75	-0.023039082
26	0xbd57f9d5	-0.052728493
27	0x3c9243d5	0.01785461
28	0xbe0cbc6f	-0.13743757
29	0x3d5afbd5	0.053462822
30	0x3bb922fc	0.0056499224
31	0x3b235089	0.002491983
32	0xbe0f6487	-0.14003192
33	0xbd2b2671	-0.041784707
34	0xbdfbf5fb	-0.123027764
35	0x3c2a317c	0.010387775
36	0x3c98b37e	0.018640276
37	0xbd763870	-0.060112417
38	0xbda3efe9	-0.080047436
39	0x3cdd6e49	0.027030127
40	0x3ce3df7c	0.027816527
41	0x3d1fd0bd	0.039017428
42	0xbcb0997e	-0.021557566
43	0x3d4eba69	0.050470743
44	0x3bcd9ecb	0.006275033
45	0xbdbe3014	-0.09286514
46	0x3c9b3242	0.018944863
47	0xbd575a08	-0.052576095
48	0xbbd1f7ad	-0.006407699
49	0xbd2ed33e	-0.042681925
50	0x3b6139bd	0.003436669
51	0x3cd6e3b6	0.026231628
52	0xbc5a7477	-0.013333431
53	0xbb7cc538	-0.00385697
54	0x3c75cfea	0.015003184
55	0xbdf73241	-0.12070132
56	0x3d8ffd9e	0.070307955
57	0x3d14c865	0.036323924
58	0xbd9e5ea1	-0.07732893
59	0x3ceb922e	0.028756227
60	0xbd519fed	-0.051177908
61	0xbdc9e283	-0.09857657
62	0x3cf3dab0	0.029767364
63	0xbd3d743a	-0.04625342
64	0xbdef7b8c	-0.116934866
65	0xbdb27b7f	-0.08714961
66	0x3da23862	0.079209104
67	0xbdfaa4e8	-0.122384846
68	0x3bf75e8c	0.0075491127
69	0xbb047a7f	-0.0020214615
70	0xbcc4290e	-0.023945358
71	0xbd5c0d0a	-0.053723373
72	0xbe1c7553	-0.1527913
73	0x3cd06147	0.02543701
74	0x3d8b8ab8	0.06813568
75	0xbc269b51	-0.010168866
76	0x3c9764c0	0.018480659
77	0xbab0e720	-0.0013496615
78	0x3ce1ceb2	0.02756438
79	0xbe136fbf	-0.14398097
80	0x3c846793	0.01616267
81	0x3c48b00d	0.012249005
82	0xbdd0e227	-0.10199385
83	0x3d70e855	0.05881532
84	0xbc8544b4	-0.016268112
85	0x3caf8c27	0.021429135
86	0xbdb34bbe	-0.08754681
87	0x39374cf4	0.00017480907
88	0x3c7bbc6f	0.01536475
89	0x3c7288f4	0.01480316
90	0xbc995fad	-0.01872238
91	0xb9854a87	-0.00025423264
92	0x3db40013	0.08789077
93	0x3d5daafd	0.054118145
94	0xbc5231c5	-0.012829249
95	0x3bee20ad	0.007267079
96	0x3d0a1fac	0.03372161
97	0xbd06d88f	-0.03292137
98	0xbd0af9ff	-0.03392982
99	0xbd4410e5	-0.047867674
100	0xbceeaf5f	-0.029136358
101	0x3d0b8ec8	0.034071714
102	0x3d03a9ae	0.03214424
103	0x3d7565b2	0.059911437
104	0x3cba1364	0.022714324
105	0x3bd6ed67	0.0065590623
106	0xbe3327f7	-0.17495714
107	0xbd2696ab	-0.040671032
108	0xbd269df2	-0.040677972
109	0x3d3ca94f	0.046059903
110	0xbd94bfa5	-0.07263116
111	0xbe15e9b9	-0.1463994
112	0xbdae6ad5	-0.0851647
113	0x3ceb3dd8	0.028716013
114	0xbd89a525	-0.06720952
115	0xbc1d3a30	-0.0095963925
116	0xbdbf23d5	-0.09333006
117	0xbdedd75f	-0.116133444
118	0xbd0ff87c	-0.035149083
119	0x3cafe23f	0.021470187
120	0x3d350cfc	0.044201836
121	0xbdac45a3	-0.0841172
122	0x3d76d1ce	0.06025868
123	0xbd4ff891	-0.05077416
124	0x38933fdb	7.0214e-05
125	0xbdee4387	-0.116339736
126	0xbc83ab88	-0.016073003
127	0x3bc2278a	0.0059251236
128	0x3d3f0280	0.046633244
129	0xbd656a66	-0.056009673
130	0xbd58f50c	-0.05296807
131	0x3c65ca8b	0.014025341
132	0xbe1ef0f4	-0.15521604
133	0xbcc8c389	-0.0245073
134	0x3c66dbdf	0.014090507
135	0x3c4db3f2	0.012555109
136	0xbe0a284e	-0.13491938
137	0xbda3a302	-0.07990076
138	0xbdba0c6c	-0.090844005
139	0x3c8f13f5	0.017465571
140	0xbd5d9a42	-0.05410219
141	0x3cdd7e54	0.027037777
142	0xbe14e6b4	-0.14541131
143	0x3bed1363	0.007234977
144	0xbda796c8	-0.08183056
145	0xbd316ac7	-0.04331472
146	0x3d83a7ec	0.06428513
147	0x3afbdeb6	0.0019216153
148	0xbbcb6aa8	-0.006207783
149	0xbcd6c32f	-0.026216118
150	0x3d8cd336	0.06876223
151	0xbd254b85	-0.040355224
152	0xbc1108ea	-0.008852223
153	0x3d30d4e5	0.043171782
154	0x3d313c2e	0.043270282
155	0x3c57e590	0.013177291
156	0x3d8c6c5d	0.06856606
157	0xbb8b2e0f	-0.004247434
158	0x3bcea7b5	0.0063066133
159	0x3cff39df	0.031155525
160	0x3c76ddb8	0.01506751
161	0x3ccf67d7	0.02531807
162	0x3d0af85b	0.033928256
163	0xbb6bb96a	-0.003596867
164	0xbe1133ab	-0.14179866
165	0x3d5812fa	0.052752472
166	0x39daeafe	0.00041755283
167	0xbd68c396	-0.05682715
168	0xbddddb69	-0.10832865
169	0xbce5292b	-0.027973732
170	0xbb1c5d51	-0.0023859332
171	0x3d78952a	0.06068913
172	0x3d9bf999	0.07615966
173	0x3d8a9185	0.06766037
174	0x3cb43f3b	0.022002807
175	0x3d269b4a	0.04067544
176	0xbd7f2980	-0.062295437
177	0xbd1784ee	-0.036992006
178	0xbdbc1f78	-0.0918569
179	0xbd697efc	-0.057005867
180	0xbdb08756	-0.08619563
181	0xbde4a680	-0.1116457
182	0x3cf0c3b4	0.029390194
183	0x3d7dffb7	0.062011447
184	0x3b9a2c6d	0.004705003
185	0xbc8afcb6	-0.016966205
186	0xbd7d7f5d	-0.06188904
187	0x3d0a4399	0.033755872
188	0x3db1916b	0.086703144
189	0xbcb4e8fb	-0.02208375
190	0x3e0543ef	0.13014196
191	0xbe168129	-0.14697708
192	0xbbaa0c9c	-0.0051894914
193	0xbc2d6236	-0.010582497
194	0xbdacb870	-0.08433616
195	0xbdce30d2	-0.100679055
196	0xb9e088ba	-0.0004282648
197	0x3da5f2f0	0.08102977
198	0xbb21d227	-0.002469191
199	0x3c7eeb1c	0.015558984
200	0xbd781013	-0.060562205
201	0xbd892f35	-0.06698457
202	0x3d1b08fb	0.03785036
203	0xbd156b05	-0.036479015
204	0xbdc3dfda	-0.09564181
205	0xbe17eada	-0.14835683
206	0xbd819f7c	-0.06329247
207	0x3d34d81d	0.044151414
208	0xbc604636	-0.013688615
209	0xbdb2b90b	-0.087267004
210	0x3c4b7d23	0.012419972
211	0xbcc49797	-0.023998065
212	0x3c8c401c	0.017120413
213	0xbd7f9d6a	-0.06240598
214	0xbd03e9c5	-0.032205362
215	0xbb24f165	-0.0025168296
216	0xba41403f	-0.0007371939
217	0xbd79b7d7	-0.06096634
218	0xbddf31de	-0.10898183
219	0x3d772743	0.060340177
220	0xbd049ebf	-0.032377955
221	0xbc692a69	-0.014231303
222	0x3d348aef	0.04407781
223	0xbaca8f4e	-0.0015454085
224	0x3d05cbbf	0.03266501
225	0xbd4e8512	-0.050419874
226	0xbce390e8	-0.027779058
227	0xbae8a7df	-0.0017750225
228	0x3b464ab1	0.0030256922
229	0xbd9aefb8	-0.07565254
230	0x3d087c44	0.033321634
231	0x3c51bd07	0.012801415
232	0x3d3cd49d	0.0461012
233	0x3d014bfd	0.03156661
234	0xbd059f3a	-0.032622553
235	0x3d3a912a	0.045548595
236	0x3be2765d	0.0069110827
237	0xbd9df118	-0.077120006
238	0xbce684e6	-0.028139543
239	0x3d401cd2	0.046902485
240	0x3d052d4b	0.032513898
241	0x3b706bb1	0.0036685283
242	0xbd1e0ca4	-0.038586274
243	0x3d68ec24	0.056865826
244	0x3c16f3f4	0.009213436
245	0x3c1ada3a	0.009451443
246	0x3b5671ad	0.0032721565
247	0xbe1d293b	-0.1534776
248	0xbdafae8c	-0.08578214
249	0xbd4dabbb	-0.050212603
250	0xbe0273e7	-0.12739526
251	0xbd036350	-0.032077134
252	0xbd00a2e3	-0.03140534
253	0xbb56e1ac	-0.003278832
254	0xbde385e1	-0.1110952
255	0x3d319394	0.043353632

action_model._continuous_distribution.mu.bias f4 [2]
0	0x3d750b4e	0.059825234
1	0x3c2991f1	0.010349737

action_model._discrete_distribution.branches.0.weight f4 [2, 256]
0	0xbc8c6927	-0.017139984
1	0xbcaadcd5	-0.020857254
2	0xbcab84a6	-0.020937275
3	0xbe134c44	-0.14384562
4	0x3d1a1999	0.037622068
5	0x3e29e28a	0.16590324
6	0x3d3200e7	0.04345789
7	0xbe1a6fae	-0.15081665
8	0x3c959da4	0.018263645
9	0x3d94f867	0.072739415
10	0x3d0b1050	0.033951104
11	0x3d8dfb78	0.069327295
12	0xbd87302e	-0.066009864
13	0x3e273dfe	0.16332242
14	0x3d60d003	0.054885875
15	0xba50df59	-0.00079678517
16	0x3c8ce130	0.017197222
17	0xbe333b3a	-0.17503062
18	0x3d811d1d	0.06304381
19	0xbde17a9a	-0.110097125
20	0x3970e91f	0.00022975028
21	0x3ce7cd73	0.028296208
22	0x3d0e94dd	0.034809936
23	0x3d626abb	0.055277567
24	0x3d351a37	0.044214454
25	0x3d0d9309	0.03456405
26	0x3d4de3c5	0.050266046
27	0x3ce18061	0.027527036
28	0x3d30ac23	0.043132912
29	0xbe62d5ed	-0.22151919
30	0xbd15182a	-0.036399998
31	0x3ca6d5a0	0.020365536
32	0x3ca99bab	0.020704111
33	0x3dc442b6	0.095830366
34	0x3d76374f	0.06011134
35	0xbd0f7e7b	-0.03503273
36	0x3d9a7ab4	0.07542935
37	0x3c11ca73	0.008898365
38	0xbd99ba7e	-0.07506274
39	0x3d4c6883	0.049904358
40	0xbd19161f	-0.037374612
41	0x3c89e4df	0.016832767
42	0xbd6e9a43	-0.058252584
43	0x3cb6ebca	0.02232923
44	0x3ce8af3c	0.02840387
45	0xbd87cbd0	-0.06630671
46	0xbe15e3bc	-0.14637655
47	0x3ca00940	0.01953566
48	0x3d098198	0.033570856
49	0x3d93d20b	0.07217797
50	0xbd9f4fcf	-0.07778894
51	0x3d07097e	0.032968037
52	0x3d2443f5	0.04010387
53	0x3dcacd52	0.09902443
54	0xbc9de357	-0.019273443
55	0x3c1c0486	0.009522563
56	0xbe583311	-0.2111323
57	0xbcff650d	-0.031176114
58	0x3d8dff92	0.06933512
59	0x3d98a908	0.07454115
60	0x3d4994cc	0.04921417
61	0xbd791668	-0.060812384
62	0xbdfbfdf8	-0.123043
63	0xbda5e478	-0.081002176
64	0x3da12264	0.078678876
65	0x3db68922	0.08912875
66	0xbc8da81d	-0.017292077
67	0x3e011289	0.12604727
68	0xbcddebd4	-0.02708999
69	0xbc96b3e9	-0.018396335
70	0x3d047268	0.03233567
71	0x3dede395	0.116156735
72	0xbcdcaa64	-0.026936717
73	0xbe554083	-0.2082539
74	0x3cb47a6a	0.022031028
75	0x3d2ac69c	0.041693315
76	0x3d1d5070	0.03840679
77	0xbd0a9c66	-0.03384056
78	0x3d1a3be3	0.03765477
79	0x3d7b8fcb	0.06141643
80	0xbe31dca0	-0.17369318
81	0x3dd66d58	0.104700744
82	0x3d447a33	0.0479681
83	0xbe325234	-0.1741417
84	0xbd1918ba	-0.037377097
85	0xbdc3db1e	-0.09563278
86	0xbc97201f	-0.018447934
87	0x3ca4c32b	0.020112595
88	0xbe09e2ed	-0.13465472
89	0x3e05dc18	0.1307224
90	0xbc85b6c2	-0.016322497
91	0xbe3ea8aa	-0.18619028
92	0xbc98cb49	-0.018651621
93	0x3bcfdca8	0.006343443
94	0x3cbf9220	0.023385108
95	0x3d78f25d	0.06077801
96	0x3b712e14	0.0036801146
97	0x3d7e9161	0.062150363
98	0x3dcde507	0.10053449
99	0x3d21f5fc	0.03954123
100	0x3ca3bda8	0.019987896
101	0x3cc8db76	0.02451871
102	0x3da62120	0.08111787
103	0xbe539df6	-0.20665726
104	0xbd083b0b	-0.033259433
105	0xbd5e19c9	-0.05422381
106	0x3df8f94c	0.121569246
107	0x3cae47c8	0.021274462
108	0xbdb2f34a	-0.0873781
109	0x3c8997ba	0.016795982
110	0x3be0aeed	0.0068567903
111	0x3e11aba7	0.14225636
112	0x3d08aa3f	0.033365484
113	0x3aae2e6e	0.0013288984
114	0x3c3f29be	0.011667667
115	0xbd88e37e	-0.06684016
116	0x3c395704	0.01131225
117	0x3db7bcc1	0.08971549
118	0xbd5bbea1	-0.053648595
119	0xbe105c99	-0.14097823
120	0x3d35de01	0.044401173
121	0x3da1a353	0.0789248
122	0x3d1b9697	0.03798541
123	0x3cd7f2b2	0.026360843
124	0x3d0b25ca	0.033971585
125	0xbd013fb4	-0.031554893
126	0xbc446ef3	-0.011989343
127	0xbd2cae59	-0.04215846
128	0xbe09cc34	-0.13456804
129	0x3d4fe5ee	0.050756387
130	0x3d72558e	0.059163623
131	0x3c81c016	0.015838664
132	0x3e15c286	0.14624986
133	0x3c8ab6be	0.016932841
134	0xba0eb88f	-0.00054443715
135	0x3dc98fb8	0.09841865
136	0x3dc22302	0.094793335
137	0x3e0a858f	0.13527511
138	0xbd7b6523	-0.06137575
139	0x3c410da0	0.011783034
140	0x3dad3ed6	0.08459251
141	0x3d41c9bf	0.04731154
142	0x3d43723e	0.04771637
143	0xbd426c9a	-0.04746685
144	0xbbfe6d8b	-0.0077645234
145	0x3d157091	0.036484305
146	0x3d75261f	0.05985081
147	0xbd257c33	-0.04040165
148	0x3d270ed7	0.040785637
149	0x3a726ac5	0.0009247477
150	0x3ca89c87	0.02058245
151	0x3d25a9b0	0.04044503
152	0xbd4874d7	-0.048939552
153	0xbe100e46	-0.14067945
154	0xbe0ab858	-0.13546884
155	0xbe405d4f	-0.18785594
156	0xbe2094e7	-0.15681802
157	0xbdfc032e	-0.12305294
158	0xbd8fbbff	-0.07018279
159	0xbe2c820f	-0.16846488
160	0xbd8b53b0	-0.068030715
161	0x3d5c14fd	0.053730953
162	0x3d1448e3	0.036202323
163	0xbe0103fa	-0.12599173
164	0x3dc8c101	0.098024376
165	0xbd8f08eb	-0.06984123
166	0xbbe087a2	-0.006852106
167	0x3d4f37bc	0.05059026
168	0x3d42fd21	0.047604684
169	0x3c807605	0.015681276
170	0xbd3c6963	-0.045998942
171	0x3c826fed	0.015922511
172	0x3c2e9beb	0.010657291
173	0x3d09d39f	0.033649083
174	0xbd2e3703	-0.042532932
175	0x3d957766	0.07298164
176	0x3cd022d7	0.025407238
177	0x3db742fc	0.08948323
178	0x3df9fb81	0.12206174
179	0x3d94fd22	0.07274844
180	0xbdd355b0	-0.10319078
181	0xbd9d8761	-0.07691837
182	0x3d97bf3d	0.07409523
183	0x3d7f6d56	0.06236013
184	0x3c79dde0	0.015250653
185	0xbda5b498	-0.08091086
186	0x3db7cd23	0.089746736
187	0x3d3ad37b	0.04561184
188	0xbb618bca	-0.0034415596
189	0xbc60affa	-0.013713831
190	0xbca7e9b3	-0.020497179
191	0x3d7b4796	0.061347567
192	0xbb96364e	-0.0045841103
193	0xbe2c3bf0	-0.1681974
194	0x3da7dec2	0.081967846
195	0x3dbdfaa7	0.09276324
196	0xbd912f17	-0.0708906
197	0x3cb779d7	0.022396965
198	0xbd1d8d75	-0.038464982
199	0x3c852958	0.016255066
200	0xbcde0d6e	-0.027106013
201	0x3db040bc	0.08606097
202	0xbb033b6b	-0.002002443
203	0x3d7c026e	0.061525755
204	0xbdf2f5df	-0.118633024
205	0x3d127b46	0.035762094
206	0x3c692a66	0.0142313
207	0xbc4ece31	-0.012622402
208	0x3cdcb8d8	0.02694361
209	0x3df2a6e4	0.11848238
210	0x3da2abfd	0.079429604
211	0xbd216062	-0.03939856
212	0x3d16acf1	0.036786024
213	0x3c95320b	0.018212339
214	0x3d069ddd	0.032865394
215	0xbd25f815	-0.040519793
216	0x3e2a9ad0	0.16660619
217	0x3d481e8e	0.048857264
218	0x3d0d7a69	0.034540568
219	0xbe316794	-0.17324668
220	0x3cb050e8	0.021522954
221	0x3d945a41	0.07243777
222	0x3e05d37a	0.13068953
223	0x3d306562	0.043065436
224	0x3c948f6a	0.018134791
225	0xbd347ee8	-0.04406634
226	0x3d201c93	0.03908975
227	0x3d3d5ce0	0.04623115
228	0xbe0adccc	-0.1356079
229	0x3daf5f70	0.08563125
230	0xbdd3da69	-0.10344393
231	0x3da1a31d	0.078924395
232	0x3dc7d084	0.09756568
233	0x3e062c37	0.13102804
234	0x3e63cb0f	0.2224543
235	0xbc9e52c9	-0.019326584
236	0x3e758de6	0.23979911
237	0xbc5951d0	-0.0132641345
238	0x3ce901f4	0.028443314
239	0xbe1b12a9	-0.15143837
240	0x3da2f574	0.07956973
241	0x3dcd1a59	0.10014791
242	0xbb8f143b	-0.0043664253
243	0x3c8eb9a7	0.01742251
244	0xb96844ab	-0.00022150825
245	0xbd71c200	-0.059022903
246	0xbbd44dbc	-0.006478993
247	0x3d920fc9	0.07131917
248	0xbdf759c7	-0.120776705
249	0x3d3923a3	0.0452
250	0x3dce1609	0.100627966
251	0x3ccc65da	0.02495091
252	0x3dae29f8	0.08504099
253	0x3d07f3ee	0.033191614
254	0x3d2847fc	0.041084275
255	0xbe414aff	-0.18876265

action_model._discrete_distribution.branches.0.bias f4 [2]
0	0xbc5b92cb	-0.013401697
1	0x3c5b93a9	0.013401904
