Assets/Models/FinalLevelRayPerception/SwappedLearning/FinalSwappedChangedPropabilities.onnx (onnx, 464624 bytes, 14 tensors)

discrete_act_size_vector f4 [1, 3]
2.0 2.0 2.0
00000000: 0000 0040 0000 0040 0000 0040

network_body._body_endoder.seq_layers.0.weight f4 [256, 183]
0.14522894 0.08127329 -0.099660285 0.05606592 -0.040260635 -0.1020773 -0.1078049 0.04926092
0.060799357 -0.11396704 0.062194977 0.1358049 -0.07175267 -0.010418347 -0.059243318 -0.07685218
0.18279003 0.17651507 -0.32006758 0.29748723 -0.082035795 -0.048455354 -0.026612602 0.13357493
0.0032768594 -0.036475673 -0.087914 0.004008646 -0.15429601 0.041674152 0.01897469 -0.11883975
0.37870207 0.23407103 -0.30434465 0.13865659 0.04659923 0.074374005 -0.07512822 0.07182387
-0.21673141 -0.26934332 -0.14391609 0.09219174 -0.09842265 -0.064469986 0.1361619 0.02385784
0.24986933 -0.047882754 -0.14113861 0.3163533 0.018362809 0.13069803 -0.0873021 -0.026989156
-0.34076974 -0.2334082 -0.33576876 -0.0021227135 -0.09436986 -0.05843906 -0.001975247 0.009494517
0.29249218 0.17868854 0.04400829 0.110839546 0.09812408 0.08367525 -0.17852874 -0.034830946
-0.17912264 -0.37018546 -0.16857341 0.011115871 -0.109690234 -0.22239701 0.13551745 0.020091046
0.09946363 0.13005982 0.07264112 0.093104124 0.004591786 0.054334167 -0.16670977 0.013781417
-0.19196646 -0.31703126 -0.37839374 -0.034640927 0.019155214 -0.0994566 0.0693377 0.01923961
0.21188208 -0.32762545 0.04099118 -0.011475024 0.14262708 0.14117052 -0.28635135 -0.1747212
-0.099880815 -0.34996754 0.09944648 -0.0307353 -0.1361109 -0.017916985 0.110863745 -0.044038884
0.08013039 -0.14289382 -0.089433126 0.13462745 0.23745894 0.20022601 -0.09023078 0.070464455
-0.20050865 -0.121602006 -0.03766953 -0.11747298 -0.005296852 -0.06511382 0.119179614 0.023235265
-0.0856814 -0.09140709 0.10114614 -0.1424608 -0.033710852 -0.06363596 -0.057186686 -0.054953095
-0.0770559 0.07512153 -0.008439349 -0.38532767 0.09238838 -0.22670452 -0.03080444 0.19991523
-0.14318033 -0.009162249 0.053429585 -0.17774919 0.2616039 0.029798163 -0.11893665 0.03315795
-0.36338794 -0.10126784 0.06407279 -0.35101557 0.1217352 -0.063654654 0.03768716 0.10752049
0.10437694 0.08096916 0.1304861 -0.14577411 0.12663601 0.15115444 -0.05541003 -0.069961235
0.17954056 0.013774011 0.04830679 -0.1982412 -0.05309181 0.49439463 0.06630325 -0.0029664726
0.007838406 0.013026478 0.008733412 -0.1345886 0.07911357 -0.06334359 0.07356987 -0.050984357
-0.2082136 0.097765185 -0.091823235 0.20416288 0.049511034 -0.09442871 -0.3123985 -0.21120153
-0.28623182 0.037167057 -0.007729147 0.37642282 0.028447954 -0.030801916 -0.13058509 -0.2563481
-0.19726665 0.25412768 -0.2279153 0.23547304 0.022223245 0.00024335193 -0.2659452 -0.1568384
-0.13837531 0.1095686 0.027136996 0.159809 0.07862465 -0.13630518 -0.101232216 -0.49651605
-0.40550107 0.04862946 -0.049278103 0.19593 0.09690952 0.048462406 -0.1577931 -0.0083625
-0.1369215 -0.110239565 -0.27213868 0.24873371 0.1393951 -0.14159854 -0.08614688 -0.38382623
-0.33358917 0.17682278 -0.18214333 0.043423887 -0.050791815 0.11767865 -0.14776261 0.13532305
0.042238906 0.024121512 -0.13437569 0.031507708 0.008270901 -0.029917466 0.07453881 -0.25443676
-0.17872897 0.070291534 -0.099555254 0.0075590583 0.049071155 0.033038486 -0.08124562 -0.05794635
00000000: e5b6 143e 9c72 a63d b11a ccbd 61a5 653d
00000010: 56e8 24bd e70d d1bd d1c8 dcbd d2c5 493d
00000020: bf08 793d 8d67 e9bd 29c0 7e3d 7110 0b3e
00000030: 10f3 92bd b7b1 2abc 1fa9 72bd ad64 9dbd
00000040: 4f2d 3b3e 5ec0 343e e6df a3be 3f50 983e
00000050: 6202 a8bd 1f79 46bd ac02 dabc dec7 083e
00000060: 94c0 563b 8467 15bd 410c b4bd f65a 833b
00000070: c6ff 1dbe 84b2 2a3d cf70 9b3c 4162 f3bd
00000080: 3de5 c13e 51b0 6f3e 10d3 9bbe fefb 0d3e
00000090: d6de 3e3d 6651 983d d3dc 99bd 6518 933d
000000a0: d7ee 5dbe 5ee7 89be bd5e 13be 06cf bc3d
000000b0: d091 c9bd d708 84bd 066e 0b3e 8471 c33c
000000c0: bfdd 7f3e b520 44bd a486 10be 0ff9 a13e
000000d0: 9a6d 963c b4d5 053e 72cb b2bd 5d18 ddbc
000000e0: 5f79 aebe 8f02 6fbe e2e9 abbe 391d 0bbb
000000f0: fc44 c1bd cc5d 6fbd 2573 01bb e48e 1b3c
00000100: 89c1 953e 21fa 363e 0942 343d d8ff e23d
00000110: 47f5 c83d ee5d ab3d 3dd0 36be e5aa 0ebd
00000120: ed6b 37be f388 bdbe 829e 2cbe 581f 363c
00000130: 46a5 e0bd 0bbc 63be 16c5 0a3e fa95 a43c
00000140: 96b3 cb3d 672e 053e dec4 943d 60ad be3d
00000150: b176 963b 818d 5e3d f7b5 2abe 74cb 613c
00000160: db92 44be ec51 a2be d3bc c1be a5e3 0dbd
00000170: 65eb 9c3c e7af cbbd ed00 8e3d 639c 9d3c
00000180: 9ef7 583e 86be a7be 5ee6 273d bd01 3cbc
00000190: d50c 123e 018f 103e a59c 92be 1dea 32be
000001a0: 508e ccbd f22e b3be 99aa cb3d 99c8 fbbc
000001b0: a860 0bbe a4c6 92bc 880c e33d 1e62 34bd
000001c0: 671b a43d c252 12be b728 b7bd c7db 093e
000001d0: 7028 733e 0c08 4d3e eaca b8bd ab4f 903d
000001e0: 2452 4dbe 790a f9bd 5d4b 1abd ac95 f0bd
000001f0: 3791 adbb 655a 85bd 7114 f43d e257 be3c
00000200: bb79 afbd a433 bbbd b525 cf3d 3ee1 11be
00000210: 6414 0abd 9253 82bd 963c 6abd 7f16 61bd
00000220: 7ccf 9dbd 51d9 993d 3245 0abc ab49 c5be
00000230: 1e36 bd3d 3b25 68be 9859 fcbc 94b6 4c3e
00000240: dd9d 12be 421d 16bc fbd8 5a3d e203 36be
00000250: f2f0 853e 471b f43c 0f95 f3bd a1d0 073d
00000260: fc0d babe 8365 cfbd 9838 833d 50b8 b3be
00000270: 4e50 f93d 5f5d 82bd da5d 1a3d b433 dc3d
00000280: 94c3 d53d 29d3 a53d 269e 053e cf45 15be
00000290: dfac 013e 3bc8 1a3e a1f5 62bd d647 8fbd
000002a0: 7bd9 373e 64ac 613c 57dd 453d beff 4abe
000002b0: cc76 59bd 4b21 fd3e 00ca 873d 2769 42bb
000002c0: a86c 003c 026d 553c 9616 0f3c 98d1 09be
000002d0: 4c06 a23d 49ba 81bd cdab 963d f9d4 50bd
000002e0: f235 55be 1d39 c83d d20d bcbd 1310 513e
000002f0: 15cc 4a3d d763 c1bd b2f2 9fbe 3745 58be
00000300: fa8c 92be 7c3c 183d c944 fdbb 7eba c03e
00000310: af0b e93c 4d54 fcbc 19b8 05be 0f40 83be
00000320: 4500 4abe 061d 823e a162 69be d81f 713e
00000330: 860d b63c 492c 7f39 f829 88be 3f9a 20be
00000340: 42b2 0dbe 8165 e03d 684e de3c f8a4 233e
00000350: f605 a13d 9693 0bbe d652 cfbd 5a37 febe
00000360: d69d cfbe af2f 473d d6d7 49bd e0a1 483e
00000370: 8078 c63d 8480 463d 8494 21be de02 09bc
00000380: 2635 0cbe 48c5 e1bd c355 8bbe 0db4 7e3e
00000390: 97bd 0e3e 35ff 10be c76d b0bd df84 c4be
000003a0: 33cc aabe 0811 353e c883 3abe 3fdd 313d
000003b0: 140b 50bd 8101 f13d 154f 17be 2092 0a3e
000003c0: b402 2d3d 7a9a c53c c899 09be 3a0e 013d
000003d0: ac82 073c 7915 f5bc cea7 983d 8945 82be
000003e0: ba04 37be 02f5 8f3d a0e3 cbbd fab1 f73b
000003f0: d6fe 483d 5d53 073d 1b64 a6bd 2759 6dbd

network_body._body_endoder.seq_layers.0.bias f4 [256]
0.018051337 -0.035334773 -0.017043075 -0.016114082 -0.037863567 -0.017202666 -0.015363294 -0.0792899
-0.03597408 0.004387426 0.004501093 -0.018643854 0.04026637 -0.06245046 -0.03583319 -0.01398266
0.022593869 -0.059961896 0.017499417 0.05149312 -0.034863353 0.01335581 -0.05363804 -0.014751597
0.05099884 -0.0749405 0.008948837 0.029341485 -0.012482178 0.047996033 -0.004723828 -0.024127731
0.027420437 -0.008031483 -0.001311946 -0.0050380128 -0.063087605 -0.006168876 0.021214291 0.050660517
0.050688975 0.04309171 -0.016369905 -0.046796773 0.041423433 0.023077749 0.07324205 0.012404467
-0.017909849 0.00043982052 -0.019098116 -0.031559184 0.02939457 0.031607874 -0.016930744 0.046283618
0.022100344 0.040623583 0.03481899 -0.031573657 0.019090347 -0.06688727 -0.097384855 0.025507346
-0.031349882 -0.0133037595 0.059242398 0.01611456 -0.0020182382 0.032772068 -0.040506072 -0.0053596874
-0.018731914 0.040772203 -0.024266036 0.0024766144 -0.03540082 0.0020902234 0.03619908 -0.04171895
-0.047323998 0.055261265 -0.012397483 -0.029679738 0.006200555 0.004823369 -0.008709554 -0.019642644
-0.081953324 -0.00046965881 0.059820186 0.013385599 -0.08053034 0.00013789616 -0.004022025 -0.01781063
-0.017836357 -0.008781713 0.009741738 -0.02487049 0.0038171245 0.03263083 -0.007627624 -0.024036886
0.019345623 -0.021633413 0.015460948 0.04558369 -0.02304465 -0.08892532 0.061153274 -0.011840035
-0.056945395 -0.03581942 0.021824999 0.009959558 0.0088658305 -0.0032937196 -0.058273144 0.02461647
-0.006539669 -0.013537696 -0.0318088 -0.014837318 -0.005283716 0.01307139 -0.010538052 -0.030199822
0.055227395 -0.03445171 -0.006465194 -0.009875983 -0.0092443 -0.010716836 -0.038868587 0.034712825
0.03279895 -0.05952294 -0.009052521 -0.034949463 0.027680526 -0.032429 -0.010221189 -0.06570578
-0.016119154 -0.004060617 0.027335806 0.027162516 0.0238055 0.033040654 0.00025625754 -0.16414872
0.024701359 0.017188864 -0.026668096 -0.0007880338 -0.004468392 -0.06579606 0.054835103 0.046579204
0.020112397 -0.016368313 -0.16299093 0.016396465 -0.08351336 0.0024794075 -0.025689505 0.023463434
-0.010727323 -0.07291047 0.016045196 0.04499499 -0.11881678 -0.010491863 -0.040933836 -0.014007766
0.006539597 0.00075501896 -0.022818435 -0.01872409 -0.031225964 0.0029891003 -0.055569652 -0.0024650109
0.027957631 0.028193478 -0.016147824 0.0059726406 5.4416978e-05 -0.028167536 -0.0098733995 -0.01013097
0.03521726 0.052863512 -0.027533997 0.023824742 0.010552992 -0.011070475 0.016481925 0.02341207
-0.05528988 -0.04615384 -0.0026323332 -0.012221461 0.03160476 -0.065184206 -0.06939629 0.018250939
0.038585853 -0.005643965 0.007823882 0.059832137 -0.022970103 0.008242293 0.031323906 -0.0518519
-0.016501963 -0.007985924 0.021596253 0.012935715 -0.026809698 -0.027461158 0.015294711 -0.015361989
-0.0068627195 -0.05382147 -0.031946298 -0.046819475 -0.0018762317 -0.0041220356 -0.048194863 -0.02931554
0.02584704 -0.029462274 0.042304575 -0.03041283 -0.01198146 0.05166692 0.033951625 0.0025755588
0.024338162 -0.021286504 0.0023185094 -0.055877384 -0.002154941 0.029524833 -0.030401487 -0.02875468
0.026288344 0.028853238 -0.04957083 0.018936947 0.027429314 -0.0022792055 0.052631497 -0.00024944413
00000000: 66e0 933c 32bb 10bd eb9d 8bbc ae01 84bc
00000010: d416 1bbd 9bec 8cbc 53b6 7bbc be62 a2bd
00000020: 8f59 13bd 66c4 8f3b e87d 933b ffba 98bc
00000030: 59ee 243d 0ecc 7fbd d3c5 12bd 8717 65bc
00000040: c716 b93c 9b9a 75bd f05a 8f3c 73ea 523d
00000050: e0cc 0ebd 54d2 5a3c 90b3 5bbd afb0 71bc
00000060: 29e4 503d 687a 99bd 259e 123c 8e5d f03c
00000070: 0d82 4cbc 7d97 443d 57ca 9abb 85a7 c5bc
00000080: d3a0 e03c 7b96 03bc 9af5 abba ea15 a5bb
00000090: 1334 81bd 4824 cabb 98c9 ad3c 6781 4f3d
000000a0: 3e9f 4f3d ef80 303d 2e1a 86bc f9ad 3fbd
000000b0: 9eab 293d 8c0d bd3c eeff 953d 1b3c 4b3c
000000c0: adb7 92bc b697 e639 a773 9cbc 3444 01bd
000000d0: e2cc f03c 4277 013d 58b2 8abc e493 3d3d
000000e0: c80b b53c ea64 263d 5b9e 0e3d 6153 01bd
000000f0: 5c63 9c3c 31fc 88bd b671 c7bd c8f4 d03c
00000100: bc68 00bd 03f8 59bc 28a8 723d af02 843c
00000110: 6b44 04bb 013c 063d b2e9 25bd 51a0 afbb
00000120: ac73 99bc c100 273d 91c9 c6bc b24e 223b
00000130: 7300 11bd 21fc 083b 7d45 143d 7de1 2abd
00000140: cfd6 41bd a359 623d d01e 4bbc ec22 f3bc
00000150: 062e cb3b 5a0d 9e3b 84b2 0ebc 9ce9 a0bc
00000160: 25d7 a7bd 8a3c f6b9 0306 753d 454f 5b3c
00000170: 17ed a4bd 3898 1039 31cb 83bb 99e7 91bc
00000180: 8d1d 92bc 2de1 0fbc d09b 1f3c 33bd cbbc
00000190: b928 7a3b e8a7 053d 26f1 f9bb 01e9 c4bc
000001a0: b67a 9e3c 8e38 b1bc eb4f 7d3c f7b5 3a3d
000001b0: 22c8 bcbc 7a1e b6bd db7b 7a3d b5fc 41bc
000001c0: 933f 69bd 62b7 12bd 57ca b23c 6a2d 233c
000001d0: fd41 113c 72db 57bb d2af 6ebd 7ba8 c93c
000001e0: b84a d6bb 36cd 5dbc f249 02bd 3918 73bc
000001f0: 0623 adbb 6229 563c cba7 2cbc 9e65 f7bc
00000200: 1f36 623d 3c1d 0dbd fad9 d3bb e0ce 21bc
00000210: 6875 17bc ab95 2fbc ab34 1fbd 092f 0e3d
00000220: 3158 063d 54ce 73bd 0651 14bc 2b27 0fbd
00000230: 45c2 e23c 45d4 04bd c676 27bc c190 86bd
00000240: 510c 84bc ed0e 85bb 57ef df3c ed83 de3c
00000250: c003 c33c a355 073d 4e5a 8639 9a16 28be
00000260: 815a ca3c a9cf 8c3c 0d77 dabc 0e94 4eba
00000270: 976b 92bb 16c0 86bd c69a 603d d6c9 3e3d
00000280: c1c2 a43c d716 86bc 18e7 26be e151 863c
00000290: 0d09 abbd 8e7d 223b cc72 d2bc 6336 c03c
000002a0: a7c1 2fbc 1652 95bd 3771 833c ab4c 383d
000002b0: 3656 f3bd 10e6 2bbc 3daa 27bd d480 65bc
000002c0: 1e4a d63b 77ec 453a baed babc 4363 99bc
000002d0: 98cd ffbc c8e4 433b 019d 63bd 058c 21bb
000002e0: 6707 e53c 02f6 e63c 7148 84bc 24b6 c33b
000002f0: c93d 6438 9bbf e6bc 0ac4 21bc 5efc 25bc
00000300: f93f 103d 6987 583d fa8e e1bc 1b2c c33c
00000310: 75e6 2c3c f060 35bc 1a05 873c abca bf3c
00000320: a477 62bd cf0b 3dbd 3983 2cbb 863c 48bc
00000330: fe73 013d 4c7f 85bd a41f 8ebd fe82 953c
00000340: 330c 1e3d 03f1 b8bb bd2f 003c 8b12 753d
00000350: cc2b bcbc af0a 073c 7f4d 003d a862 54bd
00000360: 202f 87bc 65d7 02bc a0ea b03c 52f0 533c
00000370: 03a0 dbbc 39f6 e0bc ab96 7a3c dab0 7bbc
00000380: aae0 e0bb e773 5cbd 1fda 02bd c7c5 3fbd
00000390: e4eb f5ba 2412 87bb fa67 45bd 2527 f0bc
000003a0: 2cbd d33c de5a f1bc 9047 2d3d 5424 f9bc
000003b0: e34d 44bc b1a0 533d dc10 0b3d b5ca 283b
000003c0: d360 c73c 0961 aebc 22f2 173b afdf 64bd
000003d0: e939 0dbb 10de f13c 8a0c f9bc ef8e ebbc
000003e0: a75a d73c a05d ec3c c80a 4bbd a821 9b3c
000003f0: 71b3 e03c b95e 15bb 2094 573d d3c7 82b9

network_body._body_endoder.seq_layers.2.weight f4 [256, 256]
-0.024098378 -0.038992174 0.08278532 -0.13470237 -0.06440282 -0.05594701 0.12876366 0.061465118
-0.15928149 0.21856387 -0.06375281 -0.082739316 -0.010686947 -0.022807172 0.024382671 0.19599158
-0.11510429 -0.100344695 0.026097363 0.020083299 0.07258204 -0.19324286 -0.006799397 -0.105807126
-0.050094955 -0.021698404 0.015373424 0.012367442 -0.08407219 -0.09375301 -0.0037590305 0.15905865
-0.16890208 -0.11633977 -0.06724791 0.019222306 -0.07402905 -0.032948308 -0.019455828 -0.23459285
0.09764718 -0.049292736 -0.030599529 -0.07347076 0.088951066 -0.059558854 0.085846215 -0.082614094
-0.1291232 0.24790995 0.053534865 -0.08099221 0.07225532 -0.11925689 0.021984585 0.10260351
0.17052026 0.07478016 0.050385136 0.13884637 -0.002932815 0.12703036 -0.15859544 -0.027581342
0.103081554 0.13496715 0.0139413 -0.083296046 -0.11188713 0.13331372 0.15876755 -0.1265532
-0.132422 0.015423649 -0.009155699 -0.21645415 -0.07851031 -0.061802145 -0.0015647913 0.088161625
-0.046956632 0.061357085 0.12540144 0.2193222 -0.017474705 0.1140839 -0.012339927 -0.05091132
-0.19862987 0.12554522 0.10187206 0.15318124 -0.069758855 -0.050883193 0.15688774 -0.13290755
-0.04385718 -0.10544907 0.018066078 0.01173146 -0.18954228 0.09319436 0.035487957 0.03950821
-0.031745777 -0.11207648 -0.11460218 -0.15329978 0.04913008 -0.10070416 -0.16902128 0.17009509
0.077849016 0.12803145 0.17091864 0.11612128 0.010758606 0.16895595 0.05416431 -0.058044128
0.11487323 0.12586461 -0.36421347 0.21479115 -0.15848151 0.13732363 -0.005477602 -0.0435042
0.14926793 0.088120066 -0.21698725 -0.23154983 -0.06327548 0.09779686 0.09755198 0.19248566
-0.026486803 -0.13986593 0.096707985 -0.24734704 -0.12903683 -0.051948283 0.10256623 -0.076420784
-0.15259323 -0.05878006 -0.013200874 0.094215855 -0.18417677 -0.067350976 0.06670724 -0.008057757
-0.18828017 -0.049715314 -0.06091038 -0.0037982992 0.0009875817 -0.08021426 0.071270205 0.113146685
-0.11947943 -0.09282622 -0.028760478 -0.17836398 -0.098357596 -0.049813405 0.39894807 -0.1766159
-0.07055708 -0.09827628 0.2410127 -0.17135422 0.07367413 -0.011041927 0.037910704 0.11471995
0.040932786 -0.11991846 -0.0969107 0.01347015 -0.15216413 0.037768617 0.06795125 -0.15840392
-0.19002397 -0.06779237 -0.013621269 0.07120957 -0.19431645 -0.1526703 -0.08587827 0.23256317
0.069182396 -0.016720708 0.054563124 -0.008742271 0.048128024 0.13555402 -0.052212413 -0.11804702
0.08042789 -0.15943685 0.08311346 0.02439547 0.12844093 -0.09915532 -0.005656286 -0.02543491
0.09681472 0.05159748 -0.08987193 -0.011999367 -0.0317874 -0.12479389 0.011987468 -0.2200897
-0.14018133 0.009484799 0.009471833 -0.12516445 -0.07512171 -0.10590761 0.06164388 0.12755215
-0.048135154 0.30008626 -0.028622841 0.099992394 0.13076138 -0.115013726 0.12597492 0.009915946
0.021977037 0.020478576 -0.10589893 0.10102444 0.164293 0.0061822217 0.12494257 0.2660699
0.060270306 0.07792622 -0.020071628 0.19915493 -0.05475185 -0.035163447 0.03911931 -0.07617597
0.022935387 -0.1278601 0.07837735 0.058722373 0.052538086 0.25201762 0.04807617 -0.091346994
00000000: f669 c5bc 42b6 1fbd 5a8b a93d 6bef 09be
00000010: a0e5 83bd b128 65bd 9fda 033e d9c2 7b3d
00000020: b01a 23be 35cf 5f3e d590 82bd 3b73 a9bd
00000030: 4e18 2fbc 1bd6 babc 2bbe c73c 04b2 483e
00000040: ccbb ebbd 8581 cdbd 23ca d53c bb85 a43c
00000050: e5a5 943d 75e1 45be 7acd debb 68b1 d8bd
00000060: 5e30 4dbd dac0 b1bc d0e0 7b3c d0a0 4a3c
00000070: 0a2e acbd 9401 c0bd 115a 76bb 45e0 223e
00000080: abf4 2cbe 8c43 eebd 46b9 89bd 1978 9d3c
00000090: 8b9c 97bd cef4 06bd d461 9fbc 1c39 70be
000000a0: 3ffb c73d 2ee7 49bd ddab fabc d677 96bd
000000b0: fa2b b63d fcf3 73bd 24d0 af3d 9431 a9bd
000000c0: df38 04be 1bdc 7d3e 6047 5b3d 3edf a5bd
000000d0: 99fa 933d f53c f4bd 0419 b43c ca21 d23d
000000e0: dd9c 2e3e 5726 993d a560 4e3d be2d 0e3e
000000f0: 7934 40bb 3f14 023e d866 22be 44f2 e1bc
00000100: 6c1c d33d d434 0a3e 0d6a 643c 1e97 aabd
00000110: 1425 e5bd 6483 083e f693 223e 2997 01be
00000120: a299 07be 79b3 7c3c c901 16bc 28a6 5dbe
00000130: 03ca a0bd 3f24 7dbd af19 cdba 158e b43d
00000140: 9955 40bd 9151 7b3d 3c69 003e 0096 603e
00000150: 1d27 8fbc d2a4 e93d 682d 4abc 6388 50bd
00000160: a165 4bbe ed8e 003e 4ca2 d03d 8bdb 1c3e
00000170: bbdd 8ebd e56a 50bd 2ea7 203e eb18 08be
00000180: 96a3 33bd aff5 d7bd 50ff 933c 4f35 403c
00000190: 5f17 42be afdc be3d d25b 113d 5cd3 213d
000001a0: dc07 02bd 5b88 e5bd 8cb4 eabd 9efa 1cbe
000001b0: 9f3c 493d fc3d cebd ea13 2dbe 682d 2e3e
000001c0: 4e6f 9f3d ad1a 033e 4c05 2f3e fed0 ed3d
000001d0: dd44 303c ca02 2d3e 65db 5d3d aebf 6dbd
000001e0: a842 eb3d a7e2 003e 307a babe 36f2 5b3e
000001f0: fa48 22be 919e 0c3e 757d b3bb 7631 32bd
00000200: b1d9 183e 4b78 b43d e831 5ebe 661b 6dbe
00000210: 9396 81bd b849 c83d 55c9 c73d f61a 453e
00000220: dafa d8bc 0439 0fbe d60e c63d 8b48 7dbe
00000230: 3b22 04be b9c7 54bd 3e0e d23d 8082 9cbd
00000240: 6641 1cbe 5cc3 70bd 7b48 58bc 3ef4 c03d
00000250: d698 3cbe 4fef 89bd ce9d 883d af04 04bc
00000260: 84cc 40be 49a2 4bbd 2a7d 79bd e3ec 78bb
00000270: be71 813a 6047 a4bd 1df6 913d 73b9 e73d
00000280: a2b1 f4bd ac1b bebd 189b ebbc 0ca5 36be
00000290: b56f c9bd 2409 4cbd ec42 cc3e ccda 34be
000002a0: 3b80 90bd 1345 c9bd 09cc 763e 7b77 2fbe
000002b0: 76e2 963d 33e9 34bc 4148 1b3d 4bf2 ea3d
000002c0: 23a9 273d cf97 f5bd 1e79 c6bd e7b1 5c3c
000002d0: ead0 1bbe 44b3 1a3d 062a 8b3d a334 22be
000002e0: a595 42be bad6 8abd be2b 5fbc 53d6 913d
000002f0: e4fa 46be 9a55 1cbe f2e0 afbd 0a25 6e3e
00000300: 80af 8d3d def9 88bc 957d 5f3d be3b 0fbc
00000310: e421 453d acce 0a3e afdc 55bd a3c2 f1bd
00000320: 61b7 a43d 6a43 23be 6437 aa3d 02d9 c73c
00000330: 0586 033e f211 cbbd 5e58 b9bb df5c d0bc
00000340: cc46 c63d e157 533d c60e b8bd fe98 44bc
00000350: 8133 02bd f093 ffbd 1667 443c 325f 61be
00000360: b28b 0fbe 2166 1b3c bf2f 1b3c 1c2b 00be
00000370: 69d9 99bd 17e6 d8bd 4b7e 7c3d 089d 023e
00000380: 5e29 45bd e8a4 993e 737a eabc d0c8 cc3d
00000390: 50e6 053e 518c ebbd 92ff 003e 7e76 223c
000003a0: 3009 b43c b0c2 a73c 8ae1 d8bd e7e5 ce3d
000003b0: 6d3c 283e 3c94 ca3b e4e1 ff3d 503a 883e
000003c0: ffdd 763d c897 9f3d 416d a4bc 45ef 4b3e
000003d0: 7a43 60bd 8c07 10bd 923b 203d 2602 9cbd
000003e0: fee2 bb3c c2ed 02be 4e84 a03d df86 703d
000003f0: 2d32 573d 7408 813e 85eb 443d 2214 bbbd

network_body._body_endoder.seq_layers.2.bias f4 [256]
-0.0675486 -0.03907389 -0.06390087 -0.08523716 -0.14024177 -0.0018914716 -0.07445952 -0.027342252
-0.16639914 -0.07072284 -0.06654939 -0.05963573 0.028539784 -0.034094136 -0.03368174 0.0696367
-0.11519072 -0.059035826 0.031444553 -0.06860328 -0.054637764 -0.11368347 0.006816527 -0.06802613
-0.03976037 0.009768985 -0.052617114 -0.040262137 -0.07531504 0.03373452 0.07984778 -0.043917708
0.04338661 -0.06480478 -0.0013984058 0.0021002686 -0.06089878 -0.13340417 -0.04401601 -0.08551368
-0.01199645 -0.0050416067 -0.08220775 -0.019914927 -0.010836102 -0.024847727 -0.067964725 -0.05445294
-0.08248621 -0.015851907 -0.11119008 -0.0057767355 -0.029455375 -0.013310591 -0.07959652 -0.018180149
-0.07450013 -0.07712852 -0.023067428 -0.08015836 -0.012525081 -0.024716219 -0.058159992 0.01011918
-0.092014804 -0.05906551 -0.054210074 -0.014880637 -0.060348745 -0.0087834485 -0.017359447 0.03958567
0.011037187 -0.07489817 -5.1042985e-05 -0.034809172 -0.016483717 0.01155319 -0.12605862 -0.077851094
-0.0271542 -0.05425101 -0.087397434 -0.03671019 -0.05653343 -0.117962085 -0.043044522 0.04350434
-0.036368076 0.02951218 0.0038487846 -0.068944775 -0.1109359 -0.124326006 -0.023404732 -0.08754816
-0.09828765 -0.0209709 -0.099016316 -0.09369421 -0.04866342 -0.005950583 0.004446282 -0.110189065
0.00014615752 0.044597473 -0.025192352 -0.048634116 0.15962924 -0.0867762 -0.03815343 0.040098906
-0.057194646 0.06121675 -0.075776845 -0.073249385 -0.1167908 -0.110998906 0.07526341 -0.039663825
0.050819665 -0.04694891 -0.06311103 -0.10784207 -0.040180225 -0.08160046 -0.0870437 -0.090065375
-0.05213371 -0.06645635 -0.016378213 0.1765405 -0.0025589967 -0.19463973 -0.0352931 -0.045749184
-0.044947453 -0.1413036 -0.038621135 -0.049983844 -0.004941047 0.042612497 -0.0734633 0.019042432
-0.04647575 -0.101820044 -0.03824889 -0.07203993 -0.07914369 -0.0324518 -0.021492222 0.03690122
0.0023155329 -0.035980657 0.021997798 -0.11813879 -0.1434399 -0.077222764 -0.05165332 -0.038915258
-0.026495917 0.024587784 0.06862148 -0.025492867 -0.028819896 -0.11930038 -0.0438411 -0.056437496
0.010407102 0.01815706 -0.0031873388 0.006725008 -0.08375101 -0.06986966 -0.038101032 -0.054919254
-0.09942639 -0.052638505 -0.013127929 -0.060011152 -0.0033252419 0.022922726 -0.029541397 0.007225209
0.06691311 -0.074073985 -0.11628089 -0.027310837 0.025731958 -0.12234275 0.005759296 -0.0561653
-0.10078081 -0.046418432 -0.02633924 -0.03728379 -0.07903248 -0.07227831 0.049828395 -0.011658887
-0.070609786 0.001532919 -0.081702866 -0.09126891 -0.058773644 -0.047371045 0.00672409 -0.024678687
-0.060934886 -0.0006165043 -0.056857888 -0.080118336 0.03496839 -0.023998199 -0.034780066 -0.09206313
-0.14181194 -0.085616276 0.039537933 -0.02116797 -0.121493995 -0.0914541 -0.024178945 -0.036320806
0.14066888 -0.09349035 -0.021404631 0.17337975 0.010081739 -0.06553197 -0.008047302 -0.0646458
0.11579318 -0.058841217 0.038438536 -0.0038879719 -0.026368508 0.02745378 -0.09302952 -0.12814726
-0.099491365 -0.033349372 -0.052357394 -0.08034763 0.022076644 -0.015484418 -0.08198734 -0.08647911
-0.06459608 -0.047664523 -0.11081218 -0.047385227 -0.04616821 -0.04456264 -0.08108175 -0.057597518
00000000: ec56 8abd f10b 20bd 76de 82bd d290 aebd
00000010: 8a9b 0fbe 41eb f7ba 3c7e 98bd dcfc dfbc
00000020: 8964 2abe 23d7 90bd 0c4b 88bd 9844 74bd
00000030: 44cc e93c 4ba6 0bbd ddf5 09bd b09d 8e3d
00000040: 1de9 ebbd 8dcf 71bd 01cc 003d e07f 8cbd
00000050: d9cb 5fbd e1d2 e8bd 2c5d df3b 4951 8bbd
00000060: c5db 22bd 180e 203c 0b85 57bd e9e9 24bd
00000070: c63e 9abd 352d 0a3d 3c87 a33d 0ee3 33bd
00000080: 28b6 313d 5eb8 84bd b64a b7ba a9a4 093b
00000090: 0071 79bd 1a9b 08be 224a 34bd cc21 afbd
000000a0: c28c 44bc 1034 a5bb 895c a8bd a124 a3bc
000000b0: e889 31bc 768d cbbc 1731 8bbd 0c0a 5fbd
000000c0: 88ee a8bd dcdb 81bc a0b7 e3bd c54a bdbb
000000d0: 664c f1bc aa14 5abc 8003 a3bd 89ee 94bc
000000e0: 8693 98bd 8ff5 9dbd e7f7 bcbc 112a a4bd
000000f0: ff35 4dbc ab79 cabc 2c39 6ebd ebca 253c
00000100: 4272 bcbd adee 71bd 620b 5ebd eacd 73bc
00000110: 3f30 77bd 74e8 0fbc 6635 8ebc 9524 223d
00000120: 51d5 343c 3664 99bd fd16 56b8 1094 0ebd
00000130: dc08 87bc 9749 3d3c 8315 01be 6570 9fbd
00000140: 7c72 debc 4f36 5ebd 6dfd b2bd 6d5d 16bd
00000150: 998f 67bd 1b96 f1bd 744f 30bd 9b31 323d
00000160: b1f6 14bd 87c3 f13c e43b 7c3b eb32 8dbd
00000170: 5c32 e3bd a29e febd 48bb bfbc 734c b3bd
00000180: 094b c9bd 2acb abbc 11c9 cabd c0e2 bfbd
00000190: 4b53 47bd 1cfd c2bb 1eb2 913b ceaa e1bd
000001a0: dc41 1939 d7ab 363d 3160 cebc 9134 47bd
000001b0: d975 233e b8b7 b1bd c546 1cbd c03e 243d
000001c0: ef44 6abd 6abe 7a3d e430 9bbd c603 96bd
000001d0: 0430 efbd 6553 e3bd b423 9a3d 8976 22bd
000001e0: 4828 503d 804d 40bd 5b40 81bd 4edc dcbd
000001f0: 0594 24bd 241e a7bd f843 b2bd 3274 b8bd
00000200: 288a 55bd 441a 88bd 9a2b 86bc 08c7 343e
00000210: d7b4 27bb a34f 47be 7f8f 10bd 7f63 3bbd
00000220: d21a 38bd e4b1 10be 3231 1ebd dcbb 4cbd
00000230: 82e8 a1bb 718a 2e3d ed73 96bd e0fe 9b3c
00000240: 5b5d 3ebd 0787 d0bd deaa 1cbd ac89 93bd
00000250: 1616 a2bd 2eec 04bd 7510 b0bc bc25 173d
00000260: 32c0 173b 7460 13bd ba34 b43c c0f2 f1bd
00000270: e9e1 12be f826 9ebd 6f92 53bd 9b65 1fbd
00000280: f70d d9bc 526c c93c 6b89 8c3d 6bd6 d0bc
00000290: b417 ecbc c253 f4bd ba92 33bd 012b 67bd
000002a0: 8d82 2a3c 1dbe 943c ace2 50bb 755d dc3b
000002b0: a685 abbd d317 8fbd d40f 1cbd 03f3 60bd
000002c0: 10a0 cbbd 799b 57bd 8616 57bc 41ce 75bd
000002d0: 4dec 59bb 71c8 bb3c cd00 f2bc 72c1 ec3b
000002e0: be09 893d 1ab4 97bd ad24 eebd faba dfbc
000002f0: d4cb d23c d68e fabd 7ab8 bc3b 960d 66bd
00000300: 2b66 cebd 4121 3ebd 64c5 d7bc e3b6 18bd
00000310: c8db a1bd a706 94bd dc18 4c3d eb04 3fbc
00000320: dd9b 90bd 3aec c83a d553 a7bd 32eb babd
00000330: a2bc 70bd 2408 42bd c155 dc3b f52a cabc
00000340: dc96 79bd e79c 21ba d1e3 68bd 1515 a4bd
00000350: 043b 0f3d df97 c4bc 8b75 0ebd 988b bcbd
00000360: 2637 11be 9657 afbd 87f2 213d 7368 adbc
00000370: d8d1 f8bd 4a4c bbbd ec12 c6bc 20c5 14bd
00000380: 810b 103e de77 bfbd c458 afbc 768a 313e
00000390: e12d 253c a035 86bd d5d8 03bc 0465 84bd
000003a0: fa24 ed3d 7d03 71bd ba71 1d3d 58cd 7ebb
000003b0: c502 d8bc c0e6 e03c 4386 bebd 0939 03be
000003c0: 21c2 cbbd 5a99 08bd b574 56bd 4c8d a4bd
000003d0: 14da b43c 5bb2 7dbc fae8 a7bd f61b b1bd
000003e0: f34a 84bd e03b 43bd 7ff1 e2bd 0317 42bd
000003f0: e11a 3dbd 5187 36bd 300e a6bd 60eb 6bbd

action_model._continuous_distribution.log_sigma f4 [1, 2]
0.97756857 -0.12525572
00000000: ef41 7a3f 0943 00be

action_model._continuous_distribution.mu.weight f4 [2, 256]
-0.26444337 0.04280091 -0.24145477 -0.27552062 -0.021377666 -0.30289352 -0.49757862 -0.23472671
-0.32854915 -0.17821802 -0.26422954 -0.24027385 0.09199522 -0.25121364 -0.09577774 0.14333028
-0.23093382 -0.29684833 -0.06762782 -0.036345094 -0.16384915 -0.5575202 0.00986766 -0.032682754
-0.24977705 -0.25682065 -0.30151176 0.08982333 -0.27264935 0.12973216 -0.05938728 -0.243024
0.11936618 -0.14748973 -0.22910835 -0.0018915832 -0.24457282 -0.29236016 -0.21722096 -0.23961432
-0.3590711 0.115244634 -0.04256152 -0.061761376 -0.15006039 -0.36559522 -0.21792492 -0.27481693
-0.52840024 -0.16986437 -0.38564214 0.058249395 -0.114025645 -0.13416412 -0.12773713 0.017730298
-0.18404855 -0.10170865 -0.31244475 -0.30013195 -0.23519878 -0.04678277 -0.28982562 -0.235141
-0.2267018 -0.2710151 -0.24346289 0.0050162002 -0.29953292 -0.0034511988 -0.10360122 0.04673775
-0.014526357 -0.15989627 -0.07202995 -0.25383088 -0.39669698 -0.18827246 -0.24339743 -0.3624861
-0.18741637 -0.30619007 -0.2806548 -0.23384126 0.05832657 -0.06942812 -0.15158829 0.15768524
-0.09121901 0.008961883 -0.17128956 -0.061821774 -0.37813774 -0.25766122 -0.22882955 -0.12474895
-0.39713192 -0.28874403 -0.10557384 -0.11930604 -0.31030142 -0.25746474 0.056277473 -0.20893784
0.042073037 0.1576775 -0.016744886 -0.20950852 0.26184577 -0.3067163 -0.2088561 -0.16135165
-0.08440856 0.17738521 -0.28317827 -0.25747302 -0.2827367 -0.285758 0.20167637 -0.08317727
0.03104694 -0.028122578 -0.24136488 -0.23137002 -0.073264256 -0.23059376 -0.19164732 -0.18486622
-0.27535662 -0.28738865 -0.1505952 0.25209665 -0.003388355 -0.1006778 -0.036027987 -0.2272204
-0.110798575 -0.09763472 -0.15698217 -0.14884171 -0.12861466 0.119010895 -0.11354505 -0.07966265
-0.20488629 -0.26215094 -0.2503823 -0.30778718 0.020501848 -0.09595604 -0.06545403 -0.16052109
-0.0049218866 -0.2105079 -0.05317408 -0.22321148 -0.20740563 -0.11902975 -0.25624323 -0.26969504
0.06680918 0.14641844 0.16996436 -0.0028404563 -0.041660663 -0.28906834 -0.23352796 -0.17702433
-0.0893649 -0.015186518 -0.052056525 -0.1950128 -0.21975446 -0.2733279 0.08249604 -0.029934235
-0.2764786 -0.26829574 0.098729 -0.23558891 0.22425942 -0.02967617 -0.28688663 -0.3058689
0.030823294 -0.057174057 -0.18841836 -0.1812737 0.06240926 -0.2644136 -0.01925055 -0.33157647
-0.1761874 -0.13860479 -0.19859596 -0.19582844 -0.32243583 -0.0014195519 0.09598725 -0.1106753
-0.32335323 -0.20586507 -0.26813927 -0.12038415 0.005169576 -0.2981921 0.15565333 -0.22108705
-0.2515077 -0.35624427 -0.05399622 -0.3015825 0.11546426 -0.17134696 -0.2609577 -0.42111474
-0.16968703 -0.15022148 0.13828899 -0.19730432 -0.34483412 0.011270956 -0.117985 -0.4026361
0.23562552 -0.21134037 -0.21824068 0.2834395 -0.08041217 -0.3064789 -0.036807615 -0.27362326
0.19971357 -0.38559628 -0.18435417 -0.0788952 -0.23579238 0.17304184 -0.47326666 -0.03261902
-0.20456597 -0.21851103 -0.23173013 -0.33158126 -0.23074292 -0.12192007 -0.12471627 -0.24109878
-0.43415362 -0.34792432 -0.024368446 -0.20768577 -0.4576499 -0.15849946 0.031027956 -0.33225882
00000000: 1f65 87be 0250 2f3d eb3f 77be 0a11 8dbe
00000010: 3720 afbc dc14 9bbe a0c2 febe 335c 70be
00000020: 9837 a8be c97e 36be 1849 87be 590a 76be
00000030: fd67 bc3d 139f 80be 1f27 c4bd 2cc5 123e
00000040: ea79 6cbe 81fc 97be 7480 8abd 98de 14bd
00000050: 12c8 27be a5b9 0ebf f7ab 213c 5ade 05bd
00000060: 8ec5 7fbe ff7d 83be c05f 9abe 4bf5 b73d
00000070: b298 8bbe 82d8 043e 1440 73bd 49db 78be
00000080: 4176 f43d 8c07 17be 619b 6abe 00ef f7ba
00000090: 4c71 7abe 3bb0 95be 2c6f 5ebe 755d 75be
000000a0: 2bd8 b7be 6105 ec3d fd54 2ebd 7ff9 7cbd
000000b0: 6ea9 19be 4c2f bbbe b627 5fbe ceb4 8cbe
000000c0: 3d45 07bf edf0 2dbe e372 c5be eb96 6e3d
000000d0: 4786 e9bd 5262 09be 86cd 02be 213f 913c
000000e0: 3977 3cbe a04c d0bd c2f8 9fbe e5aa 99be
000000f0: f3d7 70be 4a9f 3fbd 0664 94be cdc8 70be
00000100: 8424 68be 7ec2 8abe 564e 79be f05e a43b
00000110: 615c 99be 822d 62bb e02c d4bd 1570 3f3d
00000120: f5ff 6dbc d9bb 23be 7084 93bd 1ff6 81be
00000130: de1b cbbe 7fca 40be 2d3d 79be c797 b9be
00000140: 14ea 3fbe f2c4 9cbe fcb1 8fbe 1574 6fbe
00000150: d7e7 6e3d 5530 8ebd f639 1bbe 3d78 213e
00000160: 08d1 babd ddd4 123c 8866 2fbe d438 7dbd
00000170: 459b c1be 2cec 83be 4b52 6abe 617c ffbd
00000180: e054 cbbe 42d6 93be 1937 d8bd ba56 f4bd
00000190: d4df 9ebe 6bd2 83be 3583 663d cdf3 55be
000001a0: c754 2c3d 3676 213e 922c 89bc 6789 56be
000001b0: a610 863e eb09 9dbe 60de 55be 5e39 25be
000001c0: 65de acbd 78a4 353e befc 90be 81d3 83be
000001d0: ddc2 90be df4e 92be 4084 4e3e d858 aabd
000001e0: 2756 fe3c 5261 e6bc 5b28 77be 43ec 6cbe
000001f0: 920b 96bd c520 6cbe 323f 44be 924d 3dbe
00000200: 8bfb 8cbe 9b24 93be a135 1abe d012 813e
00000210: 2a0f 5ebb 2a30 cebd 1592 13bd 77ac 68be
00000220: 5dea e2bd b6f4 c7bd efbf 20be f669 18be
00000230: 90b3 03be fcbb f33d 4f8a e8bd 2c26 a3bd
00000240: b6cd 51be a638 86be 1c32 80be 4896 9dbe
00000250: 7ef3 a73c 9a84 c4bd c30c 86bd a45f 24be
00000260: c747 a1bb 628f 57be 10cd 59bd 8d91 64be
00000270: 2462 54be dfc5 f3bd 5032 83be 7815 8abe
00000280: 40d3 883d b7ee 153e 230b 2e3e f326 3abb
00000290: 5fa4 2abd c400 94be f421 6fbe de45 35be
000002a0: f204 b7bd e0d0 78bc 3939 55bd 6fb1 47be
000002b0: 5007 61be a2f1 8bbe aff3 a83d a438 f5bc
000002c0: 9a8e 8dbe 0f5e 89be 6e32 ca3d 383e 71be
000002d0: 43a4 653e 701b f3bc cee2 92be d99a 9cbe
000002e0: 2281 fc3c 582f 6abd bef0 40be d09f 39be
000002f0: daa0 7f3d 3861 87be 54b3 9dbc 64c4 a9be
00000300: 786a 34be 6aee 0dbe bd5c 4bbe 4087 48be
00000310: 4f16 a5be 4210 baba f794 c43d bba9 e2bd
00000320: 8e8e a5be 4bce 52be 8d49 89be f78b f6bd
00000330: 8c65 a93b a3ac 98be 9663 1f3e a564 62be
00000340: 9ec5 80be a665 b6be 242b 5dbd 0569 9abe
00000350: 8778 ec3d 9475 2fbe 3f9c 85be 5a9c d7be
00000360: 70c2 2dbe a9d3 19be a19b 0d3e 250a 4abe
00000370: 198e b0be d1a9 383c 1fa2 f1bd 5226 cebe
00000380: d147 713e 9c69 58be 7c7a 5fbe fb1e 913e
00000390: 23af a4bd cdea 9cbe 95c3 16bd 5918 8cbe
000003a0: b781 4c3e e06c c5be 57c7 3cbe ce93 a1bd
000003b0: 8f73 71be e131 313e 0250 f2be 869b 05bd
000003c0: be79 51be 5bc1 5fbe aa4a 6dbe 05c5 a9be
000003d0: df47 6cbe 3bb1 f9bd 3e6b ffbd 99e2 76be
000003e0: 6249 debe 2323 b2be 56a0 c7bc 94ab 54be
000003f0: 1651 eabe af4d 22be 572e fe3c d41d aabe

action_model._continuous_distribution.mu.bias f4 [2]
0.3400873 -0.024407424
00000000: ec1f ae3e 14f2 c7bc

action_model._discrete_distribution.branches.0.weight f4 [2, 256]
0.019444527 0.017451826 0.036884647 -0.058228362 0.053094655 0.051726807 -0.026534209 -0.06431035
0.003231405 0.047219694 0.028452158 0.0036148964 0.04344605 -0.022294559 0.0330238 0.025979554
-0.03575255 0.007974073 0.0606909 0.102587745 0.019006997 0.064841576 0.003465684 0.019080287
0.08037258 -0.049424138 -0.058727227 -0.07227009 -0.007967539 0.11108963 0.1473306 0.019856332
-0.021194877 -0.12219989 -0.016509898 -0.1074934 0.11233582 0.0019396739 0.03453294 0.0410612
-0.009075361 0.03942148 0.13406943 -0.10890674 -0.016361564 0.040935505 0.0152499005 -0.031626683
-0.043168142 -0.02726141 0.040817942 -0.027796693 0.16704378 -0.0133659355 0.1015068 -0.05763517
0.007395634 0.050178 -0.034495555 0.083453916 0.008827808 0.07810991 -0.016819159 -0.032732163
0.09096656 -0.01537973 -0.009334517 0.025523167 0.00046742556 0.03312775 -0.024440438 0.074814424
-0.06306723 0.029233279 -0.014728986 0.073853336 0.018950557 -0.097757496 -0.029512964 -0.033312935
0.11539072 0.0015413947 0.020067658 0.06288371 0.031395085 0.03099846 -0.03706445 -0.0007618335
0.05889463 -0.061553374 0.021064024 -0.038034443 0.021949604 -0.008238129 -0.051034864 -0.029920295
-0.08120249 -0.01296129 -0.020300811 0.011621276 0.04488746 0.03460516 -0.013890749 0.01986408
0.09432882 -0.00022094992 -0.025103522 0.07857805 -0.014956591 0.016071985 0.085178636 -0.024337754
-0.09005911 -0.057512373 -0.01424084 -0.16109242 -0.033713788 0.05689566 0.018217215 -0.15134776
-0.038471688 -0.0014114837 0.054136295 -0.0024991443 0.010240593 0.039366964 -0.057873543 0.025572482
0.06103968 0.05036267 0.018200424 0.018725244 0.009342398 0.07720235 -0.16009794 0.07256234
0.013978995 0.019026445 0.07959294 -0.115400866 -0.027316103 -0.008953119 0.039383557 0.034828085
0.015647061 -0.006386712 -0.056587886 -0.011588526 -0.016963344 0.0040992433 -0.026762506 -0.0136834625
0.0317049 0.0046598013 0.034387484 -0.03831421 0.11239197 0.112039484 0.037235137 -0.022772875
-0.058740247 -0.012642918 0.0033296621 -0.001874135 -0.015326976 0.027834577 0.04715132 -0.08790456
0.18079479 -0.046749517 0.038913526 -0.04187717 -0.0407164 0.023165544 0.056647178 0.024434026
-0.05004546 0.054963734 -0.00705114 0.06085549 -0.011614593 0.057930555 0.048691235 0.061808772
-0.013018409 0.05727723 0.026807187 0.0020431317 -0.08229622 -0.017239014 0.06426427 -0.0021256886
0.014812777 0.09440102 0.056911465 -0.00075334404 -0.06511088 0.08699794 0.040163066 -0.031267706
0.056039177 0.027476408 0.012108473 0.004368106 -0.04082981 0.010601602 -0.007850254 0.044244323
0.04578689 0.051095005 -0.020385185 0.012553476 0.016369544 0.0005238693 -0.041378345 -0.018746862
-0.15368576 0.008062981 0.03534189 -0.011745708 0.0419169 -0.14697759 0.036492594 0.045449127
-0.0040295357 0.08020239 0.069953635 0.0056097955 -0.18711258 0.043909322 -0.054626904 -0.08305913
-0.003351799 0.010493177 0.026666943 0.15967265 0.09862146 -0.020961806 0.054647278 0.08108114
0.044193998 -0.006735796 -0.010483832 0.03845395 -0.0022395353 0.044015612 -0.15386449 -0.048050866
0.044476967 0.049629766 0.072966844 -0.0019734052 0.068281926 0.026118537 -0.13402146 -0.027368506
00000000: 214a 9f3c 22f7 8e3c 5b14 173d dd80 6ebd
00000010: c879 593d 7ddf 533d 455e d9bc 25b5 83bd
00000020: fbc5 533b 7069 413d 8014 e93c e6e7 6c3b
00000030: 7cf4 313d 14a3 b6bc f743 073d 13d3 d43c
00000040: 4471 12bd b0a5 023c 0597 783d 8619 d23d
00000050: 90b4 9b3c a9cb 843d 8720 633b 434e 9c3c
00000060: 619a a43d f770 4abd f68b 70bd 5702 94bd
00000070: 488a 02bc f682 e33d d5dd 163e bfa9 a23c
00000080: e1a0 adbc f043 fabd c43f 87bc 8025 dcbd
00000090: 5310 e63d a83c fe3a 6972 0d3d ca2f 283d
000000a0: d3b0 14bc 6b78 213d 7f49 093e 7f0a dfbd
000000b0: b008 86bc fdab 273d b8da 793c fb8a 01bd
000000c0: 14d1 30bd 5253 dfbc b730 273d e4b5 e3bc
000000d0: 860d 2b3e ccfc 5abc cce2 cf3d db12 6cbd
000000e0: 1357 f23b 7287 4d3d 364b 0dbd e3e9 aa3d
000000f0: 83a2 103c 17f8 9f3d 55c8 89bc 2912 06bd
00000100: ad4c ba3d 43fb 7bbc cdef 18bc f615 d13c
00000110: cc10 f539 f7b0 073d 5037 c8bc 4e38 993d
00000120: 6429 81bd a17a ef3c d851 71bc 6b40 973d
00000130: 333e 9b3c 1535 c8bd 2cc5 f1bc 2573 08bd
00000140: f851 ec3d a008 ca3a ee64 a43c 2dc9 803d
00000150: 2298 003d 7bf0 fd3c e5d0 17bd c8b5 47ba
00000160: 7f3b 713d 641f 7cbd 768e ac3c 01ca 1bbd
00000170: a8cf b33c 38f9 06bc ef09 51bd 681b f5bc
00000180: 7e4d a6bd 975b 54bc e34d a6bc 2a67 3e3c
00000190: eadb 373d 24be 0d3d 0696 63bc ffb9 a23c
000001a0: 782f c13d cbae 67b9 e7a5 cdbc 87ed a03d
000001b0: 7d0c 75bc 65a9 833c 2372 ae3d f85f c7bc
000001c0: e970 b8bd 1892 6bbd 6a52 69bc 69f5 24be
000001d0: 7817 0abd 6c0b 693d 453c 953c e8fa 1abe
000001e0: 7d94 1dbd 8901 b9ba 05be 5d3d afc8 23bb
000001f0: 29c8 273c 413f 213d cf0c 6dbd 627d d13c
00000200: be04 7a3d 1649 4e3d 0e19 953c af65 993c
00000210: db10 193c 441c 9e3d b7f0 23be 909b 943d
00000220: 2808 653c 59dd 9b3c a001 a33d 4a57 ecbd
00000230: 05c6 dfbc 1ab0 12bc a750 213d e5a7 0e3d
00000240: 442e 803c a047 d1bb b3c8 67bd cddd 3dbc
00000250: b6f6 8abc f252 863b 0b3d dbbc 9a30 60bc
00000260: ffdc 013d 3fb1 983b e4d9 0c3d 5cef 1cbd
00000270: c32d e63d f574 e53d df83 183d 2e8e babc
00000280: 9d99 70bd 3e24 4fbc 7636 5a3b 89a5 f5ba
00000290: ff1d 7bbc 5705 e43c be21 413d 4e07 b4bd
000002a0: 4522 393e 6c7c 3fbd ca63 1f3d 6587 2bbd
000002b0: 3dc6 26bd abc5 bd3c df06 683d de29 c83c
000002c0: 78fc 4cbd a721 613d 400d e7bb 9b43 793d
000002d0: 224b 3ebc 9748 6d3d 7670 473d 322b 7d3d
000002e0: 2a4b 55bc 879b 6a3d bf9a db3c 10e6 053b
000002f0: ec8a a8bd d538 8dbc fc9c 833d 234f 0bbb
00000300: 4ab1 723c 5255 c13d ff1b 693d 107c 45ba
00000310: da58 85bd fa2b b23d 0782 243d 9112 00bd
00000320: 5689 653d 3416 e13c 9e62 463c 5422 8f3b
00000330: 293d 27bd 57b2 2d3c 5a9e 00bc 8939 353d
00000340: 098b 3b3d ff48 513d d5fe a6bc 18ad 4d3c
00000350: 6c19 863c 4654 093a 577c 29bd 0593 99bc
00000360: cd5f 1dbe 981a 043c a8c2 103d 1271 40bc
00000370: 0eb1 2b3d 4b81 16be 4279 153d dd28 3a3d
00000380: 320a 84bb 2741 a43d da43 8f3d 60d2 b73b
00000390: 719a 3fbe 43da 333d 76c0 5fbd e81a aabd
000003a0: dba9 5bbb 93eb 2b3c a274 da3c 3a81 233e
000003b0: 0cfa c93d 18b8 abbc d3d5 5f3d de0d a63d
000003c0: c404 353d f4b7 dcbb 61c4 2bbc e481 1d3d
000003d0: 2bc5 12bb b749 343d a78e 1dbe fcd0 44bd
000003e0: 7b2d 363d 9548 4b3d a46f 953d 3f54 01bb
000003f0: 65d7 8b3d 8bf6 d53c ec3c 09be eb33 e0bc

action_model._discrete_distribution.branches.0.bias f4 [2]
-0.024173157 0.02417317
00000000: c906 c6bc d006 c63c

action_model._discrete_distribution.branches.1.weight f4 [2, 256]
-0.0021616821 0.105970964 0.065694384 0.059528362 0.07465841 0.07230822 0.045547567 0.014404529
-0.040308937 0.01049017 -0.052570894 0.011171252 -0.004396708 0.03290883 -0.031668648 -0.15082727
-0.069049396 0.015009381 -0.009091028 0.14547426 0.012846908 0.0019678045 0.27602562 -0.029843453
0.1556925 -0.013189968 -0.025442418 -0.4501057 -0.055547897 0.09266533 -0.16905761 0.063577145
-0.012819889 -0.012519457 0.15482734 -0.044322755 -0.054468658 -0.0694569 0.02507081 0.025628833
-0.075681284 0.01684438 -0.0711974 -0.044875965 0.092537485 -0.061294857 0.057579763 -0.05254882
-0.031267636 0.1619823 0.03656327 0.17741266 -0.016390165 -0.021070242 0.04470335 0.09008308
-0.02026934 0.108835965 0.028075231 -0.00051413546 0.131204 0.07366653 -0.06832538 -0.024410544
0.069288075 0.060282804 0.119771846 -0.12607792 0.029121995 0.009408947 -0.14912385 -0.081055135
0.11182546 0.14776708 0.049813583 -0.016971003 0.012469044 0.045192108 -0.018175468 0.031984687
-0.029771749 -0.032054063 -0.06785169 0.112946264 0.18608503 0.11667985 0.0582926 -0.01018075
0.0505194 0.034178898 0.048491478 0.04053567 0.039588857 -0.029400965 0.04960725 0.013004861
-0.05723192 0.08585138 0.046191446 0.03347659 0.021022651 -0.076663844 0.0153960725 0.06991263
0.12105117 -0.028676623 0.31416422 0.014582416 -0.0025348458 -0.05709966 0.07577667 -0.029599018
0.073752046 0.10935387 -0.056492187 0.010514559 0.0339196 -0.06701046 0.14343685 0.0905214
-0.1562362 0.025716934 0.053666703 -0.024039024 0.024141252 -0.093642615 0.13103938 0.015334311
-0.066373214 0.0721962 0.14969033 0.023666212 0.016411047 0.053121086 -0.0865034 0.1230379
0.07703098 -0.14518471 0.10474926 0.10364287 -0.05796432 0.12458088 0.15453076 0.013124468
0.086366884 0.036756825 0.16085644 0.08994018 -0.0061079836 0.031100964 0.18775816 0.042687476
-0.07700979 0.007771936 -0.048956968 -0.08660633 0.024026886 -0.015602216 0.00033127906 0.046364833
0.0040051946 0.007871656 0.0031854147 0.0049325824 -0.066134535 -0.032168955 -0.121378094 -0.035239283
-0.02044431 0.086591914 0.112632535 0.008043825 0.044971768 -0.02578389 0.014958692 0.022181118
0.045870703 -0.097489275 0.13091315 0.03699076 0.045927513 -0.09591601 -0.08706832 -0.0652189
0.025284646 0.053599745 0.036714368 0.124895625 -0.004965407 0.07868619 -0.11197908 -0.0037059365
-0.010294546 0.15829042 0.0654973 -0.021470077 0.010081178 -0.059362266 0.20025167 0.06785964
-0.011612252 0.074252516 0.028606111 0.020546183 -0.03450144 0.02102867 0.16465442 -0.058663085
-0.025731666 0.11079621 0.12885019 -0.05176353 -0.31146678 0.09085888 0.037035123 0.041232675
-0.06295359 0.008379995 -0.017832337 0.07600618 -0.05751005 0.13043407 0.095439024 -0.020543318
0.007962047 -0.11829403 -0.13497776 0.03261371 -0.013710756 -0.02865206 -0.05725186 -0.079182535
-0.016976487 -0.016334966 0.012708551 0.07369771 -0.038788952 0.015403819 -0.07767497 0.014823158
0.054414254 0.04390991 -0.04474103 -0.061433062 0.012029093 -0.077989615 0.09197688 -0.12322713
-0.03271118 0.003555088 0.03939499 -0.04519657 -0.009419979 0.011109189 -0.0015216795 -0.0910719
00000000: 02ab 0dbb 4e07 d93d c78a 863d 03d4 733d
00000010: 82e6 983d 5516 943d 1690 3a3d f900 6c3c
00000020: fc1a 25bd f6de 2b3c 9454 57bd a007 373c
00000030: 4312 90bb 69cb 063d fcb6 01bd 7772 1abe
00000040: c569 8dbd e8e9 753c 89f2 14bc 34f7 143e
00000050: d67b 523c 48f6 003b 3b53 8d3e 427a f4bc
00000060: db6d 1f3e bc1a 58bc 9e6c d0bc 4174 e6be
00000070: 3186 63bd 52c7 bd3d 701d 2dbe bc34 823d
00000080: 830a 52bc 691e 4dbc 0f8b 1e3e c78b 35bd
00000090: 871a 5fbd 6b3f 8ebd 4d61 cd3c 8ff3 d13c
000000a0: cafe 9abd 3afd 893c f1cf 91bd dccf 37bd
000000b0: 4b84 bd3d 5110 7bbd c2d8 6b3d 6e3d 57bd
000000c0: 7e12 00bd b0de 253e 5ec3 153d aaab 353e
000000d0: ab44 86bc 809b acbc dc1a 373d 7a7d b83d
000000e0: e30b a6bc 64e5 de3d 07fe e53c 0cc7 06ba
000000f0: 575a 063e 7ade 963d 2dee 8bbd 9ff8 c7bc
00000100: e8e6 8d3d 1aeb 763d f14a f53d 921a 01be
00000110: 4091 ee3c fc27 1a3c ecb3 18be 3c00 a6bd
00000120: bf04 e53d 4150 173e 5409 4c3d c606 8bbc
00000130: f64a 4c3c 5c1b 393d b8e4 94bc 6002 033d
00000140: e2e3 f3bc 1f4b 03bd d4f5 8abd 5f50 e73d
00000150: 138d 3e3e d8f5 ee3d 39c4 6e3d 29cd 26bc
00000160: 6eed 4e3d 2cff 0b3d 009f 463d bb08 263d
00000170: ed27 223d 4bda f0bc f930 4b3d 5712 553c
00000180: 056c 6abd d9d2 af3d 3e33 3d3d c01e 093d
00000190: b237 ac3c ef01 9dbd cf3f 7c3c 5a2e 8f3d
000001a0: ade9 f73d 3deb eabc 22da a03e 16eb 6e3c
000001b0: a81f 26bb 55e1 69bd cc30 9b3d a479 f2bc
000001c0: 500b 973d ecf4 df3d 5a64 67bd 4245 2c3c
000001d0: 47ef 0a3d c83c 89bd 1ce1 123e 4963 b93d
000001e0: 62fc 1fbe 52ac d23c 9ed1 5b3d 7ded c4bc
000001f0: e0c3 c53c b3c7 bfbd 302f 063e c33c 7b3c
00000200: aeee 87bd 9adb 933d 6c48 193e a5df c13c
00000210: 7670 863c 7f95 593d b228 b1bd 4bfb fb3d
00000220: 6bc2 9d3d 4dab 14be c886 d63d b742 d43d
00000230: ff6b 6dbd 4324 ff3d 503d 1e3e 0208 573c
00000240: 1fe1 b03d 538e 163d 8db7 243e 8f32 b83d
00000250: 7b25 c8bb 73c7 fe3c ad43 403e 10d9 2e3d
00000260: 4fb7 9dbd b9ab fe3b 1a87 48bd a95e b1bd
00000270: 08d4 c43c 70a0 7fbc 86af ad39 0de9 3d3d
00000280: 023e 833b 1ef8 003c 64c2 503b 80a1 a13b
00000290: 8b71 87bd 98c3 03bd 1495 f8bd 1157 10bd
000002a0: d37a a7bc 1a57 b13d e3ab e63d 3fca 033c
000002b0: 5134 383d bd38 d3bc 4d15 753c 2db5 b53c
000002c0: ebe2 3b3d 75a8 c7bd 190e 063e a083 173d
000002d0: 7d1e 3c3d 9d6f c4bd e050 b2bd 7d91 85bd
000002e0: bf21 cf3c 688b 5b3d ce61 163d 47c9 ff3d
000002f0: dab4 a2bb 3a26 a13d 4a55 e5bd 4cdf 72bb
00000300: 75aa 28bc e216 223e 7323 863d 04e2 afbc
00000310: 862b 253c d925 73bd c60e 4d3e fff9 8a3d
00000320: 5141 3ebc b411 983d 5d57 ea3c 7850 a83c
00000330: 6251 0dbd 5144 ac3c 2b9b 283e b448 70bd
00000340: 37cb d2bc 20e9 e23d 4ef1 033e ff05 54bd
00000350: 9378 9fbe 3814 ba3d 24b2 173d 98e3 283d
00000360: d0ed 80bd 3f4c 093c 1f15 92bc 21a9 9b3d
00000370: a88f 6bbd 8290 053e 8975 c33d 764a a8bc
00000380: 3f73 023c 2444 f2bd 9c37 0abe f495 053d
00000390: 14a3 60bc bab7 eabc ed80 6abd 742a a2bd
000003a0: 4612 8bbc e8d0 85bc 8737 503c d3ee 963d
000003b0: 2ae1 1ebd 4d60 7c3c 0e14 9fbd d5dc 723c
000003c0: 7be1 5e3d e1da 333d 5f42 37bd 3ca1 7bbd
000003d0: ac15 453c 05b9 9fbd 605e bc3d 815e fcbd
000003e0: 29fc 05bd 7bfc 683b a45c 213d 0a20 39bd
000003f0: 4156 1abc 5103 363c 1773 c7ba e883 babd

action_model._discrete_distribution.branches.1.bias f4 [2]
0.011808198 -0.01180811
00000000: 2c77 413c ce76 41bc
